results/ZaraReinInteraction/ZARAgoalInteract/ZARAgoalInteract-8270.onnx (onnx, 341604 bytes, 15 tensors)

discrete_act_size_vector f4 [1, 2]
00000000: 0000 0040 0000 4040
2.0 3.0

network_body.observation_encoder.processors.0.conv_layers.0.weight f4 [16, 5, 8, 8]
00000000: b78c 08bd bbe2 573d 642b d53c c0c6 b339
00000010: a37e 1bbd 9bb7 1fbd 6da9 1d3d 66bd 0b3d
00000020: 629a 1dbd 763e 43bd 6f1c 473d 331e 003a
00000030: b182 96bb c40f 04bd 653b 453d 2918 3fbd
00000040: 0028 673c b0d7 0cbd e2f9 06bd 6dc5 58bd
00000050: 0193 883c 8265 9c3c bde2 52bd c6b8 233c
00000060: b3c0 98bc d1c1 c2bc 0faf e63b c84b e8bc
00000070: 8e29 86bb 2ff8 5b3d fd4e 52bd d4b8 76bc
00000080: e820 91bc 56ae 9dbb 3d65 4ebd 2886 613c
00000090: 25dd 08bd 3eca d1bc d830 c7bc 43ac 0e3d
000000a0: 6a78 383c 4f0a 3d3d 1973 2bbd 0745 93bb
000000b0: afcf 7abc 1bf8 ed3a 963d 403d a2a4 99bb
000000c0: 282a dabc 9fb1 d93c fc90 483c 3f16 e4bc
000000d0: 3eee 3a3d da5c b7bc 449b 643b 6269 69bb
000000e0: 9b67 2ebd 60ad 1f3d d512 70bb 9e91 bbbc
000000f0: 80a8 4d3d 29ce 45bd ca29 493d 303d 29bc
00000100: 78df 3fbc 014c 95bc caab 21bd c840 513c
00000110: a5a7 3d3d ebf4 10bc 75f7 16bc 8aa5 2b3d
00000120: 165a 333d efcc 093c 25c9 513d a5d4 8739
00000130: 2710 2dbc 441a 063c 7cdb 20bc 97ae 4b3d
00000140: 73f6 61bc d1c3 ff3c 1853 c4ba 9029 373b
00000150: 8893 1cbb 113b abbc d220 c9ba 39ee 083c
00000160: 1164 0bbc 1b91 be3c adfa 1abd 6659 64bc
00000170: 2200 dabc 67ee c0bc 4d2f 4fbd 296f a83c
00000180: f6a0 20bd 6246 f638 032d 1ebb 3b63 5cbd
00000190: c92d d63b 44b8 023c 6c89 e63c 44fe 973c
000001a0: 9606 323d 9652 493d 539b e5bc 7e02 493d
000001b0: 1b49 ce3b 314c dc3c 703e f23b b6ea 00bd
000001c0: edef c53b 0e31 473c 7291 83b9 7a11 c7bc
000001d0: 9687 3e3d bbb3 0fbd 90d9 d3bc 7946 febc
000001e0: c450 cf3c c5b4 583d ab89 b53c e4b5 91bc
000001f0: 9e06 febc aa46 f5bc 8664 10bc 15c7 1dbd
00000200: 43c1 213d 3d07 0a3a aaca 4d3d 44e7 f43b
00000210: 0641 1cbd be11 3c3d ce4a 4ebd f979 f13c
00000220: 7db6 15bd 1b56 e2bc 4222 49bc f30b 243d
00000230: 87bb a33c ab3c 313c 2ac1 263c 988d 62bc
00000240: 74a4 543d e33e ec3c cd25 353d b74c 58bc
00000250: e5ae 233d f7d0 273d 54dc 943c 6b5f f5bc
00000260: 7e67 c6bc 5ac3 d73c 8fe6 8abc 3a5e c8bb
00000270: acb9 623c d2ec d23c ae71 8c3b 666a adbc
00000280: d038 7e3c c1c3 a13b 3241 983c 088f bebc
00000290: a490 26bb 5cd3 f2bc 6b92 f6bc d584 883c
000002a0: 35b1 e5bc 877f 923c 484d 173d 7d6d b33c
000002b0: 1daa ccbc 3ff6 e5bb ca00 4dbd 8691 3d3d
000002c0: 00cf fa3c fbfb 16bd 9c9b 0d3d f960 e7bc
000002d0: 9ec2 f23c a5a3 61bc dab0 e838 7b1f 2d3c
000002e0: 2f4e 183d 56eb 393d babb febc 42cf e63c
000002f0: eee5 523d b8fa 2fbc 9824 083d d3b8 37bc
00000300: c567 fd3c c7d7 963b a354 9abb 80ad 63bc
00000310: e517 33bd be3a 123c e868 8dbb 24cb 96ba
00000320: 5404 0a3d aad3 53bd 7b7a d63b 5f21 74bc
00000330: ab5b 0cbd 56d8 09bd e0cb 1a3c 38fa f63c
00000340: 915c 8e3c 4926 07bd e192 19bd d267 053d
00000350: c2de 4dbd 7e63 a4bc 5ccc 003c 7ec1 03bd
00000360: 3290 273d 638a 25bd 46f5 b2bc 123c 3abd
00000370: d40e 123d 4ef6 4dbd a6a5 89bc ec71 cb3c
00000380: 64da fcbc da5a 043d b44c b4bc 03af 10bd
00000390: f289 0bbd 6e74 11bd cd1f 063d 5755 e83b
000003a0: 7d38 3f3d 7758 e6bc 733d 7c3c a9f8 1e3b
000003b0: 9117 43bd 7797 fb3c 9748 d73c 89c8 de3c
000003c0: e957 763c fb1c 0ebc 8d8b 183d 33aa 4b3c
000003d0: 0037 17bd 3407 55bd 61eb ffbc c55d a63c
000003e0: c06b a5bc 5bbf 933c 89ec 15bd 6747 3c3d
000003f0: 851e 07bb 12d8 6bbb b59a 653c 3c4f 163c
-0.03333732 0.05270646 0.026021667 0.0003428962 -0.037962567 -0.03899346 0.038491655 0.03411617
-0.03847731 -0.04766699 0.0486111 0.00048873125 -0.0045932163 -0.032241598 0.048152346 -0.0466539
0.014108658 -0.034385383 -0.03295315 -0.052922655 0.01667166 0.019091371 -0.051485766 0.009992784
-0.018646574 -0.02377406 0.0070399116 -0.028356448 -0.004094309 0.053703483 -0.05134486 -0.015058715
-0.017715886 -0.004812042 -0.050389517 0.0137648955 -0.033414025 -0.025609132 -0.024315283 0.03483225
0.011259178 0.04615241 -0.041857813 -0.0044943127 -0.015308305 0.0018155606 0.046933733 -0.004688815
-0.02663143 0.026573954 0.012241598 -0.027842639 0.04563736 -0.022383142 0.0034882585 -0.0035615792
-0.042579275 0.038983703 -0.0036632319 -0.022896584 0.050209522 -0.048292313 0.04911212 -0.01032953
-0.011710994 -0.018224718 -0.03947047 0.012771793 0.046302456 -0.0088474555 -0.009214272 0.041905917
0.043787085 0.008410676 0.051217217 0.0002590764 -0.010562933 0.008184973 -0.009817954 0.04972705
-0.013791668 0.031221302 -0.0014978377 0.0027948357 -0.0023891646 -0.020902188 -0.0015344864 0.008357578
-0.008507744 0.023262551 -0.03783672 -0.01393733 -0.026611391 -0.02355118 -0.05058222 0.020560818
-0.039216004 0.00011743304 -0.0024135716 -0.05380557 0.0065362197 0.007978503 0.0281417 0.01855386
0.043463312 0.049151026 -0.028028166 0.049074642 0.006295336 0.0268918 0.007392697 -0.031473838
0.0060405643 0.012157692 -0.00025094632 -0.024300326 0.046516024 -0.035083514 -0.025860578 -0.031039463
0.025307067 0.05290677 0.022160372 -0.017786928 -0.031009015 -0.029940922 -0.008813029 -0.038519938
0.03949095 0.0005265361 0.050242104 0.007473858 -0.03814795 0.045915358 -0.050364308 0.029477106
-0.036550988 -0.027628949 -0.012276234 0.04005046 0.019986881 0.010817687 0.01017789 -0.013827704
0.051914647 0.02883858 0.044225503 -0.013201884 0.039961714 0.04097077 0.018171467 -0.029952725
-0.02421927 0.026338268 -0.016955642 -0.0061147483 0.013838213 0.02574769 0.0042860126 -0.021168899
0.015516475 0.0049366658 0.018585775 -0.023261562 -0.0025415802 -0.0296418 -0.030099114 0.016664902
-0.0280386 0.017883075 0.036938936 0.021902794 -0.02498346 -0.00701788 -0.05004958 0.04628136
0.030616283 -0.0368614 0.03457223 -0.028244482 0.029633816 -0.013771926 0.00011095563 0.010566588
0.037183937 0.04539045 -0.031095374 0.028175 0.05148881 -0.010740928 0.033238024 -0.011213499
0.03093327 0.0046033594 -0.0047097965 -0.013896346 -0.04372396 0.008925138 -0.0043154843 -0.0011504632
0.033695534 -0.05171553 0.0065453625 -0.014900534 -0.03426711 -0.03365358 0.009448022 0.03014861
0.017378123 -0.032995496 -0.03749359 0.032569714 -0.050261267 -0.020066973 0.007861223 -0.03216695
0.040909 -0.04041518 -0.021845471 -0.045467444 0.035658672 -0.050283723 -0.01680262 0.024834596
-0.030865856 0.032313205 -0.022009231 -0.035323154 -0.0340671 -0.035511427 0.03274517 0.0070902514
0.04668473 -0.028118355 0.01539551 0.00242571 -0.047629897 0.030711873 0.02627973 0.027195232
0.015035608 -0.008673902 0.03724246 0.012430715 -0.036917686 -0.052008823 -0.031240167 0.020308385
-0.02019298 0.018035581 -0.03660253 0.045966532 -0.0020617556 -0.0035986942 0.014013936 0.009174164

network_body.observation_encoder.processors.0.conv_layers.0.bias f4 [16]
00000000: 2748 d43c 15b5 003d b08b 34bd 74f2 53bc
00000010: 2e50 56bd 035c 00bc 3d66 d23b 6033 40bc
00000020: afe5 90b8 229a 1b3d 729a 41bd fb1c 4b3d
00000030: 21d5 32bd e615 813b 8752 213c fe8d 023d
0.025913311 0.031422693 -0.04407853 -0.012936223 -0.05232256 -0.007834437 0.006420879 -0.011730999
-6.909237e-05 0.03798879 -0.04726643 0.049588185 -0.043660287 0.003939378 0.009846336 0.031873696

network_body.observation_encoder.processors.0.conv_layers.2.weight f4 [32, 16, 4, 4]
00000000: a097 3e3b 5072 3bbc 08f3 20bc 000a 683b
00000010: 76f5 36bd ea46 4a3d e802 03bd 38f8 763d
00000020: 7013 84bc e2a3 a0bc cc7a eb3c 8092 683c
00000030: 2ee2 683d 088d a4bb 6eab 223d 2847 41bc
00000040: 3416 f83c 7a40 4d3d 290b 4cbd 30ae fc3c
00000050: 1698 4c3d cc37 27bc 1c98 f4bc dec4 d0bc
00000060: f80f 003c 7e95 363d 94a1 f63c 862c 2a3d
00000070: 485d 3bbd e4e6 0bbd be0c 4b3d 22eb 28bd
00000080: ee98 e7bc 6897 57bd 7c20 003d 5ca2 f03c
00000090: cf72 29bd d4aa 8e3c 6dbb 67bd c475 47bc
000000a0: 5e96 3c3d d006 ec3b b4d6 35bc 287c eabb
000000b0: 0438 71bd d0aa 77bb 785e 783c 541b 3a3d
000000c0: c049 973c 0c6e aa3c 7880 573c be79 573d
000000d0: 6a9f 583d b48e 9d3c 80b9 353a 22c3 723d
000000e0: c81d 043c 30ac e3bb ccd3 45bd 1937 5dbd
000000f0: 202e 453d c6f0 0bbd 981f 703d 54ce d73c
00000100: cc82 213d 05c7 08bd 7069 493c d404 d7bc
00000110: 70d1 713c 104f ed3b 0c61 62bd 6f23 0bbd
00000120: 2a4d e5bc 7e2c 703d d26f 7abd 1fde 5ebd
00000130: 007a f73c 2acf 89bc 70b5 1e3d 4cea a63c
00000140: 3434 6e3d 8034 763a 446b 1f3d 00a6 da39
00000150: bc91 c23c 38e3 883c d087 45bd 32bb 5b3d
00000160: 8477 45bc 2cdb e23c 84f4 6d3d 8c97 683d
00000170: 063c 1fbd c6d2 a5bc f84e aa3c 5086 463c
00000180: fea6 223d 30c2 23bc 5239 643d fea6 7b3d
00000190: 704a 84bc 7007 59bd 1cb8 813c 0081 ca39
000001a0: 04bb d43c fe3a 183d 4d4d 6dbd 2022 813c
000001b0: 0c91 ce3c f602 093d d842 90bc b2e1 24bd
000001c0: 8831 e53c d0b3 c43b 30ec dc3c 4cc8 5fbd
000001d0: d09e 21bb b469 72bd b8ce 883c f28b 663d
000001e0: 3017 e83c 8e62 643d d028 bc3b e05a 8a3c
000001f0: 64a3 b53c 98b9 6d3c 5297 9cbc d811 be3c
00000200: 28ce 70bd d830 993c c853 07bd d81a e53c
00000210: 3ce4 32bc 3029 cdbc da16 1b3d 8878 713d
00000220: 1c87 eabc cae8 593d 441c 853c fa48 3fbd
00000230: 1eb6 1b3d 4ccf 3fbd 5a88 54bd 6cb4 603d
00000240: ec2c 9a3c 483f 753c 2444 f63c a08b 1bbc
00000250: 40b2 663c 8c37 57bd 3899 263c 06d6 51bd
00000260: 9048 f83b 6599 34bd b48c bbbc 008c 91b9
00000270: 942e 563d ca56 233d d637 6b3d 009c 5d3a
00000280: 9c98 21bd c053 e73a 5830 383d 94b4 ed3c
00000290: 2ea8 4fbd d201 283d 1622 713d ec8f a6bc
000002a0: 880e b43c 66a4 aabc 38aa c23c 8600 62bd
000002b0: 6a34 753d 327b 4b3d f0fa 263c 2e6b c6bc
000002c0: 4487 c03c 48ff a93c e0f5 5abb 1859 debb
000002d0: 5876 a13c 80d9 4d3c 64f4 cabc fe53 73bd
000002e0: e46b e33c b680 233d 3a14 6abd 1c99 313d
000002f0: 6ecb 62bd 8039 713a eab6 a9bc d4f7 8c3c
00000300: 1a46 02bd 1422 3bbd bebd 7a3d 8ee2 b4bc
00000310: 584d 553d 3ce5 f13c 0c93 a03c 9dd0 44bd
00000320: f414 b5bc 7ea3 7c3d a058 db3c c090 863a
00000330: c0c7 81ba 8827 433c 4319 63bd 826c 1e3d
00000340: e693 403d f029 e13b 18e9 f9bc 6431 f03c
00000350: 3886 f53c b86f 0a3c 0861 363d 9e68 d9bc
00000360: 4037 6c3b f4b1 163d d8e3 bcbc 08bb 753c
00000370: 12dc f1bc 4c81 fb3c a43d c03c 9274 17bd
00000380: a860 803c 10d6 3b3c 768b 5e3d 0080 3439
00000390: 4442 3abd b665 21bd 7ce6 09bd a0f7 2ebd
000003a0: ba65 41bd a5b3 2dbd 8a5a 5e3d a4de 853c
000003b0: 0bc8 32bd a872 7dbd f44e 543d 40bd 753d
000003c0: 0d8e 55bd f890 ad3c e035 acbb d465 9a3c
000003d0: b213 553d 3c48 e93c f41f 9cbc e070 183b
000003e0: 801f deba 4a14 cdbc 4cff 423d 8a17 52bd
000003f0: c0a6 31ba b057 a1bb 33dc 02bd 6052 fd3b
0.0029082075 -0.011440828 -0.009823568 0.003540635 -0.044667684 0.049384035 -0.031985193 0.060295314
-0.01612255 -0.019609395 0.028745078 0.014195085 0.056856327 -0.005021695 0.03971427 -0.01179675
0.030284025 0.050110318 -0.04981533 0.030844778 0.049949728 -0.010206174 -0.029857688 -0.025484499
0.007816307 0.04457616 0.030106343 0.041546367 -0.045743257 -0.03415574 0.0495727 -0.041239865
-0.028271165 -0.052634627 0.03128098 0.029374294 -0.041369256 0.017415442 -0.056575228 -0.012174074
0.04604184 0.0072029606 -0.0110985525 -0.007155914 -0.05889131 -0.0037791021 0.015159242 0.04543622
0.018467784 0.020804428 0.013153188 0.052606337 0.052886404 0.019233085 0.00069322437 0.059268124
0.008063741 -0.0069480166 -0.04829769 -0.054007623 0.04813969 -0.034165166 0.05862388 0.026343502
0.03943138 -0.033392925 0.012293205 -0.02624742 0.014759406 0.007242091 -0.055268332 -0.03396934
-0.027990896 0.05863618 -0.061141796 -0.05441105 0.030209541 -0.016822416 0.03874725 0.020375393
0.058155254 0.00093919784 0.038920656 0.0004170388 0.023751132 0.016709909 -0.048225224 0.05364532
-0.0120524205 0.0276924 0.058094516 0.05678515 -0.038875602 -0.020242106 0.020789608 0.0121169835
0.039710037 -0.009995028 0.055718727 0.061438553 -0.016148776 -0.05298561 0.01583486 0.00038624555
0.025968082 0.037165634 -0.057935048 0.015763342 0.025215648 0.03345009 -0.017609999 -0.040254302
0.02797772 0.0060028806 0.026968092 -0.054634377 -0.002466131 -0.059182838 0.016700134 0.056285806
0.02833137 0.05575805 0.00574217 0.016889036 0.022172637 0.014509581 -0.019115124 0.023201868
-0.058790356 0.018700048 -0.033038884 0.027966902 -0.010918673 -0.025044054 0.03786359 0.05895284
-0.028628878 0.05320052 0.01624883 -0.046700455 0.038015477 -0.046828553 -0.051887847 0.054859564
0.018820249 0.014968701 0.030061789 -0.009493738 0.014080584 -0.052543208 0.010168366 -0.0512295
0.0075770095 -0.0440916 -0.02289424 -0.00027760863 0.052290514 0.03987769 0.057426296 0.0008453727
-0.03945218 0.0017648861 0.04496798 0.02901677 -0.050697498 0.04101736 0.058870398 -0.0203323
0.021979585 -0.020830344 0.023762807 -0.05517628 0.05986444 0.049678035 0.010191664 -0.02422103
0.023502 0.02075161 -0.0033410713 -0.006785523 0.019709751 0.012564063 -0.024774738 -0.059406273
0.027761407 0.03991767 -0.057148196 0.043358907 -0.055369787 0.00092019886 -0.020717103 0.017208017
-0.031805135 -0.045686796 0.06121611 -0.022080686 0.052075714 0.029528253 0.019601367 -0.04805051
-0.022104718 0.061679356 0.026775658 0.0010266528 -0.0009901449 0.01191128 -0.055444013 0.0386777
0.047016047 0.0068714544 -0.030506656 0.029320426 0.029971227 0.008449487 0.04452613 -0.026539143
0.0036043674 0.036790803 -0.023057863 0.014998205 -0.029523883 0.030701302 0.023466893 -0.036976404
0.01567109 0.011464611 0.05433222 0.00017213821 -0.045473352 -0.03940364 -0.033667073 -0.042716622
-0.047216155 -0.04240765 0.054285564 0.016341515 -0.043647807 -0.061876923 0.051833108 0.059994936
-0.052137423 0.02118729 -0.005255446 0.018847384 0.052020736 0.028476827 -0.019058205 0.0023260638
-0.0016946644 -0.025034089 0.04760675 -0.05129198 -0.0006776862 -0.0049237832 -0.03194828 0.007730767

network_body.observation_encoder.processors.0.conv_layers.2.bias f4 [32]
00000000: 9e4a fbbc dc18 55bc c096 253d fc50 e93c
00000010: 804b 6d3c b0cf d3bb 38fe e23c 9c1a a13c
00000020: e087 b7ba 0cd9 763d a987 5dbd 2891 493d
00000030: bc83 8ebc 70fe 393c 20a3 8dbb f8f4 713d
00000040: 7a58 e4bc b4de 683d 807f a23a 9e12 703d
00000050: 90ae 013d 8298 303d 600c 3c3c e0e9 38bd
00000060: e47d 453d 4033 76bd 682d 3d3c 6e95 f4bc
00000070: 606b 83bb be20 1cbd 986c debc a4c5 543d
-0.030675229 -0.013006415 0.04042697 0.028481 0.014483333 -0.0064639673 0.027709112 0.019666009
-0.0014002286 0.060265586 -0.054084454 0.049210697 -0.0173968 0.0113521665 -0.0043224245 0.05907151
-0.02787422 0.05685301 0.0012397617 0.058611505 0.031660616 0.043114193 0.01147756 -0.045144916
0.04821576 -0.06010747 0.01154647 -0.02985641 -0.004010603 -0.038117163 -0.02715139 0.051946297

network_body.observation_encoder.processors.0.dense.0.weight f4 [128, 32]
00000000: 13bc a23e a679 8cbc 475c d0be 216f 9cbc
00000010: fcac 1b3e 63e2 c73e 2000 dabd c52c f8be
00000020: baab 20bc d3e1 61be 75dc 6bbe ed43 88bd
00000030: d76a 113f 9c97 80be bb2c 45be dd59 ea3e
00000040: fa32 7bbe 7403 823d d7c9 5fbe f750 4e3e
00000050: ca1d 493e 9b84 3b3e 506e f6be 8193 1c3e
00000060: 0510 debd 4a89 5d3e 4a12 053e 65d1 5a3e
00000070: b16e d9be 0931 b23d 14c5 c9be 6385 59be
00000080: 0d77 273d 8e6f 73be 7708 8ebe d6b8 c03e
00000090: e9f4 c4be cab0 903e 75fc 4d3e 2264 b83d
000000a0: 14d4 fe3e dcde 683e 8556 9bbe d502 943e
000000b0: 4871 ca3d dba8 c53d 8999 26bc 3eff 03be
000000c0: fb7a be3d e41b b13e 2ab2 8b3d 7e29 6fbd
000000d0: 064c 393e 0cdb f03d 4e7c 25bf 26da b6be
000000e0: 93b8 92be e2cf aa3e 5761 193d ee29 b6be
000000f0: f314 2b3f 825d 563d ff65 613f 8c6c c93d
00000100: 265c c33c b89b 8a3e 302d d4be 022b 473d
00000110: d424 ed3d 0874 393d 1ebc d33c 71ad 20be
00000120: d4ab c6be b53f 0e3f a4fa 513e 8132 233f
00000130: 02e6 b5bd cade b73d 6e5b 94be b373 303e
00000140: 290c 843e ad72 22bc dfbc 4a3e 528f b63e
00000150: 9716 2abe 5977 5cbe 5a3e b9bc 3e2d 383d
00000160: 27ab 5dbe e159 bcbb 3519 8dbe 50c7 1b3e
00000170: e9f7 053e 22f0 843d 8386 91bd 9f67 203d
00000180: 40f3 9ebe 376f 0d3e eb9b 12bf 192e 1c3e
00000190: f6c2 0dbe 1531 023e c829 a83d ce20 d9bd
000001a0: a4e5 80be af04 4fbe d563 61be c7e5 38be
000001b0: aa18 7e3c db10 0e3d 6c85 f83d 2c9f 14be
000001c0: be9d 9ebe 5cc8 73be 8074 273d d141 94bd
000001d0: 66cf 0abe 28ea b7bb 84a1 57be 8fa0 33be
000001e0: 9786 c6bd 371d c3bd 6a73 d2bd f8ca 933e
000001f0: f739 e93c 507f 993e 7a33 38be 65a3 b93e
00000200: 7a39 e43e e36d 97be 7248 d23c c64b b13c
00000210: 4484 aabc f639 823e 3cd3 8b3e d6ea 113c
00000220: 4858 843d 09dc 8bbd dd75 063e 127f 2dbd
00000230: 7f4b 703e ebef e6bd 9a5c e0bd 94d1 a3be
00000240: d87c c2be 9976 b2be 65b6 a3be 15ad 4dbe
00000250: ccee c83e 339d 9fbe bd99 a33e e482 1e3e
00000260: 64c9 ab3e a4e2 a0be f1ca babd 1ed9 543d
00000270: 0338 663c 9daf d73e a97b 0e3e 1ad8 b53d
00000280: 92fe 053f 2537 7fbd 7f1d 93bd 1437 90be
00000290: a0ce 27bc 32b4 95bb 08c6 9bbd 7e3c cfbd
000002a0: 2933 923e 2758 1ebd be71 40bc fa3b dd3d
000002b0: 36a7 dd3d 30b9 abbd f4bb 203e c5c3 e6be
000002c0: 6e99 30bc 7598 f03e 762d 893e 7c43 febd
000002d0: f53b 023f df76 a33b 85e0 113d d126 ff3d
000002e0: a105 58be 18da a33d 9b50 7e3e edd2 fe3c
000002f0: 9a8a 1d3f 6e4e 163e 4ab1 a6be a5af 34be
00000300: 84b3 f53c e958 913e 7dba 913e 0b2c 7abe
00000310: 4d66 c93e 5937 81be e529 c5be e92f 883e
00000320: be91 923d 4969 333b 8303 b93d 732e 723e
00000330: 105f 2bbd 3472 0fbd fd62 183e da50 c7bd
00000340: 8450 fc3e ad3e 223c 63a4 e83d 8737 453d
00000350: aa6e 633e 15e8 1f3e 69de f3be 9a1b dabe
00000360: ae90 883d 0b2c dc3e dcd7 943e 1140 92be
00000370: 548a ddbe a7b1 3ebd 0354 313e a7d0 4bbe
00000380: 8898 76be 80ff 3cbc e3c2 e83d d227 eabc
00000390: 9d26 53be d312 aebe 4f05 73be a233 c1be
000003a0: d53c 863d 2a55 d6bd be04 2a3c d064 1b3d
000003b0: f47e 9dbd b432 5ebc 6b8c ddbe 2602 543e
000003c0: 9ca0 92be 54c4 babe 759e edbe bcdb 8bbc
000003d0: 9bd7 93be 6d60 ba3d a727 db3c 2bab c63d
000003e0: 3262 a3be 4d00 f1bd c41d 16bd ec3b 7fbe
000003f0: dc57 8cbd 5988 d13e a696 10be 18f6 64be
0.31784114 -0.01714785 -0.40695402 -0.01909596 0.15202707 0.39039907 -0.10644555 -0.48471656
-0.009806568 -0.22058801 -0.23033316 -0.06653581 0.5680365 -0.2511567 -0.19255345 0.45771685
-0.24531165 0.06348315 -0.2185434 0.20148073 0.1964027 0.18312304 -0.48131037 0.15290643
-0.10842899 0.21634403 0.12995258 0.2136894 -0.42467263 0.08700759 -0.3940817 -0.21242289
0.04088502 -0.23773023 -0.27740833 0.3764102 -0.38468102 0.2825988 0.20115836 0.09003474
0.49771178 0.22741264 -0.30339447 0.2890841 0.09884888 0.09651347 -0.010168442 -0.12890336
0.093008004 0.3459159 0.068210915 -0.05838918 0.18095407 0.1176053 -0.646428 -0.3571331
-0.28656444 0.33361727 0.037446346 -0.35578865 0.6682884 0.05233527 0.8804626 0.09835157
0.02384765 0.2707193 -0.41440725 0.048625 0.1157929 0.04527667 0.025846537 -0.15691163
-0.3880297 0.5556596 0.20505768 0.6374894 -0.08881761 0.089780405 -0.28976005 0.17231636
0.25790527 -0.009915036 0.19798611 0.3565622 -0.1661018 -0.21529903 -0.02261274 0.04496502
-0.2164732 -0.005748019 -0.27558294 0.1521275 0.13082851 0.06491114 -0.07105734 0.03916132
-0.3104496 0.13811956 -0.5726916 0.1525196 -0.13843903 0.12714036 0.08211094 -0.1060196
-0.25175202 -0.2021663 -0.22010739 -0.18056403 0.01550881 0.034684043 0.12134823 -0.14513844
-0.30979723 -0.238069 0.040882587 -0.07239116 -0.13555679 -0.0056126304 -0.21057707 -0.17541717
-0.0969364 -0.09527057 -0.1027592 0.2886579 0.028470023 0.29979944 -0.17988387 0.36257473
0.445751 -0.29576024 0.02566931 0.021642577 -0.020815022 0.25434846 0.27309597 0.008906087
0.06462151 -0.06829078 0.13130899 -0.04235751 0.234663 -0.112762295 -0.10955162 -0.31995833
-0.37985873 -0.34856108 -0.31975093 -0.20085557 0.39244688 -0.3117462 0.3195323 0.15479618
0.33552086 -0.31422913 -0.09120739 0.05196487 0.01405144 0.4212617 0.1391436 0.08879109
0.5234157 -0.06230845 -0.0718336 -0.2816702 -0.010242134 -0.0045686 -0.07606131 -0.1011896
0.28554657 -0.038658287 -0.011745868 0.10802455 0.108229086 -0.08384931 0.15696698 -0.45071235
-0.010778768 0.46991315 0.26792496 -0.124152154 0.5087274 0.004988536 0.03561451 0.124585755
-0.21095897 0.080005825 0.24835436 0.031106437 0.61539614 0.14678356 -0.32557136 -0.17645128
0.029992826 0.28388146 0.28462592 -0.24430864 0.39335862 -0.2523754 -0.38508525 0.26599053
0.07156704 0.0027375987 0.09033873 0.23650531 -0.041838706 -0.035021022 0.14881511 -0.09732218
0.4928018 0.009902638 0.11359479 0.048148658 0.22210184 0.15615876 -0.47630623 -0.42599183
0.066682205 0.43002352 0.29070938 -0.28564504 -0.43269598 -0.04655614 0.17317204 -0.19903813
-0.24081624 -0.011535525 0.11365297 -0.02858344 -0.20620199 -0.33998737 -0.23732494 -0.37734705
0.065545715 -0.104654625 0.010377107 0.03793794 -0.0769023 -0.013561893 -0.43271193 0.20703945
-0.2863816 -0.3647791 -0.46409956 -0.017072551 -0.2887543 0.09100423 0.026752306 0.097006164
-0.31910855 -0.117676355 -0.03664948 -0.24925202 -0.06852695 0.40924338 -0.14119968 -0.22359502

network_body.observation_encoder.processors.0.dense.0.bias f4 [128]
00000000: 0000 0000 0000 0000 0000 0000 0000 0000
00000010: 0000 0000 0000 0000 0000 0000 0000 0000
00000020: 0000 0000 0000 0000 0000 0000 0000 0000
00000030: 0000 0000 0000 0000 0000 0000 0000 0000
00000040: 0000 0000 0000 0000 0000 0000 0000 0000
00000050: 0000 0000 0000 0000 0000 0000 0000 0000
00000060: 0000 0000 0000 0000 0000 0000 0000 0000
00000070: 0000 0000 0000 0000 0000 0000 0000 0000
00000080: 0000 0000 0000 0000 0000 0000 0000 0000
00000090: 0000 0000 0000 0000 0000 0000 0000 0000
000000a0: 0000 0000 0000 0000 0000 0000 0000 0000
000000b0: 0000 0000 0000 0000 0000 0000 0000 0000
000000c0: 0000 0000 0000 0000 0000 0000 0000 0000
000000d0: 0000 0000 0000 0000 0000 0000 0000 0000
000000e0: 0000 0000 0000 0000 0000 0000 0000 0000
000000f0: 0000 0000 0000 0000 0000 0000 0000 0000
00000100: 0000 0000 0000 0000 0000 0000 0000 0000
00000110: 0000 0000 0000 0000 0000 0000 0000 0000
00000120: 0000 0000 0000 0000 0000 0000 0000 0000
00000130: 0000 0000 0000 0000 0000 0000 0000 0000
00000140: 0000 0000 0000 0000 0000 0000 0000 0000
00000150: 0000 0000 0000 0000 0000 0000 0000 0000
00000160: 0000 0000 0000 0000 0000 0000 0000 0000
00000170: 0000 0000 0000 0000 0000 0000 0000 0000
00000180: 0000 0000 0000 0000 0000 0000 0000 0000
00000190: 0000 0000 0000 0000 0000 0000 0000 0000
000001a0: 0000 0000 0000 0000 0000 0000 0000 0000
000001b0: 0000 0000 0000 0000 0000 0000 0000 0000
000001c0: 0000 0000 0000 0000 0000 0000 0000 0000
000001d0: 0000 0000 0000 0000 0000 0000 0000 0000
000001e0: 0000 0000 0000 0000 0000 0000 0000 0000
000001f0: 0000 0000 0000 0000 0000 0000 0000 0000
0.0 0.0 0.0 0.0 0.0 0.0 0.0 0.0
0.0 0.0 0.0 0.0 0.0 0.0 0.0 0.0
0.0 0.0 0.0 0.0 0.0 0.0 0.0 0.0
0.0 0.0 0.0 0.0 0.0 0.0 0.0 0.0
0.0 0.0 0.0 0.0 0.0 0.0 0.0 0.0
0.0 0.0 0.0 0.0 0.0 0.0 0.0 0.0
0.0 0.0 0.0 0.0 0.0 0.0 0.0 0.0
0.0 0.0 0.0 0.0 0.0 0.0 0.0 0.0
0.0 0.0 0.0 0.0 0.0 0.0 0.0 0.0
0.0 0.0 0.0 0.0 0.0 0.0 0.0 0.0
0.0 0.0 0.0 0.0 0.0 0.0 0.0 0.0
0.0 0.0 0.0 0.0 0.0 0.0 0.0 0.0
0.0 0.0 0.0 0.0 0.0 0.0 0.0 0.0
0.0 0.0 0.0 0.0 0.0 0.0 0.0 0.0
0.0 0.0 0.0 0.0 0.0 0.0 0.0 0.0
0.0 0.0 0.0 0.0 0.0 0.0 0.0 0.0

network_body._body_endoder.seq_layers.0.weight f4 [128, 386]
00000000: e88c 23bd 3977 2f3d aa66 8bbd 39e8 2d3c
00000010: eea7 573c 0e71 033d 96ac a13d 6683 bebd
00000020: 0da1 9f3d f8b2 4f3c 1902 f4bc 262e 9bbd
00000030: cd59 1cbb e630 52bd c509 0fbd b6b2 10bd
00000040: afcf a0bd 79d4 8e3c c3e0 8d3c 4850 e43c
00000050: 80ed 5ebd 2bf9 75bb 427d 4c3c af34 143e
00000060: 77e2 37bc 8a01 153d aa1d 0e3d 33a8 56bc
00000070: f7e1 44bd d2ac d9bc e10b e0bc b752 d73c
00000080: 1af6 9a3d db64 5abc a976 0abd 662c 2a3d
00000090: c7d1 febd b263 af3c b0ea 7b3d 063b cabc
000000a0: 9888 8d3d 9cd5 fb3c 51b8 903d 8363 4c3d
000000b0: 480d 713d e29b c1bd 5cc7 883c f166 00bd
000000c0: 196f 513d 8e61 69bd 04ad 323c eb9b da3c
000000d0: 6a9a 96bd 3037 003d b391 19bc 2a3a ae3a
000000e0: 4c3b f0bb a8f9 c13d deea 433c ce86 943d
000000f0: 1f70 9a3c 9eee 123c 4be8 9e3d 8157 923d
00000100: 3a92 813a 3781 0fbd 91b0 a0bd 52b8 7dbd
00000110: 2485 5bbc 5606 b6bc 7d2e c6bc 449a 00bd
00000120: 04be 863d 9388 bd3d cf43 fd3d 79fd 60bd
00000130: f7e2 9dbc 6c5e 52bd 8333 b9bd 00bd e93b
00000140: 5966 9e3c fbe2 a03c 6911 60bc 388a a5bd
00000150: 6ec8 f3bd 3896 9c3d 1137 74bc d538 71bc
00000160: f747 81ba 0e3a c63c b8aa 03bc 4065 433c
00000170: 0391 e43a 8050 563d b9a7 aebc 65f9 cbbc
00000180: e937 1cbd 9e53 ab3c a61e 1d3e d774 5cbc
00000190: efcd 6dbc 897f f53c 2e6d f5bb 6da4 51ba
000001a0: be60 1cbd 63b0 073d a2f0 94bd 90d3 abbd
000001b0: 114f ab3d 32fb 58bc 5a2c 1fbd 9e03 c8bd
000001c0: 4106 5f3d 0fa9 8ebc 9673 863c 7e26 153d
000001d0: 88ba 9cbc f5f2 c6bd 5186 33bd f525 593d
000001e0: 01bd 583d 475b 843c 0daa ac3c f880 9f3c
000001f0: da2d 8a3b 06e2 80bc de1b b4bc 662d 73bb
00000200: 3490 4dbc 1d79 8dbd f479 d5bd 0b04 6bbc
00000210: e272 ca3c f466 363d db7a cebc 6c78 06bc
00000220: ce4a 89bc eb2e 413b e67c 25bd 0af9 393c
00000230: 22ac bf3b 5765 0cbd 277a c2bd 78f7 52bd
00000240: 4755 fbbc e0ee 043d 1a39 a8bc cde3 28bd
00000250: 4d7f 4d3d b196 0cbd cc43 22bc 859f cd3c
00000260: c824 02be 74ac 753d be24 5d3d 248e 813c
00000270: 4ee3 1b3c 5d7c 3ebd 34da 12bc 8ce4 05be
00000280: 43ee 03bd 9905 88bd e1ca 65bb b200 2fbd
00000290: 1264 afbb 3329 09bd a38b 31bc 36e9 4fbd
000002a0: 19c0 413d 8744 1c3d b34c a03d 17ce 2a3b
000002b0: 8437 983d 3cd8 89bd ba98 243c 2dac abbc
000002c0: b2f7 953d 710c 31bd 91ca 833b 21e2 3f3d
000002d0: bc92 fe3d 9a87 8b3d 477d f73c a445 7ebd
000002e0: efe9 d0bb 6642 85bd 4dc5 333d cb8c 763d
000002f0: 830e 13bd f606 b2bd f883 1fbd ee5a 15bc
00000300: af0a 85bd ae90 7e3d 17e7 5cbd 2721 593d
00000310: 708c be3b cf00 1f3d c2a3 173e f9b3 bc3d
00000320: 4d8d d23c 3a3d a4bd fd0b 4dbd 14d7 c9bd
00000330: 6112 08bc 121f e5bb 6492 d53d 06d3 483c
00000340: 104d 49bb e3d4 163d ef94 d6bd 9e6b 523d
00000350: cb04 41bd fb8c 2d3d 69b2 283d 3cee 0c3d
00000360: c17b 85bd e97d 103d 9f19 01bd cfaf fe3c
00000370: 0cf9 e2bc cb0d 8d3c 4638 873a f700 4bbd
00000380: 382f 85bd f9f8 9fbd 55df 9dbb 6acb 01bc
00000390: 1054 8dbc bace 02be dc9e 2f3d 5fe8 03bd
000003a0: 97a9 39bd 8817 e63d cf72 b93c f267 533d
000003b0: 4398 b2bc a64c 443d b6a0 c73c 278e 1a3b
000003c0: 208f 953c 3fc7 1abd 8eb5 c13c 7b05 d0bd
000003d0: 447b d93a 883d 933d 15e6 65bc 4c2b 93bd
000003e0: 3f2a bd3c cb08 d53c ae72 bcbd a266 7b3c
000003f0: a0e7 f33c 1ada 553d 20c0 b3bc 9a54 f4bb
-0.0399293 0.04283831 -0.06806691 0.010614448 0.013162596 0.03209024 0.07894246 -0.09302406
0.0779439 0.012676947 -0.029786156 -0.075771615 -0.0023857236 -0.051316164 -0.034921426 -0.035326682
-0.078521125 0.0174353 0.017319089 0.027870312 -0.054425716 -0.003753255 0.012481036 0.14473222
-0.011223427 0.03637842 0.03469626 -0.013101625 -0.04806706 -0.026571665 -0.027349414 0.026284559
0.075664714 -0.01332971 -0.03380457 0.041546248 -0.124423556 0.021409843 0.061503112 -0.024686348
0.06910819 0.030741505 0.070664056 0.04989959 0.058850557 -0.094535604 0.016696624 -0.031348173
0.05113134 -0.0569778 0.010905508 0.026685676 -0.07353671 0.03130263 -0.009373116 0.0013292481
-0.0073312875 0.09471446 0.011957852 0.072522745 0.018852292 0.008968024 0.0775915 0.07145596
0.0009885498 -0.03503534 -0.07846177 -0.06194336 -0.013398442 -0.022219818 -0.02419209 -0.03139712
0.06579211 0.09254565 0.12366449 -0.05492923 -0.019273264 -0.05135958 -0.09043028 0.0071331263
0.019335913 0.019639483 -0.013676026 -0.08083004 -0.11903463 0.076458395 -0.014905707 -0.0147230225
-0.0009863366 0.024197605 -0.008036308 0.011925995 0.0017438236 0.052322865 -0.02132021 -0.024899194
-0.038139258 0.020913895 0.15343723 -0.013455591 -0.01451443 0.02996804 -0.007489822 -0.00079972186
-0.038178198 0.0331272 -0.072724596 -0.08389962 0.0836469 -0.013243483 -0.038860656 -0.09766315
0.054449324 -0.017414598 0.016412538 0.036413662 -0.019131914 -0.09714309 -0.043829266 0.053014714
0.052914623 0.016156806 0.02107718 0.019470677 0.0042168917 -0.015732776 -0.021985944 -0.0037105917
-0.012546588 -0.06907866 -0.10423651 -0.014344226 0.024712984 0.044531778 -0.025205066 -0.008207422
-0.016759302 0.0029477428 -0.040402316 0.011350879 0.0058493773 -0.034276333 -0.09495955 -0.051505536
-0.030680312 0.03245437 -0.02053504 -0.041232873 0.05017023 -0.034323398 -0.009903859 0.025100479
-0.12709343 0.059978917 0.05399012 0.015814848 0.009514643 -0.04650532 -0.0089631565 -0.13075465
-0.032209646 -0.06641693 -0.0035063552 -0.042725272 -0.0053525055 -0.033486556 -0.010836515 -0.050759517
0.04730234 0.03815129 0.07827129 0.002606278 0.07432464 -0.067306966 0.0100461785 -0.020956123
0.07322635 -0.043224756 0.0040219505 0.046846513 0.12430331 0.06812973 0.030211104 -0.062078133
-0.0063755433 -0.06506805 0.043889333 0.060192864 -0.03590251 -0.08692734 -0.038944215 -0.009115918
-0.06496178 0.062149696 -0.053931322 0.053010132 0.0058150813 0.03881913 0.14808562 0.092140146
0.025702143 -0.080194905 -0.05006026 -0.09855476 -0.008305163 -0.0069922293 0.104283124 0.012257343
-0.00307161 0.03682412 -0.104776256 0.051372163 -0.04712371 0.042370778 0.04118577 0.034406886
-0.06517745 0.035276327 -0.031518575 0.031089691 -0.027706645 0.017218491 0.0010316453 -0.049561467
-0.06503147 -0.0781116 -0.004817883 -0.007922033 -0.017251998 -0.12774172 0.04287611 -0.03220403
-0.04532775 0.11234957 0.022637753 0.0516128 -0.02180112 0.04792466 0.024368625 0.0023583265
0.018256724 -0.037787672 0.023646142 -0.10157295 0.0016592522 0.071894705 -0.014031907 -0.071859926
0.023091434 0.02600517 -0.09201561 0.015344294 0.029773533 0.05220995 -0.021942198 -0.0074563744

network_body._body_endoder.seq_layers.0.bias f4 [128]
00000000: 0000 0000 0000 0000 0000 0000 0000 0000
00000010: 0000 0000 0000 0000 0000 0000 0000 0000
00000020: 0000 0000 0000 0000 0000 0000 0000 0000
00000030: 0000 0000 0000 0000 0000 0000 0000 0000
00000040: 0000 0000 0000 0000 0000 0000 0000 0000
00000050: 0000 0000 0000 0000 0000 0000 0000 0000
00000060: 0000 0000 0000 0000 0000 0000 0000 0000
00000070: 0000 0000 0000 0000 0000 0000 0000 0000
00000080: 0000 0000 0000 0000 0000 0000 0000 0000
00000090: 0000 0000 0000 0000 0000 0000 0000 0000
000000a0: 0000 0000 0000 0000 0000 0000 0000 0000
000000b0: 0000 0000 0000 0000 0000 0000 0000 0000
000000c0: 0000 0000 0000 0000 0000 0000 0000 0000
000000d0: 0000 0000 0000 0000 0000 0000 0000 0000
000000e0: 0000 0000 0000 0000 0000 0000 0000 0000
000000f0: 0000 0000 0000 0000 0000 0000 0000 0000
00000100: 0000 0000 0000 0000 0000 0000 0000 0000
00000110: 0000 0000 0000 0000 0000 0000 0000 0000
00000120: 0000 0000 0000 0000 0000 0000 0000 0000
00000130: 0000 0000 0000 0000 0000 0000 0000 0000
00000140: 0000 0000 0000 0000 0000 0000 0000 0000
00000150: 0000 0000 0000 0000 0000 0000 0000 0000
00000160: 0000 0000 0000 0000 0000 0000 0000 0000
00000170: 0000 0000 0000 0000 0000 0000 0000 0000
00000180: 0000 0000 0000 0000 0000 0000 0000 0000
00000190: 0000 0000 0000 0000 0000 0000 0000 0000
000001a0: 0000 0000 0000 0000 0000 0000 0000 0000
000001b0: 0000 0000 0000 0000 0000 0000 0000 0000
000001c0: 0000 0000 0000 0000 0000 0000 0000 0000
000001d0: 0000 0000 0000 0000 0000 0000 0000 0000
000001e0: 0000 0000 0000 0000 0000 0000 0000 0000
000001f0: 0000 0000 0000 0000 0000 0000 0000 0000
0.0 0.0 0.0 0.0 0.0 0.0 0.0 0.0
0.0 0.0 0.0 0.0 0.0 0.0 0.0 0.0
0.0 0.0 0.0 0.0 0.0 0.0 0.0 0.0
0.0 0.0 0.0 0.0 0.0 0.0 0.0 0.0
0.0 0.0 0.0 0.0 0.0 0.0 0.0 0.0
0.0 0.0 0.0 0.0 0.0 0.0 0.0 0.0
0.0 0.0 0.0 0.0 0.0 0.0 0.0 0.0
0.0 0.0 0.0 0.0 0.0 0.0 0.0 0.0
0.0 0.0 0.0 0.0 0.0 0.0 0.0 0.0
0.0 0.0 0.0 0.0 0.0 0.0 0.0 0.0
0.0 0.0 0.0 0.0 0.0 0.0 0.0 0.0
0.0 0.0 0.0 0.0 0.0 0.0 0.0 0.0
0.0 0.0 0.0 0.0 0.0 0.0 0.0 0.0
0.0 0.0 0.0 0.0 0.0 0.0 0.0 0.0
0.0 0.0 0.0 0.0 0.0 0.0 0.0 0.0
0.0 0.0 0.0 0.0 0.0 0.0 0.0 0.0

network_body._body_endoder.seq_layers.2.weight f4 [128, 128]
00000000: de28 fd3d fbd1 65bd 5938 18bd 7ccb b0bd
00000010: ff36 09be 61f5 7bbd 566d 1cbe 19c1 073d
00000020: 294d 433d b2b5 06bd 24c5 143d 97d0 1abd
00000030: 3fd3 5ebd 33f0 c63c a79f 7dbd 4cd8 e1bb
00000040: f44e f8bd 3bd2 06bd d207 53bd cc3e 093e
00000050: 6521 dabd aacb 8bba f09f de3d 52f0 80be
00000060: e16c 5f3d d5ee 52bc a1fc 2f3e 6aeb 673d
00000070: bb38 b03d b791 76bc a073 77bd 844a a3bc
00000080: 8983 6b3d 6571 a9bd e288 10bd 82fe a6bb
00000090: c804 06be 0532 103d 694c 4a3d 5d76 23be
000000a0: fd6c b9bb 599d 4fbb 9cda b23c 966f b93d
000000b0: 337a f83c eaae b8bc 03f5 613d 7c6b 463d
000000c0: aac5 8c3d 1bdf d73d 8dc5 5bbb cd1f 7ebe
000000d0: 6724 883d 38c7 2fbd e188 0f3d 17c0 093d
000000e0: 44cb a4bc 6ef7 b43d 5fc7 5ebd f6c8 8bbd
000000f0: ae00 863d 76cb 823d e7e8 74bd c0e9 663c
00000100: a0f4 e13d 3fe1 ce3d 83d7 1d3d 7a91 39bb
00000110: d568 33bd d964 cfbd e8f4 823d 2ff9 873d
00000120: d993 57bd 4bf6 833d f21a ac3d d934 76bd
00000130: 6304 f7bd 11c1 76bd 7d72 d1ba da9e 9e3d
00000140: 7b50 92bd 48e2 eb3d b88e f73d 68da 60be
00000150: 7e3d 55bd 4150 33bd 5754 923c ef76 52bc
00000160: 5d32 9abd 89ce cbbd 0a3a af3c 2b13 8ebb
00000170: be8c 0b3e e884 83bc 51d5 04be 93a1 723d
00000180: b1dd c0bc 4690 f93d 4668 d63d f0a3 ba3d
00000190: fcdb 4d3d 9171 333e 49a0 adbd 320d 83bd
000001a0: b082 10be 3b96 be3d daea 92bd 7559 273d
000001b0: b155 30be 26d5 0b3d a439 2e3d 1ee2 82be
000001c0: ff28 0c3b 9bc5 3b3d 2308 b83d c4f0 ad3c
000001d0: a0d0 2bbd 2955 883e 3a22 603d 2b25 26bd
000001e0: 18df 4c3d 7a41 f0bd 47b7 d4bb 29ee 95bd
000001f0: b2a7 6f3d 2859 0f3e 02d1 d73d 2c34 e4bc
00000200: 397e 2a3e 5f5f f83d f78c ed3d 73b9 21be
00000210: 0514 a5bd fbd2 e43d ca80 553d 7bed d83d
00000220: bc19 0bbe 7b29 463e 9595 eabd f715 aa3c
00000230: 24ec 00be ae6d 173c 9d24 b53c a09e 80bd
00000240: 0039 b33d 39f9 8b3c e7b4 3a3d 8135 bb3d
00000250: ede1 a83d 4708 513c c865 993d 6b37 e8bc
00000260: f7a4 8e3d 1c8c 9abd 84cd aebd 1563 a23d
00000270: 0eaf 1fbc 9399 313b 02e5 15bd bd4b a03d
00000280: d341 02bc 062a 1d3e 2190 9ebc e732 2cbd
00000290: 4fa1 213c 0960 833d af61 33be 3053 5b3d
000002a0: 2421 0b3e ad75 143e 119e 5abd dbf3 7f3d
000002b0: d881 51bc 3c42 d6bd 1ded 3f3e 2804 c03d
000002c0: 2419 8f3c b117 ea3c 86be c63c d2c5 ff3c
000002d0: 3327 c83c dfc6 893d 45ac 3dbe 9d65 1f3e
000002e0: 3987 363d bb1a a13d 482f e03d 886e 51bd
000002f0: 5d56 063d 1786 15bc 6b48 b33d 5f80 013d
00000300: 806e 8abd 79f9 a4bc 2cfb c73d df76 b03c
00000310: 87af 5dbd cfab a3bd af7c 063d 38db b03c
00000320: 8a06 43bd e74f 423d 8b6d 7ebd 7871 b63d
00000330: 5195 173c ef33 dc3d 4fc2 953d 83e7 e23d
00000340: 62a5 013d f14c ae3b ac0d 88bd d1db 52bd
00000350: e9c1 1dbe 3287 73bc 6e3a 9f3d d7dd 323d
00000360: e6b0 183e aa2d 14be 06e5 533c 61e7 49bd
00000370: 0acc 1f3e 0a9e 61bd d987 babc e719 a8bc
00000380: ad3f 1e3d 2c00 3fbc ec4f 96bc aa98 f4b8
00000390: da7f 653d 1eb6 df3d 0ef1 c5bd 6710 81bd
000003a0: 7627 893d 8291 233e 0a72 d7bc b2fa a23c
000003b0: da76 6fbd f375 3dba 8d32 fbbc 58fb 26bd
000003c0: 3047 b8bd dd64 bc3d d0e3 893d 074f c63d
000003d0: 7672 273e 6999 fa3d 0920 2dbe f572 553d
000003e0: 9ce4 b63d 7e68 293d ae0e 9cbd 23ee 91bd
000003f0: beaf c13c 0905 7fbd 720d 08be a095 f93d
0.123613104 -0.056108456 -0.037163112 -0.086325616 -0.13399886 -0.06151331 -0.15276083 0.033143137
0.047681008 -0.032888122 0.03632082 -0.037796583 -0.05440068 0.024284458 -0.061919834 -0.0068922397
-0.12124434 -0.032915335 -0.05152113 0.13402861 -0.10650901 -0.0010665555 0.108703494 -0.2518335
0.054547194 -0.012874325 0.17186214 0.056620993 0.086045705 -0.01504939 -0.060413003 -0.019932993
0.05749849 -0.082735814 -0.03528679 -0.0050962577 -0.13087761 0.035203952 0.049389277 -0.15963121
-0.0056587444 -0.003167948 0.021832757 0.090544865 0.030331707 -0.022544343 0.055165302 0.04844235
0.06873639 0.10540601 -0.0033534497 -0.24816819 0.06647568 -0.0429146 0.035042647 0.033630457
-0.020116456 0.08836256 -0.054389354 -0.0682544 0.065430984 0.06386463 -0.059792425 0.014093816
0.11032987 0.10101556 0.038535606 -0.002831547 -0.043801147 -0.10126657 0.063943684 0.06639325
-0.052631233 0.06443461 0.08403577 -0.060108993 -0.120613836 -0.060242716 -0.0015979555 0.07745142
-0.07144257 0.11517769 0.12087768 -0.21958315 -0.052060597 -0.043777708 0.017862482 -0.012845739
-0.07529137 -0.09951503 0.02138998 -0.004335781 0.13627908 -0.016054586 -0.12971999 0.05923612
-0.02354321 0.12185721 0.10469107 0.091133 0.05025862 0.17523791 -0.084778376 -0.06399001
-0.14112353 0.09305998 -0.07173701 0.040856797 -0.17220189 0.03413882 0.04253544 -0.2556314
0.002138674 0.045842748 0.08985927 0.02123297 -0.041947007 0.26627472 0.05472014 -0.04056279
0.050017446 -0.11731239 -0.006491575 -0.07320816 0.058509536 0.13998854 0.10537912 -0.027856909
0.16649713 0.121275656 0.115991525 -0.157934 -0.08060459 0.11173054 0.052124776 0.10592171
-0.13584036 0.19351761 -0.11454312 0.020762427 -0.1259008 0.009242458 0.022112185 -0.06280255
0.08751106 0.017086612 0.04558268 0.091410644 0.08246217 0.012758321 0.07490116 -0.028346738
0.06965058 -0.07546255 -0.08535293 0.07929055 -0.009746326 0.0027099594 -0.036595352 0.07826946
-0.007950264 0.15348062 -0.019355835 -0.04204073 0.009865119 0.064148016 -0.17517732 0.05354613
0.13586861 0.14498015 -0.0533734 0.062488418 -0.012787305 -0.10461852 0.18742795 0.09375793
0.017468043 0.02857575 0.02426077 0.031222258 0.024432754 0.06727385 -0.18522747 0.15566106
0.044562552 0.078664266 0.10946518 -0.0511308 0.032797206 -0.009126208 0.08754047 0.031616565
-0.067593575 -0.02013849 0.09764704 0.021541057 -0.054122474 -0.07991754 0.03283375 0.021588907
-0.047613658 0.047439482 -0.062116187 0.08908361 0.009251908 0.10752093 0.07312452 0.110793136
0.031651862 0.0053192307 -0.06643233 -0.051479165 -0.15406002 -0.014863776 0.077748165 0.043668594
0.14911231 -0.14470544 0.012933021 -0.049292926 0.15605178 -0.05508236 -0.022769855 -0.020520164
0.038634945 -0.011657756 -0.018348657 -0.000116632626 0.056030132 0.10923408 -0.09665118 -0.063019566
0.0669698 0.15973476 -0.026299495 0.019894931 -0.058462955 -0.00072273536 -0.030663753 -0.040767044
-0.08997953 0.09198926 0.06732905 0.09683042 0.16352257 0.12236292 -0.16906752 0.052111585
0.089303225 0.041359417 -0.076199874 -0.07125499 0.02364337 -0.06226066 -0.13286379 0.12186742

network_body._body_endoder.seq_layers.2.bias f4 [128]
00000000: 0000 0000 0000 0000 0000 0000 0000 0000
00000010: 0000 0000 0000 0000 0000 0000 0000 0000
00000020: 0000 0000 0000 0000 0000 0000 0000 0000
00000030: 0000 0000 0000 0000 0000 0000 0000 0000
00000040: 0000 0000 0000 0000 0000 0000 0000 0000
00000050: 0000 0000 0000 0000 0000 0000 0000 0000
00000060: 0000 0000 0000 0000 0000 0000 0000 0000
00000070: 0000 0000 0000 0000 0000 0000 0000 0000
00000080: 0000 0000 0000 0000 0000 0000 0000 0000
00000090: 0000 0000 0000 0000 0000 0000 0000 0000
000000a0: 0000 0000 0000 0000 0000 0000 0000 0000
000000b0: 0000 0000 0000 0000 0000 0000 0000 0000
000000c0: 0000 0000 0000 0000 0000 0000 0000 0000
000000d0: 0000 0000 0000 0000 0000 0000 0000 0000
000000e0: 0000 0000 0000 0000 0000 0000 0000 0000
000000f0: 0000 0000 0000 0000 0000 0000 0000 0000
00000100: 0000 0000 0000 0000 0000 0000 0000 0000
00000110: 0000 0000 0000 0000 0000 0000 0000 0000
00000120: 0000 0000 0000 0000 0000 0000 0000 0000
00000130: 0000 0000 0000 0000 0000 0000 0000 0000
00000140: 0000 0000 0000 0000 0000 0000 0000 0000
00000150: 0000 0000 0000 0000 0000 0000 0000 0000
00000160: 0000 0000 0000 0000 0000 0000 0000 0000
00000170: 0000 0000 0000 0000 0000 0000 0000 0000
00000180: 0000 0000 0000 0000 0000 0000 0000 0000
00000190: 0000 0000 0000 0000 0000 0000 0000 0000
000001a0: 0000 0000 0000 0000 0000 0000 0000 0000
000001b0: 0000 0000 0000 0000 0000 0000 0000 0000
000001c0: 0000 0000 0000 0000 0000 0000 0000 0000
000001d0: 0000 0000 0000 0000 0000 0000 0000 0000
000001e0: 0000 0000 0000 0000 0000 0000 0000 0000
000001f0: 0000 0000 0000 0000 0000 0000 0000 0000
0.0 0.0 0.0 0.0 0.0 0.0 0.0 0.0
0.0 0.0 0.0 0.0 0.0 0.0 0.0 0.0
0.0 0.0 0.0 0.0 0.0 0.0 0.0 0.0
0.0 0.0 0.0 0.0 0.0 0.0 0.0 0.0
0.0 0.0 0.0 0.0 0.0 0.0 0.0 0.0
0.0 0.0 0.0 0.0 0.0 0.0 0.0 0.0
0.0 0.0 0.0 0.0 0.0 0.0 0.0 0.0
0.0 0.0 0.0 0.0 0.0 0.0 0.0 0.0
0.0 0.0 0.0 0.0 0.0 0.0 0.0 0.0
0.0 0.0 0.0 0.0 0.0 0.0 0.0 0.0
0.0 0.0 0.0 0.0 0.0 0.0 0.0 0.0
0.0 0.0 0.0 0.0 0.0 0.0 0.0 0.0
0.0 0.0 0.0 0.0 0.0 0.0 0.0 0.0
0.0 0.0 0.0 0.0 0.0 0.0 0.0 0.0
0.0 0.0 0.0 0.0 0.0 0.0 0.0 0.0
0.0 0.0 0.0 0.0 0.0 0.0 0.0 0.0

action_model._discrete_distribution.branches.0.weight f4 [2, 128]
00000000: 9bad 55bc f024 e93b 57fa a0bb ce88 0bbc
00000010: b040 49bc fc1d 3d3c 2723 81bc 1b9b 5abb
00000020: 2094 8bbc c78a 0c3c 7dd6 24bc 4a97 12bc
00000030: ef0b 54bc 735b 88bb 48f8 3c3c 6f32 dabb
00000040: eb35 0e3c 427c f03b 06fd 933b 2fe6 713c
00000050: 1b8b 983a 07cc 2fbb 709f 1cbc 46e2 9ebc
00000060: 65b4 14bc 532f f73a 9658 003a c7b2 5a3a
00000070: c31b 1e3b 4c0a 003c 07f5 9c3b da6c 213c
00000080: eb10 86bc 5b05 b13a 502c edba 14a6 38bb
00000090: 5585 eeba e09f 513b a0f9 d8bb 0f2e 3dbb
000000a0: de1f 243b 3798 31bb 0f61 23ba c054 f53a
000000b0: 5040 18bc 82bd 5b3a 6fca 52bc 22e7 5b3a
000000c0: 73b3 f3bb e421 2b3c 5a12 693c 3fc0 aebb
000000d0: 2430 033c c4e8 4bbb 5a98 c539 9d60 86ba
000000e0: 6305 0eba b09c e43b 9809 5ebc fb19 70bc
000000f0: 2f8d 27bb cbd5 5bba b01a 1f3a bdd0 b638
00000100: 8568 d2bb 83a7 f6bb d154 acbb 68e3 df3b
00000110: 9594 aebb 1785 f53b 05c1 e73a caf2 64ba
00000120: 68ea 04bc 16f8 c43b c5ef 2db9 4a7a b83b
00000130: 0bea 48bc beb1 0f3a eaa0 6ebb 74fd 2c3c
00000140: 238b 0b3c 8796 8b3a 7e54 033c ddf1 a43b
00000150: 5ebb 86bb 0a33 2eba bf96 cbbb 2227 94bc
00000160: f2f3 2f3a f49e 2a39 ebe2 99b9 7de9 553c
00000170: 3d28 4dbc c0c0 f239 c9d5 3ebb d17c b7bb
00000180: bab7 fdbb 1e2b aa3a c6fe 1ebb 2cb9 16ba
00000190: 5551 c23b 7f89 613b d25e a53b 106e fcba
000001a0: 08e6 28bb 6a38 59bc 08e9 f0b9 5b61 c23b
000001b0: c286 f43a 9bdb cbbc 4d99 a73b 5321 29b9
000001c0: 5cc8 053b 5da4 853b 5ff5 933a 27b3 c4ba
000001d0: 189f 123c 9b85 95bc 1cc2 053a 5f47 473c
000001e0: 3d4d 273c d54c d8bb da03 b4b9 aae3 e9bb
000001f0: 89e1 973b 80c4 d2ba 57b0 8bbb 7ba6 013c
00000200: 90c6 95bb 2f72 68bc 34bb 4cbc d39b 8abc
00000210: 8381 d13b 3bc4 2ebc 77bf 953b 9480 b1ba
00000220: 9ee3 32bc 55de 58bc 30fe 203c e52a 8dbc
00000230: c036 d1ba c81b 253b 230f 95ba 801d f73b
00000240: 00c4 9d3c 5be3 b43c a20e 743c 0127 c63b
00000250: 2274 723c c039 70b9 af32 0fbb c349 adbb
00000260: 1d19 753c 5336 dabb 1fd1 ed3b c265 8b3b
00000270: 81af 3f3a a939 8ebc 9626 8fbc 982d 7dbc
00000280: 7f33 a63c 5a8d cebb 5c8d bebb ee2d 233b
00000290: f4f2 c03b a296 dd3a 38a5 443b ab12 053c
000002a0: 93e0 62ba 9b7e 6dba 879c 643c 144c b0bb
000002b0: e73f 01bb 9375 633c da51 9e3c 85cc 09bb
000002c0: b785 4dbc 8651 383c 5364 263c 6786 77bc
000002d0: 97d2 b939 3082 86bb 7f70 b3bb 891f 263c
000002e0: 225d 35bb 582e 1cbc d331 3c3c 7f24 1c3c
000002f0: b03a de3a 57e6 81ba b9c6 3d3a 68d1 aabc
00000300: f3a5 49bc d8e3 4a3b 1d67 d03b 7b72 32bb
00000310: b5cb ccbb 4d8f d9bb 1287 bcbb f541 5ebc
00000320: 81bc acbb ef6d 033c 679b 653c c7ff b8bb
00000330: 3f24 d4bb 8ff9 203c 5048 f33a d2fd b53b
00000340: f522 a23b 817b 963b a2d5 e53b eee4 13bc
00000350: 787c 4bbc 2302 bd3b 92eb 74bc e7c2 97bb
00000360: f750 f9ba e664 01bc 5a29 583c ffa2 79bb
00000370: 1799 b0bb 3347 8bbb 88cf fdb9 4770 2fbb
00000380: adf8 af38 a0bc f0b9 0f49 4c3c 4dc2 0d3c
00000390: f788 8cba ce93 3bbb 4c5f c43b e84d ddb9
000003a0: 38fa 10bc 9abc 51bc 4b01 01bb 0764 20bc
000003b0: 85ed c63b 3961 a6ba ef18 9f3b 676c 603b
000003c0: 0875 7f3b e0ae bd3b 75c6 3e3c d94e 23bb
000003d0: 03b5 553c f012 d6bb 2001 133a 68e0 69bc
000003e0: ca72 4f3b 754d d53c bdef 6bbb 874f 1ebc
000003f0: c39c 52bc 1d73 72ba 598d 0b3b e783 a03c
-0.013041879 0.007114999 -0.0049126553 -0.0085165035 -0.012283489 0.011542793 -0.015763832 -0.003335661
-0.017038405 0.008578009 -0.010060904 -0.008947203 -0.012942298 -0.004161292 0.011533804 -0.006658844
0.008679847 0.0073390314 0.0045162467 0.014764353 0.0011638136 -0.002682449 -0.009559497 -0.019395005
-0.0090762125 0.0018858708 0.0004896013 0.000834268 0.0024125434 0.007814955 0.0047899517 0.009852612
-0.016365489 0.0013505624 -0.0018094871 -0.0028175162 -0.0018197695 0.0031986162 -0.0066215545 -0.0028866564
0.0025043408 -0.0027098784 -0.00062324194 0.0018717274 -0.009292677 0.0008382426 -0.012865647 0.00083886285
-0.0074371635 0.010445092 0.014225567 -0.005332976 0.008007083 -0.003111408 0.0003768828 -0.0010252182
-0.0005417673 0.0069766864 -0.013552092 -0.014654632 -0.002556633 -0.00083860446 0.00060693454 8.717317e-05
-0.006421151 -0.007527293 -0.0052591343 0.006832529 -0.005327771 0.007492672 0.0017681426 -0.0008733688
-0.008112527 0.0060110195 -0.00016587887 0.0056298124 -0.012262831 0.0005481503 -0.003641183 0.010558475
0.0085170595 0.0010649719 0.00801575 0.005033715 -0.0041116914 -0.00066451787 -0.0062130387 -0.018085066
0.0006712071 0.00016271678 -0.000293515 0.013056156 -0.012521801 0.00046301447 -0.0029119125 -0.005599596
-0.007742849 0.0012982821 -0.0024260744 -0.00057496387 0.0059301057 0.003441423 0.005046704 -0.0019258875
-0.0025771875 -0.013258079 -0.0004594999 0.005932016 0.0018655884 -0.02488499 0.0051147104 -0.0001612951
0.0020413613 0.0040784315 0.0011288336 -0.0015007005 0.008949064 -0.018252185 0.0005102472 0.012163012
0.010211286 -0.006600956 -0.00034335145 -0.0071377354 0.00463504 -0.001608029 -0.0042629647 0.007913227
-0.0045707896 -0.01418738 -0.012495805 -0.016920006 0.006393613 -0.010666902 0.0045699435 -0.0013542348
-0.010918526 -0.013236602 0.009826228 -0.017232368 -0.0015961751 0.002519356 -0.0011372309 0.0075413585
0.0192585 0.022081068 0.014896067 0.00604713 0.014798196 -0.00022909697 -0.0021850278 -0.005288334
0.014959601 -0.006659308 0.007257595 0.004254074 0.0007312224 -0.017361479 -0.017474454 -0.015452765
0.020288227 -0.0063034715 -0.005815191 0.0024899202 0.0058883373 0.0016905854 0.0030005705 0.008122127
-0.000865468 -0.0009059698 0.013953335 -0.005380163 -0.0019721927 0.013883012 0.01932614 -0.0021026444
-0.012544087 0.011249905 0.010155755 -0.015107728 0.0003544285 -0.004104875 -0.005476057 0.0101393545
-0.002767392 -0.009532534 0.011486488 0.009530186 0.0016954746 -0.0009910566 0.000723939 -0.020851806
-0.012307632 0.003095856 0.0063599483 -0.002722888 -0.0062498697 -0.0066393972 -0.0057534063 -0.01356553
-0.005271495 0.008021816 0.014014102 -0.0056457254 -0.0064740474 0.009825124 0.001856098 0.0055539394
0.004948015 0.0045923595 0.0070139924 -0.009026749 -0.012419812 0.005768077 -0.014948742 -0.0046313885
-0.0019021322 -0.007897591 0.013193453 -0.0038091538 -0.0053893435 -0.004250431 -0.00048410543 -0.0026769803
8.39097e-05 -0.00045916904 0.01246859 0.008652282 -0.0010721971 -0.0028622034 0.0059928056 -0.0004221045
-0.008848719 -0.012801314 -0.0019684609 -0.009789473 0.006070795 -0.001269377 0.0048552672 0.00342443
0.0038979668 0.005788669 0.0116439955 -0.0024918823 0.013043645 -0.0065330192 0.00056077726 -0.014274694
0.0031654113 0.026037911 -0.003600105 -0.0096625155 -0.012854758 -0.00092487206 0.0021293967 0.019594146

action_model._discrete_distribution.branches.0.bias f4 [2]
00000000: 0000 0000 0000 0000
0.0 0.0
