results/ZaraReinInteraction/ZARAgoalInteract/ZARAgoalInteract-6621.pt (torch, 690178 bytes, 38 tensors)

discrete_act_size_vector f4 [1, 2]
000000 00 00 00 40 00 00 40 40
       2.0 3.0

network_body.observation_encoder.processors.0.conv_layers.0.weight f4 [16, 5, 8, 8]
000000 8b f2 43 3d fb 54 bd bb e4 52 50 3d bc 76 4e bd
       0.04783873 -0.0057779527 0.0508603 -0.050406203
000010 93 4c 17 bd 46 8d df bc 5f c8 f9 bc 4b 23 e0 ba
       -0.03693826 -0.027289044 -0.030491052 -0.0017100362
000020 63 53 3c 3d 56 c6 8c bc 77 68 41 3d b3 f4 4c 3d
       0.04597796 -0.017184418 0.047218766 0.05003805
000030 3e 82 24 3d fd 2a 5d bc 60 7a 4b 3c b9 f6 b8 bb
       0.04016327 -0.013499019 0.012419313 -0.005644646
000040 67 80 0e bd 97 e7 45 3d ee d7 39 3d d5 08 f9 bc
       -0.034790423 0.048316564 0.045371942 -0.03039972
000050 9b 5d 28 3d 3d 9e 2c bd 9b ed da bc 8c b1 29 3c
       0.041104894 -0.042143095 -0.026724627 0.010357272
000060 3d e9 5e 3d c3 2b 40 bd e3 25 de 3c cd 05 bf bc
       0.054421652 -0.046916734 0.027117675 -0.023318196
000070 de 79 4f bc 4d 2f 35 3d d2 27 3c bd f6 97 86 3c
       -0.012663333 0.044234563 -0.045936413 0.016429882
000080 80 5c 2e 3d de 25 cb bc 72 73 7a 3c c5 1f 5e bd
       0.042568684 -0.02479833 0.015286313 -0.054229517
000090 57 8f 9e bc a6 30 cf 3a 16 57 0e bd 47 55 0a bb
       -0.01935546 0.0015807345 -0.03475102 -0.0021107958
0000a0 92 0b 37 bd 51 d2 82 3c c0 f9 eb bb 99 0b 5a bd
       -0.04468877 0.015969427 -0.0072014034 -0.053233717
0000b0 c4 cd 28 bd e9 62 09 bd 2e 25 00 3d aa 0f bd bb
       -0.04121186 -0.033541594 0.031285457 -0.0057696896
0000c0 38 e5 71 3b 86 12 a3 bc c8 89 81 3c dc 77 36 3d
       0.0036910307 -0.019906294 0.01581277 0.0445479
0000d0 48 61 91 3b 39 29 22 3d 3e 63 31 3c 25 fc 18 bd
       0.0044366457 0.039590094 0.010826884 -0.03734984
0000e0 d5 c5 0f bd f8 a0 05 bd 5b 24 aa bc 16 00 35 3d
       -0.035100777 -0.032624215 -0.020769289 0.044189535
0000f0 3e 76 10 bd f2 0c 1f bd af f2 bf 3c 3b e4 94 bc
       -0.035269015 -0.038830705 0.02343115 -0.018175235
000100 0c 96 42 3d ca 48 9b 3c ce 37 de 3b d7 0c 50 3d
       0.047506377 0.018955607 0.006781555 0.050793495
000110 41 62 79 3c 56 62 ba 3b 13 5f de bc d4 19 63 bd
       0.015221179 0.005687992 -0.027144944 -0.055444553
000120 03 f4 5a 3d 6c b9 d4 bc 2c 88 4d bd e3 c0 01 3d
       0.053455364 -0.025967322 -0.05017869 0.03167809
000130 a3 04 88 3c c9 f7 ee 3c cc 62 18 3d d9 87 ce bc
       0.016603773 0.029170888 0.037203595 -0.025211262
000140 f7 03 d4 bb a4 0d 38 3b 7a 49 62 3d 6f 41 28 3c
       -0.006470199 0.0028084302 0.055245854 0.010269507
000150 a1 e5 bf bb 72 9a 0f 3d 39 05 96 3c 60 9c a3 3c
       -0.0058562313 0.0350594 0.018313037 0.019972026
000160 36 ee 90 bc e2 2d 02 3c 41 09 13 bc 95 cf d0 bc
       -0.017691713 0.00794551 -0.008974374 -0.025489608
000170 c4 4b f0 3c e6 21 34 3c da c6 da 3c be 71 16 bc
       0.029333003 0.01099441 0.026706148 -0.009182392
000180 be 01 9d bc 8f 1c 10 bd ee 81 bb bc 61 d0 c9 3c
       -0.01916587 -0.035183486 -0.022889104 0.024635496
000190 d8 f4 b7 bc ca 3b 38 bd 54 12 28 3d 10 df 86 bc
       -0.022455618 -0.044978894 0.041033104 -0.016463786
0001a0 78 a6 e2 3c 9d 7c 24 3d b9 35 37 bd 45 eb 9d 3b
       0.02766727 0.040157903 -0.04472897 0.004819306
0001b0 2a 71 2b 3d 3a 29 49 3d ce bd 6f 3c 6a 58 c1 bc
       0.04185597 0.049111582 0.014632655 -0.02360173
0001c0 8d dd 80 3c 53 cf 3a 3d 09 9b b6 bc 65 ec 40 3c
       0.015730644 0.045607876 -0.022290723 0.011775111
0001d0 bd 84 20 bd 22 91 61 3d 72 57 6d bb cf bb 21 3d
       -0.03918909 0.05507005 -0.0036215452 0.03948575
0001e0 68 d9 39 3c fb d9 05 3d 68 25 1b bd f9 48 33 3c
       0.011343338 0.032678585 -0.03787747 0.010942691
0001f0 fd bc e5 3c b1 3f 42 bc 9d 08 39 3c 93 2b 9c bc
       0.028044218 -0.0118560055 0.0112935575 -0.019063747
000200 48 4e 20 bd 60 9e 49 bb c9 e8 ad 3c 7c 87 21 3d
       -0.039137155 -0.0030764565 0.021229165 0.03943585
000210 1a 48 80 bc 9c 1d 1d bd 8d 6d 02 bd b1 61 35 3d
       -0.01565938 -0.038358316 -0.031842757 0.04428262
000220 ca bc e8 bc d0 2e 62 3c fc ae 58 3d f1 39 ab bc
       -0.028410334 0.013805106 0.052901253 -0.020901652
000230 e9 da 37 3c 05 87 f5 3c 46 55 15 bd f1 75 ed bc
       0.011221626 0.029971609 -0.036458276 -0.028986903
000240 50 83 20 bd 64 86 11 bd e9 78 2a bd ae fb 60 bd
       -0.03918773 -0.035528556 -0.041619215 -0.05492752
000250 cb e7 c0 bc 68 64 2c 3c a0 fc ba 3b 15 78 2a bd
       -0.023548028 0.010521986 0.005706385 -0.041618425
000260 44 93 51 3c be 0f 45 3d bb ba 60 3c cd 2c 40 3d
       0.0127914585 0.048110716 0.013716395 0.046917725
000270 09 c4 a1 3c 96 b7 c1 bc c7 1d 6b 3c 09 da b9 3c
       0.019746797 -0.02364711 0.014350361 0.022686975
000280 7c e6 e7 ba f4 46 59 3d e0 24 35 3d c6 19 c1 3c
       -0.0017692591 0.05304618 0.04422462 0.02357186
000290 83 17 07 bd 8a 03 16 3d 83 0b 45 3c af c8 23 3d
       -0.032981407 0.03662447 0.01202667 0.03998631
0002a0 72 96 56 3d 94 b7 c5 bb 54 2c 23 bd b2 32 1a bd
       0.05238957 -0.006033847 -0.039837196 -0.037646003
0002b0 70 a8 e5 bc c6 5d dd 3c 39 e0 55 bd a7 03 4b bd
       -0.028034419 0.027022254 -0.05221579 -0.04956403
0002c0 b5 65 4f bd 12 f6 d1 3c f9 46 00 bd e9 63 21 3c
       -0.050634105 0.02563003 -0.031317685 0.009850481
0002d0 cf 02 ed 3a bf ef dc 3c e4 ae 41 3d 16 dc f5 bb
       0.0018082502 0.026969789 0.04728593 -0.007503043
0002e0 f1 30 05 3d e4 f8 12 3c 36 e0 39 bd 3f 02 ef bc
       0.032517377 0.008970473 -0.04537984 -0.029175876
0002f0 c4 ed e9 bc 27 74 12 3c 73 64 d3 3c c4 e9 a8 3c
       -0.028555758 0.008938826 0.025804734 0.02061928
000300 b4 6b 4c 3b 44 b6 a3 bc 29 be 10 3d 75 a9 c2 3b
       0.0031192126 -0.019984372 0.0353376 0.005940611
000310 84 ce 83 bc dd bf 6a 3c 3c 1b b5 3c 9d 4c cf 3c
       -0.016089685 0.01432797 0.022107713 0.025305087
000320 8c e1 2f bc 0a 52 e0 3c 6f 0d 47 bd 0d c8 52 3d
       -0.010734927 0.02738287 -0.048596796 0.051460315
000330 3e e8 bf bc b9 93 e9 bc 36 9f 43 bd 9e e9 39 3d
       -0.023426171 -0.028512822 -0.047759257 0.04538881
000340 20 76 18 bd b0 ab be ba 4a da 86 bc bf 9b f0 3c
       -0.037222028 -0.0014547016 -0.01646151 0.02937114
000350 fa 0b 19 3d 1c 0d c6 3b 7b 40 22 3d 03 2a e8 bc
       0.037364937 0.006044043 0.039612275 -0.028340345
000360 b2 4e 4e 3b 5e f9 41 3d 3d bc a9 3c 86 d3 a7 bc
       0.0031480012 0.047356956 0.020719642 -0.020486604
000370 70 51 0c 3d a4 9b 3c bd 0e 65 20 3c cf 97 d9 3c
       0.034257352 -0.046046868 0.009789718 0.026561646
000380 c2 5d 9a bc e2 b3 1c 3d ed 61 ec ba ff cb 0f bc
       -0.018843535 0.038257487 -0.0018034555 -0.008776664
000390 21 15 0b bd 96 b4 a1 bc 30 64 98 3c e9 60 07 bd
       -0.033955697 -0.01973943 0.01860246 -0.033051405
0003a0 de c7 a7 bc 37 1b 2b 3d 05 a4 2b 3c 53 7d 61 3d
       -0.020481046 0.041774 0.010476117 0.05505116
0003b0 9d f2 a7 3c 59 74 b9 bc cb c7 bf bc 1f 45 64 bd
       0.02050143 -0.022638487 -0.023410698 -0.05572998
0003c0 a3 32 e0 3c f3 e9 91 3c 67 07 80 3c 6e 41 5c bc
       0.027367895 0.017811751 0.01562853 -0.013443334
0003d0 5d ce e7 3c 0b 08 4c bd 54 f6 c6 3b a8 10 a0 3c
       0.028296644 -0.049812358 0.006071845 0.019539192
0003e0 6d 5a f0 3c e1 58 82 bc 41 1e 00 3c 14 42 58 bb
       0.029339993 -0.015911521 0.007819713 -0.003299837
0003f0 dd 26 cd bb 15 e5 18 bc 18 4b e3 bc 2b 5e f9 bc
       -0.0062607364 -0.009331961 -0.027745768 -0.03044041

network_body.observation_encoder.processors.0.conv_layers.0.bias f4 [16]
000000 43 ca f1 bc c2 dc 7d bc eb f1 5f bd a2 72 52 bd
       -0.029515391 -0.015494527 -0.05467407 -0.051378854
000010 41 1e 9f 3c 51 c1 5a 3b 2b 10 a0 3c 57 70 e8 bc
       0.019423606 0.0033379386 0.01953896 -0.02837388
000020 2d e5 0e 3c 63 99 70 bc 2c 61 29 3d 0c 82 08 bd
       0.008721632 -0.014685008 0.041352436 -0.033327147
000030 04 38 32 bd 82 75 57 3c fc a9 44 bd b4 15 82 bb
       -0.043510452 0.013150575 -0.048013672 -0.0039698724

network_body.observation_encoder.processors.0.conv_layers.2.weight f4 [32, 16, 4, 4]
000000 68 e6 2c 3c 94 13 ff 3c 08 00 a1 3c 46 69 06 3d
       0.01055298 0.031137265 0.019653335 0.03281524
000010 26 4d 43 3d 08 4d 95 bc c0 67 eb bb 84 62 c7 3c
       0.047680996 -0.018225208 -0.007183999 0.024338968
000020 f8 e4 0e bc fc 1a 5d bd 14 b3 7e 3d 2e 3f fe bc
       -0.008721583 -0.053980812 0.0621825 -0.031035986
000030 ae 73 39 3d d4 20 7c 3d 00 1a 26 bc b0 34 bc 3b
       0.045276336 0.061554745 -0.010138035 0.0057435855
000040 2a 78 4b bd ec fc 62 3d 50 e6 df 3c b0 90 79 3d
       -0.049675144 0.055416986 0.027331501 0.060929
000050 78 9e 0e 3c 98 cf 09 bd 78 8d d4 bb 58 7f 1e bd
       0.008704774 -0.033645242 -0.006486591 -0.038695663
000060 00 d1 8f bb 00 0f c9 3c 98 57 64 3c a9 7e 63 bd
       -0.0043889284 0.024543285 0.0139369 -0.055540714
000070 22 7c 38 bd 40 f8 5c 3c 97 13 67 bd a0 11 c2 3c
       -0.045040257 0.013486922 -0.056415167 0.023690045
000080 26 f7 2f 3d c0 81 a9 3c 26 9b 1d 3d 08 0f 09 bd
       0.04296031 0.020691752 0.03847804 -0.0334616
000090 58 0c f9 bb 62 57 5b 3d 20 8f dc ba 3c 29 10 3d
       -0.0076003484 0.05355013 -0.0016827323 0.035195574
0000a0 c0 b1 3a 3d 44 ee 43 3d 40 96 33 ba a0 99 35 3b
       0.04557967 0.04783465 -0.0006850697 0.0027709976
0000b0 f0 96 07 bc cf 5a 12 bd 08 78 22 3d 28 b0 23 3d
       -0.008275732 -0.035731133 0.039665252 0.039962918
0000c0 cb 9a 7f bd 8c ff 0b 3d d2 de 3d 3d b0 47 e9 3b
       -0.06240348 0.034179255 0.046355076 0.0071191415
0000d0 cc 1c 03 3d 9a 93 c4 bc 45 ef 4f bd 37 23 2c bd
       0.032009885 -0.023996163 -0.050765295 -0.04202577
0000e0 cc 6b e5 3c 86 b7 8c bc c8 cd 4d 3c 46 ef 6f bd
       0.028005503 -0.017177355 0.012561269 -0.0585778
0000f0 de 53 d9 bc 46 47 49 3d b3 05 6c bd cc 37 20 bd
       -0.026529249 0.049140237 -0.057622623 -0.039115712
000100 fa a6 32 bd 00 0c ee 3a 42 bb 79 3d b8 af 4f 3c
       -0.043616273 0.0018161535 0.0609696 0.012676172
000110 0e af 40 bd 14 bd 0e bd 36 89 00 3d f2 4e 19 bd
       -0.047041945 -0.034848288 0.031380855 -0.037428804
000120 3c f8 b6 bc 24 ff 7f bc af fa 0c bd 14 5e 07 3d
       -0.022335164 -0.015624795 -0.034418758 0.033048704
000130 b0 eb 07 bd c0 82 f5 3a 00 43 f7 b9 57 df 2e bd
       -0.033183753 0.0018730983 -0.0004716143 -0.042693462
000140 90 22 01 bd fc 08 aa bc b0 1b c7 bb 36 fe 38 3d
       -0.031527102 -0.020756237 -0.0060762987 0.04516431
000150 10 79 5b 3c 82 4f 8a bc 38 7d 23 3d c8 4b 68 3d
       0.013395563 -0.016883615 0.03991434 0.056712896
000160 26 65 90 bc 40 9f ac 3c 40 f5 44 3c 44 1d 54 3d
       -0.017626356 0.02107203 0.012021363 0.051785722
000170 d4 a6 c4 3c a8 d1 3b 3d 00 f7 d0 39 28 8d af 3c
       0.024005331 0.04585424 0.0003985688 0.021429613
000180 56 1c 78 3d 44 28 8c 3c b8 75 69 3d 0e d4 37 3d
       0.0605739 0.017109044 0.05699703 0.044879965
000190 5a b5 13 3d a0 66 e9 bb ba 83 59 3d 04 a4 0e bc
       0.036061622 -0.0071228296 0.05310414 -0.008706097
0001a0 22 2f fa bc fc 73 7d bc 9a 59 bc bc 44 34 f9 3c
       -0.030540053 -0.015469547 -0.022991944 0.03042043
0001b0 f0 c9 8c 3b 58 16 7e 3c f4 62 5c 3d e4 50 a2 bc
       0.0042965338 0.015508257 0.053805307 -0.019813962
0001c0 8b 85 1d bd 80 d3 2b bd 4c 1b 2a bd c0 c6 c5 bc
       -0.038457435 -0.04194975 -0.04152994 -0.024142623
0001d0 fc fd a0 3c ce ee 05 3d 74 68 ba 3c de 52 94 bc
       0.01965236 0.032698445 0.022754885 -0.01810592
0001e0 00 54 f4 3c ce b6 3d 3d 06 85 4c bd a0 9f da ba
       0.02982521 0.046316914 -0.04993155 -0.0016679652
0001f0 8e c3 cb bc 2c 12 df bc c4 8e 59 bd 34 5c 93 3c
       -0.024873521 -0.027230345 -0.053114668 0.017988302
000200 e8 ac f0 bb 36 5f 2f 3d 2e ff b2 bc e4 f9 26 bd
       -0.007344831 0.04281541 -0.021850195 -0.040765658
000210 14 59 59 3d e0 7d 04 3c 4d 1d 09 bd 84 17 66 bd
       0.053063467 0.008086652 -0.03347521 -0.05617477
000220 72 db 76 bd 28 71 64 3d 36 b1 6a 3d df 5f 65 bd
       -0.060267873 0.055771977 0.057297908 -0.055999633
000230 16 60 37 3d 68 bc 5f 3d 46 3c 15 bd 16 bc 15 bd
       0.04476937 0.054623038 -0.036434434 -0.036556326
000240 6b 16 6c bd a8 89 7d 3d ba 30 66 3d 5c 7e 74 bc
       -0.057638567 0.061898857 0.056198813 -0.014922705
000250 7c c0 af bc 6a 1a 20 bd 94 e1 76 3d ee 1d 76 bd
       -0.021454088 -0.03908769 0.06027372 -0.060087137
000260 8a a4 05 3d b8 1b 4f 3c a4 5d 17 3d 08 21 ed 3c
       0.03262762 0.012640886 0.036954537 0.028946415
000270 2c 0e 73 3d 3a ee d4 bc 52 d0 79 bd 72 a4 25 3d
       0.059339687 -0.025992502 -0.060989685 0.04044003
000280 b4 78 9a bc 7c 24 e2 bc ca 90 69 3d c8 55 4b 3c
       -0.018856384 -0.027605288 0.057022847 0.012410589
000290 3d 6a 59 bd 50 85 d1 3c a0 d5 e1 ba 22 af 76 3d
       -0.053079832 0.025576264 -0.0017229803 0.060225613
0002a0 1c 7e b0 3c 75 d3 01 bd ac 91 f2 bc 82 a8 3b 3d
       0.021544509 -0.0316958 -0.029610477 0.045815
0002b0 64 61 5b bd f4 ac 7d 3d cc da f6 3c be bf 40 3d
       -0.053559676 0.06193252 0.030133627 0.04705786
0002c0 12 0d 01 bd 5a 6e 42 3d ae 0d 78 3d 2c 71 77 3d
       -0.031506605 0.04746852 0.06055992 0.060410663
0002d0 ae b3 26 bd 18 b1 3c 3d 90 8e a0 3b c0 9f ba 3b
       -0.0406987 0.046067327 0.0048998073 0.005695313
0002e0 8e 12 95 bc 68 b4 5c bc a8 05 68 3d f2 45 36 3d
       -0.018197324 -0.013470747 0.05664602 0.0445003
0002f0 12 b6 15 bd 50 3d 3b bb 6a 8c 36 3d c0 70 d6 3c
       -0.03655059 -0.002857048 0.044567503 0.02617681
000300 6d 3b 51 bd 7a ec c1 bc a0 8b 17 3b 52 aa 5b 3d
       -0.051082063 -0.023672331 0.0023123994 0.053629227
000310 70 93 fc 3c 80 37 90 3a e7 4a 4c bd ea 98 2e bd
       0.030832022 0.0011002868 -0.04987612 -0.0426263
000320 6a 05 7b 3d e0 69 92 3b 18 df 02 3d 68 f1 17 bc
       0.06128446 0.0044681877 0.03195104 -0.009273864
000330 5c 67 e7 3c 90 0a ca 3c e4 87 09 3d e4 74 69 bc
       0.028247528 0.02466324 0.03357686 -0.01424906
000340 5a 51 2d 3d 8e dd d6 bc 18 6a 0f bd e0 86 d5 3b
       0.04231391 -0.026228692 -0.03501329 0.0065163225
000350 60 99 56 3b 80 e7 cb bc 94 11 73 3d 00 07 49 3a
       0.0032745227 -0.024890661 0.059342936 0.00076685846
000360 3c 25 7a 3d 2a ee 1a bd e0 5a 2d 3c 50 d0 d7 3b
       0.061070666 -0.037824787 0.010580748 0.006586112
000370 e2 da 58 3d 2c 37 c7 bc 86 4d f7 bc 12 f1 32 3d
       0.052943118 -0.0243183 -0.030188333 0.043686934
000380 08 cd fb bc 50 44 6c bd a8 6a 36 bd 58 47 81 3c
       -0.030737415 -0.057682335 -0.04453531 0.01578109
000390 d2 9b 99 bc 36 0b 27 bd 06 bd 2a 3d 10 f6 59 3d
       -0.018751059 -0.040782176 0.041684173 0.05321318
0003a0 48 2a 13 bd 16 81 cf bc 9c 67 00 bd f0 70 cc bc
       -0.035928994 -0.025330108 -0.03134881 -0.024956197
0003b0 00 62 5c 3a 64 77 9c 3c c0 32 b9 3b 66 e3 90 bc
       0.0008406937 0.019099899 0.005651802 -0.017686557
0003c0 e2 30 ba bc b8 13 f1 bb 32 13 79 3d ea a0 3e bd
       -0.022728387 -0.007357087 0.06080932 -0.04654018
0003d0 58 75 67 bc 18 fa 65 3c 58 33 d8 3c 58 43 70 3d
       -0.014127098 0.014036678 0.02639167 0.058657974
0003e0 9c 7c b4 3c 83 80 23 bd 5d 56 40 bd cc 9f 7b 3d
       0.022032075 -0.03991748 -0.046957362 0.06143169
0003f0 15 72 02 bd 8c 27 35 3d 75 c7 11 bd 4c ec 49 bd
       -0.03184708 0.044227168 -0.035590608 -0.049297616

network_body.observation_encoder.processors.0.conv_layers.2.bias f4 [32]
000000 68 28 79 bc ca a3 60 bd bc 30 bf 3c 44 ad 25 bd
       -0.0152073875 -0.0548437 0.023338668 -0.040448442
000010 1c 25 85 3c 5e 9b ff bc 34 5f 11 3d b0 32 f5 3b
       0.016253047 -0.031202015 0.035491183 0.007482849
000020 10 4c af 3c ec a3 9f 3c d2 9d 4d bd ec 5a 37 3d
       0.021398574 0.019487344 -0.050199337 0.044764444
000030 f4 d4 be bc 00 ea ce b9 c6 a3 21 3d e4 6f 5b 3d
       -0.023294903 -0.00039465725 0.039462827 0.053573504
000040 a8 8b f1 bb bc f1 8d bc d8 5c 22 bc 32 34 5c bd
       -0.0073713847 -0.017327182 -0.009909831 -0.053760715
000050 e8 77 20 bd e0 ae 34 bc 3c 1e 79 bc c8 5a 4c bc
       -0.03917685 -0.011028022 -0.015204962 -0.012472816
000060 6a 94 3d 3d 3a 01 64 3d d5 60 71 bd 18 49 ab bb
       0.046284117 0.055665232 -0.058930237 -0.0052272193
000070 82 c6 0a bd 64 57 b7 bc 5a 41 69 3d d0 ab 59 3c
       -0.033880718 -0.022380538 0.05694709 0.013285592

network_body.observation_encoder.processors.0.dense.0.weight f4 [128, 32]
000000 12 21 03 bf 17 7a 3a 3e 56 de 30 3e 8c cf ff 3e
       -0.51222336 0.18210636 0.17272314 0.49963033
000010 09 64 a1 bc c0 68 28 be 1b 93 bc 3e cc ae db 3d
       -0.01970102 -0.16446209 0.36830983 0.10726699
000020 ca ca e3 bd 78 60 94 3e 94 a6 26 be 9d 3e bd 3c
       -0.11122663 0.2897985 -0.16274482 0.023101145
000030 05 c2 96 3e 92 f3 3e be c6 83 96 39 d6 b8 21 3e
       0.294449 -0.18647602 0.00028708408 0.15793166
000040 fd 1d ab be 5b 78 d4 3a 6f 84 00 3e 4a ac 6c be
       -0.33421317 0.0016210185 0.1255052 -0.23112598
000050 6b 37 93 3e 3f b0 54 be 78 51 03 3e 71 7a 8d be
       0.28753218 -0.20770358 0.12824047 -0.27632478
000060 1a 52 5d be a2 a8 b6 3e 7c 77 8e 3e 96 63 05 bf
       -0.2161335 0.35675532 0.27825534 -0.5210508
000070 24 8a 62 be ed 6b dd 3d 9a d5 e0 bd 3a 6f 15 be
       -0.22123009 0.10811601 -0.10978241 -0.14593211
000080 ef 78 f5 3d 8b 7d 05 3f 26 19 00 3e 2f a3 84 be
       0.11985957 0.5214469 0.12509593 -0.2590575
000090 1f d5 31 3f df 37 8f be a8 13 d9 be 0a ec f3 3e
       0.6946582 -0.27972314 -0.4239781 0.4764102
0000a0 b2 6d ac bb d9 cc 29 bf 49 03 07 be 50 1a 2e be
       -0.0052621 -0.663282 -0.13184847 -0.17002225
0000b0 84 d6 84 be cf fc 64 bd c6 a4 44 be 4d 3a 87 3d
       -0.25944912 -0.05590516 -0.19203481 0.06602917
0000c0 78 46 64 3e d3 92 fb be 59 b6 1b 3f 1e 70 91 3e
       0.22292507 -0.49135455 0.60825115 0.2840585
0000d0 f3 84 28 3e 53 b6 b2 3d 27 b6 d7 3d a2 5d 08 3e
       0.16456966 0.08726182 0.1053279 0.13316968
0000e0 32 a5 36 bd 38 b1 d9 3e c5 8f 20 be ff b8 f3 bc
       -0.044591136 0.4251802 -0.15679844 -0.029751299
0000f0 2f ee 8d be b2 18 1e 3e cb 30 01 be 6a 5c d4 3c
       -0.27720782 0.15439108 -0.1261627 0.025922973
000100 db 0f 79 3d b6 bb 44 3d 3f fd 56 3e b0 a5 a5 bd
       0.060806137 0.048030578 0.20995043 -0.08088243
000110 e8 ef b0 bd 29 63 df bd 9f 70 19 3e 65 47 82 3e
       -0.086395085 -0.10907585 0.14984368 0.25445095
000120 22 83 3f 3e 75 32 05 3e db 66 46 3d f9 4a a8 3e
       0.18702367 0.13007529 0.048437934 0.328697
000130 a4 df 7b bc 0b 1d 91 bd 45 4f 38 3e 17 61 88 bd
       -0.015373144 -0.07085618 0.17998989 -0.066591434
000140 99 3d c9 bd 38 52 1e be 9c 9e 4f bc 4f a7 4c 3d
       -0.09826202 -0.15461051 -0.012672093 0.049964245
000150 52 58 0a 3e 4d f9 b8 3d 94 bb da 3e a7 a3 49 be
       0.13510254 0.09031925 0.42721236 -0.19691335
000160 64 93 17 bf 1e 03 cf 3e e8 ef 0c bb 13 50 22 3d
       -0.59209275 0.40432066 -0.00215053 0.039627146
000170 3c c2 6f bb 17 7b 0e 3e 27 81 48 bd 53 17 d7 bd
       -0.0036584279 0.13914143 -0.048951294 -0.105024956
000180 24 0e d3 be 92 ee 69 3e 3b b4 8e 3e 22 ef d8 bd
       -0.41221726 0.22844914 0.2787188 -0.10592486
000190 28 2b 0b 3d ba bc f2 bc e2 19 cb 3d 4c 11 b7 be
       0.033976704 -0.029631007 0.09917046 -0.35755384
0001a0 b0 ba 9b 3e 92 f0 16 3e 27 a5 50 3d 7d 56 a8 be
       0.3041587 0.14740208 0.05093875 -0.32878485
0001b0 52 13 0e be 23 30 39 3d 50 66 e0 bd ad e0 64 3d
       -0.13874558 0.045211922 -0.109570146 0.05587833
0001c0 62 3c 64 3d b3 32 c1 be 14 1b 1b 3e ee ba 09 3b
       0.055721648 -0.37733993 0.15147048 0.002101596
0001d0 76 0c 30 be 4e cd 0d be f8 c8 92 3e 0f 2a 8a be
       -0.17192253 -0.13847849 0.28668952 -0.26985213
0001e0 0b ef 36 3e 3c 15 b4 3e d6 ed 4c be f8 c7 2e be
       0.17864625 0.3517245 -0.20012602 -0.1706847
0001f0 d5 71 04 bd 5f 54 82 be 80 38 58 be d5 46 c1 3d
       -0.03233512 -0.25454995 -0.21115303 0.09437338
000200 ce ca 6f bd 09 d7 ab 3e 24 44 f7 bd 94 e3 d9 3e
       -0.05854302 0.33562496 -0.12073544 0.4255644
000210 99 b5 60 be d1 d1 56 3e b2 f0 5a 3d 0b dc 4d 3e
       -0.21944274 0.20978476 0.0534522 0.20103471
000220 19 09 79 3e 87 fa 98 3e ca dc 7f be ac 79 ae bc
       0.24319877 0.29878637 -0.24986568 -0.021298252
000230 fc 6a f2 3b 09 33 d5 bc 5d 91 c8 be 0e 45 42 3d
       0.0073980074 -0.026025312 -0.39173403 0.047429137
000240 da fe c7 3e 7c 28 96 be 41 82 54 be bd 67 9d 3d
       0.39061624 -0.29327762 -0.20752813 0.07685802
000250 36 ec c5 3d f0 0e 2c 3e 10 12 be 3e da 89 87 bd
       0.09664194 0.16802573 0.37123156 -0.0661809
000260 ef b6 93 be 6f c8 f7 be 79 97 0a 3e 74 7c 79 be
       -0.28850505 -0.48395106 0.13534345 -0.24363881
000270 43 3f 09 3e cc ab 4e 3e 36 05 c6 bd e0 53 18 be
       0.13403039 0.20182723 -0.09668963 -0.14875746
000280 b8 a6 ac 3e f4 46 00 3f 24 99 58 3e 4b e6 49 3e
       0.33720946 0.50108266 0.21152169 0.19716756
000290 44 62 61 be 68 26 de bd 03 53 a1 bd 17 55 a4 3b
       -0.22010142 -0.10847169 -0.07877161 0.0050150263
0002a0 42 41 1f be 43 c3 6c 3c b7 34 57 3e de 23 4f be
       -0.15552238 0.014450851 0.21016203 -0.20228526
0002b0 62 28 9b bd 8a 4b e3 bc 85 9e 97 bc 4f 0f 50 3e
       -0.07576062 -0.02774598 -0.018508205 0.2031834
0002c0 13 04 f7 3d b3 55 23 3f 31 03 71 3e b5 ae 98 bb
       0.12061324 0.6380264 0.23536374 -0.0046594986
0002d0 da 5d ea 3d cf 57 1a be 99 1a c2 be f4 23 6f 3e
       0.11443682 -0.15072559 -0.37910917 0.23353559
0002e0 b9 7c 0d 3e fb 99 29 3f 40 fe 0e be 75 fa ba be
       0.13817109 0.6625058 -0.13964176 -0.3651921
0002f0 55 28 37 be d6 ef a7 bc d5 37 d4 be 16 0b 54 bd
       -0.17886479 -0.020500105 -0.41448846 -0.051768385
000300 a9 4c a1 3d 89 50 88 be 21 eb b2 be 1e d9 75 3e
       0.0787595 -0.26623943 -0.34945014 0.24008605
000310 3e 8b 59 be c2 84 ca 3e 3d 38 03 be 78 e4 94 be
       -0.21244523 0.3955441 -0.12814422 -0.29080558
000320 a7 d9 26 bf d3 84 d2 3e a7 fd 7b be bc 21 bb bd
       -0.6517586 0.41116962 -0.2460848 -0.09137294
000330 d1 de d2 bd 61 f8 47 3d 79 e7 52 3e 93 6e a6 3e
       -0.10296405 0.048820857 0.20596112 0.32506236
000340 41 f8 e0 be 1d 17 fa be 48 1c e1 be 2c 2b 14 3f
       -0.43939403 -0.4884576 -0.4396689 0.57878375
000350 79 fc 8b bd 4f 6e 93 3e f4 11 e7 be a6 40 c9 3e
       -0.06835265 0.28795096 -0.45130885 0.39307135
000360 48 9d 34 be 7f 0e c0 3c ec 1d 53 3e a2 c7 2f 3e
       -0.17638123 0.023444412 0.20616883 0.17165998
000370 2c ab 94 be a7 4d 2c bd 75 42 a2 3d 52 5e 2c be
       -0.29036844 -0.042066243 0.07922832 -0.16832855
000380 ef 25 5a 3e d1 45 42 3d 25 e7 fa 3e fd 50 44 3e
       0.21303533 0.047429863 0.49004474 0.1917152
000390 84 58 19 3e 0b c0 99 be eb 67 ff 3d 25 fa 89 3e
       0.14975172 -0.3002933 0.12470993 0.26948658
0003a0 44 2c 64 3c 49 14 44 be 88 32 3e be 13 52 13 3e
       0.013926569 -0.19148363 -0.18573964 0.14386778
0003b0 ad 46 a2 3d cf ac 01 be 68 86 0d bf 8b e9 3d bd
       0.079236366 -0.12663577 -0.5528321 -0.046365302
0003c0 10 f6 b3 3c 05 47 89 3c e4 5b 93 be 90 f8 14 be
       0.021967918 0.016757498 -0.28781044 -0.14547944
0003d0 a9 b7 4d 3e f5 c9 c3 3e c8 50 4c 3e 6c 3d 9d bd
       0.20089592 0.38240018 0.1995269 -0.07677731
0003e0 e0 44 f7 3e f7 ab df 3d b7 11 e4 3d e0 6f d0 3e
       0.48294735 0.109214716 0.11136191 0.40710354
0003f0 2b af 7f bb 3c e7 76 be 1b b3 e4 3e 5f 95 30 3e
       -0.003901432 -0.24111646 0.44667897 0.1724448

network_body.observation_encoder.processors.0.dense.0.bias f4 [128]
000000 00 00 00 00 00 00 00 00 00 00 00 00 00 00 00 00
       0.0 0.0 0.0 0.0
000010 00 00 00 00 00 00 00 00 00 00 00 00 00 00 00 00
       0.0 0.0 0.0 0.0
000020 00 00 00 00 00 00 00 00 00 00 00 00 00 00 00 00
       0.0 0.0 0.0 0.0
000030 00 00 00 00 00 00 00 00 00 00 00 00 00 00 00 00
       0.0 0.0 0.0 0.0
000040 00 00 00 00 00 00 00 00 00 00 00 00 00 00 00 00
       0.0 0.0 0.0 0.0
000050 00 00 00 00 00 00 00 00 00 00 00 00 00 00 00 00
       0.0 0.0 0.0 0.0
000060 00 00 00 00 00 00 00 00 00 00 00 00 00 00 00 00
       0.0 0.0 0.0 0.0
000070 00 00 00 00 00 00 00 00 00 00 00 00 00 00 00 00
       0.0 0.0 0.0 0.0
000080 00 00 00 00 00 00 00 00 00 00 00 00 00 00 00 00
       0.0 0.0 0.0 0.0
000090 00 00 00 00 00 00 00 00 00 00 00 00 00 00 00 00
       0.0 0.0 0.0 0.0
0000a0 00 00 00 00 00 00 00 00 00 00 00 00 00 00 00 00
       0.0 0.0 0.0 0.0
0000b0 00 00 00 00 00 00 00 00 00 00 00 00 00 00 00 00
       0.0 0.0 0.0 0.0
0000c0 00 00 00 00 00 00 00 00 00 00 00 00 00 00 00 00
       0.0 0.0 0.0 0.0
0000d0 00 00 00 00 00 00 00 00 00 00 00 00 00 00 00 00
       0.0 0.0 0.0 0.0
0000e0 00 00 00 00 00 00 00 00 00 00 00 00 00 00 00 00
       0.0 0.0 0.0 0.0
0000f0 00 00 00 00 00 00 00 00 00 00 00 00 00 00 00 00
       0.0 0.0 0.0 0.0
000100 00 00 00 00 00 00 00 00 00 00 00 00 00 00 00 00
       0.0 0.0 0.0 0.0
000110 00 00 00 00 00 00 00 00 00 00 00 00 00 00 00 00
       0.0 0.0 0.0 0.0
000120 00 00 00 00 00 00 00 00 00 00 00 00 00 00 00 00
       0.0 0.0 0.0 0.0
000130 00 00 00 00 00 00 00 00 00 00 00 00 00 00 00 00
       0.0 0.0 0.0 0.0
000140 00 00 00 00 00 00 00 00 00 00 00 00 00 00 00 00
       0.0 0.0 0.0 0.0
000150 00 00 00 00 00 00 00 00 00 00 00 00 00 00 00 00
       0.0 0.0 0.0 0.0
000160 00 00 00 00 00 00 00 00 00 00 00 00 00 00 00 00
       0.0 0.0 0.0 0.0
000170 00 00 00 00 00 00 00 00 00 00 00 00 00 00 00 00
       0.0 0.0 0.0 0.0
000180 00 00 00 00 00 00 00 00 00 00 00 00 00 00 00 00
       0.0 0.0 0.0 0.0
000190 00 00 00 00 00 00 00 00 00 00 00 00 00 00 00 00
       0.0 0.0 0.0 0.0
0001a0 00 00 00 00 00 00 00 00 00 00 00 00 00 00 00 00
       0.0 0.0 0.0 0.0
0001b0 00 00 00 00 00 00 00 00 00 00 00 00 00 00 00 00
       0.0 0.0 0.0 0.0
0001c0 00 00 00 00 00 00 00 00 00 00 00 00 00 00 00 00
       0.0 0.0 0.0 0.0
0001d0 00 00 00 00 00 00 00 00 00 00 00 00 00 00 00 00
       0.0 0.0 0.0 0.0
0001e0 00 00 00 00 00 00 00 00 00 00 00 00 00 00 00 00
       0.0 0.0 0.0 0.0
0001f0 00 00 00 00 00 00 00 00 00 00 00 00 00 00 00 00
       0.0 0.0 0.0 0.0

network_body.processors.0.conv_layers.0.weight f4 [16, 5, 8, 8]
000000 8b f2 43 3d fb 54 bd bb e4 52 50 3d bc 76 4e bd
       0.04783873 -0.0057779527 0.0508603 -0.050406203
000010 93 4c 17 bd 46 8d df bc 5f c8 f9 bc 4b 23 e0 ba
       -0.03693826 -0.027289044 -0.030491052 -0.0017100362
000020 63 53 3c 3d 56 c6 8c bc 77 68 41 3d b3 f4 4c 3d
       0.04597796 -0.017184418 0.047218766 0.05003805
000030 3e 82 24 3d fd 2a 5d bc 60 7a 4b 3c b9 f6 b8 bb
       0.04016327 -0.013499019 0.012419313 -0.005644646
000040 67 80 0e bd 97 e7 45 3d ee d7 39 3d d5 08 f9 bc
       -0.034790423 0.048316564 0.045371942 -0.03039972
000050 9b 5d 28 3d 3d 9e 2c bd 9b ed da bc 8c b1 29 3c
       0.041104894 -0.042143095 -0.026724627 0.010357272
000060 3d e9 5e 3d c3 2b 40 bd e3 25 de 3c cd 05 bf bc
       0.054421652 -0.046916734 0.027117675 -0.023318196
000070 de 79 4f bc 4d 2f 35 3d d2 27 3c bd f6 97 86 3c
       -0.012663333 0.044234563 -0.045936413 0.016429882
000080 80 5c 2e 3d de 25 cb bc 72 73 7a 3c c5 1f 5e bd
       0.042568684 -0.02479833 0.015286313 -0.054229517
000090 57 8f 9e bc a6 30 cf 3a 16 57 0e bd 47 55 0a bb
       -0.01935546 0.0015807345 -0.03475102 -0.0021107958
0000a0 92 0b 37 bd 51 d2 82 3c c0 f9 eb bb 99 0b 5a bd
       -0.04468877 0.015969427 -0.0072014034 -0.053233717
0000b0 c4 cd 28 bd e9 62 09 bd 2e 25 00 3d aa 0f bd bb
       -0.04121186 -0.033541594 0.031285457 -0.0057696896
0000c0 38 e5 71 3b 86 12 a3 bc c8 89 81 3c dc 77 36 3d
       0.0036910307 -0.019906294 0.01581277 0.0445479
0000d0 48 61 91 3b 39 29 22 3d 3e 63 31 3c 25 fc 18 bd
       0.0044366457 0.039590094 0.010826884 -0.03734984
0000e0 d5 c5 0f bd f8 a0 05 bd 5b 24 aa bc 16 00 35 3d
       -0.035100777 -0.032624215 -0.020769289 0.044189535
0000f0 3e 76 10 bd f2 0c 1f bd af f2 bf 3c 3b e4 94 bc
       -0.035269015 -0.038830705 0.02343115 -0.018175235
000100 0c 96 42 3d ca 48 9b 3c ce 37 de 3b d7 0c 50 3d
       0.047506377 0.018955607 0.006781555 0.050793495
000110 41 62 79 3c 56 62 ba 3b 13 5f de bc d4 19 63 bd
       0.015221179 0.005687992 -0.027144944 -0.055444553
000120 03 f4 5a 3d 6c b9 d4 bc 2c 88 4d bd e3 c0 01 3d
       0.053455364 -0.025967322 -0.05017869 0.03167809
000130 a3 04 88 3c c9 f7 ee 3c cc 62 18 3d d9 87 ce bc
       0.016603773 0.029170888 0.037203595 -0.025211262
000140 f7 03 d4 bb a4 0d 38 3b 7a 49 62 3d 6f 41 28 3c
       -0.006470199 0.0028084302 0.055245854 0.010269507
000150 a1 e5 bf bb 72 9a 0f 3d 39 05 96 3c 60 9c a3 3c
       -0.0058562313 0.0350594 0.018313037 0.019972026
000160 36 ee 90 bc e2 2d 02 3c 41 09 13 bc 95 cf d0 bc
       -0.017691713 0.00794551 -0.008974374 -0.025489608
000170 c4 4b f0 3c e6 21 34 3c da c6 da 3c be 71 16 bc
       0.029333003 0.01099441 0.026706148 -0.009182392
000180 be 01 9d bc 8f 1c 10 bd ee 81 bb bc 61 d0 c9 3c
       -0.01916587 -0.035183486 -0.022889104 0.024635496
000190 d8 f4 b7 bc ca 3b 38 bd 54 12 28 3d 10 df 86 bc
       -0.022455618 -0.044978894 0.041033104 -0.016463786
0001a0 78 a6 e2 3c 9d 7c 24 3d b9 35 37 bd 45 eb 9d 3b
       0.02766727 0.040157903 -0.04472897 0.004819306
0001b0 2a 71 2b 3d 3a 29 49 3d ce bd 6f 3c 6a 58 c1 bc
       0.04185597 0.049111582 0.014632655 -0.02360173
0001c0 8d dd 80 3c 53 cf 3a 3d 09 9b b6 bc 65 ec 40 3c
       0.015730644 0.045607876 -0.022290723 0.011775111
0001d0 bd 84 20 bd 22 91 61 3d 72 57 6d bb cf bb 21 3d
       -0.03918909 0.05507005 -0.0036215452 0.03948575
0001e0 68 d9 39 3c fb d9 05 3d 68 25 1b bd f9 48 33 3c
       0.011343338 0.032678585 -0.03787747 0.010942691
0001f0 fd bc e5 3c b1 3f 42 bc 9d 08 39 3c 93 2b 9c bc
       0.028044218 -0.0118560055 0.0112935575 -0.019063747
000200 48 4e 20 bd 60 9e 49 bb c9 e8 ad 3c 7c 87 21 3d
       -0.039137155 -0.0030764565 0.021229165 0.03943585
000210 1a 48 80 bc 9c 1d 1d bd 8d 6d 02 bd b1 61 35 3d
       -0.01565938 -0.038358316 -0.031842757 0.04428262
000220 ca bc e8 bc d0 2e 62 3c fc ae 58 3d f1 39 ab bc
       -0.028410334 0.013805106 0.052901253 -0.020901652
000230 e9 da 37 3c 05 87 f5 3c 46 55 15 bd f1 75 ed bc
       0.011221626 0.029971609 -0.036458276 -0.028986903
000240 50 83 20 bd 64 86 11 bd e9 78 2a bd ae fb 60 bd
       -0.03918773 -0.035528556 -0.041619215 -0.05492752
000250 cb e7 c0 bc 68 64 2c 3c a0 fc ba 3b 15 78 2a bd
       -0.023548028 0.010521986 0.005706385 -0.041618425
000260 44 93 51 3c be 0f 45 3d bb ba 60 3c cd 2c 40 3d
       0.0127914585 0.048110716 0.013716395 0.046917725
000270 09 c4 a1 3c 96 b7 c1 bc c7 1d 6b 3c 09 da b9 3c
       0.019746797 -0.02364711 0.014350361 0.022686975
000280 7c e6 e7 ba f4 46 59 3d e0 24 35 3d c6 19 c1 3c
       -0.0017692591 0.05304618 0.04422462 0.02357186
000290 83 17 07 bd 8a 03 16 3d 83 0b 45 3c af c8 23 3d
       -0.032981407 0.03662447 0.01202667 0.03998631
0002a0 72 96 56 3d 94 b7 c5 bb 54 2c 23 bd b2 32 1a bd
       0.05238957 -0.006033847 -0.039837196 -0.037646003
0002b0 70 a8 e5 bc c6 5d dd 3c 39 e0 55 bd a7 03 4b bd
       -0.028034419 0.027022254 -0.05221579 -0.04956403
0002c0 b5 65 4f bd 12 f6 d1 3c f9 46 00 bd e9 63 21 3c
       -0.050634105 0.02563003 -0.031317685 0.009850481
0002d0 cf 02 ed 3a bf ef dc 3c e4 ae 41 3d 16 dc f5 bb
       0.0018082502 0.026969789 0.04728593 -0.007503043
0002e0 f1 30 05 3d e4 f8 12 3c 36 e0 39 bd 3f 02 ef bc
       0.032517377 0.008970473 -0.04537984 -0.029175876
0002f0 c4 ed e9 bc 27 74 12 3c 73 64 d3 3c c4 e9 a8 3c
       -0.028555758 0.008938826 0.025804734 0.02061928
000300 b4 6b 4c 3b 44 b6 a3 bc 29 be 10 3d 75 a9 c2 3b
       0.0031192126 -0.019984372 0.0353376 0.005940611
000310 84 ce 83 bc dd bf 6a 3c 3c 1b b5 3c 9d 4c cf 3c
       -0.016089685 0.01432797 0.022107713 0.025305087
000320 8c e1 2f bc 0a 52 e0 3c 6f 0d 47 bd 0d c8 52 3d
       -0.010734927 0.02738287 -0.048596796 0.051460315
000330 3e e8 bf bc b9 93 e9 bc 36 9f 43 bd 9e e9 39 3d
       -0.023426171 -0.028512822 -0.047759257 0.04538881
000340 20 76 18 bd b0 ab be ba 4a da 86 bc bf 9b f0 3c
       -0.037222028 -0.0014547016 -0.01646151 0.02937114
000350 fa 0b 19 3d 1c 0d c6 3b 7b 40 22 3d 03 2a e8 bc
       0.037364937 0.006044043 0.039612275 -0.028340345
000360 b2 4e 4e 3b 5e f9 41 3d 3d bc a9 3c 86 d3 a7 bc
       0.0031480012 0.047356956 0.020719642 -0.020486604
000370 70 51 0c 3d a4 9b 3c bd 0e 65 20 3c cf 97 d9 3c
       0.034257352 -0.046046868 0.009789718 0.026561646
000380 c2 5d 9a bc e2 b3 1c 3d ed 61 ec ba ff cb 0f bc
       -0.018843535 0.038257487 -0.0018034555 -0.008776664
000390 21 15 0b bd 96 b4 a1 bc 30 64 98 3c e9 60 07 bd
       -0.033955697 -0.01973943 0.01860246 -0.033051405
0003a0 de c7 a7 bc 37 1b 2b 3d 05 a4 2b 3c 53 7d 61 3d
       -0.020481046 0.041774 0.010476117 0.05505116
0003b0 9d f2 a7 3c 59 74 b9 bc cb c7 bf bc 1f 45 64 bd
       0.02050143 -0.022638487 -0.023410698 -0.05572998
0003c0 a3 32 e0 3c f3 e9 91 3c 67 07 80 3c 6e 41 5c bc
       0.027367895 0.017811751 0.01562853 -0.013443334
0003d0 5d ce e7 3c 0b 08 4c bd 54 f6 c6 3b a8 10 a0 3c
       0.028296644 -0.049812358 0.006071845 0.019539192
0003e0 6d 5a f0 3c e1 58 82 bc 41 1e 00 3c 14 42 58 bb
       0.029339993 -0.015911521 0.007819713 -0.003299837
0003f0 dd 26 cd bb 15 e5 18 bc 18 4b e3 bc 2b 5e f9 bc
       -0.0062607364 -0.009331961 -0.027745768 -0.03044041

network_body.processors.0.conv_layers.0.bias f4 [16]
000000 43 ca f1 bc c2 dc 7d bc eb f1 5f bd a2 72 52 bd
       -0.029515391 -0.015494527 -0.05467407 -0.051378854
000010 41 1e 9f 3c 51 c1 5a 3b 2b 10 a0 3c 57 70 e8 bc
       0.019423606 0.0033379386 0.01953896 -0.02837388
000020 2d e5 0e 3c 63 99 70 bc 2c 61 29 3d 0c 82 08 bd
       0.008721632 -0.014685008 0.041352436 -0.033327147
000030 04 38 32 bd 82 75 57 3c fc a9 44 bd b4 15 82 bb
       -0.043510452 0.013150575 -0.048013672 -0.0039698724

network_body.processors.0.conv_layers.2.weight f4 [32, 16, 4, 4]
000000 68 e6 2c 3c 94 13 ff 3c 08 00 a1 3c 46 69 06 3d
       0.01055298 0.031137265 0.019653335 0.03281524
000010 26 4d 43 3d 08 4d 95 bc c0 67 eb bb 84 62 c7 3c
       0.047680996 -0.018225208 -0.007183999 0.024338968
000020 f8 e4 0e bc fc 1a 5d bd 14 b3 7e 3d 2e 3f fe bc
       -0.008721583 -0.053980812 0.0621825 -0.031035986
000030 ae 73 39 3d d4 20 7c 3d 00 1a 26 bc b0 34 bc 3b
       0.045276336 0.061554745 -0.010138035 0.0057435855
000040 2a 78 4b bd ec fc 62 3d 50 e6 df 3c b0 90 79 3d
       -0.049675144 0.055416986 0.027331501 0.060929
000050 78 9e 0e 3c 98 cf 09 bd 78 8d d4 bb 58 7f 1e bd
       0.008704774 -0.033645242 -0.006486591 -0.038695663
000060 00 d1 8f bb 00 0f c9 3c 98 57 64 3c a9 7e 63 bd
       -0.0043889284 0.024543285 0.0139369 -0.055540714
000070 22 7c 38 bd 40 f8 5c 3c 97 13 67 bd a0 11 c2 3c
       -0.045040257 0.013486922 -0.056415167 0.023690045
000080 26 f7 2f 3d c0 81 a9 3c 26 9b 1d 3d 08 0f 09 bd
       0.04296031 0.020691752 0.03847804 -0.0334616
000090 58 0c f9 bb 62 57 5b 3d 20 8f dc ba 3c 29 10 3d
       -0.0076003484 0.05355013 -0.0016827323 0.035195574
0000a0 c0 b1 3a 3d 44 ee 43 3d 40 96 33 ba a0 99 35 3b
       0.04557967 0.04783465 -0.0006850697 0.0027709976
0000b0 f0 96 07 bc cf 5a 12 bd 08 78 22 3d 28 b0 23 3d
       -0.008275732 -0.035731133 0.039665252 0.039962918
0000c0 cb 9a 7f bd 8c ff 0b 3d d2 de 3d 3d b0 47 e9 3b
       -0.06240348 0.034179255 0.046355076 0.0071191415
0000d0 cc 1c 03 3d 9a 93 c4 bc 45 ef 4f bd 37 23 2c bd
       0.032009885 -0.023996163 -0.050765295 -0.04202577
0000e0 cc 6b e5 3c 86 b7 8c bc c8 cd 4d 3c 46 ef 6f bd
       0.028005503 -0.017177355 0.012561269 -0.0585778
0000f0 de 53 d9 bc 46 47 49 3d b3 05 6c bd cc 37 20 bd
       -0.026529249 0.049140237 -0.057622623 -0.039115712
000100 fa a6 32 bd 00 0c ee 3a 42 bb 79 3d b8 af 4f 3c
       -0.043616273 0.0018161535 0.0609696 0.012676172
000110 0e af 40 bd 14 bd 0e bd 36 89 00 3d f2 4e 19 bd
       -0.047041945 -0.034848288 0.031380855 -0.037428804
000120 3c f8 b6 bc 24 ff 7f bc af fa 0c bd 14 5e 07 3d
       -0.022335164 -0.015624795 -0.034418758 0.033048704
000130 b0 eb 07 bd c0 82 f5 3a 00 43 f7 b9 57 df 2e bd
       -0.033183753 0.0018730983 -0.0004716143 -0.042693462
000140 90 22 01 bd fc 08 aa bc b0 1b c7 bb 36 fe 38 3d
       -0.031527102 -0.020756237 -0.0060762987 0.04516431
000150 10 79 5b 3c 82 4f 8a bc 38 7d 23 3d c8 4b 68 3d
       0.013395563 -0.016883615 0.03991434 0.056712896
000160 26 65 90 bc 40 9f ac 3c 40 f5 44 3c 44 1d 54 3d
       -0.017626356 0.02107203 0.012021363 0.051785722
000170 d4 a6 c4 3c a8 d1 3b 3d 00 f7 d0 39 28 8d af 3c
       0.024005331 0.04585424 0.0003985688 0.021429613
000180 56 1c 78 3d 44 28 8c 3c b8 75 69 3d 0e d4 37 3d
       0.0605739 0.017109044 0.05699703 0.044879965
000190 5a b5 13 3d a0 66 e9 bb ba 83 59 3d 04 a4 0e bc
       0.036061622 -0.0071228296 0.05310414 -0.008706097
0001a0 22 2f fa bc fc 73 7d bc 9a 59 bc bc 44 34 f9 3c
       -0.030540053 -0.015469547 -0.022991944 0.03042043
0001b0 f0 c9 8c 3b 58 16 7e 3c f4 62 5c 3d e4 50 a2 bc
       0.0042965338 0.015508257 0.053805307 -0.019813962
0001c0 8b 85 1d bd 80 d3 2b bd 4c 1b 2a bd c0 c6 c5 bc
       -0.038457435 -0.04194975 -0.04152994 -0.024142623
0001d0 fc fd a0 3c ce ee 05 3d 74 68 ba 3c de 52 94 bc
       0.01965236 0.032698445 0.022754885 -0.01810592
0001e0 00 54 f4 3c ce b6 3d 3d 06 85 4c bd a0 9f da ba
       0.02982521 0.046316914 -0.04993155 -0.0016679652
0001f0 8e c3 cb bc 2c 12 df bc c4 8e 59 bd 34 5c 93 3c
       -0.024873521 -0.027230345 -0.053114668 0.017988302
000200 e8 ac f0 bb 36 5f 2f 3d 2e ff b2 bc e4 f9 26 bd
       -0.007344831 0.04281541 -0.021850195 -0.040765658
000210 14 59 59 3d e0 7d 04 3c 4d 1d 09 bd 84 17 66 bd
       0.053063467 0.008086652 -0.03347521 -0.05617477
000220 72 db 76 bd 28 71 64 3d 36 b1 6a 3d df 5f 65 bd
       -0.060267873 0.055771977 0.057297908 -0.055999633
000230 16 60 37 3d 68 bc 5f 3d 46 3c 15 bd 16 bc 15 bd
       0.04476937 0.054623038 -0.036434434 -0.036556326
000240 6b 16 6c bd a8 89 7d 3d ba 30 66 3d 5c 7e 74 bc
       -0.057638567 0.061898857 0.056198813 -0.014922705
000250 7c c0 af bc 6a 1a 20 bd 94 e1 76 3d ee 1d 76 bd
       -0.021454088 -0.03908769 0.06027372 -0.060087137
000260 8a a4 05 3d b8 1b 4f 3c a4 5d 17 3d 08 21 ed 3c
       0.03262762 0.012640886 0.036954537 0.028946415
000270 2c 0e 73 3d 3a ee d4 bc 52 d0 79 bd 72 a4 25 3d
       0.059339687 -0.025992502 -0.060989685 0.04044003
000280 b4 78 9a bc 7c 24 e2 bc ca 90 69 3d c8 55 4b 3c
       -0.018856384 -0.027605288 0.057022847 0.012410589
000290 3d 6a 59 bd 50 85 d1 3c a0 d5 e1 ba 22 af 76 3d
       -0.053079832 0.025576264 -0.0017229803 0.060225613
0002a0 1c 7e b0 3c 75 d3 01 bd ac 91 f2 bc 82 a8 3b 3d
       0.021544509 -0.0316958 -0.029610477 0.045815
0002b0 64 61 5b bd f4 ac 7d 3d cc da f6 3c be bf 40 3d
       -0.053559676 0.06193252 0.030133627 0.04705786
0002c0 12 0d 01 bd 5a 6e 42 3d ae 0d 78 3d 2c 71 77 3d
       -0.031506605 0.04746852 0.06055992 0.060410663
0002d0 ae b3 26 bd 18 b1 3c 3d 90 8e a0 3b c0 9f ba 3b
       -0.0406987 0.046067327 0.0048998073 0.005695313
0002e0 8e 12 95 bc 68 b4 5c bc a8 05 68 3d f2 45 36 3d
       -0.018197324 -0.013470747 0.05664602 0.0445003
0002f0 12 b6 15 bd 50 3d 3b bb 6a 8c 36 3d c0 70 d6 3c
       -0.03655059 -0.002857048 0.044567503 0.02617681
000300 6d 3b 51 bd 7a ec c1 bc a0 8b 17 3b 52 aa 5b 3d
       -0.051082063 -0.023672331 0.0023123994 0.053629227
000310 70 93 fc 3c 80 37 90 3a e7 4a 4c bd ea 98 2e bd
       0.030832022 0.0011002868 -0.04987612 -0.0426263
000320 6a 05 7b 3d e0 69 92 3b 18 df 02 3d 68 f1 17 bc
       0.06128446 0.0044681877 0.03195104 -0.009273864
000330 5c 67 e7 3c 90 0a ca 3c e4 87 09 3d e4 74 69 bc
       0.028247528 0.02466324 0.03357686 -0.01424906
000340 5a 51 2d 3d 8e dd d6 bc 18 6a 0f bd e0 86 d5 3b
       0.04231391 -0.026228692 -0.03501329 0.0065163225
000350 60 99 56 3b 80 e7 cb bc 94 11 73 3d 00 07 49 3a
       0.0032745227 -0.024890661 0.059342936 0.00076685846
000360 3c 25 7a 3d 2a ee 1a bd e0 5a 2d 3c 50 d0 d7 3b
       0.061070666 -0.037824787 0.010580748 0.006586112
000370 e2 da 58 3d 2c 37 c7 bc 86 4d f7 bc 12 f1 32 3d
       0.052943118 -0.0243183 -0.030188333 0.043686934
000380 08 cd fb bc 50 44 6c bd a8 6a 36 bd 58 47 81 3c
       -0.030737415 -0.057682335 -0.04453531 0.01578109
000390 d2 9b 99 bc 36 0b 27 bd 06 bd 2a 3d 10 f6 59 3d
       -0.018751059 -0.040782176 0.041684173 0.05321318
0003a0 48 2a 13 bd 16 81 cf bc 9c 67 00 bd f0 70 cc bc
       -0.035928994 -0.025330108 -0.03134881 -0.024956197
0003b0 00 62 5c 3a 64 77 9c 3c c0 32 b9 3b 66 e3 90 bc
       0.0008406937 0.019099899 0.005651802 -0.017686557
0003c0 e2 30 ba bc b8 13 f1 bb 32 13 79 3d ea a0 3e bd
       -0.022728387 -0.007357087 0.06080932 -0.04654018
0003d0 58 75 67 bc 18 fa 65 3c 58 33 d8 3c 58 43 70 3d
       -0.014127098 0.014036678 0.02639167 0.058657974
0003e0 9c 7c b4 3c 83 80 23 bd 5d 56 40 bd cc 9f 7b 3d
       0.022032075 -0.03991748 -0.046957362 0.06143169
0003f0 15 72 02 bd 8c 27 35 3d 75 c7 11 bd 4c ec 49 bd
       -0.03184708 0.044227168 -0.035590608 -0.049297616

network_body.processors.0.conv_layers.2.bias f4 [32]
000000 68 28 79 bc ca a3 60 bd bc 30 bf 3c 44 ad 25 bd
       -0.0152073875 -0.0548437 0.023338668 -0.040448442
000010 1c 25 85 3c 5e 9b ff bc 34 5f 11 3d b0 32 f5 3b
       0.016253047 -0.031202015 0.035491183 0.007482849
000020 10 4c af 3c ec a3 9f 3c d2 9d 4d bd ec 5a 37 3d
       0.021398574 0.019487344 -0.050199337 0.044764444
000030 f4 d4 be bc 00 ea ce b9 c6 a3 21 3d e4 6f 5b 3d
       -0.023294903 -0.00039465725 0.039462827 0.053573504
000040 a8 8b f1 bb bc f1 8d bc d8 5c 22 bc 32 34 5c bd
       -0.0073713847 -0.017327182 -0.009909831 -0.053760715
000050 e8 77 20 bd e0 ae 34 bc 3c 1e 79 bc c8 5a 4c bc
       -0.03917685 -0.011028022 -0.015204962 -0.012472816
000060 6a 94 3d 3d 3a 01 64 3d d5 60 71 bd 18 49 ab bb
       0.046284117 0.055665232 -0.058930237 -0.0052272193
000070 82 c6 0a bd 64 57 b7 bc 5a 41 69 3d d0 ab 59 3c
       -0.033880718 -0.022380538 0.05694709 0.013285592

network_body.processors.0.dense.0.weight f4 [128, 32]
000000 12 21 03 bf 17 7a 3a 3e 56 de 30 3e 8c cf ff 3e
       -0.51222336 0.18210636 0.17272314 0.49963033
000010 09 64 a1 bc c0 68 28 be 1b 93 bc 3e cc ae db 3d
       -0.01970102 -0.16446209 0.36830983 0.10726699
000020 ca ca e3 bd 78 60 94 3e 94 a6 26 be 9d 3e bd 3c
       -0.11122663 0.2897985 -0.16274482 0.023101145
000030 05 c2 96 3e 92 f3 3e be c6 83 96 39 d6 b8 21 3e
       0.294449 -0.18647602 0.00028708408 0.15793166
000040 fd 1d ab be 5b 78 d4 3a 6f 84 00 3e 4a ac 6c be
       -0.33421317 0.0016210185 0.1255052 -0.23112598
000050 6b 37 93 3e 3f b0 54 be 78 51 03 3e 71 7a 8d be
       0.28753218 -0.20770358 0.12824047 -0.27632478
000060 1a 52 5d be a2 a8 b6 3e 7c 77 8e 3e 96 63 05 bf
       -0.2161335 0.35675532 0.27825534 -0.5210508
000070 24 8a 62 be ed 6b dd 3d 9a d5 e0 bd 3a 6f 15 be
       -0.22123009 0.10811601 -0.10978241 -0.14593211
000080 ef 78 f5 3d 8b 7d 05 3f 26 19 00 3e 2f a3 84 be
       0.11985957 0.5214469 0.12509593 -0.2590575
000090 1f d5 31 3f df 37 8f be a8 13 d9 be 0a ec f3 3e
       0.6946582 -0.27972314 -0.4239781 0.4764102
0000a0 b2 6d ac bb d9 cc 29 bf 49 03 07 be 50 1a 2e be
       -0.0052621 -0.663282 -0.13184847 -0.17002225
0000b0 84 d6 84 be cf fc 64 bd c6 a4 44 be 4d 3a 87 3d
       -0.25944912 -0.05590516 -0.19203481 0.06602917
0000c0 78 46 64 3e d3 92 fb be 59 b6 1b 3f 1e 70 91 3e
       0.22292507 -0.49135455 0.60825115 0.2840585
0000d0 f3 84 28 3e 53 b6 b2 3d 27 b6 d7 3d a2 5d 08 3e
       0.16456966 0.08726182 0.1053279 0.13316968
0000e0 32 a5 36 bd 38 b1 d9 3e c5 8f 20 be ff b8 f3 bc
       -0.044591136 0.4251802 -0.15679844 -0.029751299
0000f0 2f ee 8d be b2 18 1e 3e cb 30 01 be 6a 5c d4 3c
       -0.27720782 0.15439108 -0.1261627 0.025922973
000100 db 0f 79 3d b6 bb 44 3d 3f fd 56 3e b0 a5 a5 bd
       0.060806137 0.048030578 0.20995043 -0.08088243
000110 e8 ef b0 bd 29 63 df bd 9f 70 19 3e 65 47 82 3e
       -0.086395085 -0.10907585 0.14984368 0.25445095
000120 22 83 3f 3e 75 32 05 3e db 66 46 3d f9 4a a8 3e
       0.18702367 0.13007529 0.048437934 0.328697
000130 a4 df 7b bc 0b 1d 91 bd 45 4f 38 3e 17 61 88 bd
       -0.015373144 -0.07085618 0.17998989 -0.066591434
000140 99 3d c9 bd 38 52 1e be 9c 9e 4f bc 4f a7 4c 3d
       -0.09826202 -0.15461051 -0.012672093 0.049964245
000150 52 58 0a 3e 4d f9 b8 3d 94 bb da 3e a7 a3 49 be
       0.13510254 0.09031925 0.42721236 -0.19691335
000160 64 93 17 bf 1e 03 cf 3e e8 ef 0c bb 13 50 22 3d
       -0.59209275 0.40432066 -0.00215053 0.039627146
000170 3c c2 6f bb 17 7b 0e 3e 27 81 48 bd 53 17 d7 bd
       -0.0036584279 0.13914143 -0.048951294 -0.105024956
000180 24 0e d3 be 92 ee 69 3e 3b b4 8e 3e 22 ef d8 bd
       -0.41221726 0.22844914 0.2787188 -0.10592486
000190 28 2b 0b 3d ba bc f2 bc e2 19 cb 3d 4c 11 b7 be
       0.033976704 -0.029631007 0.09917046 -0.35755384
0001a0 b0 ba 9b 3e 92 f0 16 3e 27 a5 50 3d 7d 56 a8 be
       0.3041587 0.14740208 0.05093875 -0.32878485
0001b0 52 13 0e be 23 30 39 3d 50 66 e0 bd ad e0 64 3d
       -0.13874558 0.045211922 -0.109570146 0.05587833
0001c0 62 3c 64 3d b3 32 c1 be 14 1b 1b 3e ee ba 09 3b
       0.055721648 -0.37733993 0.15147048 0.002101596
0001d0 76 0c 30 be 4e cd 0d be f8 c8 92 3e 0f 2a 8a be
       -0.17192253 -0.13847849 0.28668952 -0.26985213
0001e0 0b ef 36 3e 3c 15 b4 3e d6 ed 4c be f8 c7 2e be
       0.17864625 0.3517245 -0.20012602 -0.1706847
0001f0 d5 71 04 bd 5f 54 82 be 80 38 58 be d5 46 c1 3d
       -0.03233512 -0.25454995 -0.21115303 0.09437338
000200 ce ca 6f bd 09 d7 ab 3e 24 44 f7 bd 94 e3 d9 3e
       -0.05854302 0.33562496 -0.12073544 0.4255644
000210 99 b5 60 be d1 d1 56 3e b2 f0 5a 3d 0b dc 4d 3e
       -0.21944274 0.20978476 0.0534522 0.20103471
000220 19 09 79 3e 87 fa 98 3e ca dc 7f be ac 79 ae bc
       0.24319877 0.29878637 -0.24986568 -0.021298252
000230 fc 6a f2 3b 09 33 d5 bc 5d 91 c8 be 0e 45 42 3d
       0.0073980074 -0.026025312 -0.39173403 0.047429137
000240 da fe c7 3e 7c 28 96 be 41 82 54 be bd 67 9d 3d
       0.39061624 -0.29327762 -0.20752813 0.07685802
000250 36 ec c5 3d f0 0e 2c 3e 10 12 be 3e da 89 87 bd
       0.09664194 0.16802573 0.37123156 -0.0661809
000260 ef b6 93 be 6f c8 f7 be 79 97 0a 3e 74 7c 79 be
       -0.28850505 -0.48395106 0.13534345 -0.24363881
000270 43 3f 09 3e cc ab 4e 3e 36 05 c6 bd e0 53 18 be
       0.13403039 0.20182723 -0.09668963 -0.14875746
000280 b8 a6 ac 3e f4 46 00 3f 24 99 58 3e 4b e6 49 3e
       0.33720946 0.50108266 0.21152169 0.19716756
000290 44 62 61 be 68 26 de bd 03 53 a1 bd 17 55 a4 3b
       -0.22010142 -0.10847169 -0.07877161 0.0050150263
0002a0 42 41 1f be 43 c3 6c 3c b7 34 57 3e de 23 4f be
       -0.15552238 0.014450851 0.21016203 -0.20228526
0002b0 62 28 9b bd 8a 4b e3 bc 85 9e 97 bc 4f 0f 50 3e
       -0.07576062 -0.02774598 -0.018508205 0.2031834
0002c0 13 04 f7 3d b3 55 23 3f 31 03 71 3e b5 ae 98 bb
       0.12061324 0.6380264 0.23536374 -0.0046594986
0002d0 da 5d ea 3d cf 57 1a be 99 1a c2 be f4 23 6f 3e
       0.11443682 -0.15072559 -0.37910917 0.23353559
0002e0 b9 7c 0d 3e fb 99 29 3f 40 fe 0e be 75 fa ba be
       0.13817109 0.6625058 -0.13964176 -0.3651921
0002f0 55 28 37 be d6 ef a7 bc d5 37 d4 be 16 0b 54 bd
       -0.17886479 -0.020500105 -0.41448846 -0.051768385
000300 a9 4c a1 3d 89 50 88 be 21 eb b2 be 1e d9 75 3e
       0.0787595 -0.26623943 -0.34945014 0.24008605
000310 3e 8b 59 be c2 84 ca 3e 3d 38 03 be 78 e4 94 be
       -0.21244523 0.3955441 -0.12814422 -0.29080558
000320 a7 d9 26 bf d3 84 d2 3e a7 fd 7b be bc 21 bb bd
       -0.6517586 0.41116962 -0.2460848 -0.09137294
000330 d1 de d2 bd 61 f8 47 3d 79 e7 52 3e 93 6e a6 3e
       -0.10296405 0.048820857 0.20596112 0.32506236
000340 41 f8 e0 be 1d 17 fa be 48 1c e1 be 2c 2b 14 3f
       -0.43939403 -0.4884576 -0.4396689 0.57878375
000350 79 fc 8b bd 4f 6e 93 3e f4 11 e7 be a6 40 c9 3e
       -0.06835265 0.28795096 -0.45130885 0.39307135
000360 48 9d 34 be 7f 0e c0 3c ec 1d 53 3e a2 c7 2f 3e
       -0.17638123 0.023444412 0.20616883 0.17165998
000370 2c ab 94 be a7 4d 2c bd 75 42 a2 3d 52 5e 2c be
       -0.29036844 -0.042066243 0.07922832 -0.16832855
000380 ef 25 5a 3e d1 45 42 3d 25 e7 fa 3e fd 50 44 3e
       0.21303533 0.047429863 0.49004474 0.1917152
000390 84 58 19 3e 0b c0 99 be eb 67 ff 3d 25 fa 89 3e
       0.14975172 -0.3002933 0.12470993 0.26948658
0003a0 44 2c 64 3c 49 14 44 be 88 32 3e be 13 52 13 3e
       0.013926569 -0.19148363 -0.18573964 0.14386778
0003b0 ad 46 a2 3d cf ac 01 be 68 86 0d bf 8b e9 3d bd
       0.079236366 -0.12663577 -0.5528321 -0.046365302
0003c0 10 f6 b3 3c 05 47 89 3c e4 5b 93 be 90 f8 14 be
       0.021967918 0.016757498 -0.28781044 -0.14547944
0003d0 a9 b7 4d 3e f5 c9 c3 3e c8 50 4c 3e 6c 3d 9d bd
       0.20089592 0.38240018 0.1995269 -0.07677731
0003e0 e0 44 f7 3e f7 ab df 3d b7 11 e4 3d e0 6f d0 3e
       0.48294735 0.109214716 0.11136191 0.40710354
0003f0 2b af 7f bb 3c e7 76 be 1b b3 e4 3e 5f 95 30 3e
       -0.003901432 -0.24111646 0.44667897 0.1724448
