results/ZaraReinInteraction/ZARAgoalInteract/ZARAgoalInteract-2922.pt (torch, 690178 bytes, 38 tensors)

discrete_act_size_vector f4 [1, 2]
00000000: 0000 0040 0000 4040
2.0 3.0

network_body.observation_encoder.processors.0.conv_layers.0.weight f4 [16, 5, 8, 8]
00000000: 9359 433c 91c3 43bc 1000 23bc 1e71 a83b
00000010: 6434 393d 23a1 37bc 75b6 303d 7590 b33c
00000020: f043 26bd eab2 373c e3a6 3abd 60c3 7bbc
00000030: b1da 0b3c b8d7 02bd 8e63 b1bc c1c5 0e3d
00000040: 445f 1e3b 8179 15bd 12b9 873c 38d1 4f3d
00000050: abfb 2b3d 9e67 2d3d 9907 173d 253f 20bd
00000060: 237f 93b9 5ab8 7c3c 5b99 a93c f3eb 003d
00000070: e78e 173d 776b 073d c6c2 d43c 4b8f b13b
00000080: d8c8 f5bc 9231 ddbc 5a5f ae3c 9aa5 d1bb
00000090: 42e5 ba3b 57d7 3dbd 09c9 2fbc 002e 473d
000000a0: 22d9 103c 16dc 193d 495c 243d 866f 27bc
000000b0: 84e4 9abc a589 47bd 3260 3fbd 3686 3b3d
000000c0: 716c 4ebd 70ab 483d 167b 14bc 99cc 36bc
000000d0: 20cb 99bc f886 e93c 09b2 433d bd57 19ba
000000e0: 2444 fcbc 0260 01bc 7ab6 d53c 7c4e 2dbd
000000f0: 0ecd 9c3c f722 e43c dae5 5fbd f29e 12bd
00000100: f591 53bd 50df 013c 6fe4 103d 0243 1f3b
00000110: f375 c1bc 204a 63bd 5873 0dbc 7435 5c3c
00000120: 5bcf f63c 54b5 1ebc 8e44 a33c 0752 153d
00000130: f88c 02bd b32e 703c 9ba7 ddbb c55b 423d
00000140: b0d9 0a3d d346 183d 96be c93c cde4 4f3d
00000150: 79ea dabc 2e76 9a3c 2f81 13bd 5022 003d
00000160: cecf 45bd 7fa1 16bb f698 213c a152 213d
00000170: 0cc4 1c3d b3a1 2e3d 64b5 51bc 0bf5 4d3d
00000180: 63d8 b2ba 80e0 94bc c66b 2d3d ab94 f43c
00000190: 4574 b43b d7b6 053d 0ecd 023d f48f 4bbc
000001a0: 406f 64bd 1966 153c f391 7e3c a3cc bc3c
000001b0: f0f3 fabb bff2 20bd 1712 053d c112 01bc
000001c0: 398b e0bc 908f dabb 7bef bd3c cce9 de3c
000001d0: 37f5 1a3c a8af 4e3d 3f26 dcbb d56e 0ebd
000001e0: 7a8c 62bd 1786 4b3d 15ea a43b 6313 2abd
000001f0: 4198 03bd d2f4 73bb 1a79 e13c 4ddf 563c
00000200: 3056 fd3b 2f1a 06bc 28ef ad3c 7138 d23c
00000210: 5980 583d ab26 eb3c b902 2e3c 0211 55bd
00000220: 6168 1cbd 46f1 e5bc 8355 49bd 077d 5ebd
00000230: b1ea adbc e122 293d b158 0cba 349e 50bc
00000240: 5963 adbb 53e1 dcbb 6dd4 493d 6603 0bbd
00000250: dad7 6dbc bb4d 4ebc 26ea 853c 1313 20b8
00000260: 58c9 0d3d f6c5 04bd fb81 c3bc c512 9dbc
00000270: bd8f 62bd e07a 28bd ff2a 953c 33e2 1ebd
00000280: 20a0 a2bc 6c74 9cbc 1850 5ebd d842 cbbc
00000290: f2f5 47bd c2f0 50bd b590 2a3b 1485 5d3d
000002a0: 3fe7 073d 489c 8dbb 1725 91bc 5207 c63c
000002b0: 63ef 223b 0356 1d3c af39 b3bc 1d81 033d
000002c0: 874e 903b a75e 57bd b387 90bc 1c3b 253d
000002d0: da52 f83c 02f0 acbc 0868 3fbd 9111 ebbc
000002e0: 9572 90bc f751 893c 2bb9 953c c277 a23b
000002f0: 3119 adbc 9506 0abc 7636 35bd cde1 f8bc
00000300: 1b99 8dbc c28b 643d 8045 08bd 074d 443d
00000310: 4924 3cbd cf28 bbbc c9b5 99bc f66c fa39
00000320: c4cd 50bd c55a 88bc 7fbb 5e3d 71c0 553d
00000330: 0d88 af3c 7c55 003d 3312 aa3c 7ae2 41bd
00000340: f2d3 1ebd fd5e 7a3b 68f3 173d 567a 24bd
00000350: 1703 113d aff1 333d c35c 0e3d 00cf 073d
00000360: f845 31bd 5795 3cbd 208a 853b 0828 33bd
00000370: 0c7a 28bd c003 b93c 3555 29bd 05cb 983c
00000380: 2b97 0fbc e218 783c af1d 093d 64d4 563d
00000390: 0406 cebc abef a23c 9ce6 a0ba 7df7 f5bc
000003a0: c501 963c 02c5 4bbd 4337 a9bc 4ec4 683b
000003b0: 991c 77bb 8485 623b a490 44bd a228 5e3d
000003c0: 577c 113c 805a 403d 6eb3 61bd 6a0b 45bd
000003d0: 52c2 49bd 6b27 3b3d 354c 433d c56d 4e3d
000003e0: 431a 34bd bd7e 42bd 9744 19bd bed3 fdbb
000003f0: 3404 903c c404 373d 2bf9 40bc b453 7e3b
0.011923212 -0.011948482 -0.009948745 0.0051404377 0.04521598 -0.011207852 0.043142755 0.021919468
-0.040592134 0.01121209 -0.04556931 -0.015366405 0.008536027 -0.031944007 -0.021653917 0.03485656
0.002416567 -0.03649283 0.01656774 0.050736636 0.041988056 0.042335145 0.03687248 -0.03912272
-0.0002813275 0.015424812 0.020703008 0.03147502 0.037001517 0.03306147 0.025971781 0.005418693
-0.030002996 -0.027001176 0.021285702 -0.006397915 0.005703599 -0.046347942 -0.010729083 0.048627853
0.008840831 0.037563406 0.040127072 -0.01021946 -0.018907793 -0.048715252 -0.0467226 0.04578229
-0.050396387 0.04899162 -0.009062549 -0.011157178 -0.018773615 0.02850674 0.04777721 -0.0005849561
-0.03079421 -0.007896425 0.026087988 -0.042311177 0.019140746 0.027848704 -0.054662563 -0.035796113
-0.051652867 0.007926777 0.0353741 0.0024301414 -0.023615813 -0.055490613 -0.008633457 0.013440479
0.030128172 -0.009686787 0.01993015 0.03645518 -0.03187272 0.014659571 -0.006764365 0.0474508
0.03389901 0.03717692 0.024627011 0.05075531 -0.026723133 0.01885518 -0.03601187 0.031282723
-0.04829388 -0.0022984443 0.009863129 0.03938544 0.038272902 0.042634677 -0.012799595 0.05028252
-0.001364481 -0.018173456 0.04233911 0.029856047 0.0055070245 0.032645073 0.031933837 -0.012424458
-0.05577016 0.00911858 0.015537727 0.023046797 -0.007658474 -0.039294 0.032487955 -0.007878006
-0.027410137 -0.006669946 0.023185482 0.027211092 0.009457878 0.050460488 -0.0067184265 -0.034773666
-0.05530975 0.049688425 0.0050327876 -0.041522395 -0.032127623 -0.0037224782 0.027523566 0.0131147625
0.0077312216 -0.008184954 0.021232203 0.025661679 0.052856777 0.028704962 0.010620766 -0.052018173
-0.03818548 -0.02806915 -0.049153816 -0.054318454 -0.021230074 0.04129303 -0.0005353792 -0.012733031
-0.005291384 -0.006740728 0.04927485 -0.033938788 -0.014516795 -0.012591775 0.016347002 -3.8164737e-05
0.034615844 -0.032415353 -0.02386569 -0.01917399 -0.05531286 -0.041132808 0.018208979 -0.03878994
-0.019851744 -0.019098483 -0.054275602 -0.024812147 -0.048818536 -0.051010855 0.0026026194 0.05408199
0.033179518 -0.0043216087 -0.017717881 0.024173412 0.0024861924 0.009603026 -0.021878092 0.032105554
0.0044038924 -0.052580502 -0.017642831 0.040339574 0.030312944 -0.021110538 -0.04673007 -0.0286949
-0.017632762 0.016762717 0.018276772 0.004958124 -0.021130176 -0.008424421 -0.04424139 -0.030381108
-0.01728492 0.055797346 -0.033269405 0.04792502 -0.04593304 -0.022846607 -0.01876344 0.00047764898
-0.050977483 -0.016644845 0.05437803 0.05218548 0.021427179 0.031331524 0.020760631 -0.047335126
-0.038776346 0.003820359 0.037097365 -0.04015573 0.035403337 0.04393166 0.034756433 0.033156395
-0.043279618 -0.04604086 0.0040753037 -0.04373935 -0.041132018 0.022584796 -0.041341025 0.018651495
-0.008764069 0.015142651 0.033475574 0.052448645 -0.025149353 0.019889673 -0.0012275758 -0.030025238
0.01831139 -0.04974843 -0.020656234 0.0035517397 -0.0037706255 0.0034564445 -0.047989503 0.05423797
0.008879743 0.046961308 -0.055102758 -0.04810659 -0.049257584 0.04569189 0.0476801 0.050397653
-0.043970358 -0.04748415 -0.037418928 -0.007746189 0.01758013 0.04468228 -0.011778156 0.0038807215

network_body.observation_encoder.processors.0.conv_layers.0.bias f4 [16]
00000000: c9af d83c fcfe 6e3c d4dd 10bc a786 5a3d
00000010: dc80 0a3d f6e3 69bc e43b e0bb 1fb4 4e3d
00000020: b036 a13c 4b69 b93b d8bb ec3c 252c ae3b
00000030: 5be2 583d 7b85 033d 25af a7bc a787 94bc
0.026451008 0.01458716 -0.00884195 0.05335107 0.033814296 -0.0142755415 -0.006843077 0.050464746
0.019679397 0.005658304 0.028898165 0.005315321 0.052950244 0.03210972 -0.020469258 -0.01813109

network_body.observation_encoder.processors.0.conv_layers.2.weight f4 [32, 16, 4, 4]
00000000: 228b 093d 20b2 06bd 6c0f 93bc 9248 f1bc
00000010: 7cf2 be3c 6653 e9bc 02a7 583d 603f 8c3b
00000020: 70e0 553d 0278 1f3d 5c60 f8bc 16a1 edbc
00000030: f8a5 593d c0e9 b2ba 5701 79bd b8ac c73c
00000040: fc1e 143d 88b3 21bc 2a32 f0bc a855 793c
00000050: 4031 103b c024 883c 90ea d53c 5083 b4bc
00000060: 4023 8d3c 6086 8d3c d563 52bd 68b4 42bc
00000070: c423 bc3c 52f7 fabc c29a 003d 50e1 aa3c
00000080: 80e0 c03b f203 183d 4e0f 3a3d 6ccb 663d
00000090: 90e1 99bb 2897 1f3d 6c0b f83c f651 abbc
000000a0: 9cae 563d b04c 46bd d08a f23b 18bf 633c
000000b0: 8c8a f93c c8c7 b2bc 98cb 173d 5e07 023d
000000c0: 3071 0c3c 0c02 41bc 40a1 a83c 9070 6fbb
000000d0: ac52 fabc f833 213c 9cac 39bd 9012 1abb
000000e0: 004c dd3c 7642 7d3d 6c83 43bd 88f4 50bd
000000f0: 8824 21bd 5891 a13c 44a7 513d 3a10 9dbc
00000100: 709f 6c3d 3827 103d 90d5 a4bc 2897 333d
00000110: 5e4d bcbc 0067 a7bc f0d5 6e3c e010 6a3c
00000120: 20e3 543c 8002 613c 4c8e 4fbd 908c b8bc
00000130: c798 0dbd 7258 573d be4b cebc 482c 42bc
00000140: ac4b 723d 4eff 23bd 76f9 18bd 4283 5e3d
00000150: d000 d53b b055 a53b 883e 86bb 1e71 1e3d
00000160: 32d8 6b3d 5083 6abd b86b 663c e028 293d
00000170: 5071 333d 10d0 cf3b 7a93 3a3d 784c 81bb
00000180: dc68 5dbd c0c5 c63b eeb4 3ebd 2ac6 5f3d
00000190: 90e1 29bd b093 e7bc a412 28bd 1c48 403d
000001a0: 0029 733a 822e 4dbd baf0 2e3d 9c69 1ebd
000001b0: e6a8 513d 57d4 4fbd c8ae cbbc d87f 8d3c
000001c0: c4e2 61bd a8d2 913c 59ad 4bbd 00c7 26bd
000001d0: 060c 203d b494 22bc c083 e23b 5850 b93c
000001e0: e085 92bb 0c2e 8cbc 70c4 bdbb 049b 53bd
000001f0: 68a7 79bd 72e3 5dbd 6aa2 6d3d 9066 513d
00000200: 6aa8 293d 9794 18bd 9c5a 48bc da48 07bd
00000210: c048 3dbd e070 303b 60bd d8bc 98b8 e3bb
00000220: f627 713d 4a46 a4bc 9ec9 443d 5ad3 323d
00000230: f849 5b3d dc34 ca3c 60bf bcbc 20c9 4abc
00000240: e853 20bc c0e7 643c 4890 dd3c ea9d 95bc
00000250: b096 80bc 0cc0 bc3c 7053 853c 905f 40bd
00000260: c4a5 de3c e861 613c d0bd bd3c c078 363b
00000270: 8008 8e3a 5cca 7cbc 9ed0 27bd 7043 e1bc
00000280: 103b 2ebc 9cb4 5bbd dcc8 2f3d 1cf3 01bd
00000290: b02e 44bd c4c7 563d 8243 733d dc90 923c
000002a0: 9a1d fdbc 8649 67bd c866 e73c 0052 2239
000002b0: dc92 2bbc 0d63 01bd dc4d 4b3d f81c fcbc
000002c0: a071 c43b 822c 353d f08b 353d 8103 57bd
000002d0: 8858 0c3d a1b2 51bd a88e 3abc dee9 79bd
000002e0: f868 343d 60d7 c3bb 24fb 97bc 6a14 80bc
000002f0: d435 29bc dce7 833c e0ec b53b 8a8b 5b3d
00000300: a87c 73bc 6016 4bbc 285b a23c 60d5 b03c
00000310: 0e34 acbc ac79 76bc 86d6 11bd 6eb7 143d
00000320: 9839 593d 8a2e 703d 0a78 263d 9875 f73c
00000330: 108c 1dbd 5886 123c 8a75 413d b02e 13bc
00000340: cedb 333d 661f 88bc 3068 16bd 406f adbc
00000350: 1407 743d 0059 7c3d 40d8 c53c 9cb9 3cbc
00000360: 8447 973c 00b6 893b 067a 123d 40de a63a
00000370: cc0f d1bc c8b3 0cbc 2a21 013d acdf 073d
00000380: 8078 c83b d0ee 3abb 8075 d2b9 c290 71bd
00000390: 446b 843c 9ce9 41bd 38d2 2b3d c099 14ba
000003a0: 009f 06bc b8a0 363c 6e16 cabc e411 013d
000003b0: da5a 89bc c7f5 38bd 000c 7ab9 dc98 1c3d
000003c0: 9a4a b7bc 6e26 7d3d 30b7 983c 1c73 223d
000003d0: 0603 4e3d d872 82bb 8896 3a3d a003 aa3c
000003e0: b85c 41bd 1ab4 133d 4019 6fbc b8b6 003c
000003f0: e27d 353d a4ba b7bc 2eea f9bc e444 343d
0.033579953 -0.032884717 -0.01795169 -0.02945355 0.023308985 -0.02848215 0.052893646 0.004280016
0.052215993 0.038932808 -0.030319385 -0.029007476 0.053136796 -0.0013649985 -0.060792293 0.02437435
0.03616236 -0.009869464 -0.029320795 0.015218176 0.0022002012 0.016619086 0.026112825 -0.02203527
0.017228723 0.017275989 -0.05136474 -0.0118838325 0.022966273 -0.03063551 0.03139759 0.02085939
0.0058861375 0.037113138 0.045424752 0.056346342 -0.0046960786 0.038962513 0.030278884 -0.020913105
0.052412614 -0.04841298 0.0074018016 0.013900541 0.030461572 -0.021823779 0.037059397 0.031745307
0.008571908 -0.011780273 0.020584702 -0.0036535598 -0.030557 0.0098390505 -0.04533063 -0.00235096
0.027013779 0.06183096 -0.047732756 -0.051014453 -0.03934148 0.019722626 0.051184908 -0.019172776
0.05776924 0.035193652 -0.020121366 0.043845326 -0.02298611 -0.020434856 0.014577374 0.01428625
0.012993604 0.013733506 -0.050672814 -0.022527963 -0.034569528 0.052574582 -0.025182601 -0.011851378
0.059154198 -0.0400384 -0.03734728 0.054324396 0.006500341 0.005045615 -0.00409681 0.038682096
0.057579227 -0.057254136 0.014063768 0.041298747 0.043809235 0.0063419417 0.0455508 -0.0039458834
-0.05405508 0.006066054 -0.046559267 0.054632343 -0.04147488 -0.028268665 -0.041033402 0.04694377
0.0009275824 -0.05009318 0.042710043 -0.038674936 0.051186465 -0.050739612 -0.024863616 0.017272875
-0.0551479 0.017800644 -0.049725864 -0.040717125 0.039073966 -0.009923149 0.0069126785 0.022621319
-0.0044715255 -0.0171118 -0.0057912394 -0.051661506 -0.060950667 -0.054171987 0.05801622 0.0511232
0.041420378 -0.03725108 -0.012228634 -0.03302846 -0.046211958 0.0026922747 -0.026457489 -0.0069494955
0.058876 -0.020053048 0.04804384 0.04365859 0.05353734 0.024683408 -0.023040473 -0.0123770535
-0.00978563 0.013971269 0.027046338 -0.018263776 -0.015696853 0.023040794 0.016275138 -0.046966136
0.027178653 0.013756253 0.023161799 0.0027842969 0.0010836273 -0.015429106 -0.040970437 -0.027497977
-0.010634199 -0.05363904 0.042916164 -0.031725988 -0.047896087 0.052436605 0.059390552 0.01789134
-0.030897904 -0.0564666 0.028247252 0.00015480071 -0.010472026 -0.031588603 0.0496348 -0.030775532
0.0059949905 0.0442319 0.044322908 -0.052493576 0.034264117 -0.051195744 -0.011386551 -0.06101405
0.04404542 -0.0059766024 -0.01855237 -0.015634734 -0.010327775 0.01610177 0.0055519193 0.05359987
-0.014861263 -0.012395471 0.019818857 0.02158612 -0.021020915 -0.015043657 -0.035604976 0.036307745
0.05303344 0.058638133 0.040641822 0.03020744 -0.038463652 0.008943163 0.047231235 -0.008983299
0.043910794 -0.016616534 -0.036720455 -0.021171212 0.059577063 0.061608315 0.024150968 -0.011518862
0.018466718 0.0042026043 0.035760902 0.0012731031 -0.025520228 -0.008587785 0.03152577 0.033172294
0.0061178803 -0.002852369 -0.00040141866 -0.058975942 0.01616443 -0.047341928 0.041948527 -0.00056686625
-0.0082166195 0.011146717 -0.024668898 0.031511202 -0.016766954 -0.045156267 -0.00023846328 0.038231716
-0.02237444 0.061804228 0.018642038 0.039660558 0.050295852 -0.0039809756 0.045553714 0.020753682
-0.047207564 0.03606043 -0.014593422 0.007856064 0.044309504 -0.022427864 -0.030507173 0.04401101

network_body.observation_encoder.processors.0.conv_layers.2.bias f4 [32]
00000000: faec 18bd c4f7 8c3c 5a60 eabc 7c72 4bbc
00000010: 82b9 763d dcf4 a13c 46c6 563d 04c7 24bd
00000020: d276 423d 78ed 523d 7074 28bd 0873 7dbd
00000030: 820c 37bd f084 ab3b a06e 313d c065 aabc
00000040: 72f3 6cbd 8cda 333d 08eb f7bc 88cd 933c
00000050: 2082 c03b 4c0c 15bd 80a7 e03c 69b1 1bbd
00000060: 2338 0bbd 0049 5f3a 0068 513b 3207 8fbc
00000070: f4e1 2e3d 3214 58bd 3a2d 403d a488 49bc
-0.037335373 0.017207988 -0.028610397 -0.012417432 0.060235508 0.019770078 0.052435182 -0.04022886
0.047476597 0.051496 -0.04112667 -0.06187728 -0.044689663 0.0052343532 0.04331839 -0.020800471
-0.057849355 0.043909594 -0.030263439 0.01804234 0.005874887 -0.03638868 0.02742362 -0.03801099
-0.033989083 0.0008517653 0.0031952858 -0.017459486 0.042695954 -0.052753635 0.04691813 -0.012300644

network_body.observation_encoder.processors.0.dense.0.weight f4 [128, 32]
00000000: 5a3c d33d 9753 773e 6674 2bbe 2f9e 96be
00000010: 4d0d 74be 8fe2 50be 9243 41bd 987a 613d
00000020: 6758 133d c2c3 e93d e360 c03d 12fe 503e
00000030: aac2 083f 878b fa3c 2fab 5f3d d904 1abe
00000040: efad b0bd 6c05 b8be 08bb 38be 9576 c0be
00000050: e771 85be fa2e 17be 5e23 6fbe de59 9a3e
00000060: 8cbe 2dbe a3c1 37be df76 253e b8f8 433d
00000070: 3886 903e ddfb 2fbe 6ce7 0cbe a285 203d
00000080: 3cc5 36be d0dc e73e 8e3f 6b3e 0e79 11bd
00000090: 8ab6 1a3e e8ab bc3d 635e 45bd 5a92 af3d
000000a0: 3380 293e 6bbb f03c 1e3f f1ba 1019 4d3c
000000b0: 73c6 d8be 2c19 00bd b7fa dc3e 94cb f83d
000000c0: 4db8 473e cccd c1bc 6666 a8be 0a1e 94bc
000000d0: b5d8 90bd 6ca9 89bd 184b 9b3e 7312 2ebe
000000e0: 77b0 3f3e 9e85 f1bd 5088 60be 945e 22be
000000f0: 0dca c8bd 2812 3ebd 39a3 cb3e ed68 03bf
00000100: 8513 fb3a 6cd6 e63d 71e6 2abe 1e8c a33d
00000110: 78dd a43e 3af8 643c 7ecc 263d 2b98 00bd
00000120: c560 0ebe 266a 7a3e f2c8 24be 61c7 17be
00000130: 8012 a2be 05e2 f7bd 7f45 91bd 5a8e 973e
00000140: 6632 e4be a1ab 38be 0398 3cbe 7f98 e43d
00000150: 401d 63be d9b4 fabb 9744 323e c48a b13d
00000160: 28a5 cebe bfcf e13e 6191 9a3d 019b c3bd
00000170: 3540 da3d b456 b73d 27f5 08be 5f57 323e
00000180: b03e 113e 6b52 90be f481 373d e3ee dc3a
00000190: 450e 98be 70db b2bd 2c88 16bf 0657 04be
000001a0: b396 5b3b 71da c63d a8d5 cc3d 74e7 ffbd
000001b0: d5b6 81be 06c7 c3bd e390 cc3d 7052 bf3d
000001c0: 2400 ce3d 30bf 913e 1ad3 9c3c fcb2 323e
000001d0: 413f f53d 563d 743d 358a 183e a652 1d3d
000001e0: 51cd b8bd 03ff 92be 2772 ae3e 3473 ea3d
000001f0: aa83 90be 596b 993e 198b 5ebe 6a4d 903e
00000200: bc93 9dbb a83f 82be 9f70 f8bb 5525 623e
00000210: 2955 5a3e 2bcb cfbd 71eb 69be 7551 2abe
00000220: d928 f63e d599 11bd 4d9f 9ebe 3982 913e
00000230: 5a71 03be d025 2cbe d7a2 8ebe 3455 8a3e
00000240: da0c c6bd e30f 6c3e 50ec 03bd c28d b43e
00000250: 2375 8b3d 588e 563e 07bc 01be e85b 65bc
00000260: d094 fa3e 8051 7e3e c215 88be 21b9 b0be
00000270: e8ce a63c 3077 33bf 6cff bc3e 829b ca3c
00000280: 06cd 9bbe 7cb3 c33e 4ed9 ebbd 4a76 8e3d
00000290: b118 463d 739c d7be da6e 3f3e cba4 093e
000002a0: de39 a93e 5cbb 9c3e 0ef4 3e3e b334 3b3d
000002b0: e353 933e 7365 5a3e 41ed c63d 8299 65be
000002c0: 4706 27be 526e b53d 2139 fdbd d901 debd
000002d0: b605 aebe c99f 4abe 1d5b 6fbd 61ba debd
000002e0: 14ab 763e 6d94 babe e67e a3be 9a67 93bd
000002f0: 3533 94be bf54 2d3e ed0f ac3c 5f02 c9bd
00000300: d3f6 ac3e e98a 213e 7cb0 81be 223c c3bd
00000310: 8f89 79be cd25 41be 886a 4dbf 4d7d ce3d
00000320: 9d41 02be ba11 a93c 6b50 ac3d ae87 773e
00000330: 5d12 74bd 80a0 b03d be8e 74be 3d1e 523e
00000340: 2478 0e3f d0d8 31be fa07 5bbe 08b3 c2be
00000350: 4c91 543e 7f39 82be 66f3 39be 4f41 7cbd
00000360: cad6 153e e17f ce3e 35b6 eabe 1897 9d3d
00000370: 7416 253e 0a8a 2b3d e38f 96be dce3 b23e
00000380: 2eb6 e5be 8e92 b9be 7474 b33d 2429 043e
00000390: 7200 bdbd 4917 ac3e c8e5 88be 87a6 153e
000003a0: d76c a0bd 0d64 103c d828 1c3e bef6 fdbd
000003b0: 03e1 af3e 3bfc 863e 3778 f43e 2153 d73d
000003c0: cf49 1b3c e72e 763c eb71 40be 4078 33be
000003d0: c22b a1be 7ad7 b4bd 46ee 2bbe 4f08 13bf
000003e0: ac25 e9b8 405b dd3e 5ced 813e 43dc 753e
000003f0: 4cb0 33be 3d01 a3be 9a97 1b3d d2a2 613e
0.103142455 0.2415298 -0.16743621 -0.2941756 -0.23833199 -0.20398925 -0.04718358 0.055048555
0.03597298 0.11414291 0.0939348 0.2040942 0.53422034 0.03058411 0.054606613 -0.15040912
-0.08626925 -0.35941637 -0.18040097 -0.3759047 -0.26063463 -0.14764014 -0.23353335 0.30146688
-0.16967219 -0.1794496 0.16158627 0.04784462 0.282274 -0.17185922 -0.13760155 0.039189942
-0.17848676 0.45285654 0.22973463 -0.035515837 0.15108696 0.09212476 -0.048185717 0.08572836
0.1655281 0.029386243 -0.0018405651 0.012518182 -0.42338905 -0.031274006 0.4316003 0.121482044
0.19503899 -0.023657702 -0.32890624 -0.01808073 -0.070725836 -0.06721768 0.3033073 -0.16999225
0.1871966 -0.117930636 -0.21926999 -0.15856391 -0.09804163 -0.046404034 0.39772967 -0.5133198
0.0019155598 0.112713665 -0.16689469 0.079857096 0.32200217 0.013975197 0.040722363 -0.03139512
-0.13904102 0.24454555 -0.1609228 -0.14822151 -0.3165474 -0.12103657 -0.070933335 0.29600793
-0.445697 -0.18034221 -0.18417363 0.11161899 -0.22179127 -0.0076509533 0.17408977 0.086690456
-0.4036038 0.4410381 0.0754726 -0.09551049 0.10656778 0.08952084 -0.13374768 0.17416142
0.1418407 -0.2818788 0.044801667 0.0016855862 -0.29698387 -0.08733261 -0.5880153 -0.12923822
0.0033506572 0.09709633 0.10001689 -0.12495318 -0.25334802 -0.09559445 0.099885724 0.093418956
0.100586206 0.28466177 0.01914363 0.1745109 0.11974955 0.059628807 0.14896472 0.038408898
-0.09023536 -0.28710184 0.34071466 0.114477545 -0.28225452 0.29964712 -0.21732749 0.28184062
-0.004808871 -0.2543919 -0.007581785 0.22084554 0.21321549 -0.10146173 -0.2284372 -0.16632636
0.4807804 -0.035547096 -0.30980912 0.28419665 -0.12836209 -0.168113 -0.27858612 0.2701813
-0.0967042 0.23052935 -0.032207787 0.35264403 0.068094514 0.20952737 -0.12669383 -0.013998963
0.4894166 0.24835777 -0.265791 -0.34516242 0.020362332 -0.7010374 0.3691362 0.024732355
-0.30429858 0.38222873 -0.11516057 0.069561556 0.04836339 -0.4211155 0.1869463 0.1344177
0.33051962 0.30611694 0.18647787 0.045704555 0.28774938 0.21327762 0.09713221 -0.2242184
-0.16310988 0.088589326 -0.12364412 -0.10840196 -0.33988732 -0.19787516 -0.0584365 -0.10875393
0.24088699 -0.36441365 -0.31932753 -0.07197495 -0.28945318 0.1692686 0.021003688 -0.098149054
0.33782062 0.15775646 -0.2532996 -0.09532954 -0.2436888 -0.18862076 -0.8024068 0.10082493
-0.12720342 0.020638335 0.08413776 0.24172851 -0.059587825 0.08624363 -0.23882577 0.20519347
0.5565207 -0.17367864 -0.21389762 -0.38027215 0.20758551 -0.2543449 -0.18159255 -0.06158572
0.14632717 0.4033194 -0.45842138 0.076948345 0.16121846 0.04187969 -0.29406652 0.34939468
-0.44865555 -0.36244625 0.08762446 0.12906319 -0.092286006 0.33611515 -0.2673781 0.14614306
-0.078332596 0.008812916 0.15249956 -0.12400578 0.34351358 0.26364312 0.47747967 0.105139025
0.009478047 0.015025831 -0.18793456 -0.1752634 -0.31478697 -0.088301614 -0.16790113 -0.5743455
-0.00011117323 0.4323368 0.25376403 0.24009804 -0.1754772 -0.31836882 0.037986375 0.22034767

network_body.observation_encoder.processors.0.dense.0.bias f4 [128]
00000000: 0000 0000 0000 0000 0000 0000 0000 0000
00000010: 0000 0000 0000 0000 0000 0000 0000 0000
00000020: 0000 0000 0000 0000 0000 0000 0000 0000
00000030: 0000 0000 0000 0000 0000 0000 0000 0000
00000040: 0000 0000 0000 0000 0000 0000 0000 0000
00000050: 0000 0000 0000 0000 0000 0000 0000 0000
00000060: 0000 0000 0000 0000 0000 0000 0000 0000
00000070: 0000 0000 0000 0000 0000 0000 0000 0000
00000080: 0000 0000 0000 0000 0000 0000 0000 0000
00000090: 0000 0000 0000 0000 0000 0000 0000 0000
000000a0: 0000 0000 0000 0000 0000 0000 0000 0000
000000b0: 0000 0000 0000 0000 0000 0000 0000 0000
000000c0: 0000 0000 0000 0000 0000 0000 0000 0000
000000d0: 0000 0000 0000 0000 0000 0000 0000 0000
000000e0: 0000 0000 0000 0000 0000 0000 0000 0000
000000f0: 0000 0000 0000 0000 0000 0000 0000 0000
00000100: 0000 0000 0000 0000 0000 0000 0000 0000
00000110: 0000 0000 0000 0000 0000 0000 0000 0000
00000120: 0000 0000 0000 0000 0000 0000 0000 0000
00000130: 0000 0000 0000 0000 0000 0000 0000 0000
00000140: 0000 0000 0000 0000 0000 0000 0000 0000
00000150: 0000 0000 0000 0000 0000 0000 0000 0000
00000160: 0000 0000 0000 0000 0000 0000 0000 0000
00000170: 0000 0000 0000 0000 0000 0000 0000 0000
00000180: 0000 0000 0000 0000 0000 0000 0000 0000
00000190: 0000 0000 0000 0000 0000 0000 0000 0000
000001a0: 0000 0000 0000 0000 0000 0000 0000 0000
000001b0: 0000 0000 0000 0000 0000 0000 0000 0000
000001c0: 0000 0000 0000 0000 0000 0000 0000 0000
000001d0: 0000 0000 0000 0000 0000 0000 0000 0000
000001e0: 0000 0000 0000 0000 0000 0000 0000 0000
000001f0: 0000 0000 0000 0000 0000 0000 0000 0000
0.0 0.0 0.0 0.0 0.0 0.0 0.0 0.0
0.0 0.0 0.0 0.0 0.0 0.0 0.0 0.0
0.0 0.0 0.0 0.0 0.0 0.0 0.0 0.0
0.0 0.0 0.0 0.0 0.0 0.0 0.0 0.0
0.0 0.0 0.0 0.0 0.0 0.0 0.0 0.0
0.0 0.0 0.0 0.0 0.0 0.0 0.0 0.0
0.0 0.0 0.0 0.0 0.0 0.0 0.0 0.0
0.0 0.0 0.0 0.0 0.0 0.0 0.0 0.0
0.0 0.0 0.0 0.0 0.0 0.0 0.0 0.0
0.0 0.0 0.0 0.0 0.0 0.0 0.0 0.0
0.0 0.0 0.0 0.0 0.0 0.0 0.0 0.0
0.0 0.0 0.0 0.0 0.0 0.0 0.0 0.0
0.0 0.0 0.0 0.0 0.0 0.0 0.0 0.0
0.0 0.0 0.0 0.0 0.0 0.0 0.0 0.0
0.0 0.0 0.0 0.0 0.0 0.0 0.0 0.0
0.0 0.0 0.0 0.0 0.0 0.0 0.0 0.0

network_body.processors.0.conv_layers.0.weight f4 [16, 5, 8, 8]
00000000: 9359 433c 91c3 43bc 1000 23bc 1e71 a83b
00000010: 6434 393d 23a1 37bc 75b6 303d 7590 b33c
00000020: f043 26bd eab2 373c e3a6 3abd 60c3 7bbc
00000030: b1da 0b3c b8d7 02bd 8e63 b1bc c1c5 0e3d
00000040: 445f 1e3b 8179 15bd 12b9 873c 38d1 4f3d
00000050: abfb 2b3d 9e67 2d3d 9907 173d 253f 20bd
00000060: 237f 93b9 5ab8 7c3c 5b99 a93c f3eb 003d
00000070: e78e 173d 776b 073d c6c2 d43c 4b8f b13b
00000080: d8c8 f5bc 9231 ddbc 5a5f ae3c 9aa5 d1bb
00000090: 42e5 ba3b 57d7 3dbd 09c9 2fbc 002e 473d
000000a0: 22d9 103c 16dc 193d 495c 243d 866f 27bc
000000b0: 84e4 9abc a589 47bd 3260 3fbd 3686 3b3d
000000c0: 716c 4ebd 70ab 483d 167b 14bc 99cc 36bc
000000d0: 20cb 99bc f886 e93c 09b2 433d bd57 19ba
000000e0: 2444 fcbc 0260 01bc 7ab6 d53c 7c4e 2dbd
000000f0: 0ecd 9c3c f722 e43c dae5 5fbd f29e 12bd
00000100: f591 53bd 50df 013c 6fe4 103d 0243 1f3b
00000110: f375 c1bc 204a 63bd 5873 0dbc 7435 5c3c
00000120: 5bcf f63c 54b5 1ebc 8e44 a33c 0752 153d
00000130: f88c 02bd b32e 703c 9ba7 ddbb c55b 423d
00000140: b0d9 0a3d d346 183d 96be c93c cde4 4f3d
00000150: 79ea dabc 2e76 9a3c 2f81 13bd 5022 003d
00000160: cecf 45bd 7fa1 16bb f698 213c a152 213d
00000170: 0cc4 1c3d b3a1 2e3d 64b5 51bc 0bf5 4d3d
00000180: 63d8 b2ba 80e0 94bc c66b 2d3d ab94 f43c
00000190: 4574 b43b d7b6 053d 0ecd 023d f48f 4bbc
000001a0: 406f 64bd 1966 153c f391 7e3c a3cc bc3c
000001b0: f0f3 fabb bff2 20bd 1712 053d c112 01bc
000001c0: 398b e0bc 908f dabb 7bef bd3c cce9 de3c
000001d0: 37f5 1a3c a8af 4e3d 3f26 dcbb d56e 0ebd
000001e0: 7a8c 62bd 1786 4b3d 15ea a43b 6313 2abd
000001f0: 4198 03bd d2f4 73bb 1a79 e13c 4ddf 563c
00000200: 3056 fd3b 2f1a 06bc 28ef ad3c 7138 d23c
00000210: 5980 583d ab26 eb3c b902 2e3c 0211 55bd
00000220: 6168 1cbd 46f1 e5bc 8355 49bd 077d 5ebd
00000230: b1ea adbc e122 293d b158 0cba 349e 50bc
00000240: 5963 adbb 53e1 dcbb 6dd4 493d 6603 0bbd
00000250: dad7 6dbc bb4d 4ebc 26ea 853c 1313 20b8
00000260: 58c9 0d3d f6c5 04bd fb81 c3bc c512 9dbc
00000270: bd8f 62bd e07a 28bd ff2a 953c 33e2 1ebd
00000280: 20a0 a2bc 6c74 9cbc 1850 5ebd d842 cbbc
00000290: f2f5 47bd c2f0 50bd b590 2a3b 1485 5d3d
000002a0: 3fe7 073d 489c 8dbb 1725 91bc 5207 c63c
000002b0: 63ef 223b 0356 1d3c af39 b3bc 1d81 033d
000002c0: 874e 903b a75e 57bd b387 90bc 1c3b 253d
000002d0: da52 f83c 02f0 acbc 0868 3fbd 9111 ebbc
000002e0: 9572 90bc f751 893c 2bb9 953c c277 a23b
000002f0: 3119 adbc 9506 0abc 7636 35bd cde1 f8bc
00000300: 1b99 8dbc c28b 643d 8045 08bd 074d 443d
00000310: 4924 3cbd cf28 bbbc c9b5 99bc f66c fa39
00000320: c4cd 50bd c55a 88bc 7fbb 5e3d 71c0 553d
00000330: 0d88 af3c 7c55 003d 3312 aa3c 7ae2 41bd
00000340: f2d3 1ebd fd5e 7a3b 68f3 173d 567a 24bd
00000350: 1703 113d aff1 333d c35c 0e3d 00cf 073d
00000360: f845 31bd 5795 3cbd 208a 853b 0828 33bd
00000370: 0c7a 28bd c003 b93c 3555 29bd 05cb 983c
00000380: 2b97 0fbc e218 783c af1d 093d 64d4 563d
00000390: 0406 cebc abef a23c 9ce6 a0ba 7df7 f5bc
000003a0: c501 963c 02c5 4bbd 4337 a9bc 4ec4 683b
000003b0: 991c 77bb 8485 623b a490 44bd a228 5e3d
000003c0: 577c 113c 805a 403d 6eb3 61bd 6a0b 45bd
000003d0: 52c2 49bd 6b27 3b3d 354c 433d c56d 4e3d
000003e0: 431a 34bd bd7e 42bd 9744 19bd bed3 fdbb
000003f0: 3404 903c c404 373d 2bf9 40bc b453 7e3b
0.011923212 -0.011948482 -0.009948745 0.0051404377 0.04521598 -0.011207852 0.043142755 0.021919468
-0.040592134 0.01121209 -0.04556931 -0.015366405 0.008536027 -0.031944007 -0.021653917 0.03485656
0.002416567 -0.03649283 0.01656774 0.050736636 0.041988056 0.042335145 0.03687248 -0.03912272
-0.0002813275 0.015424812 0.020703008 0.03147502 0.037001517 0.03306147 0.025971781 0.005418693
-0.030002996 -0.027001176 0.021285702 -0.006397915 0.005703599 -0.046347942 -0.010729083 0.048627853
0.008840831 0.037563406 0.040127072 -0.01021946 -0.018907793 -0.048715252 -0.0467226 0.04578229
-0.050396387 0.04899162 -0.009062549 -0.011157178 -0.018773615 0.02850674 0.04777721 -0.0005849561
-0.03079421 -0.007896425 0.026087988 -0.042311177 0.019140746 0.027848704 -0.054662563 -0.035796113
-0.051652867 0.007926777 0.0353741 0.0024301414 -0.023615813 -0.055490613 -0.008633457 0.013440479
0.030128172 -0.009686787 0.01993015 0.03645518 -0.03187272 0.014659571 -0.006764365 0.0474508
0.03389901 0.03717692 0.024627011 0.05075531 -0.026723133 0.01885518 -0.03601187 0.031282723
-0.04829388 -0.0022984443 0.009863129 0.03938544 0.038272902 0.042634677 -0.012799595 0.05028252
-0.001364481 -0.018173456 0.04233911 0.029856047 0.0055070245 0.032645073 0.031933837 -0.012424458
-0.05577016 0.00911858 0.015537727 0.023046797 -0.007658474 -0.039294 0.032487955 -0.007878006
-0.027410137 -0.006669946 0.023185482 0.027211092 0.009457878 0.050460488 -0.0067184265 -0.034773666
-0.05530975 0.049688425 0.0050327876 -0.041522395 -0.032127623 -0.0037224782 0.027523566 0.0131147625
0.0077312216 -0.008184954 0.021232203 0.025661679 0.052856777 0.028704962 0.010620766 -0.052018173
-0.03818548 -0.02806915 -0.049153816 -0.054318454 -0.021230074 0.04129303 -0.0005353792 -0.012733031
-0.005291384 -0.006740728 0.04927485 -0.033938788 -0.014516795 -0.012591775 0.016347002 -3.8164737e-05
0.034615844 -0.032415353 -0.02386569 -0.01917399 -0.05531286 -0.041132808 0.018208979 -0.03878994
-0.019851744 -0.019098483 -0.054275602 -0.024812147 -0.048818536 -0.051010855 0.0026026194 0.05408199
0.033179518 -0.0043216087 -0.017717881 0.024173412 0.0024861924 0.009603026 -0.021878092 0.032105554
0.0044038924 -0.052580502 -0.017642831 0.040339574 0.030312944 -0.021110538 -0.04673007 -0.0286949
-0.017632762 0.016762717 0.018276772 0.004958124 -0.021130176 -0.008424421 -0.04424139 -0.030381108
-0.01728492 0.055797346 -0.033269405 0.04792502 -0.04593304 -0.022846607 -0.01876344 0.00047764898
-0.050977483 -0.016644845 0.05437803 0.05218548 0.021427179 0.031331524 0.020760631 -0.047335126
-0.038776346 0.003820359 0.037097365 -0.04015573 0.035403337 0.04393166 0.034756433 0.033156395
-0.043279618 -0.04604086 0.0040753037 -0.04373935 -0.041132018 0.022584796 -0.041341025 0.018651495
-0.008764069 0.015142651 0.033475574 0.052448645 -0.025149353 0.019889673 -0.0012275758 -0.030025238
0.01831139 -0.04974843 -0.020656234 0.0035517397 -0.0037706255 0.0034564445 -0.047989503 0.05423797
0.008879743 0.046961308 -0.055102758 -0.04810659 -0.049257584 0.04569189 0.0476801 0.050397653
-0.043970358 -0.04748415 -0.037418928 -0.007746189 0.01758013 0.04468228 -0.011778156 0.0038807215

network_body.processors.0.conv_layers.0.bias f4 [16]
00000000: c9af d83c fcfe 6e3c d4dd 10bc a786 5a3d
00000010: dc80 0a3d f6e3 69bc e43b e0bb 1fb4 4e3d
00000020: b036 a13c 4b69 b93b d8bb ec3c 252c ae3b
00000030: 5be2 583d 7b85 033d 25af a7bc a787 94bc
0.026451008 0.01458716 -0.00884195 0.05335107 0.033814296 -0.0142755415 -0.006843077 0.050464746
0.019679397 0.005658304 0.028898165 0.005315321 0.052950244 0.03210972 -0.020469258 -0.01813109

network_body.processors.0.conv_layers.2.weight f4 [32, 16, 4, 4]
00000000: 228b 093d 20b2 06bd 6c0f 93bc 9248 f1bc
00000010: 7cf2 be3c 6653 e9bc 02a7 583d 603f 8c3b
00000020: 70e0 553d 0278 1f3d 5c60 f8bc 16a1 edbc
00000030: f8a5 593d c0e9 b2ba 5701 79bd b8ac c73c
00000040: fc1e 143d 88b3 21bc 2a32 f0bc a855 793c
00000050: 4031 103b c024 883c 90ea d53c 5083 b4bc
00000060: 4023 8d3c 6086 8d3c d563 52bd 68b4 42bc
00000070: c423 bc3c 52f7 fabc c29a 003d 50e1 aa3c
00000080: 80e0 c03b f203 183d 4e0f 3a3d 6ccb 663d
00000090: 90e1 99bb 2897 1f3d 6c0b f83c f651 abbc
000000a0: 9cae 563d b04c 46bd d08a f23b 18bf 633c
000000b0: 8c8a f93c c8c7 b2bc 98cb 173d 5e07 023d
000000c0: 3071 0c3c 0c02 41bc 40a1 a83c 9070 6fbb
000000d0: ac52 fabc f833 213c 9cac 39bd 9012 1abb
000000e0: 004c dd3c 7642 7d3d 6c83 43bd 88f4 50bd
000000f0: 8824 21bd 5891 a13c 44a7 513d 3a10 9dbc
00000100: 709f 6c3d 3827 103d 90d5 a4bc 2897 333d
00000110: 5e4d bcbc 0067 a7bc f0d5 6e3c e010 6a3c
00000120: 20e3 543c 8002 613c 4c8e 4fbd 908c b8bc
00000130: c798 0dbd 7258 573d be4b cebc 482c 42bc
00000140: ac4b 723d 4eff 23bd 76f9 18bd 4283 5e3d
00000150: d000 d53b b055 a53b 883e 86bb 1e71 1e3d
00000160: 32d8 6b3d 5083 6abd b86b 663c e028 293d
00000170: 5071 333d 10d0 cf3b 7a93 3a3d 784c 81bb
00000180: dc68 5dbd c0c5 c63b eeb4 3ebd 2ac6 5f3d
00000190: 90e1 29bd b093 e7bc a412 28bd 1c48 403d
000001a0: 0029 733a 822e 4dbd baf0 2e3d 9c69 1ebd
000001b0: e6a8 513d 57d4 4fbd c8ae cbbc d87f 8d3c
000001c0: c4e2 61bd a8d2 913c 59ad 4bbd 00c7 26bd
000001d0: 060c 203d b494 22bc c083 e23b 5850 b93c
000001e0: e085 92bb 0c2e 8cbc 70c4 bdbb 049b 53bd
000001f0: 68a7 79bd 72e3 5dbd 6aa2 6d3d 9066 513d
00000200: 6aa8 293d 9794 18bd 9c5a 48bc da48 07bd
00000210: c048 3dbd e070 303b 60bd d8bc 98b8 e3bb
00000220: f627 713d 4a46 a4bc 9ec9 443d 5ad3 323d
00000230: f849 5b3d dc34 ca3c 60bf bcbc 20c9 4abc
00000240: e853 20bc c0e7 643c 4890 dd3c ea9d 95bc
00000250: b096 80bc 0cc0 bc3c 7053 853c 905f 40bd
00000260: c4a5 de3c e861 613c d0bd bd3c c078 363b
00000270: 8008 8e3a 5cca 7cbc 9ed0 27bd 7043 e1bc
00000280: 103b 2ebc 9cb4 5bbd dcc8 2f3d 1cf3 01bd
00000290: b02e 44bd c4c7 563d 8243 733d dc90 923c
000002a0: 9a1d fdbc 8649 67bd c866 e73c 0052 2239
000002b0: dc92 2bbc 0d63 01bd dc4d 4b3d f81c fcbc
000002c0: a071 c43b 822c 353d f08b 353d 8103 57bd
000002d0: 8858 0c3d a1b2 51bd a88e 3abc dee9 79bd
000002e0: f868 343d 60d7 c3bb 24fb 97bc 6a14 80bc
000002f0: d435 29bc dce7 833c e0ec b53b 8a8b 5b3d
00000300: a87c 73bc 6016 4bbc 285b a23c 60d5 b03c
00000310: 0e34 acbc ac79 76bc 86d6 11bd 6eb7 143d
00000320: 9839 593d 8a2e 703d 0a78 263d 9875 f73c
00000330: 108c 1dbd 5886 123c 8a75 413d b02e 13bc
00000340: cedb 333d 661f 88bc 3068 16bd 406f adbc
00000350: 1407 743d 0059 7c3d 40d8 c53c 9cb9 3cbc
00000360: 8447 973c 00b6 893b 067a 123d 40de a63a
00000370: cc0f d1bc c8b3 0cbc 2a21 013d acdf 073d
00000380: 8078 c83b d0ee 3abb 8075 d2b9 c290 71bd
00000390: 446b 843c 9ce9 41bd 38d2 2b3d c099 14ba
000003a0: 009f 06bc b8a0 363c 6e16 cabc e411 013d
000003b0: da5a 89bc c7f5 38bd 000c 7ab9 dc98 1c3d
000003c0: 9a4a b7bc 6e26 7d3d 30b7 983c 1c73 223d
000003d0: 0603 4e3d d872 82bb 8896 3a3d a003 aa3c
000003e0: b85c 41bd 1ab4 133d 4019 6fbc b8b6 003c
000003f0: e27d 353d a4ba b7bc 2eea f9bc e444 343d
0.033579953 -0.032884717 -0.01795169 -0.02945355 0.023308985 -0.02848215 0.052893646 0.004280016
0.052215993 0.038932808 -0.030319385 -0.029007476 0.053136796 -0.0013649985 -0.060792293 0.02437435
0.03616236 -0.009869464 -0.029320795 0.015218176 0.0022002012 0.016619086 0.026112825 -0.02203527
0.017228723 0.017275989 -0.05136474 -0.0118838325 0.022966273 -0.03063551 0.03139759 0.02085939
0.0058861375 0.037113138 0.045424752 0.056346342 -0.0046960786 0.038962513 0.030278884 -0.020913105
0.052412614 -0.04841298 0.0074018016 0.013900541 0.030461572 -0.021823779 0.037059397 0.031745307
0.008571908 -0.011780273 0.020584702 -0.0036535598 -0.030557 0.0098390505 -0.04533063 -0.00235096
0.027013779 0.06183096 -0.047732756 -0.051014453 -0.03934148 0.019722626 0.051184908 -0.019172776
0.05776924 0.035193652 -0.020121366 0.043845326 -0.02298611 -0.020434856 0.014577374 0.01428625
0.012993604 0.013733506 -0.050672814 -0.022527963 -0.034569528 0.052574582 -0.025182601 -0.011851378
0.059154198 -0.0400384 -0.03734728 0.054324396 0.006500341 0.005045615 -0.00409681 0.038682096
0.057579227 -0.057254136 0.014063768 0.041298747 0.043809235 0.0063419417 0.0455508 -0.0039458834
-0.05405508 0.006066054 -0.046559267 0.054632343 -0.04147488 -0.028268665 -0.041033402 0.04694377
0.0009275824 -0.05009318 0.042710043 -0.038674936 0.051186465 -0.050739612 -0.024863616 0.017272875
-0.0551479 0.017800644 -0.049725864 -0.040717125 0.039073966 -0.009923149 0.0069126785 0.022621319
-0.0044715255 -0.0171118 -0.0057912394 -0.051661506 -0.060950667 -0.054171987 0.05801622 0.0511232
0.041420378 -0.03725108 -0.012228634 -0.03302846 -0.046211958 0.0026922747 -0.026457489 -0.0069494955
0.058876 -0.020053048 0.04804384 0.04365859 0.05353734 0.024683408 -0.023040473 -0.0123770535
-0.00978563 0.013971269 0.027046338 -0.018263776 -0.015696853 0.023040794 0.016275138 -0.046966136
0.027178653 0.013756253 0.023161799 0.0027842969 0.0010836273 -0.015429106 -0.040970437 -0.027497977
-0.010634199 -0.05363904 0.042916164 -0.031725988 -0.047896087 0.052436605 0.059390552 0.01789134
-0.030897904 -0.0564666 0.028247252 0.00015480071 -0.010472026 -0.031588603 0.0496348 -0.030775532
0.0059949905 0.0442319 0.044322908 -0.052493576 0.034264117 -0.051195744 -0.011386551 -0.06101405
0.04404542 -0.0059766024 -0.01855237 -0.015634734 -0.010327775 0.01610177 0.0055519193 0.05359987
-0.014861263 -0.012395471 0.019818857 0.02158612 -0.021020915 -0.015043657 -0.035604976 0.036307745
0.05303344 0.058638133 0.040641822 0.03020744 -0.038463652 0.008943163 0.047231235 -0.008983299
0.043910794 -0.016616534 -0.036720455 -0.021171212 0.059577063 0.061608315 0.024150968 -0.011518862
0.018466718 0.0042026043 0.035760902 0.0012731031 -0.025520228 -0.008587785 0.03152577 0.033172294
0.0061178803 -0.002852369 -0.00040141866 -0.058975942 0.01616443 -0.047341928 0.041948527 -0.00056686625
-0.0082166195 0.011146717 -0.024668898 0.031511202 -0.016766954 -0.045156267 -0.00023846328 0.038231716
-0.02237444 0.061804228 0.018642038 0.039660558 0.050295852 -0.0039809756 0.045553714 0.020753682
-0.047207564 0.03606043 -0.014593422 0.007856064 0.044309504 -0.022427864 -0.030507173 0.04401101

network_body.processors.0.conv_layers.2.bias f4 [32]
00000000: faec 18bd c4f7 8c3c 5a60 eabc 7c72 4bbc
00000010: 82b9 763d dcf4 a13c 46c6 563d 04c7 24bd
00000020: d276 423d 78ed 523d 7074 28bd 0873 7dbd
00000030: 820c 37bd f084 ab3b a06e 313d c065 aabc
00000040: 72f3 6cbd 8cda 333d 08eb f7bc 88cd 933c
00000050: 2082 c03b 4c0c 15bd 80a7 e03c 69b1 1bbd
00000060: 2338 0bbd 0049 5f3a 0068 513b 3207 8fbc
00000070: f4e1 2e3d 3214 58bd 3a2d 403d a488 49bc
-0.037335373 0.017207988 -0.028610397 -0.012417432 0.060235508 0.019770078 0.052435182 -0.04022886
0.047476597 0.051496 -0.04112667 -0.06187728 -0.044689663 0.0052343532 0.04331839 -0.020800471
-0.057849355 0.043909594 -0.030263439 0.01804234 0.005874887 -0.03638868 0.02742362 -0.03801099
-0.033989083 0.0008517653 0.0031952858 -0.017459486 0.042695954 -0.052753635 0.04691813 -0.012300644

network_body.processors.0.dense.0.weight f4 [128, 32]
00000000: 5a3c d33d 9753 773e 6674 2bbe 2f9e 96be
00000010: 4d0d 74be 8fe2 50be 9243 41bd 987a 613d
00000020: 6758 133d c2c3 e93d e360 c03d 12fe 503e
00000030: aac2 083f 878b fa3c 2fab 5f3d d904 1abe
00000040: efad b0bd 6c05 b8be 08bb 38be 9576 c0be
00000050: e771 85be fa2e 17be 5e23 6fbe de59 9a3e
00000060: 8cbe 2dbe a3c1 37be df76 253e b8f8 433d
00000070: 3886 903e ddfb 2fbe 6ce7 0cbe a285 203d
00000080: 3cc5 36be d0dc e73e 8e3f 6b3e 0e79 11bd
00000090: 8ab6 1a3e e8ab bc3d 635e 45bd 5a92 af3d
000000a0: 3380 293e 6bbb f03c 1e3f f1ba 1019 4d3c
000000b0: 73c6 d8be 2c19 00bd b7fa dc3e 94cb f83d
000000c0: 4db8 473e cccd c1bc 6666 a8be 0a1e 94bc
000000d0: b5d8 90bd 6ca9 89bd 184b 9b3e 7312 2ebe
000000e0: 77b0 3f3e 9e85 f1bd 5088 60be 945e 22be
000000f0: 0dca c8bd 2812 3ebd 39a3 cb3e ed68 03bf
00000100: 8513 fb3a 6cd6 e63d 71e6 2abe 1e8c a33d
00000110: 78dd a43e 3af8 643c 7ecc 263d 2b98 00bd
00000120: c560 0ebe 266a 7a3e f2c8 24be 61c7 17be
00000130: 8012 a2be 05e2 f7bd 7f45 91bd 5a8e 973e
00000140: 6632 e4be a1ab 38be 0398 3cbe 7f98 e43d
00000150: 401d 63be d9b4 fabb 9744 323e c48a b13d
00000160: 28a5 cebe bfcf e13e 6191 9a3d 019b c3bd
00000170: 3540 da3d b456 b73d 27f5 08be 5f57 323e
00000180: b03e 113e 6b52 90be f481 373d e3ee dc3a
00000190: 450e 98be 70db b2bd 2c88 16bf 0657 04be
000001a0: b396 5b3b 71da c63d a8d5 cc3d 74e7 ffbd
000001b0: d5b6 81be 06c7 c3bd e390 cc3d 7052 bf3d
000001c0: 2400 ce3d 30bf 913e 1ad3 9c3c fcb2 323e
000001d0: 413f f53d 563d 743d 358a 183e a652 1d3d
000001e0: 51cd b8bd 03ff 92be 2772 ae3e 3473 ea3d
000001f0: aa83 90be 596b 993e 198b 5ebe 6a4d 903e
00000200: bc93 9dbb a83f 82be 9f70 f8bb 5525 623e
00000210: 2955 5a3e 2bcb cfbd 71eb 69be 7551 2abe
00000220: d928 f63e d599 11bd 4d9f 9ebe 3982 913e
00000230: 5a71 03be d025 2cbe d7a2 8ebe 3455 8a3e
00000240: da0c c6bd e30f 6c3e 50ec 03bd c28d b43e
00000250: 2375 8b3d 588e 563e 07bc 01be e85b 65bc
00000260: d094 fa3e 8051 7e3e c215 88be 21b9 b0be
00000270: e8ce a63c 3077 33bf 6cff bc3e 829b ca3c
00000280: 06cd 9bbe 7cb3 c33e 4ed9 ebbd 4a76 8e3d
00000290: b118 463d 739c d7be da6e 3f3e cba4 093e
000002a0: de39 a93e 5cbb 9c3e 0ef4 3e3e b334 3b3d
000002b0: e353 933e 7365 5a3e 41ed c63d 8299 65be
000002c0: 4706 27be 526e b53d 2139 fdbd d901 debd
000002d0: b605 aebe c99f 4abe 1d5b 6fbd 61ba debd
000002e0: 14ab 763e 6d94 babe e67e a3be 9a67 93bd
000002f0: 3533 94be bf54 2d3e ed0f ac3c 5f02 c9bd
00000300: d3f6 ac3e e98a 213e 7cb0 81be 223c c3bd
00000310: 8f89 79be cd25 41be 886a 4dbf 4d7d ce3d
00000320: 9d41 02be ba11 a93c 6b50 ac3d ae87 773e
00000330: 5d12 74bd 80a0 b03d be8e 74be 3d1e 523e
00000340: 2478 0e3f d0d8 31be fa07 5bbe 08b3 c2be
00000350: 4c91 543e 7f39 82be 66f3 39be 4f41 7cbd
00000360: cad6 153e e17f ce3e 35b6 eabe 1897 9d3d
00000370: 7416 253e 0a8a 2b3d e38f 96be dce3 b23e
00000380: 2eb6 e5be 8e92 b9be 7474 b33d 2429 043e
00000390: 7200 bdbd 4917 ac3e c8e5 88be 87a6 153e
000003a0: d76c a0bd 0d64 103c d828 1c3e bef6 fdbd
000003b0: 03e1 af3e 3bfc 863e 3778 f43e 2153 d73d
000003c0: cf49 1b3c e72e 763c eb71 40be 4078 33be
000003d0: c22b a1be 7ad7 b4bd 46ee 2bbe 4f08 13bf
000003e0: ac25 e9b8 405b dd3e 5ced 813e 43dc 753e
000003f0: 4cb0 33be 3d01 a3be 9a97 1b3d d2a2 613e
0.103142455 0.2415298 -0.16743621 -0.2941756 -0.23833199 -0.20398925 -0.04718358 0.055048555
0.03597298 0.11414291 0.0939348 0.2040942 0.53422034 0.03058411 0.054606613 -0.15040912
-0.08626925 -0.35941637 -0.18040097 -0.3759047 -0.26063463 -0.14764014 -0.23353335 0.30146688
-0.16967219 -0.1794496 0.16158627 0.04784462 0.282274 -0.17185922 -0.13760155 0.039189942
-0.17848676 0.45285654 0.22973463 -0.035515837 0.15108696 0.09212476 -0.048185717 0.08572836
0.1655281 0.029386243 -0.0018405651 0.012518182 -0.42338905 -0.031274006 0.4316003 0.121482044
0.19503899 -0.023657702 -0.32890624 -0.01808073 -0.070725836 -0.06721768 0.3033073 -0.16999225
0.1871966 -0.117930636 -0.21926999 -0.15856391 -0.09804163 -0.046404034 0.39772967 -0.5133198
0.0019155598 0.112713665 -0.16689469 0.079857096 0.32200217 0.013975197 0.040722363 -0.03139512
-0.13904102 0.24454555 -0.1609228 -0.14822151 -0.3165474 -0.12103657 -0.070933335 0.29600793
-0.445697 -0.18034221 -0.18417363 0.11161899 -0.22179127 -0.0076509533 0.17408977 0.086690456
-0.4036038 0.4410381 0.0754726 -0.09551049 0.10656778 0.08952084 -0.13374768 0.17416142
0.1418407 -0.2818788 0.044801667 0.0016855862 -0.29698387 -0.08733261 -0.5880153 -0.12923822
0.0033506572 0.09709633 0.10001689 -0.12495318 -0.25334802 -0.09559445 0.099885724 0.093418956
0.100586206 0.28466177 0.01914363 0.1745109 0.11974955 0.059628807 0.14896472 0.038408898
-0.09023536 -0.28710184 0.34071466 0.114477545 -0.28225452 0.29964712 -0.21732749 0.28184062
-0.004808871 -0.2543919 -0.007581785 0.22084554 0.21321549 -0.10146173 -0.2284372 -0.16632636
0.4807804 -0.035547096 -0.30980912 0.28419665 -0.12836209 -0.168113 -0.27858612 0.2701813
-0.0967042 0.23052935 -0.032207787 0.35264403 0.068094514 0.20952737 -0.12669383 -0.013998963
0.4894166 0.24835777 -0.265791 -0.34516242 0.020362332 -0.7010374 0.3691362 0.024732355
-0.30429858 0.38222873 -0.11516057 0.069561556 0.04836339 -0.4211155 0.1869463 0.1344177
0.33051962 0.30611694 0.18647787 0.045704555 0.28774938 0.21327762 0.09713221 -0.2242184
-0.16310988 0.088589326 -0.12364412 -0.10840196 -0.33988732 -0.19787516 -0.0584365 -0.10875393
0.24088699 -0.36441365 -0.31932753 -0.07197495 -0.28945318 0.1692686 0.021003688 -0.098149054
0.33782062 0.15775646 -0.2532996 -0.09532954 -0.2436888 -0.18862076 -0.8024068 0.10082493
-0.12720342 0.020638335 0.08413776 0.24172851 -0.059587825 0.08624363 -0.23882577 0.20519347
0.5565207 -0.17367864 -0.21389762 -0.38027215 0.20758551 -0.2543449 -0.18159255 -0.06158572
0.14632717 0.4033194 -0.45842138 0.076948345 0.16121846 0.04187969 -0.29406652 0.34939468
-0.44865555 -0.36244625 0.08762446 0.12906319 -0.092286006 0.33611515 -0.2673781 0.14614306
-0.078332596 0.008812916 0.15249956 -0.12400578 0.34351358 0.26364312 0.47747967 0.105139025
0.009478047 0.015025831 -0.18793456 -0.1752634 -0.31478697 -0.088301614 -0.16790113 -0.5743455
-0.00011117323 0.4323368 0.25376403 0.24009804 -0.1754772 -0.31836882 0.037986375 0.22034767

network_body.processors.0.dense.0.bias f4 [128]
00000000: 0000 0000 0000 0000 0000 0000 0000 0000
00000010: 0000 0000 0000 0000 0000 0000 0000 0000
00000020: 0000 0000 0000 0000 0000 0000 0000 0000
00000030: 0000 0000 0000 0000 0000 0000 0000 0000
00000040: 0000 0000 0000 0000 0000 0000 0000 0000
00000050: 0000 0000 0000 0000 0000 0000 0000 0000
00000060: 0000 0000 0000 0000 0000 0000 0000 0000
00000070: 0000 0000 0000 0000 0000 0000 0000 0000
00000080: 0000 0000 0000 0000 0000 0000 0000 0000
00000090: 0000 0000 0000 0000 0000 0000 0000 0000
000000a0: 0000 0000 0000 0000 0000 0000 0000 0000
000000b0: 0000 0000 0000 0000 0000 0000 0000 0000
000000c0: 0000 0000 0000 0000 0000 0000 0000 0000
000000d0: 0000 0000 0000 0000 0000 0000 0000 0000
000000e0: 0000 0000 0000 0000 0000 0000 0000 0000
000000f0: 0000 0000 0000 0000 0000 0000 0000 0000
00000100: 0000 0000 0000 0000 0000 0000 0000 0000
00000110: 0000 0000 0000 0000 0000 0000 0000 0000
00000120: 0000 0000 0000 0000 0000 0000 0000 0000
00000130: 0000 0000 0000 0000 0000 0000 0000 0000
00000140: 0000 0000 0000 0000 0000 0000 0000 0000
00000150: 0000 0000 0000 0000 0000 0000 0000 0000
00000160: 0000 0000 0000 0000 0000 0000 0000 0000
00000170: 0000 0000 0000 0000 0000 0000 0000 0000
00000180: 0000 0000 0000 0000 0000 0000 0000 0000
00000190: 0000 0000 0000 0000 0000 0000 0000 0000
000001a0: 0000 0000 0000 0000 0000 0000 0000 0000
000001b0: 0000 0000 0000 0000 0000 0000 0000 0000
000001c0: 0000 0000 0000 0000 0000 0000 0000 0000
000001d0: 0000 0000 0000 0000 0000 0000 0000 0000
000001e0: 0000 0000 0000 0000 0000 0000 0000 0000
000001f0: 0000 0000 0000 0000 0000 0000 0000 0000
0.0 0.0 0.0 0.0 0.0 0.0 0.0 0.0
0.0 0.0 0.0 0.0 0.0 0.0 0.0 0.0
0.0 0.0 0.0 0.0 0.0 0.0 0.0 0.0
0.0 0.0 0.0 0.0 0.0 0.0 0.0 0.0
0.0 0.0 0.0 0.0 0.0 0.0 0.0 0.0
0.0 0.0 0.0 0.0 0.0 0.0 0.0 0.0
0.0 0.0 0.0 0.0 0.0 0.0 0.0 0.0
0.0 0.0 0.0 0.0 0.0 0.0 0.0 0.0
0.0 0.0 0.0 0.0 0.0 0.0 0.0 0.0
0.0 0.0 0.0 0.0 0.0 0.0 0.0 0.0
0.0 0.0 0.0 0.0 0.0 0.0 0.0 0.0
0.0 0.0 0.0 0.0 0.0 0.0 0.0 0.0
0.0 0.0 0.0 0.0 0.0 0.0 0.0 0.0
0.0 0.0 0.0 0.0 0.0 0.0 0.0 0.0
0.0 0.0 0.0 0.0 0.0 0.0 0.0 0.0
0.0 0.0 0.0 0.0 0.0 0.0 0.0 0.0
