results/ZaraReinInteraction/ZARAgoalInteract/ZARAgoalInteract-312690.onnx (onnx, 337508 bytes, 15 tensors)

discrete_act_size_vector f4 [1, 2]
00000000: 0000 0040 0000 4040
2.0 3.0

network_body.observation_encoder.processors.0.conv_layers.0.weight f4 [16, 4, 8, 8]
00000000: 9bb7 f6bc 28a8 c5bc 4d37 08bd 8ca3 abbd
00000010: f50e 5fbd 5ff1 e339 e96d 5bbd ed6f 95bc
00000020: 291d 543c ec9d fa3c 3305 24bd e7e7 8a3d
00000030: 35f3 c2bc fa18 81bd a84e 703d 5a3e c4bd
00000040: e952 adbc a0ce 5d3c 0ac3 b73d 2f2d 1b3d
00000050: ecd5 1fbd b8b5 ff3b 0d34 14bd 2ca7 89bc
00000060: 250a 1fbb a693 98bc 9ed6 983d f73f 43bc
00000070: 644d 273d f9e5 0b3d 0cc0 473d c901 97bc
00000080: 9363 863d 97d6 973b 92b0 3fbd 46dc f6b9
00000090: 719d 0b3d 90db 083d 1f87 993d 6c86 493d
000000a0: a8d2 533d 050e 903c cab9 773d a4da 843d
000000b0: b846 a13c 2730 403d d53e d43d 2f03 90bc
000000c0: 449e 9e3d 37d9 b43d 9cb3 033c 1a67 b5bb
000000d0: 38e8 123d 2734 99b9 52d7 bb3d ed48 e3bc
000000e0: fb36 f6bc 6be4 f3b9 d857 d8bc c1ed c83d
000000f0: 12fc 8a3d 17bb 213b bea5 72bc 505c 45bc
00000100: 4bb4 203d 5edc f9bc 1643 8abc 0daf 4e3d
00000110: 2b2f 463d d9c0 7f3d 3e39 e03c 4a4c 323b
00000120: 01d8 173c 22d6 eb3b d4e9 783d 610b 4cbc
00000130: 1d94 d4ba de2c 933d 89c3 52bc 5a60 5a3d
00000140: 0300 953d 8728 00bd 137a 90bc 3d62 9e3d
00000150: 9a1d b23b bd3a 143d cf85 5fbd bb7b 8cbc
00000160: 7c96 ecbc 3cc1 683d ef91 4dbc 211c 85bd
00000170: 5167 7f3c b40b af3c c3e1 60bd 090d 953b
00000180: 2799 8ebd c12d 82bd 459e f2bc bb30 b23b
00000190: 6c95 8dbc a767 1abd c5dd 05bd 6f08 87bd
000001a0: 05ba 22bc a237 1bbd ac7e b3bc 6904 8dbd
000001b0: a7be 0d3d 06e4 44b8 4dc3 63bd 6839 74bc
000001c0: f20f 5a3c 739c 93bb d146 f7ba 4d23 1fbd
000001d0: 2f5b 07bd e2fc 15bc daac 8bbd ab6c 7fbd
000001e0: 605c 193c d0c2 e23b c3ea 81bb 5843 abbc
000001f0: 1d83 a63c 4492 65bd 7c47 903d 02e8 1abd
00000200: 176f 37bd ef61 7ebd 318c 68bc e1a0 b23c
00000210: 1024 bc3c 04f5 603d 6c6b 533d 1091 0f3c
00000220: 77f2 bfbd ee85 16bd 7671 1db9 1d25 62bd
00000230: 3ebc 533d 2c55 863c 0d1f 273d 4817 10bd
00000240: de59 08bd b920 ccbb 6f0d aebd 0b4f 2b39
00000250: acc8 1e3d a01b 183d 15cd cdbb ab34 1abd
00000260: fc6c a2bd ead6 71bd f4fc a5bd 2d72 b6bc
00000270: 83ed 623d 6406 4b3d 4ad4 3dbd 3521 643d
00000280: 6c8c 60bd bcc4 c83b 3ff0 0cbd 41bf 743c
00000290: dddd 86bd 0058 dfbc 6d21 51bd 4f71 2fbc
000002a0: 5f8a a4bd c66a b73c 041b 96bc 3d76 023d
000002b0: ab9f 9abd e44f d53c 40e1 8fbc a723 3d3d
000002c0: f611 81bd 7e07 cc3c 19f5 573d 97c8 52bd
000002d0: d5c7 c83c 8bc2 febc 60d3 033c 9219 173b
000002e0: 0809 15bd 68ee 043d 6b44 df3c a894 88bd
000002f0: c3d6 30bc 31b6 bc3c 5721 2b3d 3d62 e8bb
00000300: 4af5 023c a1e3 25bd 1d25 883b 42ac 273d
00000310: c16f e73c cc77 c63c 6bc8 afbb 0038 2f3d
00000320: f7f5 7fbd ae85 ad3c 49a5 fe3c d507 693d
00000330: 65a7 983d 79a4 a43d 88ab c03c 7541 d2bb
00000340: 4af0 a0bb 7aad d1bb 964b c53b b3d1 aabc
00000350: 09ba 82bb fad3 0d3d a449 923d 0a70 803d
00000360: ab94 35bd 7ce8 d33c 5f1b cdbb aef9 963d
00000370: c2cc 50bc 985d a03c d2ff 603d e832 c6bb
00000380: 4247 823d fa0f 173d d254 73bc dc1f 1abd
00000390: 385a 813d de47 5e3d 9e46 53bb 5c32 6a3c
000003a0: bdd2 793d aa45 803d 9c45 96bc 7366 cc3c
000003b0: 69b7 2d3d 6f02 2cbb 1361 f23c d07f 533d
000003c0: 28cb 76bc 04d7 ffbc 98ba 883d 4803 413d
000003d0: 5501 613a f1c0 4b3d bdac ab3c 8833 8a3d
000003e0: a4eb 60bd 3dfb e03c 9581 1f3c 62a1 26bc
000003f0: 8f9c 903d d29e 5c3c 4136 a73d 47d6 443d
-0.030116847 -0.024128035 -0.033255864 -0.083808035 -0.054457624 0.0004347665 -0.053571615 -0.018241847
0.012946405 0.030592881 -0.04004402 0.06782513 -0.02379761 -0.06303592 0.058668762 -0.09582205
-0.021157699 0.013538033 0.089727476 0.037884887 -0.03902237 0.007803645 -0.036182452 -0.016803347
-0.0024267521 -0.018625092 0.0746281 -0.011917106 0.04084529 0.034154866 0.048767135 -0.018433468
0.06561961 0.0046337354 -0.04679925 -0.00047084893 0.034085695 0.033412516 0.074964754 0.04920046
0.05171457 0.01758481 0.060479917 0.06487015 0.019687042 0.04692092 0.10363547 -0.017579643
0.077450305 0.08830493 0.008038428 -0.0055359723 0.035865992 -0.0002922129 0.091719285 -0.027744735
-0.030055514 -0.00046518756 -0.026409075 0.09810973 0.0678636 0.0024678165 -0.014810024 -0.012045935
0.03923444 -0.030500587 -0.016877692 0.05045991 0.048384827 0.062439773 0.027371045 0.0027206116
0.009267808 0.0071971575 0.06076987 -0.012453885 -0.0016218458 0.07186292 -0.012864002 0.053314544
0.07275393 -0.03128865 -0.017636335 0.07733581 0.0054356577 0.03618883 -0.05457097 -0.017148843
-0.02888035 0.056824908 -0.012547 -0.06499506 0.015588597 0.021367885 -0.054902803 0.004548673
-0.06962805 -0.06356383 -0.029616484 0.005437938 -0.017283164 -0.037696507 -0.0326822 -0.065934055
-0.009932046 -0.037894852 -0.021910988 -0.06885607 0.03460565 -4.6942405e-05 -0.055606175 -0.014906265
0.013309466 -0.004504734 -0.001886571 -0.038852025 -0.033045944 -0.00915453 -0.06820078 -0.062359493
0.009360403 0.006920196 -0.0039647534 -0.020906135 0.020326192 -0.056047693 0.070448846 -0.037818916
-0.044783678 -0.062105116 -0.0141935805 0.021805229 0.022966415 0.054921165 0.051616117 0.008762613
-0.093724184 -0.03674882 -0.00015014954 -0.055211175 0.051693194 0.016398035 0.040801097 -0.035178453
-0.03328883 -0.006229487 -0.08498656 0.00016337277 0.038765594 0.03713572 -0.006280551 -0.037647884
-0.07930943 -0.05904285 -0.081048876 -0.02227124 0.05540229 0.04956664 -0.046345033 0.05569573
-0.054821417 0.006126968 -0.034408804 0.014938177 -0.06585286 -0.027263641 -0.051057268 -0.010708167
-0.08034205 0.02238978 -0.018323429 0.031851042 -0.075499855 0.026039071 -0.017563462 0.04617658
-0.06302254 0.024905916 0.052723978 -0.05146083 0.02450935 -0.031098625 0.008046001 0.0023056013
-0.036385566 0.032453924 0.027254304 -0.06668979 -0.010793391 0.023036094 0.041779842 -0.007091789
0.007993052 -0.040500287 0.004154815 0.040935762 0.02825153 0.024227045 -0.005364468 0.042778015
-0.06249043 0.021181908 0.031084673 0.056892235 0.07453803 0.08039183 0.023519292 -0.0064164945
-0.004911457 -0.006398854 0.0060209734 -0.020851946 -0.0039894623 0.034625985 0.07142952 0.0627137
-0.044331234 0.025867693 -0.0062593664 0.07371841 -0.012744131 0.019575879 0.05493147 -0.006048549
0.063612476 0.03688047 -0.014851766 -0.03762804 0.06316036 0.054267757 -0.0032238136 0.014294233
0.06099199 0.06263287 -0.01834374 0.024951195 0.04241124 -0.0026246568 0.029587304 0.051635563
-0.015063085 -0.031230457 0.06676215 0.04712227 0.00085832673 0.04974455 0.020956391 0.0674811
-0.054912224 0.02746355 0.009735485 -0.010170313 0.07061111 0.0134656 0.08164645 0.048055913

network_body.observation_encoder.processors.0.conv_layers.0.bias f4 [16]
00000000: 428e 573d 7f02 7a3d 1a85 20bc ecef b0bb
00000010: 246f 583d 9968 f03c bd50 1c3d 46fe c63c
00000020: 6753 67bc 4b70 1bbb f8cc d43c 7546 1a3d
00000030: e20b 233c 8b5b d0bc 5da5 2e3d 3637 7fbc
0.052625902 0.061037537 -0.009797359 -0.0053996947 0.052840367 0.029346751 0.038162936 0.024291169
-0.014119006 -0.0023718055 0.025976643 0.03766485 0.009951564 -0.025434276 0.04263817 -0.015577128

network_body.observation_encoder.processors.0.conv_layers.2.weight f4 [32, 16, 4, 4]
00000000: 26ce fbbc 2bb6 723d b88d 38bd b7de 07bd
00000010: 1750 00bd 98a9 6dbd 6da9 08bd 1565 43bd
00000020: 4c2a fc3b 11e1 d4bc d5a7 733d 11c4 423c
00000030: 7a62 9c3c 35ab 45bc 6e9e 1d3d 8a64 d5bc
00000040: d202 153d 1e87 15bc f457 19bd 52df 103b
00000050: 9c77 b43c 3b9c 6b3c 3fce 903c b720 193a
00000060: 5f8e 1bbd 9731 08bc 7894 9b3c 457a e23c
00000070: 885f dd3c 763d d63b 5469 e23c 579e 26bd
00000080: 4488 373b 43eb 323d 88eb 993c 08c3 993c
00000090: 38f4 39bb 1e30 a7bc a6e5 683d 1a2b 37bc
000000a0: c379 9e3d 10d6 613c 3bc4 cebc aa51 443d
000000b0: 54e7 80bd 7bb9 953d bc6e 8abd 6689 473d
000000c0: 444f 6dbd c8f1 9cbc 22c3 2d3d da58 a43c
000000d0: b72c 52bd ff36 8ebc 5d24 893c 3d6b 713b
000000e0: 3e9d c6bc 6687 203d 2f02 4fbd 5ea5 5dbd
000000f0: 45f0 883d 63be edbc 7729 ecbc 2d2d 093d
00000100: fcbf 6e3c 32b1 393d 3786 c03a 8019 c63b
00000110: 3462 6b3d 2e58 1a3d 079e 713d f463 5b3d
00000120: 7ead 2f3d 54ca 8cbb b8f6 c73c 1ae7 973c
00000130: c0a6 57bc 786d e7bc d17f 723c 7eb1 383d
00000140: 6b36 ed3c 66f6 0b3d fcf2 0cbd d932 39bc
00000150: 19dc 80bb 33eb 553d 1c52 603d 2f7f fa3c
00000160: 4594 16bd a58c 0e3d fecc 053c 141b 853c
00000170: f387 9dbc 64da 4cbd b2a5 42bb b8ea 303d
00000180: 93bd ce39 1b2f c6bc 5903 0fbb 99be 4bbc
00000190: 3dd6 80bd 2138 0d3d 4ae8 033d 7a54 2e3c
000001a0: 80dc 503d 199a 5dbd 04e8 1d3d ab38 ec3c
000001b0: 2b72 2fbc 5fa0 afbd 5b7e 773d 3de8 393d
000001c0: cf62 53bd db7c 6ebd 7ca7 41bd 614a 7b3c
000001d0: de60 df3c ddc2 d4bc f678 14bd 973b 39bd
000001e0: 19f8 513d 9c64 b13d 9ef1 453c 9805 d53c
000001f0: 46d5 203d 9828 e1bc 9b6f 3bbd dfaf b13c
00000200: 61c4 c8b9 d5f0 e83c 6011 ef3c b131 9e3c
00000210: 9ff3 443d 5d82 1cbd 614d b63c fe0d 683d
00000220: d3af 053c 30a4 0d3d 4f68 edbc f707 863d
00000230: cb04 2ebd b14a cc3c a673 5b3d 38d7 0ebd
00000240: 016a 48bd 44a1 45bd efa2 c33c 02b6 a23c
00000250: 28d6 1a3d ecd6 843b e3aa 4bbd e85b 7a3d
00000260: 8bce 7bbc cbd3 19bd 066a 25bc b146 533c
00000270: d276 8d3c d41e fcbc 1910 3bbd b543 36bd
00000280: d1ba 99bd 5a91 fcbc 08fd 463d 7c54 333d
00000290: 5248 cebc 859c 813c d50d 933c ba56 c23c
000002a0: d6ef 6fbd df90 90bc 4340 ba3c c342 9f3c
000002b0: 2bb5 3ebd 7a10 e23c 7c0c ddbc bc57 aa3b
000002c0: d861 0dbc 8d05 f03c e7ff aa3c 867f 923d
000002d0: ea60 17bd aa87 553d 2bdd 293d 2a12 ca3c
000002e0: 373c 80bc 5be8 663c 142c 0a3d 17e5 023d
000002f0: 4bde 9bbb d25b 0bbd da3b 7c3c 8ea4 533c
00000300: 5609 a0bc 3771 3abc 6c3b 62bd 2f9e 2cbd
00000310: 09ee 45bc 063a 2e3d a87a 523d 2d7c 3bbd
00000320: f85e 963d 1153 f8bc d5d6 793c 3417 35bc
00000330: fe00 6dbc bb54 8cbd 52e6 253d 7179 873d
00000340: 1bd7 8d3d 8132 153d 63f2 9f3d 1765 fbbc
00000350: 20c0 0fbb 38e8 9c3c a6e9 10bd 8371 913c
00000360: ea0f ad3c 1e24 e4ba 6953 b5ba 52c6 653d
00000370: 0b4e d13c 87ef 8d3d 9e0f 22bd 3bed 9abd
00000380: 0db7 473d 6a10 e03c a5cf 79bc 4634 f63c
00000390: eb51 953d 39a0 bf3c f028 4a3d f8fd 03bd
000003a0: 3436 963c 0394 b53c ee8a 71bc a9df 033d
000003b0: dbb1 5dbd 8071 cabc 2c9b 0a3d 1a96 933c
000003c0: e5ea dcbc 5c36 fe3c 3f0f 21bd c29e 86bb
000003d0: 3180 b63c b58a 823d 7d01 5a3c 7303 abbc
000003e0: e88d 64bd 2700 7ebc fdbb 933c 1cdd 9b3c
000003f0: c3a4 83bd 0e43 9fbd d33a e1bc 4d62 a03c
-0.030737948 0.05925576 -0.04505703 -0.03317138 -0.03132638 -0.058023065 -0.033364702 -0.04770382
0.007695472 -0.025986226 0.05948623 0.011887566 0.019089926 -0.012064745 0.03848117 -0.026048917
0.036379643 -0.009126453 -0.037437394 0.0022105766 0.02202969 0.01438051 0.01767647 0.00058413617
-0.037977573 -0.008312604 0.018991694 0.027646193 0.027023092 0.0065380884 0.027638115 -0.04067835
0.0028004805 0.043681394 0.018789068 0.018769756 -0.0028374325 -0.020408686 0.056859635 -0.01117971
0.07738068 0.013783947 -0.025240054 0.047929443 -0.06294122 0.07310768 -0.06759402 0.048715018
-0.05793692 -0.019158259 0.04242242 0.020061899 -0.051312175 -0.017360209 0.016740972 0.00368376
-0.0242449 0.039191626 -0.05053919 -0.054112785 0.06686453 -0.029021448 -0.028828366 0.03349035
0.01457214 0.045335002 0.0014688437 0.0060455203 0.0574667 0.03768175 0.058988597 0.05356212
0.042890064 -0.0042965803 0.024409637 0.018542815 -0.013162315 -0.028250441 0.014800982 0.045091145
0.028956613 0.03417053 -0.034411415 -0.011303627 -0.0039324877 0.052226257 0.054765806 0.030578224
-0.036762495 0.034802098 0.00816655 0.016248263 -0.019229865 -0.05001296 -0.0029700813 0.043192595
0.00039432626 -0.024192384 -0.0021822064 -0.012435579 -0.06290863 0.034477357 0.03220395 0.010640258
0.050991535 -0.054102037 0.038551345 0.028835615 -0.010708372 -0.0857551 0.060423236 0.045387495
-0.051607903 -0.05822454 -0.047278866 0.0153375575 0.02726787 -0.025971824 -0.03624817 -0.045222845
0.051261995 0.08661768 0.012081532 0.026003644 0.039265893 -0.027485177 -0.045760732 0.021690307
-0.00038293286 0.02843515 0.02918309 0.019310804 0.048083898 -0.03821026 0.022253694 0.05665397
0.008159596 0.03458041 -0.028980402 0.06544488 -0.04248504 0.02493796 0.053577088 -0.034873217
-0.04892922 -0.048249498 0.023881404 0.019862179 0.03780189 0.004053941 -0.049723517 0.061122805
-0.015369068 -0.037555497 -0.010096079 0.012895272 0.017268572 -0.030776419 -0.04566965 -0.044498164
-0.075063355 -0.030831028 0.048581153 0.043781742 -0.02518097 0.015821705 0.017950932 0.023722995
-0.058578335 -0.017647205 0.02273572 0.019441014 -0.046559494 0.027595747 -0.026983492 0.005198447
-0.008629285 0.029299522 0.020873977 0.071532294 -0.03695766 0.052131332 0.041470688 0.024666864
-0.015653713 0.014093484 0.033733442 0.03195676 -0.004756724 -0.034023114 0.015395129 0.012917651
-0.019535702 -0.011379532 -0.05523245 -0.042143043 -0.012080678 0.042535804 0.051386505 -0.04577272
0.073423326 -0.030313047 0.015248974 -0.011052895 -0.014465569 -0.068520986 0.040502854 0.0661496
0.06925794 0.036425117 0.078099035 -0.030687852 -0.0021934584 0.0191537 -0.035379075 0.017754322
0.021125752 -0.0017405783 -0.0013834062 0.056097336 0.02554991 0.06930452 -0.039565675 -0.07564779
0.048758555 0.027351577 -0.01524726 0.030054223 0.07291015 0.02339183 0.049355447 -0.032224625
0.018336393 0.022165304 -0.014742596 0.03219572 -0.054124694 -0.024712324 0.03383939 0.01801591
-0.026967475 0.03103178 -0.03932118 -0.004108281 0.022277923 0.063741125 0.013306019 -0.020875668
-0.055799395 -0.015502966 0.018033976 0.019026332 -0.0642791 -0.077764615 -0.02749387 0.019578123

network_body.observation_encoder.processors.0.conv_layers.2.bias f4 [32]
00000000: f801 6ebb dcb1 1ebd 83af 30bd ed4d b23b
00000010: a51a 05bd d28f 38bc b43c 063b 2648 29bd
00000020: 228e fc3c f903 683d 7a74 4e3c 9c94 f1bb
00000030: d37e 08bb 7836 183c ff0c 103d d25f 573d
00000040: 6292 333d b019 1d3d afae 27bc 097e 3a3c
00000050: c459 2e3d 7f4f ebb9 c7f5 0fbd 27eb 673b
00000060: 215f 153d f2b4 813d c47b 063c 62e3 9ebb
00000070: 586e 8dbc 1da2 cebc 6d9a 5ebd 6062 b83b
-0.0036317091 -0.03874384 -0.04313613 0.0054414184 -0.032496113 -0.011264758 0.002048296 -0.04132857
0.030829493 0.056644414 0.012601012 -0.007372452 -0.0020827546 0.00929033 0.035168644 0.052581616
0.043840773 0.038354576 -0.010234519 0.011382588 0.042566076 -0.00044881922 -0.0351465 0.0035387964
0.036467675 0.06333341 0.008208219 -0.0048488835 -0.01726453 -0.025223786 -0.05434649 0.0056269616

network_body.observation_encoder.processors.0.dense.0.weight f4 [128, 32]
00000000: 66d6 f3bb 89ba 06be f271 773c 8941 1bbe
00000010: 01af 863d 4a1c f7bd 5598 183f 3a5d 64be
00000020: ce9f c43e e045 763e fd46 0cbd bae9 b0bc
00000030: 12ec e63e 0cad 92be 52b8 d1be 0c6b b1be
00000040: 8593 013d 5270 af3d 5ea3 b4bd 205c 143f
00000050: 8bfb 183f 0e0e d23e 0068 fbbd 061a 87be
00000060: c62b 903e 0ca6 9bbd 71a3 943d 2c45 cbbe
00000070: 8d81 493e 0fd7 1ebf e144 113e 32f3 c73d
00000080: 5e9c 013e f0a9 e0be 1d73 693e e725 27be
00000090: dd42 7ebe 1641 c93d 9227 92bc b324 7cbe
000000a0: e414 81bd 3212 673e ba66 73be 2b3d 2c3d
000000b0: 011b a43e d2fc 073e ca2a 403e f09e a83e
000000c0: c66e 8fbd 1154 3fbd b172 55be 5b00 1f3e
000000d0: 7ed6 a93e 5b88 1ebe 98f5 15be b043 153e
000000e0: c1a3 573e fe88 82be adda 513e d3a3 bbbd
000000f0: fcc0 16be d631 3fbd e795 413d b3e1 123c
00000100: ef8a a83d 3769 f8bc 4dc4 9fbe 9a6d ffbd
00000110: c8ec c6bd 51ed cebd 4976 8ebd d60c 40bd
00000120: 68ab 343d 08dd 9f3d bbbf 383e 048c 8fbd
00000130: 7d4c f03d 4dec 193e 712f dcbe c13b 9bbe
00000140: 3576 04bf 995f 1c3e 8928 c03e 839c 723e
00000150: 13e9 7cbe dab7 3fbc 520d 20be 4a7f 983e
00000160: 0832 493e 66c2 b03e 4108 bb3d dd0b c63b
00000170: 4b4a 18be 75bb 66be e5a9 39be bcd8 f3bb
00000180: 2f23 8a3e 8ea9 0f3f 2dad 4b3e f2aa bb3d
00000190: cf20 e3be eaa3 f7be e574 973e cd9e ecbe
000001a0: fe27 943e 1634 c63d d1e4 dd3d 9f41 873a
000001b0: f8e0 1b3e f7ff 6fbe 3c98 23bd 2231 8c3d
000001c0: 060b 493e 6e21 0f3e dd34 bb3e 9ed3 ac3d
000001d0: 172e d33e 2e99 25be 5273 f13e 1f0d 523e
000001e0: e983 a2bb 69d8 31be 4f17 05bf f244 77be
000001f0: f424 62be 1be8 d7be 8fd4 bd3d 366c 143e
00000200: ecb8 e03d 175a 4b3d c2e2 3dbe 8dfe 49be
00000210: 0b63 12bc 2898 83bd 1f1e 0a3f 792a 113d
00000220: 8431 d2be db01 2abe e1e3 d0be 7306 d63e
00000230: 5376 09be c1cd 89be 37a0 af3e 4e1d 9ebd
00000240: abfd 1c3e c08b 443e db37 8e3e 67e2 3cbf
00000250: efe4 753e 4984 603e e2f0 9fbe c322 333d
00000260: 3b1d de3e e4cd 86be 9128 28bc 3cd9 0bbf
00000270: 6ddc d23a f22d 103f 0d1c 04be 1bf1 53be
00000280: 7664 59be b6a2 12be 0180 8d3e cd51 f43e
00000290: 627d 1dbe 7666 c33e 2a73 193f efa9 443e
000002a0: 20de d1be 58f6 d03e b000 e3bd 805f b8bd
000002b0: 8955 babe e470 3cbe 73d5 863d fd72 0e3f
000002c0: 70dc 8dbc 3785 e43e 012a 9e3e 4fac 48be
000002d0: 1986 69bc febb 5f3c 654a 1d3e 918a 333d
000002e0: 2897 7cbe 9d6c d13e 3b54 943e 475b 3fbe
000002f0: 5aef 9d3b a253 843e d116 993d 0933 103f
00000300: ee02 97be a1df bf3e ca22 70be 2fe9 97be
00000310: c234 a23d 2974 a63c 9e27 533e b032 debe
00000320: e2b4 a63e f507 9f3c 1913 0f3e 6928 fabd
00000330: 15f5 c23d 7cf6 b53e 1f4a 053d e01b 343e
00000340: e7a4 46be 9ce1 19be f4cf 213e 754a 8d3d
00000350: 999a 0a3e be30 afbe 53aa 3d3d e1c5 f73e
00000360: 3911 6a3c 95ab 51be 9045 f7bd cef9 cebe
00000370: fc6f 7cbe 3a61 843e b02b cc3e dd3d 5ebe
00000380: e437 aebc 6816 07be 4c1f 1d3e 9b50 513e
00000390: 62ef 953e 2a14 48be c137 ac3e 6ff7 72be
000003a0: 0fb6 62bd 0e1a 783d 15d7 adbb 7fd0 b83e
000003b0: 6e06 b0be f997 8a3c ab84 0e3f 818d f13e
000003c0: a870 adbd 498b b03e f919 02be cfc0 5d3c
000003d0: 20d9 90bd 6060 cfbe 2445 5ebe 5edb 10be
000003e0: e47d 043e 74a1 773c da3a 9a3e 5f1f 1dbe
000003f0: 1e98 d13c 339a 2c3d d1d9 b1be 9b2a 8fbc
-0.00744133 -0.13157095 0.01510285 -0.15161718 0.06576348 -0.120659426 0.5960744 -0.22301188
0.3840317 0.24050093 -0.034247387 -0.021595825 0.45101982 -0.2864765 -0.40960938 -0.34651983
0.031634826 0.08566345 -0.08820222 0.5795307 0.59758824 0.41026348 -0.12275696 -0.26387042
0.28158396 -0.0760003 0.072577365 -0.3970121 0.19678326 -0.62046903 0.14186431 0.09763183
0.12657306 -0.43879652 0.22797818 -0.16323052 -0.24830194 0.09826867 -0.017841134 -0.24623375
-0.06302813 0.22565535 -0.23769656 0.04205052 0.32051852 0.13280037 0.18766323 0.3293376
-0.0700355 -0.04671103 -0.20844533 0.1552748 0.33171457 -0.15481703 -0.14644468 0.14576602
0.21058561 -0.25495142 0.20493574 -0.09162106 -0.14722055 -0.046678387 0.0472621 0.008964944
0.082296245 -0.030323608 -0.31204453 -0.12472077 -0.09713131 -0.10103858 -0.06956155 -0.04688724
0.04410878 0.0780583 0.1804189 -0.07009128 0.11733339 0.15031548 -0.43004945 -0.30319026
-0.5174287 0.15270843 0.37530926 0.23692517 -0.24698286 -0.0117015485 -0.15630081 0.29784614
0.19647992 0.34523314 0.09132434 0.0060438947 -0.1487209 -0.22532447 -0.18131216 -0.0074416082
0.26979968 0.56118095 0.1989028 0.091634646 -0.44360968 -0.48367244 0.2958137 -0.46214905
0.28936762 0.09677903 0.10834659 0.0010319239 0.15222538 -0.23437487 -0.039940104 0.06845309
0.19633111 0.13977596 0.3656377 0.084388 0.412461 -0.16171715 0.47158295 0.20512818
-0.0049595726 -0.1736771 -0.5198869 -0.24147394 -0.22084409 -0.4216927 0.09269058 0.14494404
0.10972771 0.049646463 -0.18543532 -0.1972601 -0.0089347465 -0.06425506 0.5395221 0.035440896
-0.41053402 -0.1660227 -0.40798858 0.41801795 -0.13424043 -0.2691479 0.34301922 -0.07720433
0.15331142 0.19193935 0.2777699 -0.7378296 0.24013112 0.21925463 -0.31238467 0.043734323
0.43381676 -0.26328957 -0.010263578 -0.5462835 0.001608742 0.56320107 -0.12901326 -0.20697443
-0.21229729 -0.14319882 0.27636722 0.4771866 -0.15379861 0.3816411 0.5994135 0.1920545
-0.4098978 0.40812945 -0.110841155 -0.0900259 -0.36393383 -0.1840244 0.06583681 0.5564421
-0.017317027 0.44632885 0.3089142 -0.1959698 -0.014253163 0.013655661 0.1536041 0.04383332
-0.24667037 0.40903178 0.28970513 -0.18687163 0.0048197927 0.25845057 0.07475055 0.56327873
-0.29494423 0.37475303 -0.23450771 -0.29670092 0.07920219 0.020319061 0.20620582 -0.43398046
0.32559878 0.019412974 0.13972129 -0.12214739 0.09519402 0.35539615 0.03254139 0.17588758
-0.19398843 -0.1502747 0.15801984 0.06898967 0.13535537 -0.34216875 0.046305012 0.48393157
0.014286333 -0.2047561 -0.12073815 -0.4042496 -0.24652094 0.25855428 0.3987708 -0.21703286
-0.021266885 -0.13192141 0.1534397 0.20440905 0.29284197 -0.19538942 0.33636287 -0.23727201
-0.055349406 0.060571723 -0.005305181 0.3609657 -0.34379905 0.01691817 0.55671185 0.4717827
-0.08468753 0.34481266 -0.1270522 0.013534739 -0.07072663 -0.40503216 -0.21706063 -0.14146182
0.12938648 0.015114177 0.30123025 -0.15343998 0.02558523 0.042139243 -0.34736493 -0.01747637

network_body.observation_encoder.processors.0.dense.0.bias f4 [128]
00000000: 8eab a23c bca4 413c 6eae 13bb ac64 b73b
00000010: 3bfc 1b3d fab8 373b 8ad7 1d3c 9938 463b
00000020: 73a6 083c 86a7 c53c 17b0 6dbc 6677 13bc
00000030: e0cb 1e3c a24f 393c 11b1 033c 293f 143d
00000040: 2180 4c3c 6672 443a 5584 d83b 03eb f53b
00000050: 9d40 9b3c b8ae 943c ba70 453c 9989 6abc
00000060: 647f 3a3c a39b 3d3c 6dfa 8c3b c9c1 813c
00000070: 49d9 1b3c de5c 1cbc e62d 4e3b d0d8 193b
00000080: 8b66 9b3c 981d ecbb 83df ea3c d2b8 0a3c
00000090: e1c7 553c 81f6 303a 715a 97bb 1f2a 37bc
000000a0: 7df6 6ebc fd43 1339 d533 f93c 0c95 31bc
000000b0: 1234 653c f6e2 233c 7d3b 573b 3ad5 0e3b
000000c0: f4aa 8d3b d278 623c 284e d23c 9649 9cbb
000000d0: b4c3 5d3c ef1b a63c 1ff7 56bc 7bc2 ea3c
000000e0: 7484 043c 92d2 c6bb d2ca 6f38 1062 5e3c
000000f0: c805 003c 117a 013d 9923 4b3b 45a3 0bbb
00000100: 5f68 e53b 8324 ba3b d271 6f3b b217 603c
00000110: 07ab ac3c 121a dd3c 10ed e6bb 9d26 9f3c
00000120: f547 d9ba 5186 703c 0141 8c3c ed8c 213b
00000130: 148d 97bc 1231 4c3c 6589 90bc 475e debb
00000140: 694b ebba fcb4 c63b 5404 023c 5ab4 85bb
00000150: 762f d63b 3640 d33c bb8f 013d 2a02 963c
00000160: df6c 133d 92df 883c 32e7 8b3c 2764 7c3c
00000170: b181 993c f31f 9e3b 3f50 1e3c 2179 f73b
00000180: 27ed a23c e67c 683a 9a12 a9bc 1161 19bc
00000190: c07e 3c3d add7 09bc 6285 39bb f5b8 873b
000001a0: 10ac e73b 63b7 c33c 6b35 9c3c e253 d83b
000001b0: 8990 b73c 9f48 063c b98f 383c 07db ebba
000001c0: 7632 69ba 2753 d93c cab2 b73b 4079 82bc
000001d0: d6be d73c b040 2c3b 3b14 f6ba 7d56 373b
000001e0: f6c5 283c a07f 4a3c 1f34 a13c f9cb 613c
000001f0: 38bd d4bb 8f90 e23c ab1d 9b3b 14f5 673b
0.019857194 0.011819061 -0.0022534388 0.005596718 0.038082343 0.0028033839 0.009633908 0.0030246137
0.008340466 0.024127733 -0.014507315 -0.009000635 0.009692162 0.01131049 0.008037821 0.036193047
0.01248172 0.00074938533 0.006607572 0.007504822 0.018951708 0.018149719 0.012050802 -0.014315032
0.011382911 0.011572751 0.004302314 0.015839474 0.009512254 -0.009543626 0.0031460463 0.0023475178
0.018969795 -0.0072056763 0.028671032 0.008466916 0.013048143 0.0006750599 -0.0046189358 -0.011179476
-0.014585135 0.0001404434 0.030420223 -0.010838758 0.013989465 0.010002842 0.0032841854 0.0021794573
0.0043233577 0.013822751 0.025672033 -0.0047695143 0.013535429 0.020276992 -0.013120442 0.028657189
0.00808822 -0.0060675824 5.717093e-05 0.013573185 0.007813878 0.031610552 0.003099656 -0.0021307033
0.0070009674 0.005680622 0.0036536348 0.013677524 0.021077646 0.02698997 -0.007047303 0.019427592
-0.0016577231 0.014680461 0.01712084 0.0024650649 -0.018499888 0.012462871 -0.01764364 -0.006786141
-0.0017951551 0.0060640555 0.007935602 -0.0040803375 0.0065364195 0.025787454 0.031631213 0.018311579
0.0359925 0.01670817 0.017078016 0.015404738 0.0187386 0.004825586 0.009662687 0.0075522815
0.019888474 0.0008868709 -0.020638753 -0.009361521 0.046019316 -0.0084132375 -0.0028308262 0.0041419216
0.007070072 0.023891157 0.01906844 0.0066017965 0.022407787 0.008196025 0.011264735 -0.0017994352
-0.0008895764 0.026528908 0.00560603 -0.015926957 0.026336115 0.0026283674 -0.001877434 0.0027975135
0.010301104 0.01235953 0.019678174 0.013781541 -0.006492283 0.027656822 0.0047337613 0.003539388

network_body._body_endoder.seq_layers.0.weight f4 [128, 386]
00000000: 6dce 1fbd ab3e 133d e8d1 eb3c 9096 1f3c
00000010: 9fd5 a1ba cb6e e83c 69e2 693d 9e0d bb3d
00000020: 8bf7 96bc 07c1 703b 6d95 61bd ad2e 833d
00000030: c5a0 0abd 61b2 f2bc 5f7e 093d 81b5 e83d
00000040: fbbc 513b 14ad fe3c f8d1 cd3c 8e0e ef3c
00000050: 67e3 fdbb 500a c83d 92e5 a63d 3d8b 513d
00000060: fce1 d43d fb5a d93c f57b feba 5b7b 04bd
00000070: a7c4 c03d d6dd ddba e59a a6bd 6935 18bd
00000080: d574 ea3d 36f2 bbbc e54e b9bd b447 a23d
00000090: f646 67bd 4209 943d 6129 9fbd b8f0 303d
000000a0: 6788 583d de79 02bd ed29 b93c 199e d0bd
000000b0: 8915 b83d 820f 7e3c 4a6d c0bc 6982 7b3d
000000c0: d88e 383d 537a 7fbd 4949 763d 36b7 27bd
000000d0: 2057 763d a435 52bd cce5 bfbc e806 573d
000000e0: f2cb 043d 50a6 1d3e eae1 efbc c160 863d
000000f0: e350 953d b963 19bd a656 b63d d3af 24bd
00000100: b61d 383c bf90 213d e57b a3bc cb29 07bd
00000110: 8a95 9f3d 4d33 22be 9fce 9fbb 9ab3 283e
00000120: 4f71 98bd 1110 3b3d c3b9 b73c 0385 18bd
00000130: bee4 6cbc 6fec 0c3d a390 41bd ca02 883d
00000140: bd49 5f3d 4e52 4bbd 74c9 b63c 2b80 f83c
00000150: 8081 ea3c e716 83bc 6df8 dabd 164c 61bd
00000160: cdcf ee3d 5840 1c3c b8b1 bbbd bd30 963d
00000170: 0ab2 053d 7d53 46bc df6d 2fbd c025 fb3c
00000180: 24e5 763d 2335 e93d 2ca4 a3bb 93df 9f3c
00000190: 05dd c33c 94f0 91bc 28e1 743c 5a46 483d
000001a0: 827a d2bc 5b18 143d f9ca 1a3d a64a d2bc
000001b0: cf19 313d 471e 763d c23d cb3d d64a f9bc
000001c0: fa62 68bc de67 1a3d a45c b2bc cd65 353c
000001d0: 2785 86bc fca1 1a3d cfee 2e3c 46fc a73c
000001e0: cdfc 90bd 0e07 debc 8822 513c 3e53 f63c
000001f0: 93db 66bc e7de 343d 8bde dabb d8f2 1b3d
00000200: 1612 97bc cc4c d4bd f2c3 a7bd 2754 c73b
00000210: 0825 2fbc 4784 093c 72cd 6ebd 7eaf acbd
00000220: ff2b b73d 76eb 3b3d 6684 15bd 548b 123d
00000230: d3bb 3b3d be79 8c3d 53fa 8d3c d055 943d
00000240: 7aff 8c3c 137a 89bc 4590 b3bd 6c18 f6bd
00000250: 7c12 0d3d 33a0 ecbb 54e3 ac3c 2496 f93d
00000260: 1815 963c 5a13 fdbb 4ece 683d 963f f53d
00000270: 1e09 ac3d ed81 263d fa6a 5abd b05e 77bd
00000280: 5305 2a3d f1a0 06bd b192 14be 191b b23d
00000290: 4e2c ad3d 877c ceba f719 2cbd 1b70 a5ba
000002a0: e18a 093e 7676 bc3d 08c8 51bd 6436 663b
000002b0: 3dc5 a73d 8885 87bc 9cf5 6dbd 2c42 0abd
000002c0: 85d0 703d 4c3e 56bd 5fa7 3a3d fb20 8ebd
000002d0: ebca edbb 8992 2a3d 1bd1 1fbc 2379 b2bd
000002e0: 9a4e 313d 71c1 093d 98f9 01bc 7ef3 8f3d
000002f0: e5b1 283c 8e7e 3fbc aac6 4e3a acad 40bd
00000300: cbad 25bd c225 2b3d da12 16bc 52e9 e23c
00000310: cc05 413d 9ca5 4e39 c3a6 b8bd e5e6 dbbb
00000320: 39e2 afbc 8b15 87bc bbd8 8abc 2af4 a7bd
00000330: d3d9 6fbd 14d3 a43c b017 9abb 3895 7bbc
00000340: 039f a23d 92a9 4abd d2ca 8cbd 4e8d 1dbc
00000350: de4b bb3c cda7 59bd aaa3 483d aefa fd3c
00000360: eee0 973b a710 b23c 9207 83bd ed23 36bc
00000370: 5f1c b43c 1d60 4a3b e4cb d4bc 1bc5 6cbc
00000380: 0b05 debc 2617 69bd 12fd e9bd 8ba3 62bd
00000390: 3f86 c63d 03af a23c adec 61bd e0ba 2fbd
000003a0: 4624 833d 5d67 20bd 2369 a73d e294 cb3c
000003b0: 1a45 6ebc de1a 17bc b3c7 d33b 70ff 0bbd
000003c0: 4231 313d e49c 343d e974 06bd a95c dcbc
000003d0: c083 b63c 86d6 52bc faef 8b3a b526 973d
000003e0: b444 893d 80fa 3dbc 93ae c7bd e849 4d3c
000003f0: aa68 eb3b 6f5c 383d 82af b83d 1ae3 173d
-0.039015222 0.035948437 0.028786615 0.009740487 -0.0012346989 0.028373143 0.057100687 0.09133457
-0.018428585 0.0036736147 -0.055074144 0.06405387 -0.033844728 -0.029626073 0.033567782 0.11362744
0.003200351 0.03108839 0.025124535 0.029181745 -0.0077480557 0.09767592 0.08149256 0.05115818
0.103946656 0.02653264 -0.0019415604 -0.032344203 0.094125085 -0.0016927074 -0.081350125 -0.03716031
0.11448065 -0.022942644 -0.09048251 0.079238325 -0.056464158 0.07228328 -0.07771564 0.043198317
0.05286446 -0.031854503 0.022603 -0.10186405 0.089884825 0.015506627 -0.023489613 0.061403666
0.0450581 -0.062372517 0.060128484 -0.040946208 0.060141683 -0.051320687 -0.023425005 0.05249682
0.03242106 0.15395474 -0.029282529 0.06561423 0.072908185 -0.03744862 0.08903246 -0.04020674
0.011237552 0.03944468 -0.019956538 -0.03299884 0.07792194 -0.15839882 -0.004876926 0.16474763
-0.07443487 0.04566962 0.022427445 -0.037236225 -0.014458833 0.03440517 -0.047257077 0.06641157
0.05451368 -0.04963904 0.022312857 0.030334553 0.028626204 -0.016002132 -0.10691915 -0.0550042
0.116607286 0.009536825 -0.091647565 0.07333515 0.032640494 -0.012104866 -0.04282939 0.030657649
0.06027712 0.11387088 -0.004993936 0.019515788 0.023909101 -0.017814912 0.01494626 0.048895217
-0.025693182 0.03615604 0.037791226 -0.02567036 0.043237504 0.06008747 0.09923889 -0.030431192
-0.014183754 0.03769671 -0.02177269 0.0110716345 -0.016420914 0.037752137 0.010677054 0.020506036
-0.07079468 -0.027102973 0.012764581 0.03006899 -0.0140904365 0.04415789 -0.006679361 0.03807339
-0.018441241 -0.1036621 -0.081916705 0.00608303 -0.010689981 0.008393354 -0.058301397 -0.0843191
0.089439385 0.04587885 -0.036503218 0.035777405 0.04583342 0.06859158 0.017331278 0.0724293
0.017211664 -0.016781842 -0.087677516 -0.12016377 0.034441456 -0.0072212457 0.021104492 0.1218684
0.018320605 -0.007723254 0.056837372 0.11975019 0.084001765 0.04065125 -0.053324677 -0.060393035
0.041508984 -0.03286833 -0.14509083 0.08696575 0.08455716 -0.0015753665 -0.04201695 -0.0012621911
0.13431884 0.09202282 -0.051216155 0.0035127634 0.08191917 -0.016543165 -0.05809556 -0.033754513
0.05879261 -0.052305505 0.045569774 -0.06939884 -0.0072568557 0.041643653 -0.0097544445 -0.08714511
0.04328785 0.033631746 -0.007933043 0.07028864 0.01029632 -0.011687888 0.00078878796 -0.047040626
-0.040448945 0.041784056 -0.009159768 0.027699146 0.04712467 0.00019707385 -0.09016182 -0.0067108744
-0.021470176 -0.016489765 -0.016949048 -0.082008675 -0.058557343 0.020120181 -0.004702531 -0.015355401
0.07940485 -0.04947812 -0.068746224 -0.009616209 0.022863325 -0.053138543 0.048984207 0.031003322
0.004634968 0.021736456 -0.06397928 -0.011116964 0.021986185 0.0030880042 -0.025976129 -0.0144512905
-0.027102014 -0.05690684 -0.114252225 -0.055331748 0.09693574 0.019858843 -0.055157352 -0.042902827
0.06403403 -0.039161075 0.0817435 0.024851266 -0.014542842 -0.009222714 0.006463015 -0.03417915
0.043259867 0.044094935 -0.032826338 -0.026899653 0.02227962 -0.012868529 0.0010676377 0.0738043
0.06702557 -0.011595368 -0.09750094 0.012529828 0.007184108 0.045010027 0.090178505 0.037081815

network_body._body_endoder.seq_layers.0.bias f4 [128]
00000000: 8ef8 7e3c d6b3 3fbb 0f14 09bc 62c2 59bc
00000010: 7dc6 793c b2d1 87ba b33f a0bb d459 ee3c
00000020: d9bd e53a 8022 94bb d70e bb3c 3bcb 2d3c
00000030: 0203 793c 6c55 ad3b 6a13 75bb 1908 8a3a
00000040: ea74 1ebc 58b7 d53a 63f5 e63b 70ca 3cba
00000050: f0f9 ceba d641 b83c 250c 763c ac3e 9abc
00000060: cc16 a63c 7005 c43c d10b eeba 1f53 853c
00000070: 1250 62bb 22c2 a53c 8fac b83c 4b5c d2bb
00000080: 6b5b abba 514e 06ba 92cc 1a3b abcb 1abc
00000090: 767d e53b 21a0 633c af8d ee3b fa04 523c
000000a0: 506a 92bb 8600 3b39 99c2 db3b f385 a4bb
000000b0: 6765 80bc 04a1 343b d2e9 cd3b 928b 41bc
000000c0: 9a07 99bb afc4 5dba 94c5 453c f810 a43b
000000d0: eb05 4ebc ce38 55bc 40ba c03b b437 b93b
000000e0: f96b 013b f538 a43b 064c 3cbc 17b2 ca3c
000000f0: dd02 7ebb 5295 85bb c043 403a 0119 a93b
00000100: 3315 083c e0f2 30bc 2d2c e73b a754 80bb
00000110: a96e 853b 8c47 e03b caac ed3b 324b 56bc
00000120: bb4b c2ba 8372 20bc deb3 5c3a e82c 153c
00000130: 9d54 d23a bf51 1bbc f1e1 2fbc 74fd 763c
00000140: 58ce f03a 8ab8 d5ba 9863 e83b 8797 cfbb
00000150: 33c9 60bc afe4 a5ba 921d 1f3c 3db9 7ebc
00000160: de92 363c 9b1b f8bb 71ec 9f3b f58d c73b
00000170: 85dd 0dba 897c 04bc 27f2 833c 3e90 afba
00000180: 31e2 203c 5290 043c 8cdb 543c 0f29 b43b
00000190: 5050 303c 3916 66bc 624c 42bc 0ebc 63bb
000001a0: f50f 26bc f978 953b 3b87 f03b 6879 423c
000001b0: 83a1 c839 11d9 6bbc 4e6a 953c 413f 433c
000001c0: fda9 943c b7c9 a53a ff3e b43c 0f5f 27bb
000001d0: c983 8e3b 59b2 2c3c 1b11 51bb 5712 8c3c
000001e0: c3c2 6b3c 0bd7 fd3b 08a4 3bbc 5398 85bb
000001f0: 6dd8 28bb 8788 4839 9fcb 213a f176 b83a
0.01556219 -0.0029251478 -0.008366599 -0.013290973 0.015245077 -0.0010362177 -0.004890406 0.029095568
0.0017527892 -0.0045207143 0.022834225 0.010607536 0.015198471 0.005289724 -0.0037395605 0.0010530978
-0.009671429 0.0016305251 0.0070482953 -0.00072017964 -0.001579104 0.02249233 0.015017544 -0.018828712
0.020274542 0.023928374 -0.001816148 0.016274987 -0.003453259 0.020234171 0.02254322 -0.0064196936
-0.0013073509 -0.00051233644 0.0023620469 -0.009447972 0.0070034815 0.013893158 0.0072800736 0.012818569
-0.00446824 0.00017833905 0.0067065475 -0.005020851 -0.015673352 0.0027561793 0.006283977 -0.011813061
-0.0046700956 -0.0008459789 0.012071032 0.0050069056 -0.012574653 -0.013014032 0.0058815777 0.0056523923
0.0019748195 0.0050116726 -0.011492735 0.024743123 -0.003875903 -0.0040766383 0.0007334314 0.0051604514
0.008305836 -0.010800093 0.0070548267 -0.0039163413 0.0040720296 0.0068444666 0.007253264 -0.013079451
-0.0014823595 -0.009792927 0.0008419136 0.009104945 0.0016046945 -0.009479939 -0.010735021 0.015075076
0.0018372042 -0.0016305607 0.0070919506 -0.006335202 -0.013719845 -0.0012656654 0.00971164 -0.015547094
0.011143414 -0.00757165 0.004880481 0.0060899206 -0.0005411732 -0.008086332 0.016106678 -0.0013394428
0.009819553 0.008091049 0.012991797 0.0054980586 0.0107613355 -0.014043384 -0.011859031 -0.003474954
-0.01013564 0.00456154 0.0073403395 0.011869766 0.00038267308 -0.014395014 0.018239167 0.011916936
0.018147463 0.0012648617 0.022002695 -0.0025538837 0.004349206 0.010540568 -0.0031901065 0.017098589
0.0143896965 0.0077465824 -0.011452682 -0.0040769964 -0.0025763765 0.00019124347 0.00061720045 0.0014073533

network_body._body_endoder.seq_layers.2.weight f4 [128, 128]
00000000: de0f 5fbd a762 033e 6e4e 39be fde9 e4bd
00000010: 38ec aebd 81a3 6d3d 0709 62bd 67c2 713d
00000020: 948a 5c3d efd2 eebd 1a15 c33d 85d3 413d
00000030: 03cd 1fbe 09c3 b4bd 13d9 2f3d 7352 c33d
00000040: c5b8 f0bd 06fb 8f3e be13 5f3c 086e 05be
00000050: 44f5 39bd 636c 9b3d 7843 ccbc eb0c c83d
00000060: 9f5c 29bd 98a8 cf3c 9626 b43d 12a6 90bc
00000070: 7876 b73d f868 00be 1b8f ac3d 4de4 773d
00000080: a1bd 073d f174 4c3e 9f63 583d b8c2 943d
00000090: 5275 db3b f1fb 6a3d 7978 f9bd 371a 2b3d
000000a0: 9288 9cbb 1717 06be 3193 d8bd 870e 113e
000000b0: 7610 dbbb 5121 903c 6376 06bd 3f3f d13d
000000c0: bb33 1dbe 19ba 463e 04d2 a3bd b19f ae3d
000000d0: c72c 06be d097 ebbc 0fbb a93c e97c 403b
000000e0: 6f54 67bd 3628 3bbd 15d9 b93d 6617 e33d
000000f0: 6cb7 6bbd 92a7 ffbb 525b 0d3b 2174 543e
00000100: ef9e c8bd 5d5b c83d 0470 b83d 673b 023e
00000110: 860c a93d 6d64 9fbd afce 00bc e0a8 03bd
00000120: a8ff 46bd 6c8b b1bd b323 42bd a492 85bd
00000130: 41c3 bc3d 5a5e b0bd c349 a63d 5a0d a53d
00000140: f00e 343d 08fa 513d 6e23 13be 0b97 57bc
00000150: a4d0 04bd fd68 943d e266 8cbd 7203 e43a
00000160: ef4e 2c3d 484c 28bd 8c64 483e 3c1e 6ebc
00000170: 29ac 2dbe 9b91 ac3d 7e79 a6bd 9695 eabd
00000180: 554f cc3c bbc8 aa3d bbc7 d33b e14a cdbb
00000190: 1d0a 4dbc 4690 59bd 2bd3 863d d7d1 833d
000001a0: cabc 5e3e c354 3abd 0243 4c3d c183 f83d
000001b0: 67f3 833c f854 98bd 0ff6 bf3d b9ab be3d
000001c0: 5059 38bd c6e3 92bc 3f0b f9bc 64b5 f0bd
000001d0: 2f18 e23d d8dd c7bd d0d4 00be 066a 5d3e
000001e0: 2d7e 4bbe bce7 dd3c d8a0 acbc f2b5 a63d
000001f0: 4676 ddbd 9117 ca3c 8602 2c3d f852 46be
00000200: c1d6 493c 727e 45bd b9aa 1bbe e1bc d2bd
00000210: 1740 e13d 5182 86bd 35dd 54bd 0964 393d
00000220: d41a 923d d675 4fbd 26d2 f1bd f6c6 d53d
00000230: 825a 653d f31d ff3d 9209 873d 7622 a53c
00000240: e8b5 b03b 31fa cfbd 3bb7 e6bc 477a 97bd
00000250: a99f af3b c1ed a2bb 33e0 0bbe c489 593d
00000260: 0a0a adbd 96e7 023d bc14 7ebe 908b a13d
00000270: ff65 483b 2268 113e 3888 323e b3ce 8abd
00000280: 852e 56bd b6e3 78bd e212 5bbd ca8f 5cbe
00000290: ab94 a23d 9be8 033e c8dc 333d a2d9 9dbd
000002a0: b6c1 25be 0296 0dbe e24a dfba 8c4a 4dbd
000002b0: d3ad 94bd be10 e73c 232c 21bd c850 36be
000002c0: 1b6b b23d ee1d 49bd 96db 8fbd 0f2c 03be
000002d0: 4d68 3cbe bf00 d93c 455b d23c 3ca6 0a3e
000002e0: 49a1 b63d 30df d23d 8406 0bbd cfee 53bc
000002f0: c80d ccbc fa41 8abd 0d66 b0bd f858 bc3d
00000300: 7f2c 95b9 fe66 fa3b 4f02 8bbd ab66 99bc
00000310: 0744 03be 13a8 f83d 04c2 ccbd 1ffc 16be
00000320: 1180 98bd 38c2 7dbd 6095 033e 4db6 e63d
00000330: 3ecb a0bc 408c 3dbe 36df 89bc b0ad 873d
00000340: 5ee5 d33c 3e2e 71bd 8f94 b3bc 551e 7d3c
00000350: 1cd7 0dbe 0f9b 3fbd 4502 9f3d 5986 2bbd
00000360: e9c4 853d bf51 5ebd 5c92 0bbd 039c c63d
00000370: c6e5 edbd cbd9 30be 57e5 163e 2380 d0bd
00000380: 60b9 643d 9fb1 623c 03f4 a73e 80e2 adbd
00000390: 63c6 45bc 04ee 08be cf79 35be e570 9f3d
000003a0: 84a0 16bd 81a5 80bd 348a 283e 6264 d3bd
000003b0: a074 94bc da18 f93a 70a0 7cbd 6f6f 8c3d
000003c0: a2b4 a7bd c5c7 08bc 9fbc 203e 8658 23be
000003d0: c48c 2ebe 701c d13c b327 eebd 3b5f 573d
000003e0: 52b5 f53c 03d0 163e 9134 00be aea8 943c
000003f0: 01d6 cb3c c25a bc3d 6cac 8e3c 7370 9c3b
-0.05445849 0.12830602 -0.18096325 -0.11177442 -0.08541149 0.058017258 -0.05518439 0.059023287
0.053843096 -0.11661326 0.09525509 0.04732086 -0.1560555 -0.088262625 0.042931627 0.0953721
-0.11753992 0.28121203 0.013615547 -0.13030255 -0.04539992 0.075890325 -0.024934515 0.09768089
-0.041348096 0.025348946 0.08796422 -0.017657313 0.08958143 -0.12540042 0.08425733 0.06052046
0.03313983 0.19966485 0.05282938 0.07263702 0.0066973353 0.057369176 -0.121811815 0.041773047
-0.0047770226 -0.13094746 -0.105749495 0.14165698 -0.006685312 0.017594012 -0.032827746 0.10217141
-0.15351765 0.19406928 -0.07999042 0.085265525 -0.13103019 -0.028758913 0.02071908 0.0029371327
-0.056477007 -0.045692645 0.09074608 0.11088447 -0.05754797 -0.0078019584 0.0021569324 0.20747425
-0.09795939 0.09783051 0.0900574 0.12717973 0.08254342 -0.077828266 -0.007861777 -0.032143474
-0.048583657 -0.08669171 -0.047397327 -0.0652211 0.09216929 -0.08611746 0.08119538 0.08059187
0.043959558 0.05126384 -0.14368984 -0.01315857 -0.032425538 0.072465874 -0.06855561 0.0017396046
0.042067464 -0.041088372 0.19569606 -0.014533576 -0.16960205 0.084262095 -0.081286415 -0.114543125
0.024940172 0.083390675 0.0064630187 -0.00626503 -0.012514618 -0.053116105 0.06583246 0.06436508
0.21751705 -0.04549099 0.04986859 0.12134505 0.016107274 -0.074380815 0.09373104 0.09310097
-0.04500705 -0.017930876 -0.03040087 -0.117533475 0.11039769 -0.0975911 -0.12581182 0.21622476
-0.19872351 0.027088039 -0.02107279 0.08140172 -0.108135745 0.02466944 0.041994594 -0.19367588
0.012319268 -0.04821629 -0.15201844 -0.10289932 0.10998552 -0.06567825 -0.051968772 0.045261417
0.07134023 -0.050649486 -0.11807661 0.104383394 0.055994518 0.12456884 0.06593622 0.020158034
0.0053927787 -0.10155142 -0.028163543 -0.073963694 0.005359609 -0.00497219 -0.13659744 0.0531099
-0.084491804 0.03195914 -0.24812597 0.078879476 0.0030578373 0.1419988 0.17434776 -0.06777706
-0.05229046 -0.060764037 -0.053484805 -0.21539226 0.079385124 0.128817 0.043911725 -0.07707526
-0.16187176 -0.13826755 -0.0017035867 -0.05011992 -0.07259717 0.028206225 -0.039348733 -0.17804253
0.08711835 -0.04910081 -0.070243046 -0.12809776 -0.18399163 0.026489614 0.025678286 0.13539976
0.089174815 0.10296476 -0.03394176 -0.012935354 -0.024908915 -0.06750865 -0.08613215 0.09196657
-0.00028452647 0.007641672 -0.0678755 -0.018725714 -0.12818919 0.121414326 -0.09997943 -0.14744614
-0.07446302 -0.0619528 0.12849951 0.1126524 -0.019628163 -0.18510532 -0.016830068 0.06624925
0.025866207 -0.05888199 -0.021921424 0.015449126 -0.13851589 -0.046778735 0.07764105 -0.04187617
0.06531698 -0.054277178 -0.034075126 0.096977256 -0.116160914 -0.17270581 0.14735924 -0.1018069
0.05584085 0.0138362935 0.32803354 -0.08490467 -0.012071225 -0.13372046 -0.17722248 0.07785205
-0.036774173 -0.06281567 0.1645897 -0.10321881 -0.018122017 0.0019004599 -0.061676443 0.06857192
-0.0818875 -0.00834841 0.15696953 -0.15951738 -0.17045885 0.025526255 -0.11628666 0.052581053
0.029993687 0.14727788 -0.12520052 0.018146839 0.024882318 0.09196998 0.017416202 0.004774147

network_body._body_endoder.seq_layers.2.bias f4 [128]
00000000: 5b81 debb ae18 a73c e2a5 7cbb 7c50 8c3c
00000010: 451b 993b c2c3 eabb 3bb3 6abc 61fd 943c
00000020: 8f45 55bc 940a 54bc 1164 46bc 2cfd c83c
00000030: 03be 74bc dfa9 96bc f72e c2bb c89c 9cba
00000040: 5cd2 29bc 9911 80bc 718b a63b bb33 633b
00000050: be0a 0fbc c250 1bbc 9d2b 42bc 6ed7 b23b
00000060: 12d0 7b3c 9f63 06bb 3a4f 9cbc b349 ac3c
00000070: f58c 75bc 8f3c 81bc 0c3d 9a3c 3255 c1ba
00000080: 403c 4fbb 94a1 c6b9 0666 aab9 134b e9bc
00000090: fdc5 613a 27e0 293c e83d 50bc 71ba 8f3a
000000a0: a9c3 613b 1fa8 69bb 870d 87bb 2c4f 63bc
000000b0: d598 a53b 7870 293c 0821 c9bc f06c 6e3c
000000c0: a10a 9fba 3501 4dbc 9c02 bbbb 6ac6 a0ba
000000d0: 0ea2 be3c 12ed b73b fbcb 973c 02ce 2d3c
000000e0: d142 ebba ea1f 513a abbc 603c 2b33 91bc
000000f0: ac7b e2bb d4e1 2cbc 8195 3d3c a72e 3ebc
00000100: 3cc6 af3c 1afc 18ba 775e 223c a08c 833b
00000110: 4eae 923c 6356 64bc a0ee debb 24db 61bc
00000120: ed70 1ebc 07f8 483b 8626 18bb f993 c939
00000130: 8042 d23b 3e5f 983b d429 edbc 0e1c 323c
00000140: cad8 c0bc 377b 803c a095 493b ea36 01bc
00000150: cca3 0a3b f1d2 9b3c 4826 58bb aeb1 b13b
00000160: 7ca8 ad3c 5e8d 06bb 1a2e 803c cc1e d63b
00000170: 6f35 4fba 3cc7 743c 6959 453c ee72 9bbb
00000180: 02c1 c7bb 43b7 313c b059 76bb f42b 59bc
00000190: e08d 0cbc 50b9 62bc d070 b53c 97a1 59bc
000001a0: d082 fcbb 9ba4 e2bb a3da b5ba 3873 2dbc
000001b0: 2f2a 3b3c ef24 703c 737b b4bb a0ad fdbb
000001c0: edc3 103c d3c7 c13c bbe1 fa3b 5568 04bb
000001d0: 4be2 81bc 72f1 3bba ccad b0bc de30 47ba
000001e0: 2a95 90ba d357 8d3c 2e27 85bc 146a fb3a
000001f0: 373c db3c d835 a7bb d55b b1ba b40a 583c
-0.0067903227 0.02039751 -0.0038551022 0.017128222 0.0046724402 -0.0071644494 -0.014324958 0.018187227
-0.013017072 -0.012941975 -0.012108819 0.024534784 -0.01493788 -0.018391548 -0.005926009 -0.001194858
-0.010365095 -0.015633391 0.0050825407 0.0034668285 -0.0087305885 -0.009479703 -0.0118512185 0.00545781
0.015369432 -0.0020506156 -0.019080747 0.021031236 -0.01498722 -0.015775947 0.018827938 -0.0014750122
-0.0031621605 -0.00037885888 -0.0003250094 -0.028478181 0.00086125714 0.0103683835 -0.012710072 0.0010965598
0.0034448898 -0.0035653186 -0.0041214856 -0.0138738565 0.0050536194 0.010341756 -0.024551883 0.01455234
-0.0012133905 -0.012512495 -0.005707098 -0.0012266163 0.023270633 0.005612978 0.018529883 0.010608198
-0.001794899 0.0007977473 0.013716857 -0.017724594 -0.0069117155 -0.0105518885 0.011571289 -0.0116078025
0.02145683 -0.0005835906 0.0099102175 0.0040145665 0.01790538 -0.013936612 -0.0068033487 -0.013785157
-0.009670478 0.0030665414 -0.002321632 0.00038447956 0.006416619 0.0046500256 -0.02895061 0.010870947
-0.023540873 0.015683753 0.003075935 -0.007886628 0.002115476 0.019021483 -0.0032981802 0.0054227924
0.021198504 -0.0020531039 0.015646983 0.006534433 -0.00079043856 0.014940079 0.012045243 -0.0047439253
-0.0060960064 0.010846916 -0.003759008 -0.013255108 -0.0085787475 -0.013838127 0.02214852 -0.013283155
-0.0077060238 -0.006916595 -0.0013874363 -0.010586552 0.011423632 0.014657243 -0.0055078804 -0.007741645
0.008835775 0.023654854 0.0076563037 -0.0020203788 -0.015854975 -0.0007169462 -0.021567248 -0.00075985293
-0.0011030782 0.017253792 -0.016254034 0.0019181394 0.026762111 -0.005102854 -0.0013531396 0.013186146

action_model._discrete_distribution.branches.0.weight f4 [2, 128]
00000000: 9fda ce3c a9eb d8bc c6ba cd3b 5adf b7bc
00000010: 36d7 b2ba ce93 a43c fc47 833c 2c2a 6bbc
00000020: 20b4 043c 19b3 b938 20a3 1a3d 562e f4bc
00000030: 5177 0a3d 970f 5c3c feeb 0d3c 7e7e a33c
00000040: f6a0 97bb c1a2 4d3c b62a e73c cf06 4dba
00000050: 9d47 cf3c d2cf 343c fb78 7d3a 4b0f 56bc
00000060: a069 06bc b42b b13c e49e 8c3c 484b dbbb
00000070: 3132 413c 048f 973c 8c0f 0abc 1b2f 453b
00000080: a39e 0c3d 4804 c53c e7f1 1fbb bc12 c73c
00000090: 32e3 133a b3e1 0ebc d05f c63c 0a39 91bb
000000a0: ea22 3cbc 0093 b73b 6d69 133c 838c 213c
000000b0: f9ee 813b abff 98bc 338e 083d e5d4 8cbc
000000c0: 6713 a83b db6a 113d b308 5a3c 17be 16bb
000000d0: 8313 c8bb 0496 86bc 721d a9bc 7b82 21bd
000000e0: 10ba f83a 6989 133b ef5a ddbb 759d 093d
000000f0: 9beb e13c 0abc 2b3c 2b67 29bb 9337 a93c
00000100: 25b8 56bc c53a c23a aad9 54bc eaa8 12bc
00000110: cfc8 0abc eb6a 2c3a 5fb0 ffbb 80fd 903c
00000120: 83af bd3c 916a 4cbc 3d90 833c 6062 743a
00000130: 176e 9dbc a763 243b 5731 c63c 1a51 ffba
00000140: 6c97 d23c 3162 d6bc 9799 88bb 2498 d53b
00000150: 65b7 c23b e1ea 65bc 1d91 383c 0efd b4bb
00000160: 330d 24bd 2516 d53c c4e7 1fbc 4f7c 94bc
00000170: 2178 f23b 0f39 0abc c448 f33c 01cf ac3b
00000180: c517 363c 709c 2ebc 8b2f ae3b 6469 403c
00000190: 7ea6 b53c f2b1 123b b2c9 a1bc 8963 ad3b
000001a0: 624c f93c 43a7 bf3c a492 e63c be97 04bc
000001b0: 6767 9dbc 5465 dfbb 87bd 093d 1bb7 3b3a
000001c0: ec37 19bc 0cc6 31bc 040c 57bc bf8c ac3c
000001d0: c8e3 723c 18d5 47bc 491d e53c 0dd0 4fbb
000001e0: cf06 203c ee25 9fbc 58e9 c13c 1c42 25bc
000001f0: d572 1dbd c2bb 54bb b4b6 8ab8 b49d 82bb
00000200: 323e c5bc e24a 043d 842e 8fbc 4cdb f63c
00000210: 4ad0 003b 7710 a7bc fcb4 2dbc e223 1b3c
00000220: 3be8 edbb ccdd 7fbc 688d 02bd 0103 183d
00000230: f473 18bd 9bd5 03bd 848c 5bbb fdc7 b2bc
00000240: 83e7 87bc 75f0 32bd 89d3 11bd 55aa 4abc
00000250: 0d72 44bc 903b 5cbc 6728 06bc 00c9 71bc
00000260: 0554 2d3c 7954 eebc 2222 91bc d542 823c
00000270: 9a6a 54ba bfb1 2abc 9de9 c23c 705d 373c
00000280: 555f d5bc 6b54 0cbd b21e 813c c01d 96bc
00000290: 1594 873b d3b5 aa3c 6d4a 22bc b058 443c
000002a0: 39a4 a53b 33c6 32ba 3833 14bb 4328 1abd
000002b0: ccfa 41bc 75fa cc3c 62e9 b5bc e883 ef3c
000002c0: efdb a9bb 199c 3ebc 21d9 17bd 4fc7 f73b
000002d0: 58c0 b73c 1621 2bbb d27c 853c 69de 8b3c
000002e0: 69de c9bb eed4 6abc cbde c53b a8b7 dcbc
000002f0: 4bea 8abc 9194 b1bc ae74 68bb 28ad 02bd
00000300: dc17 303c 48a4 c8ba 092b 7d3b 3a91 673c
00000310: e3c8 8d3b 91eb 51bc 38a2 a4bc 3106 13bc
00000320: cf14 1fbd a5ce e0bb c7d5 75bb 83c9 9a3a
00000330: 416b 033d 12cb 98bc 283f 3cbc bd26 143c
00000340: 4be5 b7bc 174b eb3c 80f3 6a3c ec2f 96bc
00000350: a435 1fbb c811 a73c 5ee2 81bc c161 0ebc
00000360: 6de4 9d3c 3c86 dfbc e811 8b3c 8058 dd3b
00000370: d10f dfbb 7882 1b3c 3907 38bd 3f2a 00bc
00000380: 67c0 a13b 2bfa 853c fc82 0cbb 8d21 00bd
00000390: 23d9 8abc be4d 3abc f233 c03c f506 69bb
000003a0: f5ab b8bc b801 29bd a975 f1bb c40b 95bc
000003b0: ebb6 d93c ac03 5e3b bd5c a0bc 94bc 40bc
000003c0: a5d9 b33c 40c9 e23c c8bf c63a 5a05 97b9
000003d0: 0402 01bd feb2 93bb 1e34 b5bc 3ab3 18bc
000003e0: 3a75 e1b9 202b 8b3a 1f2d 45bc 0da1 823b
000003f0: 85fe 953c a501 2ebc 911d cc3a 688f 6d3c
0.025250731 -0.026479559 0.0062783686 -0.02244537 -0.001364446 0.02009001 0.016025536 -0.014353316
0.008099586 8.854847e-05 0.037753224 -0.029807251 0.033805195 0.013431451 0.008662222 0.019957777
-0.0046273423 0.012551011 0.028218608 -0.0007821144 0.025302703 0.011035876 0.00096692116 -0.01306517
-0.008203894 0.021627285 0.017165609 -0.006692324 0.011791752 0.018500812 -0.008426558 0.0030087892
0.034330975 0.024049893 -0.002440566 0.024300925 0.000564146 -0.008720803 0.024215609 -0.0044318484
-0.011482934 0.0056022406 0.008997303 0.009860161 0.0039652553 -0.0186766 0.033338737 -0.01719136
0.005129266 0.035502296 0.013307738 -0.0023001486 -0.0061058416 -0.016428955 -0.020643923 -0.039431076
0.0018976349 0.0022512323 -0.006755225 0.03359743 0.027578166 0.010481844 -0.0025848846 0.020656383
-0.013105427 0.001481854 -0.012991348 -0.008951405 -0.008470728 0.00065772113 -0.0078030075 0.017699003
0.02315498 -0.012476579 0.01605999 0.00093225203 -0.019217534 0.0025083811 0.024193449 -0.0019479126
0.02570697 -0.026169868 -0.0041687 0.0065183807 0.0059422725 -0.01403305 0.011265066 -0.0055233305
-0.04005165 0.026011536 -0.009759847 -0.018125681 0.0073995744 -0.008436455 0.029697783 0.0052737
0.011114066 -0.010657415 0.005315726 0.011743877 0.022174116 0.0022383896 -0.019749496 0.0052914065
0.03043193 0.023395186 0.028146096 -0.008092819 -0.019214345 -0.006817499 0.033628013 0.0007160769
-0.009351712 -0.010850441 -0.013125423 0.021063207 0.014824815 -0.012196802 0.027968066 -0.0031709701
0.009767248 -0.019427266 0.023670837 -0.0100865625 -0.03843959 -0.0032460545 -6.614384e-05 -0.003986085
-0.024077509 0.032297976 -0.017478235 0.030133866 0.00196554 -0.020393593 -0.010602232 0.009469004
-0.00726035 -0.015616845 -0.031873137 0.03711224 -0.037219957 -0.032186132 -0.0033500502 -0.021823877
-0.016589886 -0.04368635 -0.035602126 -0.012369712 -0.011990082 -0.013441935 -0.008188344 -0.014757395
0.010579114 -0.029093014 -0.017716471 0.015901009 -0.0008103043 -0.0104183545 0.023793036 0.011191711
-0.026046434 -0.034260195 0.015761707 -0.018324733 0.004137526 0.020838654 -0.00990544 0.011984035
0.0050549773 -0.0006819695 -0.0022613537 -0.037636053 -0.01183958 0.025021771 -0.022206012 0.029237702
-0.005183689 -0.011633896 -0.037072305 0.007561601 0.022430584 -0.002611225 0.01629487 0.017073827
-0.0061605466 -0.014332993 0.006038522 -0.026943043 -0.016957423 -0.021677287 -0.0035469937 -0.031903416
0.010747876 -0.0015307749 0.0038630387 0.014133746 0.004326926 -0.012812511 -0.020096883 -0.008973644
-0.038838204 -0.0068605714 -0.0037511454 0.0011809323 0.032084707 -0.018651519 -0.011489667 0.009042439
-0.022448203 0.028722329 0.0143402815 -0.018333398 -0.0024293447 0.020394221 -0.01585501 -0.008690299
0.019273961 -0.027285688 0.016976312 0.006754935 -0.0068073054 0.009491555 -0.044928763 -0.007822572
0.004936266 0.016354641 -0.0021440377 -0.031281997 -0.016949242 -0.011371074 0.02346227 -0.0035557125
-0.022542933 -0.041261405 -0.0073687625 -0.018194087 0.02657648 0.00338767 -0.019575471 -0.0117637105
0.021954367 0.027683854 0.0015163356 -0.00028804952 -0.031496063 -0.0045074215 -0.022119578 -0.009320075
-0.00043002685 0.0010617711 -0.0120346835 0.003986484 0.018309841 -0.010620509 0.0015572776 0.014499523

action_model._discrete_distribution.branches.0.bias f4 [2]
00000000: 51b7 a5bc 51b7 a53c
-0.020229014 0.020229014
