results/ZaraReinInteraction/ZARAgoalInteract/ZARAgoalInteract-844.pt (torch, 690178 bytes, 38 tensors)

discrete_act_size_vector f4 [1, 2]
0	0x40000000	2.0
1	0x40400000	3.0

network_body.observation_encoder.processors.0.conv_layers.0.weight f4 [16, 5, 8, 8]
0	0xbd3ed1c5	-0.04658677
1	0xbd0abff8	-0.033874482
2	0x3c3720d0	0.011177257
3	0xbd2001a2	-0.039064057
4	0xbca5feec	-0.020263158
5	0x3d203069	0.039108668
6	0x3d1b2c86	0.037884258
7	0xbc90838c	-0.017640851
8	0xbd0b9c3d	-0.034084547
9	0x3a9879ec	0.0011633015
10	0xbca87924	-0.020565577
11	0x3cf53af3	0.029935336
12	0x3d3cb357	0.04606947
13	0xbd60b145	-0.054856557
14	0x3c88f2c0	0.016717315
15	0xbc8d827b	-0.017274132
16	0xbd415b94	-0.047206476
17	0xbd3bb340	-0.045825243
18	0x3d14e4fe	0.036351196
19	0xbd1460e2	-0.036225207
20	0x3d37649a	0.044773676
21	0xbd3f9716	-0.046774946
22	0x3d480c56	0.04883989
23	0xbd1b8e95	-0.037977774
24	0x3cfc306d	0.03078481
25	0x3c252bef	0.010081275
26	0x3d2b2e3c	0.04179214
27	0xbd19adef	-0.03751939
28	0xbd2aff78	-0.04174754
29	0xbc19f6e7	-0.009397245
30	0x3cfea735	0.03108559
31	0xb9d72d89	-0.00041041922
32	0xbcd72f19	-0.026267575
33	0x3bee3d7b	0.0072705126
34	0x3c175399	0.00923624
35	0x38fb8072	0.000119925375
36	0xbc9f6711	-0.019458326
37	0x3baf6291	0.005352326
38	0x3d0cea24	0.03440298
39	0xbac17d27	-0.001476203
40	0x3cc072f3	0.023492312
41	0x3c9e1031	0.01929483
42	0x3d5d7443	0.054065954
43	0xbcdac24f	-0.026703982
44	0x3d3f069a	0.046637155
45	0xbd3417b6	-0.043967925
46	0xbd0b54e0	-0.03401649
47	0xbcb4fa5d	-0.022092039
48	0x3d0fe259	0.03512797
49	0xbcde0b1e	-0.02710491
50	0xbcfb8f8b	-0.030708095
51	0xbcc7d1a5	-0.024391958
52	0xbd026b29	-0.031840477
53	0xbc1f63e5	-0.009728407
54	0xbb1bac9a	-0.0023754002
55	0xbd17eab7	-0.037089076
56	0xba8fc9ed	-0.0010970213
57	0x3d52573e	0.051352732
58	0x3c5f2250	0.013619021
59	0xb710d760	-8.633215e-06
60	0x3ce40724	0.027835436
61	0xbd2d7686	-0.04234936
62	0xbce4daf2	-0.027936433
63	0x3cdb804a	0.026794571
64	0x3bdd78f5	0.006758804
65	0xbc9fc68a	-0.01950385
66	0xbd4bb595	-0.049733717
67	0xbc825e60	-0.015914142
68	0x3c9ca6ea	0.01912256
69	0x3ca26fb5	0.019828657
70	0x3931a441	0.00016941225
71	0xbcb39545	-0.021921763
72	0x3ca35484	0.019937761
73	0x3bdbfc19	0.006713402
74	0xbc20e678	-0.009820573
75	0xbd5f8863	-0.054573428
76	0x3b42a5c5	0.0029700857
77	0xbd587bc1	-0.052852396
78	0xbcd57ede	-0.026061472
79	0x3d627e82	0.05529643
80	0x3cc9c536	0.02463017
81	0xbd3e1b69	-0.04641286
82	0x3c93ff4e	0.018066075
83	0xbcc932b9	-0.02456032
84	0x3ce19853	0.027538454
85	0x3c8ac5ab	0.016939959
86	0x3cb8d113	0.022560632
87	0x3d147ba2	0.036250718
88	0xbd361932	-0.044457622
89	0xbbbacaca	-0.005700444
90	0xbd3c50db	-0.045975547
91	0x3c8c4c1d	0.017126137
92	0xbb7e6a10	-0.0038820542
93	0x3d0d1a5a	0.03444896
94	0x3d1ce994	0.038308695
95	0xbcb037d2	-0.021510992
96	0x3cf7af90	0.030235082
97	0x3d24d77e	0.040244572
98	0x3d016f76	0.031600438
99	0x3c2ea6e1	0.010659904
100	0x3d2dae2e	0.04240244
101	0x3c88ae54	0.016684689
102	0xbbd3c679	-0.006462869
103	0x3d505140	0.050858736
104	0xbca6d920	-0.020367205
105	0x3cff1f41	0.031142833
106	0x3d332851	0.04373962
107	0x3c355f96	0.011070153
108	0x3d2532af	0.04033154
109	0x3cab161d	0.020884568
110	0xbd2b2079	-0.041779015
111	0xbc91f9ce	-0.017819311
112	0xbc0912f7	-0.008366338
113	0xbd01ff63	-0.031737696
114	0x3b6d3575	0.0036195193
115	0x3d591706	0.053000472
116	0x3d3e9d25	0.046536583
117	0x3d2e33b1	0.042529766
118	0x3d42ad8f	0.0475288
119	0x3d5af716	0.053458296
120	0x3cfc336e	0.030786242
121	0x3d41a3e8	0.047275454
122	0x3d612251	0.054964367
123	0xbd2b9fad	-0.041900326
124	0x3d55e043	0.052215826
125	0xbcd87884	-0.026424654
126	0xbca4c50f	-0.020113496
127	0x3ca16d2d	0.01970538
128	0x3ca1a26c	0.01973077
129	0x3cb1c4dc	0.021700315
130	0x3d130486	0.035892986
131	0x3d4eb5dd	0.050466407
132	0x3cdfc17e	0.027313944
133	0x3d56ac93	0.052410673
134	0xbcfc5d57	-0.030806227
135	0xbd0a0e98	-0.033705324
136	0x3aa5f787	0.001266227
137	0xbd2e8537	-0.042607512
138	0x3cacc6b2	0.021090839
139	0x3d00895b	0.031380992
140	0xbd3f4e52	-0.04670555
141	0xbc93b1ce	-0.01802912
142	0xbd50fdba	-0.051023223
143	0x3d00392d	0.031304527
144	0xbc8d3ea3	-0.017241782
145	0xbd22fad7	-0.03979
146	0x383d0f3e	4.5075307e-05
147	0xbc2df209	-0.010616788
148	0x3b99085c	0.004670186
149	0xbd0a7527	-0.03380313
150	0xbc849286	-0.01618315
151	0x3d3e906a	0.046524443
152	0x3b8094e0	0.0039239973
153	0x3c1389d8	0.0090050325
154	0xbc757a46	-0.014982766
155	0xbb0a55ac	-0.0021108193
156	0xbd07a182	-0.03311301
157	0xbd581ca0	-0.052761674
158	0xbd46eff4	-0.04856868
159	0xbb4e5b71	-0.0031487609
160	0xbd0841db	-0.03326593
161	0x3ca2b560	0.019861877
162	0x3cdb806e	0.026794638
163	0xbd33da62	-0.043909438
164	0xbd11df1b	-0.03561316
165	0xbcc98922	-0.024601523
166	0x3d01d7e6	0.031700037
167	0x3a4ce779	0.00078164745
168	0x3d0e97df	0.034812804
169	0xbd2c05e3	-0.0419978
170	0x3af55116	0.0018716182
171	0x3d398eac	0.045302078
172	0xbc089c8d	-0.008338106
173	0x3d1d97f1	0.03847498
174	0xbd26345e	-0.040577285
175	0x3c47f0af	0.0122033795
176	0x3ccd71df	0.025078712
177	0x3cd4f190	0.025994092
178	0xbd3c370f	-0.045950945
179	0x3bce0724	0.0062874723
180	0xbd1dbafb	-0.038508397
181	0xbba19077	-0.0049305516
182	0x3cadd583	0.021219974
183	0x3cacd86e	0.021099295
184	0x3ca010f4	0.019539334
185	0x3d0d6234	0.034517482
186	0xbc3572c3	-0.011074725
187	0x3c43429a	0.0119177345
188	0xbcd449fa	-0.025914181
189	0x3d328b3e	0.043589823
190	0x3d32ac62	0.04362143
191	0xbc595708	-0.013265379
192	0xbd216cf4	-0.039410546
193	0xbd39baf2	-0.0453443
194	0x3d2eebb7	0.042705264
195	0x3c985ccc	0.018598936
196	0xbc08c8ba	-0.008348638
197	0x3d3264e1	0.043553237
198	0x3c42d611	0.011891858
199	0x3cbea1d2	0.023270521
200	0xbc79aebb	-0.015239413
201	0xbd2951a9	-0.041337643
202	0xbd0dfa45	-0.034662504
203	0xbd14bcb0	-0.03631276
204	0xbd2c63a4	-0.042087212
205	0xbd0d80b7	-0.03454658
206	0xbd131c21	-0.035915498
207	0x3b4e3e7c	0.003147035
208	0xbc1956dc	-0.009359088
209	0xbcdb9eed	-0.02680918
210	0xbd10199c	-0.035180673
211	0x3c14653b	0.009057338
212	0x3cd089e6	0.02545638
213	0x3cf68c2d	0.030096138
214	0xbc150787	-0.009096033
215	0x3d585fc9	0.052825723
216	0x3d5a5f0c	0.0533133
217	0xbd4d7e6c	-0.050169393
218	0xbd26eb92	-0.040752
219	0xbd20419e	-0.039125077
220	0xbd2a5abe	-0.041590445
221	0xbcdba005	-0.026809702
222	0x3a54284d	0.00080931635
223	0xbd429db7	-0.04751369
224	0xbc2e0dc7	-0.010623402
225	0x3d3569ee	0.044290476
226	0xbcf0b582	-0.029383425
227	0x3ccb8a44	0.024846204
228	0xbac4ecb6	-0.0015024159
229	0xbc924c37	-0.017858608
230	0xbd078623	-0.033086907
231	0x3d050d03	0.032483112
232	0x3d35a7e7	0.044349577
233	0xbcf918bd	-0.030407304
234	0x3ce75c65	0.0282423
235	0x3c6613ee	0.014042838
236	0xbcaca499	-0.02107458
237	0xbca1dadd	-0.019757682
238	0x3d165610	0.03670317
239	0xbd603b0a	-0.054743804
240	0xbc9e0090	-0.019287378
241	0xbcd720f8	-0.026260838
242	0xbbff4c21	-0.0077910577
243	0x3cfeb437	0.031091793
244	0x3d29e8c0	0.041481733
245	0x3d6082b4	0.05481215
246	0xbc1e0fad	-0.009647292
247	0xbd125ba7	-0.035731938
248	0x3d477100	0.04869175
249	0xb9e7a81a	-0.00044185
250	0xbc0cb8ea	-0.008589009
251	0x3ca935a0	0.020655453
252	0x3d563170	0.05229324
253	0x3d4231c4	0.04741074
254	0xbc5fbea8	-0.013656296
255	0x3d4bc85a	0.049751617

network_body.observation_encoder.processors.0.conv_layers.0.bias f4 [16]
0	0x3bceb52a	0.0063082175
1	0xbd392b86	-0.045207523
2	0xbcb390bb	-0.021919599
3	0x3c21e55a	0.009881342
4	0x3d51ae6b	0.05119173
5	0xbca45fbf	-0.020065187
6	0xbd5fa001	-0.05459595
7	0xbd5742e1	-0.052554015
8	0x3d478647	0.04871204
9	0x3c9af2be	0.018914577
10	0xbc9d030e	-0.019166496
11	0x3c08a1e3	0.008339378
12	0xbd5615ce	-0.05226689
13	0xbce9876b	-0.028506955
14	0xbd0a1e6f	-0.03372043
15	0xbd39bb1b	-0.045344453

network_body.observation_encoder.processors.0.conv_layers.2.weight f4 [32, 16, 4, 4]
0	0x3d4fd1be	0.050737135
1	0xbcc5578a	-0.024089593
2	0xbd2598fb	-0.040429097
3	0x3d56f2e8	0.052477747
4	0x3bd08500	0.006363511
5	0xbc846d4e	-0.016165402
6	0xbca4f6c2	-0.020137195
7	0xbd03e5a8	-0.03220144
8	0x3d397420	0.04527676
9	0xbd200614	-0.039068297
10	0xbd5623e7	-0.052280333
11	0x3cfc7628	0.03081806
12	0xbcbe850e	-0.023256805
13	0x3cf4702c	0.029838644
14	0x3d0722f8	0.032992333
15	0x3cef8eb0	0.029242843
16	0x3d36b2b0	0.044604003
17	0xbb61a240	-0.0034428984
18	0x3a8eda40	0.0010898784
19	0xbd63a9ca	-0.055581845
20	0xbc7dee38	-0.01549869
21	0xbcc86444	-0.024461873
22	0x3d4440e6	0.047913454
23	0xbc8ebe92	-0.017424855
24	0xbd0a87fc	-0.03382109
25	0x3c2ce800	0.01055336
26	0xbcf103f4	-0.02942083
27	0x3d212af0	0.03934759
28	0x3d1ead92	0.03873975
29	0xbd63f049	-0.055649076
30	0xbd50ee15	-0.051008303
31	0x3c901dfc	0.017592423
32	0xbbaa4040	-0.0051956475
33	0xbd706aa3	-0.058695447
34	0xbb6a17b0	-0.0035719685
35	0xbc8cf17e	-0.017204996
36	0x3d776bc8	0.060405523
37	0x3ca36000	0.019943237
38	0xbd67eebc	-0.05662416
39	0xbcae18d4	-0.021252073
40	0xbd03b7fc	-0.032157883
41	0x3ccf9634	0.025340177
42	0x3ca49af0	0.020093411
43	0xbc8787b4	-0.0165442
44	0xbcbb247a	-0.022844542
45	0xbcbdbad8	-0.023160383
46	0xbc93b5f4	-0.018031098
47	0x3d3801f0	0.044923723
48	0xbd4b4d5c	-0.049634323
49	0xbd0ab37a	-0.03386257
50	0x3d2ea9f8	0.042642564
51	0x3d28b0a0	0.041184068
52	0xbd02e357	-0.03195509
53	0xbd38f848	-0.045158654
54	0x3d26aa20	0.040689588
55	0x3d37c7b8	0.0448682
56	0xbd64cc1e	-0.055858724
57	0x3d320ee8	0.043471247
58	0x3a9d37c0	0.0011994764
59	0x3ce00788	0.027347341
60	0xbccbd294	-0.024880685
61	0x3c321278	0.010868661
62	0xbd49a809	-0.049232516
63	0x3d6c8230	0.057741344
64	0xbd5b5b2c	-0.053553745
65	0x3d11f71c	0.035636052
66	0xbb928598	-0.004471492
67	0x3d50f882	0.051018246
68	0xbd7e5662	-0.0620941
69	0x3ce6b220	0.028161108
70	0xbd7a01d5	-0.061036903
71	0x3d33bb94	0.04388006
72	0x3c758490	0.014985219
73	0xbc2f2b10	-0.010691419
74	0x3d5673d6	0.052356564
75	0x3d2ebd78	0.04266116
76	0x3c85a884	0.016315706
77	0xbd60690e	-0.054787688
78	0x3d392332	0.04519958
79	0x3c2f4e88	0.010699876
80	0xbaa09c40	-0.0012253597
81	0x3b997d80	0.00468415
82	0xbd732562	-0.059361823
83	0xbd36a5d6	-0.044591747
84	0xbd66d2e6	-0.056353472
85	0xbd6414ee	-0.055684023
86	0x3d05917a	0.03260944
87	0x3c75b978	0.0149978325
88	0xbd32924d	-0.043596555
89	0xbcdfbd96	-0.027312081
90	0x3ce5cd24	0.02805192
91	0xbb3c6be0	-0.0028750822
92	0xbc741530	-0.01489763
93	0x3c8ec284	0.017426737
94	0x3d0cf4a2	0.034412988
95	0xbd5cec34	-0.0539362
96	0xbcfa69de	-0.03056806
97	0xbd26e51b	-0.040745836
98	0xbd77af7c	-0.06047009
99	0x3a86b240	0.0010276511
100	0xbc9862ae	-0.018601742
101	0xbbaeb4d0	-0.005331613
102	0xbce974a8	-0.028498009
103	0x3ce0ebf8	0.027456269
104	0x3d2d944a	0.042377748
105	0xbd1056d2	-0.03523905
106	0xbd69c6a8	-0.05707422
107	0x3c1168c8	0.008875079
108	0xbcf4aa58	-0.029866382
109	0x3caa1060	0.020759761
110	0xbc6d8af4	-0.014498461
111	0xbc53f570	-0.012936935
112	0xbc99877e	-0.018741366
113	0x3cfd10a4	0.030891724
114	0x3ce82c38	0.028341398
115	0x3d2a6036	0.04159566
116	0xbd6a0282	-0.057131298
117	0x3c094f50	0.008380726
118	0x3cd2f10c	0.025749706
119	0x3d5b5184	0.053544536
120	0x3c3c5800	0.01149559
121	0xbb804050	-0.0039139166
122	0x3c41fe58	0.011840425
123	0xbbc3be80	-0.005973637
124	0x3d3574c2	0.044300802
125	0x3c266278	0.010155313
126	0xbc311bb4	-0.010809828
127	0xbd55e66a	-0.052221693
128	0xbc55dfc8	-0.013053842
129	0xbd2d0760	-0.04224336
130	0x3d4a8ffe	0.049453728
131	0xbbb17078	-0.0054150186
132	0x3c9be5bc	0.019030444
133	0x3d0b750a	0.034047164
134	0x3d227a72	0.039667554
135	0x3d21aa74	0.039469197
136	0xbd675253	-0.056474995
137	0x3d163454	0.036670998
138	0x3d186e30	0.037214458
139	0x3d0367b8	0.032081336
140	0x3c4c5f00	0.012473822
141	0xbcb25c50	-0.021772534
142	0xbd2ea3a4	-0.04263653
143	0xbd5b82fa	-0.053591706
144	0x3d2d7b96	0.04235419
145	0xbce024a6	-0.027361225
146	0xbbdaf7e0	-0.006682381
147	0xbca0acec	-0.019613706
148	0xbd1adf00	-0.037810326
149	0x3cc3b420	0.023889601
150	0x3bb258a0	0.005442694
151	0x3d7d7394	0.061877802
152	0xbcc571b6	-0.024102073
153	0xbd24d4c9	-0.04024199
154	0x3d2e9e28	0.0426313
155	0x3cdc93fc	0.026926033
156	0xbc8ac584	-0.016939886
157	0x3d1cb6a6	0.038260125
158	0xbd292984	-0.041299358
159	0xbabcc240	-0.0014401153
160	0x3d7a08f2	0.061043687
161	0x3c742d60	0.014903396
162	0x3d22f242	0.039781816
163	0x3d0e5db2	0.034757324
164	0xbcc7ea62	-0.024403755
165	0x3d59d968	0.05318585
166	0x3863a800	5.427748e-05
167	0x3d57f584	0.052724376
168	0xbd0835eb	-0.033254545
169	0x3c08a200	0.008339405
170	0xbd61bcf7	-0.05511185
171	0xbbc5f160	-0.006040737
172	0x3c6ce0b8	0.014457874
173	0x3d153ee6	0.036436938
174	0x3cd069c0	0.02544105
175	0x3c4fc1c8	0.012680478
176	0xbcdbd7a8	-0.026836231
177	0x3d403b92	0.04693181
178	0xbcb8f4a2	-0.022577588
179	0x3b0e4080	0.0021705925
180	0x3cb2af80	0.0218122
181	0xbc8bd438	-0.017068967
182	0xbd086d76	-0.033307515
183	0x3c15ac18	0.009135269
184	0xbc41333c	-0.011792
185	0x3c911924	0.017712183
186	0xbc639b78	-0.013892047
187	0xbb9e3a20	-0.0048287064
188	0xbc657b4c	-0.014006447
189	0x3d1d2ec4	0.038374677
190	0xbc1f78d4	-0.0097333975
191	0x3d336b36	0.043803416
192	0x3d38d890	0.045128405
193	0x3d222ff2	0.039596505
194	0x3d02ebe8	0.03196326
195	0xbd50300a	-0.050827064
196	0xbd10e2bd	-0.035372484
197	0x3c18f650	0.009336069
198	0xbd7bb719	-0.061453912
199	0xbca527d6	-0.020160597
200	0xbd7e987a	-0.06215713
201	0x3b605e40	0.0034235865
202	0xbbdfea60	-0.0068333596
203	0xbb860ee8	-0.0040911324
204	0x3d2fd74e	0.04292994
205	0xbd5492d8	-0.051897854
206	0xbc986a48	-0.018605366
207	0xbd505cad	-0.050869633
208	0x3d76f19a	0.060289003
209	0xbd0f84e9	-0.035038862
210	0x3ad42f40	0.0016188398
211	0xbc551e14	-0.013007659
212	0x3d297700	0.041373253
213	0xbbcbb160	-0.006216213
214	0x3d6027f2	0.054725595
215	0x3ca82d5c	0.020529442
216	0x3b9222b0	0.0044597015
217	0x3d1ae156	0.037812553
218	0xbc0ba240	-0.00852257
219	0xbca7b5fa	-0.020472515
220	0xba97da00	-0.0011585355
221	0xbcba7fda	-0.022766043
222	0x3d1893bc	0.037250265
223	0xbd7872fe	-0.06065654
224	0x3d4737ea	0.04863731
225	0xbcc80494	-0.024416246
226	0x3ca385bc	0.01996123
227	0xbcd9fd92	-0.02661017
228	0xbd64a2e6	-0.055819415
229	0xbad928a0	-0.0016567893
230	0x3cf61ed4	0.030043997
231	0x3b258080	0.0025253594
232	0xbc283418	-0.010266326
233	0x3b3b25e0	0.002855651
234	0xbd4c6566	-0.04990139
235	0xbb651bd0	-0.0034959204
236	0x3c43afd0	0.011943772
237	0xbd60eb84	-0.054912105
238	0xbcb80278	-0.022462115
239	0x3d3cc3c6	0.04608514
240	0x3cd1a7d8	0.02559273
241	0xbc9142ae	-0.01773199
242	0xbc93143c	-0.017953984
243	0xbcec8366	-0.02887125
244	0x3cf40094	0.029785432
245	0xbce5bbbc	-0.02804362
246	0xbcc99b66	-0.024610233
247	0xbbaf0e30	-0.0053422675
248	0x3cd5f678	0.026118502
249	0x3c6eb238	0.014568858
250	0x3c4ff830	0.01269345
251	0x3c83e1c0	0.016098857
252	0xbd02750b	-0.031849902
253	0xbd3f70a5	-0.046738286
254	0xbc2f4c4c	-0.010699343
255	0x3c68c078	0.014206044

network_body.observation_encoder.processors.0.conv_layers.2.bias f4 [32]
0	0x3d2642ea	0.040591158
1	0xbd4da748	-0.05020836
2	0x3a8e4380	0.0010853857
3	0xbc806d08	-0.01567699
4	0x3ce2b42c	0.027673803
5	0xbd015bc0	-0.03158164
6	0xbceae434	-0.028673269
7	0x3d73baf6	0.05950447
8	0xbcdfc820	-0.027317107
9	0xbc0f77f8	-0.00875663
10	0xbc187970	-0.009306297
11	0x3d24dfd0	0.040252507
12	0xbca4e98e	-0.020130899
13	0xbd6d4af7	-0.05793282
14	0x3b192860	0.0023370013
15	0xbc9603c0	-0.018312335
16	0xbd23dcb0	-0.040005386
17	0x3d23fe40	0.040037394
18	0xbb352aa0	-0.0027643815
19	0x3cf2e9a0	0.029652417
20	0x3d7ccfe2	0.06172169
21	0x3cbc8f80	0.023017645
22	0xbc08aaf8	-0.008341543
23	0x39fdb500	0.00048390776
24	0x3c818c98	0.01581411
25	0x3d1503de	0.03638064
26	0x3c107138	0.008816056
27	0x3c81f704	0.015864857
28	0xbccc7f5a	-0.02496307
29	0xbccfeaec	-0.025380574
30	0x3d719d86	0.058988117
31	0xb8bb9400	-8.944422e-05

network_body.observation_encoder.processors.0.dense.0.weight f4 [128, 32]
0	0x3e6243db	0.22096197
1	0x3e26f81e	0.16305587
2	0x3e7c943e	0.24665925
3	0xbe9bbc4f	-0.30417106
4	0x3ddc61d0	0.10760844
5	0xbe365ab5	-0.1780804
6	0xbe22a032	-0.15881422
7	0xbd8f06c6	-0.06983714
8	0x3e852ab8	0.26009154
9	0xbdc97758	-0.09837216
10	0xbed88776	-0.42290848
11	0xbeb9f860	-0.36322308
12	0x3dbf1910	0.09330952
13	0x3dac7c5c	0.08422157
14	0x3d4931bc	0.049119696
15	0xbe1c5120	-0.15265322
16	0xbe219724	-0.15780312
17	0x3d4b580c	0.049644515
18	0x3e68a242	0.22718146
19	0x3e14f936	0.14548191
20	0xbd564792	-0.05231435
21	0x3e39191c	0.18075985
22	0xbd233609	-0.039846454
23	0xbdd02ae3	-0.1016443
24	0xbce5d28e	-0.028054502
25	0xbb663fbd	-0.0035133206
26	0x3e97d296	0.29652852
27	0xbee89e4d	-0.45433274
28	0xbd7c3f82	-0.061584003
29	0x3edb7b36	0.4286744
30	0xbcd6f85d	-0.026241476
31	0xbeaeb526	-0.3412258
32	0x3d579494	0.05263193
33	0x3d95c69c	0.07313272
34	0xbe9c1a03	-0.30488595
35	0x3e39093e	0.18069932
36	0x3df6446a	0.12024768
37	0xbd430e46	-0.047621034
38	0x3f1b8d94	0.60762906
39	0x3d93da2f	0.072193496
40	0x3e4fa863	0.20279078
41	0xbcd27bcc	-0.025693797
42	0x3ecb8412	0.397492
43	0x3e348249	0.17627825
44	0xbe2ded08	-0.16984951
45	0x3e64e5f8	0.22353351
46	0x3d8e3a19	0.06944675
47	0x3da99ede	0.08282255
48	0xbe4933a7	-0.1964861
49	0xbdf5e57b	-0.120066606
50	0x3d6bec11	0.057598177
51	0xbca99817	-0.020702405
52	0xbc983065	-0.018577764
53	0xbd097a94	-0.033564165
54	0xbe00a15d	-0.12561555
55	0xbdd72764	-0.1050556
56	0xbe452bfe	-0.19255063
57	0xbd1579e2	-0.03649319
58	0x3eab758d	0.33488122
59	0x3bc9544c	0.006144082
60	0x3f0215a3	0.50814265
61	0xbd8fadfa	-0.07015605
62	0x3e10b779	0.1413249
63	0xbe9b9ecb	-0.30394587
64	0xbc9f07a7	-0.019412829
65	0xbe07cda9	-0.13262047
66	0xbec3a938	-0.3821504
67	0xbe5e5f8c	-0.21716136
68	0xbe283727	-0.16427289
69	0xbf007d3c	-0.5019109
70	0x3da9f73d	0.0829911
71	0x3e82554f	0.2545571
72	0x3d17ff43	0.03710867
73	0x3db088d6	0.086198494
74	0xbe8d714e	-0.27625507
75	0xbd1ffd8d	-0.039060164
76	0xbec00646	-0.37504786
77	0xbe1cf9cb	-0.15329663
78	0x3e123b2c	0.14280385
79	0xbe0443ed	-0.12916537
80	0xbebd133f	-0.36928746
81	0xbd02480a	-0.031806983
82	0x3ee57ce5	0.4482185
83	0x3e086a23	0.13321738
84	0x3f1498fc	0.58045936
85	0x3d22b160	0.03971994
86	0x3f06f725	0.5272086
87	0x3e6b6301	0.22986986
88	0xbcf68f24	-0.030097552
89	0xbe45ae94	-0.19304878
90	0xbeae59e4	-0.34052956
91	0xbeee4a5c	-0.46541107
92	0xbd0ffec3	-0.03515507
93	0xbeb76f6c	-0.35827196
94	0x3e04ba67	0.12961732
95	0x3f01a3e6	0.50640714
96	0xbc859bd2	-0.016309652
97	0xbd80c508	-0.06287581
98	0x3e79a008	0.24377453
99	0xbed385d9	-0.41313055
100	0xbdddc448	-0.10828453
101	0xbe39c929	-0.18143143
102	0x3ca73449	0.020410674
103	0xbca93561	-0.020655336
104	0x3e0fbda9	0.14037193
105	0x3f2f6eb9	0.68528324
106	0xbdb92a7a	-0.09041305
107	0xbea96017	-0.33081123
108	0xbe97ff08	-0.2968676
109	0x3eea0c4c	0.45712507
110	0x3e074ba8	0.13212454
111	0xbe467e10	-0.19384027
112	0xbe1cc441	-0.1530924
113	0x3f2619fe	0.6488341
114	0xbcde2c2c	-0.027120672
115	0x3dff7efe	0.12475394
116	0xbf193e64	-0.59860826
117	0xbc608147	-0.013702697
118	0x3e83ea12	0.2576452
119	0xbe6edc7b	-0.23326294
120	0x3e884913	0.2661825
121	0x3e8596ed	0.2609171
122	0xbcd23790	-0.02566126
123	0xbe20ea85	-0.15714462
124	0x3e659acd	0.22422333
125	0x3ea7bb59	0.32760122
126	0xbde8308f	-0.11337387
127	0x3c898a61	0.016789617
128	0xbe48b017	-0.19598423
129	0xbe861968	-0.26191258
130	0x3e41f99f	0.18942879
131	0x3e3a9202	0.1821976
132	0xbe49d2e7	-0.19709359
133	0xbeca33e0	-0.39492702
134	0xbd782535	-0.06058236
135	0x3eeadd6e	0.45872062
136	0xbf005ec5	-0.50144607
137	0xbe01182a	-0.12606874
138	0x3d9be969	0.07612879
139	0xbc2dd313	-0.010609406
140	0x3db2d67f	0.08732318
141	0x3db20c04	0.08693698
142	0x3e899671	0.2687259
143	0x3d268df4	0.04066272
144	0xbcace043	-0.02110303
145	0x3e6b7a3f	0.22995852
146	0xbe03ed15	-0.12883408
147	0x3d8012a3	0.06253555
148	0x3d3731fe	0.04472541
149	0xbe0320eb	-0.12805526
150	0xbdc5deca	-0.09661634
151	0x3e0493ad	0.12946959
152	0xbd5869e1	-0.05283535
153	0xbe324e17	-0.17412601
154	0x3d0297d5	0.03188308
155	0xbe997acb	-0.29976496
156	0x3d757559	0.059926365
157	0x3b200187	0.0024414973
158	0xbf4d0f73	-0.801017
159	0xbceb96c3	-0.028758412
160	0xbe6d5394	-0.23176414
161	0xbd17f144	-0.037095323
162	0x3da6aa26	0.08137922
163	0xbe954852	-0.2915674
164	0xbf02cbca	-0.5109221
165	0xbe39b1d0	-0.18134236
166	0xbe1c5dc5	-0.15270145
167	0xbe180456	-0.14845404
168	0xbed5cd3b	-0.4175814
169	0xbc292813	-0.010324496
170	0xbea7b554	-0.3275553
171	0x3dae2d0f	0.08504688
172	0xbd6c6412	-0.057712622
173	0x3d8a9813	0.06767287
174	0x3e4ee380	0.20203972
175	0xbde527e0	-0.11189246
176	0xbc1a131c	-0.00940397
177	0x3ef7ad5c	0.4837445
178	0x3d81f123	0.06344821
179	0xbe9612d0	-0.29311228
180	0x3e5838e7	0.21115457
181	0x3dbe60d5	0.09295813
182	0xbdc1319b	-0.094332896
183	0x3da08bf1	0.07839192
184	0xbee6f59e	-0.45109266
185	0xbe0c3132	-0.13690642
186	0xbec156c4	-0.3776151
187	0x3ef00ac0	0.46883202
188	0x3da73103	0.08163645
189	0xbe646b07	-0.22306453
190	0x3e144c09	0.1448213
191	0xbea318d9	-0.31854895
192	0x3dbfbc1f	0.09362053
193	0xbdfa0845	-0.122086085
194	0x3e8101f8	0.25196815
195	0xbed83339	-0.4222658
196	0xbe946e99	-0.2899063
197	0x3e0fd393	0.14045553
198	0xbe5166cd	-0.20449372
199	0xbd8e8c74	-0.06960383
200	0x3ed562e5	0.41677013
201	0xbd8365fe	-0.06415938
202	0x3d7e8bf5	0.062145192
203	0x3d86a624	0.065746576
204	0x3ed10c69	0.4082978
205	0xbdc241b1	-0.09485186
206	0x3da7e6b2	0.081982985
207	0xbdc3edad	-0.095668174
208	0x3d28938a	0.04115633
209	0xbe765949	-0.24057497
210	0x3daab151	0.08334602
211	0xbd56f77d	-0.052482117
212	0xbed69496	-0.41910237
213	0x3cf69c6c	0.030103885
214	0x3e493470	0.1964891
215	0xbce88f06	-0.028388511
216	0xbdf9dcd5	-0.122003235
217	0x3e19ab59	0.1500677
218	0x3f180919	0.5938888
219	0x3dc673a3	0.09690025
220	0xbc7373ae	-0.014859123
221	0x3ed15653	0.40886173
222	0xbe5d986d	-0.21640177
223	0x3ea9d4af	0.33170077
224	0xbdc7b745	-0.09751753
225	0x3e596e2d	0.21233435
226	0xbdde5ca7	-0.10857516
227	0x3dcaf481	0.09909917
228	0xbcf8399a	-0.030300904
229	0xbe8d04dc	-0.2754277
230	0x3dc52b2b	0.09627374
231	0xbe9d00d1	-0.30664685
232	0x3dfa9313	0.122350834
233	0x3ec650e1	0.3873358
234	0xbe416e8f	-0.18889831
235	0x3e66cfb3	0.22540168
236	0x3e264c80	0.1624012
237	0xbdcf494a	-0.10121401
238	0xbe2d0819	-0.1689762
239	0xbe8adc32	-0.2712112
240	0xbd805459	-0.06266088
241	0xbea11316	-0.31459874
242	0xbdbc0a0c	-0.09181604
243	0xbe9707d4	-0.2949816
244	0x3d99505b	0.0748603
245	0x3e17e3b8	0.14832962
246	0x3e9d2717	0.30693886
247	0x3e84920a	0.2589267
248	0xbb89535c	-0.0041908454
249	0xbe14d3a9	-0.14533867
250	0x3ebe23c0	0.3713665
251	0x3e3722f6	0.1788443
252	0x3f1684eb	0.58796567
253	0xbe75d015	-0.24005158
254	0x3f0f7f00	0.5605316
255	0x3e3c39ab	0.18381374

network_body.observation_encoder.processors.0.dense.0.bias f4 [128]
0	0x00000000	0.0
1	0x00000000	0.0
2	0x00000000	0.0
3	0x00000000	0.0
4	0x00000000	0.0
5	0x00000000	0.0
6	0x00000000	0.0
7	0x00000000	0.0
8	0x00000000	0.0
9	0x00000000	0.0
10	0x00000000	0.0
11	0x00000000	0.0
12	0x00000000	0.0
13	0x00000000	0.0
14	0x00000000	0.0
15	0x00000000	0.0
16	0x00000000	0.0
17	0x00000000	0.0
18	0x00000000	0.0
19	0x00000000	0.0
20	0x00000000	0.0
21	0x00000000	0.0
22	0x00000000	0.0
23	0x00000000	0.0
24	0x00000000	0.0
25	0x00000000	0.0
26	0x00000000	0.0
27	0x00000000	0.0
28	0x00000000	0.0
29	0x00000000	0.0
30	0x00000000	0.0
31	0x00000000	0.0
32	0x00000000	0.0
33	0x00000000	0.0
34	0x00000000	0.0
35	0x00000000	0.0
36	0x00000000	0.0
37	0x00000000	0.0
38	0x00000000	0.0
39	0x00000000	0.0
40	0x00000000	0.0
41	0x00000000	0.0
42	0x00000000	0.0
43	0x00000000	0.0
44	0x00000000	0.0
45	0x00000000	0.0
46	0x00000000	0.0
47	0x00000000	0.0
48	0x00000000	0.0
49	0x00000000	0.0
50	0x00000000	0.0
51	0x00000000	0.0
52	0x00000000	0.0
53	0x00000000	0.0
54	0x00000000	0.0
55	0x00000000	0.0
56	0x00000000	0.0
57	0x00000000	0.0
58	0x00000000	0.0
59	0x00000000	0.0
60	0x00000000	0.0
61	0x00000000	0.0
62	0x00000000	0.0
63	0x00000000	0.0
64	0x00000000	0.0
65	0x00000000	0.0
66	0x00000000	0.0
67	0x00000000	0.0
68	0x00000000	0.0
69	0x00000000	0.0
70	0x00000000	0.0
71	0x00000000	0.0
72	0x00000000	0.0
73	0x00000000	0.0
74	0x00000000	0.0
75	0x00000000	0.0
76	0x00000000	0.0
77	0x00000000	0.0
78	0x00000000	0.0
79	0x00000000	0.0
80	0x00000000	0.0
81	0x00000000	0.0
82	0x00000000	0.0
83	0x00000000	0.0
84	0x00000000	0.0
85	0x00000000	0.0
86	0x00000000	0.0
87	0x00000000	0.0
88	0x00000000	0.0
89	0x00000000	0.0
90	0x00000000	0.0
91	0x00000000	0.0
92	0x00000000	0.0
93	0x00000000	0.0
94	0x00000000	0.0
95	0x00000000	0.0
96	0x00000000	0.0
97	0x00000000	0.0
98	0x00000000	0.0
99	0x00000000	0.0
100	0x00000000	0.0
101	0x00000000	0.0
102	0x00000000	0.0
103	0x00000000	0.0
104	0x00000000	0.0
105	0x00000000	0.0
106	0x00000000	0.0
107	0x00000000	0.0
108	0x00000000	0.0
109	0x00000000	0.0
110	0x00000000	0.0
111	0x00000000	0.0
112	0x00000000	0.0
113	0x00000000	0.0
114	0x00000000	0.0
115	0x00000000	0.0
116	0x00000000	0.0
117	0x00000000	0.0
118	0x00000000	0.0
119	0x00000000	0.0
120	0x00000000	0.0
121	0x00000000	0.0
122	0x00000000	0.0
123	0x00000000	0.0
124	0x00000000	0.0
125	0x00000000	0.0
126	0x00000000	0.0
127	0x00000000	0.0

network_body.processors.0.conv_layers.0.weight f4 [16, 5, 8, 8]
0	0xbd3ed1c5	-0.04658677
1	0xbd0abff8	-0.033874482
2	0x3c3720d0	0.011177257
3	0xbd2001a2	-0.039064057
4	0xbca5feec	-0.020263158
5	0x3d203069	0.039108668
6	0x3d1b2c86	0.037884258
7	0xbc90838c	-0.017640851
8	0xbd0b9c3d	-0.034084547
9	0x3a9879ec	0.0011633015
10	0xbca87924	-0.020565577
11	0x3cf53af3	0.029935336
12	0x3d3cb357	0.04606947
13	0xbd60b145	-0.054856557
14	0x3c88f2c0	0.016717315
15	0xbc8d827b	-0.017274132
16	0xbd415b94	-0.047206476
17	0xbd3bb340	-0.045825243
18	0x3d14e4fe	0.036351196
19	0xbd1460e2	-0.036225207
20	0x3d37649a	0.044773676
21	0xbd3f9716	-0.046774946
22	0x3d480c56	0.04883989
23	0xbd1b8e95	-0.037977774
24	0x3cfc306d	0.03078481
25	0x3c252bef	0.010081275
26	0x3d2b2e3c	0.04179214
27	0xbd19adef	-0.03751939
28	0xbd2aff78	-0.04174754
29	0xbc19f6e7	-0.009397245
30	0x3cfea735	0.03108559
31	0xb9d72d89	-0.00041041922
32	0xbcd72f19	-0.026267575
33	0x3bee3d7b	0.0072705126
34	0x3c175399	0.00923624
35	0x38fb8072	0.000119925375
36	0xbc9f6711	-0.019458326
37	0x3baf6291	0.005352326
38	0x3d0cea24	0.03440298
39	0xbac17d27	-0.001476203
40	0x3cc072f3	0.023492312
41	0x3c9e1031	0.01929483
42	0x3d5d7443	0.054065954
43	0xbcdac24f	-0.026703982
44	0x3d3f069a	0.046637155
45	0xbd3417b6	-0.043967925
46	0xbd0b54e0	-0.03401649
47	0xbcb4fa5d	-0.022092039
48	0x3d0fe259	0.03512797
49	0xbcde0b1e	-0.02710491
50	0xbcfb8f8b	-0.030708095
51	0xbcc7d1a5	-0.024391958
52	0xbd026b29	-0.031840477
53	0xbc1f63e5	-0.009728407
54	0xbb1bac9a	-0.0023754002
55	0xbd17eab7	-0.037089076
56	0xba8fc9ed	-0.0010970213
57	0x3d52573e	0.051352732
58	0x3c5f2250	0.013619021
59	0xb710d760	-8.633215e-06
60	0x3ce40724	0.027835436
61	0xbd2d7686	-0.04234936
62	0xbce4daf2	-0.027936433
63	0x3cdb804a	0.026794571
64	0x3bdd78f5	0.006758804
65	0xbc9fc68a	-0.01950385
66	0xbd4bb595	-0.049733717
67	0xbc825e60	-0.015914142
68	0x3c9ca6ea	0.01912256
69	0x3ca26fb5	0.019828657
70	0x3931a441	0.00016941225
71	0xbcb39545	-0.021921763
72	0x3ca35484	0.019937761
73	0x3bdbfc19	0.006713402
74	0xbc20e678	-0.009820573
75	0xbd5f8863	-0.054573428
76	0x3b42a5c5	0.0029700857
77	0xbd587bc1	-0.052852396
78	0xbcd57ede	-0.026061472
79	0x3d627e82	0.05529643
80	0x3cc9c536	0.02463017
81	0xbd3e1b69	-0.04641286
82	0x3c93ff4e	0.018066075
83	0xbcc932b9	-0.02456032
84	0x3ce19853	0.027538454
85	0x3c8ac5ab	0.016939959
86	0x3cb8d113	0.022560632
87	0x3d147ba2	0.036250718
88	0xbd361932	-0.044457622
89	0xbbbacaca	-0.005700444
90	0xbd3c50db	-0.045975547
91	0x3c8c4c1d	0.017126137
92	0xbb7e6a10	-0.0038820542
93	0x3d0d1a5a	0.03444896
94	0x3d1ce994	0.038308695
95	0xbcb037d2	-0.021510992
96	0x3cf7af90	0.030235082
97	0x3d24d77e	0.040244572
98	0x3d016f76	0.031600438
99	0x3c2ea6e1	0.010659904
100	0x3d2dae2e	0.04240244
101	0x3c88ae54	0.016684689
102	0xbbd3c679	-0.006462869
103	0x3d505140	0.050858736
104	0xbca6d920	-0.020367205
105	0x3cff1f41	0.031142833
106	0x3d332851	0.04373962
107	0x3c355f96	0.011070153
108	0x3d2532af	0.04033154
109	0x3cab161d	0.020884568
110	0xbd2b2079	-0.041779015
111	0xbc91f9ce	-0.017819311
112	0xbc0912f7	-0.008366338
113	0xbd01ff63	-0.031737696
114	0x3b6d3575	0.0036195193
115	0x3d591706	0.053000472
116	0x3d3e9d25	0.046536583
117	0x3d2e33b1	0.042529766
118	0x3d42ad8f	0.0475288
119	0x3d5af716	0.053458296
120	0x3cfc336e	0.030786242
121	0x3d41a3e8	0.047275454
122	0x3d612251	0.054964367
123	0xbd2b9fad	-0.041900326
124	0x3d55e043	0.052215826
125	0xbcd87884	-0.026424654
126	0xbca4c50f	-0.020113496
127	0x3ca16d2d	0.01970538
128	0x3ca1a26c	0.01973077
129	0x3cb1c4dc	0.021700315
130	0x3d130486	0.035892986
131	0x3d4eb5dd	0.050466407
132	0x3cdfc17e	0.027313944
133	0x3d56ac93	0.052410673
134	0xbcfc5d57	-0.030806227
135	0xbd0a0e98	-0.033705324
136	0x3aa5f787	0.001266227
137	0xbd2e8537	-0.042607512
138	0x3cacc6b2	0.021090839
139	0x3d00895b	0.031380992
140	0xbd3f4e52	-0.04670555
141	0xbc93b1ce	-0.01802912
142	0xbd50fdba	-0.051023223
143	0x3d00392d	0.031304527
144	0xbc8d3ea3	-0.017241782
145	0xbd22fad7	-0.03979
146	0x383d0f3e	4.5075307e-05
147	0xbc2df209	-0.010616788
148	0x3b99085c	0.004670186
149	0xbd0a7527	-0.03380313
150	0xbc849286	-0.01618315
151	0x3d3e906a	0.046524443
152	0x3b8094e0	0.0039239973
153	0x3c1389d8	0.0090050325
154	0xbc757a46	-0.014982766
155	0xbb0a55ac	-0.0021108193
156	0xbd07a182	-0.03311301
157	0xbd581ca0	-0.052761674
158	0xbd46eff4	-0.04856868
159	0xbb4e5b71	-0.0031487609
160	0xbd0841db	-0.03326593
161	0x3ca2b560	0.019861877
162	0x3cdb806e	0.026794638
163	0xbd33da62	-0.043909438
164	0xbd11df1b	-0.03561316
165	0xbcc98922	-0.024601523
166	0x3d01d7e6	0.031700037
167	0x3a4ce779	0.00078164745
168	0x3d0e97df	0.034812804
169	0xbd2c05e3	-0.0419978
170	0x3af55116	0.0018716182
171	0x3d398eac	0.045302078
172	0xbc089c8d	-0.008338106
173	0x3d1d97f1	0.03847498
174	0xbd26345e	-0.040577285
175	0x3c47f0af	0.0122033795
176	0x3ccd71df	0.025078712
177	0x3cd4f190	0.025994092
178	0xbd3c370f	-0.045950945
179	0x3bce0724	0.0062874723
180	0xbd1dbafb	-0.038508397
181	0xbba19077	-0.0049305516
182	0x3cadd583	0.021219974
183	0x3cacd86e	0.021099295
184	0x3ca010f4	0.019539334
185	0x3d0d6234	0.034517482
186	0xbc3572c3	-0.011074725
187	0x3c43429a	0.0119177345
188	0xbcd449fa	-0.025914181
189	0x3d328b3e	0.043589823
190	0x3d32ac62	0.04362143
191	0xbc595708	-0.013265379
192	0xbd216cf4	-0.039410546
193	0xbd39baf2	-0.0453443
194	0x3d2eebb7	0.042705264
195	0x3c985ccc	0.018598936
196	0xbc08c8ba	-0.008348638
197	0x3d3264e1	0.043553237
198	0x3c42d611	0.011891858
199	0x3cbea1d2	0.023270521
200	0xbc79aebb	-0.015239413
201	0xbd2951a9	-0.041337643
202	0xbd0dfa45	-0.034662504
203	0xbd14bcb0	-0.03631276
204	0xbd2c63a4	-0.042087212
205	0xbd0d80b7	-0.03454658
206	0xbd131c21	-0.035915498
207	0x3b4e3e7c	0.003147035
208	0xbc1956dc	-0.009359088
209	0xbcdb9eed	-0.02680918
210	0xbd10199c	-0.035180673
211	0x3c14653b	0.009057338
212	0x3cd089e6	0.02545638
213	0x3cf68c2d	0.030096138
214	0xbc150787	-0.009096033
215	0x3d585fc9	0.052825723
216	0x3d5a5f0c	0.0533133
217	0xbd4d7e6c	-0.050169393
218	0xbd26eb92	-0.040752
219	0xbd20419e	-0.039125077
220	0xbd2a5abe	-0.041590445
221	0xbcdba005	-0.026809702
222	0x3a54284d	0.00080931635
223	0xbd429db7	-0.04751369
224	0xbc2e0dc7	-0.010623402
225	0x3d3569ee	0.044290476
226	0xbcf0b582	-0.029383425
227	0x3ccb8a44	0.024846204
228	0xbac4ecb6	-0.0015024159
229	0xbc924c37	-0.017858608
230	0xbd078623	-0.033086907
231	0x3d050d03	0.032483112
232	0x3d35a7e7	0.044349577
233	0xbcf918bd	-0.030407304
234	0x3ce75c65	0.0282423
235	0x3c6613ee	0.014042838
236	0xbcaca499	-0.02107458
237	0xbca1dadd	-0.019757682
238	0x3d165610	0.03670317
239	0xbd603b0a	-0.054743804
240	0xbc9e0090	-0.019287378
241	0xbcd720f8	-0.026260838
242	0xbbff4c21	-0.0077910577
243	0x3cfeb437	0.031091793
244	0x3d29e8c0	0.041481733
245	0x3d6082b4	0.05481215
246	0xbc1e0fad	-0.009647292
247	0xbd125ba7	-0.035731938
248	0x3d477100	0.04869175
249	0xb9e7a81a	-0.00044185
250	0xbc0cb8ea	-0.008589009
251	0x3ca935a0	0.020655453
252	0x3d563170	0.05229324
253	0x3d4231c4	0.04741074
254	0xbc5fbea8	-0.013656296
255	0x3d4bc85a	0.049751617

network_body.processors.0.conv_layers.0.bias f4 [16]
0	0x3bceb52a	0.0063082175
1	0xbd392b86	-0.045207523
2	0xbcb390bb	-0.021919599
3	0x3c21e55a	0.009881342
4	0x3d51ae6b	0.05119173
5	0xbca45fbf	-0.020065187
6	0xbd5fa001	-0.05459595
7	0xbd5742e1	-0.052554015
8	0x3d478647	0.04871204
9	0x3c9af2be	0.018914577
10	0xbc9d030e	-0.019166496
11	0x3c08a1e3	0.008339378
12	0xbd5615ce	-0.05226689
13	0xbce9876b	-0.028506955
14	0xbd0a1e6f	-0.03372043
15	0xbd39bb1b	-0.045344453

network_body.processors.0.conv_layers.2.weight f4 [32, 16, 4, 4]
0	0x3d4fd1be	0.050737135
1	0xbcc5578a	-0.024089593
2	0xbd2598fb	-0.040429097
3	0x3d56f2e8	0.052477747
4	0x3bd08500	0.006363511
5	0xbc846d4e	-0.016165402
6	0xbca4f6c2	-0.020137195
7	0xbd03e5a8	-0.03220144
8	0x3d397420	0.04527676
9	0xbd200614	-0.039068297
10	0xbd5623e7	-0.052280333
11	0x3cfc7628	0.03081806
12	0xbcbe850e	-0.023256805
13	0x3cf4702c	0.029838644
14	0x3d0722f8	0.032992333
15	0x3cef8eb0	0.029242843
16	0x3d36b2b0	0.044604003
17	0xbb61a240	-0.0034428984
18	0x3a8eda40	0.0010898784
19	0xbd63a9ca	-0.055581845
20	0xbc7dee38	-0.01549869
21	0xbcc86444	-0.024461873
22	0x3d4440e6	0.047913454
23	0xbc8ebe92	-0.017424855
24	0xbd0a87fc	-0.03382109
25	0x3c2ce800	0.01055336
26	0xbcf103f4	-0.02942083
27	0x3d212af0	0.03934759
28	0x3d1ead92	0.03873975
29	0xbd63f049	-0.055649076
30	0xbd50ee15	-0.051008303
31	0x3c901dfc	0.017592423
32	0xbbaa4040	-0.0051956475
33	0xbd706aa3	-0.058695447
34	0xbb6a17b0	-0.0035719685
35	0xbc8cf17e	-0.017204996
36	0x3d776bc8	0.060405523
37	0x3ca36000	0.019943237
38	0xbd67eebc	-0.05662416
39	0xbcae18d4	-0.021252073
40	0xbd03b7fc	-0.032157883
41	0x3ccf9634	0.025340177
42	0x3ca49af0	0.020093411
43	0xbc8787b4	-0.0165442
44	0xbcbb247a	-0.022844542
45	0xbcbdbad8	-0.023160383
46	0xbc93b5f4	-0.018031098
47	0x3d3801f0	0.044923723
48	0xbd4b4d5c	-0.049634323
49	0xbd0ab37a	-0.03386257
50	0x3d2ea9f8	0.042642564
51	0x3d28b0a0	0.041184068
52	0xbd02e357	-0.03195509
53	0xbd38f848	-0.045158654
54	0x3d26aa20	0.040689588
55	0x3d37c7b8	0.0448682
56	0xbd64cc1e	-0.055858724
57	0x3d320ee8	0.043471247
58	0x3a9d37c0	0.0011994764
59	0x3ce00788	0.027347341
60	0xbccbd294	-0.024880685
61	0x3c321278	0.010868661
62	0xbd49a809	-0.049232516
63	0x3d6c8230	0.057741344
64	0xbd5b5b2c	-0.053553745
65	0x3d11f71c	0.035636052
66	0xbb928598	-0.004471492
67	0x3d50f882	0.051018246
68	0xbd7e5662	-0.0620941
69	0x3ce6b220	0.028161108
70	0xbd7a01d5	-0.061036903
71	0x3d33bb94	0.04388006
72	0x3c758490	0.014985219
73	0xbc2f2b10	-0.010691419
74	0x3d5673d6	0.052356564
75	0x3d2ebd78	0.04266116
76	0x3c85a884	0.016315706
77	0xbd60690e	-0.054787688
78	0x3d392332	0.04519958
79	0x3c2f4e88	0.010699876
80	0xbaa09c40	-0.0012253597
81	0x3b997d80	0.00468415
82	0xbd732562	-0.059361823
83	0xbd36a5d6	-0.044591747
84	0xbd66d2e6	-0.056353472
85	0xbd6414ee	-0.055684023
86	0x3d05917a	0.03260944
87	0x3c75b978	0.0149978325
88	0xbd32924d	-0.043596555
89	0xbcdfbd96	-0.027312081
90	0x3ce5cd24	0.02805192
91	0xbb3c6be0	-0.0028750822
92	0xbc741530	-0.01489763
93	0x3c8ec284	0.017426737
94	0x3d0cf4a2	0.034412988
95	0xbd5cec34	-0.0539362
96	0xbcfa69de	-0.03056806
97	0xbd26e51b	-0.040745836
98	0xbd77af7c	-0.06047009
99	0x3a86b240	0.0010276511
100	0xbc9862ae	-0.018601742
101	0xbbaeb4d0	-0.005331613
102	0xbce974a8	-0.028498009
103	0x3ce0ebf8	0.027456269
104	0x3d2d944a	0.042377748
105	0xbd1056d2	-0.03523905
106	0xbd69c6a8	-0.05707422
107	0x3c1168c8	0.008875079
108	0xbcf4aa58	-0.029866382
109	0x3caa1060	0.020759761
110	0xbc6d8af4	-0.014498461
111	0xbc53f570	-0.012936935
112	0xbc99877e	-0.018741366
113	0x3cfd10a4	0.030891724
114	0x3ce82c38	0.028341398
115	0x3d2a6036	0.04159566
116	0xbd6a0282	-0.057131298
117	0x3c094f50	0.008380726
118	0x3cd2f10c	0.025749706
119	0x3d5b5184	0.053544536
120	0x3c3c5800	0.01149559
121	0xbb804050	-0.0039139166
122	0x3c41fe58	0.011840425
123	0xbbc3be80	-0.005973637
124	0x3d3574c2	0.044300802
125	0x3c266278	0.010155313
126	0xbc311bb4	-0.010809828
127	0xbd55e66a	-0.052221693
128	0xbc55dfc8	-0.013053842
129	0xbd2d0760	-0.04224336
130	0x3d4a8ffe	0.049453728
131	0xbbb17078	-0.0054150186
132	0x3c9be5bc	0.019030444
133	0x3d0b750a	0.034047164
134	0x3d227a72	0.039667554
135	0x3d21aa74	0.039469197
136	0xbd675253	-0.056474995
137	0x3d163454	0.036670998
138	0x3d186e30	0.037214458
139	0x3d0367b8	0.032081336
140	0x3c4c5f00	0.012473822
141	0xbcb25c50	-0.021772534
142	0xbd2ea3a4	-0.04263653
143	0xbd5b82fa	-0.053591706
144	0x3d2d7b96	0.04235419
145	0xbce024a6	-0.027361225
146	0xbbdaf7e0	-0.006682381
147	0xbca0acec	-0.019613706
148	0xbd1adf00	-0.037810326
149	0x3cc3b420	0.023889601
150	0x3bb258a0	0.005442694
151	0x3d7d7394	0.061877802
152	0xbcc571b6	-0.024102073
153	0xbd24d4c9	-0.04024199
154	0x3d2e9e28	0.0426313
155	0x3cdc93fc	0.026926033
156	0xbc8ac584	-0.016939886
157	0x3d1cb6a6	0.038260125
158	0xbd292984	-0.041299358
159	0xbabcc240	-0.0014401153
160	0x3d7a08f2	0.061043687
161	0x3c742d60	0.014903396
162	0x3d22f242	0.039781816
163	0x3d0e5db2	0.034757324
164	0xbcc7ea62	-0.024403755
165	0x3d59d968	0.05318585
166	0x3863a800	5.427748e-05
167	0x3d57f584	0.052724376
168	0xbd0835eb	-0.033254545
169	0x3c08a200	0.008339405
170	0xbd61bcf7	-0.05511185
171	0xbbc5f160	-0.006040737
172	0x3c6ce0b8	0.014457874
173	0x3d153ee6	0.036436938
174	0x3cd069c0	0.02544105
175	0x3c4fc1c8	0.012680478
176	0xbcdbd7a8	-0.026836231
177	0x3d403b92	0.04693181
178	0xbcb8f4a2	-0.022577588
179	0x3b0e4080	0.0021705925
180	0x3cb2af80	0.0218122
181	0xbc8bd438	-0.017068967
182	0xbd086d76	-0.033307515
183	0x3c15ac18	0.009135269
184	0xbc41333c	-0.011792
185	0x3c911924	0.017712183
186	0xbc639b78	-0.013892047
187	0xbb9e3a20	-0.0048287064
188	0xbc657b4c	-0.014006447
189	0x3d1d2ec4	0.038374677
190	0xbc1f78d4	-0.0097333975
191	0x3d336b36	0.043803416
192	0x3d38d890	0.045128405
193	0x3d222ff2	0.039596505
194	0x3d02ebe8	0.03196326
195	0xbd50300a	-0.050827064
196	0xbd10e2bd	-0.035372484
197	0x3c18f650	0.009336069
198	0xbd7bb719	-0.061453912
199	0xbca527d6	-0.020160597
200	0xbd7e987a	-0.06215713
201	0x3b605e40	0.0034235865
202	0xbbdfea60	-0.0068333596
203	0xbb860ee8	-0.0040911324
204	0x3d2fd74e	0.04292994
205	0xbd5492d8	-0.051897854
206	0xbc986a48	-0.018605366
207	0xbd505cad	-0.050869633
208	0x3d76f19a	0.060289003
209	0xbd0f84e9	-0.035038862
210	0x3ad42f40	0.0016188398
211	0xbc551e14	-0.013007659
212	0x3d297700	0.041373253
213	0xbbcbb160	-0.006216213
214	0x3d6027f2	0.054725595
215	0x3ca82d5c	0.020529442
216	0x3b9222b0	0.0044597015
217	0x3d1ae156	0.037812553
218	0xbc0ba240	-0.00852257
219	0xbca7b5fa	-0.020472515
220	0xba97da00	-0.0011585355
221	0xbcba7fda	-0.022766043
222	0x3d1893bc	0.037250265
223	0xbd7872fe	-0.06065654
224	0x3d4737ea	0.04863731
225	0xbcc80494	-0.024416246
226	0x3ca385bc	0.01996123
227	0xbcd9fd92	-0.02661017
228	0xbd64a2e6	-0.055819415
229	0xbad928a0	-0.0016567893
230	0x3cf61ed4	0.030043997
231	0x3b258080	0.0025253594
232	0xbc283418	-0.010266326
233	0x3b3b25e0	0.002855651
234	0xbd4c6566	-0.04990139
235	0xbb651bd0	-0.0034959204
236	0x3c43afd0	0.011943772
237	0xbd60eb84	-0.054912105
238	0xbcb80278	-0.022462115
239	0x3d3cc3c6	0.04608514
240	0x3cd1a7d8	0.02559273
241	0xbc9142ae	-0.01773199
242	0xbc93143c	-0.017953984
243	0xbcec8366	-0.02887125
244	0x3cf40094	0.029785432
245	0xbce5bbbc	-0.02804362
246	0xbcc99b66	-0.024610233
247	0xbbaf0e30	-0.0053422675
248	0x3cd5f678	0.026118502
249	0x3c6eb238	0.014568858
250	0x3c4ff830	0.01269345
251	0x3c83e1c0	0.016098857
252	0xbd02750b	-0.031849902
253	0xbd3f70a5	-0.046738286
254	0xbc2f4c4c	-0.010699343
255	0x3c68c078	0.014206044

network_body.processors.0.conv_layers.2.bias f4 [32]
0	0x3d2642ea	0.040591158
1	0xbd4da748	-0.05020836
2	0x3a8e4380	0.0010853857
3	0xbc806d08	-0.01567699
4	0x3ce2b42c	0.027673803
5	0xbd015bc0	-0.03158164
6	0xbceae434	-0.028673269
7	0x3d73baf6	0.05950447
8	0xbcdfc820	-0.027317107
9	0xbc0f77f8	-0.00875663
10	0xbc187970	-0.009306297
11	0x3d24dfd0	0.040252507
12	0xbca4e98e	-0.020130899
13	0xbd6d4af7	-0.05793282
14	0x3b192860	0.0023370013
15	0xbc9603c0	-0.018312335
16	0xbd23dcb0	-0.040005386
17	0x3d23fe40	0.040037394
18	0xbb352aa0	-0.0027643815
19	0x3cf2e9a0	0.029652417
20	0x3d7ccfe2	0.06172169
21	0x3cbc8f80	0.023017645
22	0xbc08aaf8	-0.008341543
23	0x39fdb500	0.00048390776
24	0x3c818c98	0.01581411
25	0x3d1503de	0.03638064
26	0x3c107138	0.008816056
27	0x3c81f704	0.015864857
28	0xbccc7f5a	-0.02496307
29	0xbccfeaec	-0.025380574
30	0x3d719d86	0.058988117
31	0xb8bb9400	-8.944422e-05

network_body.processors.0.dense.0.weight f4 [128, 32]
0	0x3e6243db	0.22096197
1	0x3e26f81e	0.16305587
2	0x3e7c943e	0.24665925
3	0xbe9bbc4f	-0.30417106
4	0x3ddc61d0	0.10760844
5	0xbe365ab5	-0.1780804
6	0xbe22a032	-0.15881422
7	0xbd8f06c6	-0.06983714
8	0x3e852ab8	0.26009154
9	0xbdc97758	-0.09837216
10	0xbed88776	-0.42290848
11	0xbeb9f860	-0.36322308
12	0x3dbf1910	0.09330952
13	0x3dac7c5c	0.08422157
14	0x3d4931bc	0.049119696
15	0xbe1c5120	-0.15265322
16	0xbe219724	-0.15780312
17	0x3d4b580c	0.049644515
18	0x3e68a242	0.22718146
19	0x3e14f936	0.14548191
20	0xbd564792	-0.05231435
21	0x3e39191c	0.18075985
22	0xbd233609	-0.039846454
23	0xbdd02ae3	-0.1016443
24	0xbce5d28e	-0.028054502
25	0xbb663fbd	-0.0035133206
26	0x3e97d296	0.29652852
27	0xbee89e4d	-0.45433274
28	0xbd7c3f82	-0.061584003
29	0x3edb7b36	0.4286744
30	0xbcd6f85d	-0.026241476
31	0xbeaeb526	-0.3412258
32	0x3d579494	0.05263193
33	0x3d95c69c	0.07313272
34	0xbe9c1a03	-0.30488595
35	0x3e39093e	0.18069932
36	0x3df6446a	0.12024768
37	0xbd430e46	-0.047621034
38	0x3f1b8d94	0.60762906
39	0x3d93da2f	0.072193496
40	0x3e4fa863	0.20279078
41	0xbcd27bcc	-0.025693797
42	0x3ecb8412	0.397492
43	0x3e348249	0.17627825
44	0xbe2ded08	-0.16984951
45	0x3e64e5f8	0.22353351
46	0x3d8e3a19	0.06944675
47	0x3da99ede	0.08282255
48	0xbe4933a7	-0.1964861
49	0xbdf5e57b	-0.120066606
50	0x3d6bec11	0.057598177
51	0xbca99817	-0.020702405
52	0xbc983065	-0.018577764
53	0xbd097a94	-0.033564165
54	0xbe00a15d	-0.12561555
55	0xbdd72764	-0.1050556
56	0xbe452bfe	-0.19255063
57	0xbd1579e2	-0.03649319
58	0x3eab758d	0.33488122
59	0x3bc9544c	0.006144082
60	0x3f0215a3	0.50814265
61	0xbd8fadfa	-0.07015605
62	0x3e10b779	0.1413249
63	0xbe9b9ecb	-0.30394587
64	0xbc9f07a7	-0.019412829
65	0xbe07cda9	-0.13262047
66	0xbec3a938	-0.3821504
67	0xbe5e5f8c	-0.21716136
68	0xbe283727	-0.16427289
69	0xbf007d3c	-0.5019109
70	0x3da9f73d	0.0829911
71	0x3e82554f	0.2545571
72	0x3d17ff43	0.03710867
73	0x3db088d6	0.086198494
74	0xbe8d714e	-0.27625507
75	0xbd1ffd8d	-0.039060164
76	0xbec00646	-0.37504786
77	0xbe1cf9cb	-0.15329663
78	0x3e123b2c	0.14280385
79	0xbe0443ed	-0.12916537
80	0xbebd133f	-0.36928746
81	0xbd02480a	-0.031806983
82	0x3ee57ce5	0.4482185
83	0x3e086a23	0.13321738
84	0x3f1498fc	0.58045936
85	0x3d22b160	0.03971994
86	0x3f06f725	0.5272086
87	0x3e6b6301	0.22986986
88	0xbcf68f24	-0.030097552
89	0xbe45ae94	-0.19304878
90	0xbeae59e4	-0.34052956
91	0xbeee4a5c	-0.46541107
92	0xbd0ffec3	-0.03515507
93	0xbeb76f6c	-0.35827196
94	0x3e04ba67	0.12961732
95	0x3f01a3e6	0.50640714
96	0xbc859bd2	-0.016309652
97	0xbd80c508	-0.06287581
98	0x3e79a008	0.24377453
99	0xbed385d9	-0.41313055
100	0xbdddc448	-0.10828453
101	0xbe39c929	-0.18143143
102	0x3ca73449	0.020410674
103	0xbca93561	-0.020655336
104	0x3e0fbda9	0.14037193
105	0x3f2f6eb9	0.68528324
106	0xbdb92a7a	-0.09041305
107	0xbea96017	-0.33081123
108	0xbe97ff08	-0.2968676
109	0x3eea0c4c	0.45712507
110	0x3e074ba8	0.13212454
111	0xbe467e10	-0.19384027
112	0xbe1cc441	-0.1530924
113	0x3f2619fe	0.6488341
114	0xbcde2c2c	-0.027120672
115	0x3dff7efe	0.12475394
116	0xbf193e64	-0.59860826
117	0xbc608147	-0.013702697
118	0x3e83ea12	0.2576452
119	0xbe6edc7b	-0.23326294
120	0x3e884913	0.2661825
121	0x3e8596ed	0.2609171
122	0xbcd23790	-0.02566126
123	0xbe20ea85	-0.15714462
124	0x3e659acd	0.22422333
125	0x3ea7bb59	0.32760122
126	0xbde8308f	-0.11337387
127	0x3c898a61	0.016789617
128	0xbe48b017	-0.19598423
129	0xbe861968	-0.26191258
130	0x3e41f99f	0.18942879
131	0x3e3a9202	0.1821976
132	0xbe49d2e7	-0.19709359
133	0xbeca33e0	-0.39492702
134	0xbd782535	-0.06058236
135	0x3eeadd6e	0.45872062
136	0xbf005ec5	-0.50144607
137	0xbe01182a	-0.12606874
138	0x3d9be969	0.07612879
139	0xbc2dd313	-0.010609406
140	0x3db2d67f	0.08732318
141	0x3db20c04	0.08693698
142	0x3e899671	0.2687259
143	0x3d268df4	0.04066272
144	0xbcace043	-0.02110303
145	0x3e6b7a3f	0.22995852
146	0xbe03ed15	-0.12883408
147	0x3d8012a3	0.06253555
148	0x3d3731fe	0.04472541
149	0xbe0320eb	-0.12805526
150	0xbdc5deca	-0.09661634
151	0x3e0493ad	0.12946959
152	0xbd5869e1	-0.05283535
153	0xbe324e17	-0.17412601
154	0x3d0297d5	0.03188308
155	0xbe997acb	-0.29976496
156	0x3d757559	0.059926365
157	0x3b200187	0.0024414973
158	0xbf4d0f73	-0.801017
159	0xbceb96c3	-0.028758412
160	0xbe6d5394	-0.23176414
161	0xbd17f144	-0.037095323
162	0x3da6aa26	0.08137922
163	0xbe954852	-0.2915674
164	0xbf02cbca	-0.5109221
165	0xbe39b1d0	-0.18134236
166	0xbe1c5dc5	-0.15270145
167	0xbe180456	-0.14845404
168	0xbed5cd3b	-0.4175814
169	0xbc292813	-0.010324496
170	0xbea7b554	-0.3275553
171	0x3dae2d0f	0.08504688
172	0xbd6c6412	-0.057712622
173	0x3d8a9813	0.06767287
174	0x3e4ee380	0.20203972
175	0xbde527e0	-0.11189246
176	0xbc1a131c	-0.00940397
177	0x3ef7ad5c	0.4837445
178	0x3d81f123	0.06344821
179	0xbe9612d0	-0.29311228
180	0x3e5838e7	0.21115457
181	0x3dbe60d5	0.09295813
182	0xbdc1319b	-0.094332896
183	0x3da08bf1	0.07839192
184	0xbee6f59e	-0.45109266
185	0xbe0c3132	-0.13690642
186	0xbec156c4	-0.3776151
187	0x3ef00ac0	0.46883202
188	0x3da73103	0.08163645
189	0xbe646b07	-0.22306453
190	0x3e144c09	0.1448213
191	0xbea318d9	-0.31854895
192	0x3dbfbc1f	0.09362053
193	0xbdfa0845	-0.122086085
194	0x3e8101f8	0.25196815
195	0xbed83339	-0.4222658
196	0xbe946e99	-0.2899063
197	0x3e0fd393	0.14045553
198	0xbe5166cd	-0.20449372
199	0xbd8e8c74	-0.06960383
200	0x3ed562e5	0.41677013
201	0xbd8365fe	-0.06415938
202	0x3d7e8bf5	0.062145192
203	0x3d86a624	0.065746576
204	0x3ed10c69	0.4082978
205	0xbdc241b1	-0.09485186
206	0x3da7e6b2	0.081982985
207	0xbdc3edad	-0.095668174
208	0x3d28938a	0.04115633
209	0xbe765949	-0.24057497
210	0x3daab151	0.08334602
211	0xbd56f77d	-0.052482117
212	0xbed69496	-0.41910237
213	0x3cf69c6c	0.030103885
214	0x3e493470	0.1964891
215	0xbce88f06	-0.028388511
216	0xbdf9dcd5	-0.122003235
217	0x3e19ab59	0.1500677
218	0x3f180919	0.5938888
219	0x3dc673a3	0.09690025
220	0xbc7373ae	-0.014859123
221	0x3ed15653	0.40886173
222	0xbe5d986d	-0.21640177
223	0x3ea9d4af	0.33170077
224	0xbdc7b745	-0.09751753
225	0x3e596e2d	0.21233435
226	0xbdde5ca7	-0.10857516
227	0x3dcaf481	0.09909917
228	0xbcf8399a	-0.030300904
229	0xbe8d04dc	-0.2754277
230	0x3dc52b2b	0.09627374
231	0xbe9d00d1	-0.30664685
232	0x3dfa9313	0.122350834
233	0x3ec650e1	0.3873358
234	0xbe416e8f	-0.18889831
235	0x3e66cfb3	0.22540168
236	0x3e264c80	0.1624012
237	0xbdcf494a	-0.10121401
238	0xbe2d0819	-0.1689762
239	0xbe8adc32	-0.2712112
240	0xbd805459	-0.06266088
241	0xbea11316	-0.31459874
242	0xbdbc0a0c	-0.09181604
243	0xbe9707d4	-0.2949816
244	0x3d99505b	0.0748603
245	0x3e17e3b8	0.14832962
246	0x3e9d2717	0.30693886
247	0x3e84920a	0.2589267
248	0xbb89535c	-0.0041908454
249	0xbe14d3a9	-0.14533867
250	0x3ebe23c0	0.3713665
251	0x3e3722f6	0.1788443
252	0x3f1684eb	0.58796567
253	0xbe75d015	-0.24005158
254	0x3f0f7f00	0.5605316
255	0x3e3c39ab	0.18381374

network_body.processors.0.dense.0.bias f4 [128]
0	0x00000000	0.0
1	0x00000000	0.0
2	0x00000000	0.0
3	0x00000000	0.0
4	0x00000000	0.0
5	0x00000000	0.0
6	0x00000000	0.0
7	0x00000000	0.0
8	0x00000000	0.0
9	0x00000000	0.0
10	0x00000000	0.0
11	0x00000000	0.0
12	0x00000000	0.0
13	0x00000000	0.0
14	0x00000000	0.0
15	0x00000000	0.0
16	0x00000000	0.0
17	0x00000000	0.0
18	0x00000000	0.0
19	0x00000000	0.0
20	0x00000000	0.0
21	0x00000000	0.0
22	0x00000000	0.0
23	0x00000000	0.0
24	0x00000000	0.0
25	0x00000000	0.0
26	0x00000000	0.0
27	0x00000000	0.0
28	0x00000000	0.0
29	0x00000000	0.0
30	0x00000000	0.0
31	0x00000000	0.0
32	0x00000000	0.0
33	0x00000000	0.0
34	0x00000000	0.0
35	0x00000000	0.0
36	0x00000000	0.0
37	0x00000000	0.0
38	0x00000000	0.0
39	0x00000000	0.0
40	0x00000000	0.0
41	0x00000000	0.0
42	0x00000000	0.0
43	0x00000000	0.0
44	0x00000000	0.0
45	0x00000000	0.0
46	0x00000000	0.0
47	0x00000000	0.0
48	0x00000000	0.0
49	0x00000000	0.0
50	0x00000000	0.0
51	0x00000000	0.0
52	0x00000000	0.0
53	0x00000000	0.0
54	0x00000000	0.0
55	0x00000000	0.0
56	0x00000000	0.0
57	0x00000000	0.0
58	0x00000000	0.0
59	0x00000000	0.0
60	0x00000000	0.0
61	0x00000000	0.0
62	0x00000000	0.0
63	0x00000000	0.0
64	0x00000000	0.0
65	0x00000000	0.0
66	0x00000000	0.0
67	0x00000000	0.0
68	0x00000000	0.0
69	0x00000000	0.0
70	0x00000000	0.0
71	0x00000000	0.0
72	0x00000000	0.0
73	0x00000000	0.0
74	0x00000000	0.0
75	0x00000000	0.0
76	0x00000000	0.0
77	0x00000000	0.0
78	0x00000000	0.0
79	0x00000000	0.0
80	0x00000000	0.0
81	0x00000000	0.0
82	0x00000000	0.0
83	0x00000000	0.0
84	0x00000000	0.0
85	0x00000000	0.0
86	0x00000000	0.0
87	0x00000000	0.0
88	0x00000000	0.0
89	0x00000000	0.0
90	0x00000000	0.0
91	0x00000000	0.0
92	0x00000000	0.0
93	0x00000000	0.0
94	0x00000000	0.0
95	0x00000000	0.0
96	0x00000000	0.0
97	0x00000000	0.0
98	0x00000000	0.0
99	0x00000000	0.0
100	0x00000000	0.0
101	0x00000000	0.0
102	0x00000000	0.0
103	0x00000000	0.0
104	0x00000000	0.0
105	0x00000000	0.0
106	0x00000000	0.0
107	0x00000000	0.0
108	0x00000000	0.0
109	0x00000000	0.0
110	0x00000000	0.0
111	0x00000000	0.0
112	0x00000000	0.0
113	0x00000000	0.0
114	0x00000000	0.0
115	0x00000000	0.0
116	0x00000000	0.0
117	0x00000000	0.0
118	0x00000000	0.0
119	0x00000000	0.0
120	0x00000000	0.0
121	0x00000000	0.0
122	0x00000000	0.0
123	0x00000000	0.0
124	0x00000000	0.0
125	0x00000000	0.0
126	0x00000000	0.0
127	0x00000000	0.0
