results/MoveToGoal2/MoveToGoal/MoveToGoal-1312.onnx (onnx, 74020 bytes, 8 tensors)

action_model._continuous_distribution.log_sigma f4 [1, 2]
00000000: d91a 263c a67f 573b
0.010138237 0.003288248

action_model._continuous_distribution.mu.bias f4 [2]
00000000: 385f c1bb 8b10 4e3c
-0.0059012435 0.012577186

action_model._continuous_distribution.mu.weight f4 [2, 128]
00000000: 4415 4a3d 3cd0 113c b2fe 1d3c a911 893b
00000010: 123d 9ebc 8db4 183d c89e 04bc 27c5 b93a
00000020: c3df a93c 2f50 643b 6c65 a13c a750 993b
00000030: ef46 5b3c 0f78 0cbc f98e 903c 7309 073d
00000040: 5e73 35bc 8f17 ddbc ef1c d93b 7140 0b3c
00000050: 54d5 9ebb fe64 e5bc 8d51 113d dadf 3d3d
00000060: ff00 293c a7ba 7ebc b600 a13c 9796 183c
00000070: e939 a03c 70c2 08bd 55d5 973b bb80 b73c
00000080: a2b7 4d3c 6b58 0abb e880 f3bb 8b65 fc3a
00000090: 014e 9a3b f21c aa3c 4b08 ab3c cad1 63ba
000000a0: f279 ac3c 374a 84bb 9631 2d3c cd9e 693c
000000b0: 3973 f0bc 53aa c6bb 57d2 9a3b c12b 263c
000000c0: 0136 11bc 495b 4aba 428a 37bc c994 6d3c
000000d0: 0001 db3b 4d46 dabc 03b0 e1bc 1166 bf3c
000000e0: 000e 803c a638 64bc f06b 773c 7c38 8f3c
000000f0: 32d5 063d 1321 9dbc 10a3 98bc b8e8 8ebc
00000100: 4f93 d3ba 01f0 38bc c07e 0ebb f3ed 42bb
00000110: 91b4 083d 7054 413c 63de a73c e872 82bc
00000120: a6d1 01bd 756d 923a b05f 51bc cbec f93c
00000130: b3a0 7fbc 4355 94bb 8c54 f13a 53ce 153c
00000140: 6841 193c adb9 123d 2fff 2ebc 7b53 983c
00000150: d5ec 6abd 2b59 b93c 834a 91bc 03ba 5dbb
00000160: 8970 333d 9241 11bc c0c6 243c 19cc 3eba
00000170: aeaa bebb 4468 ca3b ee40 abbc ddf3 423c
00000180: 6670 e83c 06e1 79bc a0b1 57bc 50b8 bd3b
00000190: d7f3 0ebc e1d1 64bc 557a 9e3c 3211 63bc
000001a0: bf5a 12bc acbb 373b d1b5 8bbc 3998 c83b
000001b0: ceb6 0d3c 3d53 363c 6a0c a8bb 2e91 fbbb
000001c0: c29d 03bc 2d6e 91bd ea65 0a3b d440 053d
000001d0: 72de 87bc 2f46 babc 91ee f83b 2885 553c
000001e0: e998 73bc 5ae0 103d f2da 6cbb 80b4 3fbd
000001f0: 242d d53c d92a 70bc 219e ca3b 257f e83b
00000200: 2ffa 8cbc 0734 8aba 2eeb 21bc 02a8 333c
00000210: a09d 80ba e9e8 053a e6d8 cb3c 0f54 e53b
00000220: 8496 78bc 8db8 dd3b 6836 c73a 7609 f4bc
00000230: ab21 87bb b97f 373c 11cc 0e3d 2b5d a7bc
00000240: b014 cf3c 8af9 883c e763 f8bb 7da3 193c
00000250: f79b acbc df98 90bc cdd8 253b ea35 9ebc
00000260: 4ca1 1f3b 7b79 46bc d912 1abc b420 aa3b
00000270: bac7 76bb 3520 0a3c c9a1 c1bb d48f 5b3b
00000280: b3ea 84bc 5284 7dbc ab2f be3c a350 253b
00000290: d477 283d 0c1c ab3a c4b0 b2bc 936d 8cbb
000002a0: 7634 213c 55fb 763c 490c b93c c15a 41bc
000002b0: bb67 8b3c 8b07 94b9 89a0 913c 4610 24bc
000002c0: 962a 663c cede c33a 0e37 703c 495a 9b3b
000002d0: 0c1b 6abc 20e1 3c3c 4f46 14bc d183 aebc
000002e0: edc1 07bc 8c37 b83c f266 87bc 0a5b 4f3b
000002f0: 50f0 a3bc d34f 08bc 95a4 26bc 508b b3bc
00000300: a29b fabc b163 44bc 04e3 473c 2490 003c
00000310: ab00 9dbc 86c5 c93c e3da bd3c a4f5 563b
00000320: e839 f73b 19aa a5bc ea99 963c 7e6a f73b
00000330: 8f58 363c 24ab 95ba 2550 253c 5aa7 08bc
00000340: 32c5 24bb 0239 ae3b 7e06 40bc 9846 f23c
00000350: d08f 2dbc 0472 1a3c a451 2fbc 627c 80bc
00000360: 55ff d93a ee94 963c a73a 25bd b405 5a3b
00000370: 2bd7 483c 0237 1c3c 61f4 babc c702 3b3c
00000380: 0d16 6f3b 6c24 7abc 5546 623b e47b 933c
00000390: c1fd 583b 8cf6 253c 7d07 80bb d5bb 633c
000003a0: 5a19 b6bc 72fc 20bd 5e5a 033a 7f99 a03b
000003b0: 4d4c 1fbd 7cd2 f8bc 8e0c 4c3d 9598 d9bc
000003c0: 0587 b1bb bb44 4d3c 3867 bdba a4c4 0f3c
000003d0: e0fe 273d 34ae c33c 1ed8 873d 5e24 3cbc
000003e0: 2f6f 0f3d 8290 cc3a 93f4 d0bc b76a 393c
000003f0: 7a0c 813b 6e8f a23b b521 b33c 4bf5 a6bc
0.049336687 0.008899745 0.009643244 0.0041830135 -0.01931623 0.03728156 -0.008094497 0.0014173136
0.02073658 0.0034837832 0.019701682 0.004678804 0.013383611 -0.008573546 0.0176463 0.032967996
-0.011074869 -0.026988773 0.0066257636 0.008499251 -0.004847208 -0.028002258 0.035478164 0.04635606
0.010315179 -0.015547431 0.01965366 0.009313247 0.019558864 -0.033388555 0.0046335855 0.02240025
0.0125559885 -0.002110983 -0.0074311383 0.0019256336 0.004709006 0.020765755 0.020877978 -0.0008690624
0.021054242 -0.0040371674 0.010570904 0.014259052 -0.029351817 -0.0060627847 0.0047247815 0.010142268
-0.008862973 -0.0007719291 -0.011202397 0.014500805 0.006683469 -0.02664485 -0.02754975 0.023364099
0.015631676 -0.013929522 0.015101418 0.017482989 0.032918163 -0.01918081 -0.018632442 -0.017444953
-0.0016141924 -0.01128769 -0.002174303 -0.002974388 0.033375327 0.011799917 0.020491784 -0.015923932
-0.031694077 0.0011171537 -0.012779161 0.03050842 -0.0156022785 -0.0045267656 0.0018412038 0.00914343
0.009353973 0.035821605 -0.010680958 0.018594494 -0.057354767 0.022625526 -0.017735725 -0.0033832795
0.043808494 -0.008865731 0.010057151 -0.0007278338 -0.0058186864 0.00617698 -0.020904984 0.011898962
0.028373908 -0.015251404 -0.013164908 0.005789794 -0.008725128 -0.013966055 0.019345442 -0.01385908
-0.008932768 0.0028035445 -0.01705447 0.006121662 0.008649541 0.011128244 -0.005128433 -0.007677219
-0.008033218 -0.071010925 0.0021117874 0.032532528 -0.016585562 -0.022738544 0.0075967987 0.013032235
-0.014868 0.03537021 -0.0036141244 -0.046802998 0.026022501 -0.014658653 0.006183401 0.007095235
-0.01720914 -0.001054407 -0.009882731 0.010965349 -0.0009812601 0.00051082537 0.024883699 0.006998546
-0.0151726045 0.006766385 0.001519871 -0.029789668 -0.0041238866 0.011199885 0.03486258 -0.020430168
0.02527842 0.016720552 -0.0075802687 0.009377358 -0.021070464 -0.01765102 0.0025306225 -0.019312818
0.0024357615 -0.012113924 -0.009403908 0.005191887 -0.0037655667 0.00843053 -0.005909179 0.0033502476
-0.016225195 -0.015473442 0.02321609 0.0025225065 0.041129902 0.0013054623 -0.021812804 -0.004285523
0.009839168 0.015074571 0.022588866 -0.011801423 0.017017236 -0.0002823438 0.017776744 -0.0100136455
0.014048239 0.001494372 0.014661564 0.0047409874 -0.014288675 0.011528283 -0.009049966 -0.02130309
-0.008285982 0.022487424 -0.01652858 0.0031639957 -0.02001205 -0.008319813 -0.010171075 -0.021917015
-0.03059179 -0.011986659 0.012200121 0.007846866 -0.019165358 0.02463032 0.023175662 0.0032800222
0.0075447448 -0.02022271 0.018383939 0.0075505367 0.011129512 -0.0011418802 0.010089909 -0.008340681
-0.0025141952 0.0053168545 -0.011720298 0.029574677 -0.01059337 0.0094265975 -0.010700617 -0.01568431
0.0016631881 0.018381562 -0.04033914 0.003326756 0.012258331 0.009534599 -0.022821607 0.011414236
0.003648165 -0.015267473 0.0034526784 0.018003412 0.0033110233 0.010129582 -0.0039071427 0.013899763
-0.022228885 -0.03930325 0.0005010719 0.0049011107 -0.038891125 -0.030373804 0.04981666 -0.026562015
-0.005417707 0.012528594 -0.0014450317 0.00877491 0.041014552 0.023886777 0.06633018 -0.01148328
0.035018142 0.0015607032 -0.025507247 0.011316947 0.003938255 0.004960946 0.021866659 -0.020380637

action_model._discrete_distribution.branches.0.weight f4 [1, 128]
00000000: 18dd bfbb 1be4 97ba ff14 843c c541 9abb
00000010: dfd5 063c 6707 b93a 339d e63a 3789 0fbb
00000020: 6bae 6bbc 11d8 863b a95a 0fbc e809 3b3c
00000030: fbfd 1a3a d3fd 2c3b 45da 60ba 1727 68bc
00000040: 5d7f cdbb de1e 33bc ec36 273b e4cb 3f3b
00000050: c4b5 8a3b 61c4 2c3a 3591 4cbc fab5 06ba
00000060: 3f38 433c e3db 2c3c 375f 9abb df7b 4cbc
00000070: d856 c03a 454d e13a da8a 453c c5d5 8cbb
00000080: 9801 dd3b 33fc 543c 79c8 4b3c bfdb e63b
00000090: ebbd 16bc e7f8 bcbb 56a7 9e3b c8d5 90bc
000000a0: 63f8 a6bb 7b32 253b 32fd ca3c 4a5b 90bb
000000b0: cc3b 2e3c 259c e039 e376 a5bb edf6 a73b
000000c0: 0885 a7bc 1721 bcbc 5df0 aa3b 64cd 263c
000000d0: d841 a7bb 36fe 1a3c 289f e53b ba7a b33a
000000e0: 7272 953b f0da 1e3b 2ed7 9fbb 89e2 25bb
000000f0: 1556 80bb 1142 aaba f31e 39bc cf04 cebb
00000100: d72a e63b 0bfe 1ebc daa8 bebb 43bb 82bc
00000110: 42ad 5bbb 1099 15bb 4c2b 073c bf2b 85bb
00000120: 5502 dbbb f77b d5bc 4370 03bb e331 fb3a
00000130: 58d5 3e3b 8ce8 863a 122e 2f3c fd65 0b3c
00000140: 5d4b 063c ff2d 6839 0346 99bc 0871 2fbc
00000150: b747 0ebb a28e 113a b979 32ba f2d4 d4b8
00000160: ef38 0a3a 9e2a 31bc 080f 613b a260 ad3c
00000170: 3580 16bc 7acd 77bc 947a 22bc b073 de3b
00000180: 598a c6bb 5f28 243c 10e0 3cbb 42e9 d8ba
00000190: d7c6 05bc 2a0b 4e3b 1f39 893b 1877 6eba
000001a0: aa38 a83c 0241 ea3b 5a9b 563b f896 6a3a
000001b0: bf51 36bc 9a4f ec3a aee7 bc3b f4df 043b
000001c0: 2a27 f03b a449 a13a a35b fa38 e399 5b3c
000001d0: d88c 413c 5fe3 bc3b efde 3bbc ee17 12bb
000001e0: f317 97bb 4891 a13b 5af9 3b3c be7e 1fbb
000001f0: cfe6 d5bb 8f93 793b a7c3 b9ba edd5 223b
-0.005855214 -0.0011588366 0.016123293 -0.0047075474 0.008229702 0.0014116586 0.0017594456 -0.0021901855
-0.014384846 0.0041151126 -0.008749642 0.011415936 0.000591248 0.0026396408 -0.00085774466 -0.014169476
-0.0062712864 -0.010932652 0.0025514914 0.0029265815 0.004233094 0.0006590542 -0.012485792 -0.0005138811
0.011915266 0.010550472 -0.0047110575 -0.012480705 0.0014674319 0.0017189166 0.012057031 -0.0042979443
0.0067445748 0.012999582 0.012437933 0.0070452387 -0.009200553 -0.005766976 0.0048417253 -0.017680064
-0.005095528 0.002520709 0.024778936 -0.0044054138 0.010634374 0.00042840946 -0.005049573 0.0051258714
-0.020449176 -0.022964997 0.005216642 0.010180805 -0.0051042847 0.009460023 0.0070074983 0.0013693192
0.004560762 0.0024239384 -0.0048779463 -0.0025312027 -0.003916512 -0.001298966 -0.011298883 -0.0062871943
0.00702415 -0.009704123 -0.0058184685 -0.015958434 -0.0033520018 -0.0022826828 0.008250069 -0.004064053
-0.0066836276 -0.026060088 -0.0020055927 0.0019164648 0.0029118862 0.0010292693 0.010692136 0.008508203
0.008196679 0.00022142379 -0.018710142 -0.010708101 -0.0021710226 0.0005552565 -0.0006808299 -0.00010148612
0.0005272766 -0.010813383 0.0034341235 0.021164242 -0.00918584 -0.015124673 -0.00991692 0.0067886934
-0.006058973 0.010019391 -0.0028820075 -0.0016549008 -0.008165083 0.003143976 0.0041877176 -0.0009096726
0.020534832 0.007148863 0.0032746405 0.00089488877 -0.011127888 0.0018029094 0.005764923 0.0020275088
0.0073288875 0.0012305272 0.000119379976 0.013403389 0.011813365 0.0057644094 -0.011466726 -0.0022292095
-0.0046110093 0.004930649 0.011473024 -0.002433702 -0.0065277587 0.0038082337 -0.0014172689 0.0024846748

network_body._body_endoder.seq_layers.0.bias f4 [128]
00000000: 1b66 3bbc e13e c43a ed95 3bbc c729 22bb
00000010: 39cf 91bb b23c 69bb 5487 84ba d341 cb3a
00000020: d5d1 03bc c082 72b9 ac94 063b 1994 1b3c
00000030: 1200 a23a aee0 fb3a 00e2 8439 958a f1bb
00000040: 42c1 a23b 40d3 aebc 1fb9 b63b 2b83 143c
00000050: 093c 853a 0aba c4ba f349 06bb 9107 1d3b
00000060: 5690 413a cb78 5f3a 3e97 89bc b341 12bc
00000070: 66a5 2abc d6dc 1239 cbe1 fe3b f1ee 6e3b
00000080: 2c9f e3bb 18c5 9ebb 4b5a c0bb 63b2 1f3c
00000090: dae5 08ba ee45 4b3c 17be 343c 5844 a93a
000000a0: 7818 0abc 5ac2 293c c6f3 f9ba 4681 8c3a
000000b0: 0481 b53c 4bbe 83bc 1247 c03c 7836 16bc
000000c0: 9e67 8f39 65c4 fd3b f6d4 3bbb 10f1 a4bb
000000d0: b318 ebbb 3a47 593a f593 b03a 248c 84bb
000000e0: 4646 bebb 3806 353c dec2 fcba f2b4 b1bb
000000f0: 58d9 5abb ba04 13bb 453d 2c3c 0eae a4bb
00000100: 55dc f23b 3b2a 4dbb 75bc 673a ecf3 983c
00000110: a003 73bb cdc6 abbb cacc 76bb 469f 6e3c
00000120: dd66 333c 97e7 d3bb 22be b03b 17c0 92bb
00000130: 8cda bebb a023 25bc 45f2 47bc 72eb 2abc
00000140: a389 1cbc b14e b33a 71ea 063c df86 a0bc
00000150: 94fe e7ba 8c30 51bb c244 7bbb f1ee 48bb
00000160: 6dd1 0fbc 0dad 8f3c 6931 25bc 7f86 b23a
00000170: 888c 3fbc ab21 95bc 3044 6b3a 6240 a1bb
00000180: 9ec1 fbba 6708 96ba b986 9cba 92bc 14bb
00000190: 0a17 c13b 0c51 7fb9 2907 883a ff75 023d
000001a0: 0fe8 223b c25e 89bc 1f20 8c3c 57fb 1b3c
000001b0: 4c8b 43bc 0cb8 8dbb 9cda a1b9 8c17 953b
000001c0: 9bda 00bb 794c 3ebb e0a4 d63b eec5 6cbc
000001d0: 947e f23b 188d 243c 460b fa3b 7fa6 51bc
000001e0: baef 36b9 3de3 983a dd5d f83a a643 283b
000001f0: 2e20 7d37 d59e 33bc efc4 19ba 4b4d fcb9
-0.011437918 0.0014972353 -0.011449319 -0.002474414 -0.0044497517 -0.0035589156 -0.0010111132 0.0015507288
-0.008045633 -0.00023127627 0.0020535393 0.009495758 0.001235964 0.001921674 0.00025345385 -0.0073712566
0.004966886 -0.021340966 0.0055762674 0.009064476 0.0010164987 -0.0015009057 -0.0020490855 0.0023960809
0.00073838735 0.00085247745 -0.01679575 -0.008926797 -0.010415411 0.00014005913 0.0077783815 0.0036458338
-0.006946465 -0.0048452727 -0.0058701388 0.009747121 -0.0005222239 0.012406809 0.011031649 0.0012914045
-0.008428685 0.010361278 -0.0019069843 0.0010719679 0.022156246 -0.01608195 0.023471389 -0.00916826
0.00027352286 0.0077443593 -0.002866087 -0.0050336197 -0.0071745752 0.00082885067 0.0013471829 -0.0040450264
-0.005806717 0.011048846 -0.0019284149 -0.0054231817 -0.0033393707 -0.0022433237 0.010512655 -0.0050256317
0.0074115195 -0.003130569 0.0008840033 0.018670999 -0.0037081018 -0.0052422048 -0.0037658685 0.014564341
0.0109498175 -0.0064668166 0.0053937593 -0.0044784653 -0.0058243927 -0.010079294 -0.012203758 -0.010432111
-0.0095542995 0.0013680068 0.008234606 -0.019595562 -0.0017699772 -0.0031919805 -0.0038340543 -0.0030659998
-0.008777958 0.017538572 -0.010082581 0.0013620405 -0.01169122 -0.01820453 0.00089746993 -0.004921005
-0.0019207483 -0.0011446596 -0.0011942006 -0.0022695404 0.005892639 -0.00024348887 0.001037811 0.03185081
0.0024857556 -0.016768817 0.01710516 0.009520373 -0.011935066 -0.0043249186 -0.0003087119 0.004549926
-0.001966155 -0.002903728 0.0065504164 -0.014451487 0.007400343 0.010043405 0.0076307384 -0.012796043
-0.00017446178 0.0011664402 0.0018948872 0.0025675087 1.5087468e-05 -0.0109631615 -0.0005865832 -0.00048122773

network_body._body_endoder.seq_layers.0.weight f4 [128, 6]
00000000: 8e25 e7bd de62 5a3e 16fc 1e3f 6029 ab3e
00000010: 239e 9ebc d0e0 d53e e382 42ba 1073 1c3d
00000020: 5581 9fbd 71bd bd3e 8017 073f d4b8 3fbf
00000030: 7f2b 7cbe f57f 0a3f 4163 2abe e23a f83e
00000040: c1e6 a33e f0b5 7ebc d4f2 dd3e 4351 34bd
00000050: 69ac 8dbc ea0b fa3e f778 b6bd 6b73 cabe
00000060: 7337 b83c 3517 5ebf 812f c23e 9a69 d53e
00000070: 3836 a03e 07b7 c23d 76a7 24be ac7e a1be
00000080: 0b4a 05bd 9046 3e3e 21d6 a73c ddcd 05bf
00000090: cf9f a0be c309 a5bd 235a eebd 4112 d3be
000000a0: e8b1 03bf dff1 b3bd b908 b83d af30 103e
000000b0: 4658 58be 10fe 02be 5d3d 14bd 694a 323d
000000c0: 7a88 563c bf46 0dbf 0356 53be 6227 da3e
000000d0: db90 c43e 226c 93be b04e 173d 4575 b7be
000000e0: 1a85 3a3f b59b 16be 30be 9cbe 4580 e0bc
000000f0: 758a bfbd 6dc1 273f fd2d f43e 5165 babe
00000100: 69ac c5be e90a ca3e b663 33bf 6a94 c83e
00000110: cc9b e9bd b056 03bf b409 103f 48c9 52be
00000120: aa68 5a3d 9cbd ce3d d648 b8be 8126 213f
00000130: a3fc 7f3d ae90 1bbf 0d4d c4bd c8c8 c73e
00000140: 00e3 933b f148 163e a05c 003e debb b63e
00000150: 3560 a03e e190 2abe 565e 0ebf 686d aebe
00000160: 67db cabe cdcc a8be c68a cd3e 7831 1d3f
00000170: 5263 dbbe d424 233e 8005 b63d 8f83 703f
00000180: 8184 6bbe a60e 8abe 6a60 a4be a98a 953d
00000190: 752d c43e 1be8 3a3e 6d39 883e 1424 1abf
000001a0: 4f38 9cbd 99ff 2bbe a8d7 babd bff2 c73c
000001b0: 5edc 26bf b5b9 f23d 3912 f0be 878a 3a3f
000001c0: e67c 96be dd11 213d 7ef0 313f 0135 30be
000001d0: cfc6 d9bd 7348 143d ff22 033f 4a2c a33d
000001e0: 38fc 85be caff ce3e f45d 433e 4d45 cfbf
000001f0: effb c5be a7d6 9bbd 7c73 463e cc31 f0be
00000200: d9ce 86be 9235 8c3e cf7d 69bd 0608 623e
00000210: e925 193e e48c 1d3f c41b e93e 6e14 db3d
00000220: d3a2 86bd 7329 cfbe d844 c73d 0230 37be
00000230: 62dd 98be 34d9 033f 73d3 4b3e 7cea bfbc
00000240: 9574 57be 3293 ea3e 3902 303f 8da0 c2bd
00000250: e6e8 e2be 6b4b 213f 5b99 4fbe 0209 80bf
00000260: 3de9 243e 39c1 0d3f b4c3 133e 8548 153f
00000270: 987a 05bf 0579 423f 5167 03be 1bca bfbe
00000280: 68e4 10bd 69c9 57bc bc58 773d 4fc4 afbe
00000290: 372a 5fbf 2fa7 e33e 6370 013f 9779 9f3e
000002a0: 41e7 4dbf 9f0a 66be c8cd 84be c694 0abd
000002b0: ae78 b8be f907 cfbe c303 2dbe 414d 54be
000002c0: 6ee2 30be ef96 4abe 49e6 f2be 4d29 10bf
000002d0: a34f bebe fbef a83e 546e 97bc ad6e 4d3e
000002e0: 6bcb 263e 4a3e da3e 2f55 91be 13c2 0cbf
000002f0: 56f6 953e 4f34 3ebe aa6b 203f 5278 ff3e
00000300: 12a7 d6bd df56 a0be fddc 0d3f 220a ce3d
00000310: 66da 883f d470 06bf 0c80 e1bc 71a1 a6bf
00000320: 60f0 cabe 5c6a aebc 9cd4 1ebf 1ae3 ad3e
00000330: b87b f4be 3fea 0f3f cb88 62bf b642 1a3d
00000340: 3dfe c53e 9ec9 73be 314b 613d c673 4cbe
00000350: 2c72 8bbe 2798 353f 202c 44be 3490 4cbe
00000360: 5cf5 d53e 84e6 2f3f 34f6 283d a66e 98bd
00000370: 130a 3a3e 82e7 673e ce8d 90be bca8 ae3e
00000380: fc07 7bbd 4e3b 0f3f 50e3 b53d 2b48 95be
00000390: 047a ba3e 9bf6 c2be 5ce4 cebe 1060 e33e
000003a0: 6902 01bf 21d6 74be badf 333d 113d 40bd
000003b0: 71fa 063f a0b5 5fbe f670 0a3e ec71 0d3d
000003c0: a9f1 0f3f 4dcc 753e eb9d 60be 0972 f1bd
000003d0: f20f 0dbf 2d15 5abd 325f 47bf 06ea 3b3c
000003e0: dae6 99bd b6d5 363f 0c3d 81bf 8dc9 87bd
000003f0: 9310 84bd 6139 f6be 0ceb 093f ca68 b2bd
-0.1128646 0.21326777 0.621034 0.33430004 -0.019362515 0.4177308 -0.00074200163 0.03819567
-0.0778834 0.37058595 0.52770233 -0.748914 -0.24625967 0.54101497 -0.16639425 0.48482424
0.3201199 -0.015546307 0.43349326 -0.04402281 -0.017294126 0.48837215 -0.08909791 -0.39541182
0.022487378 -0.8675416 0.37926868 0.4168213 0.31291366 0.09507566 -0.16079506 -0.31541955
-0.032541316 0.18581605 0.020487847 -0.5226725 -0.31371924 -0.080585025 -0.11638286 -0.41224864
-0.5144334 -0.087863676 0.08986039 0.14081071 -0.21127424 -0.1279223 -0.036191333 0.043527994
0.013094062 -0.55186075 -0.2063828 0.42608172 0.38391766 -0.28793436 0.036940277 -0.35831657
0.72859347 -0.14707835 -0.30613852 -0.027404914 -0.093525805 0.6552952 0.47691336 -0.36405423
-0.386081 0.3946145 -0.7007402 0.3917573 -0.11406669 -0.5130415 0.56264806 -0.20584595
0.05332247 0.10094759 -0.3599307 0.6294938 0.062496793 -0.6076764 -0.09585009 0.3902037
0.0045131445 0.14676262 0.12535334 0.35690206 0.313234 -0.1665683 -0.55612695 -0.34067845
-0.39620516 -0.3296875 0.40144938 0.6140361 -0.42849213 0.15932018 0.08887768 0.9395074
-0.22999765 -0.269643 -0.32104808 0.07301838 0.3831593 0.18252604 0.26606312 -0.602113
-0.076279275 -0.16796722 -0.091231644 0.024407743 -0.65180004 0.11851827 -0.46888903 0.72867626
-0.29392165 0.039323676 0.69507587 -0.1720772 -0.10633623 0.036201905 0.51225275 0.07967432
-0.2616899 0.40429527 0.19078809 -1.6193024 -0.38668773 -0.07609301 0.19379991 -0.46912992
-0.26329687 0.2738462 -0.057004746 0.22073373 0.14955868 0.6154311 0.45528996 0.10697256
-0.06574025 -0.4046131 0.09729928 -0.17889407 -0.29856402 0.515033 0.1990488 -0.02342724
-0.21040566 0.45815426 0.6875339 -0.09503279 -0.44318312 0.63005704 -0.20273344 -1.0002749
0.16104598 0.5537296 0.14430124 0.5831378 -0.5214019 0.7596591 -0.12832381 -0.37458882
-0.035374075 -0.0131705785 0.060387358 -0.3432946 -0.8717379 0.44463488 0.50562114 0.31147453
-0.8043099 -0.22464989 -0.2593825 -0.033833288 -0.3602957 -0.4043577 -0.16895966 -0.20732595
-0.17273876 -0.19784139 -0.4744132 -0.5631302 -0.37170133 0.3299559 -0.018485226 0.2006175
0.16288535 0.42625648 -0.28385302 -0.54983634 0.29289502 -0.18574642 0.6266428 0.49896485
-0.10481085 -0.31316277 0.55415326 0.100605264 1.069165 -0.5251591 -0.027526878 -1.3018018
-0.39636517 -0.02129095 -0.62043166 0.33962327 -0.4775064 0.56216806 -0.8848998 0.037661277
0.3867053 -0.2380738 0.05500335 -0.19966039 -0.27235544 0.7093529 -0.19157457 -0.19976884
0.41788757 0.68711114 0.041250423 -0.074429795 0.18167906 0.22646907 -0.28233188 0.3411311
-0.06128691 0.55949867 0.08881247 -0.29156622 0.36421216 -0.3807877 -0.404086 0.44409227
-0.503943 -0.23909809 0.043914534 -0.046933237 0.52725893 -0.21846628 0.13519654 0.034532472
0.5622812 0.24003716 -0.21935241 -0.117893286 -0.55102456 -0.05324285 -0.7787963 0.01146937
-0.075147346 0.71419847 -1.0096755 -0.0663024 -0.06448474 -0.48090652 0.5387428 -0.08711393

network_body._body_endoder.seq_layers.2.bias f4 [128]
00000000: 9e67 53bc 2fb5 973b 649f 4cbc 4762 25bc
00000010: 5225 de3b c1a6 01bc 9886 743c 80ad bc39
00000020: 91d4 b5bc 23fd ccba c650 fcbb 5311 1bbc
00000030: f087 a9bc cdf1 483c 9a0d 4c3b f593 00bc
00000040: 690d 023c b4b9 1c3c 8b38 aebc 1dee ed3a
00000050: b16e 24bc 40a5 9abb 880a 8bbb 4f45 94bb
00000060: d1e0 3cb9 dafa 57bb 0dee 67bc 22a0 7d3b
00000070: 14bd d5bb 5662 613c c047 3bbc cddc 46bb
00000080: a7eb 0dbc 3592 0fbc 23a5 d6b9 1e25 c3ba
00000090: fd1d 9f3b fee6 eebb ed74 0cbc e3a4 debb
000000a0: 98f7 313b 4dc5 043c 08b0 3eba dd6b a4bc
000000b0: 3373 5d3c ea65 d73b fa51 01bc d1f1 6dbc
000000c0: 3c07 22bb 3d36 653b 9d7f 9b3c 028e 463a
000000d0: 219d 57bc a364 983b bde3 2b3b 7c7c 41bc
000000e0: e620 ccbb 3186 683c 3f49 77bc 2cd2 dbbb
000000f0: 8a5f 03bc a7f9 07bb 9f84 863a 6234 fcbb
00000100: e70a 4cbb 755e 85bb b32d f33b 10e8 c73b
00000110: 1583 7bbc 6142 e1bb 5f5b ac3b 112e 853b
00000120: 12cd 653c fe8d 4ebc 82cf bf3b 4a15 443b
00000130: b55d f73b 0af8 8dbb bc3e f73b d4eb 32bc
00000140: d7fd 4abc e47e d8bb 0fa9 a5bb 28ef 193c
00000150: cb80 04bb cbd4 6e3a 7a22 99bb dbb8 86bb
00000160: d217 76b9 4d0f 123c 09f8 b6bb 99bc 6c3c
00000170: a9e8 c939 2cf5 6a3b 0e60 79bb e9a2 c83b
00000180: 4235 c0bb 3e2a a9ba 4ac9 d03b d4a7 1b3c
00000190: a146 783a 1901 a23b eed7 f3bb 9b43 ef3b
000001a0: 61bd 84bb 31da d2bb ed6e 5a3b 0ace 25bb
000001b0: c667 a7bb 4d10 acbb 53bb 613b 3e32 cebb
000001c0: 2c52 353a c003 ba3a 7114 723a 6b22 a639
000001d0: 596d 5c3c 5b99 c93c 97a2 7c3c 9e7b 4cbc
000001e0: 4ad8 6d3c 44f1 073c da46 5dbc a74b 883c
000001f0: b504 bfbb 091d 273c ba08 3d39 7267 edbb
-0.012903122 0.004629753 -0.012489174 -0.010094232 0.0067793513 -0.007913292 0.014924668 0.00035987422
-0.022196086 -0.0015639405 -0.0077000586 -0.00946458 -0.020694703 0.012264681 0.0031136037 -0.007847776
0.007937768 0.009565759 -0.021267196 0.0018152628 -0.0100361565 -0.0047194064 -0.004243199 -0.004524864
-0.00018012828 -0.0032955916 -0.014155877 0.0038700183 -0.006522784 0.013756355 -0.011430681 -0.003034401
-0.008662141 -0.008762886 -0.00040940297 -0.0014888381 0.00485587 -0.00729072 -0.008572799 -0.0067945584
0.0027155634 0.008103681 -0.00072741555 -0.020070964 0.013516235 0.0065734284 -0.00789308 -0.014522986
-0.002472355 0.0034974955 0.01898175 0.00075742614 -0.013160021 0.0046506687 0.0026228272 -0.011809465
-0.0062295077 0.01419215 -0.015093147 -0.006708404 -0.008018384 -0.002074817 0.0010262913 -0.007696674
-0.0031134428 -0.004070098 0.0074212193 0.006100662 -0.015351077 -0.006874368 0.0052599157 0.0040643294
0.014025943 -0.012607096 0.0058535943 0.0029919916 0.0075490125 -0.004332547 0.0075453203 -0.010920484
-0.012389622 -0.0066069234 -0.0050555537 0.009395398 -0.0020218368 0.0009110688 -0.0046732994 -0.004111392
-0.00023469262 0.008914781 -0.0055837673 0.014449262 0.00038511053 0.00358517 -0.0038051638 0.006122936
-0.005865724 -0.0012906266 0.006371652 0.009500463 0.0009470974 0.0049439785 -0.0074415123 0.0073017604
-0.004050896 -0.006434702 0.0033330277 -0.002529981 -0.0051088063 -0.0052509666 0.003444393 -0.0062926104
0.00069168466 0.0014191791 0.00092346134 0.0003168763 0.013453805 0.024609258 0.015419624 -0.0124806445
0.014516899 0.008297268 -0.013505662 0.016637636 -0.0058294185 0.010199794 0.00018027695 -0.0072449977

network_body._body_endoder.seq_layers.2.weight f4 [128, 128]
00000000: 5550 1d3e 2e24 8b3d 1ebc 32bd 6ad0 13bc
00000010: beb8 81bc ddbd 093d 8d0d 973d 6cb6 7cbd
00000020: e085 943d fdac 90bd e644 8f3d 39e5 9c3c
00000030: 1967 013b e296 c93c 37c9 f73d 402d 373d
00000040: 2323 01bc 9a3c 963c 8f42 36bd f215 68bb
00000050: e13a 02be f668 2bbe b9cf 3f3e 38ce ad3d
00000060: 98d6 513d 87c1 653d 9ecb f739 3246 483e
00000070: 780a 323e 1bb7 9dbc aeda 823d a5d8 ecbd
00000080: aee8 b4bd 724a 1b3d f96b af3d 7979 f93c
00000090: d180 503d fd44 c33d 88cb ebbc 6116 83bd
000000a0: 3dfb c33b 8634 743d a97d 1d3e 9b63 17be
000000b0: b071 913d de2c 063e 1af7 37bd 42ea b43d
000000c0: c1e7 3a3d 537e a6bc 9e35 193c 5943 febd
000000d0: f416 e8bb 7a4d 6b3d d6d7 a4bd 906f 253e
000000e0: e78f 323d 235a bf3d 1026 a43d d00a 253e
000000f0: 8a88 a73d 012b 203d e0f3 193e 531a ac3c
00000100: 9237 debd 251c 243d 16c4 b2bd a052 5fbe
00000110: 3693 21bd 5a04 8cbc 21c1 dbbd 8187 0e3c
00000120: 76f5 b5bc 554a 153e da2a 8dbc ba56 15be
00000130: 641c 4ebd 98f4 aebd 4002 903b 6829 213e
00000140: bf25 d93d bb05 953d 9f10 fbbd 693e b0bd
00000150: 7329 3ebc 3258 8d3b 490e aabd 34bd 083c
00000160: ffa8 7cbd 5448 68bd 1e28 01bd 1d78 503e
00000170: 20ec ebbc 5d2e 443e bf7e 8fbd b070 b03c
00000180: 44d6 96bd 1948 5dbe 0613 383d e3ce 12be
00000190: 3601 3abd d1da 9a3d 8807 663d 4831 4d3d
000001a0: 42fe 5fbd 724c 8ebc d09f 5ebd 2afa b1bd
000001b0: 2e96 373e 66b5 923c b3b2 bfbc 49e1 ef3c
000001c0: 6899 c6bd e290 b4bd 8f5a 953b 6e62 4bbc
000001d0: a9ff 9fbd f0a6 b23c e9f7 953d fae1 cc3d
000001e0: ba4f 0dbd 262d 943d 5555 0d3e a19e edbd
000001f0: c264 bdbd 3abb 703d 2505 5cbc 3594 133e
00000200: 12df 853d 0b57 88bc 1b86 0bbb 2d90 0bbd
00000210: e311 843d 4d1c 2ebd d053 443e 9ab6 e3bd
00000220: 0783 1ebe 7e6e 43be d4cd 8b3d 42a3 36be
00000230: bf25 d43c 58d9 27be 3370 6ebd 9443 dd3d
00000240: 9e2f 843d 7d91 3f3e a954 a43c 4fe9 bdbc
00000250: 25cf dabc abf7 c13d 14d6 0f3d b960 1d3d
00000260: 12c0 a4bc 9920 84bc 7226 4a3d dc60 1fbd
00000270: d444 2cbd 50eb 9e3d 11c7 6bbd 6288 0c3e
00000280: 77ad 183d d0b5 4e3e 546f 97bd 8757 47bd
00000290: 91d2 443d 0aed b7bc ca66 2cbd 826f 463d
000002a0: daa8 3c3b efbc 033d d647 633d f41b 033e
000002b0: b503 86bd 4b5f cc3d 8774 d4bb f516 253d
000002c0: 8af0 813d 57dc e93d 07f1 28be f529 8bbd
000002d0: 56f8 12bd 3419 8839 dfd4 d93d b667 8c3c
000002e0: 5d13 78bd d11e f4bc 843f 803c 8879 88bd
000002f0: d325 533d 6dd8 07be dd6b 753d 79b0 4839
00000300: a9e1 193d 9c58 ca3d d47a 69bd 04f2 7abd
00000310: 0024 923d 6ad9 67bc 2fc5 733d 030d 72be
00000320: 3e69 423d 3c31 1ebe b90d 123e f068 c0bc
00000330: ae8d 833e 0d9e d93d 336f c1bc cbe1 e0bd
00000340: 25f3 923d 112b 11be 7977 fc3c 900f fcbd
00000350: 8ba1 06be c6ec 87bd a3bf 1cbc 9b55 24bd
00000360: c418 ff3a 2053 ea3d 6a2d e73c 6767 b53d
00000370: 806b 66bd 3141 3fbd 3715 263d 388c 6a3c
00000380: fb9d 6f3c 472a ae3b c27d 00bc 668a a3bc
00000390: 044f a83d 65f4 e8bc 910e d73c b9f5 1dbd
000003a0: cf64 11be e719 8f3d 0213 8c3b a3d9 933c
000003b0: 6d47 99bd 8b80 143d 15d0 19bd 1d53 c23d
000003c0: 361a 173d 70cc 09bd 7a54 2abd 4ed9 a13b
000003d0: 1a0b a83c 516b 773d 16da 043d 0496 4cbe
000003e0: a753 b73d a308 10be 03de a4bd fecb a1bc
000003f0: e77c f23d cbc1 933c fce7 fabc cfd8 69bd
0.15362675 0.0679401 -0.043636434 -0.009021858 -0.015835162 0.033628333 0.073756315 -0.06169741
0.07252097 -0.07064245 0.06995563 0.01915227 0.001974529 0.02460808 0.120989256 0.04472089
-0.007881912 0.018339444 -0.04449707 -0.003541347 -0.12717773 -0.16739258 0.18731584 0.08486599
0.051230043 0.056092765 0.00047263218 0.19558027 0.17386806 -0.01925235 0.06389366 -0.11564759
-0.08833443 0.037912793 0.08565516 0.03045343 0.0509041 0.09534643 -0.028783575 -0.06400753
0.0059808777 0.059620403 0.15379967 -0.1478409 0.07101762 0.13103053 -0.04491339 0.08833744
0.045631174 -0.020323908 0.009351162 -0.12415189 -0.0070828144 0.057446934 -0.0804898 0.16155839
0.043594267 0.09343364 0.08015072 0.16117406 0.0818034 0.03910351 0.15034437 0.021008646
-0.10850443 0.040065903 -0.08728807 -0.21808863 -0.039447032 -0.017091919 -0.10730196 0.008699299
-0.022211771 0.14579137 -0.017232347 -0.14583865 -0.050320044 -0.08542746 0.0043947995 0.15738451
0.106029026 0.072764836 -0.122590296 -0.08605654 -0.011606562 0.004313492 -0.08303506 0.008345891
-0.061684605 -0.056709602 -0.0315324 0.2035832 -0.028799117 0.19158311 -0.07006597 0.021538109
-0.07365087 -0.21609534 0.044940017 -0.14336734 -0.04541131 0.07561267 0.056159526 0.050095826
-0.05468584 -0.017370436 -0.054351628 -0.08690293 0.17928383 0.017908763 -0.02340064 0.029282229
-0.09697229 -0.08816697 0.0045579146 -0.012413604 -0.07812435 0.021808118 0.07322676 0.10004039
-0.03449986 0.07235174 0.13802083 -0.11602522 -0.09247734 0.058772303 -0.013428961 0.14412005
0.06536688 -0.016643068 -0.002128965 -0.034073044 0.06448724 -0.04250746 0.19172597 -0.11118813
-0.1547967 -0.19085118 0.06826368 -0.17835715 0.025896905 -0.16391504 -0.05821247 0.10803905
0.06454395 0.18707843 0.0200599 -0.02318254 -0.026710102 0.09471067 0.03511627 0.03842232
-0.020111118 -0.016128825 0.04935307 -0.03891073 -0.042057827 0.07759726 -0.05756289 0.13723901
0.037274804 0.20186543 -0.07394281 -0.048667457 0.048052374 -0.022451896 -0.042090215 0.048446186
0.0028787167 0.032162603 0.05548843 0.12803632 -0.06543676 0.09979113 -0.0064836177 0.040305097
0.06344707 0.114189796 -0.16498195 -0.06795112 -0.035881363 0.0002595872 0.10636305 0.017139297
-0.06056534 -0.02979985 0.015655287 -0.06663805 0.051549744 -0.13266154 0.05991732 0.00019139228
0.037568722 0.09880182 -0.057001904 -0.06126596 0.07135773 -0.014150957 0.05951422 -0.23637776
0.047463648 -0.15448469 0.14263047 -0.023487538 0.2569403 0.10625849 -0.023612594 -0.109805666
0.071752824 -0.14176585 0.030818688 -0.12307656 -0.13147561 -0.06636958 -0.009567174 -0.040120702
0.0019462337 0.11441636 0.028219897 0.08857613 -0.056254864 -0.04669303 0.040547576 0.014315657
0.014625068 0.0053150984 -0.007842483 -0.019963454 0.08218196 -0.028436849 0.026252063 -0.038564418
-0.14198612 0.06987362 0.004274727 0.018048113 -0.074843265 0.0362554 -0.037551958 0.09488509
0.03689023 -0.033642232 -0.04158447 0.004939235 0.020513106 0.06040508 0.032434545 -0.19979101
0.08951502 -0.14065795 -0.08050158 -0.019750591 0.118402295 0.018036744 -0.030628197 -0.05709153
