results/reinRayLong2/ZARAgoal/ZARAgoal-11972.onnx (onnx, 309348 bytes, 15 tensors)

discrete_act_size_vector f4 [1, 2]
000000 00 00 00 40 00 00 40 40
       2.0 3.0

network_body.observation_encoder.processors.0.conv_layers.0.weight f4 [16, 5, 8, 8]
000000 42 3f 97 3c 99 49 4f bd 66 7b c6 bc f6 6c e8 bc
       0.01846278 -0.050607298 -0.024228763 -0.02837227
000010 12 d8 2b bd 46 c2 1e 3d 59 db 14 3d 8f 1a 42 3d
       -0.041954108 0.038759492 0.036342 0.04738861
000020 be 58 4e 3c 22 c7 aa 3a b2 73 8f 3c a3 a0 22 3d
       0.0125944 0.0013029317 0.017511223 0.039703976
000030 31 aa 24 bd e7 07 3c bd ab 37 5c 3d eb eb fc 3c
       -0.04020137 -0.045905974 0.053764027 0.030874213
000040 c9 e1 ca bc 92 64 0e 3c 17 e7 5d 3d f0 16 1e bc
       -0.024765866 0.00869097 0.054175463 -0.009649023
000050 06 a8 db 3b dd 5a d4 3b b9 08 fe bb 65 8a 18 bd
       0.0067033796 0.0064805583 -0.0077525047 -0.03724136
000060 b4 a5 44 3b 20 4f 3e 3d b7 db 4e 3d a2 11 1b bd
       0.0030005993 0.04646218 0.050502505 -0.037858613
000070 f5 09 2d bd 8d 66 91 bc 31 31 26 bd 90 46 35 bc
       -0.042245824 -0.017749095 -0.040574256 -0.011064187
000080 22 14 e2 bc e9 c4 31 3d 8d a9 d3 bc 1c b9 43 3d
       -0.02759749 0.04340068 -0.025837684 0.047783956
000090 74 fc bb 3c dc 62 04 bd ef aa a1 bc 2d 12 37 bd
       0.022947527 -0.032320842 -0.019734828 -0.04469507
0000a0 99 f1 2c bc 8e ea 15 bd 58 fe c6 3c 82 e0 ca bc
       -0.010555648 -0.036600642 0.024291202 -0.024765257
0000b0 4b 62 91 bc 46 13 79 3c d4 a0 5e 3d c7 8f 44 bd
       -0.017747065 0.015202349 0.054352596 -0.04798868
0000c0 40 6b 5e bd b2 ab c9 39 23 b3 39 bd 68 80 30 bd
       -0.0543015 0.0003846563 -0.045336854 -0.043091208
0000d0 d7 63 5c 3d 00 d0 54 bd 78 5c f4 bc 09 c7 68 3d
       0.053806152 -0.051956177 -0.029829249 0.05683044
0000e0 0d 2c 5d bd b9 ce 0e bb db 77 58 bd 69 a0 2d bd
       -0.05399709 -0.0021790697 -0.052848678 -0.042389307
0000f0 19 20 3b bd 77 9e d8 3b fe d8 1a 39 a5 a6 62 bc
       -0.045684908 0.0066106874 0.0001476742 -0.013833676
000100 46 dd e3 bc bf 75 55 bd 71 ee 25 3d 92 65 3d bb
       -0.027815472 -0.052114245 0.0405106 -0.0028899652
000110 1c 9e c5 bc 55 c9 0d bc c3 71 3e 3c 78 d1 31 3d
       -0.024123244 -0.008653958 0.011623803 0.043412656
000120 bd 8f 27 3c 9f 1f 22 3c 2d 1b 19 3d 3e 3a d5 3c
       0.010227141 0.009895234 0.037379432 0.026028749
000130 8f 8d 6f bd e2 f9 98 3c f1 09 bc bb f9 87 71 ba
       -0.05848461 0.01867384 -0.00573849 -0.0009213682
000140 ed ee 0c bd d8 f6 cc 3c 7d b5 48 3d 61 69 8f 3c
       -0.034407545 0.025020048 0.049001206 0.017506303
000150 15 b7 4c 3c ff 24 56 bd 7c 14 87 3b d4 c9 08 bd
       0.012494822 -0.052281376 0.004122315 -0.033395603
000160 2e ac 5a bd 1f 4c a8 3c d2 64 05 3b af 53 52 bd
       -0.05338686 0.02054411 0.0020354283 -0.05134934
000170 99 32 89 ba e3 93 70 bc 78 4f 0f 3d 66 64 ea bc
       -0.001046735 -0.014683696 0.034987897 -0.028612327
000180 79 9b e7 3b 5f 3e fb 3c 12 70 6c bd 26 8e d2 ba
       0.0070680943 0.03066939 -0.057724066 -0.0016064092
000190 69 7d 6e bc eb 38 72 bd 9f 43 3c 3c 67 38 14 bc
       -0.014556267 -0.059136312 0.0114907315 -0.0090466505
0001a0 71 8e 28 bc 9a 16 52 3d a1 06 04 bd 42 34 27 3c
       -0.010287867 0.051291086 -0.032232884 0.01020533
0001b0 9e d6 27 3d 1a 40 32 3d 17 43 b7 3c 2e 57 a9 bc
       0.04097616 0.043518163 0.022370858 -0.020671453
0001c0 f7 a9 e8 bc 67 af 80 3c 0d 65 02 3c 1d f6 f3 bb
       -0.028401358 0.015708638 0.007958663 -0.0074451105
0001d0 f2 5c ee 3a 19 12 1a 3c 5d 5f 64 bd 12 e4 4f bd
       0.0018185659 0.009403729 -0.055755008 -0.050754614
0001e0 aa 44 4b 3d 08 02 32 bd 04 73 cf b6 d8 77 ac bc
       0.04962603 -0.04345897 -6.1824703e-06 -0.02105324
0001f0 14 ae d2 bc ab 6a 1d 3d c7 18 af 3c 52 6c 42 bd
       -0.025717773 0.038431805 0.02137412 -0.047466584
000200 21 95 85 3c c0 27 39 bc 17 10 57 ba bf d0 50 3d
       0.016306462 -0.011300981 -0.00082039967 0.050980326
000210 18 9a df bb 57 a2 4a 3c 6b 19 67 3d 4a be 07 3d
       -0.0068237893 0.012367806 0.056420725 0.03314046
000220 34 31 26 3c 5d 43 28 bd 3d 69 1a 3d ed 86 2c 3d
       0.010143567 -0.041079868 0.03769802 0.042120863
000230 ea 25 fe 3c c3 bf 65 ba 08 14 5f 3d 8a ca 0d 3c
       0.031023938 -0.00087642315 0.054462463 0.008654246
000240 a4 02 3b bc e8 d0 00 3d 20 5b ab bc d4 30 ed bc
       -0.011414204 0.03144923 -0.020917475 -0.028953947
000250 4c 95 66 bb 73 ad 4d 3d a3 f8 ad 3c 90 80 e5 bc
       -0.0035184203 0.050214242 0.021236723 -0.028015405
000260 f8 34 5a bc b6 ea c2 bb ef ae 2e bd 0d 5d 22 bd
       -0.013318293 -0.00594839 -0.0426473 -0.03963952
000270 de b7 16 3d 8e c9 57 bc 12 47 f4 3c 26 e8 cd 3b
       0.036796443 -0.013170613 0.029819045 0.0062837778
000280 fe 1e 2c bc 3d 37 10 bc 4a 0d a2 bc 1d 17 58 bd
       -0.010505436 -0.008802232 -0.019781727 -0.052756418
000290 03 90 4a 3d 06 be f5 bc ba e0 81 bc bb ef 1d 3d
       0.049453747 -0.029997837 -0.015854228 0.038558703
0002a0 1d 9a d5 3c 1e e5 c4 bc 7a cb 2d 3d 22 bf ad 3b
       0.026074464 -0.024035033 0.04243038 0.005302326
0002b0 10 c1 e7 bc fe a2 66 bd e5 c7 39 3d 56 43 80 bb
       -0.028290302 -0.056307785 0.04535665 -0.003914277
0002c0 4c 93 f7 bc 42 28 52 bd e2 51 ba bc 6f 6a da ba
       -0.030221604 -0.051307924 -0.022744123 -0.00166638
0002d0 6a 64 3c bd 57 36 73 bd 89 44 d2 3b ac f3 23 bd
       -0.0459942 -0.059377994 0.0064168614 -0.040027305
0002e0 61 81 2f 3d f9 e4 a5 bc 99 fc 5d 3c 20 3c 01 bc
       0.042847995 -0.020250784 0.0135489935 -0.00788787
0002f0 b4 51 68 bb 5d ae f5 3a c6 09 5b 3d 8a ab 5e bd
       -0.003544909 0.0018743981 0.053476118 -0.05436281
000300 ae c6 50 bd 7d 2b 19 3d 44 b9 e9 3c 45 c9 0f 3c
       -0.050970726 0.03739499 0.028530724 0.008776014
000310 85 f3 6e bd 2f 92 49 3d 33 12 0b bc 19 cc 4c 3d
       -0.058337707 0.049211677 -0.008488226 0.04999933
000320 21 a8 e6 3c 55 1b 0f bc af 56 9b bc a3 71 5c 3c
       0.028156342 -0.008734544 -0.018962232 0.0134548275
000330 5c 92 14 3b ee 33 95 3c c4 a2 a3 bc bb 47 04 3d
       0.0022670245 0.018213239 -0.019975074 0.03229497
000340 6b 8d a0 bc f1 00 3a bd d3 87 89 3a 35 35 41 3d
       -0.019598683 -0.045411054 0.0010492749 0.047169883
000350 53 0d 08 bd 5c f5 42 3d 24 4a 1a 3d 36 bd 3f 3c
       -0.033215832 0.047597274 0.037668362 0.011702826
000360 b4 4e d3 bc 2b 86 04 bd fd ae 62 3c ba 27 d1 bc
       -0.025794365 -0.032354515 0.013835666 -0.025531638
000370 44 d8 b6 3c 35 0b 4e 3d 14 6f 64 bd 6b e6 10 3d
       0.02231992 0.050303657 -0.055769995 0.035375994
000380 e8 1b 01 3d 4b 9a de 3b fa 19 cd bc b3 7f 97 3c
       0.031520754 0.0067932955 -0.0250368 0.018493509
000390 d7 7a 7b bc e1 3b ff 3c bc b8 e6 3c ad 57 3a 3d
       -0.0153491115 0.031156482 0.02816426 0.04549377
0003a0 cc 7b 68 bc c4 da fc ba 67 cb b6 3c 8c 3d 51 3c
       -0.014189672 -0.0019291271 0.022313787 0.012771022
0003b0 e5 27 a3 bc d1 67 ba bc 44 45 31 3d b9 6b df bc
       -0.019916484 -0.022754582 0.043278947 -0.027273046
0003c0 62 a3 cf 3c c0 13 6f bc a7 35 6f bd 1b c6 d5 3b
       0.025346462 -0.014592111 -0.058400776 0.00652386
0003d0 ce fd 02 bd fc c1 3e bc 17 0e 07 3d 8d 3a 17 3d
       -0.03198033 -0.011642929 0.03297242 0.036921073
0003e0 77 40 9a 3b b0 c6 1d 3c be db 4f bd 82 05 14 bd
       0.004707392 0.00962989 -0.05074667 -0.036138065
0003f0 b4 ea e7 3b 55 fd 5f 3d c2 bf 4a bd c7 ca ad bc
       0.0070775393 0.054684956 -0.04949928 -0.021214856

network_body.observation_encoder.processors.0.conv_layers.0.bias f4 [16]
000000 0f e1 a0 bb d1 91 bd 3b 6d 39 b0 3b 87 f6 09 bd
       -0.0049096416 0.005785205 0.0053779394 -0.033682372
000010 61 52 a8 3b 5a d2 0f 3d ff 7e 2e bd 22 ab 63 bd
       0.0051367735 0.035112716 -0.04260158 -0.055583127
000020 db c5 25 bd ab a8 d4 3c c2 77 38 bd 40 51 b1 bc
       -0.040471893 0.025959333 -0.045036085 -0.021645188
000030 25 44 0e bd dc 36 57 3d d8 50 3e 3c 1b 36 35 bd
       -0.034732956 0.052542552 0.011615954 -0.044241052

network_body.observation_encoder.processors.0.conv_layers.2.weight f4 [32, 16, 4, 4]
000000 c1 10 ce bc 0f 56 24 3d d0 72 d3 bc 5f 04 af 3c
       -0.025154473 0.040121134 -0.025811583 0.021364389
000010 7f 9f c8 3a 53 32 30 3d 03 01 49 3d ae 92 95 3c
       0.0015306323 0.043016743 0.04907323 0.018258419
000020 3a 03 7f bb aa b1 3b 3d 56 b5 58 bd 83 bf 05 bc
       -0.0038911835 0.04582373 -0.05290731 -0.008163336
000030 bf 82 6d bc bb d3 19 3d 44 c8 9a bc 1b 10 15 3d
       -0.014496504 0.037555438 -0.018894322 0.036392312
000040 2f 0a 4d 3d 4c 17 62 ba 16 09 37 bb 38 52 42 bd
       0.05005854 -0.00086246873 -0.0027929 -0.04744169
000050 54 22 55 bd cc 73 b1 bc a2 82 68 3d 3b a0 8b 3c
       -0.05203469 -0.021661662 0.056765206 0.017044177
000060 aa 8d f5 bc 6c 9c f3 3c 02 6b 06 3b 08 0f 36 3d
       -0.029974777 0.029737674 0.002051056 0.04444793
000070 2b 70 5e bd bc ab 03 3c 93 36 65 3d ea e3 ac 3c
       -0.05430619 0.00803655 0.05596025 0.021104772
000080 ea a4 67 bd 85 84 67 bd f5 ca 5d 3d 15 c2 24 bd
       -0.05655376 -0.056522865 0.054148633 -0.040224154
000090 93 d1 00 bd a6 ee a7 bc 25 6a 09 3d 2f 1a 06 bd
       -0.031449866 -0.020499539 0.033548493 -0.032739814
0000a0 ee 22 98 3b 19 90 11 bc aa 15 3f 3d 97 3e 80 3d
       0.004642836 -0.008884453 0.04665152 0.06261938
0000b0 58 33 2a bd 83 e5 36 bd 80 2e 0e 3c 8d 9b 07 3d
       -0.04155287 -0.044652473 0.008678079 0.03310733
0000c0 77 79 4c bd 7f 06 48 bd 69 e6 38 3c 8e 93 42 3d
       -0.049920525 -0.04883432 0.011285403 0.047504
0000d0 ee 10 72 bc 0a 59 83 3b aa 63 2b bd db 0e 25 bd
       -0.014774544 0.004008417 -0.041843094 -0.04029737
0000e0 3c b5 28 3d d0 4a 9c 3c c8 91 98 3b 94 a2 a9 bb
       0.041188464 0.019078642 0.0046560504 -0.0051768515
0000f0 ca 49 f8 3c e9 0e 56 bd f6 41 c2 bc 0c 49 a5 bc
       0.030308623 -0.052260313 -0.023713093 -0.020176433
000100 db 18 d1 3c 59 16 f4 bc 97 06 f6 3c 5d 71 b1 3c
       0.025524547 -0.029795812 0.03003244 0.021660501
000110 80 b6 90 bc 23 5a f3 3c e7 b6 09 3d cb af a1 3c
       -0.017665148 0.029706066 0.033621695 0.019737145
000120 e7 c1 78 bd cb 7e bb bc 30 3d 68 3d 63 c7 71 3d
       -0.060731795 -0.022887608 0.056698978 0.05902804
000130 b5 3d 33 3d 74 a6 76 3d ba 29 68 bd 4a b0 a0 bc
       0.04376002 0.060217336 -0.05668042 -0.019615311
000140 f6 dd 34 ba 7c 85 af bc ee 6d d7 bc 0f 67 04 3d
       -0.000689953 -0.021425955 -0.026297536 0.032324847
000150 5b 5d 97 3c b0 dd 0e bd 2f 28 fa bb f1 a3 47 bd
       0.018477133 -0.034879386 -0.007634185 -0.04874033
000160 e7 0f 19 bd f2 4a de bc 1a 67 19 bb 9d 98 cb bc
       -0.03736868 -0.027135346 -0.00234074 -0.024853045
000170 e1 2c 55 3c 58 6a d7 3c 08 3b 05 bd 3a 35 73 3d
       0.013011188 0.026295826 -0.032527 0.059376933
000180 34 e2 7e 3d 41 e1 40 bd 1a b5 50 3c bd 6c 5d 3d
       0.062227443 -0.04708982 0.0127384905 0.05405878
000190 57 43 04 3d b4 83 e0 3c ad 91 88 bc 99 63 9d bc
       0.032290783 0.027406551 -0.016671026 -0.01921253
0001a0 00 d7 21 bb d6 0c f9 bc f3 4e dd 3c 78 e1 39 3c
       -0.00246948 -0.030401628 0.027015185 0.01134526
0001b0 ac ac c6 bc 25 b8 06 3d c8 62 7a bd e4 25 ff bc
       -0.024252258 0.032890458 -0.06112936 -0.031145997
0001c0 c9 31 7d bc 61 2b 34 3c 51 f5 b9 3c 1f 8c 51 3d
       -0.015453764 0.01099667 0.022699984 0.05115902
0001d0 d3 28 5c 3d a9 aa eb 3c 73 a5 4f 3c 33 79 a3 3c
       0.05374987 0.0287679 0.0126737235 0.019955253
0001e0 73 5c 6c bd d8 6a 32 bd 19 ce 82 3d 4f 93 6b bd
       -0.057705354 -0.043558925 0.06386966 -0.05751353
0001f0 61 b1 54 3d 81 13 d1 bc e0 c6 e4 bc f1 e1 e8 3b
       0.051926974 -0.025521995 -0.027926862 0.0071070124
000200 d0 47 eb 39 3a 08 63 bd b5 1a cd bc a5 12 60 3d
       0.00044876197 -0.055427767 -0.025037149 0.05470528
000210 b3 88 ed 3c e6 09 5d 3d 03 73 dc 3c 55 16 05 3c
       0.028995847 0.053964518 0.02691031 0.008123
000220 ef 9f 45 3d 49 70 00 bc 65 4e e9 3c cc 90 5a bd
       0.048248228 -0.007839271 0.028479764 -0.053360745
000230 86 f1 30 bd 2e b6 55 bc fb c1 b5 bc a5 9b 54 bc
       -0.043199085 -0.013043923 -0.022187224 -0.012976562
000240 60 07 62 bd ec f6 16 3c fb dd 23 bd ae 09 2f 3d
       -0.055182815 0.009214144 -0.04000662 0.04273384
000250 ba 26 15 bd 42 68 9f bc 47 92 72 bd fd da 64 3d
       -0.036413886 -0.019458894 -0.059221532 0.055872906
000260 ba 19 a1 3c da bc 08 bb 30 3d 58 3d 06 d7 70 3d
       0.019665588 -0.0020864517 0.052792728 0.058798812
000270 76 5d 96 3c a3 48 4f bd ad 75 03 3d c6 28 64 ba
       0.018355113 -0.05060638 0.032094646 -0.00087035855
000280 e5 68 0a 3d a0 23 68 3a 99 40 eb bc 1d b8 70 bd
       0.03379144 0.0008855406 -0.028717326 -0.058769334
000290 c5 79 7c 3c 05 21 8e 3b f0 41 21 3c 7b 24 4f bd
       0.0154098915 0.0043374323 0.009842381 -0.0505719
0002a0 c4 1a 1c bd 07 2e 32 bd d7 e9 31 bd 9b 03 5a 3c
       -0.038111463 -0.043500926 -0.043435898 0.013306524
0002b0 d2 01 2b 3d e8 2f 9f 3c 54 4d 2c 3b 77 fc 3b 3d
       0.041749783 0.019432023 0.0026291208 0.045895066
0002c0 2f 2c 9d bc 6b 65 31 3c 7d 61 0a bd d7 7a 2b bd
       -0.019186107 0.010827403 -0.03378438 -0.041865196
0002d0 b8 b6 fb 3c 63 ff 04 bd 56 d9 50 3d 0e 44 4c 3d
       0.030726776 -0.03247012 0.050988518 0.04986959
0002e0 74 d1 a0 3c 02 4b 88 3b f9 09 29 bd 86 b3 36 3a
       0.019631125 0.0041593323 -0.041269276 0.00069695
0002f0 c6 b4 42 bd 5b c0 db 3c 1d 37 07 bc 7f 17 5d 3d
       -0.04753568 0.02682512 -0.008252886 0.053977486
000300 46 63 79 bc 5e 69 4f 3d 20 8b 16 3d 03 55 e9 bb
       -0.015221423 0.050637595 0.036753774 -0.00712073
000310 b8 c3 65 bd 21 17 d1 bc 8d 75 5d 3d ae 97 1a bd
       -0.056094855 -0.025523724 0.054067183 -0.03774231
000320 f3 42 14 3d 7d 1a 76 bd 7a a0 b8 3c 19 92 a2 bc
       0.03619666 -0.060083855 0.022537459 -0.019845055
000330 ba 8c 1a 3d 70 00 ac 3b b9 15 b0 3c aa 37 99 bc
       0.037731864 0.0052490756 0.021494733 -0.0187033
000340 2d 2a df bb ca b4 ef 3c 57 9f 81 bb cf 66 62 bd
       -0.0068104477 0.029261012 -0.0039557624 -0.055273827
000350 f3 1b ba 3c 52 b7 2c bd 6c a7 20 bd 46 55 cb bc
       0.022718405 -0.042167015 -0.039222166 -0.024820935
000360 ed 80 4d bd da ca 7a bc 7e c3 52 bc c8 bc 63 3d
       -0.05017178 -0.015307153 -0.012863992 0.055599958
000370 f7 a1 72 3d 27 bd 3a bd f0 31 67 bd f6 5b 77 bd
       0.059236493 -0.045590546 -0.05644411 -0.060390435
000380 4d 83 85 3d f7 1f 38 3d a4 40 74 3d 86 50 6a bd
       0.06519184 0.04495236 0.05963196 -0.0572057
000390 11 38 00 3d e0 7f 12 3d 83 dd cd bc 4c 4a 65 bd
       0.03130347 0.035766482 -0.02513004 -0.05597906
0003a0 e6 47 3b 3d 8e 1d 32 3c 92 a7 cd bb 9e db 1f 3c
       0.045722865 0.010871304 -0.0062760795 0.009756951
0003b0 25 2f 8d 3a f3 3b 01 3d 17 81 0a bd 7f 00 33 bd
       0.0010771496 0.031551313 -0.033814516 -0.043701645
0003c0 af 34 76 3d dc 46 39 3d 74 08 3e 3b 80 99 2f bd
       0.060108837 0.045233592 0.0028996738 -0.042871
0003d0 e5 5f 1d 3d 5c 12 91 bc 47 f8 3e 3d 59 d6 c6 bb
       0.03842153 -0.01770895 0.046623494 -0.0060680327
0003e0 2d 9d c3 3c 47 3d b1 3c b6 28 34 3d 96 17 6b 3d
       0.023878658 0.021635665 0.043984137 0.05739554
0003f0 6c c8 95 3c f8 81 43 bb c5 3b 74 bc 91 34 ea bb
       0.018284045 -0.0029832106 -0.014906828 -0.0071473797

network_body.observation_encoder.processors.0.conv_layers.2.bias f4 [32]
000000 12 fa 26 bd d1 55 c0 3b d4 25 4b bd 28 64 68 bc
       -0.04076583 0.005869605 -0.049596623 -0.014184035
000010 ad 3e 98 3b 32 1b 4a bd 26 90 de bc 68 59 09 bd
       0.0046461434 -0.04934234 -0.027168345 -0.03353253
000020 b9 3f 0f bd 6b 13 89 bc 22 0f 47 3d 78 42 52 bd
       -0.03497288 -0.016732892 0.048598416 -0.05133292
000030 82 5f d9 bc b8 c2 31 bd 3b 60 6d 3d 4e 09 ab 3c
       -0.0265348 -0.04339859 0.0579531 0.02087846
000040 c5 aa 63 3d fe 47 ff 3c 8e 27 7c bd 33 fe 6a bd
       0.05558278 0.031162258 -0.06156116 -0.05737133
000050 a4 60 48 3c 36 42 e5 3c fe 1e 1b 3c 52 e4 79 bd
       0.012230072 0.027985673 0.009467838 -0.06100876
000060 06 92 1d 3d ff bb 1b bd 0b 55 35 3d ea 66 82 3d
       0.038469337 -0.038021084 0.044270556 0.063672855
000070 fe 3a 15 bd b2 c6 05 bd 95 fb 1b bd cb 87 32 3b
       -0.036433212 -0.032660194 -0.038081724 0.0027241583

network_body.observation_encoder.processors.0.dense.0.weight f4 [128, 32]
000000 32 c4 96 3e 15 db aa be f7 26 7c be bc c6 b8 bc
       0.2944656 -0.3337027 -0.24624239 -0.022555701
000010 06 9d 91 3e 5b 06 b8 bd 54 f0 d5 3b 68 fb c4 3d
       0.28440112 -0.08985587 0.0065288935 0.096182644
000020 f1 fe e5 bd c9 b6 ff 3e b2 f1 e7 3c cd 9b 3d be
       -0.11230267 0.49944142 0.028313491 -0.18516465
000030 74 d3 95 3e 87 6d 89 be f2 ca 07 3d 80 41 10 3f
       0.29262888 -0.26841375 0.033152528 0.56349945
000040 a3 6e bc 3d d1 fd c0 be 2b 3b 03 3f ec a8 18 bd
       0.0920079 -0.37693647 0.5126216 -0.03727047
000050 6c f4 5d bc ce 6b 9f 3e 44 67 24 be 6f 23 fb bd
       -0.013547044 0.31136936 -0.16055018 -0.12262618
000060 14 1f 20 be eb 29 c8 bd 42 3d 29 be 48 40 0a be
       -0.15636855 -0.0977362 -0.16527274 -0.13501084
000070 21 d0 ed bc 71 e8 08 bf 95 cd 9b bd ad 93 3a 3d
       -0.029029908 -0.5347968 -0.07607571 0.04555099
000080 e8 3e 88 3b 46 d9 07 3f 5c e3 b3 3e 06 b1 c3 3d
       0.0041578896 0.5306591 0.351344 0.09555249
000090 51 18 10 3e 3d 00 f3 be a8 24 7a bd 3f 70 62 be
       0.14071776 -0.4746112 -0.061070114 -0.22113131
0000a0 70 13 6e bc 21 7d a1 3e be ca 3b be ee 47 d7 3e
       -0.014531001 0.31540778 -0.18339059 0.42047065
0000b0 d4 47 c4 bd d3 59 08 3d 25 ae dd 3d c4 15 fb bd
       -0.09584013 0.033288788 0.10824231 -0.12260011
0000c0 1c ca 7c 3e 84 84 aa 3e 7c a6 41 3f 32 44 e5 3d
       0.24686474 0.33304226 0.7564466 0.11194648
0000d0 63 4b e7 3d 07 51 20 3e 7d e8 f4 3e af 26 c8 be
       0.11293676 0.1565591 0.47833624 -0.39092013
0000e0 21 12 31 bd 7c 5e 6e be 8b ed 77 3e fc d0 cf bd
       -0.04323018 -0.2327823 0.24211709 -0.101472825
0000f0 01 52 a8 be bb d2 60 3d 65 d7 b9 be d0 09 d4 3c
       -0.32875064 0.05488847 -0.36297145 0.025883585
000100 c2 47 6b be c4 47 fa be c2 d6 c5 be 13 e0 29 be
       -0.22976592 -0.48882878 -0.3864041 -0.16589384
000110 0c 68 ba be 93 fa be bd c8 b3 5c be b4 22 72 bd
       -0.36407506 -0.09325137 -0.21552956 -0.059115127
000120 bb b9 37 bd 84 71 73 be c0 26 85 be a8 13 12 bf
       -0.04485486 -0.23773772 -0.26006126 -0.57061243
000130 34 f1 6a bd 75 90 b7 be 65 8c 21 3e 97 1f e8 bc
       -0.057358935 -0.358524 0.15776213 -0.028335376
000140 c8 b2 ae bd dc e2 b1 3e 2f 8c 69 bc 6c bb ad bd
       -0.085301936 0.34743392 -0.014254614 -0.084830135
000150 89 3d f7 bc 44 29 a9 3e e9 8c a8 bd 6f 3e 03 be
       -0.03018071 0.33039296 -0.082300015 -0.12816785
000160 af 09 1b 3e 09 e2 97 be 8f ed cc 3e ea cd 70 3c
       0.15140413 -0.2966464 0.40024993 0.014697531
000170 4d c7 b2 3d ee 2b b4 3c 82 b6 e8 bd 8a 65 79 3e
       0.0872942 0.021993604 -0.113629356 0.2435514
000180 6d 7c 02 3f 45 da 3d bd e5 21 86 bd 6d 93 4e be
       0.5097111 -0.046350736 -0.065494336 -0.20173426
000190 17 50 78 3d 90 98 d9 be d1 22 52 3e 65 5c aa bb
       0.060623255 -0.42499208 0.20521094 -0.0051990026
0001a0 fc 31 1e be c9 c2 b0 3d 9b 09 d0 3e b5 c4 9a 3e
       -0.15448755 0.08630902 0.40632328 0.302282
0001b0 f8 07 f6 3e 9d 8a e8 be 67 fd 7a be 13 3e 9b be
       0.48052955 -0.45418254 -0.24510728 -0.30320796
0001c0 78 4e e2 3e 21 36 83 3e ef 8f 10 3f 81 de 60 3e
       0.44200492 0.25627235 0.56469625 0.21959879
0001d0 2c 5c 0d be 37 ac 00 bf 1a ee 05 3d fa 6d 12 3e
       -0.13804692 -0.5026278 0.032697774 0.14299765
0001e0 18 92 83 3d fc a0 af 3d b4 4c 61 bd b0 a6 63 3d
       0.064243495 0.08575627 -0.05500479 0.055578887
0001f0 6b 9f 0e 3e f7 47 c0 be f5 02 00 be 15 03 14 be
       0.13928 -0.37554905 -0.12501128 -0.144543
000200 a0 4a 9b be 13 8b df be 72 8e 68 3d 18 07 b9 be
       -0.30330372 -0.43660793 0.05677647 -0.36138225
000210 a9 31 6f 3e f8 63 85 3e 0f 99 26 3e e4 6f 51 be
       0.23358788 0.26052833 0.16269325 -0.20452839
000220 48 3d 67 3c 5d ba 6e 3e 5d d2 a0 37 f5 f2 f1 be
       0.014113732 0.2331328 1.9171444e-05 -0.47255674
000230 ca 5c 5b 3e c7 4b 7a 3e db 6c c6 bd f3 12 82 be
       0.21422115 0.2444297 -0.09688731 -0.25405082
000240 93 d3 89 3d d9 c5 91 be 5b 51 51 3e 25 ab ac 3c
       0.06729808 -0.28471258 0.20441191 0.021077702
000250 48 ca 28 be dc 57 36 be a3 8c 18 be 97 80 a2 be
       -0.16483414 -0.17806953 -0.14897399 -0.3173873
000260 9f 9c 15 be 69 31 24 3f b8 03 d3 be ea 65 9f bd
       -0.14610527 0.64137894 -0.41213775 -0.077831104
000270 81 cd 5f 3d ac 73 2d 3e 7f 7c 55 3e dd 83 09 3d
       0.054639343 0.16938657 0.20848273 0.03357302
000280 a4 e7 56 3d 93 83 de be 40 ee 9b 3c 85 89 b4 be
       0.052467003 -0.43459758 0.019034505 -0.3526117
000290 7c fa 6c be df 73 32 3e a8 ff a7 bc 9b d0 a7 be
       -0.23142427 0.17427014 -0.020507649 -0.3277634
0002a0 2a 42 4b 3e 98 19 cf 3e 2e d9 b3 3b 9a 44 f9 bc
       0.19849458 0.40449214 0.0054885363 -0.03042822
0002b0 4a 55 f9 bc 3f d0 dc be 63 03 79 be 20 ac 0c bd
       -0.030436177 -0.4312763 -0.24317698 -0.03434384
0002c0 49 26 1c 3e e9 d9 4c 3e 59 e6 08 bf 2e 36 66 be
       0.1524898 0.20005001 -0.5347648 -0.22481605
0002d0 83 48 6a be d3 9b b3 bd 3e 79 ac be 46 6e 19 be
       -0.22879224 -0.087699555 -0.3368625 -0.14983472
0002e0 1b f2 67 be dc b9 f9 bd 7a 6a 77 3d 82 c1 16 3c
       -0.2265095 -0.12193653 0.06040428 0.009201409
0002f0 65 b3 08 be 43 20 44 3e 3b a4 87 3e 14 f9 b3 3e
       -0.13349684 0.19152932 0.26492485 0.3515097
000300 7b b9 39 3c 57 d8 1e 3f bf c8 b2 be 81 b5 63 be
       0.011335726 0.6204886 -0.34918782 -0.22237207
000310 65 fa e6 3e d8 fc b0 3e 43 6b 95 bb c1 4b cd 3c
       0.4511291 0.34567904 -0.0045599057 0.025060536
000320 43 27 6a be 14 90 da bd 1f 07 5c 3e a1 fc 2a 3e
       -0.2286654 -0.10672012 0.21487091 0.16697933
000330 5e 52 b2 3e 56 6e ba 3d 92 cc 35 be 20 87 22 be
       0.34828466 0.09103076 -0.17753819 -0.15871859
000340 40 b5 12 3f 90 db ec be 81 7b 96 3e ef 55 99 3d
       0.57307816 -0.46261263 0.293911 0.07487094
000350 d5 74 1d be 14 1f 4a be 16 49 5e 3d da be 2c bd
       -0.15376599 -0.19738418 0.05426892 -0.042174198
000360 31 eb c5 3e 63 63 0c be 4f f4 ae bd fa 98 06 bc
       0.38656 -0.13709788 -0.08542692 -0.008215183
000370 03 89 08 be 5b 4f 89 3e 85 7a 52 bd 6a 35 4e be
       -0.13333516 0.26818356 -0.051386375 -0.20137563
000380 18 41 bd be d7 4a 86 be 37 12 99 3c 91 c7 96 3e
       -0.36963725 -0.26228973 0.018685443 0.29449132
000390 43 6e c3 be 15 38 ea bd bb 39 5c bd 80 b2 54 3d
       -0.3817006 -0.11436478 -0.053765994 0.051928043
0003a0 9c 0c 8c 3e fb 47 56 bc 43 63 0b bf c5 62 20 be
       0.2735337 -0.013078685 -0.54448336 -0.15662678
0003b0 22 a3 c9 be ad ca 0a be e6 95 f0 3d 03 64 ce bd
       -0.39382273 -0.13553877 0.11747341 -0.100776695
0003c0 f1 e9 c8 be a2 01 20 3e 00 59 8a bd ca 74 ec bd
       -0.39240983 0.15625623 -0.06755257 -0.11545713
0003d0 67 27 8e 3e 17 00 1d 3d e5 6f 5c bd 2b 27 c9 3e
       0.27764437 0.038330164 -0.05381765 0.39287695
0003e0 50 8b b5 bd 80 d3 99 3e a6 5e 11 3f da bd d1 3c
       -0.088644624 0.30044174 0.5678505 0.025603224
0003f0 ae e2 a0 3e 17 6a 9d bc a3 8d 62 3d 5f 82 cd bd
       0.31422943 -0.019215627 0.055310857 -0.10034632

network_body.observation_encoder.processors.0.dense.0.bias f4 [128]
000000 49 7c a3 b8 8f d4 10 bb 8d 5a 7b bb c3 26 cc 3a
       -7.7955956e-05 -0.002209935 -0.0038353533 0.0015575517
000010 4d 42 7e bb bc fb 00 bb ec be 59 bb 43 f2 e9 3b
       -0.0038796843 -0.0019681295 -0.003322537 0.0071394756
000020 c9 a7 15 bb 9a 90 a6 3b 6a eb f5 ba fd 1d 0f bb
       -0.0022835603 0.005083156 -0.0018762175 -0.0021837943
000030 85 a5 02 3c 25 60 c5 3b 27 89 4c b9 3d 4c 4c bb
       0.007974033 0.006023424 -0.0001950605 -0.0031173371
000040 f1 b9 6c 3b 3b ca 90 3b bd 7a b3 39 de 38 5f 3b
       0.0036121572 0.004418639 0.00034232988 0.0034060995
000050 79 89 be b9 68 b8 1f 39 85 75 bc 3b 02 27 74 3b
       -0.0003634205 0.00015232118 0.005751314 0.0037254696
000060 ea 06 c1 3b 80 70 e8 ba 47 52 05 3b 58 77 ab b8
       0.005890717 -0.0017733723 0.002034323 -8.176145e-05
000070 eb e5 89 bb e8 99 83 3b 22 5c a5 3b cb 28 a6 bb
       -0.0042083166 0.00401615 0.0050463835 -0.005070781
000080 97 28 fa 3a db aa 5c 3b a0 49 96 3a ba de b5 ba
       0.0019085583 0.0033671174 0.0011466034 -0.0013875582
000090 68 d3 46 b8 8b 5d 6f bb de 5d c9 3b f7 b0 c2 bb
       -4.7403766e-05 -0.0036524262 0.006145223 -0.005941506
0000a0 85 50 0d 3b 3d 12 05 bb a8 13 61 3b 27 10 da 3b
       0.0021562886 -0.002030506 0.0034343991 0.0066547575
0000b0 6d 48 aa 3b 7a 3c 51 ba 00 2e 9f ba 10 4f 29 39
       0.005196622 -0.0007981729 -0.0012144446 0.00016146549
0000c0 1e d6 b5 b8 f5 c4 4c ba f9 d1 82 3b 41 65 4e bb
       -8.670635e-05 -0.00078113313 0.003992316 -0.0031493457
0000d0 53 d8 8e 3b 9c 26 d4 3b 64 16 17 ba 1f 2e 13 3b
       0.004359284 0.006474329 -0.00057635293 0.002245791
0000e0 6f 6d b4 bb ee a3 30 bb 7d cc 03 b9 07 48 38 3b
       -0.0055062096 -0.0026953178 -0.00012569311 0.0028119104
0000f0 5e 32 d4 b9 2d 3b 2a 3b f7 38 c3 ba ac 64 3a bb
       -0.00040473317 0.0025975213 -0.0014894296 -0.0028441353
000100 f2 3e 34 3b 47 44 1b bb b9 81 8b bb 07 b9 61 bb
       0.0027503339 -0.002369182 -0.0042574075 -0.003444256
000110 af 37 10 3b ba 6d c4 38 c7 18 f6 3a 0b ca 22 3a
       0.0022005846 9.3664465e-05 0.0018775695 0.00062099163
000120 45 b5 81 3b ca 23 82 bb 9d 4a 92 3b 0c b5 3d bb
       0.0039583766 -0.0039715515 0.004464461 -0.0028947024
000130 13 e0 05 3b fc 3b 8c bb 2d ea 2b bb 1e 06 f2 b9
       0.0020427748 -0.0042796116 -0.002623211 -0.00046162395
000140 93 3c ca 3a b7 78 36 3b 4a 5b b4 bb d4 fc 3c bb
       0.001542943 0.0027842948 -0.0055040466 -0.002883722
000150 b2 43 6b bb c4 49 c5 3b 53 ff 7e bb 07 6e 3e ba
       -0.0035898504 0.0060207564 -0.003890951 -0.000726432
000160 60 41 71 b9 ad 21 9b 3b 23 e8 83 3b ad b9 1b ba
       -0.00023007905 0.004734239 0.0040254756 -0.00059404486
000170 74 7e 69 39 d8 88 94 3b ef 48 dd 3a d0 dd 30 b9
       0.00022267719 0.0045329146 0.0016882698 -0.000168673
000180 49 ca 73 b8 2f 16 bf bb a8 7c 62 3b f9 45 07 3c
       -5.8124107e-05 -0.005831502 0.0034559164 0.008256429
000190 a9 39 94 3a ad 00 05 3c 3a b8 82 bb bd de d7 3b
       0.0011308688 0.008117837 -0.0039892467 0.006587832
0001a0 b3 68 e6 3a b4 01 b3 3a 89 b7 ce b7 91 68 59 ba
       0.001757881 0.0013657124 -2.4642579e-05 -0.00082934747
0001b0 68 1c d3 3a cb 9d b8 3b c1 b9 15 3c 60 b8 44 3b
       0.0016106488 0.0056340448 0.009138525 0.0030017123
0001c0 ae b1 f4 bb 37 13 75 b8 27 4b 51 bb 2a f3 c2 3b
       -0.00746747 -5.8430447e-05 -0.0031935663 0.0059493976
0001d0 91 98 78 bb 98 90 0b 3b a4 cd c2 b9 78 93 a1 bb
       -0.0037932734 0.0021295901 -0.00037155778 -0.0049309097
0001e0 fb 71 83 3b 05 ad d9 bb e3 7d fc 3b 61 57 fd b8
       0.0040113903 -0.00664294 0.0077054366 -0.00012080256
0001f0 cd 64 ed b9 37 73 33 bb bd 0b 74 3a 14 71 e9 b9
       -0.00045279265 -0.0027381906 0.00093096105 -0.00044525473

network_body._body_endoder.seq_layers.0.weight f4 [128, 323]
000000 19 bc 6a 3b 98 2b c9 bc fb b6 4e 3d 54 7a 01 bd
       0.0035817681 -0.02455692 0.050467473 -0.0316108
000010 cf 2e 2c bd fd fe 2f 3c fc 1c d6 bb b0 09 11 bd
       -0.042036828 0.010741946 -0.006534217 -0.03540963
000020 af ed 8d bd 51 9e 2a 3b f7 ec 59 bd 8e 5a 63 3b
       -0.069301 0.0026034305 -0.053204503 0.0034691426
000030 cb 06 fb 3c 6d e5 0b bd 92 39 7d 3d c8 0f ae 3c
       0.030642888 -0.034154344 0.06182248 0.02124776
000040 1d 0f e2 3b 8b a3 d9 39 bc 10 4d 3d c1 30 c2 3d
       0.0068987743 0.00041511314 0.050064787 0.09481955
000050 32 00 04 bb 46 33 14 bd 3b cf 8a bd 56 09 e9 bc
       -0.0020141718 -0.03618171 -0.06777807 -0.028446835
000060 c2 e0 45 3d 03 19 3d 3b f5 67 03 bd d5 83 de bd
       0.04831005 0.002885402 -0.032081563 -0.10864989
000070 7c 5d ef 3c 34 33 8b bc 68 1f bd 3c 68 87 9c 3b
       0.029219382 -0.016992189 0.023086265 0.004776884
000080 90 1e 44 3d 5a 53 3f 3d c6 f5 4f 3d 7b 20 1a bc
       0.04788071 0.04671035 0.050771497 -0.009407158
000090 4a 3f a4 bd 85 4f 9a 3d 62 95 39 3d 97 2f 8e bd
       -0.08019884 0.075346984 0.04530848 -0.06942671
0000a0 4e 58 5f bd 6e 43 80 bd a8 9c c4 3d 40 c5 a4 3c
       -0.054527573 -0.06262861 0.09600192 0.020113587
0000b0 8a 54 7e bd 2e 08 54 3d c3 a3 b1 3d 46 0c 01 3c
       -0.06209234 0.051765613 0.08673813 0.007876461
0000c0 a2 cc 2f 3d 34 f8 ba bd 25 f5 bb bd 13 67 ed 3c
       0.042919762 -0.09129372 -0.09177617 0.028979814
0000d0 d4 39 e7 bc 2e a0 6a bd bf 3b 83 bd 9d d2 92 bd
       -0.028225817 -0.057281666 -0.0640788 -0.071690775
0000e0 1d a2 4a bd d9 da 58 bd 5e bb 6c bd 16 31 ce 3a
       -0.04947101 -0.052943084 -0.057795875 0.0015731181
0000f0 ef 8b ab bc f7 cb 91 3c 9b c8 82 3d 82 bf ac bd
       -0.020940749 0.017797453 0.06385919 -0.08434965
000100 f6 94 7b 3b 4f 60 86 bc 86 44 72 bc 5a 0f 0e be
       0.0038388348 -0.016403345 -0.014786845 -0.13873044
000110 41 fb b0 bd 7e bb a8 3d 3e 0b 8b 3d 15 8f ca bd
       -0.08641673 0.08238886 0.06789254 -0.09890572
000120 03 ba e2 3b 5c 8c 9d 3d 89 b4 67 bc dd 70 9a 3c
       0.006919147 0.07692787 -0.014142164 0.018852646
000130 1a b0 76 3d e6 ec 87 3b 79 83 47 3d f3 01 88 bd
       0.060226537 0.0041481135 0.048709366 -0.06640997
000140 e9 eb 51 3c 8c 52 af 3c 2e c6 e6 bd 08 c8 88 bd
       0.012812593 0.021401666 -0.112682685 -0.06678778
000150 4a 6c f9 3c 2e 5d 5e 3d af 34 26 bd e2 92 4d 3d
       0.030447144 0.05428808 -0.040577587 0.050188906
000160 fa aa 97 bd 68 90 71 3d a9 60 20 bd 7c 54 14 3c
       -0.07405658 0.058975607 -0.039154682 0.009053346
000170 c6 95 70 3c 88 6a cb bd 16 46 ef ba 09 f1 d3 3d
       0.014684146 -0.099324286 -0.001825514 0.10348708
000180 44 37 d2 3a f5 26 89 bb ce ba 37 3d 03 f9 b7 bc
       0.0016038199 -0.0041855522 0.044855885 -0.022457605
000190 e3 f7 15 bb 59 a1 3a 3d d6 4c 8a 3d 81 0e fb bc
       -0.0022883348 0.04556403 0.067529365 -0.030646564
0001a0 47 20 5b bd 92 27 94 3d cf 2d fc 3c 79 1a b0 3c
       -0.05349758 0.0723411 0.030783562 0.021496998
0001b0 69 76 c0 3d 4d e5 8d bb 11 94 7f 3a 2c cd cd 3d
       0.09397585 -0.0043303133 0.00097495416 0.10048899
0001c0 8d fe 6a bd d6 c4 64 3d a7 eb 8e 3d 66 db af bd
       -0.057371665 0.05585178 0.06978541 -0.08586769
0001d0 8f 9c 8a bc 81 50 de 3d 35 6c 03 bd d9 0e 9a 3c
       -0.016920356 0.10855199 -0.032085616 0.018805908
0001e0 f9 bc 5e 3d 5e ad e9 bd dd f0 70 3c b9 65 31 bc
       0.054379437 -0.1141002 0.014705864 -0.010827475
0001f0 78 a1 24 3d e9 55 a7 bc 64 ca 99 3d f7 db ae bd
       0.04019305 -0.020426707 0.07509306 -0.08538049
000200 08 2b f1 3d 15 6e 98 3c 78 bd 76 bd fb c8 75 3d
       0.11775786 0.018607179 -0.060239285 0.060006123
000210 f4 8b ea bd ea cb 93 bc 37 0b cc 3d 55 da b3 bd
       -0.11452475 -0.01804157 0.099630766 -0.08781878
000220 7f e9 76 3d c2 7c 35 bd 31 1c ef bd 51 f4 9f bc
       0.060281273 -0.04430843 -0.11675299 -0.019525679
000230 5c f0 cb bd fa b2 c9 bc bd c9 52 3d 59 d4 4a bc
       -0.09957954 -0.024621475 0.051461924 -0.012379729
000240 25 2f 2a 3d 46 63 8f bc d3 22 a7 3c 38 ea 5e bc
       0.041548867 -0.017503392 0.020402348 -0.013605647
000250 78 d5 25 bc fc 7b 95 3d 14 39 93 3d 9d 99 41 3a
       -0.010121696 0.07299039 0.07188621 0.0007385256
000260 cc e0 80 3d 19 5c 66 bc e0 63 21 3e f0 fc ff bb
       0.062928766 -0.014060044 0.15760756 -0.007812135
000270 38 ea 1c 3d a4 0b a1 bb 58 62 db bc 19 14 a0 3d
       0.038309306 -0.0049147177 -0.026780292 0.07816333
000280 0c 18 b2 3c 5a d4 42 3d a7 74 82 3b 43 71 91 bc
       0.021739982 0.047565795 0.003981191 -0.017754203
000290 00 39 d0 bd 33 a2 2c 3d ce 22 f5 3c 5c 2d 99 bd
       -0.10167122 0.042146873 0.029923823 -0.07479355
0002a0 59 8b 1e 3e ca 76 7b 3d 17 4c fc 3c 17 dd 8c 3c
       0.15482844 0.061392583 0.030798001 0.017195268
0002b0 3e a9 62 3d 56 22 c0 3d e0 ba 15 3d 6b dd 32 bc
       0.055337183 0.09381549 0.03655517 -0.010917048
0002c0 fc eb 91 3c c3 99 92 bd 44 1a 90 3d 69 17 bb bb
       0.017812721 -0.07158234 0.0703626 -0.005709578
0002d0 96 68 6e bd 4b 06 bd bb ae 94 a3 3d 99 8d b2 bd
       -0.05820521 -0.0057685724 0.07987343 -0.08718414
0002e0 8f cf 0d be 63 2f 50 3d e2 19 18 bc 22 47 8a 3c
       -0.13848709 0.05082644 -0.009283515 0.016879622
0002f0 43 f1 25 bd 1d 13 b6 3d 86 77 47 bc 7a 51 ef 3d
       -0.04051329 0.08890364 -0.012174493 0.11685462
000300 02 df 87 bb 1b 0a fc 3b 96 9c 96 39 14 04 cd bd
       -0.0041464576 0.0076916344 0.00028726895 -0.100105435
000310 1b b4 0e 3c 46 bb 70 3d 86 72 c3 3d be 95 b1 bc
       0.008709933 0.058772348 0.09543328 -0.021677848
000320 75 e1 9e 3c 96 f1 21 3d ab 8a ad 3d 7a 5e 24 3d
       0.019394616 0.039537035 0.084737144 0.040129162
000330 ea ef a4 3d af 31 ed 3b eb ca f2 bc ff 2a a4 3c
       0.080535725 0.0072385888 -0.029637774 0.020040033
000340 a4 1a a9 3d 19 ff e3 3a fd 2f 27 3c b3 6a 5c 3b
       0.082570344 0.0017394751 0.010204312 0.0033632934
000350 f1 75 37 bd 95 b0 80 3c 59 a3 e7 bc 45 3d 23 bd
       -0.044790212 0.0157092 -0.028276132 -0.039853353
000360 9b 59 a7 bd a5 c0 5e 3c ba b0 72 3d eb 37 06 be
       -0.08171388 0.013595735 0.05925057 -0.13107269
000370 4d fd 69 bd e7 cd 0c bd 75 dd e6 b8 4c b5 52 bc
       -0.057126332 -0.03437605 -0.00011008504 -0.012860607
000380 55 f9 22 3d d6 0f 3e bd 12 7f ab bc 8a 25 e8 3c
       0.039788563 -0.04640182 -0.020934615 0.028338213
000390 2b 14 12 3a 91 e5 bf 3d 55 29 72 bd f5 a0 8e bd
       0.0005572463 0.09369958 -0.05912145 -0.06964294
0003a0 58 6b f2 bc 4a d3 1c bd 00 f6 4a bd 3c 2a 77 3b
       -0.029592201 -0.03828744 -0.04955101 0.0037714383
0003b0 d5 99 cf 3d 8e 17 b8 bc e5 bd 8b bd 43 c0 02 be
       0.10136763 -0.02247217 -0.06823329 -0.12768655
0003c0 bb 01 f0 3d 86 72 d2 3d f7 18 84 3d 30 9c 31 3d
       0.1171908 0.1027575 0.06450074 0.043361843
0003d0 91 f4 9c bd 20 b9 03 3d fb 50 d8 3c 63 34 13 3c
       -0.07663835 0.03215897 0.026405802 0.008984658
0003e0 99 9e 1d 3d c0 5f 38 bd c2 38 ad 3b 33 04 81 bc
       0.03848133 -0.04501319 0.005286307 -0.015749073
0003f0 85 10 45 bc 48 b7 a5 bc f7 ec 0b bd 09 41 6a bd
       -0.012027864 -0.020228997 -0.034161534 -0.05719093

network_body._body_endoder.seq_layers.0.bias f4 [128]
000000 14 01 b3 3b 2e 5b 45 3b 45 80 b1 3b 79 b3 34 3b
       0.005462775 0.0030114162 0.0054169022 0.0027572794
000010 1a be 40 3b 9e f6 39 ba e9 15 00 3b 01 00 8e 3b
       0.0029410184 -0.0007093939 0.001954431 0.0043334966
000020 91 bf f9 bb 82 66 cb ba 16 0b c6 ba 4e 58 ab ba
       -0.0076217134 -0.0015518221 -0.0015109505 -0.0013072581
000030 b3 25 5e ba 40 79 bd 3b 36 69 3a bb 26 15 96 3a
       -0.00084742456 0.0057822764 -0.0028444058 0.0011450395
000040 9b 5f 7a bb dd d4 e5 ba d4 1f c2 39 fa 4e 3c 3b
       -0.0038203958 -0.0017534752 0.00037026277 0.0028733597
000050 2c 29 d0 3b aa d5 24 bb 0e 6d 80 39 af 1b 2d bb
       0.0063525643 -0.0025151768 0.00024495315 -0.0026414206
000060 ea 72 08 3b a2 30 d0 ba 45 59 ac 3a 58 67 04 3b
       0.0020820447 -0.0015883634 0.0013149163 0.00202032
000070 c2 71 88 bb da 47 d7 b8 05 87 f7 3a 0c 08 52 bb
       -0.0041639516 -0.00010265382 0.0018884843 -0.0032048253
000080 f1 b7 68 3b 7d ac c3 3b 96 09 60 3a c8 2b 14 bb
       0.0035510028 0.00597149 0.000854635 -0.0022609103
000090 09 53 a9 3b 39 29 f4 b7 58 14 3c 3b 82 bb 36 bb
       0.0051673693 -2.9106262e-05 0.002869865 -0.002788276
0000a0 1a d6 b8 b9 d8 b3 e4 ba 3e 22 37 bb 2c 16 45 bb
       -0.00035254733 -0.0017448617 -0.0027943994 -0.003007303
0000b0 30 ed a0 3b d8 cd 9d 3a 6d 37 a3 3b e3 c3 06 bb
       0.0049110875 0.0012039496 0.0049809725 -0.0020563535
0000c0 d4 31 9f 39 3d 3f 88 3a e3 c0 29 ba 4c e3 fe 39
       0.00030363968 0.0010394823 -0.0006475581 0.00048616005
0000d0 69 98 86 3b aa 7a 06 bb 83 2b ba 3a 82 37 a2 3b
       0.004107524 -0.002051989 0.0014203641 0.0049504647
0000e0 60 fe 90 bb d7 b8 92 3b 01 ec 32 bb 00 6f 69 3b
       -0.004424855 0.004477601 -0.0027301314 0.003561914
0000f0 b2 bc 61 b9 97 cf 06 3b b3 d9 0f bb 59 02 ad 3b
       -0.00021527967 0.002057051 -0.0021949827 0.005279821
000100 8d 6a 11 b9 1a 66 04 ba ff a6 e8 3a 88 ec 88 3a
       -0.00013867971 -0.0005050615 0.0017749964 0.0010446468
000110 03 66 31 bb af 39 ab bb 68 59 99 3b 8c ac 77 39
       -0.002706886 -0.0052253823 0.0046798475 0.00023620034
000120 e1 d5 ef 3a 9d a1 91 ba 2a 19 7d bb ac 56 8e 3b
       0.0018297994 -0.0011110787 -0.0038619735 0.004343828
000130 a0 f0 bc 3a d2 1a c5 ba 8e 80 9d bb 8b fc e3 3a
       0.0014414974 -0.00150379 -0.0048065847 0.0017393989
000140 e5 33 b2 3a 54 d6 a3 ba 4d 88 2c bb db 16 7d bb
       0.0013595788 -0.0012499788 -0.0026326359 -0.003861836
000150 00 5e 41 bb 85 2a 1c bb 1c bd 1e 3b 4a c3 b6 3b
       -0.0029505491 -0.0023829055 0.0024221605 0.0055774795
000160 9e 28 f2 3b de 09 da bb 6a 42 ef 39 32 97 a3 3b
       0.007390096 -0.0066540083 0.00045635115 0.004992389
000170 8e ac 32 3a bb 92 31 3b f6 55 1a 3a 53 60 d3 3b
       0.0006815874 0.0027095515 0.0005887443 0.0064506917
000180 b2 53 7f bb bc 44 a7 bb 25 9b f1 3a ac 74 47 ba
       -0.0038959798 -0.0051046293 0.0018433077 -0.0007608633
000190 12 7d 1d bb f4 4c 7c bb a4 16 aa 3b 81 02 6e ba
       -0.0024030847 -0.0038498016 0.0051906873 -0.00090793526
0001a0 33 9c 87 bb ac d0 17 3b c1 8c 21 3b fb 1e 89 38
       -0.0041384934 0.002316515 0.0024650546 6.5384396e-05
0001b0 99 5a b2 ba 8d 7f 5e 3b 3a 15 81 ba 71 88 77 bb
       -0.0013607322 0.0033950538 -0.0009848245 -0.0037770534
0001c0 e8 41 46 3a 54 87 11 bb b8 48 76 bb ed b5 3b 3b
       0.00075629214 -0.0022205906 -0.0037579965 0.0028642372
0001d0 4d 20 94 bb dc c6 1b 3a 23 d9 fb 39 e0 83 f4 3a
       -0.004520452 0.0005942413 0.0004803623 0.0018655024
0001e0 22 32 53 3b 1d 73 92 bb 5c ee 84 3b bd aa c5 bb
       0.0032225926 -0.004469289 0.004056735 -0.0060323165
0001f0 07 52 c7 3b 51 e7 b4 bb 96 27 75 3a f4 60 f9 3b
       0.0060827765 -0.005520739 0.0009351907 0.0076104347

network_body._body_endoder.seq_layers.2.weight f4 [128, 128]
000000 87 43 32 bd ec dc 70 3d 11 db fb bd ca 27 8f bd
       -0.04352143 0.058804438 -0.12297643 -0.06990011
000010 de 57 ad 3d 8c 0f c7 bd 68 66 62 bd 0f 22 b6 3d
       0.08464025 -0.09719762 -0.055273443 0.08893215
000020 75 e0 ed bd 49 07 2d bd f0 0b d2 bb 19 fc 90 3d
       -0.116150774 -0.042243276 -0.0064101145 0.07079334
000030 65 80 47 bd 5e 96 bd bd 5e 8f c2 bd cd bf e9 3c
       -0.04870643 -0.09257196 -0.09500001 0.02853384
000040 e8 8a 07 3d fd e3 10 bd 30 a3 6e bc ff 02 35 3e
       0.033091456 -0.035373677 -0.014565274 0.17676924
000050 79 cc 2f 3d 90 41 b2 3c 4a 7d ef 3c 70 f0 0c be
       0.04291961 0.021759778 0.029234547 -0.13763595
000060 ed 20 b1 3d 71 c7 55 3c 56 cd e4 3d 95 75 a5 3c
       0.08648858 0.013048039 0.11171977 0.020197669
000070 4b a9 00 3d 3d 23 03 be 6e 0e b4 bd 74 b5 5e 3d
       0.03141145 -0.12806411 -0.08791815 0.054372266
000080 5f 46 06 3d fb 9c ab 3d af 92 cb 3d 09 8e 65 3c
       0.032781955 0.08379551 0.09940087 0.014010915
000090 7c 05 8e bc 27 fa 28 bd b9 38 61 3d 7d 03 72 3d
       -0.0173366 -0.04125419 0.054985736 0.059085358
0000a0 e0 ba 8f 3d 3c 56 4c be d1 75 45 bd d8 79 1d 3d
       0.070180655 -0.19954771 -0.04820806 0.038446277
0000b0 67 f2 a3 bd 12 67 af bc bf a1 e8 bd aa 4e ed 3d
       -0.08005219 -0.021411452 -0.113589756 0.115872696
0000c0 53 e5 87 bd c5 dd 83 bd 26 52 31 bd 3d a7 b9 3d
       -0.06635537 -0.064387836 -0.043291233 0.09065101
0000d0 4f 29 17 3e 6b 78 8e 3d 4f c7 12 3d 22 cc 43 bc
       0.14761852 0.06956562 0.035834607 -0.0119505245
0000e0 74 78 cb 3d 42 c7 ae bd ee 43 bc 3c 5d 6f 97 3c
       0.09935084 -0.08534099 0.02298161 0.01848572
0000f0 44 2a 2c 3d 41 2e 91 3d bb e6 b2 bd a9 5e c7 3c
       0.042032495 0.070889 -0.087354146 0.02433713
000100 d6 21 54 bd 07 79 4d 3d f9 6f 0c be 1e c9 c2 bd
       -0.05179008 0.05016425 -0.13714589 -0.09511016
000110 f3 f0 88 bd 7a c7 a3 bd 7e e3 37 bd 7b 94 a0 3d
       -0.066865824 -0.079970315 -0.044894688 0.078408204
000120 de 61 62 bd 7c 40 76 3d 71 89 eb bd a6 dc cb 3d
       -0.055269115 0.06012009 -0.11500824 0.09954195
000130 9d e9 04 3e b8 1d 21 be d7 d4 9d 3c 41 5d a2 3d
       0.12979741 -0.15733993 0.019266529 0.07927943
000140 24 84 e9 bb 68 e5 f7 bd 1c 76 b9 3d 00 c6 24 3d
       -0.007126348 -0.12104303 0.09055731 0.04022789
000150 1b 82 b5 bd 03 10 c3 3d fa 2e 49 3d de 44 ae bd
       -0.08862706 0.09524538 0.049117066 -0.08509229
000160 b1 cc c0 ba 0d 4d d5 bc 7f 9f 28 3e ee 24 5a 3c
       -0.001470944 -0.026037717 0.16467093 0.013314469
000170 43 c4 4e 3d 34 3e 7e 3d f4 e2 2a bc b2 43 96 bd
       0.05048014 0.06207104 -0.010430086 -0.073371306
000180 88 a9 5b bc f4 97 32 be c1 ef ed bd f7 8f 54 3c
       -0.013407119 -0.17440778 -0.11617995 0.012973777
000190 cc 43 31 3b ba 0d 60 3c 61 98 0f be 5b 7e 1d be
       0.0027048467 0.013675148 -0.14022972 -0.15380232
0001a0 e6 ef 2a 3e 84 45 52 bc ff 7b 74 3d e5 a7 a2 3d
       0.16693076 -0.012833957 0.059688564 0.079421796
0001b0 e7 98 4c bb cd 41 e7 bd 13 12 4c 3d a3 89 d4 bc
       -0.0031219067 -0.112918474 0.049821924 -0.025944537
0001c0 b4 9c 2c 3d 14 1e 97 3c c6 ff 80 be 89 8f 3d bc
       0.04214163 0.01844696 -0.2519514 -0.011569866
0001d0 0a 6f 42 3e 76 ca d6 bc b7 b9 81 3d 46 62 2e 3b
       0.1898767 -0.026219588 0.063342504 0.0026608869
0001e0 90 a4 64 3d ad b2 f5 bc 9b 66 25 3d 04 ae 2a be
       0.055821 -0.029992426 0.040381055 -0.16667944
0001f0 d6 85 25 bd e5 7e 90 3d d1 84 eb 3c ad a7 dd 3c
       -0.04041084 0.07055453 0.028749855 0.027057493
000200 7e 91 07 be 52 c6 aa bd d5 b5 82 3d 7a 8a f8 bc
       -0.13239095 -0.08338608 0.06382338 -0.030339468
000210 a8 55 f6 bd 14 6a 78 3d cc 95 03 3d bb 25 34 3d
       -0.120280564 0.06064804 0.03212528 0.043981295
000220 31 be 02 be c2 10 da bc bc f8 28 3e 0b 5a a3 bd
       -0.12767865 -0.026619319 0.16501135 -0.07976159
000230 96 ad 60 bc 6c 32 a6 3d 4c 6f 39 bd 7d 29 33 3d
       -0.013713261 0.08115086 -0.045272157 0.04374074
000240 e9 7a 40 3e ea 59 c3 3d b5 37 ea bd 8f 09 a1 bd
       0.18796887 0.09538634 -0.114364065 -0.07863151
000250 31 a4 c8 bc 2d f6 c8 3d 23 63 8f 3d ea 18 67 bc
       -0.024492355 0.09812579 0.07001331 -0.014105061
000260 e7 83 a6 3d 1a be 40 be 7c 9d 82 bd f3 58 1d be
       0.08130627 -0.18822518 -0.06377694 -0.15365963
000270 9a 52 9e bd 38 b4 46 3c 23 22 7f 3b c5 43 e9 3d
       -0.07730599 0.012127928 0.003893026 0.11389879
000280 1e 66 f8 3d 48 35 0f 3d 77 3a fb 3c 4d e6 d6 3c
       0.12128852 0.034962922 0.030667527 0.026232863
000290 db 4b 3c be 3e 2e 55 3e 75 74 a7 bc 5c c8 a4 3d
       -0.18388312 0.20818421 -0.020441273 0.08046028
0002a0 fc e1 7f bc ea 60 3a bd b1 16 8f 3d 23 f8 b6 bc
       -0.015617844 -0.04550258 0.0698675 -0.022335118
0002b0 31 5e 0a bd 5c 8f 44 bd 84 41 b4 bd 5b 17 b7 bb
       -0.033781234 -0.04798828 -0.088015586 -0.005587501
0002c0 22 dc 9f ba d1 ff 5e bd 00 16 e3 3c c7 c9 93 bd
       -0.0012196342 -0.054443184 0.027720451 -0.0721622
0002d0 92 6c c2 bd d9 95 09 3d e3 d5 1e bd f0 2b 3b bd
       -0.094933644 0.03359017 -0.038778197 -0.0456962
0002e0 1a 1a 88 3d 87 7e c1 bd ba 00 e8 3c 5e 7a 93 3d
       0.066456035 -0.09447961 0.028320659 0.07201074
0002f0 36 4b 00 3e 4f ec d8 bc e9 ce 61 3d 31 4f 19 3e
       0.1252869 -0.026479868 0.055128966 0.14971615
000300 bc d6 92 3d b8 cc c0 3d 3d 1d 94 bb 6b 99 10 3e
       0.071698636 0.09414047 -0.004520087 0.14121024
000310 7d b5 9b 3c 0c fe c3 3d 1a f4 92 bd d3 8a ac 3d
       0.019007439 0.0956994 -0.07175465 0.08424916
000320 6e f8 5e bd 9d 1c 0a bc 13 9d d8 3c 63 e0 0b be
       -0.05443614 -0.0084296735 0.026442086 -0.13659815
000330 03 5b f3 bc 4d cf ff 3c a6 87 2d 3e 8c 4a 75 3d
       -0.029706484 0.031226778 0.16946277 0.059885547
000340 5e 92 96 bd b0 91 00 3e 9a 2f 20 bd 1d 3d 30 3e
       -0.07352136 0.12555575 -0.039107896 0.17210813
000350 4a 87 ea bc cd 86 2d bd f2 23 ce 3d ae d5 59 3c
       -0.028628964 -0.042364884 0.1006545 0.013295574
000360 43 ac 29 bd dc 93 40 3d 64 14 ae bd f6 12 46 be
       -0.041424047 0.04701601 -0.08499983 -0.1934317
000370 11 a3 c0 bd 9f 49 ee bd 35 35 d8 bd 1d 27 43 3d
       -0.094061024 -0.11635136 -0.105570234 0.047644723
000380 8d b3 c1 3d 6d 0c 29 bd 42 71 88 3d 94 30 38 bd
       0.09458075 -0.041271616 0.06662227 -0.044968203
000390 a6 cc e7 3c 06 90 c0 3c 66 d8 fd bd 8d 99 94 3c
       0.028295826 0.023506176 -0.1239479 0.018139625
0003a0 65 19 99 be 90 04 95 3c fb 7e c2 bd ec 35 85 3d
       -0.29902187 0.018190652 -0.09496876 0.065044254
0003b0 44 75 b7 3d 51 89 df bc f4 a6 e5 3d 8d cc d6 bb
       0.089579135 -0.027287157 0.112134844 -0.006555146
0003c0 07 5c 23 be 5a b6 12 bd dc c5 8d 3d 56 5b 32 be
       -0.15953074 -0.035818435 0.06922504 -0.17417654
0003d0 d4 78 57 be 40 ba 82 3d 92 1e bf bd 79 49 81 bd
       -0.21042186 0.063831806 -0.09332003 -0.06312842
0003e0 4c e4 53 bd 38 7b e4 bd 6c 28 6a bd d2 31 22 3e
       -0.051731393 -0.111563146 -0.057167456 0.15839317
0003f0 c3 a8 29 3c 63 61 15 3e c4 43 ba 3d ce a7 bf bc
       0.010355177 0.14587931 0.090949565 -0.023395445

network_body._body_endoder.seq_layers.2.bias f4 [128]
000000 f2 5d 4a ba 28 98 62 bb 63 d5 6e 3b 48 10 93 bb
       -0.00077196874 -0.0034575555 0.0036443106 -0.004488025
000010 42 45 95 3a 94 12 b6 3b a5 a4 89 bb 09 ad ae bb
       0.0011388438 0.005556414 -0.0042005354 -0.005330686
000020 da df 62 bb db 0c cc 3a 52 1c 69 bb e7 9e dd 3b
       -0.003461829 0.0015567796 -0.0035569859 0.0067633274
000030 3b 26 62 3b 9f 95 11 3b 96 53 ae b9 06 d9 92 bb
       0.003450765 0.0022214425 -0.00033250143 -0.0044814376
000040 fd 7e 8e 3a c7 cc 28 ba 73 ae 74 bb b4 6b 99 3b
       0.0010871586 -0.00064392056 -0.0037335425 0.0046820287
000050 68 b5 df 3a 07 21 42 bb af 6e ca 3a 0a a8 68 ba
       0.0017067613 -0.0029621737 0.0015444363 -0.00088751374
000060 14 76 cf 3a 60 fe 52 3b cc 84 1b ba 6c 25 c8 3b
       0.0015828037 0.0032195076 -0.0005932569 0.0061079767
000070 dc d8 99 bb f9 00 80 b9 05 49 15 bb c1 af 9b 3b
       -0.004695041 -0.00024414787 -0.0022779119 0.004751176
000080 84 ca 11 3b 19 22 e8 ba b0 46 ed 3a 52 47 66 3a
       0.0022245953 -0.0017710357 0.0018102732 0.0008784431
000090 07 65 67 3b a9 da 6c bb 26 d9 f3 3a 04 81 cf 3b
       0.003530802 -0.0036141074 0.0018604144 0.0063325185
0000a0 c5 d5 e6 3a c4 d1 37 3b e9 91 cb 3b 6a e0 a2 ba
       0.0017611316 0.0028048614 0.006212462 -0.00124265
0000b0 8f d6 a8 3a 3c 72 55 39 78 12 8e bb a8 30 35 3b
       0.0012881326 0.00020355819 -0.0043356977 0.002764741
0000c0 fe 45 ce 3b 0c d8 df 3a f1 18 2f 3b 4f da e0 38
       0.006294965 0.0017077937 0.0026717747 0.000107218155
0000d0 93 3b a2 ba cd fd 80 3b 7a 8c 27 3b 41 79 46 3b
       -0.0012377374 0.0039365054 0.0025565908 0.0030284675
0000e0 51 14 b0 3b 30 14 6e 3b f2 2e 26 bb f4 dc 12 bb
       0.0053735157 0.003632795 -0.0025357571 -0.002240953
0000f0 e5 31 e5 b8 2f 50 a1 ba 68 c6 ce 3b f8 3e c8 ba
       -0.000109288645 -0.0012307222 0.006310273 -0.0015277555
000100 4d 05 10 bb 01 a1 f7 3b 6f de e2 ba 02 40 95 bb
       -0.0021975816 0.007557035 -0.0017308722 -0.0045547495
000110 8d e0 26 bb a9 b7 97 3b 64 af 6f bb 7f c1 29 3a
       -0.0025463433 0.0046300483 -0.0036573047 0.00064756715
000120 83 43 02 bb f2 d9 a4 3a db b0 88 3b ba c6 cb b9
       -0.0019876666 0.001257716 0.0041714734 -0.0003886724
000130 23 4f 80 ba 00 78 a5 3b 8a 7d 27 ba 38 ac 8b bb
       -0.000978921 0.0050497055 -0.0006389251 -0.0042624734
000140 87 f5 b5 ba 8a 2c 0a b9 b0 dd 61 ba de 92 62 bb
       -0.0013882377 -0.00013177298 -0.0008616103 -0.0034572403
000150 f8 5b 07 bb 3c 5f b5 3b 5d 59 90 bb 0d bd 02 3b
       -0.0020654183 0.0055350345 -0.004405184 0.0019949109
000160 52 38 35 bb 96 c3 49 3b 4d 20 82 3b 5d 07 bb 3a
       -0.0027651978 0.0030786744 0.0039711357 0.0014269162
000170 26 27 85 bb cb 3f e3 ba 4e 5e 98 39 a4 e1 86 39
       -0.0040635047 -0.0017337737 0.00029061962 0.00025726587
000180 2c 86 ad bb 93 e1 40 3b 67 3b bc ba 05 46 e6 3b
       -0.0052955355 0.0029431328 -0.0014360965 0.00702739
000190 ad 19 09 bb 17 cb 2a bb 94 7c 2f bb 8a 85 81 ba
       -0.0020919845 -0.0026060992 -0.0026777135 -0.0009881717
0001a0 8f c9 34 bb bd 6b c8 3b 52 ad 96 bb 71 0e aa bb
       -0.0027585959 0.006116359 -0.004598298 -0.00518971
0001b0 52 e8 13 bb 0c 30 24 bb 27 f4 72 3b 03 45 7e 3b
       -0.0022568894 -0.0025053052 0.0037071796 0.0038798458
0001c0 95 af 2f ba cf 2e a1 bb 8c c0 ba ba 57 5b d7 b9
       -0.0006701884 -0.00491891 -0.0014248057 -0.0004107605
0001d0 8d af c4 3b 26 d7 a3 3a d8 80 74 3b 6c db 17 3b
       0.0060023726 0.0012500032 0.0037308242 0.0023171557
0001e0 b6 1e 17 3b 84 c0 1a bb 25 1e f6 b9 32 52 fb 3a
       0.0023059077 -0.0023613283 -0.00046943236 0.0019174276
0001f0 dc c1 d0 3b 45 2a b1 bb 57 15 9f bb 18 8a 53 3a
       0.006370766 -0.0054066502 -0.004854839 0.0008069589
