results/reinRayLong2/ZARAgoal/ZARAgoal-52429.onnx (onnx, 309864 bytes, 15 tensors)

discrete_act_size_vector f4 [1, 2]
00000000: 0000 4040 0000 4040
3.0 3.0

network_body.observation_encoder.processors.0.conv_layers.0.weight f4 [16, 5, 8, 8]
00000000: b37d 35bd 3722 5f3c 28d4 8f3d fb85 233d
00000010: 1d9e cbbc b8f7 133d 70fc 0fbc 2af5 08bd
00000020: 8f76 bcbc 2af9 4c3d 1376 7b3d 2a56 173c
00000030: b7b4 9abd 2907 bebb c539 53bd 3850 7abb
00000040: b7d3 563b c270 43bd afa5 39bd 9a63 97bb
00000050: 1857 32bd a62d 843c af75 553c 6572 013d
00000060: 1b02 11bd e33a 8cbc a52f 17bd bc15 b83c
00000070: f8c1 f23c f977 0abd 6c6d 4dbd 5841 3cbd
00000080: 5eb3 ffbc 48d3 71bd ea04 403d 19b8 55bd
00000090: 763b 15bd 6677 fdbc 21c0 3ebd fd61 f4bc
000000a0: 8c7c 873c d959 363d 8235 04bd 534a 62bd
000000b0: a0d4 973c d2ed 463b bada d9bc 7023 d03a
000000c0: 1942 bc3c 14f5 0cbd 3966 b33c 8a8c 533b
000000d0: dbfe 453d a339 9c3c 3dd7 06bd 68cc 6fbd
000000e0: cfb3 c83c 038a 3c3d a445 33bd 1dff 50bd
000000f0: 01d1 5bbd 7ea7 83bc 5e60 27bd 29a5 b539
00000100: b3bf 59bd 6e64 65bd 87e7 65bd ebf8 ddbc
00000110: d8aa 5abc a527 f13c f74d 093d ccdd 813d
00000120: 228b 74bd 9538 66bd a588 48bd 4c80 ea3b
00000130: 475b 1ebb 286f 873d eb4a 623d 10df 113d
00000140: 0fdf 383b c978 2dbb 8b60 1bbd 798d 553d
00000150: d2f8 403d aa39 613d e9d5 55bb 9f7c 6b3d
00000160: 371c fcbc 9a8d 843c 5eb4 b9bc b7e8 1e3a
00000170: 5988 48bd 3272 3a3b ec3e 17bc 6b8c d2bc
00000180: c6ef 0fbc 215e c6bc f0f1 2c3d 837e 183c
00000190: fbe7 983a 3a63 bdbc 125f ad3c 6054 3a3d
000001a0: 9336 1fbb 4457 e7bc d75f 94bc 9c29 d33c
000001b0: 9b59 95bc 7c16 8a3d b546 653c 6a3c 903d
000001c0: 9716 2e3d 20f3 76bd 7fa5 733c 8aa0 563c
000001d0: 6cf8 053d 8db2 aa39 757c 01bd 7302 55bc
000001e0: 9716 dd3c 813b 22bb cdad 4d3d 72fe 223d
000001f0: b7ca 17bd 58a4 a2bc 6297 8cbc 1431 c2bc
00000200: 634f b53d 9b44 933b bfb8 ecbc 68ff 74bc
00000210: 9363 903c dbb1 003d dc25 963a 19d8 37bc
00000220: b672 8abb 38cc 9f3d 701d 7a3d 741c 833d
00000230: ebd1 85bb 6ebe 763d 60d1 563d 58a8 0abc
00000240: 0170 e4bb 7a20 9a3c 49ac 393d e9e1 0c3d
00000250: d05e 9bbc 5bca 7d3d a2ee 3d3c c9dc 45bc
00000260: d4b2 923d 9aa7 b03b 1761 1abc c842 a9bb
00000270: 9eba 1a3d 5dc3 e23c dc32 363d bab9 5cbc
00000280: b62b 143d 8e17 7dbc 3e70 173b 6d69 aabc
00000290: 00b6 96bc 4a1e 173d 23d2 9fbc 5f7e 8ebb
000002a0: 6068 513d 4ac0 553b 4eb4 833c 8f18 3fba
000002b0: 1f72 283a 89b6 30bd ac01 37bc f503 1e3d
000002c0: ed68 cebc b24a eebc 39cb fcba de95 e8bb
000002d0: 986a 61bc 9815 c03c 6412 19bd 65ba d5bc
000002e0: fd9f 7e3d bde8 efbb 7fc3 83bc f354 163d
000002f0: ed77 8ebc 9616 da3b cb35 e3bc 254d 333d
00000300: 9887 193d 90d7 69bc f4a5 113d cd2d 0fbd
00000310: c776 883d 38f2 cdbc 113c ed3c ce59 113d
00000320: 8e2d babc 6c88 843d a1fd ae3c dbf3 7c3d
00000330: 4545 9a3d b8dc 873d 30cc 793d 96c7 093d
00000340: a29d a7bc 5552 12bd 2cb0 f23a c7e3 d7bc
00000350: 09db 913c d2a5 b4bc 5d65 283d 8614 09bd
00000360: 2b18 20bd ee2f 5b3d e60a b13c 43be 223d
00000370: e4cf 1f3d 27fa 5a3c 9cf7 213d e842 a0bc
00000380: 472b 663d 5964 7c3d 5918 703d e70b b2bb
00000390: bfe2 023c ba4e 36bd 2e5e 5a3d 74aa f83c
000003a0: ed18 8a3c b7b2 a13c 4201 f93b a5dd 5bbc
000003b0: f87f d3bb 22aa 603d dbeb 503c dc66 6f3d
000003c0: ee3c c93b 3d8e a23c 8545 243d 7cf0 313d
000003d0: 29e8 a7bc 354c df3c f21b 573d 5cdc 943a
000003e0: 4ebe 893d 8c78 883d f748 07bd 6a2e 803d
000003f0: 9f19 f93c 3570 58bc 9e55 383d 667b 1fbd
-0.04430933 0.013618997 0.070228875 0.039922696 -0.024855668 0.036124915 -0.008788213 -0.03343693
-0.023005752 0.05004231 0.0613919 0.009236852 -0.07554 -0.0057991934 -0.051568765 -0.0038194787
0.003278 -0.047714956 -0.045324024 -0.0046200277 -0.04354009 0.016135048 0.013028546 0.031603236
-0.0354024 -0.017117923 -0.03691067 0.022471301 0.029633507 -0.03380582 -0.05015318 -0.045960754
-0.031213459 -0.059039384 0.046879686 -0.052177522 -0.03643366 -0.030940723 -0.046569947 -0.02983188
0.01653888 0.04451928 -0.03227759 -0.055246662 0.018534005 0.0030354154 -0.026593555 0.0015879702
0.022980737 -0.034413412 0.02189933 0.0032279813 0.048338752 0.019070452 -0.03292011 -0.058544546
0.024499802 0.046030056 -0.043767586 -0.051024545 -0.05366612 -0.016071077 -0.040863387 0.00034646064
-0.053161334 -0.05600398 -0.056129005 -0.027096232 -0.013346396 0.02943785 0.03352162 0.063411325
-0.059703 -0.056206305 -0.04895844 0.0071564075 -0.0024163292 0.06612998 0.05524723 0.03561312
0.0028209125 -0.0026469699 -0.037933867 0.052136872 0.047112294 0.054986633 -0.003262872 0.057491895
-0.030775173 0.016180802 -0.022669014 0.0006061899 -0.048958156 0.0028449413 -0.00923131 -0.025701722
-0.008785194 -0.024214806 0.042222917 0.0093075065 0.0011665815 -0.023118604 0.021163497 0.045490623
-0.0024294003 -0.028239854 -0.018112106 0.025776677 -0.018231204 0.0674257 0.013993909 0.07042773
0.042502012 -0.060290456 0.014871 0.013099799 0.032707617 0.00032557957 -0.031612832 -0.013001072
0.02698831 -0.0024754705 0.050214577 0.03979344 -0.03705856 -0.019853756 -0.017162029 -0.023705043
0.088530324 0.0044942624 -0.028896688 -0.014953472 0.017625606 0.031419616 0.0011455375 -0.011220955
-0.0042251004 0.078026235 0.06106323 0.064019114 -0.004083862 0.0602402 0.05244577 -0.008462988
-0.0069713597 0.018814314 0.04533032 0.034395132 -0.018966109 0.06196056 0.011592539 -0.012076565
0.07163015 0.0053910734 -0.009422562 -0.0051654316 0.03777563 0.027681047 0.044482097 -0.013472015
0.0361745 -0.01544751 0.0023107673 -0.020802224 -0.018397331 0.03689412 -0.01950938 -0.0043485607
0.05112493 0.0032615834 0.016077187 -0.00072897313 0.0006425697 -0.04314283 -0.011169832 0.038577992
-0.025196517 -0.029088352 -0.0019286639 -0.0070979437 -0.013758324 0.023447797 -0.037371054 -0.026089856
0.062164295 -0.0073214457 -0.01608443 0.036702108 -0.01739117 0.0066555245 -0.027735611 0.043774743
0.037482828 -0.0142725855 0.035558656 -0.03495579 0.0666328 -0.025139913 0.028959306 0.035486035
-0.0227268 0.06471333 0.021361174 0.061755996 0.07532743 0.06633896 0.060985744 0.033637606
-0.020460907 -0.03572305 0.0018515638 -0.02635373 0.01780464 -0.022051726 0.041112293 -0.03346684
-0.03908555 0.053512506 0.021611642 0.03973223 0.03901662 0.013365305 0.03954278 -0.019563153
0.056193616 0.061619136 0.05861697 -0.005433548 0.007988631 -0.044508673 0.053312473 0.030354716
0.016857589 0.019738538 0.007599027 -0.013419543 -0.006454464 0.05484975 0.012751545 0.058447704
0.0061412966 0.019843215 0.04010536 0.043442234 -0.020496445 0.027258018 0.052516885 0.0011357176
0.06725751 0.066636175 -0.03302857 0.06258853 0.030407725 -0.013210346 0.045003526 -0.03893604

network_body.observation_encoder.processors.0.conv_layers.0.bias f4 [16]
00000000: 18d0 413d d598 87bc c080 253b 3d41 2d3d
00000010: bfb7 2a3d b0d7 ff3b ec22 a2bc 37b1 713c
00000020: 1479 853d 57e5 dcbc f7f8 5d3d 90e8 56bb
00000030: 7ba5 253d a809 5e3c 1765 ca3a ad92 ca3c
0.047317594 -0.016552368 0.0025253743 0.042298544 0.04167914 0.0078076944 -0.019792043 0.014751724
0.065172344 -0.026964827 0.05419251 -0.0032792427 0.040441018 0.013552107 0.0015441504 0.024728144

network_body.observation_encoder.processors.0.conv_layers.2.weight f4 [32, 16, 4, 4]
00000000: 264d dabc 9d18 4d3b 3316 963b 2104 2fbc
00000010: a5e7 4f3d d1e9 be3c a3fa f8bc b974 68bb
00000020: eddc d13c 1d26 ab3c e130 d13c 9ef8 773b
00000030: 4b81 2bbd a73d 293c 0001 243d dd67 79bc
00000040: 00ca 8dbc 150b 093d 76d5 00bd b13a 64bd
00000050: 4100 12bd 0c91 39bd 1740 bf3b a76e beb9
00000060: 55c4 cfbc cdfc 573d bd66 35bd 8dff 32bd
00000070: e097 1f3c ce39 2e3d 6785 57bd e55c 653d
00000080: dd05 71bc 2fb8 9bbc 8c43 53bd ce0c 113d
00000090: 1998 19bd 87e0 31bd 25ad 7fbc 5d57 0bbd
000000a0: 1daf 353d af7c 773c edb1 893d 9efa 95b8
000000b0: b8ad 2f3d d593 e5bc 5634 01bd a880 d43b
000000c0: f167 1c3d 4ae0 8d3d 8fd3 51bd 4285 513d
000000d0: 448c 3c3d 946b 093d a197 0c3d b38b debc
000000e0: 59cf cf3c d175 b93c bbc4 e7bc 3ba2 64bd
000000f0: c053 903d e9aa 5dbc 6b04 37bc 577d 473d
00000100: d01d ea3c 2c0d 13bd fa19 403d d186 013d
00000110: 7d01 533d 240d 983c a049 9d3d a25b a5bb
00000120: e026 123d 76ed 2b3d be19 6d3c de81 1f3d
00000130: 1127 e83c 9e3a 29bd 8a24 863d 8731 933c
00000140: 4f36 333d d709 47bd 765c 083d eb4b 59bd
00000150: 71f6 b7b9 f52b 1d3d d8b4 38bd 81c1 783d
00000160: ec2f d13b 246e 3c3d 5999 133d 4b78 2abc
00000170: 72d1 b9bc 0482 42bd 624b 01bc cd4f 8d3c
00000180: a672 983c 2923 7abd 30b0 4b3d c478 453c
00000190: 17fe c0bc 42ef 0b3d c03d 96bd a33b 393d
000001a0: ddab 4c3d 1fde 1cbd b78c bf3c 855f 213d
000001b0: c550 e8bc c9e3 803c 9f12 db3c dc45 4e3b
000001c0: 98fa 5a3d bea2 bc3c 0414 43bc ec40 3d3d
000001d0: b020 25bd 38ea 92bc 6470 08bd a05d 183d
000001e0: 7bf7 713d 52e2 17bd b001 6d3d c1e7 ce3c
000001f0: f177 3dbd e2f5 963c defe e0bc 75da 143d
00000200: 11ba 28bd 4f42 7c3d ee5a 29bd 5dcb 3b3d
00000210: 1753 843d 49bf 043d 5a0e e8bb 603a cdbb
00000220: d8f2 433d e1f6 27bd 0bea 12bc 8cb9 f5ba
00000230: 0ebd b23c 6381 abbc f8ec 233c baa9 a4bc
00000240: 20ff 9dbc e789 eabc d21a e9bc 4467 52bd
00000250: a973 dcbc 58e3 203b cd59 853d 140e 853d
00000260: 5f7f e33c b434 47bd 6cee 773d def6 f3bc
00000270: 01e6 2fbb f3b6 593d ea14 42bd 47e4 5abc
00000280: ce17 363d 6ae0 cebc c66c ec3b 7bac 883d
00000290: 336a 2a3c cc64 533d a637 42bc 72b8 c5bc
000002a0: bc71 e03c bc3e a8bc a941 ddbc 228a f7bc
000002b0: 636d e03c d798 863d c436 753d 91cc 063c
000002c0: 6e14 aa3d a57b 7dbc 2bf3 5639 dbb8 263d
000002d0: d47b debc ea0e 363d 681e 3a3c bf53 6abc
000002e0: 9d00 513c 0ad6 843d 6771 aebb 34ad e4bb
000002f0: 40c2 623d f6da 3abd 2b17 593d 1d69 5e3d
00000300: 3e74 9abb 170a bdbc bf29 da3c 31d0 403c
00000310: 1491 a4bc 5894 07bd 6bf4 24bd 1023 003d
00000320: 467b 4b3d 3619 603b a6db f9bc 761d 60bb
00000330: 0354 5a3c 797f 803d baae 05bc 246a 05bd
00000340: 7be6 f0bc d2b1 0e3d 0a92 54bd 9c17 32bd
00000350: 33d3 04bd 62df 4b3d a619 8abd 054a 283c
00000360: 3552 8fbc 1f11 1f3d 1c43 253c 1a96 5c3b
00000370: d911 3c3c 0dd9 2d3d 11b4 033d bf80 f4bc
00000380: 970e 2ebc 7047 dc3a caad 3c3d afb8 173d
00000390: ac50 0c3d 38e6 673d 0035 38bd 5f64 4d3d
000003a0: 52c3 f3bc 1561 5f3b 3964 9f3b 07a6 303d
000003b0: 8cd3 3c3d a27f 9e3c 741d 28bd adbd dfbb
000003c0: cfbc c7bb 05c2 663d 3797 823d 3546 023d
000003d0: 64ab 67bb 382d f5bc bd78 02bd e445 a7bc
000003e0: dbe0 b8bb 7023 663c 79b1 863d e61d 2d3b
000003f0: 05f4 97ba bb9c 06bd 07cb 013d 8cf4 7f3c
-0.026648115 0.0031295188 0.004580283 -0.010682137 0.050758023 0.023304852 -0.03039295 -0.0035469963
0.025618041 0.020892197 0.025536003 0.0037837396 -0.04187135 0.0103296405 0.040040016 -0.015222517
-0.017308235 0.033457834 -0.031453572 -0.055720035 -0.035644773 -0.045304343 0.0058364975 -0.00036322066
-0.025362173 0.052731324 -0.044287432 -0.043700743 0.0097408 0.042535596 -0.052617457 0.055996794
-0.014710871 -0.019008724 -0.05157809 0.035412602 -0.037498567 -0.043427017 -0.015605246 -0.034018863
0.044356454 0.0151054105 0.0672339 -7.151555e-05 0.04289028 -0.028024593 -0.031544052 0.0064850636
0.038185064 0.06927545 -0.05122715 0.051152475 0.046032205 0.03354986 0.034324292 -0.027166223
0.025367426 0.022639187 -0.02829205 -0.055818778 0.07047224 -0.013529518 -0.011170487 0.048703518
0.028578669 -0.035901234 0.046899773 0.03162271 0.05151509 0.018560953 0.076800585 -0.005046324
0.035681605 0.041974507 0.014471469 0.03894221 0.02833894 -0.041315667 0.06549938 0.017967952
0.043752965 -0.04859337 0.033291303 -0.053050917 -0.00035088093 0.038372 -0.04509434 0.060731415
0.0063838866 0.046003476 0.036034916 -0.010404657 -0.02268288 -0.047487274 -0.007891508 0.017249966
0.018609356 -0.061068688 0.049728572 0.012052719 -0.02355866 0.03416372 -0.07335997 0.04522289
0.04996859 -0.03829777 0.023382528 0.039397735 -0.028358826 0.015733616 0.026742278 0.0031474745
0.05346164 0.02302682 -0.011906628 0.046204492 -0.040314376 -0.01793395 -0.03331031 0.037198663
0.059073906 -0.03708107 0.057862937 0.025256993 -0.046256963 0.018427793 -0.02746528 0.03634115
-0.04119307 0.061586674 -0.041346483 0.04584824 0.06461161 0.032408986 -0.007081789 -0.0062630624
0.047839016 -0.041006926 -0.008966933 -0.0018747314 0.021818664 -0.02093572 0.010005228 -0.020100463
-0.019286692 -0.02863021 -0.028455172 -0.051368013 -0.02691062 0.002454957 0.06511269 0.06496826
0.027770696 -0.048634246 0.06053011 -0.029780801 -0.0026839974 0.05315299 -0.047383226 -0.01336009
0.044456296 -0.025253493 0.0072151152 0.06673523 0.010401296 0.0516098 -0.011854088 -0.024135802
0.027397983 -0.020537727 -0.027008848 -0.030217234 0.02739591 0.06572121 0.05986668 0.008227483
0.08304678 -0.015471374 0.00020499217 0.040703636 -0.027158655 0.044447817 0.0113597885 -0.014302193
0.012756494 0.06486137 -0.005323577 -0.0069786552 0.055361032 -0.045618974 0.05300061 0.054299463
-0.004713564 -0.0230761 0.026631234 0.011768387 -0.02008871 -0.033100456 -0.040272158 0.03128344
0.04967811 0.0034194714 -0.030500244 -0.0034197248 0.013325694 0.062743135 -0.008159334 -0.032571927
-0.029406777 0.03483755 -0.051897086 -0.043479547 -0.032427978 0.04977358 -0.06743173 0.010271554
-0.017495254 0.038834687 0.010086801 0.0033658803 0.011478865 0.042443324 0.032154147 -0.029846547
-0.010623596 0.0016805958 0.046064176 0.037041362 0.034256622 0.056616038 -0.04497242 0.05014455
-0.029756222 0.0034084965 0.0048642424 0.043127086 0.046100184 0.01934797 -0.041043714 -0.006828031
-0.006095506 0.056337375 0.06376498 0.031805236 -0.003534996 -0.029928789 -0.031853426 -0.020419069
-0.0056420392 0.014046535 0.06576819 0.0026415526 -0.0011593109 -0.032864314 0.031687763 0.015622269

network_body.observation_encoder.processors.0.conv_layers.2.bias f4 [32]
00000000: c55b 66bd 1d2e 243d 4a71 ec3c 4166 45bd
00000010: 2862 0bbd cd07 9f3c d825 513c fec7 853c
00000020: 4ad4 3dbd 769a 1dbd 8464 8c3d 8565 143b
00000030: b682 2e3d e113 83bc fd5d 453d e361 913d
00000040: 323d ff3c e714 863d 305c 93bc f0b8 ddbc
00000050: f885 803d a7ac 073d aa47 9b3d 76e1 9a3c
00000060: bd2a 6a3d 6860 51bd d0a3 193b 8677 4a3d
00000070: ba07 843d e49f 733d 9d02 013d f3bd 403d
-0.056239862 0.04008304 0.028862614 -0.04819322 -0.034029156 0.0194129 0.01276537 0.016330715
-0.046345033 -0.038477384 0.06855109 0.0022643518 0.042605124 -0.01600069 0.048185337 0.070987485
0.03115711 0.065469556 -0.017988294 -0.027065724 0.062755525 0.03312364 0.07582028 0.018906336
0.057169665 -0.05111733 0.0023443587 0.049430393 0.06446786 0.059478655 0.031496633 0.04705615

network_body.observation_encoder.processors.0.dense.0.weight f4 [128, 32]
00000000: 9e27 83be 8f21 08bf 31dd c8be cda1 813e
00000010: e4f6 f5be 89e1 d93d 64b9 493d aa69 c5bd
00000020: 8cdd 1d3c 1c90 603e a2e7 ebbd 7d8e efbe
00000030: 0ab4 f9bd 457f dfbd 5dd9 303d e175 a43d
00000040: 5d78 fd3e d2e5 33be f258 f53d 28ae 62be
00000050: 1e40 18bc 7660 0f3e f9a7 f13e d89e ab3d
00000060: 851e 963e 4a32 b73c 9a04 0b3f 9a73 3f3e
00000070: b989 ecbd 0cd5 24be 9282 d6bd f39d 23be
00000080: 643f 2d3d e684 a03d 549b 3a3e abdb 253e
00000090: 68cb 403e 5fed f33e 91f5 4ebe ff09 c53e
000000a0: 7943 84be 7c6d c1bc 907c 48be 7ecd 11be
000000b0: e50d 523e f8ee 3e3d c50d c5be 4cb0 0fbe
000000c0: 37e3 8a3d 4963 8a3d b0e3 d3bd 40a1 abbd
000000d0: 9311 803e 0b3b 223e b5b5 89be d766 c33d
000000e0: bd1a 523e 4c60 3c3e 61d6 49be dccf 3d3d
000000f0: e786 0fbe 7bcf 23be 2f59 a43d 669d 9e3d
00000100: 89d4 513e ff35 c53d e4a4 38be 6029 8bbe
00000110: c82d 503e 61cc eebc 0312 d3bd 70a0 f23d
00000120: 4e73 f13e 8991 b53e 4bd6 33be a5a3 adbe
00000130: a83e 4b3b 614b 82bd 7f8f 823d e360 373e
00000140: 623b 43be 6a41 3c3e 5291 6d3e 34ae 12bd
00000150: 065d 58be f742 df3c 673d e03e b258 1abc
00000160: 17d8 2e3e ca05 7d3c 39dd 6bbe 53af 81be
00000170: a844 85be 05a0 95bd df70 823e 906e c1bd
00000180: 1053 873e f158 2d3e 604b b0be 61f0 993d
00000190: 50ce 6cbe afcb f2be 8204 e0bc cee7 143e
000001a0: 5b44 02bd 6398 133e 902f 81bc ecac 43be
000001b0: 3fbe ba3e 10c0 8d3d 9efa 80bd 956f 063c
000001c0: a1e8 7e3e d07d 06bf af16 90ba 7656 b03e
000001d0: d2cf 92be 3a40 043f f8db 3ebd db7b 12be
000001e0: e380 603e 6f9f ce3e e5ff e2bd 6945 f4bd
000001f0: b6ca eb3e 8c6b db3b 4c18 913e c412 19bd
00000200: 86f7 7abe 80b1 a23e d4f2 e6bd 0d45 dabb
00000210: 85bc 38be 840e d83e f561 7d3e 0673 1e3e
00000220: 39d5 563e 76ee 913d 84dc f9bd a480 373e
00000230: fea3 91be 5aa5 d6be 5b3d 1d3e 14d7 743e
00000240: a48a d5be dcdb 843e a94c 2cbd 865f 3cbd
00000250: 33c8 523e 539c fbbd d66b 2cbd 1165 1e3e
00000260: 090c 5e3d b8df d53e 330f c2be c6fc 283e
00000270: ff92 8b3e 1679 a03e 2818 1e3d b702 35be
00000280: 1437 383e e871 c13e cb24 c6bd f2c0 a23d
00000290: c520 75be bcc9 f1be 1955 133e c968 f73c
000002a0: 1042 363d 8261 263c 0b9c 253e cadd d6bc
000002b0: d86b 06be a809 403e 6cfa c73e f5b3 153e
000002c0: 7123 cfbd 4f4f ee3c d46e 0cbc 7213 9dbd
000002d0: 8f3b bb3d 2127 81be 50df aabd 2508 093e
000002e0: ad25 17be 186d abbe ec2e fa3d 3a3f 4e3e
000002f0: 47d9 c73e eaff fd3e 4d36 b63d f3b1 c1bd
00000300: 7628 f73d c0af 2abf 4c02 f6be 0fec 243e
00000310: 6431 543e 6ba7 173d bba2 e73d a1ba 87bc
00000320: 7e55 363d 51fa 01be 76f9 343e 4071 babc
00000330: 9d76 88be 21d8 e33d 5ee6 903b bd51 803e
00000340: 5def b33e 8d00 24bd 39e7 c93d ae9e 4cbe
00000350: 9d68 3dbe a7cf dc3d e5bc 94be ab09 bebe
00000360: a992 423d e921 15bc c2f3 ef3d bafa a6be
00000370: 7ff5 ba3e 2f3b 10bd 3f70 62be 72db 233d
00000380: 283d 343e 6a29 883d 1f94 903e 4098 c2be
00000390: c599 753e e1c3 893e e4c0 81be ecaf 1c3f
000003a0: e102 8a3b abaa 843d b4d6 033d d1a9 65bd
000003b0: eaff dbbd a2f9 15be dee0 e4bd 9225 a3be
000003c0: da34 8abd 0283 2f3d f830 b63d 54a9 9db9
000003d0: 525f af3e fbc5 903e 1b04 b4bd 765f 0b3d
000003e0: 8780 01bf dc45 0c3e b194 103f 928f 1f3d
000003f0: fc37 873e 80f3 aa3e 2246 46be df27 d5be
-0.25616163 -0.53176206 -0.39231256 0.25318757 -0.48039925 0.106387205 0.049249068 -0.096392944
0.00963534 0.21929973 -0.1151879 -0.46788397 -0.12192543 -0.109129466 0.043176044 0.08030296
0.49505892 -0.17568138 0.119798556 -0.22136748 -0.0092926305 0.1400164 0.47198465 0.083799064
0.2932016 0.022362847 0.54303896 0.18696442 -0.11549706 -0.16096896 -0.10474123 -0.15978222
0.042296782 0.07837848 0.18223315 0.16197078 0.18827593 0.47642037 -0.20210864 0.3848419
-0.25832728 -0.023611777 -0.19578767 -0.14238545 0.20513113 0.046614617 -0.38487068 -0.14032096
0.06781619 0.067572184 -0.10346162 -0.08380365 0.25013408 0.15842836 -0.26896444 0.095410995
0.20518012 0.1839611 -0.19710685 0.04634081 -0.14016305 -0.15997116 0.08024823 0.07744865
0.20491232 0.096294396 -0.18031651 -0.27180004 0.20329964 -0.02915019 -0.1030617 0.11847007
0.47158283 0.35462597 -0.17562215 -0.33913913 0.0031012688 -0.06362034 0.06375026 0.17908053
-0.19065621 0.18384328 0.23199967 -0.035810664 -0.21129236 0.027253611 0.43796846 -0.009420561
0.17074619 0.015443275 -0.23033608 -0.25329074 -0.26028943 -0.07305912 0.2547674 -0.09444916
0.2643056 0.1692846 -0.34432507 0.07516552 -0.23125577 -0.47421023 -0.0273459 0.14541551
-0.03180347 0.144136 -0.01576975 -0.19108933 0.3647327 0.06921399 -0.062978014 0.008205314
0.24893428 -0.52535725 -0.0010993088 0.34440964 -0.2867418 0.516605 -0.046596497 -0.1430506
0.21924166 0.40356013 -0.11083964 -0.119273014 0.46053094 0.00669617 0.2833885 -0.037371412
-0.24508485 0.31776047 -0.112767845 -0.0066610635 -0.18040664 0.42198575 0.24744399 0.15473565
0.20979775 0.07125561 -0.12200263 0.17920166 -0.2844543 -0.41923028 0.15355437 0.23910171
-0.41707337 0.2594899 -0.042065296 -0.045989536 0.20584182 -0.12285676 -0.042095028 0.15468241
0.054210696 0.41772246 -0.3790222 0.16502675 0.27260587 0.3134238 0.038597256 -0.17676817
0.1798976 0.37782216 -0.096749865 0.07946958 -0.23938282 -0.47224224 0.14387931 0.030201333
0.044496596 0.010155084 0.16172807 -0.026228804 -0.13127077 0.18753684 0.39058244 0.1461943
-0.10114182 0.029090552 -0.008571345 -0.076697245 0.09142219 -0.25225165 -0.08343375 0.13382013
-0.14760466 -0.3348167 0.12215981 0.20141307 0.39032957 0.4960931 0.08897076 -0.09457769
0.12068264 -0.66674423 -0.48048627 0.16105674 0.20721966 0.037024897 0.11310335 -0.016568484
0.044515125 -0.12693144 0.17673287 -0.02275908 -0.26652995 0.11125208 0.004421993 0.2506236
0.35143557 -0.040039588 0.09858555 -0.19982406 -0.18496938 0.10781794 -0.29050365 -0.3711675
0.047503147 -0.009102323 0.11716415 -0.32613164 0.36515424 -0.035212692 -0.22113131 0.0400042
0.17601454 0.06648524 0.28238007 -0.38006783 0.2398444 0.26907256 -0.25342476 0.61205935
0.004211769 0.06477865 0.03218718 -0.056070153 -0.10742171 -0.14646009 -0.111757025 -0.318646
-0.06748362 0.04284955 0.08896059 -0.00030071533 0.3425241 0.28276047 -0.087898456 0.034026586
-0.5058674 0.13698524 0.56476885 0.03895528 0.264099 0.333889 -0.19362691 -0.41631982

network_body.observation_encoder.processors.0.dense.0.bias f4 [128]
00000000: ff4e d53c 7b2c b93c b089 3a3c 5136 4e3c
00000010: b9df 1ebc 9463 8c3c 49b5 2c3a ee3c d63c
00000020: a03f 743a 6605 8d3c 023b 873c ded5 f5b9
00000030: 1da7 c23c 3109 a63b bb9d 383c cf3b 763a
00000040: d4f9 27bb d696 6d39 805b 323c 56f0 dd3c
00000050: 2c00 a43b 7bf5 f239 51f2 a83b 4892 4a3c
00000060: f5b0 ff3c da84 6d3b 54db 07bb 9bd4 083c
00000070: e50a a13c 8192 96bb 4087 523b 5342 99bb
00000080: 7a71 cb3c 1d11 5e3c b09a 5db9 9787 a93c
00000090: 280d 32bc 9a56 203c b849 4fbb 7199 263c
000000a0: 6c8c 783c 7848 0fbc fbe7 d6bb 5179 c13b
000000b0: fffa 493c d32c 383c 449c 013c 4e7d c9b7
000000c0: 19e8 723c 1889 203c 4329 f8bb c08c e93a
000000d0: 06d0 c1ba 8071 173b 0f44 cc3c 5144 a63c
000000e0: be8a 833b fbd1 bbbb df46 18bc 3f19 4d3c
000000f0: 939e 183d 78d9 843b cc6a 8d3b 846c 8c3c
00000100: eb8e 1e3c 912b 7c3c 611a 913c 3dcc 573c
00000110: 06b9 493c 72b5 a7bb 04c8 5b3c be3a 373b
00000120: af06 16bc 7e50 1a3c 593b 8e3c 3cab 23bc
00000130: e28b 753a e606 59bb 349b 0a3d 7da1 0e3c
00000140: 621d f3ba 3d17 983c 1d02 f83b 1b9c 0dbc
00000150: 9418 c6ba fdd8 c2b9 e1ae 05bc cca7 e5bb
00000160: 06a8 cd3b 62f2 583c cbcd 133b 9e96 76ba
00000170: 2568 fc3b be6b 153b aa51 8f3a b640 a93b
00000180: 9758 0e3d e736 e43c a34c f8ba 0b5e 6e3c
00000190: a5f0 763c f583 edbb d0e9 52bc 4c87 8d3b
000001a0: 4405 843c 7675 0e3b 908c 323b 72c8 4d3c
000001b0: 283d 353c c63a f73c e722 403c 5914 ec3b
000001c0: 4844 813c 043a 92bb 216d 923a 3c88 703c
000001d0: 6af5 803c ed90 f03b 14ab 16bb e1f7 be3c
000001e0: a45c c1bb e572 693c 51a6 72bc 8c71 d1bb
000001f0: ad1e 19bc 1c4e 073d 467f 853c 0ea1 183b
0.026038645 0.022604218 0.011385366 0.012586192 -0.009696894 0.017137326 0.0006588293 0.0261521
0.0009317342 0.017214488 0.01650763 -0.00046889385 0.023761326 0.0050670137 0.011268075 0.00093930674
-0.0025631087 0.00022658272 0.010886073 0.02709214 0.0050049033 0.00046340734 0.0051558395 0.012363978
0.03121231 0.0036242516 -0.0020730095 0.00835147 0.019658515 -0.0045951013 0.0032124072 -0.004677096
0.024834383 0.013553885 -0.00021133828 0.020694537 -0.0108673945 0.009786272 -0.0031629633 0.010168419
0.015170198 -0.008745305 -0.006558416 0.0059043546 0.012327909 0.011241156 0.007910792 -2.4019417e-05
0.014825844 0.009798311 -0.007573278 0.0017818436 -0.0014786727 0.0023108423 0.024934797 0.020296248
0.004014342 -0.0057318187 -0.009294241 0.012518226 0.037260603 0.0040542446 0.0043157097 0.017141588
0.009677629 0.015391246 0.017712774 0.013171253 0.012312179 -0.0051180655 0.013414387 0.0027958597
-0.009156867 0.009418605 0.017362284 -0.009989556 0.00093668525 -0.0033115684 0.03383942 0.008705494
-0.0018548185 0.018565768 0.0075686113 -0.0086431755 -0.0015113526 -0.00037164232 -0.00815937 -0.0070085283
0.0062761335 0.013241382 0.0022553082 -0.0009406599 0.0077028447 0.0022799815 0.0010934372 0.005165185
0.034752455 0.02785821 -0.0018943738 0.014548789 0.015072023 -0.0072483965 -0.012873128 0.004319107
0.016115792 0.0021737493 0.0027244426 0.012559997 0.011061944 0.030179393 0.011727071 0.007204574
0.01577963 -0.0044624824 0.0011171439 0.014680918 0.015742023 0.0073414952 -0.0022990154 0.023311557
-0.005900936 0.014248584 -0.014810161 -0.0063917097 -0.009345693 0.033033475 0.01629604 0.0023289355

network_body._body_endoder.seq_layers.0.weight f4 [128, 323]
00000000: 1a8d d73d 8bd1 a13c 32f1 c6bd 2fef 643d
00000010: 2562 89bd fb38 5fbd ea75 843d 012b a03c
00000020: 724b 82ba 33c3 acbd c45e 083d eeb0 5a3d
00000030: b2cf 863d 4b5a 23bd dac1 b13d 439f dbbb
00000040: 7384 053d efb1 0b3e 2df2 133b 4779 123d
00000050: 88b7 51bd 523c 053d a048 a4bb f2ca f53c
00000060: fc8e cfbc 9125 073d 349e 83bd bad9 ad3d
00000070: be5e 8f3d 4343 613b 6643 c8bd 015b 26bd
00000080: 58a3 1bbd abf8 063e ad50 e0bb c69c ef3c
00000090: 3e91 86bd 9128 123d 463f 9e3c 7564 8eba
000000a0: 696f 263e b6cf 93bd d38a db3c 8b2c 2abd
000000b0: 4c83 acbd 0e67 8cbc 40bb 61bc 594a ab3d
000000c0: 655f ecbc 7e47 b5bc 3b8f df3b 4c41 093c
000000d0: 6611 863d 2cb9 763d 9fec 673c a34a ad3d
000000e0: 298b bdbd 2660 1f3d 6b59 c6bc 3ce1 14bb
000000f0: c768 c1bc aacf ab3c 4a1c cb3d 49b1 8cbd
00000100: d0d6 613d 4f85 5dbd 4be7 6bbc d13d a53d
00000110: ba65 6cbd c117 a43c aff8 efbd 73f9 acbd
00000120: 2178 1f3b a537 ccbd ae69 6ebd 2e51 223c
00000130: ddb7 09be 7976 18bd e31e d1ba 2939 1b3d
00000140: 9ede 603c 8cbe 7cbc b4c0 d53d b2b3 80bd
00000150: 4346 cf3c d80e 543d 9db1 33bd ac14 a83d
00000160: 9411 033c 8d08 dd3c c272 ffbd 825c 453c
00000170: f732 1bbd eb41 fdba 49fe 853b 225e 9c3c
00000180: 61c2 883d c952 753c 3191 d03b 6a77 0b3d
00000190: c88f 3bbd aeb7 033d 343f 54bd fd15 92ba
000001a0: de44 0ebd 27b4 57bd d966 83bd ce3a 70bb
000001b0: eb44 d43c 6a5e ddbc c4bd 67bc 0bf0 a7bc
000001c0: 3569 afbd c306 3a3d 1ec8 f6bd 4b14 c0bd
000001d0: 7d7c 06be b613 d43b c796 3dbd 8824 abbb
000001e0: a2ea 5b3a bb74 853c 9c1f 263d f155 6b3d
000001f0: 07bb cebb 099c 063d 0d14 e23d c4d0 5dbd
00000200: 7d7d 833c 4e09 5e3d 7f53 7d3d 1855 1c3d
00000210: cab6 8ebc 54ee 9bbd 7b23 57bd 00ea 9d3c
00000220: 8260 aabd a4c9 a53b 0c07 48bd f743 3e3c
00000230: 0855 25bd ab34 0c3c 82f3 8cbc ef73 c2bc
00000240: 62bf 843d e0b9 79bc 5e6c 52bd f56a 163d
00000250: 1671 8a3d 48fc 0b3d bf46 cb3b 01e2 18bd
00000260: ad24 563c 881e 03bd d6b4 9bbd dc4a 30bd
00000270: 6b21 b5bd b42e b9ba 4433 63bb 85a6 36bd
00000280: ec28 2b3d bcc4 ac3b cd15 af3c dedc 853c
00000290: edea a3bd 139b 283d f67c b33d 1c14 053d
000002a0: e5d5 59bd a362 913b f09d a63c 0835 62bc
000002b0: eb22 a2bd a07f e1bd aa5e 81bd a5f6 65bd
000002c0: 3fbe 37bc 62ad 6c3d d426 363d 0607 82bb
000002d0: 17d6 13bd f10a aebb d00a 3d3d be4c c03b
000002e0: 89e4 e83c 7655 b5bc c269 7a3c 93b6 e4bd
000002f0: b242 99bd cc1c 1c3b d4bc 54bd dfce 98bd
00000300: ac55 73bd 6afd f43c f881 e9bd 7a00 0c3c
00000310: 0c84 66bd b3a5 883d 9839 83bc 30eb 3abc
00000320: 94ed 0ebc e351 1c3d eafb aa3c f61c 273c
00000330: 8ed7 e0bd 2fe4 513c ac51 31bd a9d9 96bc
00000340: cbbd 9cbd 49a4 a73d ef6c 703b 30c2 3ebd
00000350: 2a0b a5bc d31e f33d 54e6 a3bc d0c0 06bd
00000360: 5620 4dbc 4140 4cbc 20dd fa3c 949d e8bb
00000370: 97ef 4fbd 7029 633d d56e cfbc a188 50bd
00000380: 934c 513d 35bf 153d 662b 113d a7ed 9e3d
00000390: 9f9b 0b3d 2e71 003b 23dd be3c 3c88 c63d
000003a0: 2716 bcbd 60af 263d abbd 483d 1053 9b3c
000003b0: fc3e eb3b bd2b b0bc 82eb 37bd 8fea 0dbd
000003c0: 55cb e03d 3634 bdbd 74b2 75bc ee9c 963d
000003d0: 757a a23b 0c77 60bc c69f 4d3d 3884 b73c
000003e0: 558b 20bd 5f67 7c3d 243b 353d 2ce1 9c3c
000003f0: 40e3 86bd 556f 5bbc b204 37bd cd82 d33d
0.1052496 0.019753238 -0.09713973 0.055892166 -0.06708173 -0.0544977 0.06467803 0.019551756
-0.0009940697 -0.08435669 0.0332935 0.05339139 0.065825835 -0.039881032 0.086795524 -0.006702335
0.032597017 0.13642095 0.0022574768 0.03576019 -0.05120042 0.03252823 -0.0050135404 0.030003998
-0.025336735 0.03299481 -0.06426659 0.08488794 0.070004925 0.0034372366 -0.0977848 -0.04061413
-0.037997574 0.13180797 -0.006845555 0.02924956 -0.065706715 0.03568322 0.01931728 -0.0010863679
0.16253437 -0.07217352 0.026799595 -0.041546386 -0.084234804 -0.017138984 -0.013777554 0.0836379
-0.028854081 -0.022128817 0.0068224943 0.008377384 0.06546287 0.060235187 0.014155536 0.084615014
-0.09255058 0.038910054 -0.02421256 -0.0022717258 -0.023609532 0.020973045 0.09917505 -0.06869752
0.0551365 -0.05408221 -0.014398406 0.08068431 -0.0577142 0.020030858 -0.117173545 -0.08446016
0.0024333077 -0.09971551 -0.058206253 0.00990705 -0.13449045 -0.03722236 -0.001595464 0.03789631
0.013724951 -0.015426289 0.10437146 -0.06284274 0.025302058 0.05177197 -0.043870557 0.08207068
0.007999796 0.026981616 -0.1247306 0.012045981 -0.0378904 -0.0019322013 0.004089151 0.019087855
0.066777 0.014973351 0.0063649644 0.03404943 -0.045791417 0.032157592 -0.051818088 -0.0011145469
-0.034733646 -0.05266204 -0.06416101 -0.0036656144 0.025911769 -0.02702256 -0.014144365 -0.020500204
-0.085649885 0.045416605 -0.12049888 -0.093788706 -0.13133426 0.0064720763 -0.04628637 -0.0052228607
0.000838915 0.016291013 0.04055749 0.057455007 -0.0063089165 0.03286365 0.11038981 -0.054154173
0.016051048 0.054208092 0.061847206 0.03816709 -0.017421145 -0.07613817 -0.05252407 0.019276619
-0.08319189 0.005059438 -0.048834845 0.011612884 -0.040364295 0.008557479 -0.017205957 -0.023736922
0.06481816 -0.01524207 -0.05137288 0.036723096 0.06759851 0.03417614 0.006203502 -0.03732491
0.013070268 -0.03201154 -0.07602851 -0.04304014 -0.088442646 -0.0014128298 -0.0034668008 -0.0445924
0.041787073 0.005272476 0.0213727 0.01634067 -0.08003793 0.041163515 0.08764069 0.03248988
-0.0531825 0.0044368072 0.020338982 -0.013806589 -0.07916816 -0.11010671 -0.06316884 -0.05614342
-0.011214792 0.05778254 0.044470623 -0.0039681224 -0.036092844 -0.005311363 0.04615289 0.0058685234
0.028429287 -0.022135478 0.015284004 -0.11167636 -0.07483424 0.0023820875 -0.051937893 -0.074613325
-0.059407875 0.029905993 -0.11401743 0.0085450355 -0.056278273 0.066722296 -0.016018674 -0.011408612
-0.008723635 0.03816403 0.020872075 0.010199776 -0.10978614 0.012810751 -0.04329078 -0.018414335
-0.07653388 0.08185632 0.0036686023 -0.04657191 -0.020146925 0.11871114 -0.02000729 -0.032898724
-0.0125199165 -0.012466491 0.030623019 -0.007098863 -0.0507656 0.05545944 -0.025321404 -0.05091155
0.051098417 0.036559302 0.03544178 0.07760172 0.03408396 0.001959871 0.023298806 0.096939534
-0.09183913 0.040694594 0.049009006 0.018960506 0.007179139 -0.021505231 -0.044902332 -0.03464752
0.109762825 -0.09238474 -0.01499616 0.07354151 0.0049584457 -0.013700258 0.0502012 0.022401914
-0.039195377 0.06162202 0.044245854 0.019150339 -0.06586313 -0.013393243 -0.044682212 0.10327683

network_body._body_endoder.seq_layers.0.bias f4 [128]
00000000: cb76 9cbb 5736 403c 3a0e 87ba cbf9 a7bb
00000010: 54a0 8b3c 43b2 c2bb 9ea5 d2ba 7b8c d93b
00000020: 3f6f 56bb a413 12bc 0551 cc3b 55a9 04bc
00000030: 626b d8bb 9b53 333c 2ecc 9cbb 5bc7 e43a
00000040: c37e fbba b084 84bb e4aa 4a3b 1153 19bc
00000050: f332 f23b c77f 01bc 207a 963c ca11 53bb
00000060: b112 493c a59f 97bb 9a61 0bbc 316f 54bc
00000070: 58b0 56bb cd92 983c 9c33 dcbb 64d4 b13b
00000080: 8a3d 303c 7599 d9bc c4b4 363b c5b4 9c3b
00000090: 044f e439 24cf 0dbc f4b1 c03b 0054 4a3c
000000a0: 5fe9 fbbb 5287 593c f57d 433c 7325 4dbc
000000b0: d5a1 3bbb 8c28 103c 5344 0e3b c42d 693c
000000c0: 6ab1 10bc 813f 2dbc 2e6b b33c 7f3f a43c
000000d0: c72b 20bc f6aa 9a3c af48 5cbb 52f9 93bc
000000e0: 74b9 1f3c 5b02 6f3c a64e dfbb f9a2 63ba
000000f0: 0b70 cfba 0299 dfba 4b71 15bc 5aea 96ba
00000100: 494f e2bb d9f7 b5bc 72af 45bc 6683 173c
00000110: be7a 363c 0672 b2bb b922 913c b0d8 6d3a
00000120: 2b59 403c ce73 fb3a 6bad 4fbc 18c4 7a3b
00000130: d85e 1bbc 9bfa 313c 80aa 13ba 96d9 21bc
00000140: 46af 5cbc 7d76 4b3c ba5b 6139 8245 463b
00000150: 68f6 09bc 0286 ed3c 0dc9 b8b8 ce0f cd3a
00000160: 7a1e 97ba 268e 5b3c 1f5e 68bc c1d5 f0bb
00000170: 4ef0 78bb 6d63 90bc 4283 0c3c 33a8 273b
00000180: ccda 7fb9 05d1 b93b 5106 a43b a2f8 bb3a
00000190: 5a67 7d3c 8a56 2b3c d6bb 06bc 138d 6bbc
000001a0: 1224 79bc b5f8 82bb 582c 4fbc 82a5 af3c
000001b0: 7a73 e83a 4571 f83a 2849 4a3b 6748 96ba
000001c0: 5f41 c83b 459c 65bb b076 2cbc b833 6abc
000001d0: d457 6e3c 3cc5 4f3b 52f5 3b3c d491 4d3b
000001e0: 7559 cf3b 1e13 743b c737 32bc 1575 4c3c
000001f0: 6bc1 3fbc fc3e c8bb 63a7 613a ec34 3dbc
-0.0047749034 0.011731706 -0.0010303922 -0.005126213 0.017044224 -0.0059416606 -0.0016071086 0.006639061
-0.0032720116 -0.0089158155 0.006235244 -0.0080970125 -0.006604598 0.010945226 -0.0047850823 0.0017454432
-0.0019187558 -0.004044138 0.0030924613 -0.0093581835 0.0073913275 -0.007904 0.01836878 -0.0032206648
0.012272523 -0.0046271854 -0.008507157 -0.012965963 -0.0032758918 0.018624688 -0.0067200195 0.0054269303
0.01075686 -0.026562432 0.002787874 0.0047822916 0.0004354642 -0.008655343 0.0058805887 0.012349129
-0.007687732 0.013276892 0.011931886 -0.012521136 -0.0028630395 0.00879873 0.0021708205 0.014232103
-0.008831361 -0.010574223 0.021901693 0.020049809 -0.009776062 0.018880349 -0.0033612659 -0.018063221
0.009748805 0.014587964 -0.0068147955 -0.00086836476 -0.0015826238 -0.001705915 -0.009121249 -0.0011513934
-0.006906424 -0.02221291 -0.012065755 0.009247636 0.011137662 -0.0054457216 0.017716752 0.00090731215
0.011740009 0.0019184293 -0.012675623 0.0038263854 -0.009483062 0.010862972 -0.00056330115 -0.009878537
-0.013469523 0.0124183865 0.00021491843 0.0030253832 -0.008420564 0.028994564 -8.811252e-05 0.0015644969
-0.0011529468 0.01340059 -0.0141825965 -0.0073497 -0.003798503 -0.017625535 0.008576216 0.0025582432
-0.00024400203 0.005670669 0.005005636 0.0014341066 0.015466535 0.010457644 -0.0082234945 -0.014376896
-0.015206354 -0.0039969333 -0.01264485 0.021441225 0.001773461 0.0018954655 0.0030866358 -0.0011465669
0.0061113085 -0.003503577 -0.010526344 -0.014294557 0.014547307 0.0031703254 0.011472063 0.0031367438
0.006327803 0.003724284 -0.010877556 0.012479086 -0.011703829 -0.006111024 0.00086080114 -0.011548262

network_body._body_endoder.seq_layers.2.weight f4 [128, 128]
00000000: 785b 8c3d 6ec4 89bd 0d07 063e 0025 cebd
00000010: 445a 893d 6a85 c53d 7b16 593d 0fe8 d93c
00000020: 06ff f2bd 7e43 1e3e cb69 dd3d ee33 10bd
00000030: cba7 e43d 457e 323d db24 b5bc 6d92 6b3d
00000040: eeff 88bd 9581 bebc d46e 073e eb8b 13be
00000050: 0ea9 40be d22a 573c ec85 16be 753e ed3d
00000060: 9cb1 ce3c 6624 9ebc 65ea 8c3d 92f0 2cbd
00000070: a87d 813d 64dd 44bc 0d3d ad3c b25b cf3d
00000080: dcd9 86bc cf2a 9a3e a7c0 fe3d 62ed c3bd
00000090: cb53 673d a899 9c3c badb 883c d496 103e
000000a0: 5522 4c3d bb7a e8bc b05f b6bc 1ac4 f0bd
000000b0: 9a31 923d 2f80 123e dbfc d7bb aded a9bd
000000c0: 39c5 063e b241 093e 7d9b d3bd 1738 4d3d
000000d0: ef69 f53b 3fe5 233d 4d46 153e b67e 8dbc
000000e0: 9988 4fbe 7119 f63c ac74 d03c 53e2 f3bc
000000f0: d5ad c5bd c2a5 2abb 3499 acbd 6f3d 81ba
00000100: 61d0 33be 0bf2 c73c c5bf 9b3d ed28 6d3d
00000110: 61cd 803c 5bab 72bd f9e9 b2bc fab5 b1bd
00000120: f216 6fbb 70af 49be 7790 133e e4fa ffbd
00000130: 7244 c03b 8eed 093e ce6b 49be 0288 b23d
00000140: 8ec6 8b3c df81 9a3b edd9 4bbd 194e 353d
00000150: 03a8 65bd b2fe c13d b659 ebbc 5b58 c0bd
00000160: e97f e93d b785 47bd fe10 89bd 0948 16be
00000170: 7600 07bd 5bed a3bd e30f eb3d f5a3 f03c
00000180: a609 17be 1528 e63d 1c1d e43d de4e 99bd
00000190: d32a fdbd 6b0d aabd 3aff 7d3d 3169 b13c
000001a0: 72e2 57bd da99 f6bb 919a eebc 8153 673d
000001b0: 4c32 a1bd ff37 31be 6481 8bbc 0efd 96bd
000001c0: ec09 f2bd 5761 8d3d 0d1d 203e a47d 2bbd
000001d0: 54db b0bc 9aac a33d f6ac c83d c987 95bd
000001e0: 6582 c8bd b7fc 32be cb61 0e3d 6f8f c93d
000001f0: e977 f63d 5e2d a2bc 1d66 4c3d 24ca ac3c
00000200: e8b3 a3bd d95a a0bd 62fa 84bb 5cdb b7bd
00000210: 6356 fdbb 24a9 9abd ebe7 d5bc d3e5 0ebe
00000220: 7fed bc3d 1b5b 3b3c 4774 b6bd bb5a 0a3d
00000230: 086b 9f3d b986 c13d a1ad d63d f987 28bb
00000240: 95bd 0fbd 0109 89bd c25b e93d 6ef2 cc3d
00000250: 3fa9 3e3b 0f36 cfbd fa91 2c3d 2682 33bd
00000260: c3e2 f9b9 a789 fe3c 5227 21bd 1ae5 bb3c
00000270: b751 24ba 9f7f bc3c fca1 fa3d 7eea 7b3e
00000280: f77e 713d ec70 443d 2f5e 933d 3eea f9bd
00000290: 8c7d 15bc df3e e0bd 81ed e3bc 2fb6 af3c
000002a0: d75c d9bb 1949 87bd ecd8 d9bd 2200 76bd
000002b0: 5588 31be 2f21 31bd c41b a1bc 086a d13d
000002c0: f305 053d e6cd 09bb 9a1c eabd 9e22 27be
000002d0: 1a10 99bc 3a97 15bd f492 c53c 4207 203e
000002e0: bdb3 0e3d 9f3a 3b3e 5697 39bb 2a9d 8c3d
000002f0: 7835 d63b cf8d 4d3d a08f 4e3e 0a82 a93d
00000300: 9cfd e9bd afda 84bd 2a26 2dbd 058f 0ebe
00000310: 4ecc ce3d 412e 9f3c 3c5a 013d 15d6 9abd
00000320: 6576 483d 7478 cd3c ca2a 613d f482 45be
00000330: 3392 8dbd d56a 8a3d 99b5 073e aaf4 153d
00000340: 3199 8e3c 16d4 94bb daf2 9f3d 2124 b8bd
00000350: 84df 873d 1b2e b8bc 0caa b83d a6dd 27bd
00000360: 93ee d23c 7636 9cbd 5bd6 2ebe 116a 01bd
00000370: ee0b 77be 6939 55be 6e83 8cbc e570 27bd
00000380: 3892 283c d45f b83d 246d 09be 5988 14bd
00000390: ccb7 fbbc 5007 463d ff0d b13d 8eab 84bd
000003a0: ff39 1fbd 073b ddbd dcb2 74bd 9ec6 0ebe
000003b0: 0412 3abd fbaa 54be 8cd9 253e 1f49 703d
000003c0: 8ef8 89bc c1d0 383e 29c1 023e db23 073b
000003d0: 9fd1 a7bd 291c bdbd d9bc 9cbd 273d 773d
000003e0: 1a82 8fbd 3dfb 24be 2e37 e33d b790 b93d
000003f0: e598 9abd 5a3f adbd 9036 5cbe 4330 b03d
0.06853384 -0.06726919 0.13088627 -0.10065651 0.0670667 0.09644587 0.052999955 0.026599912
-0.11865048 0.15455434 0.10811194 -0.035205774 0.111648165 0.04357745 -0.0221123 0.05751269
-0.0668944 -0.023255149 0.13225871 -0.14408843 -0.18814489 0.013132768 -0.14699525 0.11584178
0.025231175 -0.019304466 0.06880645 -0.042221613 0.06322795 -0.012015674 0.021147275 0.10124911
-0.016461305 0.30110785 0.12439089 -0.095667616 0.056476396 0.019116238 0.016706336 0.14120036
0.04983743 -0.028378835 -0.022262424 -0.117561534 0.07138367 0.1430671 -0.006591422 -0.08297286
0.13161172 0.13403967 -0.103323914 0.05010232 0.007489435 0.040013548 0.14577599 -0.017272335
-0.20266952 0.030041428 0.025446258 -0.029771006 -0.096522965 -0.002603874 -0.08427659 -0.0009860228
-0.17559959 0.024407407 0.076049365 0.057900358 0.015722932 -0.05924545 -0.021840082 -0.086772874
-0.0036482182 -0.1969583 0.14410578 -0.124990255 0.0058675343 0.13469526 -0.1967003 0.08717348
0.017062452 0.004715189 -0.049768377 0.044263933 -0.05606843 0.094724074 -0.028729301 -0.093918525
0.1140135 -0.048711505 -0.06692694 -0.14675917 -0.032959424 -0.08004256 0.114776395 0.029375056
-0.14749774 0.11238114 0.11138365 -0.07485746 -0.12361684 -0.083033405 0.06201098 0.021656604
-0.05270619 -0.0075256648 -0.029126437 0.05647612 -0.078709215 -0.17306517 -0.017029472 -0.07372485
-0.11818299 0.06903332 0.15636082 -0.041867867 -0.021588959 0.079919055 0.09798615 -0.073012896
-0.09790496 -0.17479216 0.03476123 0.09841811 0.1203459 -0.019797023 0.04990207 0.021092482
-0.07993299 -0.07829828 -0.0040581683 -0.08977386 -0.0077312454 -0.07551792 -0.026111564 -0.13954858
0.09224986 0.011435295 -0.08908897 0.033777934 0.077840865 0.094495244 0.10482336 -0.0025715812
-0.03509291 -0.066911705 0.113944545 0.10007177 0.0029092578 -0.10117733 0.0421314 -0.04382529
-0.00047661932 0.031071497 -0.03934414 0.022936393 -0.000626828 0.023010073 0.12237927 0.2460117
0.058958974 0.047959253 0.071956985 -0.12202881 -0.009124171 -0.10949492 -0.027823212 0.021449177
-0.006633382 -0.06605739 -0.10637078 -0.06005872 -0.17337163 -0.043244537 -0.01966656 0.10225302
0.032476377 -0.0021027266 -0.114312366 -0.16321799 -0.018684436 -0.036521174 0.024117924 0.15627769
0.03483938 0.18284081 -0.0028318963 0.06865914 0.0065371357 0.050184067 0.20171976 0.08276756
-0.11425325 -0.06487023 -0.042272724 -0.13921745 0.10097562 0.019431235 0.031580195 -0.07560364
0.048941035 0.02508185 0.054972447 -0.19288236 -0.06912651 0.06758658 0.13252868 0.036610283
0.017407032 -0.004541884 0.07809992 -0.08991266 0.06634429 -0.022482922 0.09016809 -0.040982865
0.025748527 -0.07627575 -0.17073958 -0.031595293 -0.24125645 -0.20822681 -0.017152514 -0.04087915
0.0102887675 0.09002653 -0.1342054 -0.036262844 -0.03072729 0.048346817 0.08645248 -0.06478034
-0.03887367 -0.10802274 -0.059740886 -0.13942954 -0.045427337 -0.20768349 0.16196269 0.058663484
-0.016842153 0.18048383 0.12768997 0.0020620737 -0.08194279 -0.09233887 -0.07653207 0.060361054
-0.07007237 -0.16111465 0.11094509 0.09060805 -0.075486936 -0.08459349 -0.21505189 0.08602955

network_body._body_endoder.seq_layers.2.bias f4 [128]
00000000: a571 fb3a 6591 b4bb 0fd0 73bc 8989 0c3a
00000010: 86d4 123c 8d92 043c 0d8f 9c3c 194a b3bb
00000020: 95f8 4a3c 3dac ec39 7ad9 2dbc 806d 9dbb
00000030: df73 82bb 171b ffba ee8e 593b 0ca6 aebb
00000040: a408 6f3c 9128 cb3b 6924 933c a3c6 f3ba
00000050: 57ad 59b8 bfe9 4eba f590 873c 8e2d f83a
00000060: eded 4ebb d452 63bb 32c0 903a 6b79 0dbc
00000070: 2391 8d3b c5c7 893b 6957 adba 7624 b53b
00000080: 74ec cc3b 2d84 8ebb 5a29 36bc 842a 0e3a
00000090: 9168 163a 67ce c03b d8fb e23b 35f3 203b
000000a0: 620b f738 f4a3 333b 7e2e 0fbb 9efd ad3c
000000b0: 5bd4 35bb d4c9 103c 0b05 02bc d507 aebb
000000c0: d3d7 143d 87f9 3b3b 5446 86bb 8799 0abc
000000d0: 4317 ae3b 9639 c93b c1e0 c43b 4729 be3b
000000e0: 1bf1 07bb 1ef0 bcba 3243 f6bb f185 13bb
000000f0: cd50 edbb 6566 143c 150c f0bb 5108 003c
00000100: 30ac 823c 5c33 8c3c 1f69 dc3b 418e 5c3b
00000110: f13e 04bc 9ef1 ddba d8f9 46bc b07c 69bc
00000120: 18e6 05bb d7ed e738 5beb a8bb 5f5c 123a
00000130: bf10 efbb 778c 8fbc 23d1 f83a a2fd 3fbb
00000140: 60f6 83bb e82d a43b d4ad 893c a39b 243c
00000150: 4909 5e3c 373f 853c 1ff5 ed3c c8b8 033b
00000160: 7aa5 38bc 8599 2a3c 5537 363b c641 40bc
00000170: f297 65bc 9892 38bc d555 28ba 5ab0 b0bb
00000180: 7c35 b9b8 2ed9 dbbb 6dcb 48bb 20ad 373b
00000190: c67e 4e3b 1502 1a3c b25b 50bc c769 d83b
000001a0: 8a99 01bb 1845 1a3b 48c0 9cb8 c902 4bbb
000001b0: baa1 4c3b d655 3e3c b048 3dbc 6282 823b
000001c0: c118 91bb 2137 35bb 84fd 81bb 9b6d 5aba
000001d0: d919 60bb 2126 f33c b6e0 243b 4a2f ed39
000001e0: ef27 723b 416f a8bb 04ea db37 4ce5 3fbc
000001f0: 5a5f 213c fe25 0abc de4b 603b dd9f 5f3b
0.0019183649 -0.0055104964 -0.014881148 0.00053610705 0.008961802 0.008091581 0.01911118 -0.0054714796
0.012388368 0.00045141755 -0.0106109325 -0.004804313 -0.003981098 -0.001946303 0.0033196765 -0.005329853
0.014589462 0.0061999043 0.017961698 -0.0018598627 -5.1898267e-05 -0.0007893107 0.016548613 0.0018934475
-0.003157492 -0.003468682 0.0011043607 -0.008634905 0.00432028 0.0042047226 -0.0013224903 0.005528028
0.0062537733 -0.0043492527 -0.011118257 0.00054232054 0.00057376275 0.00588398 0.006926995 0.0024559025
0.00011779998 0.0027410956 -0.002184778 0.021239098 -0.0027744982 0.008837182 -0.007935773 -0.0053109922
0.03633864 0.0028682665 -0.0040977392 -0.008459455 0.0053128316 0.006140898 0.006008238 0.0058032605
-0.0020743075 -0.0014414822 -0.0075153345 -0.0022510255 -0.007242298 0.009057616 -0.007325659 0.007814483
0.015951246 0.017114334 0.0067263986 0.0033654126 -0.008071647 -0.001693297 -0.012144528 -0.014250919
-0.0020431336 0.000110592395 -0.0051550097 0.00055832224 -0.0072956975 -0.017523034 0.0018983226 -0.0029295464
-0.004027173 0.0050103553 0.01680652 0.010046872 0.013552018 0.016265495 0.029047547 0.0020099152
-0.011269921 0.0104125785 0.0027803977 -0.011734432 -0.014013277 -0.011265419 -0.00064214814 -0.0053921165
-8.83145e-05 -0.0067092394 -0.003063883 0.0028026775 0.0031508668 0.00939991 -0.012717174 0.0066044065
-0.0019775354 0.0023539718 -7.474475e-05 -0.0030977002 0.0031224326 0.011617145 -0.011552975 0.003982828
-0.0044279997 -0.0027651268 -0.003966989 -0.00083323725 -0.0034195094 0.029681267 0.0025158352 0.00045239396
0.0036950072 -0.0051402156 2.6215806e-05 -0.0117123835 0.009849394 -0.00843191 0.0034224908 0.0034122386

action_model._discrete_distribution.branches.0.weight f4 [3, 128]
00000000: 0ebf 1abd c0fc b1bc 7387 ed3b a9ba 283c
00000010: 7cb2 bb3c 4642 573c 7544 a73c db86 be3b
00000020: 81de 963c ef5c 903c d6c8 01bb 5d7f 2bbc
00000030: faf9 663b ef44 a2bb 9496 4d3c 7f30 2139
00000040: 99ff 49bc 97d1 0cbc fefb 723c 76fd a939
00000050: a529 1fbc ed34 51bc a61c 63bc 8127 9dbc
00000060: 334f 893c 5eb2 9ebb 62a9 cdbc 53fa 2e3b
00000070: 97d2 8e3a 27ef 90bc e0f3 8b3c 8853 a03c
00000080: 634a 4d3c 75ed 023b afe4 0e3c 24be 563c
00000090: ec59 dbbb 4370 01bd 72b4 28ba ed2e 9e3c
000000a0: 0032 503c c8c1 b3bb 86b4 14bd a14e da3c
000000b0: ca7d b3bc a2ee 1fba 1fca 2b3c 571c 3c3b
000000c0: 81f4 013c 28c5 313c 3aa5 3f3c c114 1bba
000000d0: c225 b53c 7ac6 05bb 7eb4 31bc 1515 933c
000000e0: d3df ebbb 936a 68bb c872 50bb e908 ab3b
000000f0: c612 fbbb 7db9 81bc dddb f0bb 7a66 e13c
00000100: 9aa9 c33b 3855 9cbb 6b7d a0bc cbd6 cb3c
00000110: 7a98 a33b ed87 b6bc 90d6 823a 1e53 61bb
00000120: 1c80 e93b 9266 4539 dad9 62bc 0726 553c
00000130: 0ce0 013c 2555 ea3b 3ed4 d53c 285f 033c
00000140: 2b2b 503c ae4c bc3c 127d c83a 0381 05bd
00000150: 4068 003c 4660 e2bc 199d abbc 1f34 cfba
00000160: 1abd 323b 072a b93c 5b10 d83c 7a1e 1abb
00000170: f4aa 9cbb bf65 23bc 2b14 f339 844a 9ebc
00000180: ca0e 553b 952e bf3b 9a6b 953c 24d6 4b3c
00000190: dc4a f9bc 68dd b63c 5148 32bc 0e57 53bc
000001a0: 707e 3e3c fc20 9c3c 7c1a 61bb d17e 413b
000001b0: 06fa 843c a2e9 65bb 3457 bdbb 389b 853c
000001c0: c5e5 92bb 6b66 433c 1cb8 6fbc 2668 233c
000001d0: a62f 9b3b b784 693c be33 263a 318d ce3b
000001e0: 22d9 5a3c ec0b 69bc c9b7 7ebb 4cd6 84bb
000001f0: 3923 a4bb be74 03bc 31d7 c23b c78c 543c
00000200: 3b8c 153c 3516 323c ee43 353c a918 3ebc
00000210: 57ce 3fbc 9201 34bb 9717 65bb cec2 c8bb
00000220: f940 5b3c a348 f8bb b925 e1bb d140 0b3c
00000230: 3d2b 333c 21d3 db3c 3529 22bc 175a 003c
00000240: eff9 a03c d0c4 613c 3748 173c 12da 613c
00000250: 2e43 253c 7173 583c 6723 e73c 433b 143c
00000260: 3c38 4d3c 4f23 5d3c 8a7a 623c c933 513c
00000270: 770e 193c a70b f4bb 5840 23bc d829 a3bc
00000280: 70fd 4abc 10df 7dbc da08 9a3c ad14 8cbc
00000290: 5636 323c 0549 073c f5ea 5c3c d66c f5bb
000002a0: e1a3 3fbc faf9 9cbb 5729 e93b 2e7e aebc
000002b0: cd4b c43c 441f 253c 8fa3 76ba 7a3a 7e3c
000002c0: 8a60 803c a638 8dbc 708c 15bc 28b0 163c
000002d0: e5db 1c3c cafd 7c3c 4d0e 693c 63ed e3bc
000002e0: a322 793c 6c2c 14bc 371d 14bc d9db 43bc
000002f0: bdf2 ce3b 4690 c43c c8f1 623c cea3 84bc
00000300: 04a8 3a3c 23d1 2e3c 515f cb3b a554 f6bb
00000310: b128 a13c fb9e 433c 2e05 f03a 36bc 0f3c
00000320: 8a8d 21bc 8795 263b baea 843c 5393 dbbb
00000330: 709f 1bbc c3a3 ad3b f868 06bb bc6d 1cbc
00000340: 4077 2cbb 0450 8dbc 0df4 9abb 6d75 0e3c
00000350: aad2 03bb b489 943c 23c7 823c a68d 3e3c
00000360: d23f bc3b 7527 823c 980d 31bc a5f4 c4b9
00000370: 7056 8d3b 6000 18bc 52bf 33bc 968a c03b
00000380: 4f3f bfbc b68c 9fbc 8e5c 2439 14a1 8ebc
00000390: f467 933c 925d a7bc 6077 023d aa3d f93c
000003a0: 5474 d7bb 53be d4bb 74eb f33b fbbe a2bc
000003b0: 3a1d 2939 afcb bf3c 306d aa3b 4ef1 2ebb
000003c0: 66d6 823c ac2d 383c 235d e33b 3538 2dbc
000003d0: 4cda 9f3c 5989 703c 767b 5f3b 3be8 a0bc
000003e0: 8ddd ffbc 3c25 1e3b f472 a238 3c76 913c
000003f0: 1444 3b3a 142d bfba 8aa0 47bc a382 47bc
-0.03777986 -0.021726966 0.007248813 0.0102984095 0.022912256 0.013138359 0.020418385 0.005814416
0.018416645 0.01762244 -0.0019803545 -0.0104673775 0.0035244212 -0.004952065 0.012548108 0.00015372223
-0.012329006 -0.008594892 0.014830587 0.00032423035 -0.009714519 -0.012768966 -0.013861811 -0.019183876
0.016761398 -0.0048430404 -0.025105182 0.0026699498 0.0010896501 -0.017692162 0.017084062 0.01957108
0.012529942 0.0019977961 0.008721515 0.0131068565 -0.006694069 -0.0316012 -0.000643558 0.019309485
0.012707233 -0.005485747 -0.036304973 0.026648821 -0.021910567 -0.0006100928 0.010485201 0.0028703415
0.007931829 0.010850228 0.011697108 -0.00059158733 0.02211273 -0.002041249 -0.010846255 0.017954389
-0.007198313 -0.0035463914 -0.0031806696 0.005219568 -0.00766215 -0.015835518 -0.0073504285 0.027514685
0.005971146 -0.004770901 -0.019591054 0.024882695 0.004992542 -0.022281611 0.0009982157 -0.0034381817
0.0071258675 0.00018825594 -0.013845885 0.013009555 0.007926952 0.0071512633 0.026102182 0.0080182925
0.012705605 0.022985782 0.0015296063 -0.03259374 0.007837355 -0.027633797 -0.020948933 -0.001580838
0.0027273358 0.022603048 0.026374986 -0.00235167 -0.0047811214 -0.009972989 0.00046363598 -0.019322641
0.0032510036 0.0058344104 0.018239785 0.012441192 -0.030431204 0.022322372 -0.010881499 -0.012899173
0.011626825 0.019058697 -0.0034348061 0.0029525051 0.016232502 -0.0035081883 -0.0057782177 0.016309366
-0.004482957 0.011926274 -0.014631297 0.009973561 0.0047359047 0.014252833 0.00063401076 0.0063034524
0.013357433 -0.014224034 -0.0038866869 -0.0040538665 -0.0050090817 -0.008023439 0.005946063 0.012973017
0.009127672 0.010869552 0.011063559 -0.011602559 -0.01170691 -0.0027466756 -0.0034956688 -0.006126738
0.01338219 -0.0075770183 -0.006870952 0.00849934 0.010935602 0.026834073 -0.00989752 0.007833979
0.019650428 0.013779834 0.009233526 0.013784902 0.010086818 0.013211117 0.028215123 0.009047332
0.012525614 0.013497188 0.013823161 0.012768694 0.009341828 -0.007447678 -0.009964071 -0.019917414
-0.012389526 -0.015495077 0.018803049 -0.017099703 0.0108772125 0.008257155 0.0134837525 -0.007489781
-0.011696787 -0.0047905417 0.007115524 -0.021300402 0.023961926 0.010078255 -0.00094085274 0.015516872
0.015671033 -0.017238926 -0.009127721 0.009197272 0.009573911 0.015441367 0.014224601 -0.027823156
0.015206012 -0.009043794 -0.0090401685 -0.011954271 0.0063155578 0.023994576 0.01385159 -0.01619139
0.011392597 0.010669979 0.006206431 -0.0075174146 0.019672723 0.011939759 0.001831209 0.0087729
-0.009860406 0.0025418715 0.016225208 -0.006700912 -0.009498462 0.005299063 -0.0020509344 -0.009547647
-0.0026316196 -0.017250068 -0.0047288 0.008694989 -0.002011458 0.018132068 0.015964096 0.011630451
0.0057449127 0.015887955 -0.010806464 -0.00037566308 0.0043132827 -0.009277433 -0.010970907 0.0058758957
-0.023345618 -0.019476276 0.00015674738 -0.017410792 0.017993905 -0.02043036 0.031852126 0.030424912
-0.0065751467 -0.006492415 0.0074438397 -0.019866457 0.00016127984 0.023412554 0.0052010044 -0.0026694122
0.015971374 0.011241358 0.006938593 -0.010572483 0.019513272 0.014681184 0.0034100688 -0.019641986
-0.031233573 0.002413108 7.746174e-05 0.017756574 0.00071436283 -0.0014585578 -0.012184272 -0.012177142

action_model._discrete_distribution.branches.0.bias f4 [3]
00000000: a574 2f3c 0d12 29bc a800 91ba
0.010708963 -0.010319245 -0.0011062818
