results/reinRayLong2/ZARAgoal/ZARAgoal-40473.onnx (onnx, 309348 bytes, 15 tensors)

discrete_act_size_vector f4 [1, 2]
000000 00 00 00 40 00 00 40 40
       2.0 3.0

network_body.observation_encoder.processors.0.conv_layers.0.weight f4 [16, 5, 8, 8]
000000 52 c9 6b 3d 12 90 a0 3c ec 3a 13 bd 34 78 4a 3c
       0.05756504 0.019599948 -0.035944864 0.01235776
000010 8d 1d 0d 3d 20 ee 48 3d 73 d0 11 bc 25 f8 66 3d
       0.03445201 0.04905522 -0.008899796 0.056388993
000020 28 54 94 3b 22 2e 51 3d 8a e3 50 3b d2 58 27 bc
       0.004526634 0.051069386 0.0031873905 -0.0102140475
000030 61 80 c7 3a 89 02 4b 3d 48 c6 80 3d 39 9d 15 bd
       0.0015220755 0.049562965 0.06287819 -0.036526892
000040 b4 72 82 bc d3 f3 70 3d e8 97 92 3c 5a fd 48 3d
       -0.015923835 0.05882628 0.0178947 0.04906974
000050 e3 cd 21 3d 79 7f 9c 3c 0a a8 00 bd 73 af 91 3d
       0.03950299 0.019103752 -0.031410255 0.071135424
000060 39 ad bc ba 2b 3f 60 3c d9 78 8f 3d e9 a9 9b 3c
       -0.0014394886 0.013686935 0.07005472 0.019001918
000070 48 b2 a5 3d dc 1c f2 3c 95 18 a0 3d 8e bc 98 3d
       0.08090645 0.029554777 0.07817189 0.07457839
000080 5f 3b 0b 3d 9b d9 96 3d 7e 87 1c bb d4 da 98 3d
       0.033992168 0.07365724 -0.002388447 0.07463613
000090 59 ef fa 3c 54 79 8f bc 4a dd 8d 3a f2 d9 9d 3d
       0.030631708 -0.017513908 0.0010823396 0.077075854
0000a0 4e 2c c5 bc 72 13 16 3c ef 3d dd bb 7f 5a 97 3c
       -0.024068978 0.00915991 -0.006751768 0.01847577
0000b0 7c b3 5e bb 31 f2 25 bc 0b 90 f0 3c 15 9d 95 3d
       -0.0033981493 -0.010128544 0.02936556 0.07305352
0000c0 8a b1 42 3d ac 87 2a 3d 8d 0e 00 bd ea ec 42 3b
       0.047532596 0.041633293 -0.031263877 0.0029743263
0000d0 97 97 59 3c 73 09 46 3d 0a d4 9b 3c f4 29 7c bb
       0.013280771 0.048348855 0.019022007 -0.0038477154
0000e0 14 df 3c 3d 26 dd 58 3b c1 d4 97 3c 2c 47 27 bd
       0.04611118 0.00330908 0.018534066 -0.04083936
0000f0 97 e7 f1 bc e2 09 4d 3d 88 73 c2 bc eb ec 58 3c
       -0.029529376 0.050058253 -0.02373673 0.013240079
000100 a7 d1 10 3d b8 06 2e 3d 27 2a 86 3d 95 c9 08 3d
       0.03535619 0.042486876 0.06551009 0.03339537
000110 c3 12 58 b7 3b c1 cf 3c 4e c9 30 3d 8e b3 8f 3b
       -1.2878972e-05 0.025360694 0.04316073 0.0043854183
000120 d7 43 ee bb 25 88 3d 3d d4 90 2b bb 33 03 eb bc
       -0.0072712707 0.046272416 -0.0026178854 -0.028688049
000130 57 df 56 3d 95 8d 39 bd c2 94 14 bd 44 50 7c 3d
       0.052459087 -0.04530104 -0.03627468 0.061599985
000140 b0 84 85 bc ef c2 01 bd 9c 7a 06 3d aa 17 92 3d
       -0.016298622 -0.031680044 0.032831773 0.0713342
000150 a7 df e0 3b 1f 61 55 bb 42 7e a8 bc 33 e6 26 3d
       0.006862599 -0.003255911 -0.020568017 0.04074688
000160 c5 04 bf 3c b0 65 06 bd a3 cf 17 bd 06 84 74 bc
       0.023317704 -0.03281182 -0.037063252 -0.014924055
000170 a2 fc ac bb 50 64 a0 bc 23 5a 20 bd 0a 84 39 b9
       -0.0052791396 -0.019579083 -0.03914846 -0.00017692163
000180 74 fc 86 3c a8 02 2a bd f0 ba 02 bd db 44 73 3d
       0.0164778 -0.04150644 -0.03191656 0.059391838
000190 e3 31 93 3b 37 e4 1f bb bc ba da bb 13 07 40 3b
       0.004492031 -0.0024397501 -0.0066750925 0.0029301092
0001a0 cb 70 0f bd 91 f3 0e bd 21 7b 3f 3d ae 1e 33 bd
       -0.035019677 -0.03490025 0.046748284 -0.04373043
0001b0 94 68 39 3d c9 b5 20 3d 0d 0c 88 3d bb 6a 68 3d
       0.04526575 0.039235864 0.066429235 0.05674241
0001c0 33 26 08 3d 6b be 2c bd 1e 3f 56 bd 60 f6 11 bd
       0.033239555 -0.042173784 -0.052306287 -0.035635352
0001d0 e2 bc 09 3c 9d 1a 0c 3c 2b 67 2f bd 8b 29 46 3d
       0.00840685 0.008551267 -0.042822998 0.048379462
0001e0 69 91 68 3d d4 08 74 bc ac 86 de bb 01 f5 d6 3c
       0.0567793 -0.014894683 -0.0067909565 0.026239874
0001f0 dd 03 63 3d 38 72 62 bd aa 4e 27 3d 93 37 46 bc
       0.055423606 -0.05528471 0.040846504 -0.012098211
000200 0d 5d f9 bb 1c d0 c3 3c 4e 8a 15 bd a4 8d 40 3d
       -0.0076099695 0.023902945 -0.03650885 0.04701008
000210 88 a4 4b 3c b7 1a 79 bc b9 d7 c1 3b cc 6c 68 bc
       0.012429364 -0.015204123 0.0059156087 -0.014186095
000220 06 82 0f bd 49 06 08 3d c4 b1 55 3d 51 c4 8e bc
       -0.03503611 0.03320912 0.052171484 -0.017427595
000230 2d 13 0a bd e4 77 8c 3d 4f c1 a8 bc 46 39 04 3d
       -0.033709694 0.06858805 -0.02059999 0.032281183
000240 f9 e3 16 3d 39 33 59 bc 78 03 7f 3d 82 43 70 3d
       0.036838505 -0.013256841 0.062259167 0.05865813
000250 1e d3 f8 3b 60 33 a6 bc 0a 6f 56 bb 99 eb 4e 3d
       0.0075935265 -0.02028817 -0.0032719993 0.050517652
000260 93 ba 81 3d b0 c9 8c 3d c8 0d 2f 3c dc 09 d6 bc
       0.06334414 0.06874406 0.010684438 -0.026127748
000270 8f 50 63 3d e0 e4 e9 bc ac 29 07 3d 6a 05 3c 3d
       0.05549675 -0.028551519 0.032998726 0.0459036
000280 37 4d 8c 3d 97 d0 fc 3a a5 3a 9c 3b 6f 25 82 3d
       0.06850665 0.0019288239 0.004767733 0.06354796
000290 43 c9 9a 3d 3b 88 e6 bc 50 e2 66 3d 04 66 4a 3d
       0.07557919 -0.028141132 0.056368172 0.049413696
0002a0 90 28 8b bc 55 9b b5 3c 9a 8a a9 3c 11 54 98 3d
       -0.016987115 0.022168795 0.020695973 0.074379094
0002b0 1e ad 81 3d d1 34 36 3b 68 e6 95 3d 2a 67 6a 3d
       0.063318476 0.0027802477 0.07319337 0.05722729
0002c0 ef 64 b5 bc dc 04 e0 bc 8c b7 93 3d 92 2e 03 3d
       -0.022142855 -0.027346067 0.07212743 0.032026835
0002d0 a8 11 89 3d 51 d4 9a 3d 5a 7e a8 bc b7 d0 1a 3d
       0.06692821 0.075600274 -0.020568062 0.037796702
0002e0 74 c5 03 3c 0b 28 d8 3c 41 9d c6 bc 10 e1 a3 3d
       0.008042682 0.026386281 -0.024244906 0.08001912
0002f0 ac 96 ef 3b 50 26 4b bc 54 a1 ce 3c d1 a7 02 bc
       0.0073116627 -0.012399271 0.025223412 -0.007974581
000300 12 28 35 3c 20 5e 54 bc 84 33 2c 3d 2f 3b 10 3d
       0.011056917 -0.012961894 0.042041317 0.035212692
000310 08 2f 19 3d a3 b4 34 bc 3d 2d 08 3d 46 39 34 3d
       0.037398368 -0.011029395 0.033246268 0.043999933
000320 cc ad 0b bb be 9d 58 3d 7f 55 d9 3c fd 9c 03 bc
       -0.0021313308 0.05288481 0.026530026 -0.008033034
000330 0c 42 c8 bc ca 13 5b 3c 89 86 a6 3d f7 59 93 3c
       -0.024445556 0.013371417 0.08131129 0.017987235
000340 08 aa 8d 3c 1e e9 d1 3c 46 59 5a 3d 12 5c 52 3c
       0.017292991 0.025623854 0.053307794 0.012839334
000350 c6 f4 9b 3d ae cb 91 3d ff b9 32 3d 86 b2 a9 bc
       0.07615046 0.07118927 0.04363441 -0.02071501
000360 b5 89 15 3d db f6 78 3d 26 b9 8c bb 3e cd 91 3c
       0.03650828 0.060782295 -0.0042945324 0.017798062
000370 0a 27 3f bc 0c 97 90 3d e6 c3 59 3c 8b 41 38 3d
       -0.0116670225 0.0706006 0.013291335 0.04498438
000380 46 a9 2b 3d 63 0b b3 bc d1 d6 c8 3c 64 f7 44 3c
       0.04190948 -0.021856016 0.024516495 0.012021873
000390 14 8d 80 3d 88 b0 6f bc df 84 5f 3d cd d3 04 bc
       0.062769085 -0.014629491 0.054570075 -0.008107138
0003a0 76 00 6f 3d 84 d3 82 3d 18 ad 48 3d 39 e9 42 3d
       0.05835005 0.06388 0.0489932 0.0475857
0003b0 b9 e2 84 3d 5a 37 5c bc 60 f8 8e 3d 1f ad 23 3d
       0.064885564 -0.013440931 0.069809675 0.039960023
0003c0 6f 3a d5 bc 63 a2 53 3d e9 98 2f bc d6 0d ea 3b
       -0.02602884 0.051668536 -0.010717609 0.0071427627
0003d0 26 d2 8d 3d d7 e3 a7 3d d9 92 22 3b 47 33 c5 3c
       0.06924848 0.08197754 0.0024806766 0.024072303
0003e0 cb f7 21 3d a5 ad 0c 3d 80 bf aa bc d0 ea dd 3c
       0.039542954 0.034345288 -0.020843267 0.027089506
0003f0 c8 d4 2e 3d c0 29 84 3d d2 8f cb 3c 72 29 87 3d
       0.042683393 0.06453276 0.024848852 0.06599702

network_body.observation_encoder.processors.0.conv_layers.0.bias f4 [16]
000000 e6 2b 8e 3d 00 62 3f bc ac d4 92 3d 5c 90 6b bc
       0.06941967 -0.01168108 0.0716947 -0.01437768
000010 e2 1e f2 3c a8 9b b0 3c 6d 46 ec 3c fe 2f 93 3c
       0.029555742 0.021558598 0.028842175 0.01796722
000020 1f 48 9b bc 6c c9 74 3d 4c 0c 62 3b 28 22 3c 3b
       -0.018955288 0.059762403 0.0034492193 0.0028706882
000030 89 70 6f 3d a0 f8 92 bc 81 7c 78 3d 4c 6d 27 bd
       0.05845693 -0.01794082 0.06066561 -0.040875718

network_body.observation_encoder.processors.0.conv_layers.2.weight f4 [32, 16, 4, 4]
000000 0c 91 97 3d d0 fa 61 3d c0 8b fe 3c 39 48 97 3c
       0.07400712 0.055170834 0.031072497 0.018467056
000010 32 6a 0d bd 26 a6 9f bc 49 41 a9 bc 15 d0 a5 3d
       -0.034525104 -0.019488405 -0.020661013 0.08096329
000020 25 b9 fc 3b 24 83 1a 3d 1f 74 8f 3d 20 cf 2d 3c
       0.0077125006 0.03772272 0.0700457 0.0106084645
000030 0a a0 45 3b 0d a4 14 3d e5 69 ba 3c 60 48 b7 3d
       0.0030155205 0.036289264 0.022755573 0.08949351
000040 fd 87 30 3d b4 89 f1 bc f7 0d 85 3d 7e 1b 81 3d
       0.04309844 -0.029484607 0.06496804 0.06304072
000050 d1 ea f3 ba ad f2 5f 3d a4 97 6c 3d 80 47 75 3d
       -0.001860941 0.054674793 0.057761803 0.05988264
000060 f1 39 b9 bc d2 43 94 3d 7e d6 e8 3c 7b 46 4d ba
       -0.022610636 0.07239498 0.02842259 -0.0007830632
000070 c3 cd a0 3c 6a 67 3d 3b 5a 3c e6 bc 97 13 37 bb
       0.019629365 0.002890075 -0.02810495 -0.002793526
000080 26 51 b3 3d 6e f6 ea bc 26 11 07 3d 53 cd c7 3c
       0.08755712 -0.02868196 0.03297534 0.024389898
000090 1f 7b 04 3c b6 c2 1e 3b 7d 48 9c 3d 32 04 0d bd
       0.008085995 0.0024224943 0.076310135 -0.03442783
0000a0 f5 3c 14 3d ed 45 02 bd 3b 38 39 3c 90 51 1a 3d
       0.036190946 -0.031804968 0.01130491 0.03767544
0000b0 51 39 2c bd 7e 6a ed bc 81 da 22 3d 3c 01 b9 3b
       -0.04204685 -0.028981443 0.039759163 0.005645899
0000c0 5b b1 0d bd cc 4a 9a 3d 17 3b 3f 3b 53 98 70 bc
       -0.034592967 0.075337976 0.0029179507 -0.014684754
0000d0 ff a3 c9 bc bb 11 8f 3d bd 33 fd 3c 22 a7 2e 3d
       -0.024614332 0.06985804 0.03090846 0.04263986
0000e0 f6 bf 9d bb c4 6e 2c 3c 1c 65 38 3d 0f 87 15 bd
       -0.0048141433 0.010524455 0.0450183 -0.036505755
0000f0 0a a2 33 3d d4 3f 27 3d 29 ac 06 b8 f0 28 4c 3d
       0.043855704 0.040832356 -3.2108426e-05 0.04984373
000100 00 2d b4 3c 12 49 a2 3d 5e bf 48 bc 8a 58 4d bd
       0.021994114 0.07924093 -0.012252657 -0.050133266
000110 5a 24 86 3d 32 68 e3 3a f3 68 57 3d 6c c9 37 3c
       0.06549902 0.0017349778 0.05259032 0.011217456
000120 18 c4 87 3d 60 f0 b3 3c 38 fc 18 bd b5 e4 91 3c
       0.06629199 0.021965206 -0.03734991 0.017809251
000130 8f 32 4c 3d 66 a6 10 bd 40 1b 98 3d 1c 94 91 bb
       0.049852904 -0.03531494 0.074270725 -0.004442705
000140 be 26 ee bc ea 3f 99 bc 63 5d 98 bc f9 d6 50 bd
       -0.029071208 -0.018707234 -0.018599218 -0.050986264
000150 e7 a6 0c 3c cc 1a a2 3b 63 42 5b 3d ad 99 64 3d
       0.0085847145 0.004947042 0.05353011 0.05581062
000160 d8 60 21 3d 73 43 b7 3c f5 2b 36 3d 58 9c 2b 3d
       0.039398998 0.02237103 0.044475514 0.041897148
000170 f1 b2 0f 3d 20 b8 0d 3d 27 65 80 3d 26 7b de 3c
       0.03508276 0.034599423 0.06269293 0.027158331
000180 f8 d7 d1 3b 93 a1 56 3d 2f a5 e4 bc 53 21 53 bc
       0.0064039193 0.052400183 -0.027910797 -0.012886363
000190 3b a8 8a 3c 70 79 7c 3c b7 b0 4c 3a 7a b6 5d 3d
       0.016925922 0.015409812 0.0007808315 0.0541291
0001a0 5d ff 81 3d 81 ff 84 bb 3e c7 4b 3d 07 cf a6 3c
       0.06347535 -0.0040587788 0.04975056 0.02036239
0001b0 f5 e4 00 bd 95 24 23 bd d3 8c 00 bb f3 b9 8b 3d
       -0.03146835 -0.03982981 -0.0019615188 0.068225764
0001c0 68 1f 88 3d 4f 42 ab 3c f4 c1 35 bc 55 87 27 3d
       0.06646615 0.020905642 -0.011093605 0.040900547
0001d0 ab bc 2c 3d 2a dc 87 3d ef 1a 82 bc 30 25 a3 bb
       0.042172115 0.0663379 -0.015881984 -0.0049787983
0001e0 c2 20 05 bd 70 9a 1c 3d 29 16 82 3d 0e e8 25 3d
       -0.032501943 0.03823322 0.06351883 0.040504508
0001f0 90 e1 b4 3a 2f 13 a5 3c d2 db 56 3d f7 b0 6c 3c
       0.0013800133 0.020150749 0.05245573 0.014446489
000200 2b 18 76 bd 26 d3 8c 3d fe 2b fe 3c e0 55 96 3d
       -0.060081642 0.06876211 0.031026836 0.07340598
000210 d0 c2 6b 3d 3a 86 70 bc 39 3e cf bc 2a 0e 7b bd
       0.057558835 -0.01468044 -0.025298225 -0.061292805
000220 db 5c 4f 3d 35 36 65 bc f0 4d 48 bd 1f b6 86 bc
       0.050625663 -0.013989975 -0.048902452 -0.016444264
000230 f0 73 54 3d 42 d7 1d 3b f1 ef 0b bd ca 60 b2 bc
       0.05186838 0.0024084602 -0.034164373 -0.021774668
000240 f3 0e 15 3c 35 83 ab 3d a6 14 b1 3d b6 8a 37 3d
       0.009097802 0.08374635 0.086465165 0.04481002
000250 7a ac 83 3d b4 6a ff bc ca 42 b8 3c 89 0a a9 3d
       0.06429382 -0.03117881 0.022492785 0.082539625
000260 a5 d1 9d 3c 7d cc c8 ba 7c 15 e5 bc 91 b2 63 bb
       0.019265005 -0.0015319731 -0.027964346 -0.0034743885
000270 72 06 90 bc 83 83 51 bd db 4e b5 3c f4 a6 a6 3c
       -0.017581198 -0.05115081 0.022132328 0.020343281
000280 31 70 4c 3d 1a 03 da bc 11 4e 99 ba 7c e1 58 3d
       0.04991168 -0.026612807 -0.0011696239 0.052949414
000290 9c ce b4 bc fb 3d da 3b 7d 18 90 3d e8 90 7a 3c
       -0.022071175 0.0066602207 0.07035921 0.015293337
0002a0 3d ab b1 3c 6b 7b 4f 3d 36 59 91 3d d6 15 82 bb
       0.021688098 0.05065481 0.07097094 -0.003969888
0002b0 49 9b 91 3d 32 1c 10 3d b7 25 c5 ba ba 8e 83 3d
       0.071096964 0.03518314 -0.0015041147 0.06423707
0002c0 a7 bf 94 3c d1 76 87 3d d0 a4 4b bb 53 cf fc 3b
       0.018157793 0.06614459 -0.0031073578 0.0077151447
0002d0 24 6d 83 3d 8e 40 14 bd 0e b6 57 3c 8d 5f a2 3d
       0.06417301 -0.036194377 0.013165964 0.07928381
0002e0 e8 2e c4 bc a3 b8 61 bd e8 1b 15 3d b0 80 12 bc
       -0.023948148 -0.055107724 0.036403567 -0.008941814
0002f0 fd fe df bb f0 65 99 bc 55 42 51 bb 2d 7b 59 bd
       -0.006835817 -0.018725365 -0.0031930406 -0.053095985
000300 87 60 9f 3d d5 75 e5 bb 7a 0a 84 3d 47 8e da bc
       0.07782083 -0.007002572 0.06447311 -0.026679171
000310 13 99 29 3d 8e 18 24 3c aa b8 8a 3d 05 25 25 3d
       0.04140575 0.01001562 0.06773503 0.040318508
000320 20 5f 92 3d 90 f1 0c bd 75 37 97 3c a9 7a 0a 3d
       0.0714705 -0.03441006 0.018459061 0.033808384
000330 12 52 84 3c 6e b6 0d bd a4 e1 b9 bc 8d 94 15 bc
       0.016152415 -0.034597807 -0.022690602 -0.009129656
000340 1a 83 55 3d 52 60 ab 3d 7c 71 26 3d 68 24 97 3d
       0.05212698 0.08367981 0.04063557 0.07379991
000350 37 b7 98 3c ad 1e 9a 3c 26 c8 ce bc 53 34 de 3c
       0.018642051 0.018813455 -0.025241923 0.02712456
000360 f2 54 1a 3d cb 42 8c 3d 6b 08 de bc 1c a6 1b 3d
       0.037678666 0.06848677 -0.027103623 0.03800021
000370 d7 8b 98 3c 28 cf 94 3d 2b 9c 44 3d fc 67 1a bd
       0.018621368 0.072660744 0.048000496 -0.037696823
000380 2d bc 79 3b 6d e3 e1 ba 5d f7 30 3d a4 e0 7f bc
       0.0038106546 -0.0017233916 0.043204654 -0.015617523
000390 44 bd 1e bd 58 f4 25 bc 65 0a 55 3c dc 71 62 3d
       -0.038754717 -0.010129057 0.0130029665 0.055284366
0003a0 3b 34 83 3d 84 0f cf bc e7 5d 9c 3c 48 80 f8 3b
       0.064064465 -0.025275953 0.019087745 0.0075836517
0003b0 54 fb 95 3b 5b b1 9d 3d da 06 e9 bc 98 82 7e 3d
       0.00457708 0.076998435 -0.02844565 0.062136263
0003c0 6c 28 f6 3b 34 cb 38 bd 34 63 1f 3c 14 27 03 3d
       0.007512143 -0.045115665 0.009728242 0.03201969
0003d0 bd 9d 95 bd d4 04 09 bd 36 b4 44 bd 13 db 70 3d
       -0.07305477 -0.03345187 -0.048023425 0.058802675
0003e0 e4 74 5d 3c 36 0e 24 bd 13 c4 83 3d 63 20 85 3b
       0.013516638 -0.040052615 0.064338826 0.0040626987
0003f0 49 ee 73 3d 82 a1 46 bd 01 da 50 3b 3c b5 8b 3d
       0.05955342 -0.04849387 0.0031868222 0.06821677

network_body.observation_encoder.processors.0.conv_layers.2.bias f4 [32]
000000 92 83 a1 3d 34 06 4c 3d f1 d0 9f 3d 9c 99 c7 3c
       0.07886423 0.049810603 0.07803524 0.024365239
000010 fc ba 13 3d 69 cd 79 3d 30 d2 28 bb 17 cd df 3c
       0.036066994 0.06098691 -0.0025760047 0.027319474
000020 44 e5 05 3d 14 b1 38 3d 8e b4 89 3c 91 0a 13 bd
       0.032689348 0.04509075 0.016809728 -0.03589875
000030 d8 34 42 bb 6d 72 ba 3c 4e c3 f6 bc d2 9b d5 bc
       -0.0029633548 0.02275964 -0.030122425 -0.026075277
000040 e5 6d e5 bc 0e 66 b7 3d 22 81 df 3c 98 d6 53 3d
       -0.028006503 0.08955012 0.027283255 0.051718324
000050 40 92 eb 3c 2e 54 78 3d c9 10 fc 3c f1 a7 f6 bb
       0.02875626 0.060627155 0.030769723 -0.0075273444
000060 e1 04 aa bc ab 03 e4 bc 04 5b 07 3d 5a c5 47 3c
       -0.02075428 -0.02783378 0.033045784 0.012193048
000070 1a ae 15 3d fc f8 7a bd 1e af 9b 3c 3d 0e 4a 3c
       0.03654299 -0.061272606 0.0190044 0.012332496

network_body.observation_encoder.processors.0.dense.0.weight f4 [128, 32]
000000 2c f1 0d 3e 8e 2f 15 bf 25 07 ef 3d 5a 94 9d 3e
       0.13861531 -0.5827569 0.116712846 0.30777246
000010 a1 f9 86 be 8b 29 89 3e 56 59 03 3e 66 5d f6 bd
       -0.26362327 0.26789507 0.12827048 -0.12029533
000020 39 9a 44 3e 53 f1 a7 be 7a 23 46 3f af b6 75 3b
       0.19199456 -0.32801303 0.7739788 0.003749292
000030 16 b5 a0 be 57 bf 64 be 64 09 20 3f 4c b5 f2 3e
       -0.31388158 -0.22338615 0.6251433 0.47403944
000040 d7 aa 00 3e 87 28 ab be bf 87 2c be bc ca 09 3d
       0.1256517 -0.33429357 -0.16848658 0.03364061
000050 fb 46 d2 bd e6 2a f8 bd a5 0f d6 3e 4f 55 41 be
       -0.10267445 -0.12117557 0.4180881 -0.18880199
000060 60 7c 42 3d c4 db a7 be dc 65 4a be 5b 66 7e bd
       0.047481894 -0.32784855 -0.19765419 -0.062109333
000070 e3 4c 88 be 8e c8 9b be 38 1d 57 3e e0 94 eb 3e
       -0.2662116 -0.3042645 0.2100724 0.4601202
000080 11 3f e0 bd cc 5b 89 be 6e 72 ad be 5a 77 f0 be
       -0.10949529 -0.26827848 -0.33876365 -0.46966058
000090 2e c1 0b bb e3 19 85 be f5 78 e3 bd 8c 49 fe bd
       -0.002132486 -0.25996312 -0.11107055 -0.12416372
0000a0 b5 e0 1c 3f cf f5 43 bd 40 71 b5 be 02 fb 50 3e
       0.61280376 -0.047841843 -0.35437965 0.20408252
0000b0 89 9c 62 be 57 ad a6 3d ca 12 8d be f8 df 3f bd
       -0.22130026 0.08138531 -0.27553397 -0.046844453
0000c0 f8 6f f3 3e 74 4d 95 3e f4 4b 42 bc 03 8d 94 3d
       0.47546363 0.29160655 -0.011858929 0.07253458
0000d0 9f 34 06 3e db 0f b1 3e 59 67 1f 3e 73 94 c8 be
       0.13106011 0.3458241 0.15566768 -0.39175758
0000e0 a3 85 fd bd fa 55 78 3e 6c 66 b7 bd 76 10 3d 3e
       -0.12379005 0.24251547 -0.08955082 0.1846331
0000f0 8d 20 55 3d 30 ca d6 3e 3e e2 7f 3e 85 e2 fe 3d
       0.052032996 0.41951132 0.24988648 0.12445549
000100 26 ee c6 39 63 99 c4 3d a2 d4 3a be cd 79 b0 3e
       0.00037942937 0.09599569 -0.18245175 0.34467927
000110 9e ac da be cb b3 cd bd 65 e3 56 bc ec 67 18 bf
       -0.4270982 -0.100440584 -0.0131157385 -0.5953357
000120 84 23 b5 3e 45 4f 43 be fb 60 92 3e b3 85 f4 3e
       0.3537866 -0.19073208 0.28589615 0.47758254
000130 e0 54 cf 3d 58 cc f7 3e 46 f3 30 3d c4 26 53 3d
       0.101236105 0.4839809 0.043200754 0.05155064
000140 8b 3a 05 3e d4 f1 e0 bd ee 62 ed 3c fe a9 73 3e
       0.13010614 -0.10983625 0.028977837 0.23795316
000150 1a a6 ad 3e 47 a0 90 bd 03 aa 0e be 97 2a e6 3e
       0.33915788 -0.070618205 -0.13932042 0.44954368
000160 61 5a d1 3d ca 17 a7 3e 6c 93 ba be ce e2 72 3e
       0.102223165 0.32635337 -0.364406 0.23719332
000170 42 bd 1b be 14 93 db bd 74 9c 97 3d f6 d2 b0 bc
       -0.15208915 -0.10721412 0.07402888 -0.021584969
000180 c2 7e 97 3e b0 cf 4a bd 60 e4 86 3e 79 8a 4a 3f
       0.29588896 -0.049514472 0.2634611 0.7911754
000190 d4 40 35 3e f6 96 34 3c b7 11 97 bc 14 e5 05 bf
       0.17700511 0.01102232 -0.018441064 -0.5230267
0001a0 5a 6a f4 3e 93 73 a0 3c a7 ce 0d 3e ff 83 7b bd
       0.4773739 0.01958636 0.13848363 -0.06140518
0001b0 12 40 76 be 0a b6 a4 3e c2 ba 01 3f fd c2 97 be
       -0.24047878 0.32170135 0.50675595 -0.29640952
0001c0 ab cc 0a be f3 90 60 3d 13 f3 60 be 9e b1 8c 3d
       -0.13554637 0.054825734 -0.21967725 0.06869815
0001d0 7d 0d ae bd e0 53 2b 3e 27 ff 0c bd ef 53 ec 3e
       -0.084986664 0.16731215 -0.03442302 0.46157786
0001e0 cd 8b 12 3d 63 7d b4 be 77 99 86 3e 7c 87 51 3d
       0.035777856 -0.35251912 0.2628896 0.0511546
0001f0 3c 44 eb 3e a8 59 56 bd 80 1c 0e bc 11 2b a6 3e
       0.45950496 -0.052331597 -0.008673787 0.32454732
000200 a5 dc 4f 3e 2b 0a 5e bd 76 c8 ac 3d 0e 65 12 bd
       0.20299013 -0.054208916 0.084366724 -0.035740905
000210 db f7 f8 be d6 92 38 be ac 19 0d 3d fc 4b a5 3e
       -0.486266 -0.18024763 0.03444831 0.32284534
000220 3a 06 ab be ef 8b ea 3e 9f e1 62 3e 9e e9 11 3e
       -0.33403188 0.45809886 0.2215638 0.14249274
000230 3b 23 f5 3d 8f 29 76 bd 4a 63 5a be 4d 0a b4 3d
       0.1196961 -0.060098227 -0.21326938 0.08791027
000240 46 6a 42 bc 2b c2 13 bd 85 87 8b 3c 04 5e 72 bd
       -0.011866158 -0.036073845 0.017032394 -0.05917169
000250 32 c9 12 be 70 e3 5b be 3a 70 e9 3d f3 37 97 3e
       -0.14334562 -0.2147348 0.11398359 0.29534873
000260 ae 82 17 3e 62 d3 73 bd 62 0e e6 be 21 46 c0 bd
       0.14795944 -0.059527762 -0.44932848 -0.09388376
000270 3d 83 75 be 7c da 41 3d 82 47 b6 be 87 b0 82 bd
       -0.23975845 0.047327504 -0.3560143 -0.06381326
000280 64 a1 c2 bd cd 82 40 3e 79 ce b0 3e ff 1a 00 be
       -0.09503439 0.18799897 0.34532526 -0.12510298
000290 9a ef 4d bd 38 87 83 3e 4f f1 87 3e 7e 87 d9 bd
       -0.05027733 0.256891 0.2655129 -0.10621546
0002a0 83 a8 6e 3d 33 2c df bd 7a 94 eb 3e a6 2e 16 be
       0.058266174 -0.10897102 0.46011716 -0.14666232
0002b0 60 0c 40 be c4 5f 4c bd da 7a b7 3e 5d 0e 23 be
       -0.1875472 -0.049896017 0.35835916 -0.15923448
0002c0 08 99 0b be 50 29 3e bf ed da c3 be d7 b7 f7 3e
       -0.13632596 -0.7428179 -0.38252965 0.48382446
0002d0 41 4b a0 3d 21 65 b2 3e cc 44 3c 3d 8a 00 6c bc
       0.078268535 0.3484278 0.045964047 -0.014404425
0002e0 79 b5 3b 3e 60 77 98 3c 09 46 81 3e 44 e0 4e bd
       0.18330945 0.01861161 0.25248745 -0.050506845
0002f0 c8 99 a9 bd e6 af ab 3c d5 e4 2e be e4 9b 08 3e
       -0.082812846 0.020957898 -0.1707948 0.13340718
000300 05 fd 85 be 5b 53 d6 3c d6 5e dc be d0 ac 2f 3e
       -0.261696 0.026162794 -0.43041104 0.17155766
000310 1f 80 ee bd 5c 80 30 3e 4b c6 c6 3d 66 ed 9f 3c
       -0.11645531 0.17236465 0.0970579 0.01952238
000320 ba 0f aa bd 7e fa 1f bf 7e a3 9c be 6e a7 50 bd
       -0.08303781 -0.62491596 -0.30593485 -0.050940923
000330 1f 14 3c 3e 64 8d 17 3f 5c 1f da 3d bd 8d 82 be
       0.1836705 0.5920012 0.106505126 -0.25498763
000340 44 78 d3 bc 79 79 76 be e5 49 98 be de da b3 bd
       -0.025814183 -0.24069776 -0.29743877 -0.0878198
000350 a9 1a 1a be 81 d3 fe bc 7c ca fe 3d c2 a6 90 be
       -0.15049233 -0.031106712 0.124409646 -0.28252226
000360 58 85 23 bd 19 82 07 be a3 c3 25 be e7 67 c6 3c
       -0.03992209 -0.13233222 -0.1618791 0.024219466
000370 b9 20 bc 3e 32 c4 8a 3e 89 b1 ba bc 57 27 2a be
       0.36743715 0.2710281 -0.022789733 -0.1661657
000380 55 ce 92 be eb 12 c2 be 38 9b 1b bd 32 ee 5b be
       -0.28673044 -0.37905058 -0.037989825 -0.21477583
000390 8a 95 ce 3d 7f 8b 50 3e 22 f3 21 be 86 bd 39 3e
       0.10087116 0.20365714 -0.15815404 0.18138704
0003a0 93 9c f3 bd 5f 29 ed 3d 54 8f b7 be d9 9e 4f bd
       -0.118950985 0.115801565 -0.35851538 -0.0506886
0003b0 4b 7a 04 3e f0 36 7e 3d a2 2d b6 3d 01 6a e1 3d
       0.12937276 0.06206411 0.088954225 0.11006547
0003c0 c8 43 a5 3e 22 0d 55 3e 25 df 99 be 50 78 1f be
       0.32278275 0.20805791 -0.30053058 -0.1557324
0003d0 45 12 fb be 15 63 f2 3e bc 3d 3d 3e 32 74 e2 bd
       -0.49037376 0.4734122 0.18480581 -0.11057319
0003e0 c8 af eb bd bb b9 66 3e b1 b7 cb bd 25 14 9e bd
       -0.11508137 0.22531788 -0.09947146 -0.07718686
0003f0 a6 4f e5 bd ec 07 f3 be 2d f1 1c be 8e 41 80 be
       -0.11196832 -0.4746698 -0.15326376 -0.25050014

network_body.observation_encoder.processors.0.dense.0.bias f4 [128]
000000 ef c0 67 3c cd 63 5d 3c 55 e8 e4 3c 80 7e f2 3c
       0.01414512 0.013512564 0.027942816 0.029601336
000010 ba b6 c0 bb d4 45 4d 3b e2 12 1f bc 64 db 6a 3b
       -0.0058811577 0.0031322138 -0.009709092 0.0035836333
000020 4e 30 8c 3c 87 c0 11 bb 62 53 17 bc 2c f6 cc 3b
       0.017112877 -0.002224 -0.009236189 0.006254932
000030 20 70 9b 3c 7c 6a 5c 3b 07 55 7b bb 03 f0 d6 3c
       0.018974364 0.0033632806 -0.003835024 0.026237493
000040 1e de 3d 3c 34 61 46 3c 11 ff 10 3d 13 59 09 3c
       0.011588601 0.012108136 0.0353995 0.008383053
000050 fc 0d c6 3b 05 d4 bb 3c ab 57 c8 3b a7 b6 89 bb
       0.0060441475 0.022928247 0.0061139665 -0.004202682
000060 a4 0e 36 3c 3e 77 e1 3b 44 f4 a1 bb d4 d8 9c 3b
       0.011111889 0.00688067 -0.004942449 0.00478659
000070 85 0a 88 3c 86 82 ac bb eb fe 75 bc 83 b6 fd ba
       0.016606579 -0.005264583 -0.01501439 -0.0019356761
000080 e2 8b 9e 3c ed 48 91 3c c0 df e0 3b c2 c1 b4 ba
       0.01935381 0.017734969 0.0068626106 -0.0013790654
000090 c1 28 e0 3a b4 3b db 3c 8d 5e 60 bb 0d fa 4d 3c
       0.0017101989 0.026761867 -0.0034236044 0.012571824
0000a0 c3 76 05 bc 8e b6 20 bc a6 fb 31 bc af 4b bd 3c
       -0.008145991 -0.009809149 -0.01086322 0.023107378
0000b0 f1 74 c4 bb 83 0f b1 ba 09 34 ee bb 2f db 56 3c
       -0.005995386 -0.0013508651 -0.0072693867 0.013113781
0000c0 d5 76 b3 3b ee 74 63 bc de 17 31 3c a9 cf e8 3b
       0.0054768124 -0.013882859 0.010808913 0.007104833
0000d0 04 5c aa 3c 6a f9 e3 3c b4 39 bf 3c 84 69 e6 3b
       0.02079583 0.02782889 0.023342945 0.0070316214
0000e0 5e e8 80 3c 2f 12 90 3c 32 c4 55 3c 28 5f 70 3c
       0.015735801 0.017586796 0.013047265 0.0146711245
0000f0 f1 32 e4 bb 9b 28 a5 3c cb 25 c3 bb f3 5b 15 3b
       -0.0069640805 0.020160964 -0.005955433 0.0022790402
000100 c2 5f 88 bb 3d e1 6f bc 5d 86 a3 3c ed 8d aa bb
       -0.004161806 -0.014641103 0.01996153 -0.005204907
000110 cc 44 ee 3b 5a f7 c2 bb fc b7 28 3c 90 d1 a0 3b
       0.007271385 -0.0059498968 0.010297772 0.0049077943
000120 1c 6e ea 3c 62 25 cd bb 76 2d 10 3d 5a 46 31 3c
       0.028616957 -0.00626056 0.035199605 0.010819996
000130 1c 6f c5 3c ab 03 8b 3b 23 e6 c8 3c 3d bf 01 3c
       0.024100833 0.0042423806 0.0245238 0.00791913
000140 86 05 44 3c ff 7f 36 3b e5 ed 0c bb 4e bc ef 3c
       0.0119642075 0.0027847288 -0.00215041 0.029264595
000150 66 47 31 3c bf 18 ed 3c 32 13 bd 3c 73 06 28 3a
       0.010820245 0.028942464 0.023080442 0.00064096524
000160 33 58 04 bb 09 3f ae 3c cc 08 cd 3c 51 1b 13 bc
       -0.0020194172 0.021270292 0.025028609 -0.008978681
000170 be c1 cc 3c 84 a5 51 3c a9 df 8b 3c dc c0 3c 3c
       0.024994727 0.01279581 0.017074423 0.011520591
000180 5c 83 83 bb c1 4d 60 3c b2 e6 bb 3c 76 8b 88 3c
       -0.004013462 0.013690413 0.022937153 0.016668063
000190 71 32 42 3c dc 8a 26 ba 3e 82 83 bb 6e 57 87 3c
       0.0118528465 -0.0006353089 -0.004013329 0.016521182
0001a0 09 4e 8c 3c fe f5 e7 bc 68 8b 27 bb 71 9d d4 3c
       0.017127054 -0.02831554 -0.002556527 0.02595398
0001b0 82 70 f9 ba 16 af 81 3c ec 2b d7 b9 12 54 17 bb
       -0.0019030722 0.015830558 -0.0004104072 -0.0023090881
0001c0 97 c9 19 bc d2 31 35 bc b7 d8 35 3c 1f ab 66 3b
       -0.009386442 -0.011059241 0.011099032 0.003519721
0001d0 84 88 f5 3c 36 51 48 3c 24 1a 3e bc 87 6b f7 bb
       0.029972322 0.012226393 -0.011602912 -0.00755066
0001e0 4f 12 49 3c 47 0f c9 3c 56 d6 fe 3c 4c fd 05 3c
       0.0122724315 0.024543418 0.031108063 0.008178066
0001f0 54 05 ca 38 9d c1 87 3c 75 0a 0d bc 72 ae ae bb
       9.633103e-05 0.016571814 -0.00860845 -0.005330854

network_body._body_endoder.seq_layers.0.weight f4 [128, 323]
000000 6b 32 b6 3c 44 eb 89 bc 46 13 a0 3c e3 84 3a bd
       0.022240838 -0.016835816 0.01954044 -0.045536887
000010 16 74 a4 bd 8d 97 37 3d ee 4c f7 3c c0 81 8d 3d
       -0.08029954 0.044822264 0.03018805 0.069095135
000020 c9 b1 50 bd ca 81 54 3c 4d 51 dc bd 32 ad 0c bd
       -0.0509508 0.012970397 -0.107576944 -0.03434486
000030 4e 49 11 3d 3a b2 38 3d f6 ce d0 bb ea b8 67 3d
       0.0354703 0.045091845 -0.006372328 0.056572832
000040 96 5e c0 3c 1d 32 8a bd 59 a6 1b 3d 2b ea 1d 3d
       0.023482602 -0.067478396 0.03800044 0.038553398
000050 33 63 66 3d 7f ca 0b 3d 8c 71 55 bd 64 d8 05 bd
       0.056246947 0.034128662 -0.05211024 -0.03267707
000060 27 ea f4 bc 51 1a 43 3c 9c a9 31 bd 2f fa ac 3d
       -0.029896809 0.01190813 -0.043374643 0.08446156
000070 38 5c 90 3d bc d3 8c bd c1 5b 86 bd a7 53 53 3d
       0.07048839 -0.068763226 -0.065604694 0.05159345
000080 f5 2b 86 3c 40 d3 7b bd 9c f2 fc bd 37 a8 1a bd
       0.016378382 -0.06148076 -0.123509616 -0.03775808
000090 f1 76 96 3d e5 8e 09 3d e1 22 74 bc e3 2b 97 3d
       0.07346905 0.03358354 -0.014900894 0.073814176
0000a0 d2 4c 39 bd dd 04 12 3d 83 47 8a bc 58 c1 3e bd
       -0.045239277 0.03564917 -0.016879803 -0.046571106
0000b0 0e da f8 3a ce 03 73 ba aa 04 60 bc 9e 91 56 3d
       0.0018985884 -0.00092702813 -0.013672987 0.052384965
0000c0 bd 87 b6 bd e7 af 4f bd 3d ea d0 3d 8c e7 36 bd
       -0.08912609 -0.050704863 0.102009274 -0.044654414
0000d0 41 86 ec bc 41 e2 f3 bb de 29 97 bd de 4d 78 3c
       -0.028872611 -0.007442743 -0.073810324 0.015155284
0000e0 d6 45 de ba cb 0b 08 bd 87 22 6b bd 11 56 72 3d
       -0.0016958069 -0.03321437 -0.057405975 0.05916411
0000f0 b3 d2 80 bd 5d f0 01 bd 32 b2 16 bd 02 6d 7e 3c
       -0.06290188 -0.03172337 -0.036791034 0.015528919
000100 51 d2 6b 3d 82 ca 88 bd a5 b3 ef bb 93 5a b7 3d
       0.05757362 -0.0667925 -0.0073151165 0.089528225
000110 7a a0 11 bc 28 19 01 be 07 d1 b8 bc 3a 86 d5 bc
       -0.008888358 -0.12607253 -0.02256061 -0.02606498
000120 56 2b 22 3d f2 1c 36 bc 6d 81 8e 3b 8d a4 b2 3d
       0.03959211 -0.0111153 0.004348925 0.08722792
000130 ea 60 07 3d 15 16 9e 3c a3 68 02 bc 39 7e 71 3c
       0.03305141 0.019297639 -0.007959518 0.0147395665
000140 ff 8c 25 bd 61 f2 ce 3c 83 30 91 3d e2 0e f9 3c
       -0.040417667 0.02526206 0.07089331 0.030402604
000150 73 af 77 3c 62 f9 64 3d f7 f2 83 3d 90 af 8d 3d
       0.015117514 0.055901892 0.06442826 0.069182515
000160 93 5b 2b bc 43 97 e9 3c 3d 79 5a 3d 1c 84 8c bc
       -0.010458845 0.02851451 0.053338278 -0.017152838
000170 ec df 7a bd 1d e7 07 bd 1f 20 46 3c 53 b4 90 3d
       -0.061248705 -0.03317939 0.012092619 0.07065644
000180 7f 2f 41 3b bf ec 7c bd 19 b0 9a bd 71 20 88 bc
       0.0029477773 -0.061749216 -0.07553119 -0.016617032
000190 08 dc e4 3d 6c 66 e3 bb eb 1e 8c bc 77 9d e7 3d
       0.1117478 -0.0069397 -0.017104587 0.11309331
0001a0 ba 7f 68 bb f6 58 c8 bc e4 e9 02 3d 0d 76 43 3d
       -0.0035476522 -0.024456482 0.031961337 0.047720004
0001b0 20 e0 46 bd d3 8b 3d 3d fc 35 98 3c c3 75 ad 3d
       -0.048553586 0.046275925 0.01858043 0.08469727
0001c0 59 a9 89 bd 9a 59 2f 3d 29 58 f5 3b 95 42 55 bd
       -0.067217536 0.04281006 0.007487316 -0.05206545
0001d0 5f aa 57 3b ae ca 9e b8 a7 00 28 bd fb 9a 03 bd
       0.0032907946 -7.571779e-05 -0.041016247 -0.032130223
0001e0 2b d2 39 3c fa ca 41 3d 94 4c 83 3d 0a 8c ac bd
       0.011341612 0.047312714 0.064110905 -0.08425148
0001f0 18 3a 1b 3c 9a 83 bf 3c 2a ea 72 3d c6 40 a7 bd
       0.0094743 0.023378182 0.059305348 -0.081666514
000200 ef be 28 bd cf f9 b9 bc 82 01 61 3d b0 a3 2e 3d
       -0.041197713 -0.022702126 0.05493308 0.042636573
000210 98 5e bc bc 1a 61 1a bd a5 90 24 3c 3b 9e a2 3d
       -0.022994325 -0.03769026 0.010044252 0.07940336
000220 a0 94 40 bc 97 c2 d1 bd 0a 68 9d bc 90 45 de 3d
       -0.011754185 -0.10242193 -0.019214649 0.10853112
000230 86 2f d9 3d 00 11 ac 3d 12 0b 81 bc a0 ac 51 3b
       0.106047675 0.0840168 -0.015752349 0.0031993762
000240 83 26 d3 bd f7 ae eb 3c 7f 56 5b bd 0b 1d 19 bd
       -0.1031008 0.028769953 -0.053549286 -0.037381213
000250 33 11 38 bc cb ff 4c bd 7b 62 6f bc 68 08 c6 3d
       -0.011234569 -0.05004863 -0.014610882 0.09669572
000260 11 50 b2 bd 1b ae cd bb e0 e2 de 3d ce 98 d3 ba
       -0.08706678 -0.0062768585 0.10883117 -0.0016143562
000270 ce d8 80 bd fc e3 09 3d 81 56 6e 3d 20 a4 e5 3b
       -0.06291352 0.03366469 0.058187965 0.0070080906
000280 59 dd 11 3b 93 db 25 3d 6c 68 2c 3c ee 25 03 be
       0.0022257178 0.040492605 0.010522943 -0.12807438
000290 23 62 93 bd 04 a7 30 bd 7c 7f 94 3d 9e b8 94 bd
       -0.071964525 -0.04312803 0.07250878 -0.072617754
0002a0 29 d0 8d bb e2 15 46 bd 31 a0 62 bc 48 c8 10 3e
       -0.004327793 -0.048360713 -0.013832138 0.14138901
0002b0 e7 5b 05 bd 57 f6 93 3d 9b 30 81 bd c2 0f 80 3d
       -0.032558348 0.0722472 -0.06308099 0.062530056
0002c0 00 cf 9f 3c bd 1b 11 bd 1c 39 be 3d e3 72 11 bc
       0.019507885 -0.035426844 0.092882365 -0.008877489
0002d0 a9 fe 26 3b f1 a8 56 3d 37 8b b7 bc 18 8d 28 bd
       0.002548138 0.05240721 -0.02240525 -0.041150182
0002e0 de 7f b8 b9 44 69 ca 3d e9 08 13 3d 53 fa c4 bc
       -0.00035190483 0.09883359 0.03589717 -0.024045145
0002f0 cd 62 24 bd 6e 3d 99 3c d0 22 09 3c 22 0d 9a bd
       -0.040133286 0.01870605 0.008370116 -0.07522036
000300 e1 73 09 3d 85 44 8f bb 53 f4 d7 bd 48 4f 43 3b
       0.033557776 -0.004372182 -0.10544648 0.0029801894
000310 ed 61 34 3e 9b c4 f1 bd 57 b1 53 bc 42 37 25 bb
       0.1761548 -0.11805078 -0.012920699 -0.0025209938
000320 9f d6 9b 3c 97 76 a9 3d 6b 40 8d 3c 91 e1 b2 bc
       0.019023238 0.08274572 0.017242631 -0.021836074
000330 82 5f a0 3c bd 26 36 3c 1c 16 27 3d c7 26 97 3c
       0.019576792 0.011117634 0.04079257 0.018451108
000340 29 e0 39 bc 25 7f 00 3d 49 82 90 3c e9 41 e3 3c
       -0.011344948 0.031371254 0.01764025 0.02774139
000350 e2 80 21 bd 0d de 9c 3d 4d e9 63 3d ed 29 ac bc
       -0.039429553 0.0765954 0.055642415 -0.021016086
000360 b1 17 83 3c fe ab a7 bd de 8a a3 3b b8 1c 2c 3d
       0.016002508 -0.08187102 0.0049909195 0.042019576
000370 06 ad 5b bd bb b6 57 3c 8c 2a 01 3c 51 f5 87 3d
       -0.053631805 0.013166125 0.007883679 0.06638587
000380 7e 67 ba 3b 45 f8 42 3c 2b 0a 71 3d 1f bf b9 3c
       0.0056886068 0.011900012 0.058847588 0.022674141
000390 08 87 7d ba 7d 22 c3 3d f8 81 0c 3d 7b e2 dc 3d
       -0.00096713053 0.095280625 0.034303635 0.10785385
0003a0 a1 67 87 bd 8e 46 c0 bd d5 43 f7 3c 18 27 dd 3c
       -0.066115625 -0.09388457 0.030183712 0.02699618
0003b0 6f aa af bd 38 9c 63 3b b9 7d 69 bd 89 f9 65 bb
       -0.085774295 0.0034730565 -0.057004664 -0.0035091361
0003c0 a8 78 8a bd 78 26 15 bc 20 eb ae 3d 19 8c 12 bd
       -0.067612946 -0.00910341 0.0854094 -0.03577814
0003d0 80 cc 33 bd 17 45 ee bc 75 83 b8 bc 3a 75 ee bc
       -0.0438962 -0.029085679 -0.022523621 -0.029108632
0003e0 39 38 62 b9 81 4d 57 bd 6d 05 df bc f9 44 e0 ba
       -0.00021573984 -0.052564148 -0.027224267 -0.0017110399
0003f0 9b e9 b4 bd 7d 8d 40 3d ad ee 8e bd d6 90 3c bd
       -0.08833619 0.047009934 -0.069791175 -0.046036564

network_body._body_endoder.seq_layers.0.bias f4 [128]
000000 26 7e b3 3b 78 c0 12 bc 19 89 ee 3b 13 c5 d0 3c
       0.0054776845 -0.008957021 0.007279527 0.025484597
000010 28 30 ad ba c5 4a 2c 3c fb 4d aa 39 e1 44 a4 bb
       -0.0013213204 0.010515873 0.00032483027 -0.005013094
000020 15 94 ce 3c b1 0b 18 3b cf 18 ad bb f6 2e 85 bb
       0.025217095 0.0023200328 -0.0052824984 -0.004064436
000030 a5 6f c6 3a c9 fd 59 3c 91 e2 a2 3a a2 b7 18 3d
       0.0015139474 0.013305136 0.0012427141 0.0372845
000040 82 da 90 bc e3 02 35 3a 83 91 9c bb 90 47 25 3d
       -0.017682318 0.0006905032 -0.0047780885 0.04035145
000050 cc ee ee 3b 75 5f 9e bb 95 bf 9e bc 9e f9 82 b8
       0.0072916504 -0.0048331567 -0.019378463 -6.245378e-05
000060 c9 41 a4 3b 85 eb 89 3c c6 5e a9 3a e2 4a 9e 3b
       0.005012725 0.016835937 0.0012921921 0.004830704
000070 8e 36 fe 3b 16 03 41 bb 1b a3 8c 3c 1d 3f df 3c
       0.0077579683 -0.0029451302 0.017167618 0.027251774
000080 e0 66 3b bc b0 1a e4 bb 50 e7 2f 3c 48 7b 5f ba
       -0.0114381015 -0.006961189 0.010736302 -0.0008525145
000090 c2 c5 be bb d6 7b 42 bc ae ec 06 3b 5e 12 0d 3d
       -0.0058219144 -0.011870345 0.002058785 0.034441344
0000a0 17 e0 ce bb 89 fe aa 3c 2b 8c cd 3c 2a 10 9e bb
       -0.0063133347 0.020873325 0.025091251 -0.0048237043
0000b0 78 bd af bb 73 27 9e bb a5 00 e9 3c 32 a7 90 3b
       -0.0053631626 -0.00482648 0.02844269 0.0044144625
0000c0 5a ac ed bb 41 9a 8f bb b4 fb 77 3c b5 68 22 3c
       -0.007253212 -0.004382402 0.015135694 0.009912659
0000d0 43 8f de 3c c5 4a 8d 3c d7 4f 84 3c 65 bf 05 bc
       0.027167922 0.017247567 0.016151352 -0.008163308
0000e0 66 bd 83 3b 3c 96 4e 3a 7b b8 42 3c 3f 44 68 3c
       0.004020381 0.0007880663 0.011884804 0.014176427
0000f0 a9 ad 61 3b 45 00 67 bc 62 53 ed 3c 4e b7 26 3b
       0.0034435785 -0.014099185 0.028970424 0.0025438848
000100 20 e8 09 bb 09 51 a3 bb c3 b6 2f bb 57 01 03 bc
       -0.0021042898 -0.0049840254 -0.0026811815 -0.007995925
000110 dd ae 6f 3c 6b 95 a9 3c 90 9b 2a bb 3a b4 3f bc
       0.014629093 0.02070113 -0.0026032664 -0.011700684
000120 94 e1 22 3c 48 07 65 3a 51 66 17 3c 37 ee 83 3b
       0.009941477 0.0008736742 0.009240703 0.0040262
000130 b7 0d 97 3c 30 d5 35 3c 84 ad 25 3c ad 73 38 bc
       0.018439157 0.011098191 0.01011217 -0.011258048
000140 98 af 81 3a 5f a4 fd 39 34 9b ca bb 5b 59 74 bc
       0.000989425 0.00048378386 -0.0061830524 -0.014913882
000150 81 6a df bb 5b 7e a4 bb 79 ff 0b 3d 73 f2 89 bb
       -0.006818116 -0.0050199456 0.034179185 -0.0042098104
000160 90 6c 04 3d 02 03 c5 bb 8b 37 a5 bb 17 d5 9e b9
       0.032330096 -0.0060123214 -0.0050420216 -0.00030294873
000170 5e d7 41 3b e6 a2 21 bb 54 12 b5 bb a2 63 26 bc
       0.0029577832 -0.0024663745 -0.0055258665 -0.01015559
000180 55 81 c3 3c 2b c4 a3 3c 8e 30 68 ba 93 32 28 ba
       0.023865381 0.019991001 -0.0008857333 -0.00064162276
000190 4a 10 c8 ba 96 5b 29 bc e9 68 a8 3c 40 a9 11 3c
       -0.0015263644 -0.010336777 0.020557838 0.00889045
0001a0 0f 0c fa 3b d4 82 39 3c 7a 29 0c bc 4d b9 8c ba
       0.007630832 0.011322696 -0.008554811 -0.0010736376
0001b0 62 11 a0 3b 10 c7 1a bb 7b f7 26 3c b1 04 4b bc
       0.0048848847 -0.0023617186 0.01019084 -0.012391255
0001c0 90 fd 8a ba f2 b7 3c bb c2 66 10 bc e4 dc 33 bc
       -0.0010604132 -0.0028796163 -0.008813562 -0.010977957
0001d0 cd 76 8e bb 3a e1 2d 3c 1b aa 0b 3c ee d6 17 bb
       -0.0043476583 0.01061278 0.008524443 -0.002316888
0001e0 4e 91 a3 3c 91 25 5f bc 6c 8a 92 bb 92 a9 75 ba
       0.019966748 -0.013619796 -0.0044720676 -0.0009371276
0001f0 4d fb 99 bb 68 6a a2 bb 1d b0 34 bc 0f a7 ff 3c
       -0.004699147 -0.0049565323 -0.011028317 0.03120759

network_body._body_endoder.seq_layers.2.weight f4 [128, 128]
000000 80 45 ac 3d 93 56 fa bc 10 74 10 3e 3b e6 23 3d
       0.084116936 -0.03055886 0.14106774 0.040014487
000010 7c 4e ea bd 70 83 f6 3d 62 22 0f be ae 5d 05 bc
       -0.11440751 0.120367885 -0.1397796 -0.008140011
000020 bc 18 2c bd b8 b8 bd 3d 72 79 03 bd 3a 14 16 be
       -0.042015776 0.09263748 -0.03209824 -0.14656153
000030 4e 3a 6e bd b5 42 95 bb 08 ef 35 bd cd bf 73 be
       -0.058161072 -0.0045550712 -0.04441741 -0.23803635
000040 03 e4 bb bd d4 de 9b 3d 0e 90 ce 3d a8 1c 17 be
       -0.09174349 0.076108605 0.1008607 -0.14757025
000050 16 11 36 3e 0d 79 8c 3d 93 71 46 bd f7 0b df 3c
       0.17779955 0.06859026 -0.048448157 0.027227385
000060 7d 1f 06 3c 3c db a2 3d a3 41 c2 bd ab b8 90 bd
       0.008186218 0.07951972 -0.094851755 -0.070664726
000070 98 23 f5 bd 09 bf 79 bb 14 7f 15 3c 8b f6 6c bb
       -0.119696796 -0.003810825 0.009124536 -0.0036157693
000080 8e 73 a0 3d f9 e8 af bc c0 29 80 3d 31 3f e5 3c
       0.0783454 -0.021473395 0.06257963 0.027984234
000090 67 68 b4 3d 16 60 68 bd c4 af 6c 3d 28 87 97 bd
       0.08808976 -0.05673226 0.05778481 -0.07398826
0000a0 89 f9 0c 3e 5a de 87 bc c1 c1 28 bd 74 70 e5 bd
       0.13767065 -0.016585518 -0.041200403 -0.11203089
0000b0 f5 bc 32 be bd 0f 56 bc 7b 14 66 bd 75 27 e0 bc
       -0.17454894 -0.013065276 -0.056171875 -0.027362565
0000c0 da 81 b0 bd 00 e4 09 3d 1a dc dd bd 51 96 23 3d
       -0.08618517 0.033664703 -0.10832997 0.039938275
0000d0 2a e7 ce 3d bb 81 2f 3d 7c 1f 32 3d 26 ad 1d bd
       0.10102685 0.04284833 0.043487057 -0.038495205
0000e0 ea 34 e8 3d 1e 99 f4 bc d6 81 a3 3d d4 20 cc bc
       0.113382176 -0.029858168 0.079837486 -0.024917997
0000f0 57 34 18 3e 60 5c 5c 3c 6c c1 04 3c cb 70 d6 bd
       0.14863716 0.013449758 0.008102756 -0.10470732
000100 53 f2 49 3c 3c 6b f6 bc bc 8c fe bc f6 f5 49 3d
       0.012325841 -0.03008043 -0.031072967 0.049306832
000110 d2 36 cf 3d 86 19 ce bc a4 10 9a bd dc 08 1b bc
       0.10117878 -0.025158655 -0.07522705 -0.009462561
000120 20 f2 af bd 05 c5 64 3e 91 29 51 bc b8 47 96 3d
       -0.085911036 0.22340782 -0.012766258 0.07337898
000130 b7 0b 23 3d 7d 83 88 3d ff 0f 3e 3d f2 79 76 3d
       0.039806094 0.066657044 0.046401974 0.06017489
000140 2b cd cb bd cc f2 11 3e d0 8f c1 bd 47 89 60 3e
       -0.09951242 0.14252776 -0.09451258 0.21927367
000150 37 11 3f bd b1 e8 d2 3d a9 e8 62 bd ce 9c a4 3d
       -0.046647277 0.102982886 -0.055397663 0.080377206
000160 54 0d d2 bb 6a 22 85 3c 71 33 45 3c 8c 8c 53 be
       -0.0064102802 0.016251761 0.01203619 -0.20659083
000170 53 a9 a5 bc 62 f2 e3 bd 17 b8 e0 3c 14 c3 a6 3d
       -0.020222342 -0.11130215 0.02743153 0.08142677
000180 2b b8 8f bd b2 0b c3 3d 26 64 a7 bd da 3f fb 3c
       -0.07017549 0.09523715 -0.08173399 0.030670095
000190 aa f1 47 3c b3 d5 e4 bd 4f 28 3f 3d 00 f3 d2 bc
       0.012203613 -0.111735724 0.0466693 -0.025750637
0001a0 de 2f a6 bd a1 8f 41 3d 1c 52 09 be 0e 1e 24 be
       -0.08114599 0.047256116 -0.13410228 -0.1602709
0001b0 73 09 32 3a eb 77 a8 3d 7a c5 66 3c 17 ce de bc
       0.0006791569 0.082259975 0.014085168 -0.02719788
0001c0 cb 5f ce bd f3 80 51 bb ae 9b 26 3d f0 46 1e b9
       -0.10076865 -0.003196773 0.04067581 -0.0001509448
0001d0 07 54 61 bd 23 86 2a 3d 21 1a 58 be 40 33 f0 bc
       -0.055011775 0.04163183 -0.21103717 -0.029321313
0001e0 13 67 6f bc 3a 53 07 be 6c e7 80 bd b9 cf cf bd
       -0.014611977 -0.13215342 -0.0629414 -0.10147042
0001f0 83 16 cc bd d6 e9 08 be 04 e4 7c bc 38 ad 9f bc
       -0.09965231 -0.13370451 -0.015435223 -0.019491777
000200 d7 33 9b 3d fe dc 65 3c b1 35 38 3c 54 31 ce bc
       0.07578247 0.014029739 0.01124327 -0.025170006
000210 2a 22 11 bc 4a 1f 13 3e 6f 6d 83 bd 5e 8e aa bd
       -0.008858243 0.14367405 -0.06417357 -0.08327936
000220 2b 8a 79 bd 9e 26 23 bd 59 eb 6e 3d 42 07 5e 3d
       -0.060922783 -0.03983175 0.058329914 0.05420614
000230 73 88 9f 3b d3 90 f2 3d cf 1a 77 3d 8d 64 04 be
       0.004868561 0.11844029 0.0603283 -0.12928982
000240 23 6b 9b bd ba f0 5a 3d 21 89 24 bd 99 0b 9c bc
       -0.07588794 0.05345223 -0.04016984 -0.019048499
000250 56 b1 3a 3d 39 68 8a 3b 3c f3 9c 3d 52 f3 42 3d
       0.045579277 0.00422385 0.07663581 0.04759533
000260 40 b8 db bd 33 9a 03 3e d8 6a 53 3d d5 fe a8 b7
       -0.10728502 0.12851791 0.051615566 -2.0145826e-05
000270 93 87 1d bd 39 a3 26 3d 35 c3 84 3d 3c 76 af bc
       -0.03845937 0.040683005 0.06482545 -0.021418683
000280 82 19 e3 3c 92 61 c2 3d 99 e0 5d bd ca 99 b1 3d
       0.027722124 0.09491266 -0.05416927 0.08671911
000290 bd da 02 be 6b fe 68 bc f8 44 27 3e 0c 36 2e bd
       -0.12778755 -0.014220814 0.16334903 -0.042532012
0002a0 5f 7a d5 bd 5f c7 34 3e 36 98 60 3d a5 60 72 bc
       -0.10423731 0.17654179 0.05483266 -0.01479355
0002b0 2b a8 08 be 66 12 65 bc 80 0d 6c 3e 8a a2 46 bb
       -0.13345401 -0.013981437 0.23052025 -0.0030309283
0002c0 9f fe a5 3d 0b 53 1d be 35 10 31 be 49 1e 08 3e
       0.08105206 -0.1536371 -0.17291339 0.13292803
0002d0 97 46 a6 3b 57 05 44 bd 50 cd 5f bc f4 bf 96 3d
       0.005074333 -0.047856655 -0.01365979 0.07360831
0002e0 f1 ea 6f bd 33 17 9d bc f7 55 59 3d 31 0d 6a bc
       -0.058573667 -0.019176101 0.053060498 -0.014285372
0002f0 a6 66 02 3d 77 1d 35 bd 9f 3c 87 3d 4b c2 2a 3e
       0.031836174 -0.044217553 0.066033594 0.1667568
000300 db dc b3 bd c3 ea df 3b f7 04 94 3d b5 4f b7 3d
       -0.08782359 0.0068334057 0.072275095 0.0895075
000310 5f 1e 0c 3e 0a c0 15 be 25 e3 9c 3c f5 79 e8 3d
       0.1368346 -0.14624038 0.01915128 0.113513865
000320 3f 83 e0 3d ae dc 4f 3d 02 ab 00 be 2f 1c ae bb
       0.10962533 0.050747566 -0.12565234 -0.0053134183
000330 2e 2d d9 bc 25 2f c1 bd e9 70 a4 3c ab 9c ae bd
       -0.026510801 -0.0943282 0.020073371 -0.08525976
000340 02 8f d1 bd 95 90 36 be ae 00 16 be 99 db 84 bd
       -0.10232355 -0.17828591 -0.14648697 -0.064871974
000350 56 eb cf bd dd 97 26 bd 7f f3 2f bd 62 b9 b1 3d
       -0.10152309 -0.04067217 -0.042956825 0.08677937
000360 cd 78 c9 3d fb 82 b3 bc da f4 bb 3d 6e 6f 91 bd
       0.09837494 -0.021913042 0.09177561 -0.07101332
000370 2e 67 0a 3c cb e3 b1 3b ff 2f 41 bd 4b ae 90 3c
       0.0084474515 0.0054287664 -0.047164913 0.017661234
000380 37 a7 9a bb db 2f c6 bc bf 7d 09 3e e0 04 3d be
       -0.0047196406 -0.024192741 0.13426875 -0.18458891
000390 93 1c 1d 3d 2a 6c bb bd 48 91 e6 bc b3 fb dc bd
       0.03835733 -0.0915149 -0.028145447 -0.10790195
0003a0 57 88 10 be 8c c0 dc bc 0e df 01 3d 43 2d cb 3c
       -0.1411451 -0.026947282 0.031706862 0.024801856
0003b0 4f e4 f4 bc 63 2a a0 bd f1 0d 82 3d b1 ff af bc
       -0.029894022 -0.078205846 0.06350315 -0.021484228
0003c0 69 3b 05 be de 39 c8 3d 37 98 76 3b 0b 02 18 3d
       -0.13010944 0.09776662 0.0037627348 0.037111323
0003d0 9e 62 3c 3b 03 20 1c 3d 4f 58 50 be 09 ce 40 3e
       0.0028745304 0.038116466 -0.20346187 0.18828596
0003e0 eb 3c ba bd 97 b2 8c bc b3 05 78 bd ad 27 1f be
       -0.090936504 -0.017175002 -0.06055231 -0.15542479
0003f0 31 0f 1f 3d 31 b8 c3 bc e1 80 29 3c 48 40 57 be
       0.038832847 -0.02389154 0.0103456685 -0.21020615

network_body._body_endoder.seq_layers.2.bias f4 [128]
000000 df 3a 6b 3a c1 33 56 bc 66 3c 5a 3b d0 48 84 3a
       0.0008973311 -0.0130738625 0.003330016 0.0010092501
000010 15 95 83 bb b6 03 20 3b 94 b6 85 3b 35 3b ac 3b
       -0.0040155747 0.0024416274 0.004080603 0.0052560815
000020 00 da 02 bb 78 89 87 3c 0b a6 78 3c 98 ce 6e bb
       -0.0019966364 0.016545042 0.0151763065 -0.0036439057
000030 30 db 00 3c 47 f0 08 bc a9 15 19 3d c7 6a 66 3b
       0.007864758 -0.008358068 0.037374172 0.003515886
000040 3a 9b 1c bb 46 68 b4 bb 64 cb 08 bc 32 e4 df 3c
       -0.0023896233 -0.0055055944 -0.008349273 0.027330492
000050 d6 11 de 3c 69 8d 90 bb 16 88 55 bb ba 7b ca bb
       0.027108114 -0.0044113887 -0.0032582334 -0.0061793
000060 ed 2b d7 ba 46 66 1c 3b ac 91 fb 3a 5b 93 8b 3c
       -0.0016416289 0.002386467 0.0019193194 0.017038038
000070 e4 87 1e 3b 35 a9 27 3c d9 25 61 3c bb 00 29 3c
       0.0024189884 0.010233213 0.013741934 0.010315116
000080 06 49 63 bb 29 63 97 bb 5d 9c e7 bb 1a be 59 3c
       -0.0034680977 -0.004619975 -0.0070682005 0.013289953
000090 02 77 a2 bb c1 05 d9 3b b4 6b d3 bb 11 74 c4 3c
       -0.0049580345 0.0066230004 -0.006452048 0.023981126
0000a0 ce 95 05 ba 44 a3 6d bc 2b 38 5f 3c 16 59 d6 3b
       -0.000509587 -0.014504258 0.013624231 0.0065413816
0000b0 61 a8 0a 3c fc 5a c6 bb d6 eb 29 ba 50 b4 84 bb
       0.008462996 -0.0060533267 -0.00064819807 -0.0040498152
0000c0 4e a4 3d 3c be cc 0d 3b 21 36 54 bc 4f da 9b bb
       0.011574818 0.0021636928 -0.012952358 -0.004756249
0000d0 b1 56 b9 bb 3e 5a 07 bb 48 b6 62 bb e3 c3 c2 3c
       -0.0056560864 -0.0020653154 -0.0034593511 0.023775047
0000e0 0b 5e 06 bb 7b d6 d8 bb 06 46 1a 3b c8 40 07 bb
       -0.0020502831 -0.006617365 0.0023540272 -0.0020637978
0000f0 97 a2 1c bc c0 a1 bb 3c 65 68 8a 3b 32 9d 5c bc
       -0.009560249 0.022904277 0.0042238706 -0.013465213
000100 d4 3a 81 bc 89 ba f9 3c cb c6 8c 3c 22 a4 18 3c
       -0.015775122 0.030484455 0.017184636 0.009316476
000110 07 e0 73 ba 66 71 72 3c 25 2a 6e bc b0 2c 68 b9
       -0.0009303097 0.014797544 -0.014536415 -0.00022141892
000120 7f 1d 18 3c 29 cf 86 3c 4f 87 93 bc 94 f6 a5 3a
       0.009284376 0.016456204 -0.018008856 0.0012661987
000130 fd be 77 bb fc e1 6d 3b a4 6e 7b bb 05 23 e5 3c
       -0.0037803047 0.0036298027 -0.0038365507 0.0279708
000140 89 60 f6 3b f6 68 17 bb ee 77 d7 bb 82 68 d2 bb
       0.007518832 -0.0023103333 -0.006575576 -0.0064211497
000150 39 05 93 bb bf fc e7 bb 6b dc 7f bb 45 74 06 bb
       -0.0044867066 -0.00707969 -0.0039041291 -0.002051608
000160 87 6d e7 bb 0a 8e 19 bc 53 35 bc bb 59 a7 7f 3b
       -0.007062617 -0.009372244 -0.0057436614 0.003900966
000170 ac 4a ad 3b 78 59 60 bb 0b 4b b7 bb 7a 56 aa bb
       0.0052884426 -0.0034233015 -0.0055936626 -0.005198297
000180 96 b8 55 3c b9 49 22 39 ad 8f 86 bb 96 99 98 bb
       0.013044497 0.00015476988 -0.004106483 -0.0046569807
000190 9b ad c7 bb d0 ef 15 bc e5 dd d4 3c 16 9e fc 3b
       -0.0060936934 -0.009151414 0.025984714 0.007709275
0001a0 ea 7f b7 bb ca a2 eb bb 30 fc 11 bc 02 a5 de 3c
       -0.0055999653 -0.007191037 -0.008910224 0.027178291
0001b0 f3 5f 00 bb 97 0c c1 bb 9f 4c 93 3b 4c 60 05 3c
       -0.001958844 -0.0058913934 0.004495218 0.008140635
0001c0 46 db 84 3a 3d dc 9f 3b 07 9c 8e 3c bb 0e 66 3b
       0.0010136149 0.0048785494 0.017408384 0.0035103995
0001d0 00 43 3e bc da 3c b4 3c db 3a 23 bb 7c 47 8c b9
       -0.011612654 0.022001673 -0.0024906907 -0.0002675614
0001e0 38 91 24 3c 62 b4 a0 ba 49 9a 89 b9 59 20 d5 bb
       0.0100443885 -0.001226079 -0.00026245628 -0.0065041003
0001f0 b4 21 8b 3b 3f 60 52 bb 28 40 64 bb 91 74 d6 3c
       0.004245961 -0.0032100824 -0.003482828 0.02617863
