results/reinRayLong2/ZARAgoal/ZARAgoal-299997.onnx (onnx, 309348 bytes, 15 tensors)

discrete_act_size_vector f4 [1, 2]
00000000: 0000 0040 0000 4040
2.0 3.0

network_body.observation_encoder.processors.0.conv_layers.0.weight f4 [16, 5, 8, 8]
00000000: 8865 7dbc 5f19 b2bd e14b d33c 11ff 43bc
00000010: 23f2 0dbd ca42 09bc cf36 a9bc 497f 7b3b
00000020: c4e0 b2bd 7c3a 5f3c 1061 bbbc 7618 70bd
00000030: 453e 96bd 844c 1b3c 1df6 e0bc c515 1ebd
00000040: 3a44 a4bc 3774 753c d86f b1bc 5bef 9fba
00000050: 865e 9bbd 3ed9 48bc 0fc9 bcbd c4d6 be3c
00000060: 173c f5bc d987 51bc 9067 30bd f1bb 8abc
00000070: ccb3 28bd 760d 573c 87e5 0cbc 9c80 14bc
00000080: ad54 8abd 94c6 d63c 31a1 b3bd 6568 89bc
00000090: 6beb 12ba b530 53bc f267 21bd 429a 08bd
000000a0: 5963 d1bc 08fe 33bb ba3e e7bc 294d 4e3c
000000b0: bf60 53bd 5ce2 a5bd 4340 26bd f525 9cbc
000000c0: 90fe d63c ea74 51bd e464 c43b 8a03 9d3b
000000d0: 884a 1cbd 82e1 75bd 4590 83bd 4799 5abd
000000e0: 4231 133d 3404 253d 66c6 013d 688a 61bc
000000f0: b77f 713d 607b 12bc 5fac 3f3d c714 153d
00000100: 4faa 853c 187b 413d ff02 783c 83e0 373d
00000110: 2e5a 253d b9de 983d a37d 5c3d 3756 843d
00000120: c743 913d 5b00 9f3d 27ed 7a3d 2113 8e3d
00000130: 5dfe ab3c 0b94 9b3d 6d42 1a3d 2192 e9bb
00000140: da94 0a3d ca64 013e 529a 4e3d bfd1 1e3c
00000150: 6443 0abb fa2b d53d 94d1 823a cdfd ac3d
00000160: d844 a63d 2535 be3d 104d 9b3c 88b8 c63d
00000170: 39b9 6a3c 2bc3 8abc ae3a 263d b0df 813d
00000180: be34 d03d aa06 f03b 515d b13d e303 973d
00000190: 0b83 633d 46e8 703b 1e1a bebc f556 1b3d
000001a0: d494 1b3d a57b f23c 09ce be3c f4a2 5c3d
000001b0: 603e 05bd f4fd 99bc 9e6d 133d 3a55 1a3d
000001c0: 71a4 bb3d 4efe dd3d 5233 bfbb 1ebb 823d
000001d0: d7ee ea3b b5fa 023c c89b 5c3d abf9 f6bc
000001e0: b28f a83d 5570 6d3d 0f7c 423d 6649 173d
000001f0: aef3 d2bc 42f1 1b3d 8a8d e3bb 860a 72bc
00000200: 9d36 fbbc be86 24bd b25e 213c 7aa0 7f3c
00000210: 3723 ecbc 1d64 f4bc de31 223d 4bc5 7a3d
00000220: 10f2 54bd 4760 f0bc 18d3 82bd f198 3dbd
00000230: d232 4f3d 7adc 3bbc 010e a43b 29db ac3c
00000240: 7a3b 6d3c 8f30 99bd 1be7 7ebd 202e 24bd
00000250: 3084 9cba 9527 33bb c98c 8f3d 2d11 9f3c
00000260: a8fe 1cbd 5c4d b13c 26b4 883c a189 443d
00000270: 0687 5a3a 709c 64bd 73e4 a43c e355 813d
00000280: 1d70 af3c 9f7a 8d3d e1cc 04bd 9b87 6dbb
00000290: cfff 323d c32c 35bd 717f 0dbd 2a09 903d
000002a0: 348f e23c 0165 c53c f8c2 24bd 1575 033c
000002b0: 6bd2 04bd 5a6e 0abd 3d72 1f3d d9c9 06bd
000002c0: a3c1 273d a5c4 25bd a412 4dbd fa7b e93c
000002d0: 43cc 293c 134f fabc d969 903c 2429 c3bb
000002e0: b6fb 193d 401e 2fbd 8201 b73c 4776 36bd
000002f0: d1a2 1e3b 2145 d43c fba3 633d 5eb7 aa3c
00000300: c780 d33d 683f d63d a007 a43c 9695 5e3d
00000310: 45d6 b93d 075c 993d a592 fd3b d75c 193c
00000320: 698a 2e3c dcb8 9f3d 61e2 d23c 8ed3 863b
00000330: 559a 8a3d 4e77 0f3d 95e6 ce3d c6ba 923d
00000340: e283 5d3d b4cd f53b ad1a 2e3d 1f3e e13c
00000350: 3650 8a3d f02b 983d 6da9 b63d bf95 e63c
00000360: cba4 ad3d 4390 02bc 53f9 963d 8f53 0f3d
00000370: 3240 5a3d 395a 8f3d d80c da3d 7a00 a43d
00000380: 4364 17bd f278 cabc 17e3 233d ae86 a4bc
00000390: 908a 353b ec31 e53c daa3 993d cf4b 8cbb
000003a0: 2c50 0abc e830 253d 5115 dbbc 456d 713c
000003b0: a81c e03c 7288 d83c 0822 85bc fbe4 553d
000003c0: c689 6d3c 45ef 903c 9a77 b93a a298 283d
000003d0: 2599 3e3d 72b6 d1bb 91b9 743d 5222 b0bc
000003e0: 6786 7bbc ffb8 16bc 7e02 2ebd 6c7c 353d
000003f0: 1403 83bc 6c5a 0dbc fd03 c63c 7ab6 823d
-0.0154661015 -0.086962454 0.025793018 -0.011962668 -0.034654748 -0.00837774 -0.020656018 0.0038375428
-0.08734277 0.013624784 -0.022873431 -0.058617078 -0.07336096 0.009478692 -0.027461106 -0.03859498
-0.020052064 0.014981321 -0.021659777 -0.0012202071 -0.07586388 -0.012258826 -0.092180364 0.023295768
-0.02993588 -0.012788736 -0.043067515 -0.01693532 -0.041187093 0.013125768 -0.008599645 -0.009063866
-0.06754432 0.026217736 -0.08770979 -0.016773412 -0.0005604538 -0.012890031 -0.03940577 -0.033350237
-0.025560068 -0.0027464647 -0.028228153 0.012591639 -0.051605936 -0.08099815 -0.04058863 -0.019061068
0.026244432 -0.05113689 0.0059934724 0.0047916817 -0.038157016 -0.060029514 -0.064240016 -0.053368833
0.035935648 0.04028721 0.031683348 -0.013765909 0.05895969 -0.008940548 0.046795245 0.036396768
0.016316561 0.047236532 0.015137433 0.044891845 0.040369205 0.07464356 0.053830754 0.06461757
0.070930056 0.0776374 0.061261322 0.06937242 0.020995313 0.07596596 0.037661005 -0.0071280156
0.033833362 0.12636104 0.05044014 0.009693562 -0.0021097297 0.104087785 0.0009980672 0.08446846
0.081186 0.0928748 0.018957645 0.09703165 0.014326387 -0.016938766 0.040583305 0.06341493
0.1016631 0.007325013 0.08660377 0.07373788 0.055544894 0.003675954 -0.023205813 0.037924726
0.03798373 0.029599974 0.023291605 0.05386634 -0.03253019 -0.018797852 0.03599321 0.037678935
0.09162224 0.108395204 -0.0058349753 0.06383346 0.007169585 0.0079943435 0.053859502 -0.030148348
0.08230533 0.057968456 0.047481593 0.036935233 -0.025750961 0.03807188 -0.006944363 -0.014773017
-0.03066569 -0.040167563 0.009849237 0.015602225 -0.028825385 -0.029832894 0.03959834 0.06122331
-0.05198866 -0.029342784 -0.06387919 -0.046288434 0.050585575 -0.01146614 0.005006552 0.021100597
0.014479512 -0.07479965 -0.062232118 -0.04008305 -0.001194125 -0.0027336825 0.070092745 0.01941737
-0.038328797 0.021643333 0.016687464 0.047982816 0.000833616 -0.055813253 0.020128464 0.0631521
0.021415764 0.06908154 -0.03242195 -0.0036244157 0.04370099 -0.04423214 -0.034545366 0.07032998
0.027656175 0.024096014 -0.040225 0.00802352 -0.032427233 -0.033796646 0.038927305 -0.03290734
0.04095615 -0.040470738 -0.050066605 0.0285015 0.010363641 -0.030555284 0.017628597 -0.005955832
0.037593566 -0.042753458 0.022339586 -0.04454639 0.0024205933 0.02591187 0.055576306 0.02083939
0.10327297 0.104613125 0.020023167 0.054341875 0.09074072 0.07488256 0.0077384287 0.009360514
0.010653117 0.07798931 0.025742711 0.0041145748 0.06767718 0.035025887 0.10102574 0.071645305
0.05408085 0.0075013284 0.04250591 0.027495442 0.0675358 0.074302554 0.08919034 0.028147576
0.084786974 -0.007968965 0.073717736 0.034991797 0.053283878 0.069996305 0.10646981 0.080079034
-0.03696085 -0.024715874 0.04001149 -0.020083752 0.0027700998 0.027977906 0.07501955 -0.004281498
-0.008441966 0.040329844 -0.026743563 0.014735525 0.027357414 0.02643225 -0.016251579 0.052220326
0.01449818 0.017692218 0.0014150024 0.041161187 0.04653277 -0.006399923 0.059747282 -0.02150074
-0.015351868 -0.00919938 -0.042482845 0.04430811 -0.015992679 -0.008627515 0.024171824 0.06382461

network_body.observation_encoder.processors.0.conv_layers.0.bias f4 [16]
00000000: ca72 b6bb 0a20 17bd 1255 6e3c 49b4 78bc
00000010: 56db a53c 3fa8 f03b 4508 c5bc 8190 4cbd
00000020: 732b 17bd 2241 fcbc e596 70bb bfa6 87bb
00000030: 0c14 6abd 1b9e c73c 9cdb ce3c beca a43b
-0.005567883 -0.03689579 0.0145466495 -0.015179702 0.02024619 0.0073442752 -0.024051795 -0.049942497
-0.03690667 -0.030792776 -0.0036711034 -0.0041397507 -0.057148024 0.024367383 0.025251202 0.0050290516

network_body.observation_encoder.processors.0.conv_layers.2.weight f4 [32, 16, 4, 4]
00000000: dc64 a3bd 7b1f b2bc b746 cdbd fb35 1cbd
00000010: 5f7d 77bd 16e3 bbbc 6bf7 84bd f1f9 5a3c
00000020: 6f6b 34bd c421 2e3d c6aa 91bc e0c5 74bc
00000030: 018b 763c d3cc 8e3d 83b3 a3bb ee20 253d
00000040: 4359 973d b262 af39 65d1 b6bb a519 4f3d
00000050: 47d8 4d3c 1a88 7e3c 5dda b23c 36d9 05bd
00000060: ed84 24bd f992 30bc 5364 42bd 1ad8 5e3b
00000070: 166a 97bc d7b6 453c 5831 3dbd 1b60 84bc
00000080: f7c9 74bc 1eba b2bc d3a9 46bc bc7d 39bc
00000090: 3adc 44bd 8412 213d 22c8 1bbd 3b3f 10bc
000000a0: 1189 4abb e84d ebbc 38b7 12bc 0925 8fbd
000000b0: cabd a03c 71e9 263d e302 973c f8a7 a63c
000000c0: d9b4 7b3d 12e3 833d d5ff 853d 8d02 cf3c
000000d0: 4a25 813d b016 84bc b2e9 e9bc 66b9 7cbc
000000e0: e7b3 913d f711 5d3d b5a2 2ebd 047c 1a3d
000000f0: 4076 a9bd 0b7c 743c e8c7 2e3d 17fe 3f3d
00000100: 0a4f e9bc f916 ed3a a928 743d 5c85 0d3d
00000110: 921e 84bd bee8 8139 8c36 1c3d 02f2 8dbb
00000120: bfc7 80bc 3e1d c33a 47e6 0e3d c99a 383d
00000130: 700e 5f3c f59c e7bc d986 5d3d 4c12 663c
00000140: d9bf c5bb fd47 5f3d 2bfc 5e3d 6fff ffbc
00000150: 0562 efbc 6daa 0b3d fa2a 093d 8bb6 e03c
00000160: 33a4 093b 7bb9 833d 4558 aabb cc31 803d
00000170: 88e4 e73c a2e8 6d3d deb7 123d d865 62bd
00000180: 386b ba3b 6930 813d f1b2 ba3c 6a43 b6bb
00000190: d568 7a3d bad5 443d 7b31 e13c a592 86bd
000001a0: 8a38 d7bc 1243 f6bc 7697 e7bc 70f8 493d
000001b0: 465f 3dbd b8e7 10bd 7251 a9bc 3f8a 0d3d
000001c0: 7ba5 a43c e10a bc3d 1257 a9bb 6c1a 55bc
000001d0: 190e 473d 3be2 693b 05b1 d0bb d709 543d
000001e0: 391e 563c 6830 27bd d05d 093c b185 a1bc
000001f0: 1be1 84bd 5dd3 b63c 5ac5 8b3c 7f01 4dbd
00000200: 3082 8a3d 5126 0dbc e9dd 113d caa6 1d3b
00000210: c6c3 b4bb 0783 423d 4c10 f8bc a4c6 90bc
00000220: 10a3 b93d 201f 283d 8df2 063d 1381 19bc
00000230: bcff 833d c35b 853c 5f80 513d 32e6 7e3d
00000240: a806 26bc 1b7c 953d 62f5 9cbc 3eef 193d
00000250: 932c 393d 0880 05bc 60ec 33bd a178 1f3d
00000260: 63b8 68bc 566b 72bc 2d8f debc 6391 253d
00000270: 9b0d 2b3d 1004 40bd e46d 263d bcd1 eb3b
00000280: 9b85 39bd 92dd c73c 70f4 afbc 4643 883b
00000290: cd15 a8bd 8009 203d f121 70bd 86c3 24bd
000002a0: e564 52bd ea4c caba 9b67 443d c962 2d3c
000002b0: 8f6e 45bb 5fa0 b33d 5dda 9e3d 31e5 1b3d
000002c0: 8a04 3eba aba3 143b d2a4 fa3b dc04 d2bb
000002d0: 0b12 ae3b d1b3 4b3d f679 33bd ff64 79bd
000002e0: e0b9 0dbd 82e2 253d de01 8cbd 76f0 4dbd
000002f0: a21b 88bd b5ba ce3c 9c0f 3ebd a763 863c
00000300: f748 3b3d 1021 8c3c 32b2 b33c f53f a03c
00000310: fb06 0abd a5e9 a53d 8d8e 73bb 008d 35bc
00000320: 5405 21bd 97ca aa3b 7b5b 1abd a75d df3c
00000330: 27d7 cfbc c174 90bd 5754 75bd 6343 38bd
00000340: 144f ac3c ff0f f93c 39b2 98bc 0fac 543c
00000350: 703d 3ebd eecf 873d 6500 f8ba 6272 d6bc
00000360: ee5e 2cbc 9bf5 49bd 0756 1bbd ae57 61bc
00000370: 74b1 923d 5185 463d 4a94 a5bc 065e 5e3a
00000380: b9b1 51bd f766 9f3d dba5 533d 67c4 03bc
00000390: 9c98 6c3d 401f aa3d cf70 2ebd 8f27 36bd
000003a0: 9cab 453d 244b 7dbd da63 bd3c 1548 303d
000003b0: 6447 d2bc b548 b3bd 75c4 ba3b 7033 6ebd
000003c0: 5bbf 003a 0026 0f3d 783d 4e3d 5688 98bc
000003d0: ccee 5c3d 50e7 13bd 7fd0 6a3d 1687 4a3c
000003e0: 56bb 523d 5bfa 143c 8e89 c13c 3cc0 523d
000003f0: 862e ae3c 4e99 d63c 0a52 e7bc 2c16 8fbc
-0.07978222 -0.021743527 -0.100232534 -0.038137417 -0.060422298 -0.022935431 -0.06492504 0.013365255
-0.04404777 0.04251267 -0.017781626 -0.014939755 0.01504779 0.06972661 -0.0049957647 0.040314607
0.07390072 0.00033452135 -0.005579161 0.050561566 0.012563772 0.015535379 0.02183264 -0.03267785
-0.04016583 -0.0107772285 -0.047458958 0.0034003318 -0.018483203 0.012067518 -0.046189636 -0.016159108
-0.01494073 -0.021817263 -0.01212545 -0.011321481 -0.048061587 0.0393243 -0.03803266 -0.008804138
-0.0030904452 -0.028723672 -0.008954816 -0.06989486 0.019621748 0.04074997 0.018433994 0.020343766
0.061451767 0.064397946 0.06542937 0.025269771 0.063059404 -0.0161241 -0.028553817 -0.015425062
0.07114392 0.05397221 -0.04263564 0.037715927 -0.082745075 0.014922152 0.042671114 0.04687318
-0.028480072 0.0018088511 0.05960909 0.03455101 -0.06451143 0.00024778204 0.038137957 -0.004331828
-0.015720246 0.0014886034 0.03488758 0.04506949 0.013614282 -0.028273085 0.05408368 0.014042448
-0.006034833 0.054512013 0.054439705 -0.03124973 -0.029221544 0.034098078 0.03348825 0.027430793
0.0021002411 0.06431862 -0.005198511 0.06259498 0.028307214 0.058083184 0.03581988 -0.055272907
0.005689051 0.06308062 0.022790404 -0.0055622356 0.061135132 0.048055388 0.027489414 -0.06570939
-0.026272077 -0.030061278 -0.028270464 0.049309194 -0.046233438 -0.035377234 -0.020668719 0.03455567
0.020098438 0.091817625 -0.0051678503 -0.013006788 0.04859743 0.0035687822 -0.0063687586 0.051767197
0.013068729 -0.04081765 0.008384183 -0.01971707 -0.06488248 0.022317583 0.017061878 -0.050050255
0.067631125 -0.008615092 0.03561202 0.0024055713 -0.005516502 0.04748824 -0.030281208 -0.017672844
0.09064305 0.041045308 0.03294616 -0.009369153 0.06445262 0.016279107 0.051147815 0.06223125
-0.010133423 0.07299062 -0.019159976 0.037581675 0.045208525 -0.008148201 -0.043926597 0.0389334
-0.0142041175 -0.014796099 -0.02716788 0.040421855 0.041761022 -0.046878874 0.040632144 0.007196633
-0.04529343 0.024397645 -0.021478862 0.0041584102 -0.08207283 0.03907156 -0.05862612 -0.04022553
-0.05136575 -0.0015434299 0.04795037 0.010582634 -0.0030125713 0.08770823 0.07756493 0.03806037
-0.0007248601 0.0022680562 0.0076490426 -0.0064092707 0.0053122095 0.049732033 -0.043817483 -0.060887333
-0.034601092 0.040499218 -0.06836294 -0.05027815 -0.066458955 0.025235513 -0.046401605 0.01640494
0.04572388 0.01710561 0.021935556 0.019561747 -0.033698063 0.08101205 -0.0037163824 -0.01108098
-0.039311722 0.005212139 -0.0376849 0.027266337 -0.025371147 -0.07053519 -0.059894886 -0.04498614
0.021033801 0.030403135 -0.01863967 0.012980475 -0.04644531 0.06631456 -0.0018921016 -0.026177589
-0.01052068 -0.049306493 -0.03792384 -0.013753815 0.07162753 0.048466984 -0.020212311 0.00084826385
-0.05119488 0.07783311 0.051671844 -0.008042431 0.057762727 0.08306742 -0.04258805 -0.04447132
0.048259363 -0.061839238 0.023118902 0.043037493 -0.025668807 -0.08754102 0.005699689 -0.058154523
0.00049113267 0.03494835 0.05035159 -0.018619698 0.053938672 -0.03610927 0.057327744 0.012361309
0.05144819 0.0090928925 0.023625161 0.05145286 0.021262418 0.026196148 -0.028237361 -0.017466627

network_body.observation_encoder.processors.0.conv_layers.2.bias f4 [32]
00000000: 77a2 28bd 7be4 62bd a754 27bd e48b 613c
00000010: 7c36 923d 0257 133d 201c 693d e5d3 17bd
00000020: f6c0 0dbd 1357 893d 95cf 813c 81eb 06bd
00000030: cce1 ae3c c7db 15bd b448 6cbd 0028 45bc
00000040: 5364 d5bc 1edc ea3c b9f0 843c 01f3 52bc
00000050: 14be 78bd 6fcc 383d 5706 a43d 49b9 2a3c
00000060: 6578 5abb 4698 9b3c 66cf 0d3d f86c bf3b
00000070: 6b95 58bb fa1f 2ebd e5f3 7e3c b604 2fbd
-0.041170564 -0.055393677 -0.040852215 0.013766263 0.07139298 0.03597165 0.056911588 -0.037067313
-0.03460785 0.06706061 0.015846053 -0.032939438 0.021347903 -0.03658655 -0.057686523 -0.0120334625
-0.026048815 0.028669413 0.016228067 -0.012875319 -0.060728148 0.045116838 0.08009022 0.010420152
-0.003333592 0.018993508 0.03462162 0.0058418475 -0.0033048044 -0.042510964 0.015561079 -0.042729102

network_body.observation_encoder.processors.0.dense.0.weight f4 [128, 32]
00000000: 0799 523d d85b 673d c535 93bd 88e4 2dbe
00000010: 6a83 f33e 6c3d f3bc 46c9 e4bd e0e0 08bf
00000020: d2cd 823c 251b 1fbe 4819 85bd e098 223e
00000030: 2b3c 893e 10de 413d 80f9 77bd 5467 bd3c
00000040: 9905 ebbe 6f80 26be d609 e53c 5ee4 1cbe
00000050: 6140 c6bc c8a9 aebe 9846 efbc e356 debd
00000060: 60cb f63e ec32 30be 8dfe 07be d606 47be
00000070: 355e 973e 00a8 f43e 9430 ca3d b793 533e
00000080: de41 7d3e c4b8 64bd e19b 3d3e 6368 d3be
00000090: c03a 34be f48a 18be c940 4abe 5fa2 ab3e
000000a0: dfc7 27bd bdb7 9c3d 8e4c a6bd 9f28 e83d
000000b0: f07c 86be 3031 88be f73b b83d 2b78 813e
000000c0: 8563 83bd 5934 d6be df2d 95be db17 d3be
000000d0: 4844 f8bd cad7 933e efa1 5fbe 7ed1 353e
000000e0: a51c 663e 859f 493d 659e 07bf ab12 bf3d
000000f0: ceda adbd 7460 2cbf b4cc d3bd 1796 993b
00000100: 1c69 fabe 011d 57be 5403 283e 48eb 2f3e
00000110: 503c 473e 6984 233b e495 f3be 7319 843e
00000120: 1b21 7c3d d489 e83c 9cb4 053e ffbe 96be
00000130: 6d8f 863e 769e 35bd 0409 6e3e f812 bd3e
00000140: b65b 49bc 9f28 52bc 5fbf c73d 3449 3e3e
00000150: 1905 d63d 8876 a8bd af5f 2bbe 6b76 95bc
00000160: 8069 68bd 69b5 873e 99ab 40bb 9e04 05bd
00000170: b0b9 083f c3a6 283d 22ee 073f 47c0 2dbd
00000180: 2e22 db3e dd5e a23e 09f6 2c3e c2c9 89bd
00000190: 042f 983e 699a a9be 3eef a43e f995 6c3b
000001a0: 7623 853e 3a84 d63c 5b29 8bbe debc 18bf
000001b0: 9dc9 743e ea72 7e3e 4882 fc3e 389f f53e
000001c0: 8fcf a6bd 2fa6 9abe 20e6 cd3e af9c c23e
000001d0: 6986 0ebd 2b12 a2bd 0598 033d 8cca af3d
000001e0: c264 20be 6346 adbe ba8d 6cbd e142 21be
000001f0: 9da9 f3bd f937 febe 6f14 7c3e 4dc0 a83e
00000200: 6472 f43e 4f57 2a3f ea62 9f3e e117 bcbe
00000210: 25b1 8bbe a0da 45bd fe18 27bd a6d0 dcbd
00000220: ad3b c43d 9829 2fbe 3cf6 d83e 75af 86be
00000230: 7484 bf3e e6e4 c0bc 1651 04bf 2d24 6d3d
00000240: cbde 6c3d a087 d7be f482 78be 728b d83e
00000250: cfdb 8cbd d3f1 883c b291 4dbe 6248 cdbe
00000260: a85b ad3d e585 733e 2147 85be 5ed5 ed3d
00000270: 0c06 bb3e bc01 443f 6ac4 283e 14f6 a9be
00000280: f347 e03d 38ac 7c3e 7b14 0b3e 380c cebd
00000290: fb81 a33e 5ffb cf3c 5e78 8c3e 3d66 bb3e
000002a0: e70f 213e ce11 723b 8c1e 133e 3bc6 dbbd
000002b0: 8be4 2a3e 85dd 09be ba81 4fbd ec88 12bf
000002c0: 7149 24be 94ca 76be 1e22 28bd e38d cabe
000002d0: e99c a83e c61e 1d3f a814 50be c526 a43c
000002e0: 3685 81be 7d00 0c3e cf86 523d 26c3 473e
000002f0: 2fb7 4b3e 01d9 24be a502 92be a457 8bbd
00000300: f4e4 a6be 06e7 69bd 1a53 053e 6dea a33d
00000310: 4370 1bbe ad0a 6bbd 9dc4 cfbd 387c 4f3e
00000320: ad9a bebc edd9 21bd 020d 90be e114 d13e
00000330: ce53 8e3d 87c0 a9bd 358f 13be 8246 83bc
00000340: c249 ccbe 7223 2b3d 49db 793e da63 12bd
00000350: 3b8d 733e f7f6 dc3d 4c30 26be d5f6 bcbc
00000360: f66f 033d f3bc 833e 0f79 f33d 61fa 4bbe
00000370: e438 203e 3d61 86bd 86e9 903e e28a 40be
00000380: 0b8f 423e d901 7fbd c8a3 74bd ff38 a3be
00000390: a816 1d3e 9796 79be c938 4c3d 7bae 013c
000003a0: 8a7c 84be 5916 bcbd c028 85bd 531b e93d
000003b0: 7af4 1dbf 06d4 01be 3217 4dbe 3345 cebd
000003c0: 67ef 283c c2d3 dabd 935c 2f3d c255 9dbe
000003d0: 1e37 ff3d 16e5 a2bd eda4 56be b2f4 d7be
000003e0: 1fec bcbe d5cf c13d 28b3 acbe 10d6 94be
000003f0: dbbd 093d edee 9d3e 3302 1d3c 5052 1cbc
0.05141547 0.056484073 -0.0718799 -0.16981709 0.47561198 -0.029692374 -0.11171202 -0.5346813
0.015967283 -0.15537699 -0.06498963 0.1587863 0.26803717 0.047330916 -0.060540676 0.02312056
-0.45902708 -0.16259931 0.027958792 -0.1532149 -0.02420062 -0.34113908 -0.029208466 -0.10856416
0.48202038 -0.17206925 -0.13280697 -0.19436201 0.29564062 0.47784424 0.09872547 0.20661817
0.24732158 -0.05584027 0.18516494 -0.41290578 -0.17600536 -0.14896756 -0.19751276 0.33522317
-0.040962096 0.07652233 -0.081200704 0.11335873 -0.26267195 -0.26600027 0.089958124 0.25286993
-0.06415466 -0.41836813 -0.2913656 -0.41229138 -0.121223986 0.2887557 -0.21839117 0.17755696
0.22471865 0.049224395 -0.52976066 0.093297325 -0.08488999 -0.67334676 -0.103417784 0.0046870816
-0.48908317 -0.21007158 0.1640752 0.17179596 0.19456601 0.0024950749 -0.47575295 0.25800666
0.06155501 0.028386034 0.13057178 -0.29442593 0.262813 -0.044340573 0.23245627 0.36928535
-0.012289932 -0.012827068 0.09753298 0.18582612 0.10450191 -0.08225733 -0.16735719 -0.018244943
-0.056741238 0.26505592 -0.0029399155 -0.032475106 0.53408337 0.04117466 0.53097737 -0.042419698
0.42799515 0.31713 0.1689073 -0.067279354 0.2972337 -0.33125618 0.32213777 0.0036100133
0.26003617 0.026186097 -0.2717999 -0.5966319 0.23905034 0.24848524 0.49318147 0.47973037
-0.081450574 -0.30204913 0.40214634 0.38010165 -0.034796152 -0.079136215 0.0321274 0.085835546
-0.15663436 -0.33842763 -0.05775235 -0.15748169 -0.118975855 -0.4965208 0.2461717 0.32959214
0.47743523 0.6653947 0.31130153 -0.36736968 -0.27283588 -0.0483042 -0.04079532 -0.10781984
0.09581695 -0.1710571 0.42375362 -0.26305738 0.3740574 -0.023546647 -0.5168623 0.057895828
0.05782966 -0.4209566 -0.24268705 0.42293888 -0.06877863 0.016716873 -0.2007511 -0.40094286
0.08464748 0.23781545 -0.2603083 0.11612962 0.3652805 0.76565146 0.16481176 -0.33195555
0.10951223 0.24675071 0.13582031 -0.10060924 0.31935105 0.025388418 0.27435583 0.3660144
0.15728723 0.0036936882 0.14367121 -0.10731169 0.16688745 -0.13463409 -0.050660826 -0.57240176
-0.1604364 -0.24100715 -0.04104816 -0.39561376 0.32932213 0.6137508 -0.2032038 0.020038018
-0.25296944 0.13672061 0.051398095 0.19508037 0.19894098 -0.16098405 -0.28517643 -0.068038255
-0.32596552 -0.057105087 0.13019982 0.080036975 -0.15179543 -0.057383228 -0.10144923 0.2026223
-0.023267115 -0.03951447 -0.28134924 0.40836242 0.06949578 -0.08288675 -0.14410098 -0.016024832
-0.39900023 0.04178185 0.24400057 -0.035739757 0.23784344 0.10789292 -0.16229361 -0.023066917
0.032089196 0.25730094 0.118883245 -0.1991973 0.15646702 -0.065615155 0.28303164 -0.1880298
0.18999879 -0.06225762 -0.059726506 -0.31879422 0.15340674 -0.24373852 0.049858842 0.007915135
-0.25876266 -0.0918395 -0.06501913 0.11382165 -0.61701167 -0.12678537 -0.2002838 -0.100717925
0.010310984 -0.10684921 0.042812895 -0.3072949 0.12461685 -0.07953851 -0.20961352 -0.42178875
-0.36898896 0.09463469 -0.33730435 -0.29069567 0.033628326 0.30846348 0.009583044 -0.009541109

network_body.observation_encoder.processors.0.dense.0.bias f4 [128]
00000000: 7dd2 35bc fbeb 91bc c746 3ebb 1c69 8d39
00000010: 2dee 923b 8b7d 07bc cb32 c1bb ba27 73bc
00000020: cbbb 7f3c f757 88bc 6d25 89bc c2a5 50bc
00000030: 8047 91bc 7277 a3bc 6bbf 093c 77b7 1d3d
00000040: e216 583c 7a8a f03b a53d 083b 8308 793d
00000050: c7ba 20bc 441e afbc 8d22 573c 8bdb 183b
00000060: d324 f53c 4423 31bc 92d6 ee3b 2fa8 223d
00000070: 07b1 8ebb 1c68 953b fcc8 933b b8d4 3dbc
00000080: 6bdb 07bd 979a 1e3d c7b1 28bb 703e acbc
00000090: 76d9 f9bc 840e 0bbc ac50 77bc dc4d 56bb
000000a0: 5a26 633c aefb e13c 390e ba3c 67af 463b
000000b0: cd9f fabb 9a56 3a3c 06ba 8f3c 3989 123c
000000c0: 2ae5 bdbc c1d8 a1ba b3ed 143c 2871 153c
000000d0: 6d98 b9bc ce64 6a3d 4278 31bc abd6 233c
000000e0: 0f4d 8b3c 45a4 6c3b f379 c7bc 0203 75bc
000000f0: d766 71bc 2010 a8bb 918b 4e3c cf8a 213c
00000100: 7b11 363c e93e f03c 6c9a 113d a77c 7bbc
00000110: f9da 9c3c 006f 503c da32 b63b 52b3 00bc
00000120: 7f90 6fba cc0c cabb 7ceb c9bb 7562 bebb
00000130: 0e89 60bb 93a5 f6ba 2631 27bb 9a02 13bc
00000140: 8d00 dc3c d363 8bbc 49fa daba d774 ba3c
00000150: d94e ce3c 5cb2 debc cbaf 113c 0bf0 b7ba
00000160: 3a20 8fbb 30ec 233c 69fe a13b c4cb 8abb
00000170: eed4 c03c 04fd 323b 0405 4dbb fc27 dabc
00000180: 80a2 94bc e51d fc3b 795b 683c 0aef 803b
00000190: 36fa 0fbd 83fe c13c e9cf 713c 5f0f f8bb
000001a0: 0652 91bb 351d 8c3b 30b8 edbb bb29 b43a
000001b0: 060f ab3b 7e03 f83b f325 a0bc 9d9f a6bb
000001c0: 96cf 69bc 4641 073a 662f 8f3c 62ac 2a3c
000001d0: 8561 0f3c 835f d9bb 52a2 913b e541 8d3a
000001e0: b921 8abb 6973 3ebc 73fb 41bc 7c0e ce3b
000001f0: 2f0c f0bb b3a4 cc3c 6591 123d a5b5 febb
-0.011097548 -0.01781272 -0.0029033886 0.00026971928 0.004483959 -0.008269678 -0.0058959476 -0.0148410145
0.015608738 -0.016643507 -0.016741479 -0.012734832 -0.01773429 -0.019954417 0.008407454 0.038505044
0.013189049 0.0073407264 0.0020788696 0.060799133 -0.009810156 -0.021376736 0.013130796 0.0023324217
0.029924786 -0.010811631 0.0072887624 0.039711174 -0.0043545994 0.00455953 0.004510043 -0.011586361
-0.033168238 0.038721647 -0.002574073 -0.021025866 -0.030499201 -0.0084873475 -0.015094917 -0.0032700216
0.013864124 0.02758583 0.02271186 0.003031695 -0.0076484443 0.0113731865 0.017544758 0.008943849
-0.023180563 -0.0012347923 0.009089875 0.009121217 -0.02265569 0.05722504 -0.010831894 0.009999911
0.017004518 0.0036108654 -0.024350142 -0.01495433 -0.014733992 -0.0051288754 0.012606517 0.009859755
0.011112566 0.029326873 0.03554766 -0.015349544 0.019147383 0.012721777 0.005560261 -0.007855253
-0.0009138658 -0.0061660763 -0.006162105 -0.005810077 -0.0034261378 -0.0018817656 -0.0025511472 -0.008972788
0.026855731 -0.017015373 -0.0016706671 0.022760792 0.025184082 -0.027184658 0.00889201 -0.001403333
-0.0043678554 0.010005042 0.004943658 -0.0042357165 0.023539033 0.0027311454 -0.0031283507 -0.026630394
-0.018143892 0.0076939934 0.014181965 0.0039347457 -0.03515073 0.023680931 0.014759042 -0.0075701918
-0.004434827 0.0042759427 -0.007254623 0.0013745347 0.005220297 0.0075687757 -0.019549346 -0.0050849454
-0.014270684 0.0005159568 0.017478656 0.010417076 0.008751278 -0.0066337003 0.004444399 0.0010777084
-0.004215446 -0.011624196 -0.011839735 0.0062883478 -0.007325671 0.024980878 0.03578319 -0.0077731186

network_body._body_endoder.seq_layers.0.weight f4 [128, 323]
00000000: 103e 3ebc 2cf5 63bd a9d2 3cbd e0a9 97bd
00000010: f580 7d3d 2918 80bc 8b46 c0bc 352a c13a
00000020: 037f 423d 493b 48bd cb23 ae3c 15e0 e6bb
00000030: 98b2 04bd 64ad b23d b16b b03d 631c ee3c
00000040: 88fd 233e 5f6e 06be 3b43 b33c b666 c63c
00000050: 7df9 16bd d76a 293d a981 fd3d 99df 6dbd
00000060: 2fb4 f33b 9f98 a63d e13f 88bd 5c68 153d
00000070: bcbb 953a e650 873d b8a3 903d a06c a43d
00000080: e7bc 6d3d 5d9f ac3d cb96 8dbc d191 833d
00000090: e31d cfbc 4838 76bd be37 29bd 997a d7bd
000000a0: 85a7 da39 31e7 22bc f9be cb3d 3818 183c
000000b0: d750 0dbe 0f05 b7bd cbfd 3d3d a4d1 dbbc
000000c0: c61f b9bc 6662 a73c 9631 9f3d 1806 2f3d
000000d0: eb10 433a 289d 09bd 9df9 bdbc d9d8 713d
000000e0: 5e6a fc3c 44a7 74bc d93e ed3c 94f2 dfbc
000000f0: eb7f 59bd da8d 68bd 4441 2dbd 1893 0a3e
00000100: f5ec b03d 78e3 4e3d 3218 f63c 4037 4d3d
00000110: 2ecb 91bd 9f87 21be 7b9a 8abb 4f97 b83d
00000120: 1cf0 9a3d f9e8 763d 9178 003e c7fa a53d
00000130: c78c 0d3e 2614 19bd a65f 7dbd fdb5 adbc
00000140: 3598 ae3a 2d19 053c 5eab a63c 5a56 71bd
00000150: 7529 f1bd c29d 5b3c 492c a5bc 4793 bbbc
00000160: f7e1 42ba 616a 2e3d cc99 993c 32e0 09bb
00000170: d61a b2bd 6c49 a43c 68d6 823c fa94 05be
00000180: 0567 babb be8e f8bc f262 bdbd 0bd5 c73c
00000190: 2a2c 85bc 3190 383d 7798 d23b 8ec5 d43c
000001a0: 34e6 85bb ed4b 8d3c d5e5 e8bc 9947 9abb
000001b0: 7112 36bd ad9e 3e3b 69f9 483d 8f4e 27bc
000001c0: a4f4 afbd cce0 783d d96b 8c3d e3bb 2bbd
000001d0: 0bd2 33bd d6d9 9abd c8c0 2ebc 9a5d 663d
000001e0: dcff a43d 3c6a 0b3d 617c 8a3d b234 5f3b
000001f0: e885 283c 567b 17bd 4c31 1a3d f84e 183d
00000200: 6e12 5dbd b917 a33c 5ded 48bd f0b4 88bc
00000210: ac3d 5d3c bd21 9dbd 11e2 283c d8c0 3cbe
00000220: 632f 5f3d 813f 91bc 84d9 09be 7f47 f13c
00000230: 8bd5 fdbd fa50 d53d d091 1f3c 7e4b 87bd
00000240: b22f b3bc a224 24bc 5594 02be 9a17 96bd
00000250: 034c adbc cc92 ecbd 85d0 a83d 20f2 573d
00000260: 4914 7fbd aa5d 553d a502 77bc 5d11 91bd
00000270: f7f2 683d fe6b 523d ee7e ddbd 1de3 c1bc
00000280: afab b9bd 116c 1fbd 5e13 ef3a 0f0c 2fbd
00000290: 10a4 52bd 5246 92bc f2dd 223d 8d7a 6abd
000002a0: 789e a1bd eedf 1b3d 967a 293c 2a29 813c
000002b0: f13c 503c 2177 b33c 2e30 763d 928d 8c3d
000002c0: b4a3 02bd 9348 afbd 5e1b 8dbd b169 45bd
000002d0: 2a0a 163d 15dd bebd 3bfa 8dbc 3bf0 b43c
000002e0: f3cd 03bd 133a fc3c e622 6bbc 7160 c3bc
000002f0: 9806 4fbd 2b8c 1bbd 9e9b 3c3d c151 c0bc
00000300: 96f6 ca3d 7c00 813d 77fd 68bc 1cf6 ff3c
00000310: 44d6 87bd 3c35 d53d 254d 46bc 8e6e 493c
00000320: dc6c 17be 8d2e 0f3b 0be9 593d abc7 f23c
00000330: 0f4b afbc fd00 903d 1009 273d 8104 fe3b
00000340: 9476 673b 9f2a 3c3c aa42 853c 8b1e 3c3d
00000350: ca6c 0cbd eb14 d1ba bd23 413d 2189 893d
00000360: b846 973c 0203 fb3d 6202 21bd 48d8 043d
00000370: d00d 153c bd1a 80bd d09a 36bd c1e2 413d
00000380: c2f6 663d 3ec7 3abd 37e0 993c e7c0 e3bc
00000390: 1b0f 803d 3d3c e9bc cde7 4f3d f879 48bd
000003a0: 6c5f 4f3d 2b5d 95bc 5f82 c2bd ed1d 023d
000003b0: 7930 c6bc 82e2 cd3b 1cd2 48bb a855 f13c
000003c0: 5238 6f3d 23cf 673d 064e ea3d 41ec d23d
000003d0: e886 9d3c 236c 2e3d 5ae7 143d 2f44 b3bd
000003e0: f884 a53d 0cad 80bd f41f 8fbd 2643 943d
000003f0: 297c b63d d741 39bd c7ca 86bc 17f6 223d
-0.011611477 -0.055653736 -0.04609934 -0.07405448 0.06189056 -0.01563652 -0.023471138 0.001473731
0.04748441 -0.048884664 0.021257302 -0.0070457556 -0.032396883 0.08724478 0.086142905 0.02906627
0.16014683 -0.1312804 0.021882644 0.024218898 -0.036859024 0.041361656 0.12378246 -0.058074567
0.007437251 0.08134579 -0.06652809 0.036476478 0.0011423747 0.06607227 0.07062477 0.08028531
0.05804148 0.08428834 -0.017283818 0.06424297 -0.025282806 -0.060112268 -0.041312926 -0.105214305
0.00041705012 -0.009942816 0.099485345 0.009283118 -0.13800369 -0.08936512 0.046384614 -0.026833363
-0.022598159 0.020432662 0.0777313 0.04273042 0.00074411806 -0.03359714 -0.023190314 0.059044693
0.030812439 -0.014932457 0.028960632 -0.02733735 -0.053100508 -0.056775905 -0.04229857 0.13532674
0.08638946 0.0505099 0.030040834 0.05010152 -0.071188316 -0.15774392 -0.0042298413 0.09013235
0.075653285 0.060280774 0.12545992 0.081044726 0.13823234 -0.03737273 -0.061858796 -0.021204943
0.0013320508 0.008123678 0.020345386 -0.058920242 -0.117754854 0.013404312 -0.020162718 -0.022897376
-0.0007434184 0.04258192 0.018750094 -0.0021038172 -0.08696525 0.020054542 0.015971377 -0.13045111
-0.0056885504 -0.030341502 -0.09247388 0.024393579 -0.01625641 0.045059387 0.0064268666 0.025973108
-0.0040862802 0.017248118 -0.028429905 -0.004708242 -0.04445118 0.0029086277 0.04906598 -0.010211601
-0.08591583 0.060761258 0.06856508 -0.04192723 -0.043901484 -0.0756108 -0.01066608 0.05624161
0.08056614 0.03403686 0.06762005 0.0034058508 0.010285832 -0.036982857 0.03764467 0.037184685
-0.053972654 0.019908773 -0.049054492 -0.01668784 0.013503473 -0.07672451 0.010307805 -0.18432939
0.05448855 -0.017730476 -0.13461882 0.029453037 -0.12394246 0.10415836 0.009739354 -0.06606196
-0.021873329 -0.0100185 -0.12751897 -0.073287204 -0.02115441 -0.11551437 0.08242897 0.052721143
-0.062275205 0.052091278 -0.015076314 -0.0708339 0.056872334 0.05137252 -0.108152255 -0.023667866
-0.09065949 -0.03892142 0.0018240025 -0.04273611 -0.051425993 -0.017855797 0.039762445 -0.05724578
-0.07891554 0.038055353 0.010344168 0.015766699 0.012709842 0.021907391 0.06010454 0.0686294
-0.0318944 -0.08558764 -0.068899855 -0.0481965 0.036630787 -0.09319512 -0.017331233 0.022087207
-0.03217883 0.03078941 -0.014351582 -0.023849698 -0.050543398 -0.03797547 0.046046846 -0.023476483
0.09910314 0.062989205 -0.014220587 0.031245284 -0.06632665 0.10410544 -0.012103354 0.012294425
-0.1478762 0.0021847815 0.053200763 0.029636225 -0.021398095 0.070314385 0.040780127 0.0077520018
0.003531848 0.011484771 0.01626714 0.045927566 -0.034283437 -0.0015951669 0.047153223 0.067156084
0.018466339 0.12256433 -0.039308913 0.032432824 0.009097531 -0.062551 -0.044581234 0.04733539
0.05638767 -0.04560017 0.018783672 -0.027801944 0.06252881 -0.028471107 0.05075817 -0.048944443
0.05062811 -0.018232903 -0.094975226 0.03176682 -0.024193035 0.0062831054 -0.0030642813 0.02945979
0.05840332 0.056594025 0.11440663 0.10298968 0.019229367 0.042583596 0.036353447 -0.08753239
0.080820024 -0.06283006 -0.069885164 0.0723937 0.089104004 -0.045228805 -0.016454114 0.03978547

network_body._body_endoder.seq_layers.0.bias f4 [128]
00000000: 0ef3 3b3a fc49 abbc 22e6 4fbc 9996 d7bb
00000010: 3897 a63c 56b7 28bb d099 d33b 6c41 98bc
00000020: 8e49 a03c 66fa 263d fc4f 0e3c bbaa 00bb
00000030: 9ce6 413d 7f01 1d3c 4a16 fdbc 7af6 4bba
00000040: 3101 ef3b 2e6a 253c e07a 423d a796 463b
00000050: 1754 ce3c 8432 143b 8bf6 f53c 5029 adbc
00000060: 56cc ce3b 882c 0d3d 5d40 db3b ab9d 11bd
00000070: a5e8 11b8 f1ca 083d 23fc c03a f990 8d3d
00000080: 6e35 7f3c 3d8e 57ba 0cb6 89bc dc8a a23c
00000090: fe3b a0bc 614b 2b3b 86aa 1d3d d51a d03b
000000a0: 21dc 043d 84f9 b63c 35e3 e63c ae13 893b
000000b0: 5635 b6bb dd52 4d3b 7781 0c3b 5a03 bd3c
000000c0: 73d6 fc3c 9166 443d 0c26 c8ba c5fe 67bc
000000d0: 39ce 463c 7a69 873c 54be 393c dc28 ceba
000000e0: 3172 d13c f966 33bc 70f2 43bc 0472 27bb
000000f0: 64dc 72bc e1d7 ae3c 2deb 413a 1645 ce3b
00000100: 1c0e ee36 887b 0f3d b78b 6b3c c850 053c
00000110: d918 5dbc 71b3 113d b4c3 f8ba ab02 a4bb
00000120: a7ce 283b 6669 333d cf3e d03c e77a 4dbc
00000130: 01df 0f3c 3763 89bb 5474 34bc 568a 623c
00000140: 981c 773a b051 5abc ec89 6c3d c563 a0ba
00000150: 3e0d 91bc 354b c73c a5ff 40ba 741b 723b
00000160: 6ad6 f93c 99e7 003c 7743 173d 3dec 393d
00000170: bc6a f13b 6ac1 543d a427 e03b a17f 413c
00000180: 53d8 843c 7f81 163d c9b7 bc3c 0b61 5ebc
00000190: e9e7 58bc f239 cb3c 9591 9f3c d6df 93bc
000001a0: 750a 973c a775 20bb c410 903d e04d fdba
000001b0: 8d0c 7fbc 698b 93bb be86 603d bcff 2a3d
000001c0: ce40 2d3d 5799 243b 561b ce3b e463 b7bc
000001d0: e549 073d dbf9 3f3d 9bd4 a9bb 9317 073c
000001e0: 1cf9 993b 2798 433c c820 22ba ca4e b53c
000001f0: eb39 ddbc d83d 093d 56b2 7c3c 13c2 87bc
0.0007169702 -0.020909302 -0.012689145 -0.006579232 0.020335779 -0.0025744042 0.006457545 -0.018585883
0.019566324 0.040766142 0.008686062 -0.0019633013 0.047339067 0.009582876 -0.030894417 -0.00077805633
0.007293843 0.010096116 0.047480464 0.0030302198 0.025186582 0.0022613117 0.030024787 -0.021137863
0.00631098 0.034466296 0.0066910223 -0.035550755 -3.478736e-05 0.033396665 0.001472358 0.06912417
0.0155767035 -0.0008222794 -0.01681044 0.019841604 -0.019559857 0.0026137459 0.038492702 0.006350855
0.032436494 0.022335775 0.028184513 0.004183254 -0.0055605574 0.0031329908 0.0021439472 0.023072887
0.030863976 0.047949377 -0.0015270128 -0.014159863 0.012134128 0.016529787 0.011336882 -0.001572873
0.025567146 -0.010949844 -0.011959657 -0.0025550136 -0.014823053 0.021343173 0.00073974096 0.006294857
7.0945953e-06 0.035029918 0.014376572 0.0081369355 -0.013494694 0.03557152 -0.0018979223 -0.005005201
0.002575794 0.043801688 0.025420574 -0.012541509 0.008781196 -0.0041927355 -0.011014063 0.013826927
0.0009426563 -0.01332514 0.05774872 -0.0012236765 -0.01770651 0.024327854 -0.0007362313 0.0036942633
0.030497748 0.007867717 0.036929574 0.04539131 0.00736746 0.051942267 0.006840663 0.011810214
0.016216433 0.03674459 0.023036854 -0.0135729415 -0.013238885 0.024807904 0.019478599 -0.01805107
0.018437603 -0.0024484189 0.07034448 -0.0019325577 -0.015566957 -0.004502703 0.054816 0.041747794
0.04229813 0.0025115812 0.00628988 -0.022386499 0.033029456 0.04686914 -0.0051828153 0.008245367
0.0046988856 0.011938131 -0.00061846944 0.022132296 -0.027005157 0.033506244 0.015423378 -0.016572034

network_body._body_endoder.seq_layers.2.weight f4 [128, 128]
00000000: 3108 9a3d 6f25 223e 9b85 ca3d d91a bb3d
00000010: 5abe 1bbe 0b64 a3bd efb0 a93d c5e4 b23c
00000020: 2028 a7bb 7f6c 03be 4f48 25bd d7e5 263e
00000030: 8e93 a6bd 74c4 bebc d45d d83d 173c 43bd
00000040: 9c79 153e 229e 1cbd 01a3 fcbd da6c 37bd
00000050: 22f0 68bd 0cd0 213d 6538 d3bd 0c88 b43d
00000060: 69f9 1f3d 6de4 27be 32a5 c23d f081 fe3d
00000070: 7b61 803c f5dd 54bd a66e 073e dd55 dd3c
00000080: af2a 38bc dc72 fa3c 06cd c73c 929a 9cbd
00000090: b869 433e d409 ebbd daf8 d9bd f160 4c3d
000000a0: c0ca 0d3e 1dcc ddbd eced acba 60c2 4ebe
000000b0: 55dd 08be a544 36be 82d2 bdbd dc04 11be
000000c0: ee84 1b3d c954 cabc 76ce db3d 6381 e53d
000000d0: 3c25 a4bd 2279 06bc 4305 d53c f3a0 87bd
000000e0: 41e5 abbd 154f 863d 92c1 6dbd 6765 d53d
000000f0: fa93 693d 2ab7 aebd b8db 033d c6cc febd
00000100: 6511 52be 2ba5 763d 4a44 6f3d 7f28 083d
00000110: 0bf2 0d3e e9dc 403d e271 9abc c9e3 e13c
00000120: ad8e ff3d 69b5 e83d 35ae 0cbb 72d4 4a3d
00000130: 0a1a ab3c f174 2d3e 4f8a 873d c6ee 0e3d
00000140: bf11 3abd 84b8 b53b cc05 dcbd 2d00 d03c
00000150: b396 493d ca19 2f3d da78 013d 49cb 383d
00000160: d7ba aa3d 0bef 0d3e c5fb 71bd 3796 73bd
00000170: 56a9 143c 2b54 85bd c880 cd3a 4365 8bbd
00000180: 29fa 403d bad9 28bd cd48 85bd f61c 403d
00000190: 20c1 d8bc bdb8 6b3d a77e ce3d 08af b63c
000001a0: 8a3f 03be a9a4 3abe 449d 973d 814f f1bd
000001b0: e833 11bd c7ff 533d 8db2 86bd f207 aa3c
000001c0: 6c50 063d 2b77 913c 45e8 8c3d ae87 2ebd
000001d0: db81 6a3d c1d3 50bd 0dce 4bbc 5e4d 183d
000001e0: ae22 c33d 0558 02be 48a7 15bd 37eb 10bc
000001f0: 6fc9 b5bd 62bd 043d a8be 7b3d 268a 943d
00000200: 292f ba3c 12e9 fabc b924 88bc e227 49bd
00000210: ec80 6d3d f404 e33c 7b86 063d 985c 773d
00000220: 3475 9abc 10f8 2abd 558c 453e 6e0c 623d
00000230: 38d5 1b3d 48cb 7c3d 418d a5bd 7a05 0ebe
00000240: 0bf9 05be f718 233d 7f83 013e 95c7 223d
00000250: 59ed 0dbe 2e20 2ebd 10f6 033c 4f93 1abe
00000260: 837f cebb 30c2 1f3d 4770 923d e0b7 ed3c
00000270: 7ffc f3bd b7e1 24bd 7907 3b3e e7a5 0bbe
00000280: 4bec 483d b055 b03c 56cd ebba df85 26be
00000290: ab0d 38bd eefc 213e 5833 9ebd 3d80 4b3d
000002a0: de00 21be 723d e23c 3c39 0e3e ffee b5bc
000002b0: ea9d d53d 84a4 a7bc 7a43 523d e9cd 183c
000002c0: 256b 78bd 0895 a93d 9cf8 cb3d 6045 823d
000002d0: 17f2 14bd 5bf7 85bd f7ea c9bc 4a52 643e
000002e0: 4005 a53d daac 8c3d 9902 ce3d fc96 963b
000002f0: d93f 2abd 2aea c1bd ddb4 963d f534 f93c
00000300: 3225 e1bc 7919 75be 68a1 0f3e bd4d 15be
00000310: 4d00 f4bc e181 3cbd 73b5 bdbd 82ff 403d
00000320: 8489 c53d f776 743c 544e 2bbe 9d00 04bd
00000330: 5fb6 483d 90be 5cbc 20e0 0c3d a8fe 7bbe
00000340: 8868 813e d124 9cbd 69bf 893d 3a91 13be
00000350: bda6 3dbc 4742 243d 0ff6 39bd eebc 62be
00000360: 31dd c9bd e516 e63d fab6 b73b aac3 be3b
00000370: b159 d53c da06 f7bd 3d92 9a3d 9a5a 203c
00000380: e30c 083e 2f7c ba3d bd0f 773d 9680 5a3d
00000390: c125 73bd d81c 64bc cd63 bf3d 03db 973d
000003a0: 630f bcbd 3b63 833d 4b8a 81bc 0eeb 88bc
000003b0: ff7b a93d 3c8d 56bd e587 1cbd 2154 1e3d
000003c0: ae09 f9bd aa90 a0bc 000b 663d 1ada 843d
000003d0: dd14 a1bd a39c 2fbd e4ae 87bc 5f9c bb3d
000003e0: 450a 34bd 4577 2bbe c6d1 8c3d 93e7 07be
000003f0: 8f32 12be 534a e13d fd7e 39bb 723c 123e
0.07521094 0.15834592 0.098887645 0.0913598 -0.15209332 -0.07978066 0.082857005 0.021837601
-0.005101219 -0.12834357 -0.040352162 0.16298614 -0.081336126 -0.023287036 0.10564771 -0.047664728
0.14597172 -0.038236745 -0.12335778 -0.044781543 -0.056869633 0.03950505 -0.10313491 0.088150114
0.039056215 -0.16395731 0.09504165 0.12427127 0.015671482 -0.051969487 0.13225803 0.027018482
-0.011240645 0.030572347 0.024389755 -0.076466694 0.19083297 -0.11476484 -0.10643168 0.049897138
0.13846874 -0.10829947 -0.0013193465 -0.20191336 -0.13365681 -0.17799623 -0.09268667 -0.1416201
0.03796857 -0.024698632 0.10732739 0.11206319 -0.080149144 -0.008207591 0.026003486 -0.066224955
-0.08393336 0.065580525 -0.05804593 0.104197316 0.057025887 -0.085310295 0.032191962 -0.12441401
-0.20514448 0.06021611 0.058414735 0.033241745 0.13861863 0.047085676 -0.018853132 0.027574437
0.12478385 0.11362726 -0.002146614 0.04951901 0.02088644 0.16939141 0.06618177 0.03489568
-0.04542708 0.0055456776 -0.10743293 0.025390709 0.049215984 0.042749204 0.031609394 0.045115743
0.08336418 0.13860719 -0.059077997 -0.059469428 0.009073576 -0.065101944 0.0015678639 -0.068064235
0.04711357 -0.041223265 -0.06508026 0.04690262 -0.026459277 0.057549227 0.10082751 0.022300258
-0.12817207 -0.18226875 0.07403043 -0.11782742 -0.035449892 0.0517576 -0.065770246 0.020755742
0.03279154 0.017757019 0.068802394 -0.042609863 0.057252746 -0.050983194 -0.012439263 0.037183158
0.09528099 -0.1272889 -0.036536485 -0.008845142 -0.08876311 0.032407172 0.06146112 0.07252912
0.022727566 -0.030628715 -0.016619073 -0.0491103 0.057984278 0.027712323 0.032843094 0.06039104
-0.018854715 -0.041740477 0.19291814 0.055187635 0.038045138 0.0617173 -0.08083583 -0.13869277
-0.13083284 0.03981873 0.12647818 0.039741118 -0.13860072 -0.042511158 0.008054271 -0.15095256
-0.0063018217 0.03900355 0.071503215 0.029018342 -0.11913394 -0.04025432 0.1826457 -0.13637505
0.04905347 0.021525234 -0.0017990272 -0.16262005 -0.04493491 0.15819141 -0.07724637 0.049682844
-0.15722987 0.02761719 0.1388902 -0.022208689 0.1043051 -0.02046419 0.051333882 0.009326437
-0.060649056 0.082803786 0.09959528 0.063608885 -0.036363687 -0.0654132 -0.024648173 0.22297016
0.08057642 0.06868906 0.10059089 0.0045956355 -0.041564796 -0.094684914 0.07358716 0.03042076
-0.027483556 -0.23935498 0.14026415 -0.14580436 -0.0297853 -0.0460223 -0.09263124 0.04711867
0.0964537 0.014920942 -0.16729099 -0.032227147 0.049002048 -0.013473168 0.03439343 -0.24608862
0.25275064 -0.0762421 0.06725962 -0.14410868 -0.011575398 0.04010227 -0.045400675 -0.22142383
-0.09856642 0.112348355 0.0056065293 0.005821665 0.026043745 -0.12061854 0.07547424 0.009787226
0.13286166 0.091057174 0.060317744 0.053345285 -0.059362177 -0.0139228925 0.09345207 0.0741482
-0.09182622 0.06415411 -0.015813014 -0.016713645 0.082756035 -0.052380785 -0.038215537 0.03865445
-0.121600494 -0.019600231 0.056162834 0.06486912 -0.078653075 -0.04287399 -0.016562887 0.09160685
-0.043955106 -0.16744716 0.068759486 -0.13271932 -0.14277099 0.11000504 -0.002830445 0.1428087

network_body._body_endoder.seq_layers.2.bias f4 [128]
00000000: b741 b2bb ec61 cd3c a264 1f3c 5e1f 183d
00000010: f3a6 253d ea84 9bbc 1c82 cbbc 0b2a 783c
00000020: 463e c73c 2725 353c 481d 403c 1bf7 f2bb
00000030: c62b cd3c 1ab7 a1bc 7683 623c 5ea3 623c
00000040: f7b5 b53c ddb3 8ebc e8ad 1d3c ed3b 3a3d
00000050: 8e4e b83b dbab 4d3c e6e4 133d dcb1 5bbc
00000060: df09 913c 5bd3 843c 74df 5b3c b4f7 e9bc
00000070: 0308 33bc 0bfc ddbb e1c2 973b a998 2c3c
00000080: f228 ce3b 9aa3 033c 38a9 a03c 94bd 253d
00000090: c954 eb3c c361 d03c 88ff 1abd 68ba 843d
000000a0: 430a 133b 3d7e f23a 23ba 9e3c 5a94 ac3c
000000b0: 7efd 383b 3467 a63c d304 d13c c59b 31bc
000000c0: 3040 f73b ae0a bd3c ad45 f03c aedf 2c3b
000000d0: bfd3 af3c 6762 193c c3f9 b83c 88d1 a7bb
000000e0: 71ff ca3c 5fb4 b1bc 59eb e13c 5127 41bc
000000f0: 3ec1 0a3d 9b83 af3c 91fc 713c 313d 9cbb
00000100: 3e0f 99bc 63c6 93bc c013 53ba f521 633c
00000110: b1c4 1e3c ab7e 263d 254b b23c a5e0 de3b
00000120: 40ff 973c 7409 723c 1504 413d 76ad 303b
00000130: 6821 233d 94a0 0a3c c1ae 813c b3b0 bd3c
00000140: e846 d53c 42a6 df3c ae9f 1f3c 51b2 103b
00000150: d6b2 a1ba 24eb 483d 7e8a aa3c 614b 773b
00000160: cd56 3d3d 573a 703c 5a00 7aba ff86 f4bb
00000170: 37ba cd3c 033c e53c 5c3a 503c 6edd 243b
00000180: 6e5c 443c c626 5d3c ca7e 03bd 4fbe b13b
00000190: bf09 0d3c d88f 9c3c 284d 103c d0c4 333c
000001a0: 4f2b 2dbc 8953 ccbb 3ad1 85bb 62da 29bc
000001b0: 0301 8f3c 17c5 0dbd bf8e 4d3c e4a9 b33c
000001c0: 8d70 2c3c 225d 30bc 1485 093d a0c4 033d
000001d0: 9fc3 0f3d da90 d83c 460a 003d 3653 433c
000001e0: 130f fe3c c67a b5bc 9927 6b3c 5c39 433d
000001f0: cae9 c53b 872b 093d 437d 3c3a 1591 9b3c
-0.0054399627 0.025071107 0.009728583 0.03713929 0.04044242 -0.018984277 -0.024842314 0.015146743
0.024321686 0.011056221 0.011725731 -0.007414711 0.025045287 -0.01974063 0.013825288 0.013832895
0.022181494 -0.01741975 0.009623982 0.045467306 0.005624599 0.012553181 0.036106966 -0.013409104
0.017704902 0.016214063 0.013419975 -0.028560497 -0.010927203 -0.0067744306 0.0046313857 0.010534444
0.006291502 0.008034611 0.01961194 0.040464 0.028726952 0.025437241 -0.03784135 0.06480867
0.0022436536 0.0018500757 0.019375866 0.021066833 0.0028227265 0.020312883 0.025514996 -0.010840361
0.0075454935 0.023076382 0.029330099 0.002637844 0.021463273 0.00936184 0.022580033 -0.0051214136
0.024780007 -0.021692453 0.027578043 -0.011789159 0.033875696 0.021425059 0.014769689 -0.004768037
-0.018684026 -0.018038934 -0.0008051954 0.013863076 0.00969045 0.040648144 0.021764347 0.006801682
0.01855433 0.014772762 0.047123034 0.002695886 0.03982678 0.008461136 0.0158304 0.023155546
0.026034787 0.027300958 0.00974266 0.002207894 -0.0012336622 0.049052373 0.020817991 0.0037734138
0.046225358 0.014662347 -0.00095367956 -0.007462382 0.025113208 0.027982717 0.012709226 0.0025156396
0.011984928 0.013498014 -0.032103337 0.005424298 0.008608281 0.019111559 0.008807458 0.010972217
-0.010569408 -0.006235544 -0.0040837796 -0.010367008 0.017456537 -0.034611788 0.01254624 0.021931596
0.010524881 -0.010764392 0.03357418 0.032169938 0.03509867 0.026436258 0.031259798 0.0119216945
0.031013047 -0.02215327 0.014352703 0.047662124 0.0060398327 0.033488777 0.00071902963 0.018990079

action_model._discrete_distribution.branches.0.weight f4 [2, 128]
00000000: 7662 27bb a9ce 7c3d 7796 f93c 0c82 133d
00000010: 7aa0 af3b 8744 27bc c207 1f3c 184f 02bd
00000020: 4fa0 2ebd cdae 753b efaf 363c 86f5 ecba
00000030: 46b4 0f3d 8a8d 23bb f2f1 463d 36a2 e93c
00000040: da75 eebc 78e3 43bc aae2 963d d728 c9bc
00000050: ddd4 573c a4a4 c1bc 7a97 9fbc 3b8c b0bc
00000060: b96a 51bd 058b 903c f095 cfbc 3fe4 21bd
00000070: f2ce 73bb 9e4d 983c e655 7fbc 5d73 b4bc
00000080: 4366 893c bb68 d1bc 2bc2 073d 1236 1dbd
00000090: ca40 e53c a777 2dbc b0bd d9bc e22e 07bd
000000a0: 5051 263c 2a69 4a3c b956 923c 9fe6 55bd
000000b0: 5590 f03c 628e ef3c 0dfb 553c 0500 9ebc
000000c0: 9e9a 303c 7b27 41bd 255d 093d 48bb b23c
000000d0: 48c0 d93b 2093 2e3c b838 1a3d c387 663b
000000e0: 7ff3 01bd 9b26 653c 2240 ba3d 466b 51bc
000000f0: 4675 32bd 824a 1d3d 53a5 05bd bc21 ebbc
00000100: 00d5 4ebd b939 5bbc 8d4a c53c e5fb 3dbd
00000110: aea8 b63c 3b7a 2abd 6f7c a33d 3cc2 203c
00000120: 9485 1dbb aee4 283d e9c1 0ebd 1507 d7bc
00000130: 99cd 35bd 8e47 c53c 5c80 163d 8134 833d
00000140: 90c7 843d f158 523c 66aa 9c3c 866f 51bc
00000150: c821 debb c6cb 0ebd 8e7f 27bd d400 07bc
00000160: 2e60 81bc 912e 2d3d e57e 0cbb 5ac4 e33b
00000170: 946d ee3c 258a 9d3d 26f8 cabb 3e81 86bc
00000180: 3ac4 333d 30a6 0bbd 520e 44bc de47 22bd
00000190: 3627 0bbd c6b7 ebbc 9a67 fabc 0846 553c
000001a0: 2b83 8fbb 3c43 2d3c a43a 9539 0dca 59bc
000001b0: 09ec e0bc ea09 b7bc af73 d9bc a715 2fbd
000001c0: 5b5d 66bb 624b 003c 3d75 8b3c 5458 453d
000001d0: 31bb e23c 3c32 c2bc 4dd9 59bd 6d7a 3e39
000001e0: 28a2 fd3c 735f eb3a 5c06 c53c 87a2 fc3c
000001f0: fb3d 323c a8ce 9ebc 182c d23c a276 a73c
00000200: fc08 9c3b b9c0 35bd 725d f2bc fd96 17bd
00000210: 141a a5bb 4cc5 423c af30 953b 4637 463d
00000220: 63dd 3c3d e6f9 363a af5c d639 c627 87bb
00000230: a1d1 0fbd e6dd 193c 12b8 63bd f40b 2abd
00000240: c9f4 e13c 7389 dd3b 616f 86bd 1c46 363c
00000250: 68de d4bb 2795 793c bd03 793c f589 483c
00000260: e93a 743d e7a2 bebc ad09 e93c b6dd 1f3d
00000270: 7e4e 093c 8c69 83bb e6ce f53c df17 0dbc
00000280: b9f2 22bd c47c e13a abb4 aabc badc 7a3d
00000290: 47f5 62bc 9d7a 9f3c 2bf7 673c a9b6 eb3c
000002a0: 7bb0 4abc 04f5 9bbb 1e2d 6bbc ffc0 d83c
000002b0: 0bc4 04bd 9a6f 1fbd d705 0bbd 9dce 963c
000002c0: 0562 aabb 38e2 093d be34 dfbc 2a45 d6bb
000002d0: 27c6 083c b6c6 8ebc b011 0abd e73b 43bc
000002e0: d560 c33c f063 27bc eb45 94bd 5bf2 83bc
000002f0: c97a 443d f3ab c2bc c192 993c d709 0f3d
00000300: ccbc 073d 8a60 963c e8ca cebc f98a 4f3d
00000310: 5afc 8fbc e26f 1e3d 1627 81bd 5c86 f5bb
00000320: f032 8b3c 9e73 ccbc d3c5 1e3d cd96 063d
00000330: f6d6 5c3d f0ae d8bc 51d0 cdbc 2b74 81bd
00000340: 3929 45bd 6b35 6abc 5d8b 89bc d8a5 fa3c
00000350: 3e15 bc3c 60ba 843c dcd5 233d 0c68 413c
00000360: dc24 503c 3ece 9c37 ef46 87bc 2813 b9bc
00000370: 266b 93bc e07c 77bd 4a72 bf3b b472 ec3c
00000380: b388 bfbc 4af3 8c3c 5118 b03c 51b8 4e3d
00000390: f9b3 f33c 94f8 bb3c 6036 243d b749 a1bc
000003a0: d339 88bc 9836 773b f531 07bc f3ea d53c
000003b0: 60c4 f43c 9e37 533c df89 313d ceb1 4d3d
000003c0: 6112 9cbb 8539 24ba df43 453b 03a4 bbbc
000003d0: 906c b3bc 13a0 543c c091 833d 96ea c43b
000003e0: e6ce d6bc 1c72 a2bb 7121 99bc 42d3 15bd
000003f0: 3604 5fbc de91 133c b445 19bd 2a9f 62bc
-0.0025540865 0.061720524 0.030467255 0.036012694 0.0053597065 -0.010209209 0.009706439 -0.03181371
-0.04263335 0.0037488223 0.011150344 -0.0018078543 0.03508403 -0.002495619 0.04857058 0.028519731
-0.02910893 -0.011956088 0.073674515 -0.024555607 0.013173309 -0.023638077 -0.01948141 -0.021551242
-0.05112717 0.017644415 -0.02534005 -0.039524313 -0.0037202206 0.018591698 -0.015584445 -0.022027666
0.016772395 -0.025562635 0.033144157 -0.038381644 0.027984995 -0.010587609 -0.026579708 -0.033003695
0.010151222 0.012354175 0.017863618 -0.05222189 0.029365698 0.029242698 0.013060343 -0.019287119
0.010779051 -0.047156792 0.033536095 0.021817818 0.006645236 0.0106551945 0.037651747 0.0035176135
-0.031726357 0.013986255 0.090942636 -0.012781924 -0.043568872 0.038401134 -0.03262837 -0.02870261
-0.0504961 -0.013380461 0.0240834 -0.046382803 0.02229723 -0.041620474 0.07982718 0.009811934
-0.0024035918 0.04123371 -0.034852896 -0.026248494 -0.044385526 0.024081971 0.036743507 0.06406499
0.06483376 0.012838588 0.019124221 -0.012782937 -0.0067789294 -0.034862302 -0.04089313 -0.0082399435
-0.015792932 0.042280737 -0.002143794 0.006950897 0.029104985 0.076923646 -0.0061941324 -0.01641905
0.043888308 -0.034094036 -0.011966305 -0.03961932 -0.03397294 -0.028774153 -0.03056698 0.013017185
-0.00437965 0.010575112 0.00028463185 -0.013292802 -0.0274563 -0.022343595 -0.02654442 -0.04274526
-0.003515086 0.007830473 0.017023677 0.04817994 0.02767715 -0.023705594 -0.05318575 0.00018165419
0.030961111 0.0017957523 0.024050884 0.030839218 0.010879035 -0.01938565 0.025655791 0.02044231
0.004761813 -0.044373248 -0.029585574 -0.037009228 -0.005038509 0.01188786 0.0045529227 0.048392557
0.04610957 0.0006979987 0.00040886315 -0.0041246144 -0.035112027 0.009391284 -0.055595465 -0.041515306
0.027582543 0.00676077 -0.065642126 0.011125114 -0.0064962395 0.015233315 0.015198645 0.012239923
0.059626494 -0.023271037 0.028446997 0.0390298 0.00838053 -0.004010385 0.030005883 -0.008611648
-0.03978226 0.0017203321 -0.020838102 0.061245658 -0.013852424 0.019467646 0.0141580505 0.028773623
-0.012371178 -0.0047594327 -0.0143540185 0.026459215 -0.032413524 -0.03892479 -0.033941116 0.018409068
-0.005199673 0.033663005 -0.02724683 -0.0065390067 0.008348024 -0.017428737 -0.033708274 -0.011916137
0.023849884 -0.010216698 -0.07239898 -0.016106775 0.04796866 -0.023763632 0.018746736 0.034921493
0.033139035 0.01835658 -0.025243238 0.050669644 -0.017576385 0.03868092 -0.06306283 -0.0074928235
0.016992062 -0.024957474 0.03876288 0.03285866 0.05391594 -0.026450604 -0.025123747 -0.063209854
-0.048135016 -0.014294962 -0.016790086 0.030596659 0.022959348 0.016202152 0.039998874 0.011804592
0.0127041 1.8692688e-05 -0.016513316 -0.022592142 -0.017995428 -0.060421824 0.0058424817 0.028863288
-0.023380613 0.017205853 0.02149597 0.050468747 0.029748904 0.02294568 0.04009092 -0.01968847
-0.016629135 0.003772175 -0.008251657 0.02611301 0.029878795 0.012891678 0.043344375 0.050218396
-0.004762933 -0.00062646746 0.0030100269 -0.022905355 -0.021902353 0.012977618 0.06424284 0.00600941
-0.026221704 -0.0049574506 -0.018692704 -0.036578424 -0.013611844 0.009006945 -0.03741999 -0.013831893

action_model._discrete_distribution.branches.0.bias f4 [2]
00000000: c1e6 8b3c bde6 8bbc
0.017077805 -0.017077798
