results/reinRayLong2/ZARAgoal/ZARAgoal-618.onnx (onnx, 309348 bytes, 15 tensors)

discrete_act_size_vector f4 [1, 2]
2.0 3.0
00000000: 0000 0040 0000 4040

network_body.observation_encoder.processors.0.conv_layers.0.weight f4 [16, 5, 8, 8]
0.0068500605 -0.010416318 -0.007503916 -0.015177674 -0.0003269226 -0.042396843 -0.008033341 0.0155119235
-0.0040847333 -0.027477512 0.033379637 -0.017270414 -0.00804326 0.014156592 0.03755151 0.016937394
0.03585579 -0.0029659474 -0.0045165806 -0.03626024 -0.008296649 -0.023855114 -0.0032806015 0.014881336
0.030953996 -0.004549717 -0.002080518 -0.037880003 -0.0062348465 -0.040038176 0.02165408 -0.035454534
0.037895914 -0.053005602 0.022838894 0.038046084 -0.0074394518 -0.019770004 -0.016754454 -0.0050713755
-0.04177324 0.0131648425 0.015168115 -0.0242095 0.04673399 -0.031543586 0.019235462 -0.0028505167
0.020620588 0.043706536 0.053082507 -0.01954119 -0.00224199 0.031381525 -0.026061941 0.02285878
0.042216204 0.012226131 -0.015439945 0.0030157273 0.0342445 -0.034907997 0.0034250638 0.049772322
-0.036518596 0.00056068914 0.01727651 -0.031685818 -0.014872663 0.01689691 0.0046111695 -0.05280725
-0.04280299 -0.017228797 0.013872633 0.048012152 -0.051483717 -0.019387145 -0.038401596 -0.055526376
0.013048482 0.029286936 0.0013951021 -0.007487396 -0.014719377 -0.043261714 0.03518517 -0.048741713
0.0062414506 0.03490554 -0.020009771 -0.05124043 0.029320454 -0.034098063 -0.012092874 0.013877897
0.048762992 -0.036089376 0.005250727 0.0148148425 0.017512983 -0.01592677 0.014128683 0.018503781
0.031853776 0.02237166 -0.017903151 0.026703788 0.05237375 -0.012089736 -0.0053179036 0.0045449426
-0.012165785 -0.054076124 -0.04264911 0.046411406 -0.021097863 0.02816725 -0.004634167 -0.029746173
-0.024044631 -0.009534517 0.053959288 -0.01579587 -0.040309183 -0.0011765629 0.047939137 -0.04502904
0.047966193 0.002082174 -0.052771874 -0.012273925 -0.054101937 -0.016175315 0.040517937 0.03532551
0.037073947 0.028248504 0.027988981 -0.05370937 -0.047851507 0.0077933636 -0.021300523 0.0012921899
0.003856651 -0.04727359 -0.004245549 0.050155062 0.020231456 -0.016496927 -0.043030426 -0.045648042
-0.005967597 0.00529247 -0.0074089337 -0.013976178 0.01647038 0.03930746 -0.014390382 -0.026545204
0.03821797 0.04867509 0.0055048587 0.0036258635 -0.023905711 0.053737905 -0.026935449 0.0452137
0.010712003 -0.01828007 0.054577276 -0.027094075 -0.011321063 0.03793105 0.018474165 0.04617819
-0.027792547 0.028066956 0.011921712 0.031442154 0.029002616 0.025574047 0.00961842 0.029697157
0.036549456 -0.046925485 -0.024966933 -0.040547606 -0.017759899 -0.0024261998 0.047571857 -0.053961504
0.008450488 0.04261046 -0.048028726 0.017464902 -0.045390416 0.032262992 -0.013456555 -0.034032527
-0.02891797 -0.00064842735 -0.0033248537 -0.046647597 0.0060854596 -0.0021387448 -0.0100951595 0.037421037
-0.04466391 -0.040902022 -0.035867848 0.039846327 -0.011467534 0.009570779 -0.042948987 -0.05217825
-0.039791252 -0.00093432306 0.012436966 0.017575331 -0.048585992 0.013506219 0.039129578 0.017616581
0.021025386 -0.032249987 0.029892266 0.005961403 -0.037884124 -0.05333298 -0.04958746 -0.027363228
-0.0055353865 -0.021222163 0.043082118 0.008922952 -0.026254155 0.053061314 0.03840543 0.048025515
0.023879563 0.018492045 -0.016246486 -0.03923911 0.006197415 -0.024455957 -0.028172227 -0.007402093
-0.0020813243 0.029832803 0.0086440435 -0.035130046 0.039122503 -0.042773638 -0.019010289 -0.0051927003
00000000: 7976 e03b 34a9 2abc 69e3 f5bb c7ab 78bc
00000010: cf66 abb9 50a8 2dbd 469e 03bc b925 7e3c
00000020: 3ad9 85bb 8518 e1bc 16b9 083d af7a 8dbc
00000030: e1c7 03bc 0df1 673c 9dcf 193d 4ac0 8a3c
00000040: 85dd 123d 5760 42bb d3ff 93bb 9e85 14bd
00000050: abee 07bc cd6b c3bc 5cff 56bb d9d0 733c
00000060: 3c93 fd3c cb15 95bb 4d59 08bb 1028 1bbd
00000070: af4d ccbb 12ff 23bd e663 b13c c638 11bd
00000080: bf38 1b3d 671c 59bd a218 bb3c 36d6 1b3d
00000090: a5c6 f3bb b4f4 a1bc a340 89bc c82d a6bb
000000a0: 6b1a 2bbd 5ab1 573c af83 783c 0053 c6bc
000000b0: 246c 3f3d d933 01bd b093 9d3c bccf 3abb
000000c0: 82ec a83c a005 333d 0b6d 593d d814 a0bc
000000d0: 5aee 12bb ea89 003d da7f d5bc 5642 bb3c
000000e0: e6ea 2c3d 1c50 483c d3f7 7cbc 82a3 453b
000000f0: f643 0c3d b0fb 0ebd 0977 603b 10de 4b3d
00000100: 8694 15bd 36fb 123a 7887 8d3c fdc8 01bd
00000110: 78ac 73bc 636b 8a3c 4b19 973b 6a4c 58bd
00000120: 3052 2fbd 6823 8dbc 0a4a 633c 64a8 443d
00000130: 97e0 52bd cad1 9ebc fe4a 1dbd a06f 63bd
00000140: 4dc9 553c 28eb ef3c dcdb b63a d458 f5bb
00000150: 8b29 71bc 3233 31bd 531e 103d 64a5 47bd
00000160: 1585 cc3b 1df9 0e3d 88eb a3bc 7ce1 51bd
00000170: 7331 f03c 69aa 0bbd 3121 46bc 1e60 633c
00000180: b4bb 473d 74d2 13bd 4a0e ac3b f4b9 723c
00000190: 6377 8f3c dc78 82bc fe7b 673c 3e95 973c
000001a0: 1b79 023d c644 b73c a1a9 92bc e7c1 da3c
000001b0: db85 563d 0714 46bc cf41 aebb beed 943b
000001c0: 0053 47bc ed7e 5dbd d5b0 2ebd e319 3e3d
000001d0: 6dd5 acbc 01bf e63c 36da 97bb 3fae f3bc
000001e0: 3ff9 c4bc aa36 1cbc 6a04 5d3d 5766 81bc
000001f0: 3e1b 25bd e636 9aba d45b 443d 5f70 38bd
00000200: 3378 443d 1575 083b 5227 58bd 9318 49bc
00000210: fe99 5dbd 1882 84bc 23f6 253d 7bb1 103d
00000220: dada 173d 6869 e73c 2649 e53c 5bfe 5bbd
00000230: f1ff 43bd 795f ff3b 6f7e aebc b35e a93a
00000240: debf 7c3b f4a1 41bd 3f1e 8bbb 656f 4d3d
00000250: 70bc a53c 9024 87bc ac40 30bd 71f9 3abd
00000260: d58b c3bb 756c ad3b a4c6 f2bb 57fc 64bc
00000270: e4ec 863c dc00 213d a3c5 6bbc 5475 d9bc
00000280: 728a 1c3d 885f 473d 1a62 b43b e59f 6d3b
00000290: e9d5 c3bc 471c 5c3d bba7 dcbc 0032 393d
000002a0: 6681 2f3c 16c0 95bc 6c8c 5f3d 65f4 ddbc
000002b0: fb7b 39bc 975d 1b3d 2257 973c 5725 3d3d
000002c0: 32ad e3bc acec e53c 4953 433c 7dc9 003d
000002d0: e596 ed3c aa80 d13c 9496 1d3c 7447 f33c
000002e0: e2b4 153d f034 40bd 7487 ccbc 3f15 26bd
000002f0: 357d 91bc e100 1fbb b5da 423d bd06 5dbd
00000300: ea73 0a3c 4e88 2e3d c5b9 44bd 8e12 8f3c
00000310: 4deb 39bd 3326 043d e278 5cbc b165 0bbd
00000320: 61e5 ecbc 39fb 29ba cae5 59bb 8d11 3fbd
00000330: 8968 c73b 2f2a 0cbb 2b66 25bc cd46 193d
00000340: 81f1 36bd e188 27bd 2aea 12bd e735 233d
00000350: 53e2 3bbc c2ce 1c3c 47eb 2fbd dcb8 55bd
00000360: 27fc 22bd 5ced 74ba 6bc4 4b3c 24fa 8f3c
00000370: 1b02 47bd 3049 5d3c 5646 203d a650 903c
00000380: 6e3d ac3c 9018 04bd a0e0 f43c df57 c33b
00000390: 622c 1bbd af73 5abd 381c 4bbd d928 e0bc
000003a0: 3062 b5bb 1ada adbc e076 303d 9331 123c
000003b0: f412 d7bc d256 593d 034f 1d3d 67b6 443d
000003c0: 139f c33c a17c 973c 5a17 85bc 30b9 20bd
000003d0: af13 cb3b dc57 c8bc 71c9 e6bc 428d f2bb
000003e0: d466 08bb ec63 f43c bf9f 0d3c 86e4 0fbd
000003f0: eb3e 203d 6933 2fbd 77bb 9bbc 8727 aabb

network_body.observation_encoder.processors.0.conv_layers.0.bias f4 [16]
-0.05574299 -0.04181992 -0.0530584 -0.038149018 -0.0067817047 0.048430774 -0.043007296 0.005533794
0.0053297887 -0.03358472 -0.018856943 -0.0010604926 0.027108166 -0.013262557 -0.045648564 -0.008679923
00000000: c352 64bd 5d4b 2bbd c453 59bd 2542 1cbd
00000010: 1039 debb 595f 463d 6b28 30bd d454 b53b
00000020: 82a5 ae3b 2290 09bd e079 9abc 3a00 8bba
00000030: f211 de3c 324b 59bc fdf9 3abd 3c36 0ebc

network_body.observation_encoder.processors.0.conv_layers.2.weight f4 [32, 16, 4, 4]
-0.027636223 -0.004338708 0.054683767 -0.037453167 -0.015302762 0.0007807687 -0.04377053 0.04012458
-0.0077858306 -0.05169061 0.021865651 0.003561385 -0.049834266 0.054122128 0.009005442 -0.0075973086
0.0034754649 7.18981e-05 0.040106386 -0.060656063 0.0033339784 -0.0035256594 0.05790575 -0.008179907
0.020325966 -0.019915532 0.058819927 -0.033215918 -0.0016822554 0.021375611 0.019204631 -0.027136222
-0.056769338 -0.05411741 -0.011252526 -0.011945371 0.038207725 -0.022849686 -0.059994496 0.048802562
0.04594662 0.024524286 0.019011974 0.04044132 -0.02986417 -0.049361844 0.031161003 -0.01678383
0.0076482594 -0.020947218 0.061212867 -0.029351734 -0.023044743 0.023138806 0.0056049824 0.021346927
-0.026213057 0.030482963 0.018911012 0.05328591 -0.029967718 0.049488 -0.019745655 -0.041476626
-0.034178324 0.054314792 0.001580365 -0.01816642 0.058703005 0.003887333 0.030919224 0.0064174533
-0.045697235 0.041500166 -0.055663943 0.0085550025 -0.057742517 0.030736879 0.035856947 -0.060653087
-0.017600615 0.055416748 0.02310773 -0.04800622 -0.0011630207 -0.04160414 -0.0014123209 -0.0037999265
0.025746465 0.023590714 0.016220696 0.045232475 -0.057131637 0.0031460747 0.0055741146 -0.06226991
0.05079025 0.045844287 -0.054882593 0.044263944 -0.03628566 0.026068434 0.056827657 -0.015574936
-0.05450788 0.055940628 -0.03202752 0.005220644 -0.029459354 0.03432177 0.004169859 -0.04578372
-0.035547484 -0.030353647 0.03847275 0.025379352 -0.055110153 0.044541486 0.026924804 -0.021926772
0.028144106 -0.026833963 0.050518855 -0.035387505 -0.052977428 -0.027770314 0.05906616 0.008585371
0.0057160407 0.023829035 -0.034910057 -0.04021051 0.034850486 -0.026160184 0.016357765 0.033084273
-0.03447883 0.044332616 -0.015153337 0.032528467 -0.0048758946 -0.035669044 -0.041348666 -0.019548293
-0.033752754 -0.018155199 0.0049599707 0.05409973 -0.025930125 0.016197428 0.017702237 0.06134157
-0.01044324 0.029005915 -0.035476208 -0.009697564 0.018881336 0.04750657 0.05076033 -0.014418989
0.058099233 0.037525393 0.031145848 0.03964451 0.025253281 0.0044442117 0.024013743 0.03588642
-0.03545072 -0.062090453 -0.017104901 0.05005163 -0.040058766 0.055560477 -0.0344355 0.027126513
-0.022152502 0.054206237 0.028412938 0.03418482 0.026593365 -0.009812579 0.025183193 -0.05729179
-0.016526539 -0.020840317 0.010267168 -0.03820456 -0.054265786 -0.027430598 0.024273582 -0.031010624
0.061588056 0.05251237 0.022700056 0.045053504 0.023688734 -0.039941162 0.017688006 0.03090126
-0.012928624 -0.012934804 -0.008513518 -0.06086897 0.04802283 -0.0076244697 0.049027324 0.024784453
-0.022067677 0.021098815 -0.009165574 0.036825933 0.01047907 -0.012585338 -0.04035836 0.013792865
-0.00047003105 0.034226336 -0.04627109 -0.041058306 0.055898823 0.042134486 0.051302418 0.045327894
0.032013133 -0.02474295 0.056569345 0.04043787 0.032580197 0.047523074 0.026765838 -0.0014460944
-0.011451904 0.05590173 -0.0060207658 0.03326565 -0.042091433 0.006474346 -0.020880312 -0.058413353
0.0046598166 0.010745928 -0.05815117 0.058860295 0.042079806 0.026176333 -0.059271567 0.028846405
-0.02555228 -0.045773603 0.05687318 -0.057983432 -0.050159656 0.048791103 -0.0591793 -0.05979351
00000000: 5c65 e2bc b82b 8ebb 16fc 5f3d 7e68 19bd
00000010: 70b8 7abc 80ac 4c3a ba48 33bd ac59 243d
00000020: 4820 ffbb 88b9 53bd 981f b33c 2066 693b
00000030: 041f 4cbd 2aaf 5d3d 908b 133c d8f2 f8bb
00000040: a0c4 633b 00c8 9638 9846 243d 7e72 78bd
00000050: e07e 5a3b c00e 67bb 942e 6d3d 0405 06bc
00000060: a482 a63c e625 a3bc 2aed 703d 6a0d 08bd
00000070: 207f dcba e81b af3c 0853 9d3c c84c debc
00000080: f786 68bd 38aa 5dbd 845c 38bc 84b6 43bc
00000090: b47f 1c3d 442f bbbc cabc 75bd 32e5 473d
000000a0: 8632 3c3d 28e7 c83c 00bf 9b3c cca5 253d
000000b0: b4a5 f4bc a52f 4abd 5c45 ff3c 3e7e 89bc
000000c0: 409e fa3b 8099 abbc 58ba 7a3d 0c73 f0bc
000000d0: 54c8 bcbc 988d bd3c 00aa b73b c0df ae3c
000000e0: c4bc d6bc 68b7 f93c 44eb 9a3c 5442 5a3d
000000f0: dc7e f5bc eeb3 4a3d a4c1 a1bc 65e3 29bd
00000100: 92fe 0bbd 3079 5e3d 4024 cf3a bed1 94bc
00000110: 9072 703d a0c2 7e3b 504a fd3c 8049 d23b
00000120: 062d 3bbd 14fc 293d e0ff 63bd 482a 0c3c
00000130: 6b83 6cbd e8cb fb3c bcde 123d 5f6f 78bd
00000140: 2a2f 90bc acfc 623d 6c4c bd3c 2ca2 44bd
00000150: 8070 98ba 1a69 2abd a01d b9ba 3008 79bb
00000160: 40ea d23c 5041 c13c 44e1 843c b045 393d
00000170: dd02 6abd 602e 4e3b 10a7 b63b bc0e 7fbd
00000180: 7009 503d 38c7 3b3d 92cc 60bd 1c4e 353d
00000190: 46a0 14bd 788d d53c 1ec4 683d 042e 7fbc
000001a0: a843 5fbd 0022 653d 4a2f 03bd f011 ab3b
000001b0: be54 f1bc fc94 0c3d 50a3 883b b687 3bbd
000001c0: 3d9a 11bd 36a8 f8bc 9a95 1d3d 5ce8 cf3c
000001d0: 2fbb 61bd 2271 363d 6891 dc3c c69f b3bc
000001e0: 788e e63c e6d2 dbbc dcec 4e3d 7df2 10bd
000001f0: dcfe 58bd 927e e3bc 5cef 713d a8a9 0c3c
00000200: a04d bb3b 1c35 c33c d9fd 0ebd c7b3 24bd
00000210: 62bf 0e3d e24d d6bc b800 863c 6083 073d
00000220: ac39 0dbd 1e96 353d b445 78bc 923c 053d
00000230: f8c5 9fbb b419 12bd 385d 29bd be23 a0bc
00000240: 5440 0abd 36ba 94bc 4087 a23b ae97 5d3d
00000250: 6a6b d4bc 78b0 843c 4804 913c 4c41 7b3d
00000260: 201a 2bbc d09d ed3c 804f 11bd 88e2 1ebc
00000270: 08ad 9a3c 4096 423d 10ea 4f3d a03d 6cbc
00000280: 76f9 6d3d 3ab4 193d 9425 ff3c 4862 223d
00000290: f8df ce3c c0a0 913b 78b8 c43c a4fd 123d
000002a0: c634 11bd 8f52 7ebd 941f 8cbc f002 4d3d
000002b0: a914 24bd 6293 633d 3d0c 0dbd 6c38 de3c
000002c0: 2a79 b5bc 5c07 5e3d 40c2 e83c 6205 0c3d
000002d0: 54da d93c f0c4 20bc fc4c ce3c ccaa 6abd
000002e0: aa62 87bc 50b9 aabc a037 283c 627c 1cbd
000002f0: cd45 5ebd 22b6 e0bc 64d9 c63c fe09 febc
00000300: c243 7c3d 3617 573d 78f5 b93c 068a 383d
00000310: e00e c23c 5899 23bd 70e6 903c a424 fd3c
00000320: 94d2 53bc 80ec 53bc 487c 0bbc be51 79bd
00000330: 96b3 443d b0d6 f9bb e0d0 483d c408 cb3c
00000340: 46c7 b4bc 6cd7 ac3c 342b 16bc cad6 163d
00000350: 68b0 2b3c bc32 4ebc cf4e 25bd 78fb 613c
00000360: 806e f6b9 ea30 0c3d c186 3dbd c12c 28bd
00000370: 2af6 643d 3695 2c3d 7c22 523d bea9 393d
00000380: 3420 033d bab1 cabc 42b5 673d 2ea2 253d
00000390: d072 053d 8ea7 423d 0844 db3c e08a bdba
000003a0: c4a0 3bbc 36f9 643d d849 c5bb 9041 083d
000003b0: 1168 2cbd c026 d43b 300d abbc d742 6fbd
000003c0: 60b1 983b b00f 303c ec2f 6ebd 7e17 713d
000003d0: e05b 2c3d c06f d63c bec6 72bd 4c4f ec3c
000003e0: 0453 d1bc 1a7d 3bbd daf3 683d 0980 6dbd
000003f0: 3674 4dbd 2ed9 473d fe65 72bd 0aea 74bd

network_body.observation_encoder.processors.0.conv_layers.2.bias f4 [32]
-0.035843458 0.032951742 -0.04475053 -0.035094686 -0.058744945 0.047966987 0.0041652843 -0.025844518
-0.048867483 0.05376085 -0.06097378 -0.034617923 0.0061096624 -0.021232735 -0.018238403 0.04937122
-0.036403082 0.0043423325 0.0013869852 0.03643123 -0.0074607506 0.049271144 0.058198556 0.054887645
-0.009301383 0.03030745 0.0122066885 -0.015706476 -0.0071025416 0.037423037 0.012916759 -0.03750374
00000000: 97d0 12bd 68f8 063d 554c 37bd 72bf 0fbd
00000010: 8a9e 70bd 0879 443d f07c 883b e2b7 d3bc
00000020: 4529 48bd 5634 5c3d a4bf 79bd 86cb 0dbd
00000030: 9033 c83b 46f0 adbc b468 95bc 7a39 4a3d
00000040: 661b 15bd 204a 8e3b 80cb b53a ea38 153d
00000050: 5079 f4bb 8ad0 493d 9c61 6e3d ded1 603d
00000060: d464 18bc 5447 f83c 90fe 473c deaa 80bc
00000070: 70bc e8bb e648 193d d0a0 533c 869d 19bd

network_body.observation_encoder.processors.0.dense.0.weight f4 [128, 32]
0.5052929 0.060478773 0.41192108 -0.017670555 0.06933028 -0.25890452 -0.19343525 0.08146918
0.09666949 0.0011241529 -0.27102232 -0.19679917 -0.11392667 0.20119265 -0.17481542 0.44413397
0.14222357 -0.43138468 0.058451395 0.051174678 0.027568577 0.16254033 -0.31339625 0.3967678
0.43766505 0.19118316 -0.17860016 -0.040352523 -0.0041923453 0.3460799 0.056306485 -0.103586376
-0.26088306 -0.6515379 0.17016023 -0.22654039 -0.16488442 0.02870499 0.12836365 -0.10734727
0.13994692 -0.15877795 0.08012373 -0.1736583 -0.17595586 0.22263041 0.012028966 -0.19087514
-0.14721403 0.20708235 0.16979752 0.1607203 0.18003495 -0.49640307 0.47647363 0.46426827
-0.09306206 -0.018835414 0.073632546 0.17067842 0.37134984 -0.09763893 -0.26695815 0.7027181
0.3209532 0.13668162 0.11137701 0.061951175 -0.12878883 0.20928322 0.05158756 0.27874452
0.24755405 -0.3590338 0.08631936 -0.11340155 0.61972827 -0.14744264 0.097866766 0.26579747
-0.13783559 0.055481106 0.09981706 0.2572826 -0.19090149 0.5049691 0.28632015 -0.26621902
-0.37449017 -0.4422182 -0.022513451 0.22126745 0.017001381 -0.072804354 0.305457 0.2504105
-0.15735796 -0.023159789 0.09887025 0.16147079 -0.24867085 -0.122397594 -0.10819443 0.25048697
-0.1160591 -0.47458747 0.34754428 0.37338385 0.32185528 -0.40650532 0.25055942 -0.18649611
0.08236863 -0.023536935 -0.4982139 0.40386584 -0.033350427 0.06685002 0.29572394 -0.39948377
0.5032997 -0.16746907 0.04802549 -0.052711066 -0.18434182 -0.0017315028 -0.2710458 0.01466957
-0.03766479 -0.34267738 -0.3432235 0.078270346 -0.17904037 0.1445282 -0.20226774 -0.120550714
0.04301157 -0.40403005 0.13695613 -0.043737236 -0.1960359 0.27425385 -0.25837916 0.14603911
0.0015613267 0.036968566 0.08607389 0.12960783 -0.266155 -0.31668657 -0.23219942 -0.116565146
0.0010190287 0.20162633 -0.18768045 0.23902595 0.22096719 -0.16393831 -0.018974574 0.2011327
0.29936263 0.4623476 0.110530995 0.18123879 0.019245757 0.13644749 0.17461948 -0.24191038
-0.18934904 0.13319632 0.020666594 -0.3494346 0.38187 0.07468456 -0.4037243 -0.18890834
-0.21889925 -0.13099219 0.038913425 0.35098243 -0.25866982 0.30027902 0.33513117 -0.30241334
-0.12844385 0.06847489 -0.100156486 0.088752106 0.20551202 0.3893499 0.18303391 -0.28292128
-0.21864715 0.21302004 0.021871036 -0.31153706 0.05280017 0.09157258 -0.08543863 0.15496849
-0.17359048 0.024952445 0.3949682 0.70010746 0.040509004 -0.01770371 -0.22528769 0.33141252
0.015994526 -0.064320154 0.056477454 -0.52360004 -0.044745166 -0.13796666 0.14123708 -0.15428951
0.4897185 -0.2738843 0.19846442 0.29481527 0.24157597 -0.17012623 -0.20512103 -0.12563242
-0.05967024 -0.48236674 -0.24964513 -0.19607885 -0.0021981786 -0.2103126 -0.019313395 -0.004583624
0.09417147 0.060386676 0.031757977 0.16376002 -0.17133184 -0.15876997 -0.08190633 -0.15022239
-0.17820928 -0.17631194 0.3125823 -0.08950537 0.02419127 -0.009513571 0.34201837 -0.036898896
-0.25176433 0.33028036 0.18317407 0.35775328 0.1210387 0.050003503 -0.058814924 -0.092259504
00000000: e05a 013f 97b8 773d 52e7 d23e d7c1 90bc
00000010: 09fd 8d3d 228f 84be e413 46be 50d9 a63d
00000020: a7fa c53d 5058 933a 70c3 8abe b985 49be
00000030: 6352 e9bd 7205 4e3e d002 33be 8765 e33e
00000040: 0ea3 113e 74de dcbe bb6a 6f3d 8a9c 513d
00000050: 7fd7 e13c f970 263e 7975 a0be 2625 cb3e
00000060: a215 e03e 85c5 433e f6e2 36be b048 25bd
00000070: f15f 89bb 6231 b13e a1a1 663d 1825 d4bd
00000080: 7792 85be 30cb 26bf 7c3e 2e3e 34fa 67be
00000090: 76d7 28be ba26 eb3c c371 033e e3d8 dbbd
000000a0: 3f4e 0f3e b096 22be e917 a43d 7bd3 31be
000000b0: c62d 34be 3af9 633e 2415 453c c674 43be
000000c0: 46bf 16be 650d 543e 67df 2d3e dd93 243e
000000d0: 155b 383e 8b28 febe 5af4 f33e 92b4 ed3e
000000e0: 5297 bebd ba4c 9abc a9cc 963d 53c6 2e3e
000000f0: 9121 be3e ebf6 c7bd bdae 88be 55e5 333f
00000100: fa53 a43e 44f6 0b3e a119 e43d 84c0 7d3d
00000110: 38e1 03be 574e 563e 7a4d 533d 9ab7 8e3e
00000120: cf7e 7d3e 47d3 b7be 34c8 b03d 123f e8bd
00000130: 83a6 1e3f 34fb 16be 5f6e c83d 9b16 883e
00000140: c624 0dbe 2840 633d e36c cc3d 8cba 833e
00000150: ae7b 43be a845 013f 8e98 923e dc4d 88be
00000160: 2dbd bfbe 6d6a e2be 216e b8bc ef93 623e
00000170: 7b46 8b3c 731a 95bd dc64 9c3e ce35 803e
00000180: 7222 21be 99b9 bdbc 7c7c ca3d 9958 253e
00000190: 92a3 7ebe 97ab fabd 0b95 ddbd d43f 803e
000001a0: 65b0 edbd 21fd f2be 53f1 b13e 2b2c bf3e
000001b0: 37ca a43e 7721 d0be 5349 803e d6f8 3ebe
000001c0: e2b0 a83d 88d0 c0bc e415 ffbe 81c7 ce3e
000001d0: 759a 08bd aae8 883d 2169 973e 2389 ccbe
000001e0: 40d8 003f 037d 2bbe 60b6 443d 8fe7 57bd
000001f0: 1ac4 3cbe 98f3 e2ba 84c6 8abe a358 703c
00000200: 6546 1abd 6973 afbe feba afbe 344c a03d
00000210: 5c56 37be 33ff 133e 461f 4fbe 4be3 f6bd
00000220: e62c 303d 07dd cebe 3a3e 0c3e d125 33bd
00000230: a3bd 48be 006b 8c3e 464a 84be 478b 153e
00000240: 6ea5 cc3a 5a6c 173d 8247 b03d eab7 043e
00000250: 7845 88be be24 a2be afc5 6dbe b5b9 eebd
00000260: ee90 853a 2277 4e3e 4e2f 40be 38c3 743e
00000270: 3945 623e 72df 27be 9170 9bbc bbf5 4d3e
00000280: 0f46 993e d3b8 ec3e 135e e23d a996 393e
00000290: 47a9 9d3c e4b8 0b3e 73cf 323e 5bb7 77be
000002a0: b7e4 41be 9e64 083e fd4c a93c 18e9 b2be
000002b0: 7784 c33e 38f4 983d f4b4 cebe 3071 41be
000002c0: 2027 60be d122 06be af63 1f3d f8b3 b33e
000002d0: 5f70 84be 2cbe 993e 5096 ab3e ecd5 9abe
000002e0: c986 03be 903c 8c3d d81e cdbd aac3 b53d
000002f0: be71 523e df58 c73e 3e6d 3b3e 0fdb 90be
00000300: 0ae5 5fbe ed21 5a3e e32a b33c c981 9fbe
00000310: fe44 583d 688a bb3d 73fa aebd 0fb0 1e3e
00000320: b4c1 31be 1269 cc3c 4639 ca3e 3e3a 333f
00000330: c5ec 253d 5f07 91bc d1b1 66be e7ae a93e
00000340: f406 833c 49ba 83bd e754 673d a70a 06bf
00000350: b546 37bd 2247 0dbe 74a0 103e 12fe 1dbe
00000360: 62bc fa3e 903a 8cbe 423a 4b3e 07f2 963e
00000370: b15f 773e 9235 2ebe 3f0b 52be c9a5 00be
00000380: c868 74bd c6f8 f6be f9a2 7fbe e5c8 48be
00000390: 510f 10bb 305c 57be 2037 9ebc 3a32 96bb
000003a0: f9dc c03d 0558 773d a714 023d b5b0 273e
000003b0: 9d71 2fbe 9894 22be 82be a7bd e6d3 19be
000003c0: 7e7c 36be 1e8b 34be ca0a a03e 974e b7bd
000003d0: c52c c63c cfde 1bbc 081d af3e 4c23 17bd
000003e0: 41e7 80be 821a a93e fc91 3b3e 702b b73e
000003f0: 23e3 f73d 79d0 4c3d ebe7 70bd 8df2 bcbd

network_body.observation_encoder.processors.0.dense.0.bias f4 [128]
0.0 0.0 0.0 0.0 0.0 0.0 0.0 0.0
0.0 0.0 0.0 0.0 0.0 0.0 0.0 0.0
0.0 0.0 0.0 0.0 0.0 0.0 0.0 0.0
0.0 0.0 0.0 0.0 0.0 0.0 0.0 0.0
0.0 0.0 0.0 0.0 0.0 0.0 0.0 0.0
0.0 0.0 0.0 0.0 0.0 0.0 0.0 0.0
0.0 0.0 0.0 0.0 0.0 0.0 0.0 0.0
0.0 0.0 0.0 0.0 0.0 0.0 0.0 0.0
0.0 0.0 0.0 0.0 0.0 0.0 0.0 0.0
0.0 0.0 0.0 0.0 0.0 0.0 0.0 0.0
0.0 0.0 0.0 0.0 0.0 0.0 0.0 0.0
0.0 0.0 0.0 0.0 0.0 0.0 0.0 0.0
0.0 0.0 0.0 0.0 0.0 0.0 0.0 0.0
0.0 0.0 0.0 0.0 0.0 0.0 0.0 0.0
0.0 0.0 0.0 0.0 0.0 0.0 0.0 0.0
0.0 0.0 0.0 0.0 0.0 0.0 0.0 0.0
00000000: 0000 0000 0000 0000 0000 0000 0000 0000
00000010: 0000 0000 0000 0000 0000 0000 0000 0000
00000020: 0000 0000 0000 0000 0000 0000 0000 0000
00000030: 0000 0000 0000 0000 0000 0000 0000 0000
00000040: 0000 0000 0000 0000 0000 0000 0000 0000
00000050: 0000 0000 0000 0000 0000 0000 0000 0000
00000060: 0000 0000 0000 0000 0000 0000 0000 0000
00000070: 0000 0000 0000 0000 0000 0000 0000 0000
00000080: 0000 0000 0000 0000 0000 0000 0000 0000
00000090: 0000 0000 0000 0000 0000 0000 0000 0000
000000a0: 0000 0000 0000 0000 0000 0000 0000 0000
000000b0: 0000 0000 0000 0000 0000 0000 0000 0000
000000c0: 0000 0000 0000 0000 0000 0000 0000 0000
000000d0: 0000 0000 0000 0000 0000 0000 0000 0000
000000e0: 0000 0000 0000 0000 0000 0000 0000 0000
000000f0: 0000 0000 0000 0000 0000 0000 0000 0000
00000100: 0000 0000 0000 0000 0000 0000 0000 0000
00000110: 0000 0000 0000 0000 0000 0000 0000 0000
00000120: 0000 0000 0000 0000 0000 0000 0000 0000
00000130: 0000 0000 0000 0000 0000 0000 0000 0000
00000140: 0000 0000 0000 0000 0000 0000 0000 0000
00000150: 0000 0000 0000 0000 0000 0000 0000 0000
00000160: 0000 0000 0000 0000 0000 0000 0000 0000
00000170: 0000 0000 0000 0000 0000 0000 0000 0000
00000180: 0000 0000 0000 0000 0000 0000 0000 0000
00000190: 0000 0000 0000 0000 0000 0000 0000 0000
000001a0: 0000 0000 0000 0000 0000 0000 0000 0000
000001b0: 0000 0000 0000 0000 0000 0000 0000 0000
000001c0: 0000 0000 0000 0000 0000 0000 0000 0000
000001d0: 0000 0000 0000 0000 0000 0000 0000 0000
000001e0: 0000 0000 0000 0000 0000 0000 0000 0000
000001f0: 0000 0000 0000 0000 0000 0000 0000 0000

network_body._body_endoder.seq_layers.0.weight f4 [128, 323]
-0.00647081 -0.041629624 -0.0016445825 0.04362405 0.072254516 0.028718233 -0.04028638 -0.013885615
0.0040781954 0.05674792 0.014691644 -0.045814693 -0.04786415 -0.01753654 0.09998801 -0.025145624
0.04924224 0.10136538 0.05394516 -0.042173877 0.012372847 -0.032506485 -0.0021503565 -0.020469805
-0.026203362 -0.014752822 0.053291652 0.007133744 0.09767153 0.01993559 -0.054371953 -0.011911164
-0.0012488065 0.081686795 -0.112219974 -0.023166772 0.021306207 0.015835306 0.03811348 -0.09976047
-0.0033662347 0.011596396 -0.12328594 -0.062298045 0.0409283 0.0007345239 -0.03499465 -0.025370171
-0.043863293 -0.11855734 0.059161186 0.04559319 0.026257142 -0.042437438 -0.027754292 0.008089554
-0.0042561996 -0.049243752 0.022665512 -0.014847739 -0.033661146 -0.0603399 0.10999118 0.014193386
-0.021045761 0.00773723 0.028454565 -0.06976289 0.0123175485 -0.05050651 0.004096684 -0.08629778
-0.054211017 0.059062667 0.04485472 0.021246387 0.047590513 0.06843391 0.037659775 0.07399745
0.031792194 0.004260491 0.086767815 -0.06716187 0.025869511 0.030886468 0.04330569 -0.022966875
-0.054641142 -0.008762912 0.06888617 -0.011917536 0.039467305 -0.11088852 0.076874845 -0.023998491
-0.012092905 -0.102977306 0.10702631 0.12926133 0.010492261 -0.03419884 0.0380163 0.011794487
0.031154865 -0.013921145 -0.053471595 -0.04664666 -0.001242333 -0.09821516 -0.059566688 -0.02634493
-0.080216244 -0.14791898 0.10739193 0.011870874 0.024433633 -0.06420516 -0.0026942918 -0.021623157
0.02228602 0.08420017 -0.04081603 -0.057684228 -0.08871084 -0.03285431 0.023189045 -0.038330637
0.058100488 0.024927445 -0.044347122 -0.06451048 0.046090133 0.004150446 0.09278786 -0.00747965
-0.075361095 -0.04924653 -0.04192925 0.049741626 -0.08297203 0.030915918 0.016304972 -0.04995688
0.061484747 -0.10071333 0.07499948 -0.016580764 0.06756069 -0.0006667673 -0.047987107 -0.02539335
-0.013588106 -0.05026396 -0.037717625 -0.0075834338 0.015677715 0.071596146 0.016047241 0.03978233
0.04674779 0.015908955 -0.05814163 0.054040648 -0.053555097 0.018681534 -0.06540503 -0.083206765
-0.09738281 -0.0406006 0.024047323 -0.07440042 0.047645442 0.07686494 -0.031873345 -0.07986742
-0.05838242 0.014501835 0.014852978 -0.03369465 -0.03780441 0.1483331 -0.013284444 -0.049752243
-0.015793826 -0.1362987 0.06895435 0.02485444 0.026530333 -0.0012482926 -0.023438908 -0.0664738
-0.049145337 0.050865382 0.074237525 0.018399024 -0.08454148 -0.017531 -0.0039202273 0.016243968
0.01824814 0.003267142 -0.029435255 0.0070529045 -0.023543792 -0.0111683775 0.08712342 -0.026141956
-0.09425785 0.09391538 -0.068156876 -0.02242602 0.032062806 0.07217279 0.06909915 -0.057344764
0.063105024 -0.061856624 -0.010071057 0.04737529 0.027989333 0.024610152 -0.039768953 -0.014672477
-0.012437665 -0.0814453 0.030329546 -0.013388512 0.029733809 0.045698635 -0.05153788 -0.0046431595
0.08926612 -0.085364096 0.044301316 0.08470093 0.0462877 -0.10638304 0.0014694174 0.07649758
0.09129245 -0.08856716 0.14195149 0.042760674 0.011074723 -0.021705462 -0.014153903 0.035947107
0.016568862 0.028854942 -0.047951926 -0.1466924 0.060186427 0.017221121 -0.02332653 -0.049175926
00000000: 1709 d4bb d383 2abd 088f d7ba 22af 323d
00000010: 2dfa 933d 8042 eb3c 5503 25bd 7e80 63bc
00000020: 62a2 853b 8270 683d 39b5 703c 30a8 3bbd
00000030: 330d 44bd caa8 8fbc 84c6 cc3d 32fe cdbc
00000040: 3bb2 493d a798 cf3d 9af5 5c3d 84be 2cbd
00000050: 7bb7 4a3c 8525 05bd ffec 0cbb 4bb0 a7bc
00000060: 6fa8 d6bc d2b5 71bc 5948 5a3d 2fc2 e93b
00000070: 0308 c83d f64f a33c 20b5 5ebd 0b27 43bc
00000080: feae a3ba 684b a73d 96d3 e5bd 3ec8 bdbc
00000090: 5b8a ae3c 0bb9 813c e11c 1c3d 384f ccbd
000000a0: 0c9c 5cbb cffe 3d3c 577d fcbd 3c2c 7fbd
000000b0: 6fa4 273d 118d 403a 8d56 0fbd 1bd5 cfbc
000000c0: ffa9 33bd 31ce f2bd 0053 723d edbf 3a3d
000000d0: 3819 d73c e1d2 2dbd f85c e3bc 0c8a 043c
000000e0: 9777 8bbb d1b3 49bd 06ad b93c ee43 73bc
000000f0: 45e0 09bd f926 77bd 0e43 e13d 608b 683c
00000100: 2968 acbc 9788 fd3b 8c19 e93c d9df 8ebd
00000110: 8bcf 493c eadf 4ebd 7a3d 863b e4bc b0bd
00000120: 5f0c 5ebd b2eb 713d 95b9 373d e70c ae3c
00000130: 45ee 423d 1427 8c3d 2341 1a3d fa8b 973d
00000140: 8838 023d 979b 8b3b 53b3 b13d 2a8c 89bd
00000150: 4cec d33c 9e05 fd3c 4f61 313d 0725 bcbc
00000160: 64cf 5fbd 5192 0fbc 3114 8d3d c541 43bc
00000170: 78a8 213d 8519 e3bd 8f70 9d3d 7c98 c4bc
00000180: 5221 46bc c4e5 d2bd 9c30 db3d 155d 043e
00000190: bbe7 2b3c 1514 0cbd fbb6 1b3d aa3d 413c
000001a0: 7d38 ff3c 8415 64bc 0805 5bbd 9110 3fbd
000001b0: c7d5 a2ba 0825 c9bd 33fc 73bd 53d1 d7bc
000001c0: 6a48 a4bd 1378 17be 4df0 db3d 0e7e 423c
000001d0: 0b29 c83c ff7d 83bd b792 30bb 0c23 b1bc
000001e0: 2c91 b63c 2471 ac3d b62e 27bd 4c46 6cbd
000001f0: 07ae b5bd 3e92 06bd f4f6 bd3c 9600 1dbd
00000200: c7fa 6d3d a434 cc3c 54a5 35bd 121e 84bd
00000210: 02c9 3c3d 7700 883b 9007 be3d da17 f5bb
00000220: eb56 9abd bbb6 49bd 01be 2bbd e0bd 4b3d
00000230: 3ded a9bd 6143 fd3c 0192 853c 969f 4cbd
00000240: 6ed7 7b3d ca42 cebd 5499 993d 62d4 87bc
00000250: 425d 8a3d ffc9 2eba 218e 44bd b705 d0bc
00000260: a6a0 5ebc 95e1 4dbd cc7d 1abd 747e f8bb
00000270: 8d6e 803c 00a1 923d 8175 833c ccf2 223d
00000280: 9c7a 3f3d 7f53 823c eb25 6ebd ba59 5d3d
00000290: 975c 5bbd 040a 993c 13f3 85bd 4f68 aabd
000002a0: a470 c7bd d14c 26bd e4fe c43c 3f5f 98bd
000002b0: de27 433d 5e6b 9d3d a08d 02bd 8891 a3bd
000002c0: 6822 6fbd 1b99 6d3c e859 733c 6703 0abd
000002d0: ccd8 1abd a2e4 173e ffa6 59bc 02c9 4bbd
000002e0: 0e62 81bc e391 0bbe f037 8d3d 8a9b cb3c
000002f0: 2456 d93c c09d a3ba f402 c0bc 6a23 88bd
00000300: 9f4c 49bd 3858 503d d809 983d 8db9 963c
00000310: 1524 adbd 2c9d 8fbc 4075 80bb 1212 853c
00000320: 207d 953c 8c1d 563b 3422 f1bc 0d1c e73b
00000330: e9de c0bc 92fb 36bc c36d b23d a827 d6bc
00000340: 420a c1bd b556 c03d d595 8bbd c6b6 b7bc
00000350: 4a54 033d 54cf 933d db83 8d3d 58e2 6abd
00000360: 353d 813d 5f5d 7dbd 1301 25bc 980c 423d
00000370: e349 e53c 3b9b c93c c5e4 22bd d464 70bc
00000380: 59c7 4bbc cbcc a6bd ab75 f83c 7d5b 5bbc
00000390: 5194 f33c 7e2e 3b3d 6219 53bd a525 98bb
000003a0: 28d1 b63d 5fd3 aebd 4c75 353d ae77 ad3d
000003b0: 2c98 3d3d 5adf d9bd 7799 c03a c3aa 9c3d
000003c0: 89f7 ba3d b362 b5bd bb5b 113e d125 2f3d
000003d0: c172 353c a7cf b1bc c6e5 67bc 463d 133d
000003e0: 6cbb 873c 3361 ec3c 3d69 44bd 8836 16be
000003f0: 0b86 763d 4f13 8d3c 4717 bfbc b26c 49bd

network_body._body_endoder.seq_layers.0.bias f4 [128]
0.0 0.0 0.0 0.0 0.0 0.0 0.0 0.0
0.0 0.0 0.0 0.0 0.0 0.0 0.0 0.0
0.0 0.0 0.0 0.0 0.0 0.0 0.0 0.0
0.0 0.0 0.0 0.0 0.0 0.0 0.0 0.0
0.0 0.0 0.0 0.0 0.0 0.0 0.0 0.0
0.0 0.0 0.0 0.0 0.0 0.0 0.0 0.0
0.0 0.0 0.0 0.0 0.0 0.0 0.0 0.0
0.0 0.0 0.0 0.0 0.0 0.0 0.0 0.0
0.0 0.0 0.0 0.0 0.0 0.0 0.0 0.0
0.0 0.0 0.0 0.0 0.0 0.0 0.0 0.0
0.0 0.0 0.0 0.0 0.0 0.0 0.0 0.0
0.0 0.0 0.0 0.0 0.0 0.0 0.0 0.0
0.0 0.0 0.0 0.0 0.0 0.0 0.0 0.0
0.0 0.0 0.0 0.0 0.0 0.0 0.0 0.0
0.0 0.0 0.0 0.0 0.0 0.0 0.0 0.0
0.0 0.0 0.0 0.0 0.0 0.0 0.0 0.0
00000000: 0000 0000 0000 0000 0000 0000 0000 0000
00000010: 0000 0000 0000 0000 0000 0000 0000 0000
00000020: 0000 0000 0000 0000 0000 0000 0000 0000
00000030: 0000 0000 0000 0000 0000 0000 0000 0000
00000040: 0000 0000 0000 0000 0000 0000 0000 0000
00000050: 0000 0000 0000 0000 0000 0000 0000 0000
00000060: 0000 0000 0000 0000 0000 0000 0000 0000
00000070: 0000 0000 0000 0000 0000 0000 0000 0000
00000080: 0000 0000 0000 0000 0000 0000 0000 0000
00000090: 0000 0000 0000 0000 0000 0000 0000 0000
000000a0: 0000 0000 0000 0000 0000 0000 0000 0000
000000b0: 0000 0000 0000 0000 0000 0000 0000 0000
000000c0: 0000 0000 0000 0000 0000 0000 0000 0000
000000d0: 0000 0000 0000 0000 0000 0000 0000 0000
000000e0: 0000 0000 0000 0000 0000 0000 0000 0000
000000f0: 0000 0000 0000 0000 0000 0000 0000 0000
00000100: 0000 0000 0000 0000 0000 0000 0000 0000
00000110: 0000 0000 0000 0000 0000 0000 0000 0000
00000120: 0000 0000 0000 0000 0000 0000 0000 0000
00000130: 0000 0000 0000 0000 0000 0000 0000 0000
00000140: 0000 0000 0000 0000 0000 0000 0000 0000
00000150: 0000 0000 0000 0000 0000 0000 0000 0000
00000160: 0000 0000 0000 0000 0000 0000 0000 0000
00000170: 0000 0000 0000 0000 0000 0000 0000 0000
00000180: 0000 0000 0000 0000 0000 0000 0000 0000
00000190: 0000 0000 0000 0000 0000 0000 0000 0000
000001a0: 0000 0000 0000 0000 0000 0000 0000 0000
000001b0: 0000 0000 0000 0000 0000 0000 0000 0000
000001c0: 0000 0000 0000 0000 0000 0000 0000 0000
000001d0: 0000 0000 0000 0000 0000 0000 0000 0000
000001e0: 0000 0000 0000 0000 0000 0000 0000 0000
000001f0: 0000 0000 0000 0000 0000 0000 0000 0000

network_body._body_endoder.seq_layers.2.weight f4 [128, 128]
-0.10012438 0.07035304 0.033928875 0.11123596 -0.059095286 0.11773464 0.11116567 0.06819973
-0.028308626 -0.14428042 0.00065400515 -0.09206442 0.11150074 -0.066755995 0.034440037 0.0475016
-0.050111223 0.054031342 -0.044037122 -0.07409388 0.07106086 0.1088404 -0.0852005 0.22612469
-0.008938897 0.014523725 -0.04202847 0.03799379 -0.10555665 -0.043710414 0.120435335 -0.07762893
-0.02394236 -0.017203204 -0.022838365 0.016725611 -0.050651822 0.15945546 -0.1127275 -0.05155591
-0.11915898 -0.02245952 -0.01979318 0.010270018 0.10212014 0.09689266 0.014881383 0.07966296
0.05562057 0.026549637 0.036105085 0.18053655 0.107427835 -0.059577294 -0.06434706 0.008273827
0.15834312 -0.005845783 -0.05334803 -0.0862183 -0.014284963 -0.14227581 0.028936593 -0.029677503
-0.041664984 -0.066335596 0.14973533 0.043899294 -0.0699017 -0.02860726 -0.026697963 -0.03330599
-0.05742183 0.02610178 -0.0038876045 0.015972802 0.07899726 -0.0527669 -0.140719 0.016356934
0.01710361 0.056391086 -0.016530817 0.0095783705 -0.0751657 0.15104894 0.19202548 0.08918234
-0.016480424 -0.0050720167 0.051134557 0.15166174 0.11293696 -0.092429206 0.19165877 -0.0645573
-0.10616559 -0.05434708 0.120337 -0.036814637 0.044594754 0.0044273944 0.13804665 0.057979915
-0.0012902899 -0.02997306 -0.06830188 -0.0036753213 -0.058821082 -0.025047868 -0.037654303 -0.0549527
0.03913062 0.046414696 -0.007110725 0.09648678 -0.15376972 0.08577333 -0.006377676 0.1212672
0.25124055 -0.03114553 0.058919042 0.048725158 -0.025169333 -0.0073675094 0.09790066 -0.04001118
-0.011544995 -0.12226219 0.0368024 -0.018964706 -0.008196727 0.06738927 0.1165782 -0.04815789
0.029471794 0.15141508 -0.054481324 0.002370479 -0.09213254 0.0098408675 -0.060544748 0.026640216
-0.009205791 0.19317795 0.14611636 -0.073900566 0.06095766 -0.06765725 -0.0758385 -0.044981744
0.015833752 -0.10612575 0.087211646 0.048730586 0.07272179 -0.18270464 0.037852045 -0.073838845
0.023537816 0.003465518 0.00046055726 0.012788399 -0.0636166 -0.03832893 -0.08022219 -0.19073309
-0.03846091 0.024807554 0.065793656 -0.09309376 -0.0059953043 0.097966954 0.14128318 0.15393725
-0.17329228 -0.11448067 -0.038033318 -0.22780989 0.2004872 0.043122128 0.034934975 0.031892173
-0.120386854 0.092994995 -0.06136579 0.13551097 0.19679685 -0.011815699 0.049573734 -0.02049323
-0.06853973 -0.20388547 -0.051267106 -0.044357914 0.02134853 0.02663991 0.14899017 0.0046927356
-0.050362665 0.03537249 -0.10514453 0.12618057 0.064232945 0.017786056 -0.033171684 0.07838554
-0.097852536 0.0040728133 0.0554719 -0.098654434 0.068590075 -0.08070409 -0.06530488 0.0058301426
-0.11277249 -0.09667685 -0.0058382303 -0.14138062 -0.08386101 0.016256955 -0.040968947 0.088413455
0.09523405 -0.14246918 -0.094882414 -0.062878534 -0.11453252 0.0049981754 -0.060247827 -0.0006877418
0.23464812 -0.10307793 0.12857981 -0.11651035 0.020292541 0.041024033 0.084728055 0.18440367
0.027146967 0.13739909 -0.037325025 -0.1302461 0.12706397 -0.04402149 -0.02014495 0.01108022
0.087911695 -0.029030886 -0.045897253 0.017538017 -0.011784472 -0.08948548 0.12000361 -0.047357038
00000000: 030e cdbd 4115 903d 01f9 0a3d aecf e33d
00000010: e60d 72bd dc1e f13d d4aa e33d 4dac 8b3d
00000020: 7ee7 e7bc 3fbe 13be 8b71 2b3a 458c bcbd
00000030: 805a e43d 5eb7 88bd ff10 0d3d 0a91 423d
00000040: 6d41 4dbd f84f 5d3d 4560 34bd 88be 97bd
00000050: 5b88 913d b7e7 de3d 9a7d aebd 3b8d 673e
00000060: 7474 12bc ebf4 6d3c 0c26 2cbd 609f 1b3d
00000070: 162e d8bd b109 33bd cda6 f63d ebfb 9ebd
00000080: c522 c4bc bced 8cbc 8617 bbbc 2604 893c
00000090: 4978 4fbd 4b48 233e addd e6bd 4a2c 53bd
000000a0: a009 f4bd 07fd b7bc 4f25 a2bc 9443 283c
000000b0: 5d24 d13d a96f c63d 0bd1 733c 5526 a33d
000000c0: 65d2 633d a07e d93c ede2 133d 93de 383e
000000d0: 2003 dc3d 5207 74bd 64c8 83bd f28e 073c
000000e0: b324 223e fb8d bfbb 7783 5abd 3893 b0bd
000000f0: 7a0b 6abc c0b0 11be 6f0c ed3c 3c1e f3bc
00000100: e7a8 2abd f5da 87bd 3854 193e bfcf 333d
00000110: 9f28 8fbd c659 eabc b0b5 dabc dd6b 08bd
00000120: 2733 6bbd 66d3 d53c 2ec7 7ebb 65d9 823c
00000130: 51c9 a13d 1b22 58bd a418 10be fafe 853c
00000140: df1c 8c3c 57fa 663d a36b 87bc 99ee 1c3c
00000150: 79f0 99bd 93ac 1a3e 54a2 443e 3ba5 b63d
00000160: f401 87bc 2933 a6bb 7872 513d 374d 1b3e
00000170: 7e4b e73d 864b bdbd 3242 443e 9e36 84bd
00000180: 586d d9bd 0b9b 5ebd 3f73 f63d f2ca 16bd
00000190: fda8 363d ad13 913b 1a5c 0d3e 597c 6d3d
000001a0: f21e a9ba 108a f5bc dbe1 8bbd a9dd 70bb
000001b0: 60ee 70bd 3031 cdbc 663b 1abd 1516 61bd
000001c0: 6e47 203d 561d 3e3d 1601 e9bb dc9a c53d
000001d0: cf75 1dbe eda9 af3d d3fb d0bb f05a f83d
000001e0: 9aa2 803e e924 ffbc 1855 713d 0894 473d
000001f0: eb2f cebc 266b f1bb 2480 c83d c3e2 23bd
00000200: 3827 3dbc 9964 fabd 1dbe 163d df5b 9bbc
00000210: 914b 06bc 6303 8a3d 8dc0 ee3d 3541 45bd
00000220: d56e f13c 8e0c 1b3e cf27 5fbd 0a5a 1b3b
00000230: fcaf bcbd 973b 213c c5fd 77bd 953c da3c
00000240: e3d3 16bc 71d0 453e 879f 153e 2e59 97bd
00000250: bdae 793d e28f 8abd 3751 9bbd c73e 38bd
00000260: c9b5 813c 7558 d9bd 059c b23d b999 473d
00000270: 29ef 943d ed16 3bbe bf0a 1b3d d238 97bd
00000280: 61d2 c03c be1d 633b f376 f139 6f86 513c
00000290: 6c49 82bd ccfe 1cbd 884b a4bd 894f 43be
000002a0: 3089 1dbd 3639 cb3c d3be 863d f1a7 bebd
000002b0: 4274 c4bb e6a2 c83d 8aac 103e baa1 1d3e
000002c0: 8873 31be d774 eabd d3c8 1bbd ff46 69be
000002d0: 844c 4d3e d4a0 303d fa17 0f3d 5ea1 023d
000002e0: 628d f6bd 2974 be3d b25a 7bbd 63c3 0a3e
000002f0: 1d85 493e a296 41bc d40d 4b3d 6be1 a7bc
00000300: 8f5e 8cbd 5ac7 50be 75fd 51bd a5b0 35bd
00000310: 1de3 ae3c f13b da3c e190 183e 85c5 993b
00000320: 1549 4ebd bee2 103d 0456 d7bd 7b35 013e
00000330: 908c 833d 10b4 913c 08df 07bd 9988 a03d
00000340: e966 c8bd 3c75 853b 8136 633d 560b cabd
00000350: f478 8c3d 3048 a5bd 91be 85bd c80a bf3b
00000360: 43f5 e6bd 83fe c5bd a04e bfbb 15c6 10be
00000370: 52bf abbd 4e2d 853c 0ecf 27bd 1d12 b53d
00000380: 120a c33d 71e3 11be b651 c2bd 76c6 80bd
00000390: 0790 eabd bcc7 a33b 6dc6 76bd 9249 34ba
000003a0: 9947 703e 861a d3bd 6daa 033e fa9c eebd
000003b0: 8b3c a63c d108 283d e785 ad3d 51d4 3c3e
000003c0: 5163 de3c 59b2 0c3e 20e2 18bd 3c5f 05be
000003d0: 0f1d 023e e14f 34bd 0607 a5bc d089 353c
000003e0: 0c0b b43d 2ed2 edbc c2fe 3bbd e3ab 8f3c
000003f0: a813 41bc 2a44 b7bd 74c4 f53d 74f9 41bd

network_body._body_endoder.seq_layers.2.bias f4 [128]
0.0 0.0 0.0 0.0 0.0 0.0 0.0 0.0
0.0 0.0 0.0 0.0 0.0 0.0 0.0 0.0
0.0 0.0 0.0 0.0 0.0 0.0 0.0 0.0
0.0 0.0 0.0 0.0 0.0 0.0 0.0 0.0
0.0 0.0 0.0 0.0 0.0 0.0 0.0 0.0
0.0 0.0 0.0 0.0 0.0 0.0 0.0 0.0
0.0 0.0 0.0 0.0 0.0 0.0 0.0 0.0
0.0 0.0 0.0 0.0 0.0 0.0 0.0 0.0
0.0 0.0 0.0 0.0 0.0 0.0 0.0 0.0
0.0 0.0 0.0 0.0 0.0 0.0 0.0 0.0
0.0 0.0 0.0 0.0 0.0 0.0 0.0 0.0
0.0 0.0 0.0 0.0 0.0 0.0 0.0 0.0
0.0 0.0 0.0 0.0 0.0 0.0 0.0 0.0
0.0 0.0 0.0 0.0 0.0 0.0 0.0 0.0
0.0 0.0 0.0 0.0 0.0 0.0 0.0 0.0
0.0 0.0 0.0 0.0 0.0 0.0 0.0 0.0
00000000: 0000 0000 0000 0000 0000 0000 0000 0000
00000010: 0000 0000 0000 0000 0000 0000 0000 0000
00000020: 0000 0000 0000 0000 0000 0000 0000 0000
00000030: 0000 0000 0000 0000 0000 0000 0000 0000
00000040: 0000 0000 0000 0000 0000 0000 0000 0000
00000050: 0000 0000 0000 0000 0000 0000 0000 0000
00000060: 0000 0000 0000 0000 0000 0000 0000 0000
00000070: 0000 0000 0000 0000 0000 0000 0000 0000
00000080: 0000 0000 0000 0000 0000 0000 0000 0000
00000090: 0000 0000 0000 0000 0000 0000 0000 0000
000000a0: 0000 0000 0000 0000 0000 0000 0000 0000
000000b0: 0000 0000 0000 0000 0000 0000 0000 0000
000000c0: 0000 0000 0000 0000 0000 0000 0000 0000
000000d0: 0000 0000 0000 0000 0000 0000 0000 0000
000000e0: 0000 0000 0000 0000 0000 0000 0000 0000
000000f0: 0000 0000 0000 0000 0000 0000 0000 0000
00000100: 0000 0000 0000 0000 0000 0000 0000 0000
00000110: 0000 0000 0000 0000 0000 0000 0000 0000
00000120: 0000 0000 0000 0000 0000 0000 0000 0000
00000130: 0000 0000 0000 0000 0000 0000 0000 0000
00000140: 0000 0000 0000 0000 0000 0000 0000 0000
00000150: 0000 0000 0000 0000 0000 0000 0000 0000
00000160: 0000 0000 0000 0000 0000 0000 0000 0000
00000170: 0000 0000 0000 0000 0000 0000 0000 0000
00000180: 0000 0000 0000 0000 0000 0000 0000 0000
00000190: 0000 0000 0000 0000 0000 0000 0000 0000
000001a0: 0000 0000 0000 0000 0000 0000 0000 0000
000001b0: 0000 0000 0000 0000 0000 0000 0000 0000
000001c0: 0000 0000 0000 0000 0000 0000 0000 0000
000001d0: 0000 0000 0000 0000 0000 0000 0000 0000
000001e0: 0000 0000 0000 0000 0000 0000 0000 0000
000001f0: 0000 0000 0000 0000 0000 0000 0000 0000

action_model._discrete_distribution.branches.0.weight f4 [2, 128]
-0.00050913723 0.00815645 -0.010647053 -0.0017909001 0.012693559 -0.0023955258 -0.0010548851 0.0013535402
0.0073634125 0.0047683283 0.01998226 0.010292006 0.00090553163 0.0039950325 0.0058058496 0.005470998
-0.0071801282 0.017040245 -0.015569324 0.005491844 -0.015665973 -0.010177299 0.0013227669 -0.01763819
-0.01647335 -0.0024523498 0.0077623515 -0.0038665272 -0.013190967 0.008578876 -0.016696695 -0.0120208105
-0.00052445504 0.01906903 -0.008069648 0.0057189567 0.012227777 -0.019398747 -0.011218703 0.00745532
-0.007349198 0.0030770423 0.008788497 0.0014861596 -0.0012624314 -0.0003374675 0.0011767138 0.015054147
-0.01120036 -0.004476353 0.0028069965 0.015578881 0.001922714 -0.001375891 -0.0071900203 -0.0006071123
-0.0063330503 0.00020874762 0.0012888847 0.004305441 0.0057567907 -0.01896999 -0.008668078 -0.00073690945
-0.004391892 0.0026281567 -0.0057120924 0.016463898 0.004252146 -0.0021122347 0.0034729398 -0.0027931768
0.0012366894 0.009258565 0.0050917496 -0.006051115 -0.001368689 0.004916627 -0.012096014 0.007223519
0.00049521396 -0.012516989 -0.0057508196 -0.0003100475 -0.0023419696 -0.007172424 -0.0029759374 -0.0010178809
0.02100643 -0.020168653 0.008600916 -0.009848296 -0.0046251942 -0.0048397277 -0.021855647 0.0065568895
0.0037698639 -0.0023194177 0.00032896976 -0.00266109 -0.0042545833 0.0020111585 -0.016696751 0.013268709
-0.0050667403 0.024777757 0.008252739 0.007851738 0.011233874 0.0029310246 0.0016306638 0.00065649784
0.0039407546 -0.0062537403 0.004033419 0.008707898 0.0038780316 -0.009055252 -0.020951131 -0.0012990714
-0.016834743 -0.003571311 -0.0035967801 -0.0024763409 0.022826765 0.022048319 -0.007912665 0.0008491923
-0.008196786 -0.004023004 0.009272582 -0.012739725 0.003295725 -0.0023761964 0.008306884 0.0059708455
0.005175748 0.003201044 -0.005391971 -0.0009818989 -0.002647452 0.021768259 0.0052507194 -0.0036034256
0.0010688946 -0.005172587 0.005347285 -0.0069957846 0.004350806 -0.014200504 -0.0036008102 0.00208021
-0.0030149135 0.0068369545 0.0033405633 0.0017340329 0.0034872647 -0.012451242 0.018627413 -0.009422532
0.012245623 -0.0058599426 -0.014484449 -0.00032960085 -0.007923883 -0.01414288 -0.004579983 -0.010278604
-0.013905411 -0.011279428 -0.004644269 0.013894792 -0.00062659493 0.008255373 0.005314566 0.0059279776
0.012799734 -0.013598067 -0.008832167 -0.021472385 0.0056910156 0.003967296 -0.01619096 0.006620094
-0.00636988 -0.004435041 -0.0044439854 0.00483116 -0.015816981 2.4089707e-06 -0.0043303813 0.0016044996
0.0051808604 0.0012867225 0.0067579485 0.005159521 -0.0069005215 -0.0010509107 -0.0067004263 -0.009236864
-0.014900448 -0.007889711 -0.0076504457 0.005401202 0.0072628707 0.008039012 -0.0048671686 0.005290761
0.013653243 0.0013682775 -0.008841185 0.012686615 0.0010662866 0.016277181 -0.0045890617 -8.6483466e-05
0.00055082195 -0.0053945007 0.014612171 0.0057844375 -0.006742233 -0.0007989349 0.018042287 -0.017240869
0.018358178 0.016755277 -0.003545473 -0.0038315484 0.0101385 -0.0022794276 -0.005847993 0.008043391
-0.011599279 0.011191563 -0.0005640459 0.0001472366 -0.019252509 0.015770013 0.013990034 0.0019050036
-0.015885452 0.015733993 0.010315361 -0.009201849 -0.0019519167 7.986946e-05 0.0034952497 -0.004256843
0.0046699457 0.008663095 -0.0047638575 -0.011379807 0.0020728123 0.0050570793 0.02387569 -0.008829469
00000000: 9f77 05ba a2a2 053c fa70 2ebc a3bc eaba
00000010: a5f8 4f3c 41fe 1cbb 1244 8aba 4669 b13a
00000020: c848 f13b a33f 9c3b d6b1 a33c cd9f 283c
00000030: 3361 6d3a c3e8 823b ff3e be3b 0f46 b33b
00000040: 4847 ebbb fc97 8b3c 7a16 7fbc edf4 b33b
00000050: ed55 80bc b0be 26bc b160 ad3a f77d 90bc
00000060: 1ef3 86bc 9ab7 20bb 535b fe3b 9065 7dbb
00000070: ed1e 58bc 6a8e 0c3c 82c7 88bc eff2 44bc
00000080: 957b 09ba a836 9c3c 8f36 04bc 1666 bb3b
00000090: 0457 483c 1fea 9ebc a7ce 37bc c24b f43b
000000a0: 8bd1 f0bb 34a8 493b a1fd 0f3c 3ecb c23a
000000b0: 2b78 a5ba 1fee b0b9 f73b 9a3a aba5 763c
000000c0: b781 37bc 5fae 92bb 96f5 373b 903e 7f3c
000000d0: 9303 fc3a 3e57 b4ba 439a ebbb 9e26 1fba
000000e0: 7a85 cfbb 43e3 5a39 cbef a83a a814 8d3b
000000f0: 76a3 bc3b f466 9bbc 8e04 0ebc 282d 41ba
00000100: dce9 8fbb 273d 2c3b 812c bbbb 4cdf 863c
00000110: 9655 8b3b 6b6d 0abb 439a 633b bb0d 37bb
00000120: 6918 a23a 3cb1 173c b1d8 a63b 6f48 c6bb
00000130: 9565 b3ba a81b a13b 5c2e 46bc 45b3 ec3b
00000140: 3fd1 013a 0f14 4dbc 5f71 bcbb df8d a2b9
00000150: bb7b 19bb a706 ebbb f207 43bb 6a6a 85ba
00000160: ad15 ac3c bb38 a5bc dbea 0c3c bf5a 21bc
00000170: f18e 97bb 9496 9ebb 9d0a b3bc 2ddb d63b
00000180: d20f 773b 5f01 18bb 9379 ac39 af65 2ebb
00000190: 086a 8bbb a4cd 033b a0c7 88bc 0065 593c
000001a0: e606 a6bb b9fa ca3c 7f36 073c 93a4 003c
000001b0: 480e 383c 6f16 403b ffbb d53a d318 2c3a
000001c0: 7221 813b 2dec ccbb c52a 843b 92ab 0e3c
000001d0: 9326 7e3b 7b5c 14bc b5a1 abbc 9a45 aaba
000001e0: 04e9 89bc a80c 6abb f5b7 6bbb 1b4a 22bb
000001f0: 32ff ba3c ad9e b43c 1fa4 01bc 559c 5e3a
00000200: d04b 06bc 67d3 83bb 07ec 173c 48ba 50bc
00000210: 17fd 573b f6b9 1bbb 9919 083c 15a7 c33b
00000220: 5299 a93b 9bc8 513b 22af b0bb 0fb3 80ba
00000230: e080 2dbb 5953 b23c 3a0e ac3b 7327 6cbb
00000240: 271a 8c3a ce7e a9bb 4738 af3b e53c e5bb
00000250: 3591 8e3b 3ba9 68bc 92fb 6bbb 2254 083b
00000260: db95 45bb 8808 e03b 5aed 5a3b 7d48 e33a
00000270: 988a 643b 4b00 4cbc 8498 983c f760 1abc
00000280: dea1 483c c304 c0bb 2f50 6dbc 47ce acb9
00000290: 2dd3 01bc 8ab7 67bc af13 96bb 9767 28bc
000002a0: 85d3 63bc 5acd 38bc f42e 98bb fba6 633c
000002b0: 1342 24ba 8b41 073c d025 ae3b 7b3f c23b
000002c0: fab5 513c 6dca 5ebc cbb4 10bc dbe6 afbc
000002d0: b37b ba3b 1700 823b e7a2 84bc 60ed d83b
000002e0: 6dba d0bb d253 91bb da9e 91bb b54e 9e3b
000002f0: 9d92 81bc cda9 2136 dfe5 8dbb 134e d23a
00000300: 35c4 a93b 3ea7 a83a c871 dd3b 3311 a93b
00000310: c51d e2bb b6be 89ba 408f dbbb 3756 17bc
00000320: 0221 74bc d943 01bc 97b0 fabb 91fc b03b
00000330: 60fd ed3b 0fb6 033c c57c 9fbb 1f5e ad3b
00000340: dab1 5f3c c657 b33a 9eda 10bc 85db 4f3c
00000350: a4c2 8b3a b957 853c d75f 96bb 755e b5b8
00000360: 0965 103a 5ac4 b0bb e367 6f3c 618b bd3b
00000370: f3ed dcbb 9d6f 51ba 6bcd 933c b93c 8dbc
00000380: e463 963c 5d42 893c 2b5b 68bb b71a 7bbb
00000390: f31b 263c 7362 15bb 85a0 bfbb 6dc8 033c
000003a0: e70a 3ebc d15c 373c 7bdc 13ba 8663 1a39
000003b0: 70b7 9dbc 1d30 813c 7536 653c 50b1 f93a
000003c0: 3522 82bc 93e4 803c c301 293c 5ac3 16bc
000003d0: 75d7 ffba 977f a738 8f10 653b fd7c 8bbb
000003e0: 5806 993b a7ef 0d3c 221a 9cbb 5f72 3abc
000003f0: 05d8 073b dbb5 a53b f396 c33c 7aa9 10bc

action_model._discrete_distribution.branches.0.bias f4 [2]
0.0 0.0
00000000: 0000 0000 0000 0000
