results/reinRayLong2/ZARAgoal/ZARAgoal-1199888.onnx (onnx, 340068 bytes, 15 tensors)

discrete_act_size_vector f4 [1, 2]
00000000: 0000 0040 0000 4040
2.0 3.0

network_body.observation_encoder.processors.0.conv_layers.0.weight f4 [16, 5, 8, 8]
00000000: ca49 b0bc 3bbd 093d 5c38 2e3b ee04 273c
00000010: 976b 22bc 1cc0 013d 31bc 243d 95c6 57bd
00000020: 416b 7ebc 1874 3d3d 9607 693d d3d2 013d
00000030: a225 263d 573c 83bd e7b2 1bbd c4fe 1fbd
00000040: ea8f 033c 8b1a 01bd c613 2cbd 881c b73d
00000050: a26e 1d3c 103d 563d 6d38 dbbc 449b 1ebc
00000060: 7687 d0bc cfba 8c3d 6fd1 093d ba3a c9bc
00000070: a105 65bc 75a9 66bd 8395 8ebd 0fe3 a7bd
00000080: 8b3f 69bd 8093 98bc 5571 9a3c 5684 babd
00000090: 8c85 e0bc f789 f7b9 1eb6 f6bc 0488 0ebd
000000a0: d129 3cbd 882a 45bd 9fe9 073d c47a 3ebd
000000b0: 1926 7f3d f267 203d c21d 3a3d d7db 2fbd
000000c0: 93fa 30bc b8c0 ab3d f8b1 063d 0a40 0e3d
000000d0: b346 223d db45 153d a87e 003d 368d fc3c
000000e0: f4f8 63bb 8d29 2b3d 34ee 5d3d f249 a43b
000000f0: 304c 8b3c cc32 673d a0e9 5dbc 3c44 a53d
00000100: 91da 86bb d67c 11bd 633a 723c aa74 eb3c
00000110: 1123 893c 0b91 15bd 8f5d 02bd 33b3 b8bd
00000120: 02cf a8bc 9008 61bc f5eb 363d c2aa 81bc
00000130: 47b4 36bd a4b3 8dbd b9c1 76bd c863 8abd
00000140: 1469 2f3d e1b4 1fbd 83da d23c 1370 733d
00000150: a180 b1bc 5012 c8bd 6c01 b9bd d680 e6bd
00000160: 3dfd 50bd ed31 bcbd 025f 2bbd 6c7c 1a3d
00000170: 7560 babc 59fe d5bd 50d1 b7bd 5b66 8dbd
00000180: 417b b1bc 2240 a9bd bdb9 7c3d 6668 f1bb
00000190: 444b c8bb a752 04bd b514 b5bd efcc c63b
000001a0: 2fc8 88bd a8f9 703c 371d 213b 227e 383c
000001b0: 6d91 01bc 2d53 833b 6af2 aabd ea36 42bd
000001c0: 1511 fcbb 56f6 93bd 2391 00bd a27c 4dbd
000001d0: b3f4 b8bd 6ae0 a1bd 7686 f5bd 2b9e 3cbd
000001e0: 3562 43bd b963 d5bd a49d 54bd c548 c9bb
000001f0: 05b2 d2bd db0a 64bd c6e6 a1bd 179e 78bd
00000200: dac5 52bd 83f0 82bc b94d 9c3d ec7e 853d
00000210: 1b00 4fbd fb35 5f3d 9000 943d 66a7 2e3d
00000220: 31f8 53bc a38c ee3c 61b1 e6bc c1dc 9bbc
00000230: 3af3 e83c f4ab d5bc a01a 01bd 7c44 013d
00000240: 4a70 8dbc be31 f13c 7b24 2cbd d3ad 8c3d
00000250: 455a 5b3b d1fb dabc 9c1e 0bbd 5476 783c
00000260: 5e81 f53c 7ad0 9c3d 82f5 843c 8848 a339
00000270: 3482 1abd 6919 0a3d 6522 b93c 96f6 c63c
00000280: 217a c23c f6bd f23a ddcb 9f3d af24 55bd
00000290: aa31 193d c419 0d3d 40c8 973c 6be4 943c
000002a0: a5bf d9bc d830 193d a217 883b 38ba 42bd
000002b0: df18 03bd f31e 1abd f076 30bd a998 423d
000002c0: 926d 24bd c86c 6abd 9847 26bd d7dd 5cbc
000002d0: fc70 b13c 16ec 98bd 0066 f73c 0bf9 743c
000002e0: 5eaa 0e3d f570 dd3c 4437 74bd 90a0 ee3c
000002f0: 7af1 113d a319 873c fa05 ebbb b29b 6b3c
00000300: 05e8 9a3b eccc 98ba 7e3e 5cbc 1860 a5bc
00000310: dc69 a2bc 8f0d fe3a 6e7a f53a 9c5d a23c
00000320: adbf a83c 6885 1b3d 8479 2abd 40cd 0a3d
00000330: 85d8 86bd c564 febc 29aa 203d ef51 6dbc
00000340: 4bbe 08bd a8a0 903c 670a 05bd b6e4 00bd
00000350: b901 9fbd 2e45 343d 1285 eabc 7b4b 563c
00000360: fde9 edbd 9416 40bd 3db5 78bd 941c 2dbd
00000370: 6980 c73c 7178 f03c ca7c 76bd 3ab5 1c3c
00000380: d972 20bc 7219 dabd e97e 9abd adf1 cdbb
00000390: 55a6 c43b f7b3 a9bd 3771 c5bb 25d9 8e3b
000003a0: 8e43 40bd 7a87 19bd a854 7fbd abe5 19bd
000003b0: 3391 23bd 82b3 95bd 2fb6 aabd 7abf e6bd
000003c0: cfdc 85bc 7843 a8bd 3280 1a3c 8f47 ee3c
000003d0: d65a e0bc 2330 3fbc c5d7 17bd 5b9a 05be
000003e0: 364b f13b 5467 083d 61dc c3bd 8e16 d3bd
000003f0: 7596 b5bd 5d6b 93bd 7568 3dbc 6eab 5dbd
-0.02151956 0.03362773 0.0026583886 0.010194046 -0.009913347 0.03167735 0.040218536 -0.052679617
-0.015528501 0.046253294 0.056892 0.0316952 0.040563233 -0.06407993 -0.03801241 -0.039061323
0.008029917 -0.031519454 -0.042011045 0.08940989 0.009608896 0.052304327 -0.026760304 -0.009680573
-0.025455218 0.068715684 0.033646997 -0.024564136 -0.013978393 -0.05631395 -0.06962111 -0.08197605
-0.056945365 -0.018625021 0.018852869 -0.09107272 -0.02740743 -0.00047214303 -0.030116137 -0.034797683
-0.045938317 -0.048136264 0.033181783 -0.046503797 0.062292192 0.03916163 0.045438536 -0.042934265
-0.010801929 0.083863676 0.032884568 0.03472904 0.039618205 0.036443572 0.03137079 0.030829053
-0.0034785839 0.041787673 0.054182246 0.005013698 0.017004102 0.056444928 -0.01354447 0.08069655
-0.0041154106 -0.035519443 0.014784428 0.028742153 0.016740354 -0.036515277 -0.031827506 -0.090185545
-0.020606522 -0.013734952 0.04465862 -0.015828494 -0.04460552 -0.06919029 -0.060243342 -0.06757313
0.04282482 -0.03899086 0.02573896 0.059433054 -0.02166778 -0.09769118 -0.09033474 -0.11255042
-0.051022757 -0.0918921 -0.041838653 0.037716314 -0.022751072 -0.104489036 -0.0897547 -0.069042884
-0.021665217 -0.082641855 0.06170057 -0.0073671816 -0.006112488 -0.032305386 -0.0884184 0.0060669105
-0.06678807 0.01470796 0.0024584064 0.011260541 -0.007908207 0.004007718 -0.08347018 -0.04741565
-0.007692466 -0.07224719 -0.031388413 -0.050167687 -0.09031048 -0.07904132 -0.11988537 -0.04604928
-0.04770108 -0.10419411 -0.05190815 -0.006142708 -0.10287861 -0.055674415 -0.07905345 -0.06069764
-0.051458217 -0.015983826 0.07632012 0.06518349 -0.05053721 0.05449484 0.0722667 0.042640112
-0.012937591 0.029119795 -0.028160753 -0.019026162 0.028436292 -0.02608297 -0.031519532 0.031559452
-0.017265458 0.029442664 -0.042026978 0.06869092 0.0033470553 -0.026731404 -0.03396474 0.01516493
0.029968914 0.07656951 0.016230348 0.00031143823 -0.037721828 0.03371564 0.022599408 0.024287503
0.023739876 0.0018519748 0.07802556 -0.052036937 0.03740088 0.0344484 0.018528104 0.018175324
-0.026580641 0.037400097 0.004153208 -0.047540873 -0.03200614 -0.03762717 -0.043082178 0.04750887
-0.040143557 -0.057232648 -0.04059562 -0.013480625 0.02166032 -0.07466905 0.030200005 0.014951955
0.034830444 0.027031401 -0.059623018 0.029129297 0.03563068 0.016491717 -0.0071723433 0.014380382
0.004727366 -0.0011657751 -0.013442634 -0.020187423 -0.019825868 0.0019382703 0.0018728503 0.019820027
0.02059921 0.037969023 -0.041619793 0.033887148 -0.065842666 -0.03105391 0.039224777 -0.0144848665
-0.033384603 0.017654732 -0.032480624 -0.031468116 -0.077640004 0.044011287 -0.028627906 0.013079519
-0.11616895 -0.046896532 -0.060719717 -0.042263582 0.024353223 0.029354306 -0.060177602 0.009564692
-0.009793007 -0.106493846 -0.075437374 -0.0062849135 0.0060012736 -0.08286279 -0.006025459 0.0043593817
-0.046939425 -0.037482716 -0.062336594 -0.037572544 -0.039933395 -0.07309629 -0.0833553 -0.1126699
-0.016340641 -0.08215994 0.009429978 0.029086856 -0.027387064 -0.0116691915 -0.03707101 -0.13047163
0.007363702 0.033301666 -0.09563518 -0.10307036 -0.08866588 -0.07198212 -0.011560549 -0.054118566

network_body.observation_encoder.processors.0.conv_layers.0.bias f4 [16]
00000000: dd72 ba3c 6d64 8fbb 1d4f 24bd 680a 88bd
00000010: 6858 78bd 8076 ae3b 9e90 593d bc6d 9ebc
00000020: 9f16 413b b619 4a3c 574f 3a3c 920f d3bb
00000030: 90f8 63bd 1b3e 313d 8f91 c23c 80b2 b0bc
0.02275985 -0.0043759854 -0.04011451 -0.0664261 -0.060631186 0.005324185 0.053116433 -0.019339435
0.0029462946 0.0123352315 0.011371455 -0.006441065 -0.05565697 0.04327212 0.023751048 -0.02156949

network_body.observation_encoder.processors.0.conv_layers.2.weight f4 [32, 16, 4, 4]
00000000: c50a 863d 68bc abbc f263 003d f943 0a3d
00000010: 0c2c 6e3d 997c 37bc 0db4 083a f34e 19bc
00000020: f34a a83c 4536 dabc e6a5 45bc c033 e53d
00000030: b1cb cf3c 73ef dcbc a048 a33d 146e 013e
00000040: f5c6 173d cac0 14bb e579 563d aae5 cabc
00000050: 0464 7fbc 0903 fe3d 0578 b0bc 7b0e c9bb
00000060: d8e3 6bbd 5a10 8b3c f3d5 8d3d 0c97 bb3d
00000070: dfe9 583d c017 c03c 6114 3abd 5e23 c43d
00000080: 919d b93d 1fad c93c c77e ffbc f2a0 58bc
00000090: 89c1 a53d dee0 b13d ca65 303d edea 16bd
000000a0: b75d 96bd 5c31 343d eb84 b73b 657c ea3d
000000b0: 3e3f 923d 6a75 9b3d 6ed9 c1bc fd60 943d
000000c0: e0fc 803c 113b 85bc 2b81 c93b 7c0b 183e
000000d0: c164 e0bc d9cd 85bd 68e2 87bc 961a 253d
000000e0: 80ec 41bd fcf5 24bd 1838 453c 858f 653c
000000f0: 4f5f 20bb d962 6ebb e004 633d 90e0 03bc
00000100: 16e2 313c a1de d1bb d9f2 643d 2239 c23b
00000110: 5ebf 2e3b a9e0 23bd d199 28bd e5fc 39bd
00000120: d83b 94bd 0cfc 97b8 b19d 0a3a b4b3 8b3b
00000130: bb18 1fbd f0db a0bd 513a f73b 029f bbbd
00000140: ed78 8b3d 771f 4bbd ee2e 57bd 0eb6 54bd
00000150: 783e a83c c5d6 ca3d 3151 4b3d 5b0c 6e3d
00000160: fd23 01bd cde8 353a d3a5 d33b b3ba 193d
00000170: bd20 c3bc db4c 8d3d 4c03 673d a44d 95bd
00000180: 1836 363d 4f87 573c 48cd 803d 2878 b53d
00000190: cb5d c23d 917a d8bc f9e1 febc e17f 83bc
000001a0: e604 abbc 866e d03c 543b d13b 0804 3e3d
000001b0: f430 ad3c 87cf adbb 224d 883a 0b0c 513d
000001c0: 0a87 8f3d d966 3b3d 262d 4d3d 29a7 ef3a
000001d0: 25a4 9e3c 5e62 0ebd c358 d2bc dc85 25bc
000001e0: 5a3b 583d aefd c33c c9e6 b9bb e29d aebc
000001f0: fc67 503d 853e 26bd 37cc 1f3d b2a5 353b
00000200: bfc4 393d 6aad bbbc d44c a0bd b8c1 983c
00000210: 9f08 893d ed13 633d 3e08 a83d 1b28 653d
00000220: 4d65 833c 0cfa d5bb 2a8b 353d a8c5 cc3b
00000230: ac07 c13d d3d7 78bb 7bbf 753d 44ab 76bd
00000240: 333c 0bbd 1903 a1bd ba8a 0dbd 36e0 af3c
00000250: 0aa2 1dbd ff65 96bd c575 613c 63fe 873d
00000260: 5436 06bb bf2e d5bb 306e 52bd 7e53 e33d
00000270: 8e93 163d 2f93 583d a02e 2f3d 6b14 eebc
00000280: 8e06 4a3d d496 6e3c a6b9 c4bd b44c 5dbd
00000290: 8270 1fbc f87a dc3d 028a 8a3d 0938 7cbc
000002a0: 56d8 543d 9d52 903d f4e0 423d 5968 1abc
000002b0: ecb5 77bd a1d7 aa3d b1f2 32bd ef4c 3b3d
000002c0: 20f2 c3bd 741a e1bb 1ea7 4bbb 0626 8cba
000002d0: 5e1b c9bd b553 f8bc aa90 43bd 540e 173c
000002e0: d536 923c 44cd 46bc 6a19 5a3d 04c6 22bd
000002f0: cd68 683c 981f 95bd 61aa 9bbd 0bab e1bc
00000300: 0c90 03bd 9114 113d d150 c53c 148e 633a
00000310: ca0b 713b ea3f 7b3d 412d 36bd 5ea5 45bd
00000320: 1212 eebd 6346 94bd d566 98bd 5563 903c
00000330: 1fda 193d 0d10 ecbb 9176 bf3b c15e 5e3c
00000340: cbe4 a8bd 72af 8cbc e9d6 00be 2df2 d03b
00000350: 5f93 84bd db42 28bd c519 90bd 5b57 a73d
00000360: 4dbe 973c 4de7 10bd 8963 aebb 7891 a2bd
00000370: 8a43 c83d b046 47bd ba59 813d 3cad 4cbd
00000380: 6462 29bd 0e29 7c3d 2bbb cf3b 25c3 c83d
00000390: 8aa6 9f3c 75a6 923c cda2 d03c 6125 703b
000003a0: 3ab3 0cbd 8e48 a23b f666 94ba afd0 b3bd
000003b0: 7343 bfbd dbcd 35bd 602b 1c3b e6c9 afbc
000003c0: 0be3 b7bb 78da 813b e81a 883d 84bf f23b
000003d0: b429 953c 0f07 7b3c 9d35 1fbd 5905 773d
000003e0: 653d a5bc d6e8 1abd 5ce1 813c 90df f53b
000003f0: ef2a 8cbc dbbf 69bd 42af 283d 8646 6c3d
0.06545023 -0.020963863 0.031345315 0.03375623 0.058147475 -0.01119914 0.0005214818 -0.009357202
0.020543551 -0.026637206 -0.012063479 0.11191511 0.025365682 -0.026969647 0.079728365 0.12639648
0.037054975 -0.002269792 0.05236234 -0.024767715 -0.01558781 0.12402923 -0.021541605 -0.0061357594
-0.057590336 0.01697557 0.06925573 0.09159669 0.05295741 0.023448825 -0.04542959 0.09577058
0.090632565 0.024618683 -0.031188382 -0.013221966 0.080935545 0.08685468 0.043065824 -0.036845136
-0.073420934 0.043992385 0.005600562 0.114495076 0.07140969 0.07590754 -0.023663249 0.072450615
0.01574558 -0.016263517 0.006149431 0.14848131 -0.027391793 -0.06533403 -0.016587451 0.040308557
-0.047344685 -0.04027365 0.0120373 0.0140112685 -0.002447087 -0.0036374836 0.05542457 -0.008049145
0.010857126 -0.0064047133 0.05589566 0.005927221 0.0026664357 -0.040009174 -0.041162316 -0.045407195
-0.07237977 -7.2471885e-05 0.000528778 0.0042633656 -0.038841944 -0.0785445 0.0075447937 -0.09161188
0.06810174 -0.049590554 -0.05253499 -0.051931433 0.0205376 0.09904245 0.049637977 0.05811725
-0.03152846 0.0006939292 0.006458977 0.037531566 -0.023819322 0.06899425 0.05639963 -0.072901994
0.04448518 0.013154819 0.06289154 0.088608086 0.09490546 -0.026425632 -0.031113612 -0.016052188
-0.02087636 0.025443327 0.0063852463 0.046390563 0.021141507 -0.00530428 0.0010398964 0.051036876
0.070081785 0.04575238 0.050091885 0.001828407 0.01936538 -0.03476178 -0.02567709 -0.010102715
0.052790977 0.023924675 -0.0056732637 -0.021315519 0.050880417 -0.040586967 0.039013114 0.002771717
0.045353647 -0.022909839 -0.07827154 0.01864706 0.066910975 0.055438925 0.08204697 0.05594645
0.016039515 -0.006530052 0.04432217 0.0062491484 0.094252914 -0.0037970438 0.059997063 -0.060221925
-0.033992957 -0.07861919 -0.034556128 0.021469217 -0.03848461 -0.07343673 0.013760989 0.06640317
-0.002047916 -0.0065058167 -0.051374614 0.11099909 0.036761813 0.05287474 0.042769074 -0.02906247
0.049322657 0.014562327 -0.09605722 -0.054028228 -0.009731414 0.10765642 0.06764604 -0.015394219
0.051964127 0.07047007 0.047577813 -0.0094242925 -0.06047623 0.08341909 -0.04368848 0.045727666
-0.09567666 -0.0068696085 -0.0031074951 -0.0010692484 -0.09819673 -0.030313352 -0.047745384 0.009219725
0.017848412 -0.0121339 0.053246893 -0.039739624 0.014185143 -0.07281417 -0.076008566 -0.02754738
-0.032119796 0.035420004 0.024086388 0.0008680534 0.0036780708 0.06134025 -0.04447675 -0.04825341
-0.116245404 -0.07239988 -0.07441489 0.01762549 0.037561532 -0.007204062 0.0058429916 0.013572396
-0.08246764 -0.017173503 -0.12581982 0.006376526 -0.06473421 -0.041079383 -0.07036165 0.081709586
0.01852336 -0.035376836 -0.005321924 -0.07937902 0.09778507 -0.048651397 0.06315942 -0.049969897
-0.0413536 0.06156259 0.006339451 0.09802846 0.019488592 0.017901639 0.025468254 0.0036643373
-0.03435061 0.004952497 -0.0011322189 -0.087800376 -0.09339037 -0.044385772 0.0023829564 -0.021458577
-0.0056117824 0.003962811 0.06645757 0.0074080843 0.018208362 0.015321507 -0.03886949 0.060307834
-0.020170877 -0.037819706 0.01585453 0.0075034574 -0.017110316 -0.057067733 0.041182764 0.057684444

network_body.observation_encoder.processors.0.conv_layers.2.bias f4 [32]
00000000: faef 853c 0f6c a83c 21b1 0c3d f9d2 26bd
00000010: 6586 1e3d 837d 0dbc bf02 3ebd d313 43bd
00000020: d432 57bd 5933 6e3b e1ac e5bc 5d70 113d
00000030: 70e4 2bbd 47dd 943c 6486 a03d 33e9 5ebc
00000040: 951f dbbc d356 13bd e871 1ebd c704 853d
00000050: bb19 1b3d be7a 103c 8800 433d 01d6 fa3c
00000060: 44a5 96bb 68bc 563d fb6a 20bc f4af 0f3d
00000070: d4f0 bf3c 19fb 3bbd 5178 613d f946 8ebb
0.016349781 0.020559339 0.03434861 -0.040728543 0.038702387 -0.008635881 -0.046389338 -0.047626328
-0.052538708 0.0036346524 -0.028036537 0.03550755 -0.0419659 0.01817192 0.07838133 -0.013605404
-0.026748458 -0.035971474 -0.03868285 0.06495052 0.037866335 0.0088183265 0.04760793 0.030619623
-0.004597338 0.052425772 -0.009791131 0.03507991 0.023430265 -0.045893762 0.055046383 -0.0043419567

network_body.observation_encoder.processors.0.dense.0.weight f4 [128, 32]
00000000: c2bc d23e f96e 733e 4c50 b7bd 09ff 113e
00000010: 381f 27be de8e 1ebd 3f6f 0abe e0b7 043f
00000020: ad35 e8be 0746 1a3c 5aeb 93be 0872 a23e
00000030: ebe1 8e3e c371 dabc c86e 50bc b35d 123e
00000040: e93c 9e3e f8a0 08be 6795 07bd a012 ba3e
00000050: 413a 1cbd 9b6c 333e e852 4dbd 4416 0a3f
00000060: 498a 6bbe a932 bdbe 0fbc f0bd 2730 153e
00000070: c967 77be 0ce3 263e c8da b83e 7d45 9ebc
00000080: 00bd 743d 90d2 75be 933f 9c3d 6fc3 dd3d
00000090: 2b2a 723e 5755 553c 6553 50bd 8745 04bd
000000a0: d18d 0bbf fb37 bfbc 8403 f3bd a5b9 24be
000000b0: 6725 523e e478 003e 83ff af3e 1555 d93d
000000c0: cf2e 343c 4c7b d3be c433 46be 928f 1cbf
000000d0: d8d8 e83c 9df3 ba3d 8111 c83e 0b87 48bd
000000e0: fe95 45be 353c 4dbd e032 a0be 23a1 b5be
000000f0: a190 35be 087a da3d ff96 d43b b61e 173e
00000100: 200b 2ebd 83bb b13e f8f4 743d 020e 65be
00000110: 2be6 683e bcf8 f6bd 748e 1bbe e8d7 343e
00000120: c460 bdbd c7ec 843d 55a5 853d 10ff 9d3e
00000130: 7b68 09be f528 36bd 3eb7 033e 4496 933d
00000140: 4346 21bf 93de 44bd fd5d 7f3e cb76 fa3c
00000150: c5ed 853d 18a4 e63d fc80 d0be d813 d6bd
00000160: 545c 69be 4a9b bebd 3e99 17be 28ea 903d
00000170: ca48 d23e 369b 4bbe 4770 cdbe 7b04 cfbe
00000180: e060 3e3e 6d0b aebe 9cbc 9bbd cd3a e53d
00000190: e9e6 8fbc 7558 e0bd d185 a83e f599 5abe
000001a0: 948b a73d b6f5 0dbd 22f9 823e cf8d 123f
000001b0: af9f 8c3e 44d2 b73d edb4 a3bd ca27 ccbe
000001c0: 9271 7dbe a558 d5be 9fe5 01be b524 e0bc
000001d0: 7c7e 9c3e 1006 393d 3b22 e7bd cb30 083e
000001e0: 7a4c 38bd 6c8f 73be 05e8 7dbe 815a 9fbe
000001f0: 36a6 293e 8c11 0c3c 1ab3 66bd 99c2 293d
00000200: bfe9 c63e 6535 8dbe a937 893d 0534 0e3d
00000210: 37eb 093e bdc5 debe e5d2 96bc bfd2 aabc
00000220: 0c4c a8be f255 253e 6fa7 bdbe 399a 003f
00000230: 8c9c cc3e 1129 8e3e e392 aabd fb59 c23d
00000240: 8ebd 14be 7e35 80be ec29 86be eff7 e2be
00000250: 4c99 21bf 4536 3b3f b6de fabe 9fb3 b6be
00000260: 5a25 983d b24c dcbe 6f66 77be 73ec 533e
00000270: b944 023f 2ef5 823e a987 79be ae89 093e
00000280: e7c9 f23d 11d0 4a3e e44c 2f3e 46fb ecbd
00000290: 23ba 47be 15aa e03e 6e89 3dbe 5a22 a43d
000002a0: b69c 1f3e edc0 b63e fc4a 8cbd b33d cfbe
000002b0: bf96 7f3d 72e7 7c3e 5127 8fbe cecf f73d
000002c0: 3757 0e3e c2d7 06bc 0023 043e 2db3 90bc
000002d0: 28f6 883e 03a6 823e ae6f 393d 0e3f 5c3d
000002e0: 52dc 0ebe 7bf4 093b 10ee 0f3e 67fb c0be
000002f0: 7362 193e 742f 83be 8d33 dbbd 3c0f 12bd
00000300: a53a 58be 64d9 fabb d43f 07be bf4b a2bb
00000310: 42d6 283f 0395 c53d 1421 b4be e263 653e
00000320: 6028 a63d e12b d83e 9748 853e e4e3 a93e
00000330: 971b 703d f216 d03e 643b b0be 8156 51be
00000340: d56d a03c df54 b93d 29b8 473e 8564 2abd
00000350: 88f9 e23d 143c 223d 01c2 9ebe 4950 3fbe
00000360: 5704 e83c f8f2 073d af9a 18bf 95bf 923e
00000370: 26d8 8bbd 8e58 923a aedd 263e 317e 04bf
00000380: 61c6 b0bd 6892 87be bc65 b53c e080 46bd
00000390: 49f6 d3bd ade8 163f 52a3 d53d 4c88 103e
000003a0: 522a 523d 6ccc e93e 8ffe d9be e838 3c3e
000003b0: 3ef9 a33d 2d18 2ebe e70a c7bd d1ca c23d
000003c0: 37f2 38be fc1c 44be 1099 3d3c a91f 853e
000003d0: d54d b5bd d72b 843d 4282 83be 8448 873e
000003e0: f63d 46be 9516 7a3e 842c b4be 39b2 d33d
000003f0: f747 043b b222 ff3c 580b 1dbe cf9d b13d
0.41159636 0.23772801 -0.08950862 0.14257444 -0.16320503 -0.038710468 -0.13519 0.5184307
-0.4535345 0.00941611 -0.28890496 0.31727624 0.27906737 -0.026665574 -0.012721725 0.14293556
0.30905846 -0.13342655 -0.033101466 0.36342335 -0.038141493 0.17521898 -0.050127894 0.53940225
-0.2300197 -0.36952713 -0.11754619 0.1456915 -0.24160685 0.16297549 0.36104417 -0.019320244
0.059750557 -0.24006104 0.07629313 0.108282916 0.23648898 0.013020835 -0.05086078 -0.03229287
-0.5451327 -0.023342123 -0.11865905 -0.16086443 0.2052208 0.12546116 0.34374627 0.10611931
0.010997488 -0.41305006 -0.19355685 -0.6115657 0.028423712 0.09128497 0.39075854 -0.048956912
-0.19295499 -0.050106246 -0.31288815 -0.354745 -0.17730953 0.10667807 0.0064877267 0.14757809
-0.04249108 0.34713373 0.059803933 -0.22368625 0.22744052 -0.12059161 -0.1519106 0.17660487
-0.09246972 0.06490474 0.06525675 0.3085866 -0.13418762 -0.044472653 0.1286287 0.07206395
-0.62997836 -0.048063826 0.24938197 0.030574223 0.065394916 0.11261767 -0.40723407 -0.10453004
-0.22789127 -0.09306963 -0.14804551 0.07075912 0.4107116 -0.19883427 -0.40124723 -0.40433106
0.18591642 -0.33993092 -0.07604334 0.11192856 -0.017566161 -0.10954372 0.32914594 -0.21347792
0.08180919 -0.034658156 0.25580698 0.5724763 0.2746558 0.08975652 -0.07993493 -0.39874107
-0.24750355 -0.41669193 -0.1268525 -0.027361253 0.3056525 0.045171797 -0.11285826 0.13299863
-0.04499481 -0.2378518 -0.2479554 -0.31123737 0.1656731 0.008549105 -0.05632315 0.04144535
0.3885021 -0.275798 0.067000695 0.03471758 0.13468634 -0.43510237 -0.01841111 -0.020852445
-0.3287052 0.16146067 -0.37041804 0.50235325 0.39963186 0.27765706 -0.08328798 0.09489819
-0.14525434 -0.2504081 -0.2620386 -0.44329783 -0.6312454 0.73129684 -0.4899804 -0.35683915
0.07428999 -0.43027264 -0.24160169 0.20695667 0.5088611 0.25577682 -0.24368156 0.13431427
0.11854916 0.19805934 0.17119175 -0.11571364 -0.195046 0.43879762 -0.18509457 0.080143645
0.15587124 0.35694066 -0.0685024 -0.4047676 0.062399622 0.24697664 -0.27959684 0.121001825
0.13900457 -0.008230152 0.12903976 -0.017663563 0.26750302 0.25517282 0.04527252 0.05377107
-0.13951233 0.0021050263 0.14055657 -0.37691805 0.14978962 -0.2562214 -0.10703192 -0.03565906
-0.21116121 -0.0076553095 -0.13207942 -0.0049528773 0.6595193 0.09647562 -0.35181487 0.22401384
0.0811317 0.42220977 0.26031944 0.3318168 0.05862006 0.40642506 -0.3442031 -0.20443155
0.019583622 0.09049391 0.19503845 -0.04159977 0.110827506 0.039608076 -0.31007388 -0.1868297
0.028322382 0.033190697 -0.5961103 0.2866179 -0.068283364 0.0011165307 0.16295502 -0.5175505
-0.08631588 -0.26478887 0.022143237 -0.04846275 -0.103497095 0.58948785 0.104315415 0.14114493
0.05130989 0.45663774 -0.42577025 0.18381083 0.080065235 -0.1700141 -0.09718876 0.095113404
-0.18061148 -0.19151682 0.0115721375 0.26000717 -0.08852736 0.06453674 -0.25685316 0.26422513
-0.19359574 0.24422677 -0.35190213 0.10336728 0.0020184496 0.031144474 -0.15336359 0.08672678

network_body.observation_encoder.processors.0.dense.0.bias f4 [128]
00000000: 9e24 7bbc f695 bf3d 3e49 433d 9310 773b
00000010: 8a0c 80bd beaf 713a c4a4 d7bb bf29 d0bb
00000020: 6a79 06bc 8475 14bd c55d 083c cc59 0ebd
00000030: f06e a0bd 6a17 ebbb c0e3 1a3c 3d2b aebb
00000040: 8153 ecbb 6e5f 4c3d 3937 96bc 3592 55bc
00000050: cdff 223d ec6c 28bd bee9 97bc 0c6b 493d
00000060: 6866 c6bc cae9 013d aeb1 d03b f7a2 a53c
00000070: 310b 143c 3f1b 033d a65f b1bc a8d3 acbc
00000080: 5dfe 7b3b 4c10 2e3c f164 a2bc 06fb 273c
00000090: b033 83bd e920 5fbc 3de8 3bbb b7c1 00bd
000000a0: 2b63 d4bc f95f 273d 0588 dcbb 742d d9bc
000000b0: 8fc3 d9bc 3166 b4bc 9129 c53c 3db4 01bc
000000c0: eb11 373c c2bf 66bc 7f89 abbb 947a bbba
000000d0: 489f 0cbd f1d6 4dbb 8691 9cbc 1908 51bc
000000e0: 3168 70bc 25c8 dd3c 90ee 44bc e712 223d
000000f0: 6aff 3ebc 5781 d5bc a3fb 46bd f23f c73c
00000100: 8515 b7bc 658a 083d e84d 143c a0ee fcbc
00000110: 1c97 133d b0d6 0bbc 12ee 23bd df2a e83a
00000120: f3a4 3e3c 7905 803d 1220 5c3c 4e65 54bd
00000130: 11e6 17bd 913d 81bc 8c22 9d3c e153 a1bb
00000140: 9523 ab3b 094a adbb 7690 04bc e70d c0ba
00000150: 07c6 05bb b635 93bc ba59 17bb f11f 6d3d
00000160: 64b1 cc3a 6d8a a1bb c2b3 5f3c ce4c 13bd
00000170: 8580 793d 331b 8dbc f568 8cbd 6534 bdbc
00000180: 036a 91bc 1489 01bd b550 98bc 5c26 563c
00000190: 5139 25bc bdd8 19bb 2090 46bb 7fe5 11bc
000001a0: d18c 373c 406a 2d3d f85a c73c 9e40 69bb
000001b0: df8d 25bd cdd6 0e3d 5cc3 f6bb 9419 af3b
000001c0: 0654 0cbd e755 ed3c 1968 113c 14c3 9bbb
000001d0: 196d 933c 13ec 013c 6b26 093d 16c4 b4bb
000001e0: a6b9 153d e938 293d 7b70 d6ba 798d 43bd
000001f0: 742d 9fbc 5bc3 ee3b de57 333c 1e93 f33c
-0.015328554 0.09354775 0.04767727 0.0037699088 -0.06252392 0.0009219608 -0.006580921 -0.006352633
-0.008207658 -0.036244884 0.008323138 -0.034753606 -0.0783366 -0.007174422 0.009453714 -0.005315213
-0.007212103 0.049895696 -0.01833688 -0.013035347 0.039794732 -0.0411195 -0.018544074 0.049174353
-0.024218753 0.0317171 0.0063688373 0.02021931 0.009035871 0.032008406 -0.021652054 -0.02109702
0.0038451173 0.010624003 -0.019823523 0.01025272 -0.06406343 -0.013618686 -0.002867236 -0.03143474
-0.025926193 0.04086301 -0.006730082 -0.026510932 -0.026582507 -0.022021385 0.024067672 -0.007916507
0.011173706 -0.014083805 -0.0052348967 -0.0014303499 -0.03433159 -0.0031408633 -0.01911236 -0.012758278
-0.014673279 0.027072975 -0.012019768 0.039568808 -0.011657575 -0.02606265 -0.048579823 0.024322484
-0.022349128 0.03333511 0.009051777 -0.030875504 0.03603278 -0.008535072 -0.040021963 0.0017712972
0.011636007 0.06251044 0.0134353805 -0.051854424 -0.037084643 -0.015776427 0.019181512 -0.004923329
0.0052227476 -0.0052883667 -0.008091083 -0.0014652581 -0.0020412223 -0.017969947 -0.0023094253 0.05789179
0.0015616831 -0.0049298317 0.013653697 -0.03596192 0.06091358 -0.017224884 -0.068559565 -0.023096273
-0.017750746 -0.03162487 -0.018593172 0.013070669 -0.010084466 -0.0023475133 -0.0030298308 -0.008904814
0.011203007 0.042337656 0.02433537 -0.0035591493 -0.040418502 0.03487282 -0.007530613 0.0053436253
-0.03425982 0.028971625 0.0088749165 -0.0047534797 0.017996358 0.00792982 0.033483904 -0.0055165393
0.036554 0.04131404 -0.0016360426 -0.04774234 -0.019430853 0.007286472 0.010946242 0.029733237

network_body._body_endoder.seq_layers.0.weight f4 [128, 383]
00000000: cb6e 213d 2ad5 04ba 89d7 753d 9770 d73d
00000010: d984 efbb 80a3 7a3d 9571 23bc a81f 99ba
00000020: 7ab1 443c a696 a33c a369 fc3d 1510 c23c
00000030: d783 ba3d 1883 8dbc aaa8 4ebd 81cd cb3c
00000040: dacb c33c 3541 3cbb 4114 173d a1da 7ebd
00000050: 2269 bb3c 44e9 2ebd ff12 c43b 1b41 cb3d
00000060: aaf0 593c 0dfd 553b 603e 2fbd e648 07bc
00000070: 23ed aa3d f4b0 983b 06cc 373d 7e3f d03c
00000080: 85b5 15be f28a 903a 476e 523c dec5 013c
00000090: 510a 08bd 8640 3d3c 555a 9dbc dd59 1a3e
000000a0: b9ac e4bc eda3 893b 26c1 1dbd 8a59 203d
000000b0: 2602 ed3a 7233 06bd 9594 35be f4a9 b83d
000000c0: 7d14 fe3d d518 cb3d 387e b8bc c9b1 873d
000000d0: c8ce ebb9 620c 063e 4836 4f3d 23d5 c63c
000000e0: df5a 1b3d 10f1 84bd f2f4 dd3c bb79 ad3c
000000f0: fc75 0dbc 9265 333d 9901 863d 1804 2f3d
00000100: 851d f73a 0dd0 9b3d b839 2fbd 5f84 48bd
00000110: be0f 84bd 0a35 8c3d f88f a1bd fd8d 4a3d
00000120: 2da8 34bd 3e30 43bc 8834 25bd 72cd 7bbc
00000130: 77c9 9cbb d0de c23d 2079 093d ffbf 30bc
00000140: 92ed 1a3d 7f8e 193a 4cf1 a83c 45dd 05bd
00000150: 6bb9 393c 8e65 323d 1d8d 623d 45ad 9b3c
00000160: 0f55 ac3d 392b aa3b c81a 663d ae1b d63c
00000170: fe64 9abd 4490 0d3d 3993 a1bd baea 8e3c
00000180: ffae e13c 264f 4b3d d8d3 88bd 6213 abbc
00000190: cad4 8fbd ed63 dfbc dfd3 f8bc 6778 9abc
000001a0: 7de4 063c 7441 1cbc 5756 0c3c f6c4 24bd
000001b0: c6f3 f23a 0a5d 96bd a0e7 87bc 42f0 c9bb
000001c0: 6d53 afbb 9d1b 09bd ca96 2fbd 5a2a b7bd
000001d0: a511 4b3d 38cb cabc 8e2e 423d 24b5 313d
000001e0: 8871 24bb 7714 80bc 7536 5fbc 31b8 7a3d
000001f0: c102 6a3d b09b c03d 72af 06bd 5b75 c3bb
00000200: fe23 dd3d d050 28bd 1618 913b 1256 083d
00000210: 507b 84bd 6569 43bd f1bb c73b baf7 583c
00000220: ba62 47bd 59cf 0abd bc80 6e3d e004 05bd
00000230: f982 abbd 1bca 0cbe ac0f e2bd e7bf 4d3c
00000240: 8308 3f3c 4420 75bd b568 24be ae82 f63c
00000250: 0882 953d ea0c b03d 03cc c7bc 3d67 3ebd
00000260: a430 a8bd 6f86 5c3a 1585 0bbd 572e e8bc
00000270: afda e3bb 6de0 66bb f18b 7cba 5aa0 40bd
00000280: 055a e6bc 4154 143d e81d 813c eada 95bc
00000290: cfc4 87bd f295 733d ce3c eabd 1dae 82bd
000002a0: 3249 3abb fba9 0cbc a1be c9bc e576 efbc
000002b0: 86e3 32bc a576 2f3d 68c3 86bd 89bb 6abd
000002c0: 3ac8 ffbd e6e4 cb3b e7db af3c 5f00 033d
000002d0: 6c70 8e3b be77 43bb 53cc 99bd a5de 9cbc
000002e0: 9f67 dc3a f6f4 923d b378 44bc 355f a23c
000002f0: 313a 1fbc a96f 44bd c113 d4bc ff1e d43c
00000300: 069a 82bc 35ff 85bd dd5e 97bd 5e56 cfbb
00000310: 0acd 03bd bcb3 4bbc 6eaf 203c 8a49 13bd
00000320: 9ae8 9e3c 2b68 213d a922 1b3d ba35 63bc
00000330: 679b 083d 374f 34bd fd35 f2bc 292b 463c
00000340: bc70 1f3d 5675 97bc 2ba2 22be 6be3 cd3c
00000350: 37b7 d9bc 5578 aa3d 75b8 f83d 0964 01be
00000360: 1286 a83c 58d4 d0bd b1d2 8a3d c1a3 0dbe
00000370: 1180 10bd eb90 33bd 22ba ca3d 0202 683c
00000380: e1c3 cf3d b080 2f3d 2507 eabc 9caf ca3d
00000390: 4deb 48bd ad19 48bc 3bb8 a4ba 943c 753d
000003a0: f5ef 13bd 62a4 443d 435e 863c c30b b8bc
000003b0: b865 263d d5e6 27bd 3f5a cd3c 9941 093d
000003c0: 4753 d0bb db29 d1bb dde0 b33d 7c59 a1bd
000003d0: fc5f 4fbc 64e6 8b3c aa12 a0bc 56cd 1ebd
000003e0: 6c05 683d a25e 98bc 827f b73d 53db b1bd
000003f0: 7a25 51bd 2ea4 a6bd fd7b 1d3d 89f3 c2bc
0.0394123 -0.00050671643 0.060020003 0.10519522 -0.007309538 0.061191082 -0.009975811 -0.0011682408
0.012005204 0.019969296 0.12324836 0.02368931 0.09107178 -0.017274424 -0.05045382 0.024878265
0.023900915 -0.002872539 0.03688455 -0.06222022 0.02287728 -0.04270293 0.00598371 0.09924527
0.013302008 0.003265205 -0.042784095 -0.008257126 0.083460115 0.0046597663 0.044872306 0.0254209
-0.14620025 0.0011027737 0.012843675 0.00792071 -0.033212963 0.011551028 -0.019208113 0.15073343
-0.027914392 0.0042004497 -0.03851428 0.03914789 0.0018082305 -0.032763906 -0.17732461 0.09016791
0.124062516 0.09916846 -0.022521123 0.06625707 -0.00044976757 0.13090661 0.050588876 0.024271553
0.03792846 -0.064912915 0.027094338 0.02117621 -0.008634087 0.043798037 0.065432735 0.042728513
0.0018853402 0.07608042 -0.042779654 -0.048954364 -0.06448315 0.06846054 -0.07888788 0.049451817
-0.044105697 -0.011913357 -0.0403333 -0.015368806 -0.0047847587 0.09515154 0.03356278 -0.010787963
0.03782422 0.00058577204 0.020622872 -0.032681722 0.011335711 0.04355388 0.055310357 0.01900352
0.08414661 0.005193141 0.056177884 0.026136246 -0.07538794 0.03456141 -0.078894086 0.01744591
0.027549265 0.04963603 -0.06681031 -0.020883266 -0.07023008 -0.027269328 -0.030374466 -0.01885624
0.008233187 -0.00953709 0.008565507 -0.0402269 0.0018535785 -0.073419645 -0.01658994 -0.006162674
-0.0053505213 -0.0334736 -0.042868413 -0.08943625 0.049577374 -0.024755105 0.04740768 0.04338564
-0.0025092084 -0.015634758 -0.013623823 0.061210815 0.057131533 0.09404695 -0.03288216 -0.0059649176
0.107978806 -0.041092694 0.00442792 0.033285208 -0.064688325 -0.047707934 0.0060954024 0.013242656
-0.048678137 -0.03388915 0.05822824 -0.032475352 -0.083745904 -0.13748972 -0.110381454 0.01255796
0.011659744 -0.059845224 -0.16055568 0.03009161 0.07300192 0.08596213 -0.024389273 -0.046485174
-0.082124025 0.0008412366 -0.034062464 -0.028342409 -0.0069535594 -0.0035228983 -0.000963389 -0.047027923
-0.028119097 0.036213163 0.01576133 -0.018292863 -0.06629335 0.05946917 -0.11437379 -0.06380866
-0.0028424975 -0.008585448 -0.024627032 -0.029231498 -0.010918504 0.042837758 -0.065802395 -0.057307754
-0.12489362 0.006222355 0.021467162 0.031982776 0.004346898 -0.002982601 -0.07509675 -0.019149134
0.001681555 0.07175629 -0.011991668 0.019820789 -0.009718464 -0.04795805 -0.025888326 0.025893686
-0.015942585 -0.065428175 -0.073911406 -0.0063274344 -0.032177962 -0.012432989 0.009807451 -0.035958804
0.019398022 0.039405983 0.03787485 -0.01386779 0.03335133 -0.044020858 -0.02956676 0.012095251
0.03892587 -0.018488567 -0.15882175 0.025132855 -0.026576621 0.08323733 0.121445574 -0.12635817
0.020571742 -0.10196751 0.067784674 -0.13831998 -0.035278384 -0.043839376 0.09898783 0.014160635
0.10144783 0.042847335 -0.02856786 0.09896776 -0.049052525 -0.012213153 -0.0012567112 0.059872225
-0.036117513 0.04800833 0.01640237 -0.022466546 0.04062435 -0.040991623 0.025067447 0.033509824
-0.0063575837 -0.0063831634 0.08783124 -0.07878396 -0.012657162 0.017077632 -0.01954015 -0.038770042
0.056645796 -0.018599812 0.08959867 -0.08684411 -0.05106113 -0.081367835 0.038448323 -0.023797767

network_body._body_endoder.seq_layers.0.bias f4 [128]
00000000: 4c18 93bc 79c2 083c 2278 063d 47f2 0f3c
00000010: c928 9a3c 6d98 663c bc1a 80bb 47c6 053a
00000020: 499f ba3c b5b6 eb3a 71b0 5c3c 922f f83c
00000030: d4b4 083c 52ba 9abb 806f 093d 0113 a03c
00000040: 6da1 293b 5d03 7cbc 6642 5a3c ab20 1c3d
00000050: 7945 103c d4b6 43bc c598 11bd 7714 1dbb
00000060: 7402 19bd 6917 843c 8577 693c 483b 2bbd
00000070: 7951 b03c 8d5a c83c 59bc 0c3d e08f c63c
00000080: 844d 03bd 7edd e13a 20db 943c 4fcb 2d3c
00000090: 0811 023c c5d3 723c 5613 0c3b 6149 5c3c
000000a0: 2c5b 523c 7530 973b e413 b63c f490 e1b9
000000b0: 2497 7e3c 46fa bf3c 0b64 e2bc aef9 843c
000000c0: 96b7 1b3c 84b9 bcbc 437c c23c 18e4 c53c
000000d0: 3c6c bfbc 46b5 693c 1052 bb3c 7ba1 e13b
000000e0: 72fa 04bd 6ccd ad3c 0db7 1d3c 6b29 dfbc
000000f0: b597 003d 7024 953b 30e8 093d c029 483b
00000100: 58a1 e53b 3499 1f3c c4c0 babc 4ac8 853b
00000110: 3da3 eebb d893 c0bc c11b 9d3c c45a 8c3c
00000120: 852e af3c af65 ba3c 5f5d 9c3b fa8d 323c
00000130: 8b7f 57bd a8e9 03bd d390 f23c a34d bb3c
00000140: 95b8 303c 1ce5 153c 2547 a43c c930 8f3b
00000150: 8736 7c3c 7e54 973c c6f3 c53c 5ea4 ee3c
00000160: 2472 d53c e27a e63b 54fe dd3a 0c3a f53c
00000170: b7b1 8e3c abd5 0bbd 9d81 09bc 0354 163c
00000180: 1bd5 9fbc 1f2d 703c f407 91bc 761d 8c39
00000190: 4349 0cbc bafc a93c f86e 8c3c a3d8 fdbc
000001a0: dc4c 303c 8d94 e2bc 1ab2 003c a8a0 043c
000001b0: bcac e53c 48f6 6f3c c934 d33b ca42 f6bc
000001c0: 0d2c 013c e492 b1bc 3fb9 e13b 7ff6 7b3c
000001d0: 1400 34bd 5d0d 233c a5bc 093c d6d1 d03b
000001e0: 486f a23c b685 013d 36f2 db3c a191 df3c
000001f0: 13bc 863b 1105 763b e829 613c 1c31 b63c
-0.017955922 0.008347147 0.03282941 0.008785791 0.018818276 0.014074427 -0.003909437 0.0005103093
0.022781031 0.0017983528 0.013469801 0.03029612 0.008343894 -0.004721918 0.0335536 0.019540312
0.002588357 -0.015381661 0.013321495 0.038117092 0.008805626 -0.011945445 -0.035546083 -0.0023968497
-0.037355855 0.016124444 0.014249687 -0.041804582 0.021523224 0.02445724 0.03435931 0.024238527
-0.032056347 0.0017232148 0.018170893 0.010607555 0.007938631 0.014820998 0.002137383 0.013445229
0.01283912 0.004613931 0.022226281 -0.00043023343 0.015538964 0.02343477 -0.027635595 0.016232338
0.0095042195 -0.02303768 0.023740893 0.024156615 -0.02336704 0.01426441 0.022866279 0.006885705
-0.032465406 0.021216117 0.009626162 -0.02724143 0.03139468 0.004551463 0.033668697 0.0030542463
0.007007759 0.009741116 -0.022796996 0.004082714 -0.007282643 -0.023507997 0.019178273 0.017133124
0.021384487 0.022753565 0.004771873 0.010898108 -0.05261187 -0.032205254 0.029610073 0.022864169
0.010786195 0.009148862 0.020053456 0.0043698293 0.01539386 0.018472906 0.024164092 0.02913111
0.026055403 0.0070336917 0.0016936758 0.029934905 0.017418725 -0.034139317 -0.008392719 0.009175303
-0.019510796 0.014659195 -0.017703988 0.0002672483 -0.008562389 0.020750392 0.017142758 -0.03098709
0.010760512 -0.027658725 0.007854963 0.008094944 0.028036468 0.01464612 0.0064455015 -0.030061144
0.007884038 -0.021676488 0.006888538 0.0153785935 -0.043945387 0.0099519165 0.008406793 0.0063726706
0.019828454 0.031621657 0.026848894 0.027291121 0.0041117757 0.003753964 0.013742901 0.022240214

network_body._body_endoder.seq_layers.2.weight f4 [128, 128]
00000000: b006 9ebc da7e 363e f0ff 1f3d e14a b0bc
00000010: 0fa3 55bd ebce 2ebd f386 47bc 3f89 b7bd
00000020: 01c1 ff3d 7d34 5c3e b1a6 a4bd db5b aebd
00000030: ebe9 963d 4ed4 a43d 7779 a0bc 4948 08bd
00000040: 87d1 d1bd d242 4cbc ff65 69bd 59cc 583b
00000050: 1e90 ae3a ef2f feba 94a6 0ebe 4d7f af3d
00000060: d4eb c03d 50fc 0b3c 44f4 15be 1bc1 bf3c
00000070: 7266 f73c 8a9f a23c 4268 36be 175d 76be
00000080: ddc7 da3c cb21 99bd dd1e cbbd e9ab 84bd
00000090: f431 0a3e fba6 8a3a 5649 d1bc dbea 1f3e
000000a0: e22d f63d 68b5 893c ce42 0f3e 94e8 9abd
000000b0: 8175 dc3d d8c3 f43d 1dd8 85bb 849d 4fbd
000000c0: e7dc d8bc d3ee c1bd ec2f 53bd 7656 dcbd
000000d0: 50f8 d2bc 283f 103e d041 893c dca8 36be
000000e0: d66e 8dbc 5dba fb3d c9f1 d73c 3ec1 f03d
000000f0: 530c e93d 3e32 debd 10fd 663e 2732 563e
00000100: 04b8 103d 8f1d 67be e273 40be 0585 a53d
00000110: 4950 b13c 7bb8 3b3e 8650 cdbd 7e8f 3ebd
00000120: 3ab3 02be 3dc9 88bc 227b 883c 0a4b 0a3d
00000130: 731b f43b 3ff5 bebc 9373 1b3d 708a 14bd
00000140: 718f 993c 451e 713c 1b57 313b ae1b b23d
00000150: b5b3 09bd fcbe 983d dbaf c63d 46a5 20be
00000160: b50c ce3c fab7 033e a669 2f3d 8410 c3bd
00000170: faee 25bd 1d8b f6bc 5fd7 7abd c4f1 e6bd
00000180: 43d9 b53b 2228 853e 78ad cc3c fc38 1fbb
00000190: 35bf e73c 3c93 57bd cf71 d23c 01ad 14be
000001a0: 7974 6ebd c4d6 fa3d 964c e83c 45d9 30bd
000001b0: b4a5 91bd 8ec0 9cbd af24 193e 414e 8e3d
000001c0: c7ad 99bd 59c1 753d d402 62bd 75be 1fbe
000001d0: e190 d03d 2b87 87bc 6b5a de3d 31cf d1bc
000001e0: 6e15 8d3c d850 433d 27d7 08bd ac2b d6bd
000001f0: 46c4 173d 5edf 923d 7243 a03d 1959 1bbd
00000200: dfd0 e73c c645 f03d 7866 7e3c 1897 0e3e
00000210: bfa9 823d aa86 323d 2ed1 81be 7724 09bd
00000220: 798e c9bb b6df b5bd 3a9a b6bc 14a8 0c3e
00000230: 4be7 62be 7207 86bd 83e8 a53d b7d0 673d
00000240: 21f2 033d 8798 383d 3172 283e f931 f13d
00000250: 124e a0bd 98ac 423e c4c5 00bd d179 283d
00000260: f9aa 81bc 6958 033d a198 97bd 781d b8bd
00000270: 396f 17bd f078 cfbd bd55 d1bd 49c3 bc3c
00000280: de2e 5cbd 2d77 ec3c 7f59 c03c 1a34 20be
00000290: 31be 34bd e964 0dbd 32a8 8ebd 4cd2 a33d
000002a0: 7f2c d8bd 50b8 1cbd 50a3 a53b fb08 a3bc
000002b0: ba3e 7fbc 8f5f 3bbd 7900 933d 247c f33d
000002c0: f84f 923d be3e 893d 5b81 383c c04c 2fbd
000002d0: 1a6f 6ebd 44eb edbb 7653 ce3d 5a5f 1fbd
000002e0: e13e 98bd 4b28 50be 5627 97bd 5bf6 123c
000002f0: de55 d8bd 9d99 25bd 790c c03c 32e9 1dbe
00000300: 418a 48bc 1b0f 323a f5f6 eb3d cebf 5d3d
00000310: 8073 08be 132a 81bc 40cf cabd 7665 c63d
00000320: 089c d1bd 6bba 1ebe 605f dc3d 7284 97bd
00000330: ab5e d33d 06c6 fc3d 6f09 67bd 2fee 1f3d
00000340: 6190 ac3c de3d 88bd 2267 f13c 6cb8 44bd
00000350: 0f25 bcbc 812c 343d a040 61bd eae6 bf3c
00000360: b48b ee3c 04af bc3d 5dba 4cbd e1f0 20bc
00000370: d706 e2bd 4f69 12be 3764 01be 77e2 2fbd
00000380: 6ab2 babd 7cb2 b5bc a60f 1dbd 4284 a9bd
00000390: 0744 153e 4349 18be 0609 2b3d f007 cfbd
000003a0: 19d7 a6bb b3be a5bc a375 293e 1664 f7bd
000003b0: 298e 9bba d9d3 33bd 4dc5 60bc 122c aabd
000003c0: 2a39 f7bd 3a1a 32bd c8a3 703e b2ca 7bbe
000003d0: 493a 1bbe d022 35bd 1f82 43bd 8d5c 283d
000003e0: d999 dcbd 6b69 933d 94f9 09b9 73e9 20bd
000003f0: 7e45 923d 7f08 4abd 6eee fc3c 06e3 5a3d
-0.019290298 0.17821828 0.03906244 -0.02152008 -0.052157458 -0.0426778 -0.0121781705 -0.089617245
0.124879844 0.21504398 -0.08039606 -0.08513614 0.07368835 0.080483064 -0.019589169 -0.03327206
-0.10245042 -0.012467103 -0.056982037 0.0033080785 0.0013318097 -0.0019392947 -0.13930732 0.085692026
0.09419981 0.008544043 -0.14643961 0.02340751 0.030200217 0.019851465 -0.17813209 -0.24058948
0.02670663 -0.074771486 -0.09917996 -0.06478102 0.13495618 0.0010578329 -0.025547665 0.15616934
0.1202047 0.016810134 0.13990328 -0.07563892 0.107645996 0.11951417 -0.0040846006 -0.050687328
-0.026472522 -0.0946938 -0.051559374 -0.107586786 -0.02575317 0.14086592 0.016755015 -0.17837852
-0.017264765 0.12291405 0.02636041 0.11755608 0.11379304 -0.10849427 0.22557473 0.20917569
0.03533174 -0.2256987 -0.18794206 0.08082012 0.021644728 0.18332092 -0.10025124 -0.046523564
-0.12763682 -0.01669752 0.016660277 0.03376297 0.0074495613 -0.023310302 0.037952017 -0.036264837
0.018745156 0.0147166895 0.0027059976 0.08696686 -0.033618648 0.074583024 0.097015105 -0.15688047
0.025152544 0.1286315 0.042825364 -0.095246345 -0.04051111 -0.030095631 -0.06124055 -0.11276582
0.0055495813 0.2600718 0.02498506 -0.002429544 0.028289417 -0.052630648 0.025689034 -0.14519121
-0.058216546 0.122479945 0.028356832 -0.043175954 -0.071116835 -0.076539144 0.149554 0.069485195
-0.075038485 0.059998844 -0.05517848 -0.15599997 0.101838835 -0.016543945 0.108570896 -0.025611492
0.017222133 0.04768452 -0.03340831 -0.104575485 0.037052415 0.0717151 0.07825364 -0.037926767
0.02829784 0.11732058 0.01552736 0.13924825 0.06380033 0.043585457 -0.25354904 -0.03348204
-0.0061510173 -0.0888056 -0.022290338 0.13735992 -0.22158544 -0.06544389 0.08100989 0.05659553
0.032213334 0.045067336 0.1644981 0.1177711 -0.07827391 0.19011152 -0.031438604 0.0411318
-0.015828596 0.032066736 -0.074021585 -0.08989996 -0.036971305 -0.10130489 -0.102214314 0.023042338
-0.053755634 0.028865421 0.023480175 -0.15644875 -0.044126693 -0.034520064 -0.069656745 0.07999095
-0.10555362 -0.03826171 0.0050548688 -0.019901743 -0.01557892 -0.04574543 0.071778245 0.11888912
0.07144159 0.0670142 0.0112613095 -0.042797804 -0.058211423 -0.007260712 0.10074513 -0.038909294
-0.07433868 -0.2032787 -0.073805496 0.0089698685 -0.10563253 -0.0404297 0.023443447 -0.15420988
-0.012239994 0.0006792412 0.11521713 0.054137997 -0.1332531 -0.015767133 -0.09902811 0.09687321
-0.10234839 -0.155008 0.10760379 -0.07398309 0.10320791 0.123424575 -0.05640548 0.03904551
0.021064939 -0.06652425 0.029468123 -0.04802744 -0.02296689 0.043987755 -0.05499327 0.023425538
0.02911935 0.09213069 -0.049982417 -0.009823055 -0.11036461 -0.14297985 -0.12635885 -0.042940583
-0.09116061 -0.022179835 -0.038345 -0.08277179 0.14576732 -0.14871697 0.041756652 -0.10108936
-0.0050915596 -0.020232534 0.16548781 -0.12079637 -0.0011867929 -0.043903206 -0.013718915 -0.08309187
-0.1207145 -0.043482043 0.23499978 -0.24589041 -0.15158953 -0.044222653 -0.047731515 0.04110389
-0.107715316 0.07197841 -0.00013158313 -0.039285135 0.07142161 -0.04932451 0.03087541 0.053439163

network_body._body_endoder.seq_layers.2.bias f4 [128]
00000000: 52bf ed3b 60e5 cc3a 6306 a83b f14a 963c
00000010: 4982 43bd ef2b 423d 0e59 bc3c 9025 84bd
00000020: 05c3 85bd 5a95 253d dbb4 063d 33c4 02bd
00000030: 3e57 833c 41e0 f13c a34f 50bc ab57 30bd
00000040: c8a3 08bc 8233 a13c 5a61 e03c 9da1 fe3b
00000050: a128 c83c 1701 073c e086 4dbd 0617 3c3d
00000060: 11fb 373c e09f cb3c b9ae 12bd 1494 a7bc
00000070: f243 d03c 6648 1abd 8afb 87bd 6dd2 803c
00000080: 4071 b23c 384e 51bd 5ddf 67bd 2acd 2fbb
00000090: f890 483c f5da 42bc dee3 0c3c 1f8f 6ebd
000000a0: ff77 a73c bbba 14bc 1524 4e3d 92e6 e33c
000000b0: f3a4 92bc ddf4 9ebb 87a9 88bd 5354 3c3c
000000c0: 63b0 223c 30f7 493c d0b0 bd3c abc4 013d
000000d0: 0a93 613b 7be4 b93a 993e af3c 1084 6cbd
000000e0: 5c0a 3fbd 0dc0 e63c 9df4 e73b f4f2 0e3d
000000f0: c511 adb9 3403 33bd 5136 16bd 7a5e cfbb
00000100: a354 e53c b6ec 85bd 87c7 8f3c f8a6 de3b
00000110: da0d 493c 4e03 363d d04d fbbc 998a 7f3c
00000120: 0abc 41bb b8ce 803b 15eb 2f3c 0899 edbb
00000130: a051 7cbd aa7b 073c 55a6 233d 6006 183d
00000140: 8d83 773c 83ba d63c 0747 a7bc 9843 7b3c
00000150: 219e e63c 7371 673c d15b 8c3c ec76 c43b
00000160: ed8c 3bbc f0f8 75bd 939a 103d 1207 74bc
00000170: ff3c 063b 7fb6 703b e375 463c 7f1e 86bd
00000180: c7d0 353c f890 8b3c e21a 9abc 7a88 52bd
00000190: 67d8 bd3c fe07 f83c cd08 8b3a cc7f 463c
000001a0: 34a1 4f3c 7fcd 78bd 5dcf eb3b c494 84bb
000001b0: f697 5cbc 1911 cb3c ba82 3ebb b809 653d
000001c0: 657c aa3b 90c4 2f3c f119 653c 6f21 62bd
000001d0: 4ee8 963c fd57 463c f617 163c 9c78 87bd
000001e0: d984 3a3d 61ce ca3c 8a24 8abc a97d 5ebd
000001f0: 384e 843c c694 873c bfdf a03c 8cf0 d63c
0.007255473 0.0015632324 0.0051277145 0.018346282 -0.04773167 0.04740518 0.022991683 -0.06452477
-0.06531338 0.040425636 0.03288732 -0.03192539 0.016032811 0.029525878 -0.012714299 -0.043052357
-0.00833983 0.019677881 0.02739017 0.0077707306 0.024433436 0.008240006 -0.050177455 0.045920394
0.0112292925 0.024856508 -0.03581116 -0.020456351 0.025423024 -0.0376667 -0.06639774 0.015725339
0.021782517 -0.051099986 -0.0566095 -0.0026825168 0.0122415945 -0.011893024 0.00859925 -0.05824196
0.02044296 -0.009077723 0.05032738 0.027819905 -0.01790092 -0.0048509673 -0.0667296 0.011494714
0.009929749 0.0123270005 0.0231556 0.031681698 0.0034419918 0.0014182472 0.021392154 -0.057743132
-0.04664074 0.028167749 0.0070787207 0.034899667 -0.0003301037 -0.043704227 -0.036672894 -0.006328401
0.02799446 -0.0653929 0.017551197 0.0067948066 0.012271369 0.044436745 -0.030676752 0.015597009
-0.0029561543 0.003930893 0.0107372 -0.0072509088 -0.06160128 0.00826923 0.03995355 0.037115455
0.015107048 0.026211983 -0.02041961 0.01533594 0.028151574 0.0141261695 0.017133625 0.005995622
-0.011447174 -0.06005186 0.035303663 -0.014894264 0.0020483134 0.003672987 0.012113067 -0.065487854
0.01109714 0.0170369 -0.018811647 -0.051399685 0.023174478 0.030277248 0.0010607481 0.01211543
0.012672711 -0.06074285 0.0071963505 -0.0040460546 -0.013463965 0.024788426 -0.0029069618 0.05591747
0.0052028173 0.0107280165 0.013983236 -0.055207666 0.018421318 0.012105939 0.009160986 -0.06614801
0.04553685 0.024756612 -0.016863126 -0.054319058 0.016150579 0.016550433 0.01963794 0.026237749

action_model._discrete_distribution.branches.0.weight f4 [2, 128]
00000000: e838 463c 177f 633c 23ba 45bd 1260 9fbc
00000010: e726 023c ba38 24bd ba4b 1ebc 3a9b 82bb
00000020: 37a0 9cbc d404 16bd 9497 0ebc 8ebd b13a
00000030: dae1 af3b a7f8 80bc 11fa 923b 8f19 7bbb
00000040: 58c4 33bc a115 08bd 74a4 e7b8 2e18 e5bc
00000050: 02bf c5bc f433 c9ba 4838 a13b fbe5 21bc
00000060: b2e8 dabc b675 95bc 4102 48bc 64a7 2f3c
00000070: 76e6 fcbb c343 ab3c ce9d a9bc 600a 2f3b
00000080: 2d52 053d 07f0 18bb a3be b7bb c8eb 3f3c
00000090: fe95 1ebd b165 a73c 6b49 813c 9b3c 60ba
000000a0: 283e 00ba 7d2f afbb fceb 8ebc 94cf a43b
000000b0: bad2 14bc 21aa ebbb 303b afbc d86c 1ebd
000000c0: d5be 8bbb 413b 3fbc cb2e 89ba cd0f e73a
000000d0: 46f8 c9bc fe43 76bd 7e97 a63b 0b6e dabb
000000e0: 3ee7 e4bb a8ed dbbc 4e03 f23b e02a 10bc
000000f0: 58f2 a6ba 37fd ebb9 f03d e2bc 9545 99bc
00000100: e757 09bd 8064 16bc e1cb 35bd aa6a cbbb
00000110: 2ebc 0e3c 480d c3bc 6a65 013c 8f86 b3bc
00000120: b1b3 68bc 50de e7bc 4560 c33b 71c8 7fbc
00000130: ea2f 75bb e47b b5bc 434a 88bc e1dc 9abc
00000140: c7b0 0fbc 9528 493d 0369 2c3b 6ddd 00bd
00000150: 4599 e9b9 0946 4cb9 087d 303c f0e5 43bc
00000160: 7069 b9bc e61f 08bc 5ed0 1eba 2a69 d9bb
00000170: 62ff cdbc 1279 c4b8 619a bebc 7134 5b3c
00000180: 243f 703c 8c0f 8e3b b4dd cd3c 883a 77bc
00000190: 288b 3bbd dcb6 65bc e3e2 bcbb 1d44 bc3c
000001a0: 7ae2 3dbd b104 9cbb def6 65bc d0c4 a33c
000001b0: 5fff 9bbc 876a 7dbc bac6 8abc b1ac 503d
000001c0: c30a adbc 61fb 13bc aabc b3bc 5b64 89bc
000001d0: edc2 8ebc 9822 f8bc dc8d 9abb 563f 4e3b
000001e0: a305 253d e796 60bc 889c 5b3c 802d 6b3c
000001f0: 34ee a83c 0ed7 08bd 7795 98bb da96 353c
00000200: 3837 babc 4e10 e9bc b092 253d 15b5 a93c
00000210: 43ed 2c3b 7621 c93c 7861 093d 4242 a0ba
00000220: 2841 e93c 3e19 9e3c ee9b 853c 7a09 58ba
00000230: 257e 183c c4b5 413c b325 153c aee4 963b
00000240: 334d d83c f916 fa3c e4d6 aabc ccf9 113d
00000250: f7e0 033d 46bd 4a3c b208 48bb cd69 893c
00000260: f238 f03c 103f 133c 7c71 8b3b bf90 e7bb
00000270: 6ed5 c5bc bc45 23bb b10c c93b f479 803b
00000280: 59b9 38bd 628b 673c edd9 353c 0a87 edbc
00000290: 06b2 b83c bbd9 cabb 09f0 f63b cf87 843c
000002a0: 3ce9 6b3c 5ecd c53b 91cc d53c 36d8 0bbd
000002b0: e111 6fbc 5d55 b6ba 8cfb bdbb 158c 453d
000002c0: 77e2 12bb 210f c33c e489 753c 4d4d 823c
000002d0: b957 2f3c 1edf 2f3d cf8a 83b9 8cd7 e73a
000002e0: 50e7 d63b 226e ae3c 8b92 79bc 78e8 7cbb
000002f0: 567b 1d3c fbe5 84bb 44dc 5e3c ba6a 4b3c
00000300: a6f3 9a3c d5ea aa3c 2f9e 4f3d abf0 963c
00000310: 9500 4fbc 8e1a fe3c aac9 9ebc a9a9 c13c
00000320: c46a 293c 8f43 bf3c 75be 8e3c 96ea e1ba
00000330: 77df 8f3c f3a0 183d c026 3fbb 2a7f f83c
00000340: 2464 1c3c b9f3 31bd ad6f 39bc 786e e93c
00000350: 0442 04bc 179c 50bb 787d d03b 1e8f ba3c
00000360: 9942 a03c 3b71 fb3b cc55 5fbb f49d 08bc
00000370: 2cfd 0a3c 16d2 0b3d 4234 0a3d 406b 29bb
00000380: 4d10 87bb e742 cc3b c529 9cbc da2c 543a
00000390: 90f8 913c 54eb 6a3b 3d22 6abb f5df d5bc
000003a0: b03b 183d 0db0 7cbb 3f81 ee3c db26 733b
000003b0: b291 bd3c e019 c93c d9bc 6f3c 6eb8 28bd
000003c0: f76f 243d d0bc a33c 8df7 473c 3df2 cebb
000003d0: 0024 e53c f745 783c 2cd0 a93c 8fd8 5a3b
000003e0: a4a0 45bd 55ec 7c3b 4955 f5bb adc0 85bc
000003f0: 4e4e 9fba 75af 003d e32d 973c ed7e 13bc
0.012098528 0.013885281 -0.048273217 -0.01945499 0.007943845 -0.04009316 -0.009661609 -0.0039857896
-0.019119365 -0.0366257 -0.008703131 0.001356052 0.0053675 -0.015743567 0.0044853766 -0.0038314795
-0.010972105 -0.033223752 -0.0001104557 -0.027965631 -0.024138931 -0.0015350566 0.0049200393 -0.009881492
-0.026722286 -0.018244606 -0.012207569 0.010721061 -0.007717903 0.020906335 -0.02070513 0.0026709065
0.032549072 -0.0023336427 -0.0056074425 0.0117139295 -0.038717262 0.020434232 0.015782079 -0.0008553953
-0.00048920745 -0.005346237 -0.01744651 0.005029628 -0.009083444 -0.007191912 -0.021390527 -0.03867802
-0.0042646923 -0.011671842 -0.0010466216 0.001762861 -0.024654519 -0.060123436 0.0050839772 -0.00666595
-0.006985574 -0.026846722 0.007385648 -0.008799285 -0.0012737019 -0.00045011353 -0.027617425 -0.018709937
-0.033531096 -0.0091792345 -0.044383887 -0.0062077837 0.008711858 -0.023810044 0.007897714 -0.021914748
-0.014202998 -0.028304249 0.005962404 -0.015611754 -0.0037412592 -0.022153802 -0.016636973 -0.018904151
-0.008770174 0.049110968 0.002630771 -0.031461168 -0.00044555418 -0.00019481046 0.010771997 -0.011956677
-0.022633284 -0.008308386 -0.0006058271 -0.006634851 -0.02514619 -9.3685594e-05 -0.023266973 0.013379202
0.014663491 0.0043353494 0.02513013 -0.0150896385 -0.045787007 -0.014020648 -0.0057643517 0.022981698
-0.046358563 -0.0047613014 -0.0140359085 0.019991308 -0.019042669 -0.015467293 -0.016940463 0.05094594
-0.021123296 -0.009032101 -0.021940548 -0.016771486 -0.017426932 -0.030289933 -0.004716618 0.0031470857
0.04028858 -0.013707853 0.013404019 0.01435411 0.020621397 -0.033408217 -0.0046564895 0.011083329
-0.022731408 -0.028450157 0.040423095 0.02071623 0.0026386536 0.024552088 0.03354022 -0.0012226778
0.028473452 0.019299146 0.016309705 -0.0008241158 0.009307419 0.011823121 0.0091032265 0.0046048975
0.026403999 0.030528532 -0.020854421 0.035638615 0.032196965 0.012374228 -0.003052276 0.016774083
0.029324029 0.008987203 0.0042554718 -0.0070668156 -0.024149623 -0.002491339 0.006135546 0.003920788
-0.045098636 0.014132353 0.011099321 -0.028995056 0.022545826 -0.0061905063 0.0075359386 0.01617804
0.014398869 0.0060364446 0.026098521 -0.03414174 -0.014591665 -0.0013910938 -0.005797809 0.048229296
-0.0022412816 0.023810925 0.014986489 0.015906 0.010702067 0.04293739 -0.00025089688 0.0017688139
0.0065583363 0.02129275 -0.0152326925 -0.003859071 0.009611925 -0.004055736 0.01360232 0.012415582
0.018915009 0.02086393 0.050687965 0.018425306 -0.012634416 0.031018522 -0.01938327 0.02364047
0.010340396 0.023347644 0.017424801 -0.001723605 0.017562611 0.037262868 -0.0029167384 0.030334074
0.00954536 -0.043445323 -0.0113181295 0.028495058 -0.00807238 -0.0031831318 0.0063626133 0.022773322
0.019563006 0.0076734102 -0.0034078239 -0.00833844 0.008483212 0.0341359 0.033741243 -0.002585128
-0.0041218163 0.0062335613 -0.019062886 0.00080938416 0.01781872 0.0035845833 -0.0035725974 -0.026107768
0.037166297 -0.0038557083 0.029114364 0.0037102017 0.023140762 0.024548471 0.014632427 -0.04119151
0.04014584 0.019987494 0.012205017 -0.006315498 0.027971268 0.0151534 0.020729147 0.003339324
-0.048248902 0.0038593013 -0.0074869734 -0.016327227 -0.0012154074 0.03141733 0.018454498 -0.009002429

action_model._discrete_distribution.branches.0.bias f4 [2]
00000000: f873 30bc 0674 303c
-0.010769837 0.01076985
