results/reinRayLong2/ZARAgoal/ZARAgoal-216.pt (torch, 624642 bytes, 38 tensors)

discrete_act_size_vector f4 [1, 2]
2.0 3.0
00000000: 0000 0040 0000 4040

network_body.observation_encoder.processors.0.conv_layers.0.weight f4 [16, 5, 8, 8]
-0.055687904 0.05499313 0.012649808 -0.029002791 0.039029032 -0.0035765364 -0.0118907085 -0.052249517
-0.03167714 0.032953396 0.0044417307 0.030059706 -0.04933916 0.04002014 0.052406415 0.04166925
-0.010288719 -0.010505782 -0.022323329 0.010643524 -0.044964183 0.048666086 0.012513096 0.036458712
0.04163871 0.03570771 0.053686865 -0.0069237314 -0.026965676 -0.03448438 -0.011518264 -0.011069373
-0.008168956 -0.015458418 0.021898016 0.028735809 -0.025142055 -0.050830297 -0.027702944 -0.016858019
0.054720145 -0.031977247 -0.04287181 0.020548517 -0.028993985 0.02766559 0.051571883 0.028355595
-0.012143294 0.019390399 -0.006760943 0.039811727 -0.049972754 0.028633257 -0.038794637 0.004122125
0.0546616 -0.018120121 -0.010527627 0.025782004 -0.03602841 -0.028548954 0.04819647 -0.044365227
0.02893435 -0.02213401 0.0043303883 -0.031133534 -0.010307118 0.009363935 0.002961809 -0.052603215
0.055094697 -0.0015537187 0.046967786 -0.014911634 -0.033780355 0.025307607 0.011995683 0.013438772
-0.015589826 0.044819936 -0.012606182 -0.023083633 -0.014659055 0.035575606 0.050548952 0.05476087
-0.032476887 0.050698787 -0.0007090098 0.043549273 0.0065232716 -0.02081409 0.024520494 -0.0397184
0.03710534 -0.02223141 0.029246032 -0.012719137 0.02045748 0.0064966152 0.049337983 0.032312177
-0.00032473347 -0.006346702 0.03855181 0.012492252 -0.031303417 0.021464963 -0.008305512 0.027936041
0.024829632 0.020613464 -0.053004816 0.031064058 -0.019617958 -0.03926521 0.006922052 -0.04208609
-0.0124877095 0.008488226 -0.011766698 0.02840934 -0.04137217 -0.013067971 -0.023901986 0.007934141
0.024709372 -0.02490866 -0.004135256 0.024351755 -0.02451475 -0.021260774 -0.054377187 -0.012082845
-0.018733336 0.03250223 0.046483107 -0.02810428 -0.04387774 1.4514196e-05 0.013347283 0.009527523
-0.054784983 0.009006498 0.028210592 0.048232973 0.0351173 -0.042518117 0.033214703 -0.0128510045
0.01523045 -0.040760092 -0.031177757 -0.019622942 0.052051693 0.0046197195 -0.04826621 0.0056737247
-0.001337072 -0.039851315 -0.028022474 -0.022633472 0.008953867 -0.018439427 0.052898593 0.00634321
0.015066222 -0.0036329606 0.03903192 -0.025819805 -0.03708679 0.03346212 -0.013688426 -0.053805735
0.05187552 -0.04486878 0.0005868786 0.052369025 0.0021718382 0.0007926564 -0.027321015 -0.034291387
0.0049168337 -0.016617652 -0.031094553 0.0014442625 0.023819242 0.03397317 -0.05531686 0.00325963
-0.0506426 0.040603362 -0.010108504 0.045313574 -0.017517447 0.016269773 -0.04183001 0.0109996945
0.015966848 0.0035848797 -0.041187264 0.035888694 0.01120144 0.05174192 -0.05418578 0.054489978
-0.028396696 0.013494037 0.03970694 0.0027076039 -0.03971492 -0.021660415 0.008122859 0.0064788624
0.04886863 0.011007764 -0.0009582035 0.034039486 -0.02182135 -0.0136568025 0.02832915 -0.029583594
0.03791735 -0.0055981316 0.044364817 -0.031938877 0.01347919 -0.03505402 0.025151663 -0.038418546
0.018008038 0.048369464 -0.005144633 -0.034526363 -0.04109377 0.043308288 0.015341998 -0.010214232
0.05080913 -0.01862657 -0.052319415 -0.042779066 0.052339237 0.033121575 -0.03790835 0.020015009
-0.00345903 -0.04294366 -0.054846663 0.009238799 -0.049478345 0.044858094 0.021995723 -0.011703683
00000000: 0019 64bd 7a40 613d 2441 4f3c 4397 edbc
00000010: e8dc 1f3d 5364 6abb 3fd1 42bc 9703 56bd
00000020: e4bf 01bd 24fa 063d f08b 913b c63f f63c
00000030: dc17 4abd 29ec 233d 1ca8 563d 60ad 2a3d
00000040: 0492 28bc 7220 2cbc 6adf b6bc 2d62 2e3c
00000050: 5d2c 38bd 1756 473d bb03 4d3c bb55 153d
00000060: 5a8d 2a3d 3f42 123d c2e6 5b3d 78e0 e2bb
00000070: 1fe7 dcbc 7e3f 0dbd 1ab7 3cbc 515c 35bc
00000080: 16d7 05bc 4e45 7dbc 7863 b33c 5c67 eb3c
00000090: b6f6 cdbc 6e33 50bd 49f1 e2bc d419 8abc
000000a0: 3b22 603d 93fa 02bd 5a9a 2fbd 5d55 a83c
000000b0: cb84 edbc f3a2 e23c 0a3d 533d fe49 e83c
000000c0: abf4 46bc 9dd8 9e3c e78a ddbb 9f11 233d
000000d0: 3bb0 4cbd 4b90 ea3c 20e7 1ebd e412 873b
000000e0: d8e4 5f3d a670 94bc 117c 2cbc c834 d33c
000000f0: 8792 13bd 7fdf e9bc a969 453d 50b8 35bd
00000100: bb07 ed3c 6252 b5bc eee5 8d3b c10b ffbc
00000110: 30df 28bc 316b 193c e91a 423b 7876 57bd
00000120: faaa 613d 26a6 cbba 4b61 403d ed4f 74bc
00000130: 455d 0abd e651 cf3c 8b89 443c 4c2e 5c3c
00000140: 786c 7fbc 1c95 373d 298a 4ebc e319 bdbc
00000150: 882c 70bc bab7 113d 6b0c 4f3d ef4c 603d
00000160: 7c06 05bd 88a9 4f3d d8dc 39ba b960 323d
00000170: 2bc1 d53b 4f82 aabc 34df c83c c3af 22bd
00000180: c5fb 173d a51e b6bc 6095 ef3c ed63 50bc
00000190: 7296 a73c 8fe1 d43b a016 4a3d c659 043d
000001a0: fd40 aab9 fff7 cfbb 81e8 1d3d 4dac 4c3c
000001b0: 0338 00bd 4ad7 af3c d813 08bc 20da e43c
000001c0: 8367 cb3c 91dd a83c 941b 59bd 0d7a fe3c
000001d0: d7b5 a0bc 8fd4 20bd 61d2 e23b 7762 2cbd
000001e0: 4099 4cbc 3312 0b3c 1cc9 40bc b4ba e83c
000001f0: dd75 29bd 0b1b 56bc 19ce c3bc 33fe 013c
00000200: 4f6b ca3c 3f0d ccbc 0b81 87bb 557d c73c
00000210: 28d3 c8bc 132b aebc 9dba 5ebd 20f7 45bc
00000220: a776 99bc 0f21 053d 1265 3e3d f23a e6bc
00000230: 25b9 33bd ff81 7337 90ae 5a3c 5419 1c3c
00000240: 3866 60bd fe8f 133c e619 e73c f08f 453d
00000250: 28d7 0f3d 7a27 2ebd 240c 083d 058d 52bc
00000260: 2389 793c 0ef4 26bd 7f68 ffbc 4bc0 a0bc
00000270: 2834 553d 0461 973b cab2 45bd a7ea b93b
00000280: b140 afba 223b 23bd 638f e5bc d569 b9bc
00000290: 3db3 123c 480e 97bc 32ac 583d b4da cf3b
000002a0: 51d8 763c f716 6ebb efdf 1f3d 0e84 d3bc
000002b0: 51e8 17bd 930f 093d 6c45 60bc 6763 5cbd
000002c0: 6d7b 543d 53c8 37bd c2d8 193a e780 563d
000002d0: 6655 0e3b 45ca 4f3a 52d0 dfbc 2075 0cbd
000002e0: 641d a13b be21 88bc 01ba febc 684d bd3a
000002f0: 9220 c33c 7327 0b3d ef93 62bd 849f 553b
00000300: 9d6e 4fbd b64f 263d 249e 25bc ba9a 393d
00000310: c080 8fbc 3048 853c f255 2bbd 1038 343c
00000320: e8cc 823c 4df0 6a3b fab3 28bd 0600 133d
00000330: 3f86 373c 56ef 533d e9f1 5dbd e230 5f3d
00000340: 30a0 e8bc 1816 5d3c bfa3 223d 0e72 313b
00000350: 1dac 22bd 2f71 b1bc bd15 053c a34c d43b
00000360: 792a 483d e959 343c f32f 7bba fd6c 0b3d
00000370: b0c2 b2bc c8c0 5fbc 8912 e83c 4b59 f2bc
00000380: 394f 1b3d 8870 b7bb e2b7 353d 57d2 02bd
00000390: d2d7 5c3c ce94 0fbd dc0a ce3c c45c 1dbd
000003a0: 9885 933c 0f1f 463d 4f94 a8bb 846b 0dbd
000003b0: f151 28bd 0864 313d 015d 7b3c 9859 27bc
000003c0: 3c1d 503d c096 98bc e24c 56bd 1a39 2fbd
000003d0: ab61 563d 7daa 073d c945 1bbd 84f6 a33c
000003e0: e5b0 62bb b1e5 2fbd e5a6 60bd 555e 173c
000003f0: cea9 4abd 1fbd 373d 6030 b43c cec0 3fbc

network_body.observation_encoder.processors.0.conv_layers.0.bias f4 [16]
-0.023075586 -0.016884468 -0.034747504 -0.05089525 -0.04724231 -0.020201819 -0.03596505 -0.015614339
0.032001875 0.031507906 -0.009770842 0.008314888 -0.03245627 0.043105382 -0.047781173 0.016445125
00000000: 0309 bdbc 4c51 8abc 6653 0ebd 8a77 50bd
00000010: 2781 41bd 497e a5bc 1750 13bd 49d3 7fbc
00000020: 6614 033d 6f0e 013d e215 20bc 2b3b 083c
00000030: def0 04bd 458f 303d 31b6 43bd edb7 863c

network_body.observation_encoder.processors.0.conv_layers.2.weight f4 [32, 16, 4, 4]
0.010543622 -0.040370002 -0.041610993 0.045403026 0.002643101 -0.03657873 0.031015836 -0.01598785
-0.05390516 0.033432536 -0.0069225766 -0.05130626 0.0052128956 0.038391136 0.0385961 -0.020230532
0.0043603852 0.05435603 0.04513088 -0.0021300018 0.038189895 0.019531138 0.041700512 -0.010980364
0.033219434 -0.03718034 0.005240418 0.02543138 0.047326237 -0.049575135 -0.05767207 -0.047532443
0.011443146 -0.03151449 0.0161352 -0.056220695 0.003404379 0.037316635 -0.0060432963 -0.016900659
-0.021044258 0.05560299 -0.043831073 0.055826537 0.008460522 -0.018603124 0.033427097 -0.016823899
0.049776345 -0.0032070316 -0.04643656 0.04612837 -0.008570045 -0.059339378 0.050663777 0.057384
-0.06234882 -0.024287231 -0.04026836 -0.044374697 0.03214501 -0.025379062 0.03586521 0.027690724
-0.053161357 0.060804866 0.045288064 -0.004263077 -0.034813583 0.0368784 0.054679908 -0.04339129
0.012582272 -0.037716158 -0.040131353 0.055879176 -0.04934879 0.038869314 -0.04228095 -0.0363281
-0.0037304498 0.05769007 -0.04585746 0.028050065 -0.025273621 0.022542395 0.0032595024 -0.02319825
0.036216952 -0.049884662 0.024074048 -0.048191566 -0.03861153 -0.054073565 0.05207281 0.060790405
-0.0099928565 -0.025206573 0.03842192 -0.025549892 0.01723583 -0.054853924 0.036908858 0.01968611
0.013993524 0.013697386 0.002789773 -0.059635166 0.028177343 -0.04098293 -0.00016698614 -0.04638555
-0.04897242 0.047643565 0.035081737 -0.042431355 0.035146132 -0.031400494 0.051473223 0.037270874
-0.048243538 0.008959822 -0.042952232 0.028042391 -0.01963684 -0.060125813 -0.048539363 0.008199751
-0.04263424 0.007252179 -0.015665162 0.061356768 0.014757834 -0.05760113 -0.027707774 -0.04106587
0.0037826076 0.03199359 -0.035559848 -0.008514751 -0.052630287 -0.058386236 0.013890043 -0.04614106
-0.020217527 0.02100385 -0.026132252 0.017278515 0.026993848 0.008146241 0.01339449 0.06120719
-0.03822457 -0.054170687 0.043508433 0.055684097 0.017339922 0.03262668 0.037685677 -0.054800425
0.004590787 -0.028107107 0.0395919 -0.0029816702 -0.035923757 0.046508953 -0.013695803 -0.033546887
-0.014682878 -0.022947475 0.0105206 0.054523207 0.058649264 -0.027099553 0.021342307 0.00798519
0.021837696 -0.027217004 -0.0036173724 0.011254974 -0.03137208 -0.042726584 0.054091454 -0.026845187
0.05641897 0.035103023 -9.898096e-05 0.032496147 0.016076133 -0.0023612343 0.020697057 0.05281634
-0.03497346 -0.044307403 0.032381974 -0.048837453 0.056066312 0.02946765 0.007862955 -0.0472769
0.051778212 -0.011163693 0.052293636 0.008161306 0.0030563697 0.04506705 0.03336303 0.048046052
0.04737617 0.03269633 -0.020119973 -0.041222334 -0.035727043 0.021849431 0.040281408 0.06018307
-0.058817983 -0.033862147 0.035877354 -0.02125452 0.008869894 0.020333134 -0.0033860542 0.010118976
0.018325381 -0.05801796 -0.025508981 0.014981009 0.034670755 -0.042824168 0.059474356 -0.059405822
0.041126594 0.046116553 -0.0028891377 -0.0013091564 -0.006173808 0.049359903 0.01592718 0.048109055
-0.0071152598 0.036139622 0.04089684 0.042083904 -0.059332233 -0.03656698 0.0012224242 0.04447718
0.016739808 -0.016245183 -0.0032285005 0.01704026 0.045408413 0.056128137 0.006775178 0.022871606
00000000: 28bf 2c3c 045b 25bd 4a70 2abd 86f8 393d
00000010: e037 2d3b 94d3 15bd ec14 fe3c f4f8 82bc
00000020: a8cb 5cbd 8ef0 083d c8d6 e2bb 8326 52bd
00000030: f0d0 aa3b 0640 1d3d f216 1e3d 80ba a5bc
00000040: 90e1 8e3b 6ea4 5e3d 28db 383d 8097 0bbb
00000050: 026d 1c3d c4ff 9f3c 28ce 2a3d fce6 33bc
00000060: 1a11 083d 6a4a 18bd d0b7 ab3b 7855 d03c
00000070: 28d9 413d 4c0f 4bbd 8c39 6cbd 61b1 42bd
00000080: 087c 3b3c 5615 01bd f82d 843c ac47 66bd
00000090: 001c 5f3b 54d9 183d d806 c6bb 4073 8abc
000000a0: 0265 acbc f6bf 633d 3688 33bd 5eaa 643d
000000b0: 009e 0a3c 9465 98bc daea 083d 46d2 89bc
000000c0: 48e2 4b3d 102d 52bb 4334 3ebd 1af1 3c3d
000000d0: 6069 0cbc d90d 73bd d284 4f3d 7c0b 6b3d
000000e0: 7a61 7fbd 04f6 c6bc 70f0 24bd 3ec2 35bd
000000f0: 7caa 033d c0e7 cfbc 66e7 123d a8d7 e23c
00000100: b9bf 59bd 860e 793d fa7f 393d 48b1 8bbb
00000110: b098 0ebd ce0d 173d 0af8 5f3d 11bb 31bd
00000120: e025 4e3c 427c 1abd c660 24bd 90e1 643d
00000130: f521 4abd 6e35 1f3d ca2e 2dbd c6cc 14bd
00000140: 907a 74bb 6c4c 6c3d 08d5 3bbd 40c9 e53c
00000150: a00a cfbc d4aa b83c 609d 553b 420a bebc
00000160: 3a58 143d dc53 4cbd f036 c53c 8564 45bd
00000170: 2027 1ebd 3e7c 5dbd 4c4a 553d 5cff 783d
00000180: 14b9 23bc 047e cebc 4e60 1d3d 024e d1bc
00000190: 2832 8d3c 82ae 60bd be2d 173d c444 a13c
000001a0: 1845 653c 006b 603c a0d4 363b 0144 74bd
000001b0: 2cd4 e63c b8dd 27bd 0019 2fb9 c6fe 3dbd
000001c0: 4e97 48bd e625 433d deb1 0f3d 80cc 2dbd
000001d0: 64f5 0f3d ce9d 00bd 96d5 523d 58a9 183d
000001e0: 049b 45bd 38cc 123c aeee 2fbd 28b9 e53c
000001f0: 70dd a0bc 7c46 76bd 36d1 46bd 4058 063c
00000200: 3ea1 2ebd b0a3 ed3b 3a54 80bc 3c51 7b3d
00000210: d8ca 713c 2aef 6bbd 6afb e2bc b034 28bd
00000220: a0e5 773b b60b 033d 34a7 11bd 7481 0bbc
00000230: db92 57bd 6826 6fbd 1093 633c 68fe 3cbd
00000240: 3a9f a5bc 4410 ac3c 4e13 d6bc ac8b 8d3c
00000250: 3422 dd3c d077 053c 9074 5b3c 64b4 7a3d
00000260: 5e91 1cbd 15e2 5dbd e635 323d 0215 643d
00000270: 740c 8e3c 8ea3 053d 4c5c 1a3d 6976 60bd
00000280: 506e 963b e040 e6bc 1e2b 223d 2068 43bb
00000290: ca24 13bd 2c80 3e3d 5c64 60bc 7668 09bd
000002a0: 7490 70bc 58fc bbbc 985e 2c3c ba53 5f3d
000002b0: 363a 703d e2ff ddbc 10d6 ae3c 50d4 023c
000002c0: f8e4 b23c 32f6 debc 7011 6dbb c866 383c
000002d0: 0380 00bd 1202 2fbd 008f 5d3d 70ea dbbc
000002e0: 9417 673d 30c8 0f3d 0094 cfb8 ae1a 053d
000002f0: 18b2 833c f0be 1abb e08c a93c f255 583d
00000300: 5540 0fbd ae7b 35bd f6a2 043d c809 48bd
00000310: caa5 653d 2466 f13c a0d3 003c 6ca5 41bd
00000320: 6415 543d ece7 36bc da31 563d 00b7 053c
00000330: 604d 483b 3a98 383d aca7 083d f0cb 443d
00000340: 840d 423d 96ec 053d a4d2 a4bc c0d8 28bd
00000350: 8556 12bd 94fd b23c 1efe 243d 8682 763d
00000360: 20eb 70bd 09b3 0abd 22f4 123d f61d aebc
00000370: 0853 113c ac91 a63c 90e8 5dbb 10ca 253c
00000380: 1c1f 963c 3ea4 6dbd 36f8 d0bc e872 753c
00000390: ec02 0e3d 6568 2fbd 629b 733d 8553 73bd
000003a0: 5c74 283d b6e4 3c3d b057 3dbb 0098 abba
000003b0: a84d cabb 9c2d 4a3d b879 823c 000e 453d
000003c0: 2027 e9bb 2407 143d 7283 273d 2c60 2c3d
000003d0: 5b06 73bd 42c7 15bd c039 a03a b42d 363d
000003e0: ec21 893c 9e14 85bc 4095 53bb 0498 8b3c
000003f0: 2cfe 393d 9ee6 653d 5002 de3b 3c5d bb3c

network_body.observation_encoder.processors.0.conv_layers.2.bias f4 [32]
-0.0040708594 0.011391871 -0.059995845 0.04288564 0.0074183196 0.0117311925 0.05689381 0.0032427087
-0.0039052516 -0.046203025 0.06003113 0.01624138 -0.048879627 -0.05510087 0.02701214 0.034680218
0.006726451 -0.054469645 0.061967395 0.034773037 0.039311588 -0.035096046 -0.060885448 -0.058065522
-0.058150236 -0.054812044 -0.022066914 -0.013574466 -0.006506834 -0.05240424 -0.057203524 -0.056527674
00000000: d864 85bb f8a4 3a3c 34be 75bd daa8 2f3d
00000010: 6015 f33b 3034 403c 7c09 693d a083 543b
00000020: 40ef 7fbb 623f 3dbd 34e3 753d a40c 853c
00000030: 0136 48bd 73b1 61bd 9048 dd3c d80c 0e3d
00000040: 9069 dc3b 901b 5fbd 86d1 7d3d 2c6e 0e3d
00000050: 3005 213d dfc0 0fbd 0563 79bd 1dd6 6dbd
00000060: f12e 6ebd 9882 60bd acc5 b4bc 7067 5ebc
00000070: 4837 d5bb d4a5 56bd 3e4e 6abd 9089 67bd

network_body.observation_encoder.processors.0.dense.0.weight f4 [128, 32]
-0.15283202 0.06315997 0.079592936 -0.16527148 0.28731066 0.38412938 0.13998719 -0.23020464
-0.1708336 0.18346074 -0.05835642 -0.19203825 -0.046719708 0.028332038 0.056413885 0.0057435706
0.05149446 0.554933 0.11583175 -0.24368954 0.26479742 -0.09348156 0.048410907 0.10124197
-0.21289746 0.34551823 -0.09033995 0.019479318 -0.00858562 -0.09991699 0.10769659 -0.11216042
0.02838916 0.35816357 -0.24454808 -0.008326347 -0.31056926 0.3437301 -0.19174236 0.13451762
-0.11065532 0.39235306 0.20458895 0.28169864 0.2389116 0.18263376 0.24626604 0.019923404
0.29755437 0.32961276 -0.15398155 0.010729806 -0.46525156 0.018868275 0.13567236 0.1998377
0.261516 0.34318188 -0.10473967 -0.14421579 -0.37452295 0.019503405 0.059577383 -0.4663172
-0.22844692 0.17621827 -0.416699 0.026772326 -0.041711316 -0.1364781 -0.57904136 0.12819153
-0.022227928 0.13837628 0.2701746 -0.19261995 0.27987856 0.0737485 -0.056864522 0.19527721
-0.12781848 0.10385784 0.21417783 -0.38067025 -0.5685086 -0.25017312 -0.34651682 -0.06697362
-0.20361803 -0.249388 -0.060517713 0.093583636 -0.07125989 0.2432975 0.031540062 -0.30994925
-0.18660833 -0.05340333 -0.085561424 -0.14040455 0.22294383 0.20950265 -0.04994147 -0.0022631774
0.082995504 -0.15316688 0.32970428 -0.2630442 -0.32308832 -0.16917534 -0.8448007 -0.27640784
0.32872826 -0.26589802 -0.049894333 0.58049476 -0.263189 -0.4306161 0.075230494 -0.037166663
-0.14661661 -0.22163625 -0.6852965 -0.15469424 -0.26116976 -0.32421556 0.04357196 0.1038465
-0.2908896 -0.13656604 0.37950033 -0.3545758 -0.083964385 0.18869671 -0.0073629376 -0.27257174
0.3090634 -0.051761143 0.14614409 0.045190707 0.42163864 0.2673826 0.3801141 -0.25394192
0.057463124 0.19655438 -0.014233503 -0.46460295 -0.021015342 0.2938277 0.13274597 -0.29927257
-0.21005729 0.3405739 -0.024596557 -0.17304014 0.3725457 -0.14517261 0.19580199 -0.21817155
0.036958024 0.11675862 0.17457867 0.17789261 0.22134995 -0.33629203 0.30300415 -0.07449535
0.06437906 0.089241706 -0.17845367 0.12440988 0.009818051 -0.15410425 -0.07029748 0.3473823
-0.036028866 -0.2554129 -0.077745564 0.37800887 -0.24093889 0.21416043 -0.17640746 0.12104684
-0.025340041 -0.1803792 0.029358951 -0.2369073 -0.36138275 -0.4377169 0.215713 -0.21742362
0.1488343 -0.062469624 -0.20456249 0.20679896 -0.15794095 0.18358071 -0.05708485 -0.014903141
0.19430906 -0.13466448 0.050955765 0.1868125 -0.3059209 0.21292831 0.497872 -0.02387054
-0.10301634 -0.006994008 -0.088732384 -0.13903625 0.26853636 -0.06898937 -0.4277235 0.11059847
0.4887619 0.11459623 -0.68864024 0.09764454 0.10741156 0.005299567 0.37563187 -0.5878278
-0.01190154 0.2773637 0.01463862 -0.49032167 -0.22618881 -0.024561726 0.042309195 -0.15356499
-0.039418783 0.23472685 0.40007758 0.011108257 -0.11648304 0.021635085 0.01294484 0.21050908
0.1797599 -0.12620074 0.13630994 -0.34686682 -0.45908114 -0.045087956 -0.18398616 -0.2558119
-0.29476675 0.3399145 -0.12346614 -0.06905243 0.2494872 -0.1632298 0.03807921 -0.057520878
00000000: ff7f 1cbe 045a 813d 9f01 a33d ed3c 29be
00000010: 621a 933e 9bac c43e cd58 0f3e c4ba 6bbe
00000020: 01ef 2ebe 22dd 3b3e 2407 6fbd ada5 44be
00000030: 2a5d 3fbd 9718 e83c 3f12 673d 9034 bc3b
00000040: dbeb 523d 1710 0e3f 3239 ed3d c089 79be
00000050: 8793 873e 4373 bfbd 844a 463d f357 cf3d
00000060: cb01 5abe c4e7 b03e 2704 b9bd 1793 9f3c
00000070: b3aa 0cbc 47a1 ccbd 0890 dc3d 5db4 e5bd
00000080: 6290 e83c 3761 b73e d06a 7abe 3b6b 08bc
00000090: ef02 9fbe 64fd af3e 1c58 44be fdbe 093e
000000a0: 429f e2bd 80e2 c83e c47f 513e ce3a 903e
000000b0: 3ea5 743e 5804 3b3e 2a2d 7c3e 6836 a33c
000000c0: 0c59 983e 01c3 a83e 57ad 1dbe 11cc 2f3c
000000d0: 7435 eebe a491 9a3c b2ed 0a3e 41a2 4c3e
000000e0: 6de5 853e 89b5 af3e c181 d6bd 4ead 13be
000000f0: 79c1 bfbe 9bc5 9f3c 6a07 743d 21c1 eebe
00000100: fded 69be 9072 343e 9259 d5be a351 db3c
00000110: 7cd9 2abd eac0 0bbe 0e3c 14bf a444 033e
00000120: 5817 b6bc 83b2 0d3e 5354 8a3e 2a3e 45be
00000130: 3e4c 8f3e 7409 973d c6ea 68bd c0f6 473e
00000140: d9e2 02be 6bb3 d43d 6f51 5b3e 36e7 c2be
00000150: c889 11bf b116 80be a76a b1be 7729 89bd
00000160: 3f81 50be 915f 7fbe 6ce1 77bd c7a8 bf3d
00000170: b5f0 91bd fb22 793e 2730 013d abb1 9ebe
00000180: 4116 3fbe 73bd 5abd d43a afbd 36c6 0fbe
00000190: 634b 643e dd87 563e 6d8f 4cbd d151 14bb
000001a0: 8cf9 a93d c7d7 1cbe 00cf a83e bbad 86be
000001b0: d56b a5be 4d3c 2dbe dc44 58bf 5485 8dbe
000001c0: 124f a83e c923 88be 005e 4cbd 4e9b 143f
000001d0: b5c0 86be b779 dcbe 7212 9a3d 123c 18bd
000001e0: aa22 16be 9df4 62be 976f 2fbf 2b68 1ebe
000001f0: 0bb8 85be 95ff a5be 8378 323d 79ad d43d
00000200: 7bef 94be f8d7 0bbe de4d c23e f68a b5be
00000210: 85f5 abbd b639 413e cc44 f1bb 868e 8bbe
00000220: 8f3d 9e3e 7e03 54bd cca6 153e e419 393d
00000230: 05e1 d73e 5fe6 883e 519e c23e ad04 82be
00000240: 745e 6b3d 8d45 493e a333 69bc 70e0 edbe
00000250: 5e28 acbc 9670 963e 8fee 073e 413a 99be
00000260: 4219 57be b45f ae3e b87e c9bc 6f31 31be
00000270: 4fbe be3e 21a8 14be 5180 483e 5d68 5fbe
00000280: 4c61 173d 251f ef3d c0c4 323e 7b29 363e
00000290: 90a9 623e 782e acbe 5c23 9b3e 0591 98bd
000002a0: 2bd9 833d 5bc4 b63d 8fbc 36be 9bca fe3d
000002b0: e4db 203c 81cd 1dbe 20f8 8fbd 18dc b13e
000002c0: 0193 13bd 7bc5 82be 1139 9fbd 618a c13e
000002d0: afb8 76be df4c 5b3e 28a4 34be 68e7 f73d
000002e0: eb95 cfbc 53b5 38be 2f82 f03c d497 72be
000002f0: 2907 b9be 6e1c e0be dee3 5c3e 4ca4 5ebe
00000300: 0568 183e 26e0 7fbd d478 51be 1bc3 533e
00000310: 46bb 21be 95fc 3b3e ced1 69bd 4e2c 74bc
00000320: f4f8 463e 7ce5 09be feb6 503d c74b 3f3e
00000330: aaa1 9cbe e109 5a3e 14e9 fe3e 278c c3bc
00000340: 3bfa d2bd fe2d e5bb 53b9 b5bd 855f 0ebe
00000350: 997d 893e 4c4a 8dbd 93fe dabe 7381 e23d
00000360: 003f fa3e 6eb1 ea3d ba4a 30bf dcf9 c73d
00000370: 98fa db3d fda7 ad3b d252 c03e e27b 16bf
00000380: adfe 42bc 9d02 8e3e d3d6 6f3c 710b fbbe
00000390: 0a9e 67be ac35 c9bc 684c 2d3d 2440 1dbe
000003a0: 9775 21bd 3c5c 703e f8d6 cc3e 68ff 353c
000003b0: a98e eebd 103c b13c 9816 543c b18f 573e
000003c0: fb12 383e c43a 01be d594 0b3e 8798 b1be
000003d0: af0c ebbe 26ae 38bd de66 3cbe c7f9 82be
000003e0: abeb 96be 4609 ae3e d1db fcbd 5c6b 8dbd
000003f0: 9379 7f3e b625 27be f2f8 1b3d 039b 6bbd

network_body.observation_encoder.processors.0.dense.0.bias f4 [128]
0.0 0.0 0.0 0.0 0.0 0.0 0.0 0.0
0.0 0.0 0.0 0.0 0.0 0.0 0.0 0.0
0.0 0.0 0.0 0.0 0.0 0.0 0.0 0.0
0.0 0.0 0.0 0.0 0.0 0.0 0.0 0.0
0.0 0.0 0.0 0.0 0.0 0.0 0.0 0.0
0.0 0.0 0.0 0.0 0.0 0.0 0.0 0.0
0.0 0.0 0.0 0.0 0.0 0.0 0.0 0.0
0.0 0.0 0.0 0.0 0.0 0.0 0.0 0.0
0.0 0.0 0.0 0.0 0.0 0.0 0.0 0.0
0.0 0.0 0.0 0.0 0.0 0.0 0.0 0.0
0.0 0.0 0.0 0.0 0.0 0.0 0.0 0.0
0.0 0.0 0.0 0.0 0.0 0.0 0.0 0.0
0.0 0.0 0.0 0.0 0.0 0.0 0.0 0.0
0.0 0.0 0.0 0.0 0.0 0.0 0.0 0.0
0.0 0.0 0.0 0.0 0.0 0.0 0.0 0.0
0.0 0.0 0.0 0.0 0.0 0.0 0.0 0.0
00000000: 0000 0000 0000 0000 0000 0000 0000 0000
00000010: 0000 0000 0000 0000 0000 0000 0000 0000
00000020: 0000 0000 0000 0000 0000 0000 0000 0000
00000030: 0000 0000 0000 0000 0000 0000 0000 0000
00000040: 0000 0000 0000 0000 0000 0000 0000 0000
00000050: 0000 0000 0000 0000 0000 0000 0000 0000
00000060: 0000 0000 0000 0000 0000 0000 0000 0000
00000070: 0000 0000 0000 0000 0000 0000 0000 0000
00000080: 0000 0000 0000 0000 0000 0000 0000 0000
00000090: 0000 0000 0000 0000 0000 0000 0000 0000
000000a0: 0000 0000 0000 0000 0000 0000 0000 0000
000000b0: 0000 0000 0000 0000 0000 0000 0000 0000
000000c0: 0000 0000 0000 0000 0000 0000 0000 0000
000000d0: 0000 0000 0000 0000 0000 0000 0000 0000
000000e0: 0000 0000 0000 0000 0000 0000 0000 0000
000000f0: 0000 0000 0000 0000 0000 0000 0000 0000
00000100: 0000 0000 0000 0000 0000 0000 0000 0000
00000110: 0000 0000 0000 0000 0000 0000 0000 0000
00000120: 0000 0000 0000 0000 0000 0000 0000 0000
00000130: 0000 0000 0000 0000 0000 0000 0000 0000
00000140: 0000 0000 0000 0000 0000 0000 0000 0000
00000150: 0000 0000 0000 0000 0000 0000 0000 0000
00000160: 0000 0000 0000 0000 0000 0000 0000 0000
00000170: 0000 0000 0000 0000 0000 0000 0000 0000
00000180: 0000 0000 0000 0000 0000 0000 0000 0000
00000190: 0000 0000 0000 0000 0000 0000 0000 0000
000001a0: 0000 0000 0000 0000 0000 0000 0000 0000
000001b0: 0000 0000 0000 0000 0000 0000 0000 0000
000001c0: 0000 0000 0000 0000 0000 0000 0000 0000
000001d0: 0000 0000 0000 0000 0000 0000 0000 0000
000001e0: 0000 0000 0000 0000 0000 0000 0000 0000
000001f0: 0000 0000 0000 0000 0000 0000 0000 0000

network_body.processors.0.conv_layers.0.weight f4 [16, 5, 8, 8]
-0.055687904 0.05499313 0.012649808 -0.029002791 0.039029032 -0.0035765364 -0.0118907085 -0.052249517
-0.03167714 0.032953396 0.0044417307 0.030059706 -0.04933916 0.04002014 0.052406415 0.04166925
-0.010288719 -0.010505782 -0.022323329 0.010643524 -0.044964183 0.048666086 0.012513096 0.036458712
0.04163871 0.03570771 0.053686865 -0.0069237314 -0.026965676 -0.03448438 -0.011518264 -0.011069373
-0.008168956 -0.015458418 0.021898016 0.028735809 -0.025142055 -0.050830297 -0.027702944 -0.016858019
0.054720145 -0.031977247 -0.04287181 0.020548517 -0.028993985 0.02766559 0.051571883 0.028355595
-0.012143294 0.019390399 -0.006760943 0.039811727 -0.049972754 0.028633257 -0.038794637 0.004122125
0.0546616 -0.018120121 -0.010527627 0.025782004 -0.03602841 -0.028548954 0.04819647 -0.044365227
0.02893435 -0.02213401 0.0043303883 -0.031133534 -0.010307118 0.009363935 0.002961809 -0.052603215
0.055094697 -0.0015537187 0.046967786 -0.014911634 -0.033780355 0.025307607 0.011995683 0.013438772
-0.015589826 0.044819936 -0.012606182 -0.023083633 -0.014659055 0.035575606 0.050548952 0.05476087
-0.032476887 0.050698787 -0.0007090098 0.043549273 0.0065232716 -0.02081409 0.024520494 -0.0397184
0.03710534 -0.02223141 0.029246032 -0.012719137 0.02045748 0.0064966152 0.049337983 0.032312177
-0.00032473347 -0.006346702 0.03855181 0.012492252 -0.031303417 0.021464963 -0.008305512 0.027936041
0.024829632 0.020613464 -0.053004816 0.031064058 -0.019617958 -0.03926521 0.006922052 -0.04208609
-0.0124877095 0.008488226 -0.011766698 0.02840934 -0.04137217 -0.013067971 -0.023901986 0.007934141
0.024709372 -0.02490866 -0.004135256 0.024351755 -0.02451475 -0.021260774 -0.054377187 -0.012082845
-0.018733336 0.03250223 0.046483107 -0.02810428 -0.04387774 1.4514196e-05 0.013347283 0.009527523
-0.054784983 0.009006498 0.028210592 0.048232973 0.0351173 -0.042518117 0.033214703 -0.0128510045
0.01523045 -0.040760092 -0.031177757 -0.019622942 0.052051693 0.0046197195 -0.04826621 0.0056737247
-0.001337072 -0.039851315 -0.028022474 -0.022633472 0.008953867 -0.018439427 0.052898593 0.00634321
0.015066222 -0.0036329606 0.03903192 -0.025819805 -0.03708679 0.03346212 -0.013688426 -0.053805735
0.05187552 -0.04486878 0.0005868786 0.052369025 0.0021718382 0.0007926564 -0.027321015 -0.034291387
0.0049168337 -0.016617652 -0.031094553 0.0014442625 0.023819242 0.03397317 -0.05531686 0.00325963
-0.0506426 0.040603362 -0.010108504 0.045313574 -0.017517447 0.016269773 -0.04183001 0.0109996945
0.015966848 0.0035848797 -0.041187264 0.035888694 0.01120144 0.05174192 -0.05418578 0.054489978
-0.028396696 0.013494037 0.03970694 0.0027076039 -0.03971492 -0.021660415 0.008122859 0.0064788624
0.04886863 0.011007764 -0.0009582035 0.034039486 -0.02182135 -0.0136568025 0.02832915 -0.029583594
0.03791735 -0.0055981316 0.044364817 -0.031938877 0.01347919 -0.03505402 0.025151663 -0.038418546
0.018008038 0.048369464 -0.005144633 -0.034526363 -0.04109377 0.043308288 0.015341998 -0.010214232
0.05080913 -0.01862657 -0.052319415 -0.042779066 0.052339237 0.033121575 -0.03790835 0.020015009
-0.00345903 -0.04294366 -0.054846663 0.009238799 -0.049478345 0.044858094 0.021995723 -0.011703683
00000000: 0019 64bd 7a40 613d 2441 4f3c 4397 edbc
00000010: e8dc 1f3d 5364 6abb 3fd1 42bc 9703 56bd
00000020: e4bf 01bd 24fa 063d f08b 913b c63f f63c
00000030: dc17 4abd 29ec 233d 1ca8 563d 60ad 2a3d
00000040: 0492 28bc 7220 2cbc 6adf b6bc 2d62 2e3c
00000050: 5d2c 38bd 1756 473d bb03 4d3c bb55 153d
00000060: 5a8d 2a3d 3f42 123d c2e6 5b3d 78e0 e2bb
00000070: 1fe7 dcbc 7e3f 0dbd 1ab7 3cbc 515c 35bc
00000080: 16d7 05bc 4e45 7dbc 7863 b33c 5c67 eb3c
00000090: b6f6 cdbc 6e33 50bd 49f1 e2bc d419 8abc
000000a0: 3b22 603d 93fa 02bd 5a9a 2fbd 5d55 a83c
000000b0: cb84 edbc f3a2 e23c 0a3d 533d fe49 e83c
000000c0: abf4 46bc 9dd8 9e3c e78a ddbb 9f11 233d
000000d0: 3bb0 4cbd 4b90 ea3c 20e7 1ebd e412 873b
000000e0: d8e4 5f3d a670 94bc 117c 2cbc c834 d33c
000000f0: 8792 13bd 7fdf e9bc a969 453d 50b8 35bd
00000100: bb07 ed3c 6252 b5bc eee5 8d3b c10b ffbc
00000110: 30df 28bc 316b 193c e91a 423b 7876 57bd
00000120: faaa 613d 26a6 cbba 4b61 403d ed4f 74bc
00000130: 455d 0abd e651 cf3c 8b89 443c 4c2e 5c3c
00000140: 786c 7fbc 1c95 373d 298a 4ebc e319 bdbc
00000150: 882c 70bc bab7 113d 6b0c 4f3d ef4c 603d
00000160: 7c06 05bd 88a9 4f3d d8dc 39ba b960 323d
00000170: 2bc1 d53b 4f82 aabc 34df c83c c3af 22bd
00000180: c5fb 173d a51e b6bc 6095 ef3c ed63 50bc
00000190: 7296 a73c 8fe1 d43b a016 4a3d c659 043d
000001a0: fd40 aab9 fff7 cfbb 81e8 1d3d 4dac 4c3c
000001b0: 0338 00bd 4ad7 af3c d813 08bc 20da e43c
000001c0: 8367 cb3c 91dd a83c 941b 59bd 0d7a fe3c
000001d0: d7b5 a0bc 8fd4 20bd 61d2 e23b 7762 2cbd
000001e0: 4099 4cbc 3312 0b3c 1cc9 40bc b4ba e83c
000001f0: dd75 29bd 0b1b 56bc 19ce c3bc 33fe 013c
00000200: 4f6b ca3c 3f0d ccbc 0b81 87bb 557d c73c
00000210: 28d3 c8bc 132b aebc 9dba 5ebd 20f7 45bc
00000220: a776 99bc 0f21 053d 1265 3e3d f23a e6bc
00000230: 25b9 33bd ff81 7337 90ae 5a3c 5419 1c3c
00000240: 3866 60bd fe8f 133c e619 e73c f08f 453d
00000250: 28d7 0f3d 7a27 2ebd 240c 083d 058d 52bc
00000260: 2389 793c 0ef4 26bd 7f68 ffbc 4bc0 a0bc
00000270: 2834 553d 0461 973b cab2 45bd a7ea b93b
00000280: b140 afba 223b 23bd 638f e5bc d569 b9bc
00000290: 3db3 123c 480e 97bc 32ac 583d b4da cf3b
000002a0: 51d8 763c f716 6ebb efdf 1f3d 0e84 d3bc
000002b0: 51e8 17bd 930f 093d 6c45 60bc 6763 5cbd
000002c0: 6d7b 543d 53c8 37bd c2d8 193a e780 563d
000002d0: 6655 0e3b 45ca 4f3a 52d0 dfbc 2075 0cbd
000002e0: 641d a13b be21 88bc 01ba febc 684d bd3a
000002f0: 9220 c33c 7327 0b3d ef93 62bd 849f 553b
00000300: 9d6e 4fbd b64f 263d 249e 25bc ba9a 393d
00000310: c080 8fbc 3048 853c f255 2bbd 1038 343c
00000320: e8cc 823c 4df0 6a3b fab3 28bd 0600 133d
00000330: 3f86 373c 56ef 533d e9f1 5dbd e230 5f3d
00000340: 30a0 e8bc 1816 5d3c bfa3 223d 0e72 313b
00000350: 1dac 22bd 2f71 b1bc bd15 053c a34c d43b
00000360: 792a 483d e959 343c f32f 7bba fd6c 0b3d
00000370: b0c2 b2bc c8c0 5fbc 8912 e83c 4b59 f2bc
00000380: 394f 1b3d 8870 b7bb e2b7 353d 57d2 02bd
00000390: d2d7 5c3c ce94 0fbd dc0a ce3c c45c 1dbd
000003a0: 9885 933c 0f1f 463d 4f94 a8bb 846b 0dbd
000003b0: f151 28bd 0864 313d 015d 7b3c 9859 27bc
000003c0: 3c1d 503d c096 98bc e24c 56bd 1a39 2fbd
000003d0: ab61 563d 7daa 073d c945 1bbd 84f6 a33c
000003e0: e5b0 62bb b1e5 2fbd e5a6 60bd 555e 173c
000003f0: cea9 4abd 1fbd 373d 6030 b43c cec0 3fbc

network_body.processors.0.conv_layers.0.bias f4 [16]
-0.023075586 -0.016884468 -0.034747504 -0.05089525 -0.04724231 -0.020201819 -0.03596505 -0.015614339
0.032001875 0.031507906 -0.009770842 0.008314888 -0.03245627 0.043105382 -0.047781173 0.016445125
00000000: 0309 bdbc 4c51 8abc 6653 0ebd 8a77 50bd
00000010: 2781 41bd 497e a5bc 1750 13bd 49d3 7fbc
00000020: 6614 033d 6f0e 013d e215 20bc 2b3b 083c
00000030: def0 04bd 458f 303d 31b6 43bd edb7 863c

network_body.processors.0.conv_layers.2.weight f4 [32, 16, 4, 4]
0.010543622 -0.040370002 -0.041610993 0.045403026 0.002643101 -0.03657873 0.031015836 -0.01598785
-0.05390516 0.033432536 -0.0069225766 -0.05130626 0.0052128956 0.038391136 0.0385961 -0.020230532
0.0043603852 0.05435603 0.04513088 -0.0021300018 0.038189895 0.019531138 0.041700512 -0.010980364
0.033219434 -0.03718034 0.005240418 0.02543138 0.047326237 -0.049575135 -0.05767207 -0.047532443
0.011443146 -0.03151449 0.0161352 -0.056220695 0.003404379 0.037316635 -0.0060432963 -0.016900659
-0.021044258 0.05560299 -0.043831073 0.055826537 0.008460522 -0.018603124 0.033427097 -0.016823899
0.049776345 -0.0032070316 -0.04643656 0.04612837 -0.008570045 -0.059339378 0.050663777 0.057384
-0.06234882 -0.024287231 -0.04026836 -0.044374697 0.03214501 -0.025379062 0.03586521 0.027690724
-0.053161357 0.060804866 0.045288064 -0.004263077 -0.034813583 0.0368784 0.054679908 -0.04339129
0.012582272 -0.037716158 -0.040131353 0.055879176 -0.04934879 0.038869314 -0.04228095 -0.0363281
-0.0037304498 0.05769007 -0.04585746 0.028050065 -0.025273621 0.022542395 0.0032595024 -0.02319825
0.036216952 -0.049884662 0.024074048 -0.048191566 -0.03861153 -0.054073565 0.05207281 0.060790405
-0.0099928565 -0.025206573 0.03842192 -0.025549892 0.01723583 -0.054853924 0.036908858 0.01968611
0.013993524 0.013697386 0.002789773 -0.059635166 0.028177343 -0.04098293 -0.00016698614 -0.04638555
-0.04897242 0.047643565 0.035081737 -0.042431355 0.035146132 -0.031400494 0.051473223 0.037270874
-0.048243538 0.008959822 -0.042952232 0.028042391 -0.01963684 -0.060125813 -0.048539363 0.008199751
-0.04263424 0.007252179 -0.015665162 0.061356768 0.014757834 -0.05760113 -0.027707774 -0.04106587
0.0037826076 0.03199359 -0.035559848 -0.008514751 -0.052630287 -0.058386236 0.013890043 -0.04614106
-0.020217527 0.02100385 -0.026132252 0.017278515 0.026993848 0.008146241 0.01339449 0.06120719
-0.03822457 -0.054170687 0.043508433 0.055684097 0.017339922 0.03262668 0.037685677 -0.054800425
0.004590787 -0.028107107 0.0395919 -0.0029816702 -0.035923757 0.046508953 -0.013695803 -0.033546887
-0.014682878 -0.022947475 0.0105206 0.054523207 0.058649264 -0.027099553 0.021342307 0.00798519
0.021837696 -0.027217004 -0.0036173724 0.011254974 -0.03137208 -0.042726584 0.054091454 -0.026845187
0.05641897 0.035103023 -9.898096e-05 0.032496147 0.016076133 -0.0023612343 0.020697057 0.05281634
-0.03497346 -0.044307403 0.032381974 -0.048837453 0.056066312 0.02946765 0.007862955 -0.0472769
0.051778212 -0.011163693 0.052293636 0.008161306 0.0030563697 0.04506705 0.03336303 0.048046052
0.04737617 0.03269633 -0.020119973 -0.041222334 -0.035727043 0.021849431 0.040281408 0.06018307
-0.058817983 -0.033862147 0.035877354 -0.02125452 0.008869894 0.020333134 -0.0033860542 0.010118976
0.018325381 -0.05801796 -0.025508981 0.014981009 0.034670755 -0.042824168 0.059474356 -0.059405822
0.041126594 0.046116553 -0.0028891377 -0.0013091564 -0.006173808 0.049359903 0.01592718 0.048109055
-0.0071152598 0.036139622 0.04089684 0.042083904 -0.059332233 -0.03656698 0.0012224242 0.04447718
0.016739808 -0.016245183 -0.0032285005 0.01704026 0.045408413 0.056128137 0.006775178 0.022871606
00000000: 28bf 2c3c 045b 25bd 4a70 2abd 86f8 393d
00000010: e037 2d3b 94d3 15bd ec14 fe3c f4f8 82bc
00000020: a8cb 5cbd 8ef0 083d c8d6 e2bb 8326 52bd
00000030: f0d0 aa3b 0640 1d3d f216 1e3d 80ba a5bc
00000040: 90e1 8e3b 6ea4 5e3d 28db 383d 8097 0bbb
00000050: 026d 1c3d c4ff 9f3c 28ce 2a3d fce6 33bc
00000060: 1a11 083d 6a4a 18bd d0b7 ab3b 7855 d03c
00000070: 28d9 413d 4c0f 4bbd 8c39 6cbd 61b1 42bd
00000080: 087c 3b3c 5615 01bd f82d 843c ac47 66bd
00000090: 001c 5f3b 54d9 183d d806 c6bb 4073 8abc
000000a0: 0265 acbc f6bf 633d 3688 33bd 5eaa 643d
000000b0: 009e 0a3c 9465 98bc daea 083d 46d2 89bc
000000c0: 48e2 4b3d 102d 52bb 4334 3ebd 1af1 3c3d
000000d0: 6069 0cbc d90d 73bd d284 4f3d 7c0b 6b3d
000000e0: 7a61 7fbd 04f6 c6bc 70f0 24bd 3ec2 35bd
000000f0: 7caa 033d c0e7 cfbc 66e7 123d a8d7 e23c
00000100: b9bf 59bd 860e 793d fa7f 393d 48b1 8bbb
00000110: b098 0ebd ce0d 173d 0af8 5f3d 11bb 31bd
00000120: e025 4e3c 427c 1abd c660 24bd 90e1 643d
00000130: f521 4abd 6e35 1f3d ca2e 2dbd c6cc 14bd
00000140: 907a 74bb 6c4c 6c3d 08d5 3bbd 40c9 e53c
00000150: a00a cfbc d4aa b83c 609d 553b 420a bebc
00000160: 3a58 143d dc53 4cbd f036 c53c 8564 45bd
00000170: 2027 1ebd 3e7c 5dbd 4c4a 553d 5cff 783d
00000180: 14b9 23bc 047e cebc 4e60 1d3d 024e d1bc
00000190: 2832 8d3c 82ae 60bd be2d 173d c444 a13c
000001a0: 1845 653c 006b 603c a0d4 363b 0144 74bd
000001b0: 2cd4 e63c b8dd 27bd 0019 2fb9 c6fe 3dbd
000001c0: 4e97 48bd e625 433d deb1 0f3d 80cc 2dbd
000001d0: 64f5 0f3d ce9d 00bd 96d5 523d 58a9 183d
000001e0: 049b 45bd 38cc 123c aeee 2fbd 28b9 e53c
000001f0: 70dd a0bc 7c46 76bd 36d1 46bd 4058 063c
00000200: 3ea1 2ebd b0a3 ed3b 3a54 80bc 3c51 7b3d
00000210: d8ca 713c 2aef 6bbd 6afb e2bc b034 28bd
00000220: a0e5 773b b60b 033d 34a7 11bd 7481 0bbc
00000230: db92 57bd 6826 6fbd 1093 633c 68fe 3cbd
00000240: 3a9f a5bc 4410 ac3c 4e13 d6bc ac8b 8d3c
00000250: 3422 dd3c d077 053c 9074 5b3c 64b4 7a3d
00000260: 5e91 1cbd 15e2 5dbd e635 323d 0215 643d
00000270: 740c 8e3c 8ea3 053d 4c5c 1a3d 6976 60bd
00000280: 506e 963b e040 e6bc 1e2b 223d 2068 43bb
00000290: ca24 13bd 2c80 3e3d 5c64 60bc 7668 09bd
000002a0: 7490 70bc 58fc bbbc 985e 2c3c ba53 5f3d
000002b0: 363a 703d e2ff ddbc 10d6 ae3c 50d4 023c
000002c0: f8e4 b23c 32f6 debc 7011 6dbb c866 383c
000002d0: 0380 00bd 1202 2fbd 008f 5d3d 70ea dbbc
000002e0: 9417 673d 30c8 0f3d 0094 cfb8 ae1a 053d
000002f0: 18b2 833c f0be 1abb e08c a93c f255 583d
00000300: 5540 0fbd ae7b 35bd f6a2 043d c809 48bd
00000310: caa5 653d 2466 f13c a0d3 003c 6ca5 41bd
00000320: 6415 543d ece7 36bc da31 563d 00b7 053c
00000330: 604d 483b 3a98 383d aca7 083d f0cb 443d
00000340: 840d 423d 96ec 053d a4d2 a4bc c0d8 28bd
00000350: 8556 12bd 94fd b23c 1efe 243d 8682 763d
00000360: 20eb 70bd 09b3 0abd 22f4 123d f61d aebc
00000370: 0853 113c ac91 a63c 90e8 5dbb 10ca 253c
00000380: 1c1f 963c 3ea4 6dbd 36f8 d0bc e872 753c
00000390: ec02 0e3d 6568 2fbd 629b 733d 8553 73bd
000003a0: 5c74 283d b6e4 3c3d b057 3dbb 0098 abba
000003b0: a84d cabb 9c2d 4a3d b879 823c 000e 453d
000003c0: 2027 e9bb 2407 143d 7283 273d 2c60 2c3d
000003d0: 5b06 73bd 42c7 15bd c039 a03a b42d 363d
000003e0: ec21 893c 9e14 85bc 4095 53bb 0498 8b3c
000003f0: 2cfe 393d 9ee6 653d 5002 de3b 3c5d bb3c

network_body.processors.0.conv_layers.2.bias f4 [32]
-0.0040708594 0.011391871 -0.059995845 0.04288564 0.0074183196 0.0117311925 0.05689381 0.0032427087
-0.0039052516 -0.046203025 0.06003113 0.01624138 -0.048879627 -0.05510087 0.02701214 0.034680218
0.006726451 -0.054469645 0.061967395 0.034773037 0.039311588 -0.035096046 -0.060885448 -0.058065522
-0.058150236 -0.054812044 -0.022066914 -0.013574466 -0.006506834 -0.05240424 -0.057203524 -0.056527674
00000000: d864 85bb f8a4 3a3c 34be 75bd daa8 2f3d
00000010: 6015 f33b 3034 403c 7c09 693d a083 543b
00000020: 40ef 7fbb 623f 3dbd 34e3 753d a40c 853c
00000030: 0136 48bd 73b1 61bd 9048 dd3c d80c 0e3d
00000040: 9069 dc3b 901b 5fbd 86d1 7d3d 2c6e 0e3d
00000050: 3005 213d dfc0 0fbd 0563 79bd 1dd6 6dbd
00000060: f12e 6ebd 9882 60bd acc5 b4bc 7067 5ebc
00000070: 4837 d5bb d4a5 56bd 3e4e 6abd 9089 67bd

network_body.processors.0.dense.0.weight f4 [128, 32]
-0.15283202 0.06315997 0.079592936 -0.16527148 0.28731066 0.38412938 0.13998719 -0.23020464
-0.1708336 0.18346074 -0.05835642 -0.19203825 -0.046719708 0.028332038 0.056413885 0.0057435706
0.05149446 0.554933 0.11583175 -0.24368954 0.26479742 -0.09348156 0.048410907 0.10124197
-0.21289746 0.34551823 -0.09033995 0.019479318 -0.00858562 -0.09991699 0.10769659 -0.11216042
0.02838916 0.35816357 -0.24454808 -0.008326347 -0.31056926 0.3437301 -0.19174236 0.13451762
-0.11065532 0.39235306 0.20458895 0.28169864 0.2389116 0.18263376 0.24626604 0.019923404
0.29755437 0.32961276 -0.15398155 0.010729806 -0.46525156 0.018868275 0.13567236 0.1998377
0.261516 0.34318188 -0.10473967 -0.14421579 -0.37452295 0.019503405 0.059577383 -0.4663172
-0.22844692 0.17621827 -0.416699 0.026772326 -0.041711316 -0.1364781 -0.57904136 0.12819153
-0.022227928 0.13837628 0.2701746 -0.19261995 0.27987856 0.0737485 -0.056864522 0.19527721
-0.12781848 0.10385784 0.21417783 -0.38067025 -0.5685086 -0.25017312 -0.34651682 -0.06697362
-0.20361803 -0.249388 -0.060517713 0.093583636 -0.07125989 0.2432975 0.031540062 -0.30994925
-0.18660833 -0.05340333 -0.085561424 -0.14040455 0.22294383 0.20950265 -0.04994147 -0.0022631774
0.082995504 -0.15316688 0.32970428 -0.2630442 -0.32308832 -0.16917534 -0.8448007 -0.27640784
0.32872826 -0.26589802 -0.049894333 0.58049476 -0.263189 -0.4306161 0.075230494 -0.037166663
-0.14661661 -0.22163625 -0.6852965 -0.15469424 -0.26116976 -0.32421556 0.04357196 0.1038465
-0.2908896 -0.13656604 0.37950033 -0.3545758 -0.083964385 0.18869671 -0.0073629376 -0.27257174
0.3090634 -0.051761143 0.14614409 0.045190707 0.42163864 0.2673826 0.3801141 -0.25394192
0.057463124 0.19655438 -0.014233503 -0.46460295 -0.021015342 0.2938277 0.13274597 -0.29927257
-0.21005729 0.3405739 -0.024596557 -0.17304014 0.3725457 -0.14517261 0.19580199 -0.21817155
0.036958024 0.11675862 0.17457867 0.17789261 0.22134995 -0.33629203 0.30300415 -0.07449535
0.06437906 0.089241706 -0.17845367 0.12440988 0.009818051 -0.15410425 -0.07029748 0.3473823
-0.036028866 -0.2554129 -0.077745564 0.37800887 -0.24093889 0.21416043 -0.17640746 0.12104684
-0.025340041 -0.1803792 0.029358951 -0.2369073 -0.36138275 -0.4377169 0.215713 -0.21742362
0.1488343 -0.062469624 -0.20456249 0.20679896 -0.15794095 0.18358071 -0.05708485 -0.014903141
0.19430906 -0.13466448 0.050955765 0.1868125 -0.3059209 0.21292831 0.497872 -0.02387054
-0.10301634 -0.006994008 -0.088732384 -0.13903625 0.26853636 -0.06898937 -0.4277235 0.11059847
0.4887619 0.11459623 -0.68864024 0.09764454 0.10741156 0.005299567 0.37563187 -0.5878278
-0.01190154 0.2773637 0.01463862 -0.49032167 -0.22618881 -0.024561726 0.042309195 -0.15356499
-0.039418783 0.23472685 0.40007758 0.011108257 -0.11648304 0.021635085 0.01294484 0.21050908
0.1797599 -0.12620074 0.13630994 -0.34686682 -0.45908114 -0.045087956 -0.18398616 -0.2558119
-0.29476675 0.3399145 -0.12346614 -0.06905243 0.2494872 -0.1632298 0.03807921 -0.057520878
00000000: ff7f 1cbe 045a 813d 9f01 a33d ed3c 29be
00000010: 621a 933e 9bac c43e cd58 0f3e c4ba 6bbe
00000020: 01ef 2ebe 22dd 3b3e 2407 6fbd ada5 44be
00000030: 2a5d 3fbd 9718 e83c 3f12 673d 9034 bc3b
00000040: dbeb 523d 1710 0e3f 3239 ed3d c089 79be
00000050: 8793 873e 4373 bfbd 844a 463d f357 cf3d
00000060: cb01 5abe c4e7 b03e 2704 b9bd 1793 9f3c
00000070: b3aa 0cbc 47a1 ccbd 0890 dc3d 5db4 e5bd
00000080: 6290 e83c 3761 b73e d06a 7abe 3b6b 08bc
00000090: ef02 9fbe 64fd af3e 1c58 44be fdbe 093e
000000a0: 429f e2bd 80e2 c83e c47f 513e ce3a 903e
000000b0: 3ea5 743e 5804 3b3e 2a2d 7c3e 6836 a33c
000000c0: 0c59 983e 01c3 a83e 57ad 1dbe 11cc 2f3c
000000d0: 7435 eebe a491 9a3c b2ed 0a3e 41a2 4c3e
000000e0: 6de5 853e 89b5 af3e c181 d6bd 4ead 13be
000000f0: 79c1 bfbe 9bc5 9f3c 6a07 743d 21c1 eebe
00000100: fded 69be 9072 343e 9259 d5be a351 db3c
00000110: 7cd9 2abd eac0 0bbe 0e3c 14bf a444 033e
00000120: 5817 b6bc 83b2 0d3e 5354 8a3e 2a3e 45be
00000130: 3e4c 8f3e 7409 973d c6ea 68bd c0f6 473e
00000140: d9e2 02be 6bb3 d43d 6f51 5b3e 36e7 c2be
00000150: c889 11bf b116 80be a76a b1be 7729 89bd
00000160: 3f81 50be 915f 7fbe 6ce1 77bd c7a8 bf3d
00000170: b5f0 91bd fb22 793e 2730 013d abb1 9ebe
00000180: 4116 3fbe 73bd 5abd d43a afbd 36c6 0fbe
00000190: 634b 643e dd87 563e 6d8f 4cbd d151 14bb
000001a0: 8cf9 a93d c7d7 1cbe 00cf a83e bbad 86be
000001b0: d56b a5be 4d3c 2dbe dc44 58bf 5485 8dbe
000001c0: 124f a83e c923 88be 005e 4cbd 4e9b 143f
000001d0: b5c0 86be b779 dcbe 7212 9a3d 123c 18bd
000001e0: aa22 16be 9df4 62be 976f 2fbf 2b68 1ebe
000001f0: 0bb8 85be 95ff a5be 8378 323d 79ad d43d
00000200: 7bef 94be f8d7 0bbe de4d c23e f68a b5be
00000210: 85f5 abbd b639 413e cc44 f1bb 868e 8bbe
00000220: 8f3d 9e3e 7e03 54bd cca6 153e e419 393d
00000230: 05e1 d73e 5fe6 883e 519e c23e ad04 82be
00000240: 745e 6b3d 8d45 493e a333 69bc 70e0 edbe
00000250: 5e28 acbc 9670 963e 8fee 073e 413a 99be
00000260: 4219 57be b45f ae3e b87e c9bc 6f31 31be
00000270: 4fbe be3e 21a8 14be 5180 483e 5d68 5fbe
00000280: 4c61 173d 251f ef3d c0c4 323e 7b29 363e
00000290: 90a9 623e 782e acbe 5c23 9b3e 0591 98bd
000002a0: 2bd9 833d 5bc4 b63d 8fbc 36be 9bca fe3d
000002b0: e4db 203c 81cd 1dbe 20f8 8fbd 18dc b13e
000002c0: 0193 13bd 7bc5 82be 1139 9fbd 618a c13e
000002d0: afb8 76be df4c 5b3e 28a4 34be 68e7 f73d
000002e0: eb95 cfbc 53b5 38be 2f82 f03c d497 72be
000002f0: 2907 b9be 6e1c e0be dee3 5c3e 4ca4 5ebe
00000300: 0568 183e 26e0 7fbd d478 51be 1bc3 533e
00000310: 46bb 21be 95fc 3b3e ced1 69bd 4e2c 74bc
00000320: f4f8 463e 7ce5 09be feb6 503d c74b 3f3e
00000330: aaa1 9cbe e109 5a3e 14e9 fe3e 278c c3bc
00000340: 3bfa d2bd fe2d e5bb 53b9 b5bd 855f 0ebe
00000350: 997d 893e 4c4a 8dbd 93fe dabe 7381 e23d
00000360: 003f fa3e 6eb1 ea3d ba4a 30bf dcf9 c73d
00000370: 98fa db3d fda7 ad3b d252 c03e e27b 16bf
00000380: adfe 42bc 9d02 8e3e d3d6 6f3c 710b fbbe
00000390: 0a9e 67be ac35 c9bc 684c 2d3d 2440 1dbe
000003a0: 9775 21bd 3c5c 703e f8d6 cc3e 68ff 353c
000003b0: a98e eebd 103c b13c 9816 543c b18f 573e
000003c0: fb12 383e c43a 01be d594 0b3e 8798 b1be
000003d0: af0c ebbe 26ae 38bd de66 3cbe c7f9 82be
000003e0: abeb 96be 4609 ae3e d1db fcbd 5c6b 8dbd
000003f0: 9379 7f3e b625 27be f2f8 1b3d 039b 6bbd

network_body.processors.0.dense.0.bias f4 [128]
0.0 0.0 0.0 0.0 0.0 0.0 0.0 0.0
0.0 0.0 0.0 0.0 0.0 0.0 0.0 0.0
0.0 0.0 0.0 0.0 0.0 0.0 0.0 0.0
0.0 0.0 0.0 0.0 0.0 0.0 0.0 0.0
0.0 0.0 0.0 0.0 0.0 0.0 0.0 0.0
0.0 0.0 0.0 0.0 0.0 0.0 0.0 0.0
0.0 0.0 0.0 0.0 0.0 0.0 0.0 0.0
0.0 0.0 0.0 0.0 0.0 0.0 0.0 0.0
0.0 0.0 0.0 0.0 0.0 0.0 0.0 0.0
0.0 0.0 0.0 0.0 0.0 0.0 0.0 0.0
0.0 0.0 0.0 0.0 0.0 0.0 0.0 0.0
0.0 0.0 0.0 0.0 0.0 0.0 0.0 0.0
0.0 0.0 0.0 0.0 0.0 0.0 0.0 0.0
0.0 0.0 0.0 0.0 0.0 0.0 0.0 0.0
0.0 0.0 0.0 0.0 0.0 0.0 0.0 0.0
0.0 0.0 0.0 0.0 0.0 0.0 0.0 0.0
00000000: 0000 0000 0000 0000 0000 0000 0000 0000
00000010: 0000 0000 0000 0000 0000 0000 0000 0000
00000020: 0000 0000 0000 0000 0000 0000 0000 0000
00000030: 0000 0000 0000 0000 0000 0000 0000 0000
00000040: 0000 0000 0000 0000 0000 0000 0000 0000
00000050: 0000 0000 0000 0000 0000 0000 0000 0000
00000060: 0000 0000 0000 0000 0000 0000 0000 0000
00000070: 0000 0000 0000 0000 0000 0000 0000 0000
00000080: 0000 0000 0000 0000 0000 0000 0000 0000
00000090: 0000 0000 0000 0000 0000 0000 0000 0000
000000a0: 0000 0000 0000 0000 0000 0000 0000 0000
000000b0: 0000 0000 0000 0000 0000 0000 0000 0000
000000c0: 0000 0000 0000 0000 0000 0000 0000 0000
000000d0: 0000 0000 0000 0000 0000 0000 0000 0000
000000e0: 0000 0000 0000 0000 0000 0000 0000 0000
000000f0: 0000 0000 0000 0000 0000 0000 0000 0000
00000100: 0000 0000 0000 0000 0000 0000 0000 0000
00000110: 0000 0000 0000 0000 0000 0000 0000 0000
00000120: 0000 0000 0000 0000 0000 0000 0000 0000
00000130: 0000 0000 0000 0000 0000 0000 0000 0000
00000140: 0000 0000 0000 0000 0000 0000 0000 0000
00000150: 0000 0000 0000 0000 0000 0000 0000 0000
00000160: 0000 0000 0000 0000 0000 0000 0000 0000
00000170: 0000 0000 0000 0000 0000 0000 0000 0000
00000180: 0000 0000 0000 0000 0000 0000 0000 0000
00000190: 0000 0000 0000 0000 0000 0000 0000 0000
000001a0: 0000 0000 0000 0000 0000 0000 0000 0000
000001b0: 0000 0000 0000 0000 0000 0000 0000 0000
000001c0: 0000 0000 0000 0000 0000 0000 0000 0000
000001d0: 0000 0000 0000 0000 0000 0000 0000 0000
000001e0: 0000 0000 0000 0000 0000 0000 0000 0000
000001f0: 0000 0000 0000 0000 0000 0000 0000 0000
