results/ZaraRein/ZARAgoal/ZARAgoal-3466.onnx (onnx, 337508 bytes, 15 tensors)

discrete_act_size_vector f4 [1, 2]
00000000: 0000 0040 0000 4040
2.0 3.0

network_body.observation_encoder.processors.0.conv_layers.0.weight f4 [16, 4, 8, 8]
00000000: f01e a23c a807 f2bc 9598 20bd 02f1 2cbd
00000010: 1814 573d aad0 21bd 98f3 133c f077 ac3b
00000020: 22bf 85bc f0f7 ee3c 00ad 683d b2ee 7bbd
00000030: 8e2c 433d 8095 1f3b a066 f83b 3ce8 33bd
00000040: b4b0 d1bc b42f f33c be0b 343d f00c b43c
00000050: 1831 603d dac3 693d 701e ad3b a486 b43c
00000060: 108a afbc 74e8 7e3d 88cb 833c 9c6d 2dbd
00000070: 247a 763d 44e8 023d 30ae aa3c e46e 453d
00000080: 5826 2a3d def5 bcbc 2e94 423d 18bf 633c
00000090: f4a5 213d b8f7 ca3c 6569 1ebd b1f2 2dbd
000000a0: a886 0f3d 0249 573d a854 3c3c 98a4 673c
000000b0: ca05 f3bc 1ed3 503d 70d6 51bc 9d1c 56bd
000000c0: a401 3fbd 8036 293b 6492 38bc 60b0 67bb
000000d0: 366b 3ebd a257 17bd 5a1d 793d 401d 1b3d
000000e0: 608b 3c3b 3021 013c 14f2 e23c c853 e33c
000000f0: fcfe 6abd e470 793d a93f 7ebd c25c 093d
00000100: 7079 afbc 4208 4dbd 1c16 02bd 582b b1bb
00000110: 0e13 98bc 9a7f 183d 1417 3e3d 5a71 95bc
00000120: 6e4c 0cbd 8436 bc3c e721 2cbd 3806 45bc
00000130: 300b e63c c264 89bc 204a 3dbc ce8c 7f3d
00000140: f648 423d 4874 fabb 604a 4bbd e4b1 923c
00000150: a8a8 09bd a852 243d 58d6 40bc 9775 74bd
00000160: bd6c 66bd ea1a 303d 1691 3f3d 35b1 6cbd
00000170: a671 e0bc 8815 413c e86c 303c 406f 66ba
00000180: 4e59 21bd 1e9f 28bd 9cf8 c13c c079 1fbb
00000190: 1ac8 333d 78da eebb aa11 dabc f0b0 fbbc
000001a0: d87b a2bb f440 abbc 8703 30bd 3432 22bc
000001b0: c491 d73c dea0 3bbd 5ee7 753d 80e6 7c3d
000001c0: 8c45 b73c 6648 64bd 1dae 31bd 2cbc d23c
000001d0: f898 ddbc b86a 3dbd 3e77 1ebd 08de 983c
000001e0: 3853 613d 5c1c cb3c 92a9 533d 2ccc f43c
000001f0: 44f4 1cbd 5e86 793d 520f c3bc 7c86 0c3d
00000200: 1835 4b3d ecc7 153d 5025 b23c 2cb1 693d
00000210: 22f8 6ebd 804a d9bc 12fc 403d 62cb 84bc
00000220: c8e5 923c 9061 663c f904 77bd 62e3 4d3d
00000230: 7c38 c0bc fc8f 6e3d c884 afbb 92b0 513d
00000240: 70d3 c03b 4819 b03c 50be 54bd d94c 59bd
00000250: a43d 673d 6495 39bc 10f3 f83b 6ad4 1d3d
00000260: 7680 28bd 824b bdbc 003b e2ba 584f 8f3c
00000270: 44a1 c23c 52bd abbc 02ed debc b663 7a3d
00000280: 0c13 48bc 382d 833c 2fd2 2ebd 209c 3cbc
00000290: c838 943c 5077 893b 604a 09bd 4861 2b3d
000002a0: f0ce 743c b011 823b cc97 63bc e0cc 3a3b
000002b0: 9cd0 4c3d a06b b3ba c0ce 6fbd 809e 423c
000002c0: 7c99 86bc 646e efbc de4d 5c3d 487a 333c
000002d0: 4027 9ebb a81d 42bc 2ba4 43bd 00fc 333d
000002e0: 1010 60bc d880 b6bb e05e db3c 5211 5b3d
000002f0: f040 38bd 3030 383d 7e0b 773d 2236 afbc
00000300: 84cd df3c c0ae 6ebc d44b 4a3d c4db 0c3d
00000310: 4e4e 093d 78c9 78bc bc40 f23c 4014 cc3a
00000320: 2ce4 3fbd 54ed 1cbd 48a0 0dbd bcad 2f3d
00000330: 30d9 053d a682 2b3d 00e6 d139 06f7 6d3d
00000340: b2a8 613d ba54 98bc f07f 55bd 82c9 99bc
00000350: c6d9 12bd 4024 40bc 10a8 5fbb a078 4fbb
00000360: 50ee 453d cc81 ba3c dcbe aa3c d241 6f3d
00000370: acb5 033d 225f 503d 5025 f3bc 861f 6f3d
00000380: a0ff 173b 582b d2bc 8093 f13b 71c9 3abd
00000390: b607 433d 3ed3 4cbd 4029 313b d0c9 32bd
000003a0: 557e 26bd 1399 19bd d089 b73c ba13 573d
000003b0: c0a0 66bc e61f 9bbc 1a73 053d dcb5 943c
000003c0: 0c05 ff3c 28b8 01bd 9ce3 d33c 9296 8dbc
000003d0: d638 2e3d f0d0 cdbb ba58 e6bc aced 4e3d
000003e0: e650 3fbd 10f9 a23c d8f6 42bc 94d8 233d
000003f0: 2605 2abd f01b 073d c03f 3cba 3434 17bd
0.019790143 -0.029544666 -0.039208014 -0.04222203 0.052509397 -0.03950564 0.009030245 0.005263321
-0.01632649 0.02917096 0.05680561 -0.061506934 0.047649913 0.0024350584 0.007580593 -0.043922648
-0.025596954 0.029685833 0.04395651 0.021978825 0.05473432 0.057071544 0.0052831694 0.022036858
-0.021428138 0.062233403 0.016088262 -0.04234086 0.060175076 0.031959787 0.020835012 0.048201457
0.041540474 -0.023066457 0.047504596 0.013900541 0.039464906 0.024776325 -0.03867473 -0.042467777
0.035040528 0.05255986 0.011494793 0.014138363 -0.029665846 0.050982587 -0.012807474 -0.05227338
-0.046632424 0.0025819838 -0.011265371 -0.003535293 -0.046488963 -0.036948808 0.060819007 0.03786969
0.0028769597 0.007881448 0.027703322 0.027749911 -0.05737208 0.060898677 -0.06207243 0.033535726
-0.02142021 -0.050056703 -0.031759366 -0.0054067783 -0.018563773 0.037231065 0.046408728 -0.018242527
-0.034252577 0.022975214 -0.04202452 -0.012025408 0.028081506 -0.016771678 -0.011553317 0.06239014
0.047432862 -0.0076432563 -0.049631476 0.01790709 -0.03360811 0.04011789 -0.0117698535 -0.059682455
-0.056256045 0.042994417 0.046769224 -0.057786185 -0.027397942 0.011784919 0.010768153 -0.0008790381
-0.03939181 -0.04116737 0.023678117 -0.0024334043 0.043892004 -0.007289227 -0.026619751 -0.030724019
-0.004958611 -0.020904996 -0.042972114 -0.009899665 0.026314624 -0.04580771 0.060035102 0.06174326
0.02237203 -0.055733107 -0.043378938 0.025724493 -0.02705048 -0.046244353 -0.038687937 0.01866056
0.055011004 0.024793796 0.051675387 0.029882513 -0.038318887 0.06091916 -0.023811016 0.03430794
0.04961118 0.036567613 0.021746308 0.05705373 -0.058342107 -0.026524782 0.047115393 -0.016210262
0.017931834 0.014061347 -0.060307477 0.050265677 -0.023464434 0.058242783 -0.005356405 0.05119378
0.0058845803 0.02149643 -0.05193931 -0.053051803 0.05645527 -0.011327121 0.0075973347 0.038532652
-0.041138135 -0.023107294 -0.0017260015 0.017493889 0.023758538 -0.020964298 -0.027212624 0.061130248
-0.012211572 0.016012773 -0.042680915 -0.0115118325 0.018093482 0.0041951314 -0.033518195 0.04184082
0.014941916 0.0039693937 -0.013891172 0.0028503463 0.050003633 -0.0013688691 -0.05854678 0.01187861
-0.016430609 -0.029227443 0.053785197 0.010954447 -0.0048264563 -0.011847891 -0.047763985 0.043941498
-0.013675705 -0.0055695586 0.026778638 0.053483315 -0.044983804 0.04496783 0.060313694 -0.021388117
0.027319677 -0.014568031 0.04938872 0.034389272 0.033521943 -0.015184753 0.029571883 0.001557
-0.04684846 -0.03831227 -0.034576684 0.042890295 0.03267783 0.041872643 0.0004003495 0.058096908
0.05509252 -0.018595088 -0.052123964 -0.018772844 -0.035852216 -0.011727393 -0.0034127273 -0.0031657591
0.048322976 0.02276697 0.020842962 0.05841238 0.032155678 0.050871976 -0.029680878 0.058379672
0.0023193136 -0.025655434 0.0073723197 -0.045602266 0.047614776 -0.050006144 0.0027032644 -0.043649495
-0.040647823 -0.0374995 0.022404581 0.052509047 -0.014076412 -0.018936109 0.032580473 0.018153124
0.031130336 -0.031669766 0.025865369 -0.017283712 0.04253467 -0.006281011 -0.02811848 0.05051963
-0.04670801 0.019894153 -0.011899672 0.040001467 -0.041508816 0.032985628 -0.00071811303 -0.03691502

network_body.observation_encoder.processors.0.conv_layers.0.bias f4 [16]
00000000: 5861 bdbb a894 4f3c 349f 613d 5a71 bcbc
00000010: d4b0 9d3c a42d 5f3d f846 d03c 0075 0bbd
00000020: 626c 483d f868 8abc 6616 61bd 28b3 acbb
00000030: 689e 91bc 58ae bb3c 6294 3b3d 780e 3c3d
-0.0057794265 0.01266972 0.05508347 -0.023003269 0.019249357 0.054486886 0.025424466 -0.034047127
0.048931487 -0.016895756 -0.054953 -0.0052703805 -0.01777573 0.022910282 0.045795806 0.045912236

network_body.observation_encoder.processors.0.conv_layers.2.weight f4 [32, 16, 4, 4]
00000000: 540b 183d c671 63bd c0e9 493c fa74 133d
00000010: c67d 3b3d 384a 53bc 50b1 32bc 1a7a 353d
00000020: c06b 20bb 627f 5ebd c46f cf3c 18f2 2bbd
00000030: 7cc3 1cbd 7838 82bb bc97 58bd 6cdd 693d
00000040: 7013 42bd b475 3cbd b841 1dbd 8af4 c3bc
00000050: 1cca 363d 22e5 7d3d a4ed ae3c 881a 7e3c
00000060: 1c52 44bc 6e8f 40bd 00f0 66b7 f496 0bbd
00000070: 0aa0 5ebd e831 18bc 089a 453c 8026 b23c
00000080: e00d a0bb 0c13 52bd 155c 1abd e8a7 513c
00000090: 5abc 033d 6897 46bd 7787 06bd 700e a23b
000000a0: e488 263d 4f22 5dbd dc83 83bc 507b e83c
000000b0: a22a 50bd 4c5f bc3c e879 08bd 949c 4e3d
000000c0: 1a67 f8bc 0e46 0c3d 0856 d73c 8827 bfbb
000000d0: 84b2 8c3c 4cbc 43bd 9023 883b 14f9 633d
000000e0: 3aeb 763d 3cae 373d 3299 6f3d a107 63bd
000000f0: e014 74bc 78cf c6bc 001f d53b b8fe 59bd
00000100: b404 a93c 540a 1bbd a054 333d 45f9 6abd
00000110: bc6d d4bc f409 15bc 3677 6d3d 8abf 53bd
00000120: 04da dfbc cc8c 073d d04e 2bbb 928e 643d
00000130: dc7a e53c f2ae 92bc 9620 16bd 6066 763d
00000140: f006 69bd 0c28 66bc 5a94 323d c293 5ebd
00000150: 65bf 08bd ac9f 33bc 5286 263d 728a a9bc
00000160: d887 5a3d a647 2fbd 3496 d23c d480 583d
00000170: f044 56bd b807 363d 2de2 63bd c4e5 31bc
00000180: 3b7f 4ebd c862 3fbc fa32 7c3d b8f0 1dbd
00000190: e004 ec3c ee60 70bd 107e ebbc 703d 6e3d
000001a0: e0f5 203d aecf cdbc aa84 a8bc 7016 b6bc
000001b0: af77 57bd 9e65 163d 8464 33bd f8d6 5e3d
000001c0: 44a8 933c da39 31bd 10b6 54bd 94ef 433d
000001d0: de51 6f3d ec6a 55bc 68fc a63c e823 413d
000001e0: dc72 4abd 76ce 4cbd 4df5 48bd dcd0 0e3d
000001f0: b03d 8b3c 6278 1b3d fcde f0bc 32d1 1a3d
00000200: 8cf6 b53c a6ec 2ebd 94bc 5cbd 5305 58bd
00000210: aac0 7a3d c4be 2dbd d0cc 4cbb 0089 bb3a
00000220: d07c a03b a427 6cbd e2b6 743d d0aa d13b
00000230: 6c88 77bc 5e16 66bd e0de 07bd c80a 633d
00000240: 0799 7bbd 5c4e 19bd ba08 2a3d 1cd6 b73c
00000250: 001a 27ba 62a4 7b3d bc0b 043d a071 f53c
00000260: 22b8 3d3d 8474 b93c 80f3 143b cb41 3fbd
00000270: a0b3 72bc 0810 da3c 5b02 66bd fc38 643d
00000280: 58e9 5bbc 3036 193c 114a 67bd f409 a73c
00000290: 4061 e43a 0e8b a0bc cc20 bb3c 0292 1a3d
000002a0: 34d4 0bbc b8c5 f4bb 3030 ee3b 9875 6d3c
000002b0: 44e2 1c3d 84dd 3dbc b09a 393d 563f 623d
000002c0: 808e 503c 8064 1d3a bab2 383d 40bc fcba
000002d0: d412 983c 6824 c93c acd5 693d b8df f03c
000002e0: 014d 10bd 00ac 9a3b 744e 4fbd 02d3 32bd
000002f0: 902e 70bd ca2b 1e3d e895 163c 966d 34bd
00000300: 284f 1ebc e229 22bd 508a 10bd 2972 4dbd
00000310: e879 4ebc 7437 fc3c 8609 183d c0cd b53b
00000320: 0029 b53b aa6a 1b3d b0bd 13bd 9864 d53c
00000330: 685a adbb ec18 f03c 3e1d 723d 00c6 e8b8
00000340: dade 8dbc 983d 30bc 36e7 e2bc 663e 223d
00000350: a861 f1bc 703c 683c 10cb 883c f446 76bd
00000360: 78dc 90bb 48bb 043c 4071 773b 30e7 60bb
00000370: 4053 5eba 0012 963c ea8b 613d 14e3 c93c
00000380: ceab 103d fa48 08bd 705a 33bb 4219 6c3d
00000390: 0030 463d 6a9f 1dbd 7207 c6bc 0edd 6dbd
000003a0: 4b35 7abd 144e 4abd 6a7b 05bd 8ceb b73c
000003b0: 58b9 fa3c 1036 4cbc 8c14 743d 1a7f 183d
000003c0: 3068 e13c b891 763c 007b 7c3b 6ecd 043d
000003d0: 4c43 66bc 2454 48bc 108b 5e3d 4ff3 5abd
000003e0: 70af 6a3d 2887 803c e8f5 6d3c 1ac7 1a3d
000003f0: c0ce b43a c01e 33bd dee4 2d3d 8071 1bba
0.03712018 -0.055528425 0.012323797 0.03600023 0.045774244 -0.012896113 -0.010906532 0.0443059
-0.0024478287 -0.0543207 0.025321849 -0.041978925 -0.038272366 -0.0039740168 -0.05287908 0.05709593
-0.04738182 -0.046010688 -0.038392752 -0.023920316 0.04462634 0.061986096 0.02135355 0.015509255
-0.011982467 -0.047011785 -1.3764948e-05 -0.034079507 -0.054351844 -0.009289242 0.01206065 0.021746874
-0.0048844665 -0.051287696 -0.037685473 0.01279638 0.032162048 -0.048484236 -0.032844033 0.0049455687
0.040657893 -0.053987797 -0.016054086 0.028379112 -0.050821908 0.02299466 -0.033319384 0.050442293
-0.0303226 0.034246497 0.02628614 -0.00583357 0.017174967 -0.047786996 0.00415463 0.05565746
0.060282923 0.044843897 0.058495708 -0.055427197 -0.014897555 -0.02426885 0.0065039396 -0.053221434
0.020632125 -0.037851647 0.043781877 -0.05736663 -0.025931232 -0.009096611 0.057975017 -0.051696338
-0.027325638 0.03309326 -0.0026139505 0.05580003 0.028012685 -0.017905686 -0.03665217 0.060156226
-0.05689138 -0.014047634 0.04359851 -0.05434013 -0.033385653 -0.010963362 0.04065544 -0.020695899
0.053352207 -0.04279294 0.025706388 0.052857235 -0.052311838 0.044440955 -0.05563562 -0.010858003
-0.050414305 -0.011681266 0.061572053 -0.038559645 0.028810918 -0.05868619 -0.028746635 0.05816406
0.039296985 -0.025123443 -0.020571072 -0.022227496 -0.052604374 0.036718003 -0.04379703 0.05440423
0.018024571 -0.043268062 -0.05193144 0.0478359 0.058427684 -0.01302598 0.020384029 0.047153383
-0.049425945 -0.050001584 -0.049062062 0.034867153 0.016997188 0.037956603 -0.029403202 0.03779716
0.02221229 -0.042706154 -0.05389078 -0.052739453 0.061218895 -0.042418256 -0.0031250007 0.0014307797
0.0048976913 -0.05765499 0.059744723 0.0063985363 -0.015108209 -0.056173675 -0.033171535 0.055430204
-0.061425235 -0.037428245 0.04151223 0.022440962 -0.0006374419 0.061436065 0.032237753 0.029961407
0.04631818 0.022638567 0.0022728145 -0.046693604 -0.014813334 0.026618972 -0.05615459 0.055718407
-0.013422333 0.009351298 -0.05646712 0.020390488 0.0017424002 -0.019597556 0.022842787 0.0377369
-0.00853448 -0.007469859 0.007268928 0.014493369 0.03830172 -0.011588458 0.045313537 0.055236183
0.012729287 0.00060040504 0.045092322 -0.0019282177 0.018563665 0.024553493 0.05708854 0.029403552
-0.035229687 0.004720211 -0.050611928 -0.043658264 -0.058638155 0.03861598 0.009191014 -0.04404982
-0.009662427 -0.039590724 -0.035288155 -0.0501577 -0.012602307 0.03078816 0.037118457 0.005548209
0.005528569 0.03794352 -0.036069572 0.026048943 -0.0052903183 0.029308759 0.05910992 -0.000110995024
-0.017318178 -0.010756873 -0.02769814 0.03961029 -0.029465511 0.014174566 0.01669839 -0.06012626
-0.004420813 0.008101292 0.0037756711 -0.0034317486 -0.0008481033 0.01831913 0.055065073 0.024644412
0.035320096 -0.03327272 -0.0027367137 0.057641275 0.04838562 -0.038482107 -0.024173472 -0.058072142
-0.06108598 -0.049390867 -0.0325884 0.022451185 0.030605957 -0.012464061 0.059589908 0.03723059
0.0275155 0.0150493905 0.0038525462 0.032422476 -0.014054131 -0.012227092 0.05433184 -0.053454693
0.057296216 0.015689448 0.014523961 0.037787534 0.0013794526 -0.043730497 0.042454593 -0.00059296936

network_body.observation_encoder.processors.0.conv_layers.2.bias f4 [32]
00000000: 60f8 513d c839 23bc 0085 953a 7445 453d
00000010: 16be 423d dcfe 4bbd 446f 793d 8081 f03a
00000020: 4563 5fbd 3f31 5dbd 420f 703d f809 8a3c
00000030: 8559 32bd 3886 2c3d b5f1 00bd 0073 d1bb
00000040: a2ff 79bd 008c 49b9 bc30 813c c824 2f3c
00000050: 70fa d9bc 8456 e43c b03c 44bb d610 0fbd
00000060: 4c9c b63c 5294 72bd 40b9 143d a86b 17bc
00000070: 487e 483c c781 77bd 3852 f5bc 302c d73c
0.05126226 -0.009962507 0.0011407435 0.04816194 0.04754456 -0.0498036 0.060897127 0.0018349141
-0.05453803 -0.054002043 0.0586083 0.016850457 -0.043542404 0.04212019 -0.03148051 -0.006391883
-0.061034806 -0.00019221008 0.015770309 0.010689922 -0.026608676 0.027873285 -0.00299434 -0.034928165
0.022291325 -0.05922348 0.03630948 -0.009241976 0.012237139 -0.0604265 -0.029946432 0.026266187

network_body.observation_encoder.processors.0.dense.0.weight f4 [128, 32]
00000000: 4385 cb3e 0b13 043c 69c1 4e3e 9400 c1b9
00000010: 7cef 18bf 55aa acbd 4cd9 0c3e aebd 183e
00000020: 8a88 bbbe 0845 0ebe 4f3f 8bbc a12a f13c
00000030: 5938 103e 3a36 8e3d d2c4 10bf 632d 483e
00000040: c8c7 56bb 9eb4 34be 18f6 03bf a7eb 4abd
00000050: b867 05bf c852 b9be 3071 b63e 0ea9 cbbd
00000060: c2b6 d8bc 9b92 003f 2fa7 933e c144 38be
00000070: b200 9fbe 3468 ed3b 5bdc 14be f2b9 c3be
00000080: 75f1 ddbd ae6f 8e3d c2f1 f63e d6bc 543e
00000090: 30f8 fbbd f5be 263e 1bbc 853e 5380 d83e
000000a0: bcec 8fbc dcd4 a6be 024d 033d a7c7 39be
000000b0: 047f aa3d 2675 b53c 52d8 ef3e e167 87be
000000c0: 0cac 63be a969 24be 749c 9f3e 6d64 9fbe
000000d0: e0aa 9d3c 6920 363e 822c bb3e a8ff 0dbe
000000e0: 379e b33c 5658 74bd 686f b33e 9de0 ec3d
000000f0: f8f6 e2be e097 f53d 1ca8 b23e c192 8d3e
00000100: 53b3 0abf fab5 b9be e718 c5bd c077 6abe
00000110: 74ba 7d3c 08fd 393e 843b dcbd 5cfa 8c3c
00000120: e08e 5dbe bfbb bcbc 0661 a0be 9ee4 6c3e
00000130: 33bf f9bc 5b40 1b3f 831d b63e 870a 22be
00000140: 5f8f 8bbd c122 09bd 379e d5bd 83cd b63e
00000150: 7ec2 13bf 1e6e 773d a208 dabe ee51 a03b
00000160: 3b04 ef3d cb7c 6a3e dda0 c33c 7c54 8bbe
00000170: 0159 15bf 00f7 7bbc 5984 c03e 061d 133e
00000180: 9592 e6bb 8770 66bd f898 db3e f05d 3fbe
00000190: acdc d4be a382 963d 211f c43d bc67 23bd
000001a0: 7747 233e c546 bbbe b6c2 9f3d 87b0 a2be
000001b0: fbe6 0abe 4137 3fbe 2908 51bc acc4 ddbe
000001c0: 03f9 95be 8462 473e e7bc 0dbe 1410 ac3e
000001d0: 1192 e33d 0899 203e d370 ca3c c74c 42be
000001e0: d0a5 91be 93b4 bf3e cef9 893e 6bd0 2bbe
000001f0: 4d3c 013e 2a77 713e 4c92 173d f416 9bbd
00000200: a7e4 c63e e252 78bc fa99 8fbd 0301 6e3e
00000210: 9f1d a13d a8a7 17bd 7ff7 a93e 1c94 73be
00000220: 8cf5 cfbd cbb6 41be f83f 1cbe e780 b1be
00000230: c4fe 213e 5b3e 9b3e 7072 3dbc 32a0 9b3e
00000240: 2b96 ec3e f0d1 88bc e0fc 9abe 21ff a33d
00000250: 7c3c 1abe e34f a43e 9b26 893a 9bbd 273e
00000260: 02d3 593d 476b 21be ccf7 8dbd 9c66 8c3d
00000270: d3f8 173e 55bc 77be 036d 9e3e 982f 23bf
00000280: 60d2 bebe c47e b3be 7ae7 933e 8bde d7ba
00000290: 1868 f93d 357a 05be 50d3 c0be 6195 4fbe
000002a0: ab0a 9c3e 9c62 153e 14d6 b1be cccd 5e3d
000002b0: 892d c5bd 1148 713d 8e64 84be 2aa3 31bc
000002c0: 5a44 22bd 1fbc bd3d b6ca 6d3e ef0d ebbd
000002d0: d91b 1cbe 91b3 323e db68 ce3d 0434 0abd
000002e0: 5ccf a13d 7f04 04be 8f07 0cbd 4871 5c3d
000002f0: 8af6 8e3e 7849 d13d ae42 d4bd 6661 893b
00000300: c6ac 07bf bcd2 153e 6813 bcbe e799 f8bd
00000310: cbb6 c73e 7fb1 88be 5320 4e3c 0e77 163c
00000320: 1669 583e 7b3e fd3d 131e aa3d 3cc3 e23e
00000330: 1303 1e3e 713e 493e a171 5abe e3c8 15be
00000340: 31b0 86be b06f 5d3e 2b61 28be bc23 64bd
00000350: 3680 933e 98ea 7b3e 269b b3bd fc1f d7be
00000360: fe3d 26be cc36 54be 0729 dfbe dc3a 613e
00000370: bc8c 6cbe 037b 93bd 8565 56bd 4165 b73d
00000380: 2b04 703e 310d cf3e a2b0 7e3e 0c0a 60bc
00000390: df34 893d 5274 523e 13fb 51be 36ac 7f3e
000003a0: f588 80be 44ef b4be 3ea1 483e 6b14 073e
000003b0: da34 13be e3bc d1bd c3a1 4ebd 98df 81be
000003c0: b177 0cbf 3668 33bd 54a8 8ebc 6530 053e
000003d0: 4456 e4be ba23 8cbe 8247 4f3d 5c94 62be
000003e0: d363 d6bb 4021 983e 6cac 853e 7054 b13e
000003f0: 2a44 a5bd 3eca 1e3f 54a0 a7bd c8ca 8a3d
0.39750108 0.008061181 0.20190968 -0.0003681226 -0.59740424 -0.08430926 0.13754767 0.14916107
-0.3662761 -0.13893521 -0.016997961 0.029439272 0.14083995 0.06943937 -0.56550324 0.19548564
-0.0032772887 -0.17647025 -0.51547384 -0.04954114 -0.5211139 -0.3619597 0.3563323 -0.09944354
-0.026454333 0.502237 0.28838488 -0.17994978 -0.31055218 0.007245088 -0.14537184 -0.38227803
-0.1083707 0.06954895 0.48231322 0.2077516 -0.123031974 0.16283782 0.26120076 0.42285404
-0.017568938 -0.32584274 0.032055862 -0.18142568 0.083250076 0.022150587 0.46844727 -0.2644644
-0.222336 -0.16055931 0.31174052 -0.31131306 0.019246519 0.17785801 0.36557394 -0.13867056
0.021926029 -0.059654556 0.35045934 0.11566279 -0.44329047 0.119918585 0.34893882 0.27651027
-0.5417988 -0.3627165 -0.0962389 -0.22897243 0.015486348 0.1816293 -0.10753539 0.017209224
-0.21636534 -0.023038743 -0.31324023 0.23134086 -0.030486679 0.60645074 0.3556939 -0.15824328
-0.06814455 -0.03348041 -0.10430568 0.35703668 -0.57718647 0.06040775 -0.4258471 0.0048925793
0.11670729 0.22899167 0.023880417 -0.27212894 -0.58338934 -0.015378714 0.37600973 0.1436654
-0.007036517 -0.05625966 0.42890143 -0.18688178 -0.4157461 0.07349136 0.0957625 -0.03989385
0.1594523 -0.3657743 0.0780081 -0.31775305 -0.13564675 -0.18673421 -0.012758293 -0.4331411
-0.29291543 0.19471174 -0.13841592 0.33606017 0.11111844 0.15683377 0.024712002 -0.189746
-0.28446817 0.37442455 0.26948398 -0.16778724 0.12620659 0.23580614 0.037004754 -0.07572737
0.38846323 -0.01515648 -0.070117906 0.23242573 0.07866978 -0.037025124 0.33196637 -0.23786968
-0.10154256 -0.18917386 -0.15258777 -0.34668657 0.15819842 0.3032101 -0.011562929 0.30395657
0.4620832 -0.016701669 -0.30271053 0.08007646 -0.15062135 0.320922 0.0010463776 0.16380922
0.05317975 -0.1576358 -0.06932029 0.06855509 0.14841013 -0.24192937 0.30942544 -0.637445
-0.37269878 -0.35057652 0.2888754 -0.0016469521 0.121780574 -0.130349 -0.3766122 -0.20271827
0.3047689 0.14588398 -0.3473364 0.054395482 -0.09627826 0.05890662 -0.25857967 -0.010842124
-0.039615966 0.09264397 0.2322186 -0.11477267 -0.15244998 0.17451312 0.10078593 -0.033741012
0.07900879 -0.1289234 -0.034186896 0.05381897 0.2792247 0.10219091 -0.10364281 0.004192519
-0.52998006 0.1463117 -0.36733556 -0.121387295 0.39006647 -0.2669792 0.012580949 0.009183658
0.21133837 0.12365433 0.083065175 0.44289577 0.1543086 0.19652726 -0.21332408 -0.14627413
-0.26306298 0.21624637 -0.16443317 -0.05569814 0.28808755 0.24601209 -0.087698266 -0.4201659
-0.16234586 -0.20724028 -0.4358599 0.2199511 -0.23100561 -0.07201197 -0.05234291 0.089548595
0.2343909 0.40439752 0.24872068 -0.01367427 0.066995375 0.20552185 -0.20505933 0.24968037
-0.2510449 -0.35338795 0.19592759 0.13191383 -0.1437563 -0.102411054 -0.050447237 -0.253659
-0.54870135 -0.043800555 -0.01741425 0.13006742 -0.44597065 -0.27371007 0.050605305 -0.22126907
-0.0065426617 0.29712868 0.2610811 0.34634733 -0.08069642 0.6202735 -0.08184877 0.06776959

network_body.observation_encoder.processors.0.dense.0.bias f4 [128]
00000000: 0000 0000 0000 0000 0000 0000 0000 0000
00000010: 0000 0000 0000 0000 0000 0000 0000 0000
00000020: 0000 0000 0000 0000 0000 0000 0000 0000
00000030: 0000 0000 0000 0000 0000 0000 0000 0000
00000040: 0000 0000 0000 0000 0000 0000 0000 0000
00000050: 0000 0000 0000 0000 0000 0000 0000 0000
00000060: 0000 0000 0000 0000 0000 0000 0000 0000
00000070: 0000 0000 0000 0000 0000 0000 0000 0000
00000080: 0000 0000 0000 0000 0000 0000 0000 0000
00000090: 0000 0000 0000 0000 0000 0000 0000 0000
000000a0: 0000 0000 0000 0000 0000 0000 0000 0000
000000b0: 0000 0000 0000 0000 0000 0000 0000 0000
000000c0: 0000 0000 0000 0000 0000 0000 0000 0000
000000d0: 0000 0000 0000 0000 0000 0000 0000 0000
000000e0: 0000 0000 0000 0000 0000 0000 0000 0000
000000f0: 0000 0000 0000 0000 0000 0000 0000 0000
00000100: 0000 0000 0000 0000 0000 0000 0000 0000
00000110: 0000 0000 0000 0000 0000 0000 0000 0000
00000120: 0000 0000 0000 0000 0000 0000 0000 0000
00000130: 0000 0000 0000 0000 0000 0000 0000 0000
00000140: 0000 0000 0000 0000 0000 0000 0000 0000
00000150: 0000 0000 0000 0000 0000 0000 0000 0000
00000160: 0000 0000 0000 0000 0000 0000 0000 0000
00000170: 0000 0000 0000 0000 0000 0000 0000 0000
00000180: 0000 0000 0000 0000 0000 0000 0000 0000
00000190: 0000 0000 0000 0000 0000 0000 0000 0000
000001a0: 0000 0000 0000 0000 0000 0000 0000 0000
000001b0: 0000 0000 0000 0000 0000 0000 0000 0000
000001c0: 0000 0000 0000 0000 0000 0000 0000 0000
000001d0: 0000 0000 0000 0000 0000 0000 0000 0000
000001e0: 0000 0000 0000 0000 0000 0000 0000 0000
000001f0: 0000 0000 0000 0000 0000 0000 0000 0000
0.0 0.0 0.0 0.0 0.0 0.0 0.0 0.0
0.0 0.0 0.0 0.0 0.0 0.0 0.0 0.0
0.0 0.0 0.0 0.0 0.0 0.0 0.0 0.0
0.0 0.0 0.0 0.0 0.0 0.0 0.0 0.0
0.0 0.0 0.0 0.0 0.0 0.0 0.0 0.0
0.0 0.0 0.0 0.0 0.0 0.0 0.0 0.0
0.0 0.0 0.0 0.0 0.0 0.0 0.0 0.0
0.0 0.0 0.0 0.0 0.0 0.0 0.0 0.0
0.0 0.0 0.0 0.0 0.0 0.0 0.0 0.0
0.0 0.0 0.0 0.0 0.0 0.0 0.0 0.0
0.0 0.0 0.0 0.0 0.0 0.0 0.0 0.0
0.0 0.0 0.0 0.0 0.0 0.0 0.0 0.0
0.0 0.0 0.0 0.0 0.0 0.0 0.0 0.0
0.0 0.0 0.0 0.0 0.0 0.0 0.0 0.0
0.0 0.0 0.0 0.0 0.0 0.0 0.0 0.0
0.0 0.0 0.0 0.0 0.0 0.0 0.0 0.0

network_body._body_endoder.seq_layers.0.weight f4 [128, 386]
00000000: 72fb 033d 96c5 963d f660 f2bc 2b10 4dbc
00000010: 7968 e63c e639 18bd 7d05 133e f013 0a3d
00000020: 51aa 89bd 77ec 89bd 5b69 be3c fa02 c13c
00000030: 4153 af3d 26bf d1bc eb89 983c b957 1f3d
00000040: ab99 36bc 289b e83b 8683 dbbb 6136 a7bc
00000050: 28c5 20bd 1878 8a3d 1992 2cbd 8131 18bd
00000060: 0537 d33c e6a9 a83d 7ee9 97bb ad3a 903b
00000070: 739b ed3c 33ba 16bd c80d 8f3d 457f a7bc
00000080: 4bf6 c6bd 3d0d 0fbe 5dd4 da3d 4a0b a4bc
00000090: f939 1e3d 74d0 b2bd 1e71 9e3d eed8 023c
000000a0: ea68 d9bd 989e 94bd f5e6 cb3c 8c41 803c
000000b0: e6f0 d9bd 034e e73c 3e92 5cbc fe23 af3d
000000c0: 4098 5fbd ac9a e0bc d175 81bb 2330 cd3d
000000d0: d9ec 60bd b393 b7bd 1466 e43c 6c03 67bd
000000e0: f0ef 713d 35a3 f33d 3579 f43d 6997 d8bd
000000f0: 8c1f 3d3b 37b8 89bc 9ff6 d13c af5f 423d
00000100: 14ce b2bc 1b74 95bc 24cd 523d bc45 093d
00000110: 04e8 8cbc 4f53 503d bff1 24bd 2000 2cbd
00000120: 651b f7bc 0c96 87bd 2f30 7f3d 992f 043d
00000130: 2911 b73d ad94 3d3c 4b28 443d 879a 3dbd
00000140: f305 94bd 35dd 233d a8ca 7c3d 7824 5abd
00000150: 0585 c93c 3e55 913c 8e91 403c 0a2a 2fbd
00000160: 8aed bebc c498 24bd e0e2 a33c 3dad a63d
00000170: 3647 0fbd ab70 e3bc 686f 553d 12c8 c43c
00000180: 7f33 65bd 0c4e 68bc 96ca 8438 d666 f73c
00000190: 208a d83c 0803 753d 6152 ef3c 6a41 d53c
000001a0: 6779 c8bd bc88 c03d 67aa 9ebd 5d8e 09bb
000001b0: 7989 ffbc a0c9 713b 1505 8bbd dcd6 c0bc
000001c0: 819e 5ebd 05e1 ebbc 2d6e c4bb 76db eebb
000001d0: c590 9dbc f71c a4bb 7dd0 7c3d 689a e83b
000001e0: 16bd aabc 3091 af3d 31d3 19bb 11ba 54bd
000001f0: b996 fd3c 49e8 a13d 2b24 3fbc e38f 96bd
00000200: 04e5 6dbb fb3b 713d 7ac2 69bd ec6c 9b3d
00000210: 98b2 70bc c464 273c f9e3 633d a0d6 583c
00000220: 9fb8 293d 014e e0bc 29ea 60bd d539 133d
00000230: 8033 0cbc 8860 82bc b4e8 043d 7c0f 05bd
00000240: 7899 fb3c 9ea4 4e3c c64a c53c 4af5 9fbd
00000250: b6b4 90bd 7014 cf3d 0575 72bc 2cfa 33bd
00000260: 6f6a 58bd 3807 48bc c559 2fbd b967 a6bc
00000270: 0f65 2c3d ab85 ae3d 0ae7 dd3c d5af c1bc
00000280: d11a 9d3d 9913 c1bb 7b3c 65bd acef 673d
00000290: 83bf 07bb f393 7fbd c95a cebc 0cba e4bc
000002a0: e8d8 823d f92e 013d 2d2a 7e3c 1ff7 83bc
000002b0: 6a5c efbd 8e27 3fbd a6e9 abbc ac95 e1bd
000002c0: 661d 9bbd a423 90bc 53e9 fcbb 8bc7 4fbd
000002d0: 4244 06bd ae8c a73c af79 4d3c 401a 22bd
000002e0: 6bc0 983c bf09 7d3d 5571 5abd e23a c0bc
000002f0: 2cc9 0a3d 0807 d6ba 5893 02bd 5077 06bd
00000300: 10df 9e3b eb60 50bb 151e efbd 613f 12bd
00000310: 28f5 853c b20d 51bd 1af2 91bd 5d67 8abd
00000320: 6972 72bd 443e 36bc cde5 e23c 3705 e8bb
00000330: c9a6 ed3c 3850 4f3d 0474 773d c028 87bd
00000340: 3297 593c 79ab 2f3d e4ff 94bd 614e 85bd
00000350: 7098 4fbd 0cc1 46bd a592 15bd 7351 b13b
00000360: 84e3 7a3c d485 3ebd b27b 853d 9c76 bf3d
00000370: eb84 2b3d e5e1 60bc 40d4 d53c 7b97 d23c
00000380: 90b9 683d 0b20 a9bd af77 d03c a310 c03d
00000390: b845 643d 91d2 313c 6b68 9e3d 2939 6abd
000003a0: b230 9e3d 7d03 dfbd 22bd ea3c 981a 39bd
000003b0: 5e90 86bb 16bd 56bd 5a25 0dbc 6a08 10bc
000003c0: 8a1a 0d3d a679 0d3a 90fe 8bbc bc2e 76bd
000003d0: aa2f 6cbd 203e f23c f27c b43c ab50 99bc
000003e0: 09f0 d5bc c6b5 26bd 142d 5b3d 5d4a f93c
000003f0: 7fb7 123b b9dd 0d3c f9c8 433d 08cf 2b3d
0.03222222 0.07361905 -0.02958725 -0.012516062 0.028125988 -0.03716459 0.14357562 0.03371042
-0.067219384 -0.06734555 0.023243597 0.02356099 0.08560801 -0.025603842 0.018620452 0.03890202
-0.011145036 0.007098574 -0.0066990284 -0.020411672 -0.039250523 0.06761187 -0.042131517 -0.037156586
0.025783071 0.082355306 -0.0046359887 0.004401526 0.029004788 -0.036798667 0.069850504 -0.020446429
-0.097149454 -0.13969894 0.10685036 -0.020024914 0.038629506 -0.087311655 0.07736419 0.00798629
-0.10615714 -0.07256812 0.024890402 0.015656255 -0.10641651 0.028235441 -0.013462601 0.08551787
-0.054588556 -0.027417503 -0.0039508124 0.10018947 -0.054913376 -0.08963718 0.027880706 -0.056399748
0.059066713 0.11896364 0.11937181 -0.10575754 0.0028857915 -0.016811473 0.025630293 0.047454532
-0.021826781 -0.01824384 0.05146517 0.03351377 -0.017200477 0.0508607 -0.04026961 -0.041992307
-0.03016443 -0.06620416 0.06230181 0.032271955 0.0893882 0.011571092 0.04788999 -0.046289947
-0.07227697 0.04000588 0.061716706 -0.053257436 0.024599561 0.017740842 0.011753453 -0.0427647
-0.023306627 -0.04018475 0.020005643 0.08138511 -0.03498002 -0.027763685 0.0521082 0.024021182
-0.055957314 -0.014178764 6.331985e-05 0.030200403 0.02643305 0.059817344 0.029214086 0.026032168
-0.09788781 0.0940108 -0.077473454 -0.0020989396 -0.031193482 0.003689386 -0.06788079 -0.023539953
-0.05435038 -0.028793821 -0.0059945793 -0.0072893454 -0.01923407 -0.0050083357 0.061722267 0.007098485
-0.020842116 0.08572614 -0.0023471827 -0.05193526 0.03095566 0.07905633 -0.011666338 -0.07351663
-0.0036299834 0.058895092 -0.057070233 0.075891346 -0.014691018 0.0102168955 0.055637334 0.013234764
0.041435834 -0.027380945 -0.054910813 0.035943825 -0.0085572 -0.01591517 0.032448485 -0.03248547
0.030712828 0.01261249 0.024083506 -0.07810457 -0.07065718 0.1011132 -0.014798407 -0.043939754
-0.052835878 -0.012208752 -0.04281022 -0.02031313 0.042088564 0.08521589 0.027087707 -0.023643414
0.076711304 -0.005892229 -0.05596588 0.056625053 -0.0020713515 -0.062396955 -0.025189774 -0.027920745
0.06389028 0.031538937 0.015512985 -0.016109047 -0.116875485 -0.04666858 -0.020985436 -0.11014876
-0.07573967 -0.01759512 -0.007718244 -0.05072741 -0.03277994 0.020452823 0.012541219 -0.039575815
0.01864644 0.061776873 -0.053330738 -0.023465578 0.03388326 -0.0016329 -0.0318788 -0.03282863
0.0048483685 -0.003179605 -0.116756596 -0.035704974 0.016352251 -0.05103845 -0.07126255 -0.06757996
-0.05919114 -0.011123244 0.027697468 -0.0070807 0.029010193 0.050613612 0.060413375 -0.06599569
0.013280677 0.04288814 -0.0727537 -0.0650909 -0.050682485 -0.048523948 -0.036516804 0.005411321
0.015313033 -0.046514347 0.06517734 0.09348795 0.041874807 -0.013725732 0.026102185 0.025706997
0.05681759 -0.08258065 0.025447695 0.09378173 0.05573055 0.010853426 0.0773476 -0.05718342
0.07724132 -0.10889337 0.028654639 -0.045191377 -0.0041065654 -0.05242642 -0.008614862 -0.008791069
0.034449138 0.000539685 -0.017089158 -0.060103163 -0.057662643 0.02957064 0.022032235 -0.018715223
-0.026115434 -0.040700696 0.053509787 0.030430967 0.0022387204 0.00865882 0.047799084 0.041945487

network_body._body_endoder.seq_layers.0.bias f4 [128]
00000000: 0000 0000 0000 0000 0000 0000 0000 0000
00000010: 0000 0000 0000 0000 0000 0000 0000 0000
00000020: 0000 0000 0000 0000 0000 0000 0000 0000
00000030: 0000 0000 0000 0000 0000 0000 0000 0000
00000040: 0000 0000 0000 0000 0000 0000 0000 0000
00000050: 0000 0000 0000 0000 0000 0000 0000 0000
00000060: 0000 0000 0000 0000 0000 0000 0000 0000
00000070: 0000 0000 0000 0000 0000 0000 0000 0000
00000080: 0000 0000 0000 0000 0000 0000 0000 0000
00000090: 0000 0000 0000 0000 0000 0000 0000 0000
000000a0: 0000 0000 0000 0000 0000 0000 0000 0000
000000b0: 0000 0000 0000 0000 0000 0000 0000 0000
000000c0: 0000 0000 0000 0000 0000 0000 0000 0000
000000d0: 0000 0000 0000 0000 0000 0000 0000 0000
000000e0: 0000 0000 0000 0000 0000 0000 0000 0000
000000f0: 0000 0000 0000 0000 0000 0000 0000 0000
00000100: 0000 0000 0000 0000 0000 0000 0000 0000
00000110: 0000 0000 0000 0000 0000 0000 0000 0000
00000120: 0000 0000 0000 0000 0000 0000 0000 0000
00000130: 0000 0000 0000 0000 0000 0000 0000 0000
00000140: 0000 0000 0000 0000 0000 0000 0000 0000
00000150: 0000 0000 0000 0000 0000 0000 0000 0000
00000160: 0000 0000 0000 0000 0000 0000 0000 0000
00000170: 0000 0000 0000 0000 0000 0000 0000 0000
00000180: 0000 0000 0000 0000 0000 0000 0000 0000
00000190: 0000 0000 0000 0000 0000 0000 0000 0000
000001a0: 0000 0000 0000 0000 0000 0000 0000 0000
000001b0: 0000 0000 0000 0000 0000 0000 0000 0000
000001c0: 0000 0000 0000 0000 0000 0000 0000 0000
000001d0: 0000 0000 0000 0000 0000 0000 0000 0000
000001e0: 0000 0000 0000 0000 0000 0000 0000 0000
000001f0: 0000 0000 0000 0000 0000 0000 0000 0000
0.0 0.0 0.0 0.0 0.0 0.0 0.0 0.0
0.0 0.0 0.0 0.0 0.0 0.0 0.0 0.0
0.0 0.0 0.0 0.0 0.0 0.0 0.0 0.0
0.0 0.0 0.0 0.0 0.0 0.0 0.0 0.0
0.0 0.0 0.0 0.0 0.0 0.0 0.0 0.0
0.0 0.0 0.0 0.0 0.0 0.0 0.0 0.0
0.0 0.0 0.0 0.0 0.0 0.0 0.0 0.0
0.0 0.0 0.0 0.0 0.0 0.0 0.0 0.0
0.0 0.0 0.0 0.0 0.0 0.0 0.0 0.0
0.0 0.0 0.0 0.0 0.0 0.0 0.0 0.0
0.0 0.0 0.0 0.0 0.0 0.0 0.0 0.0
0.0 0.0 0.0 0.0 0.0 0.0 0.0 0.0
0.0 0.0 0.0 0.0 0.0 0.0 0.0 0.0
0.0 0.0 0.0 0.0 0.0 0.0 0.0 0.0
0.0 0.0 0.0 0.0 0.0 0.0 0.0 0.0
0.0 0.0 0.0 0.0 0.0 0.0 0.0 0.0

network_body._body_endoder.seq_layers.2.weight f4 [128, 128]
00000000: 513f 04be 41b9 86bd fc3d a6bc c1d0 1c3b
00000010: 7e12 b03d 33d1 773c 5587 133d dc22 2c3e
00000020: c5ee 0ebe a0fd a83d 8118 d33b 24eb a0bc
00000030: 86cc dfbc 4fd4 cc3d 0dee 94bd 8794 ce3c
00000040: 6e63 b6bd fcbf 25ba 3e69 3a3d 14de 66bd
00000050: a041 aebd ec4a 783d 9ee5 0dbe 09db fd3d
00000060: 3015 523d 8f3d 4dbc 3e6b 323c a1d3 5dbd
00000070: 224e 29be 0382 d6bd b85d cfbb 01af 26be
00000080: 6b7b d3bc f8db d1bd d216 763d d8b1 0b3e
00000090: 4d2f af3c c47e 9b3c 92b6 85bb 60c3 0dbc
000000a0: a459 ebbc 970f 0bbc d7b1 e9bd 84cf 33bd
000000b0: 77db 23bd d521 aebc c0d8 81bc 3ae1 753d
000000c0: d6b2 b0bd d617 353d 863f c63c 35b1 2f3e
000000d0: 4039 cf3d d187 9a3e d714 41bd a9fd 833d
000000e0: 2277 a4bd 1140 953b 5a31 01bd 0371 d3bd
000000f0: 059f eeb9 214c a8bd a004 ae3c ee7d 453d
00000100: 8ede 01be 5533 b93d 6cf9 f53d a378 31bc
00000110: 6eca 0ebe 7c4b 00bd 0751 57bd 108e f03d
00000120: 8cef a6bd a11c babc d8ed e2bc 6c6c fcbd
00000130: 0512 34bd ab9f b0bb ac04 233d 1d1b 213e
00000140: 0aee c3bd f762 96bd 716a 2e3d 2b52 0f3e
00000150: 92c7 8d3d b346 753e 5f70 9f3d 5fdb 2cbd
00000160: f249 9f3d 0e86 a2bc b118 15bd 172e 63bd
00000170: 4fec 90bd dc6d c1bd 485d 09bd 6d06 293e
00000180: 86d1 b5bc 14ee b5bd 8620 853c 7202 2c3c
00000190: f8f7 4f3d e54f 313d 544d 2bbd 6071 87bc
000001a0: 6283 f13d ceba 1c3e caa4 e6bd 0864 fa3d
000001b0: c2f1 813d 605d a1bd 75fa 023d 900b 86bd
000001c0: 59ab b8bd de2c 823d 7b25 443b 7fc8 9b3c
000001d0: f86f d3bc b889 9abd dd99 49bd 0b63 2a3e
000001e0: 1d30 db3d ce81 213e cc8d 78bd 7c24 b3bd
000001f0: 1032 9dbb 4dea 11be 4ed9 b13d 8c83 1e3e
00000200: 0f03 2c3e 47cc 7a3b 8adc aa3c 88a2 10bd
00000210: 9208 243d 311d ff3c 1efb 0abe e7ef 4e3d
00000220: 1951 b13d 1be6 1f3e 0e9d a8bd 4873 5cbe
00000230: d7f2 3fbd df63 1abd 9a84 1f3a 21e5 5d3d
00000240: b949 bbbc 9b46 393e e9af 35bd 1483 553d
00000250: 2356 bfbd b5e5 16bc 185d dbbd eb28 1cbe
00000260: 169b 213c fe58 cd3d 62cd e1bd ceac c4bc
00000270: a38c 053d 3ebb c2bd 8ac7 ea3d 214c b5bc
00000280: 30b8 0f3d 3ad5 cbbb 9894 c13d dbfc 683d
00000290: f78c 04be 0c49 2d3e 51cc 883c d7b9 d7bc
000002a0: ef0b 2dbe 2f14 703d 733a 083d c619 83bd
000002b0: c28a 1bbe 8b30 caba b1f2 de3d ef4c febd
000002c0: 3d4b d23d 8af5 90bd d402 303e e717 b6bd
000002d0: 4f3d 2dbd 4991 d7bd 8f56 7e3d 87b2 783d
000002e0: ed71 253e 026a 45bd 3084 7dbd 2414 77bc
000002f0: 432c 7b3d e7cf d3bb 3a6c 0a3e 4030 8d3a
00000300: d853 20be db43 d3bc f488 0d3e 9620 db3c
00000310: dd65 393d 29b0 6d3d a623 47bc 7ef4 e23c
00000320: 4368 20be 5db4 1d3b 27cc 08bc 7c17 873d
00000330: 2b8b cebd c5e7 73bd 135b 793d b246 7d3d
00000340: 761e 1c3d c101 993d a3ae d1bc 183d d13d
00000350: f984 703d 31b4 813c 33f1 cbbd fbc7 913d
00000360: 92b3 703e be75 f33d 6c3f 2c3c 4861 5c3d
00000370: 9185 963d cfce 073e ef11 793e 76a2 2c3d
00000380: 6c34 4d3c 1a24 113d e88d ea3c 9e1a be3d
00000390: 255f 3ebd 10b6 21bd 54c7 1fbd 8a60 123d
000003a0: 15b7 d83c a579 35be af01 61bd 6fd0 0dbe
000003b0: e7e8 84bd 345a ecbd 6801 e43c d389 6ebd
000003c0: b8c5 753a 1f02 d1bb e65c a1bd a9ed 8e3c
000003d0: 731e c73d a24b 4f3d b143 d1bd 406b bc3d
000003e0: ab66 223e 798c 84bd 152d 35bd d0f5 e33c
000003f0: 8236 36bc ee8b 12bd ec35 b83d b021 0e3c
-0.12914778 -0.06578303 -0.020293228 0.0023928138 0.08597277 0.015125561 0.036017735 0.16810173
-0.13958271 0.082515 0.00644213 -0.019643374 -0.027319204 0.10001432 -0.07271967 0.025217308
-0.089056835 -0.00063228584 0.045510523 -0.056364134 -0.08508611 0.060618326 -0.13857123 0.12395293
0.051289737 -0.012526884 0.010889826 -0.054156903 -0.16533712 -0.104740165 -0.006328311 -0.16277696
-0.025815686 -0.10247034 0.060080357 0.13642061 0.02138486 0.018981345 -0.004080602 -0.008652538
-0.028729267 -0.008487604 -0.114108734 -0.043899074 -0.04000422 -0.021256367 -0.015850425 0.060029246
-0.0862786 0.044212185 0.024200212 0.17157443 0.101183414 0.30181745 -0.047139015 0.06444866
-0.08030535 0.0045547565 -0.031541206 -0.1032429 -0.00045513376 -0.082176454 0.02124244 0.0482158
-0.12682554 0.09042994 0.12010464 -0.010831985 -0.13944408 -0.031321988 -0.052567508 0.11745846
-0.08151159 -0.02271873 -0.027701303 -0.12325367 -0.043962497 -0.0053901277 0.039799377 0.15732999
-0.09566887 -0.07343095 0.04258198 0.13996188 0.06922831 0.23952751 0.07785105 -0.042201396
0.07777776 -0.019839313 -0.0364005 -0.055463877 -0.07076322 -0.09444782 -0.033536226 0.16506357
-0.022194635 -0.088833004 0.01625086 0.01049863 0.05077359 0.043289084 -0.041821793 -0.016533554
0.117926374 0.15305635 -0.112619 0.12226111 0.0634494 -0.07879138 0.031977136 -0.06545174
-0.09017057 0.06356214 0.0029929567 0.019016502 -0.025810227 -0.07545799 -0.049219 0.16639344
0.10702536 0.15772173 -0.060682103 -0.08747193 -0.0047972277 -0.14249535 0.08684026 0.15479869
0.16798042 0.0038268731 0.020857114 -0.035311252 0.040047236 0.03114185 -0.13572356 0.050521757
0.08658046 0.15615122 -0.08233081 -0.21528351 -0.04686245 -0.0376929 0.0006085128 0.054173592
-0.022862302 0.1809334 -0.044357214 0.05212696 -0.09342601 -0.00921004 -0.107111156 -0.15249984
0.0098636355 0.100267395 -0.11025502 -0.024008181 0.032604825 -0.0950837 0.1146384 -0.022131028
0.035087764 -0.006220487 0.0945217 0.056881767 -0.12944399 0.16922396 0.016698988 -0.026333733
-0.16899084 0.058613 0.033258867 -0.064014 -0.1518965 -0.0015425844 0.108861335 -0.12417018
0.10268257 -0.07078083 0.17188579 -0.08891278 -0.042294797 -0.10525758 0.062094267 0.060717132
0.1615674 -0.0481968 -0.061893642 -0.0150804855 0.06132151 -0.006463993 0.13517848 0.0010771826
-0.15656984 -0.025789192 0.13821775 0.026748937 0.04526316 0.058029328 -0.012154495 0.027704474
-0.15664773 0.0024063804 -0.008349455 0.06596276 -0.10085138 -0.059547205 0.06087787 0.061835
0.038114987 0.07471038 -0.025595969 0.10216731 0.058720563 0.015832992 -0.099581145 0.07118221
0.23506 0.11887692 0.010513168 0.053803712 0.073496945 0.13262485 0.24323247 0.042147122
0.012524705 0.03543482 0.02863212 0.092824206 -0.046477456 -0.03948027 -0.039008453 0.035736598
0.026454488 -0.17722185 -0.054933246 -0.13849042 -0.06489735 -0.115406424 0.027832702 -0.05823691
0.00093754707 -0.0063784267 -0.07879047 0.01744731 0.097226046 0.05060924 -0.10217989 0.09200144
0.15859477 -0.064721055 -0.044232447 0.027827173 -0.011121394 -0.03577798 0.0899466 0.008675024

network_body._body_endoder.seq_layers.2.bias f4 [128]
00000000: 0000 0000 0000 0000 0000 0000 0000 0000
00000010: 0000 0000 0000 0000 0000 0000 0000 0000
00000020: 0000 0000 0000 0000 0000 0000 0000 0000
00000030: 0000 0000 0000 0000 0000 0000 0000 0000
00000040: 0000 0000 0000 0000 0000 0000 0000 0000
00000050: 0000 0000 0000 0000 0000 0000 0000 0000
00000060: 0000 0000 0000 0000 0000 0000 0000 0000
00000070: 0000 0000 0000 0000 0000 0000 0000 0000
00000080: 0000 0000 0000 0000 0000 0000 0000 0000
00000090: 0000 0000 0000 0000 0000 0000 0000 0000
000000a0: 0000 0000 0000 0000 0000 0000 0000 0000
000000b0: 0000 0000 0000 0000 0000 0000 0000 0000
000000c0: 0000 0000 0000 0000 0000 0000 0000 0000
000000d0: 0000 0000 0000 0000 0000 0000 0000 0000
000000e0: 0000 0000 0000 0000 0000 0000 0000 0000
000000f0: 0000 0000 0000 0000 0000 0000 0000 0000
00000100: 0000 0000 0000 0000 0000 0000 0000 0000
00000110: 0000 0000 0000 0000 0000 0000 0000 0000
00000120: 0000 0000 0000 0000 0000 0000 0000 0000
00000130: 0000 0000 0000 0000 0000 0000 0000 0000
00000140: 0000 0000 0000 0000 0000 0000 0000 0000
00000150: 0000 0000 0000 0000 0000 0000 0000 0000
00000160: 0000 0000 0000 0000 0000 0000 0000 0000
00000170: 0000 0000 0000 0000 0000 0000 0000 0000
00000180: 0000 0000 0000 0000 0000 0000 0000 0000
00000190: 0000 0000 0000 0000 0000 0000 0000 0000
000001a0: 0000 0000 0000 0000 0000 0000 0000 0000
000001b0: 0000 0000 0000 0000 0000 0000 0000 0000
000001c0: 0000 0000 0000 0000 0000 0000 0000 0000
000001d0: 0000 0000 0000 0000 0000 0000 0000 0000
000001e0: 0000 0000 0000 0000 0000 0000 0000 0000
000001f0: 0000 0000 0000 0000 0000 0000 0000 0000
0.0 0.0 0.0 0.0 0.0 0.0 0.0 0.0
0.0 0.0 0.0 0.0 0.0 0.0 0.0 0.0
0.0 0.0 0.0 0.0 0.0 0.0 0.0 0.0
0.0 0.0 0.0 0.0 0.0 0.0 0.0 0.0
0.0 0.0 0.0 0.0 0.0 0.0 0.0 0.0
0.0 0.0 0.0 0.0 0.0 0.0 0.0 0.0
0.0 0.0 0.0 0.0 0.0 0.0 0.0 0.0
0.0 0.0 0.0 0.0 0.0 0.0 0.0 0.0
0.0 0.0 0.0 0.0 0.0 0.0 0.0 0.0
0.0 0.0 0.0 0.0 0.0 0.0 0.0 0.0
0.0 0.0 0.0 0.0 0.0 0.0 0.0 0.0
0.0 0.0 0.0 0.0 0.0 0.0 0.0 0.0
0.0 0.0 0.0 0.0 0.0 0.0 0.0 0.0
0.0 0.0 0.0 0.0 0.0 0.0 0.0 0.0
0.0 0.0 0.0 0.0 0.0 0.0 0.0 0.0
0.0 0.0 0.0 0.0 0.0 0.0 0.0 0.0

action_model._discrete_distribution.branches.0.weight f4 [2, 128]
00000000: db53 90bb 538c 883c e5a5 553b 62c0 813c
00000010: 4a31 ffba 3ba1 febb a770 b23b b370 ed3b
00000020: 3f76 e3ba 5e6a 45bc c27c 49bc b0f2 f63b
00000030: 176c 6ebc f5ec 28bb efbb 393a 7bee 6a3b
00000040: 511a 893a 8bfe 903b 5928 ab3b 3885 4dbc
00000050: 5bd7 10bc befd 063c fc79 a43c cd49 e339
00000060: 68d7 d13b b792 a03b 2749 45bc 0805 7a3a
00000070: 96a1 9f3b 133e 573b 05db 74bb 602e 6dbb
00000080: c740 07ba 049a 3b3a 53a1 a23a fe4a 0dba
00000090: 1f6c 93bc 7251 e13a 9545 cfba 852f c1ba
000000a0: a9b6 05bc fe7a 803c 7d18 ccbb cacb 633c
000000b0: e13f 2fbc 0038 48bb f437 12bc eb28 e8ba
000000c0: e087 3bbc bba9 16bc 3734 87bb 9c58 343c
000000d0: eb5c 163b 64d4 0abc ef7f 79bc 6775 183c
000000e0: eb38 bdbb 7399 f739 ab06 46bc eb8c c0bc
000000f0: ebe5 3bbb 1735 b3bb 8376 1c3c 0be8 7e3b
00000100: c3e3 ac3c 6a1e b6bb e5ca 303c 359e 13bd
00000110: 6ce6 17bc 8ffd fbbb d40e 49bc 5e36 303c
00000120: 7ffb 28bc dd16 2e3c fbd0 a4bb ef48 c7bb
00000130: 7a62 dcbc 6baa 3dbc 7c19 a73c ba66 6dbc
00000140: 2ad5 95bc 1b89 10bc baec 97bb 6de2 e83b
00000150: ff83 103c ab9b 49b7 ff63 9bbb 064b 383c
00000160: 05df a3bc 301a 7ebc 578f 273b cf61 7ebc
00000170: d7a8 fa3a f52e 52bc 4029 77bc 5138 cbbb
00000180: cc6f a03b 235a f03a 6f95 4c3c efdc 9fbc
00000190: 63ee aa3b 3c88 c73c d540 e93b 635c 77bc
000001a0: 7085 d5bb 4f11 e83a 98d7 753c 6d47 583a
000001b0: 58b9 8239 a040 a93b 2f5a c6bb cc88 0dbb
000001c0: 33a9 da3b 2a6d 503c 9d60 4e3a 1018 3cbb
000001d0: 4ca1 a3b9 e759 44bb 77b4 1b3b 1dce 86bb
000001e0: eaf1 903b 4baa 133c eb2d 583c 4f6c 21bc
000001f0: 651a cfbb 6b29 2a3b c8ab fdbb 8afd 213b
00000200: 4a10 71bc db58 dabb d3a2 f0ba 619f 0d3a
00000210: 6b52 7c3b e00e 73bc 6329 d1bb 057c 473c
00000220: 3790 f8bb 57d1 903b b0b6 99bc a356 563c
00000230: 6a00 103c 8e7b 213c 2276 cdbc ad6c 713b
00000240: 8e5a 023c a20d 8bbb 4eef 14bc a473 26bc
00000250: 7e64 383c d7d1 63bc 5095 f8bc aded ab3c
00000260: 4f65 c6bb 7df6 0d3c d271 1a3c af57 1dbc
00000270: 2203 8e3b 10e0 5fbb 9211 3ebc 8316 7cbb
00000280: 886b ee3b ddc7 62bb 4cb2 263b 3b44 3e3c
00000290: 7851 85bc 1835 f23b 34e7 293b 6c1d 993b
000002a0: 7b86 ae3b 9caf 19bc ab63 8c3c eb71 c33b
000002b0: 3bc7 5dbc 2ce4 2c3b 1f8c 803b e083 fe3b
000002c0: 8d2e e63b 127e c4bb fdb2 d43b 7f5c 3fbc
000002d0: ad01 b4bb 7bef b33b e198 213c f72f cc3a
000002e0: 15ff 67bc ab17 72b9 7808 4fbc c550 843a
000002f0: 7f32 1dbb 12b0 edb9 43db fdba a783 9fbb
00000300: 7c7d 80bb 3abb a3ba d103 88ba 4351 c2bb
00000310: 7b07 50bc 0fcf 2cbb b35f 00bc 833c 3b3c
00000320: 174f 143b e7dc f4bb 6ae8 263c c7e0 a7bb
00000330: 0ad5 68bc 3e03 9e3b 8888 e13b 52b2 aabb
00000340: cf17 f13b 281a e93b ed0b 54bc 1f71 6b3a
00000350: 4a54 71bc 2e79 a23c b7aa bb3b 82d0 853b
00000360: 1d27 babb b0e6 6d3a 4ccf 1c3b ea55 6dbc
00000370: b08d ddb9 5d85 263c 1511 3d3b ad15 ecba
00000380: 2aa9 3abb 0a5c f9ba 1d8d 00ba 8549 34bc
00000390: afdb 1abc 089d b3bb 356c 3abc d772 dcba
000003a0: 08bc cabb df01 a83b d31e 0d3c af34 3cbc
000003b0: f583 ef3b 5f39 0f3b 4a42 6abc 2b67 eebb
000003c0: 0882 c53b 7387 2b3c 4a85 b739 1a09 dbbc
000003d0: 572e 423a c39e 10bc aa96 a6bb ea9c 793c
000003e0: d0bd 793b 7d4b c0ba b465 093c bbff 2e3c
000003f0: 63c4 e8bb a2a8 523b 6021 95ba d73f 92bb
-0.0044045276 0.016668474 0.0032600102 0.015838806 -0.0019469645 -0.007770685 0.005445558 0.007246101
-0.0017353966 -0.012049286 -0.012297811 0.007536255 -0.014552138 -0.0025776003 0.0007085194 0.0035847712
0.0010460113 0.004424875 0.0052233157 -0.012543969 -0.008840407 0.008239208 0.020077698 0.000433518
0.0064038523 0.0049003023 -0.012041367 0.0009537493 0.0048715575 0.0032843396 -0.003736199 -0.0036190972
-0.0005159494 0.0007156434 0.0012407698 -0.0005389898 -0.017995892 0.001719041 -0.0015813584 -0.0014738893
-0.008161225 0.015683647 -0.006228505 0.013903568 -0.010696382 -0.0030550957 -0.008924473 -0.001771239
-0.011445969 -0.00919574 -0.0041260975 0.011007454 0.0022943567 -0.008473489 -0.015228256 0.009305335
-0.0057746074 0.0004722584 -0.012086551 -0.023504695 -0.0028670977 -0.0054689753 0.00954974 0.0038895633
0.021104699 -0.005557825 0.010790561 -0.03603955 -0.009271245 -0.0076901386 -0.012271602 0.01075515
-0.010313868 0.010625568 -0.005029795 -0.0060816924 -0.026902426 -0.011576275 0.020397894 -0.014489824
-0.018290121 -0.008821751 -0.0046363743 0.00710707 0.008820533 -1.2016778e-05 -0.004742145 0.011248356
-0.020003805 -0.015509173 0.0025567615 -0.015526249 0.0019123805 -0.012828578 -0.015085518 -0.006201782
0.0048961397 0.001833741 0.0124868 -0.019514529 0.005216406 0.024356954 0.0071183243 -0.01509771
-0.006516151 0.0017705354 0.015005015 0.00082503894 0.00024933624 0.0051651746 -0.006053231 -0.002159643
0.006673002 0.012721339 0.0007872673 -0.0028700866 -0.00031209958 -0.0029960813 0.0023758688 -0.004113926
0.0044233697 0.009012769 0.013194541 -0.009852483 -0.006320285 0.0025964628 -0.007741425 0.0024717771
-0.014713356 -0.0066634244 -0.0018359072 0.00054024725 0.0038501273 -0.014835089 -0.0063831075 0.012175565
-0.007585551 0.0044194865 -0.01876387 0.013082179 0.008789161 0.009856118 -0.025080744 0.0036838457
0.00795616 -0.0042435685 -0.009090258 -0.010159407 0.011254428 -0.01390501 -0.030344635 0.020987356
-0.0060545574 0.008664724 0.009426551 -0.009603425 0.0043338696 -0.0034160651 -0.011600869 -0.0038465566
0.0072760023 -0.003460399 0.0025435863 0.011612947 -0.016274199 0.007391583 0.0025925161 0.004672697
0.00532609 -0.009380247 0.01713737 0.005964508 -0.01353627 0.0026381118 0.0039229537 0.0077671856
0.0070245923 -0.005996474 0.0064910636 -0.011679768 -0.005493364 0.005491195 0.009863109 0.001557826
-0.014159937 -0.00023087735 -0.012636296 0.0010094872 -0.0023986397 -0.00045335345 -0.0019367713 -0.004867989
-0.003921209 -0.0012491711 -0.0010377114 -0.0059300973 -0.012697096 -0.0026368534 -0.0078353165 0.011428001
0.002263015 -0.0074726227 0.010187248 -0.005123231 -0.014210949 0.004822164 0.006882731 -0.0052092457
0.0073575745 0.007113714 -0.012942296 0.0008981395 -0.014729569 0.019833174 0.005727138 0.004083694
-0.005680932 0.00090752076 0.002392727 -0.014485816 -0.0004225797 0.010163632 0.0028849293 -0.0018011831
-0.0028482177 -0.0019024622 -0.000490384 -0.011003857 -0.009451791 -0.005481366 -0.011378338 -0.0016818893
-0.006186966 0.005127176 0.008613306 -0.01148717 0.0073094317 0.0021854264 -0.014298031 -0.007275482
0.006027464 0.010469305 0.00035003788 -0.026737738 0.0007407418 -0.008826914 -0.0050838785 0.015235165
0.0038107522 -0.0014670935 0.008386064 0.010681088 -0.0071034892 0.003214397 -0.0011377744 -0.0044631767

action_model._discrete_distribution.branches.0.bias f4 [2]
00000000: 0000 0000 0000 0000
0.0 0.0
