results/MoveToGoal3/MoveToGoal/MoveToGoal-142.onnx (onnx, 74020 bytes, 8 tensors)

action_model._continuous_distribution.log_sigma f4 [1, 2]
00000000: 9b2e e43a 7865 78bb
0.0017408909 -0.0037902277

action_model._continuous_distribution.mu.bias f4 [2]
00000000: 6060 6e39 24fc 9238
0.00022733351 7.008787e-05

action_model._continuous_distribution.mu.weight f4 [2, 128]
00000000: fb5e 233d 7472 38bd 27ec c73c 08dd 953b
00000010: 6224 99b9 454b 9bbc be8a 3dbb a80e 71bc
00000020: 08ea 5a3a 7701 793c c552 d0bc 11bd 353c
00000030: 6c1d 90bb e968 e2bb ff1f 523c 127e 97bc
00000040: 6584 1a3c 4ae1 0f3d d525 1fbc 237a 31bb
00000050: 4aa8 db3c 7a81 89bb 4d9e 283b 5640 833b
00000060: 1353 6fbc b84c fabc 5a6b fcba c639 0ebd
00000070: cea5 093d 5b41 ed3c 5215 b13a 6a0a 4cbb
00000080: f533 11bd 5f2b 3dbc 1996 593b 5f1e 1f3d
00000090: 2521 a8bb 9512 9abb 0f02 58ba 7056 f1b9
000000a0: 0f17 393b d270 db3b 2b9d a63c ee09 843c
000000b0: 3f33 ab3c 3361 9dbc 5167 6dbc 80d1 db3b
000000c0: 1684 8dbb 568d b6bc e9da 6b3c b90a 1dbc
000000d0: 51ad 5bbb f0fc edbc a180 83bc f276 e2bc
000000e0: f2e6 07bb f73e 5f3c b51a 2dbc 5023 37bd
000000f0: 3466 bb3b c9b8 1c3b 7dab ea3a 2ff4 7b3c
00000100: faea f83c 9372 f73a c92d 833c 8c0a 78bc
00000110: 69af 1dbd 96c7 b5bc 3abd 84bc fa8d 99bb
00000120: 63ab f4bb f770 a9bc ba1b 50bc 3fc6 ef3a
00000130: 2ce1 b1bb daee 5cbc 9713 25bc 40c9 293c
00000140: a305 133c 2419 df3b 2f68 aa3c a59e 943c
00000150: 148a c83c 5c2d c6b9 6714 353c 51d0 6b3c
00000160: a840 30bc a082 983c d5ab 843c 2705 ec3c
00000170: 31ca ac3c 08b4 a7bc 0fda 09bb e5fe ed3c
00000180: 25e3 0d3b 2765 933a 7982 903b b385 debc
00000190: 370d f83b 8bce e5ba ff7d f73b 4ec7 713c
000001a0: 7298 383b 1c09 c9bc 9e04 693c d832 4d3c
000001b0: 18e5 bdbb b572 6ebc 3c3b 123c 75b5 9cbc
000001c0: c38a cb3b 6c72 963a 3d32 0bbc 60be 21bd
000001d0: 9ca9 133b c4d5 4eba 1269 78bb 626e 5bbc
000001e0: b679 a0bc 907c d9bb 55bc 913c ac2e 193c
000001f0: 1cb3 a93b ae41 a23c 8536 973c bb99 95b9
00000200: 37c5 92bc 75c6 c13c 689d 94bc 7449 5f3d
00000210: 9331 94bc a733 57bd 96e3 30bd 90da 3fbd
00000220: 93c2 aa3c 8b78 47bc d633 6cbc 70b6 8bbc
00000230: b889 8e3a 9cc6 86bc 9aba 9a3c 8530 22bc
00000240: 1f86 1b3d c982 07bd 6757 323c 99b6 0abb
00000250: 1f85 8a3b aa7b bdba 78fb 38bd a123 33bc
00000260: d9d3 7a3b be5f 723c d07a b2ba d879 b5bc
00000270: 7859 7539 54bd 0c3d 23a1 8b3c 4751 3cbc
00000280: 9c56 683b 691d 6e3c f6ee 9a3b e70a 80bc
00000290: 4234 aabc 81ad 983b d5e7 b4bc 52ed 3ebc
000002a0: 8f7f 25bc 16b1 8cbc 26aa 4db8 e830 94bb
000002b0: c2fd 173d 3773 cabc 77ac 923b 3759 fabc
000002c0: ee19 5b3a 0a59 38bc 17de fe3b a26d bbbc
000002d0: 302a c2bb ab89 42bc 8de0 ac3c 3152 6ebc
000002e0: f449 3c3b aef1 70bc 6c26 0cbc 5c47 50bc
000002f0: 3ee5 cabb 769d 9abc 3b54 b53b 0c33 093b
00000300: 5465 53ba 1f9e b03c 876e 5abb 20d4 b0bb
00000310: 8a87 673c a13d 3fbc 5216 93bc e126 873b
00000320: 1961 c9bc 0e1f 943c 3f7f c43c 4236 66bb
00000330: c4ae a9bb 8b02 a93c 05c2 e5bc 0194 b7bc
00000340: 0897 7d3c 7c06 b03c 0ea0 b1bc d6b2 033c
00000350: 7aa0 39bc 7450 f4bc b02b 4dbb 6926 03bc
00000360: f508 02bc 84c5 bcbc ad82 1f3b 7516 133c
00000370: a707 fcbb 5a8a 993b 4a2c 9039 2200 5b3c
00000380: 585b 953c 7f32 f13c a405 883a ca5d 54bc
00000390: f63e 9abb 1c6d 62bb 249a a13c 7fc9 e4bc
000003a0: 37a6 c8b9 afc5 13bc 2172 afbb 9196 833b
000003b0: 3f1c 98bc 886a 43bc 3073 be3c 15fe 8dbc
000003c0: 05b4 1fbd 0ef8 91bc 11dd 9d3c 895e 043c
000003d0: 12a0 ebbb de6f bebc 6576 c33c 1df8 d9bc
000003e0: d9ef 1ebc a3cd 55bc 43eb 5fbc e7c6 b23b
000003f0: 01b3 bc3c bc6a 5439 50be 18bc 366a 31bc
0.039885502 -0.045031026 0.024404598 0.004573468 -0.0002920954 -0.01895679 -0.0028921808 -0.014712967
0.00083509134 0.015198103 -0.025430093 0.01109244 -0.0043980386 -0.006909479 0.012825011 -0.018492732
0.009430979 0.03512696 -0.00971361 -0.0027080856 0.026813645 -0.004196343 0.002572912 0.004005472
-0.014607209 -0.03055416 -0.0019258067 -0.034723066 0.03360539 0.028961828 0.0013510382 -0.0031134137
-0.03544994 -0.011545985 0.0033201037 0.038847324 -0.0051309043 -0.004701922 -0.0008240053 -0.00046031503
0.0028242504 0.006696799 0.020338615 0.016118016 0.02089846 -0.019211387 -0.014489965 0.006708324
-0.0043187244 -0.022284191 0.014395454 -0.009585076 -0.0033520053 -0.029051274 -0.016052546 -0.027644608
-0.002073702 0.013625852 -0.0105654495 -0.04471141 0.0057189707 0.0023913851 0.0017903891 0.015378042
0.030385483 0.001887875 0.016013043 -0.015139233 -0.038497362 -0.022189897 -0.016203512 -0.0046861144
-0.00746672 -0.020683749 -0.012701923 0.0018293335 -0.005428454 -0.013484681 -0.010075471 0.010362923
0.008973512 0.006808417 0.020801632 0.018142054 0.024479903 -0.00037799298 0.011052228 0.014392928
-0.010757603 0.018616974 0.016195217 0.02881105 0.021092506 -0.020471588 -0.0021034514 0.029052207
0.0021650281 0.0011245356 0.004410085 -0.027163362 0.0075699347 -0.0017532868 0.0075528617 0.014756991
0.0028167036 -0.024540477 0.014222292 0.012524329 -0.0057951324 -0.0145537155 0.008925255 -0.019129494
0.00621161 0.0011478192 -0.008495864 -0.039488196 0.0022531515 -0.000789013 -0.0037904424 -0.0133930165
-0.019589286 -0.0066371635 0.017789999 0.009349506 0.005178822 0.01980671 0.018458614 -0.00028534033
-0.017916305 0.023654202 -0.018141463 0.05451341 -0.018090045 -0.052539494 -0.043185793 -0.046839297
0.020844733 -0.012174736 -0.0144166555 -0.017054766 0.0010874784 -0.016452126 0.018887807 -0.009899263
0.037969705 -0.03308371 0.010885096 -0.0021165966 0.004227295 -0.001445641 -0.045161694 -0.010933788
0.0038273244 0.0147933345 -0.0013616923 -0.022152826 0.0002339835 0.034360245 0.01704461 -0.011493987
0.0035452014 0.014533379 0.0047281934 -0.015630199 -0.020776872 0.004659355 -0.022083202 -0.011653261
-0.010101213 -0.017174285 -4.903427e-05 -0.0045224316 0.037107237 -0.024713142 0.004476126 -0.03056012
0.0008358051 -0.011251697 0.00777794 -0.022879425 -0.0059254393 -0.011873643 0.021103168 -0.014545963
0.0028730603 -0.014706058 -0.008554082 -0.012712326 -0.0061918786 -0.018873911 0.0055337227 0.0020934967
-0.00080641103 0.021559773 -0.003333004 -0.005396381 0.014131436 -0.011672408 -0.01795498 0.004124508
-0.024582433 0.018081214 0.023986457 -0.0035127555 -0.0051783044 0.020631095 -0.028046617 -0.022409441
0.015477903 0.021487467 -0.021682765 0.008038243 -0.0113297645 -0.02982352 -0.0031306557 -0.008004763
-0.007936706 -0.023043402 0.0024339363 0.008977522 -0.007691342 0.0046856822 0.00027498818 0.013366731
0.018232033 0.029443024 0.0010377658 -0.012961814 -0.0047072126 -0.0034549898 0.01972682 -0.027928112
-0.00038270812 -0.009019299 -0.0053541814 0.0040157516 -0.018568156 -0.0119272545 0.023248285 -0.01733307
-0.03899004 -0.017818477 0.019270452 0.00807918 -0.0071907127 -0.023246702 0.023860166 -0.026607567
-0.009700739 -0.013049516 -0.013666931 0.00545584 0.023034574 0.00020257657 -0.009322718 -0.010828545

action_model._discrete_distribution.branches.0.weight f4 [1, 128]
00000000: ba13 82bb e7aa 2d3b 3937 9fb9 6331 8ebc
00000010: 90f8 83bc 8af1 583c fb94 d03b c8bc 70bb
00000020: 1047 59ba 15b1 783b c8b9 f4bb 32d7 c93a
00000030: f58c 68bb e7cd 483b d523 4f3b de58 8e3b
00000040: bf65 c7bb 4614 853b 8396 1c3b fa20 653b
00000050: 6b3f 7d3b 334f c6ba 1470 c6b9 fc16 3a3b
00000060: 30dc 7eba 746d b7ba 3f35 3eba 5b10 fcba
00000070: c06a f43b 0761 3fbc c3f5 233b bb44 c73a
00000080: d385 c03b 4a96 633c a990 3b3b e74f a4bb
00000090: 9eec 96b9 75c5 f4bc 4866 a83a 3c51 2a3a
000000a0: f772 4cbc faf7 81bc 17d9 c43a 1e6c 0abc
000000b0: 8ac6 d739 6bfb 293c 7176 243c 0044 bdbb
000000c0: e785 023c 58de 583a f2a5 b0bb 00ce 083c
000000d0: ba76 513b eaa0 23bc bfad 6d3b 0b07 843b
000000e0: aba6 46bc 576b e73b 3644 01bc 35c8 32b9
000000f0: a70c 96ba ab1c 8d3b 507a 82bc 8373 7ebc
00000100: 9f58 c03a 13d9 16bb 288c 443c c8dc 24bc
00000110: a3fb ea3b 8c07 4b3c ef6b a4ba 0322 9839
00000120: d9a8 9abb 1b62 44bc f887 b33b c5e7 e83b
00000130: fd35 943a adf7 673c 7b25 00bb fb43 22bc
00000140: bfbd ecbb caee 65bc 2a93 753c df0a a0b9
00000150: fbfa 19bc 892e 27bc 4370 71bc f527 533c
00000160: 057b e2bb 6f82 e1bb 50ec cbbb 07e4 47bb
00000170: a79d dbbb 4faf faba 0a3c 51bc 6bbd acbb
00000180: 4385 b7bb 55ea f73b dd6b cdbb e26c df3b
00000190: 32d6 553c b643 463c 7051 72bc 6293 17bc
000001a0: c2fd d6bc 974f 07bc 5866 02bc 64ba 263b
000001b0: 6b71 203a 30d3 b93b 1fa5 3b3c 776f 4bbb
000001c0: afa0 28bc fad4 17bc d1a6 99bb c33c 9fbc
000001d0: 70ae f7bb 939f 233b e763 80bb cf72 1c3c
000001e0: 3faa c2bc a3ed adba c4c3 92ba aa40 68bc
000001f0: 332d 2ebc 850d 873b d59b 4ebb f5dc eeba
-0.0039696367 0.002649957 -0.00030367987 -0.017357534 -0.016109735 0.013241181 0.006365416 -0.0036733616
-0.0008288482 0.0037947346 -0.007468436 0.0015399216 -0.0035484408 0.0030640305 0.003160705 0.00434409
-0.006085127 0.0040612547 0.0023893423 0.0034962283 0.0038642536 -0.0015129804 -0.00037849008 0.0028395047
-0.00097221415 -0.0013994412 -0.0007255859 -0.0019230949 0.0074590147 -0.011680848 0.0025018312 0.0015202978
0.005875328 0.013890812 0.002862016 -0.005014408 -0.00028786523 -0.029879311 0.0012847865 0.000649709
-0.012478582 -0.015865315 0.0015018311 -0.008448629 0.0004115592 0.010374884 0.010038004 -0.0057759285
0.007966495 0.0008272878 -0.005390876 0.0083498955 0.0031961636 -0.009987095 0.003626689 0.00402916
-0.012124698 0.0070623565 -0.007889798 -0.00017049986 -0.0011447862 0.004306396 -0.015927464 -0.01553047
0.0014674849 -0.002301757 0.0119963065 -0.010062404 0.0071711107 0.012391936 -0.0012544374 0.0002901704
-0.0047198352 -0.011986281 0.005478855 0.007107707 0.0011307594 0.014158172 -0.001955359 -0.009903903
-0.007224768 -0.0140339825 0.0149887 -0.00030525678 -0.009398217 -0.010203966 -0.014736238 0.0128879445
-0.0069116377 -0.006882004 -0.006223239 -0.0030500905 -0.0067021432 -0.0019125732 -0.012770662 -0.005271604
-0.005600603 0.0075657764 -0.006268962 0.0068183998 0.013051556 0.0121011045 -0.014789924 -0.009251447
-0.026244048 -0.008258722 -0.007958971 0.0025440687 0.0006120416 0.0056709275 0.011452942 -0.003104178
-0.010292216 -0.009267086 -0.0046890755 -0.019438153 -0.0075586364 0.002496694 -0.0039181593 0.009548857
-0.02376282 -0.0013269674 -0.0011197259 -0.014175573 -0.0106308935 0.0041214847 -0.0031525989 -0.0018223809

network_body._body_endoder.seq_layers.0.bias f4 [128]
00000000: 0116 263a 5580 94ba d4e7 2cb9 7c45 73ba
00000010: a97c 89ba abe8 a2ba 43e4 923a d734 8eba
00000020: bf76 d1b9 a283 083b d074 5eb9 d900 91ba
00000030: c3bd 9737 2538 d33a 57d5 cb3a d665 b5ba
00000040: f69a c83a 4e4f 02bb 7230 66ba 5f69 e939
00000050: 7059 0c3b eb20 803a 7781 873b 2772 1c3a
00000060: acef 71b9 71ae 433b 73e5 f23a e9d9 b33a
00000070: 0f5f 353a ad1b b639 628c 16bb e1c4 11ba
00000080: 6587 c0b9 a52c 003a 0c02 4139 5f97 193a
00000090: c280 8138 1667 4fb9 4831 e9ba 92f3 a0ba
000000a0: 2add 433b 6791 0e3a e1e4 9bba 8727 043a
000000b0: ecd0 a33a 9277 663a 755e 20bb b3ba 0fba
000000c0: da1f 0d3b fede 573b c66a c7b9 d2a6 98ba
000000d0: 2dab dc3a 336c f4ba 756b bcba 8885 a13a
000000e0: 1cd3 5d3a 2629 c3ba e90e 883a 47ce 7f3b
000000f0: 0364 c8ba bf27 353a c98a 68bb b640 fe39
00000100: d087 ccb9 99f9 973a 2e04 bcb9 21c0 3abb
00000110: 4f37 283b e64c 913a 19e7 afba 2011 aa3a
00000120: 925b 9239 a9ba 0f3a 1179 7dbb 9b96 a4bb
00000130: 0bb6 b6b9 a6f6 6639 428f 31ba e2d2 c8ba
00000140: 5d18 243b 08aa aab9 c8f6 bc37 ffb2 abb9
00000150: e642 58ba e7af 153a 1457 0abb 1def 54b9
00000160: ba40 ca3a 5a72 93ba 5aee 253b 9c8c 70bb
00000170: 4473 20ba 2abf 8cba 45dd 8aba aafa 6bbb
00000180: 4ddb 5e3a a4fb b43a 5b92 1bba 895b 5f3a
00000190: 8a5e 79b9 cf52 4a39 05bf 05b9 36cb f63a
000001a0: 3314 bf3a 44eb 05ba c3d0 b63a 3603 533b
000001b0: 52d0 07bb 7d03 97ba f82c f838 f123 92ba
000001c0: 91ba bc3a 63d6 973a 91d1 ccba d496 ec39
000001d0: 3a76 7f3a 1b4b e0b9 7662 6c3a 4f69 bc3a
000001e0: 56df d53a 63cf 413b 6f92 c138 85fc de3a
000001f0: 5911 683b 56c9 6cba 9881 c4b9 80f0 4939
0.00063356763 -0.001132975 -0.00016489561 -0.00092800683 -0.0010489422 -0.001242896 0.0011206943 -0.0010849488
-0.0003995206 0.0020830412 -0.00021215086 -0.0011062875 1.8088967e-05 0.0016114755 0.0015551251 -0.0013839554
0.0015304971 -0.0019883695 -0.00087810226 0.0004451973 0.0021415614 0.0009775435 0.0041353065 0.0005967938
-0.00023072836 0.0029858614 0.0018531516 0.0013721558 0.0006918767 0.00034734365 -0.0022971858 -0.0005560648
-0.0003672197 0.0004889465 0.00018406677 0.0005859043 6.175182e-05 -0.00019779461 -0.0017791176 -0.0012279621
0.0029886463 0.0005438537 -0.0011893773 0.00050412904 0.0012498177 0.0008791621 -0.0024470363 -0.00054828374
0.0021533878 0.003293931 -0.0003803579 -0.0011646396 0.0016835682 -0.0018647969 -0.0014375286 0.0012323121
0.00084619387 -0.0014889583 0.001038042 0.0039032863 -0.0015288595 0.00069105247 -0.0035483113 0.0004849487
-0.000390111 0.0011594772 -0.00035861268 -0.0028495865 0.0025667732 0.001108554 -0.0013420313 0.0012975074
0.00027915515 0.00054828316 -0.0038676898 -0.0050228364 -0.00034849378 0.00022026393 -0.0006773361 -0.0015321637
0.0025038936 -0.0003255161 2.2526263e-05 -0.00032749024 -0.0008249715 0.00057101104 -0.0021109032 -0.00020306972
0.0015430667 -0.0011249289 0.002531907 -0.0036704903 -0.00061206915 -0.0010738124 -0.0010594508 -0.0036007562
0.00085013063 0.0013807905 -0.00059345894 0.00085204147 -0.00023781709 0.0001929507 -0.00012755029 0.0018828872
0.0014578163 -0.00051086047 0.0013947714 0.0032197959 -0.0020723534 -0.0011521425 0.000118339376 -0.0011149627
0.0014398863 0.0011584278 -0.001562642 0.00045125803 0.0009745095 -0.00042780567 0.00090173574 0.0014374646
0.001631717 0.0029573075 9.2302325e-05 0.0017012513 0.003541073 -0.0009032687 -0.00037480588 0.00019258447

network_body._body_endoder.seq_layers.0.weight f4 [128, 6]
00000000: 59e0 b6be 6637 153f 5472 73be 6d0c 913e
00000010: b72b 743e 84f1 0f3e 6fd5 0e3f 5cdd e83d
00000020: e0d3 0cbf 37a5 423e 47d4 453f c9ea 7fbe
00000030: d939 c33e b868 fe3c b37e fe3c eb66 48bf
00000040: 4478 debe 181b a93d 752c 023e 80fe ff3e
00000050: 382d d73e bdb9 ebbe 0e1b 303e c681 c5bd
00000060: 4487 83bd f863 213f e7ff 2b3f e2f0 fcbd
00000070: bf01 893e 50e7 9f3e 2f78 6abd 4fec d93d
00000080: 01f9 35bf 54e1 b6bd 96c5 cdbd 5cf9 143e
00000090: 1fd5 333e e571 62be 2083 c2be 3c5f 2fbb
000000a0: 62b7 4a3c 1f7e b23e d60c 863d c81b 2bbf
000000b0: 92a8 9fbe e907 dbbd 97da 05bf 841f 9e3d
000000c0: 6ae4 6d3f 9f52 0c3d 2606 b2be bbd4 00bf
000000d0: 8fca bf3d 769c 1a3f ef09 943d d1d5 553e
000000e0: f701 3dbe cabf 173f 4c2e debc f459 083e
000000f0: 1070 80bd 31c0 6b3e b026 683f bfdf c2bc
00000100: e1fa a83e 2633 84bf 747b dc3e e948 943c
00000110: cec3 6e3e 778f 1a3f 550b 7a3e a975 dabd
00000120: 3710 be3d a3bb 423f c89e f93e 1d11 153d
00000130: 9dcc 103d c949 02bf 26ef 97be eae7 3b3f
00000140: 154d 6b3f 4cb9 a4be 1c2c bc3e b215 473e
00000150: bad3 bcbe 62db 0f3f f6a6 3f3e 194c aebe
00000160: 69c7 82bb c638 42bf a1c6 b53e f715 973e
00000170: 1217 13bf a2d0 9fbc d3aa 6c3f 1ff5 adbe
00000180: 52af 303b 5e48 a6be 868d bdbe 45cb 83be
00000190: 2e3b 15bf a593 3bbf 60f8 bc3d a30b 4c3e
000001a0: 87e0 0abd 7794 01bd 925f 163f 457f d6be
000001b0: 4ee6 423f a236 cc3e c1a1 39be 4bd0 23bf
000001c0: e439 90be 211c 77be 5282 3abe fc74 2cbe
000001d0: 766f b63e b0eb 3b3e 57f5 d03e 6324 2cbf
000001e0: b6b4 e93d 0d40 97be f5c8 62bf 3cac 623f
000001f0: 9a45 253d 9274 28be a85a d6be 6bb1 ccbe
00000200: 32ed 103f c565 85be dfc9 1cbe d636 08bf
00000210: 20f3 173f 1cca 0bbf 0d08 423c a361 c7bd
00000220: 685b eebe 9394 113d 2d93 e3bd 1ea1 febe
00000230: e076 95bd be1f fe3d bf1f 52be cda7 0fbe
00000240: 7834 eabc f1e5 49bd 24eb 053e 857b 943e
00000250: c2ad 61bd fd55 92be f5c7 d23e da99 103f
00000260: bd4c c8be a803 e3be d94b 333d f52c 9fbe
00000270: 1631 01bf 0c43 0a3f 91c2 303f 3e2c a83e
00000280: 81f4 2abf 6536 16bf 8c30 d6be ef0b 02bf
00000290: 1c03 b83d 2a86 4bbf 71b3 fe3d b8c4 b53e
000002a0: ce62 a83b 09f3 af3e 3205 77be 249c 46be
000002b0: d00b 413e d9ac 423d 76ea 1b3d 13d5 1c3f
000002c0: fb30 8c3d a555 043e bfd0 0b3f 877e 84bd
000002d0: 8bc8 02bf e4db 953e 72f0 83be 243f afbd
000002e0: 7620 103f a004 18bf eb76 d13d 7e0d 49bf
000002f0: e047 983e 45a1 fd3d 37de a33c 0d6f 38be
00000300: 6f20 cdbe 435d 543e 2e89 9cbe 5c06 8d3e
00000310: bbcc aebd 5c85 a73e 9374 0abf 5180 3bbf
00000320: 0a13 3b3f 6c5c 9ebe a9eb 67bd afae b0be
00000330: b867 a73e e5db 50be e70a 58bd 4ccb f13d
00000340: c355 b43e 2bf3 553e 80f3 3c3e 24ab c83d
00000350: 9977 85bf 0b69 f5be ae5b dd3d 4b1e 02bf
00000360: 6986 83bc 215f 14bf 2cd7 793f 920f 363e
00000370: b58b 77bf c01d 08be c026 4c3e 7e05 333e
00000380: 3aa8 793e 4e85 c0bf 2a8f 3ebd b3e6 343f
00000390: 23ab 083f d889 2cbe 4ed4 45bd f8d9 243f
000003a0: c2cf 773e a467 1bbf 20fc c53e 254e 7f3e
000003b0: cca7 4ebf 23e9 f8be 34a3 2ebd db09 2abf
000003c0: 6a48 5cbe f9f9 db3e 48cc 073f e5f0 a1be
000003d0: 2fd8 d5be 93f7 c8be e4b2 c2bd a75a c73e
000003e0: 578e 043e aada da3e 5171 293f beb7 10bf
000003f0: 10e0 97bd 16d2 f13e f80d 173d 0678 29be
-0.3571804 0.58287656 -0.23774081 0.28329793 0.23844801 0.14056975 0.55794424 0.11370346
-0.55010796 0.19008337 0.77277035 -0.24991907 0.38130072 0.031055793 0.031066274 -0.7828204
-0.4345113 0.08257121 0.12712272 0.49998856 0.42026687 -0.46040145 0.1719782 -0.09643893
-0.06422284 0.63043165 0.6718735 -0.12350632 0.26759145 0.31231165 -0.057243522 0.106407754
-0.71083075 -0.08929697 -0.10047452 0.14548248 0.17561768 -0.2211376 -0.37990665 -0.0026759645
0.012372823 0.34861848 0.06545417 -0.66839266 -0.31183296 -0.10694868 -0.52286667 0.07720855
0.9292666 0.03425848 -0.34770316 -0.503246 0.09364807 0.6039499 0.07228457 0.20882346
-0.18457781 0.5927702 -0.027121685 0.13315564 -0.06271374 0.23022534 0.9068403 -0.023788331
0.33003905 -1.0328109 0.43062937 0.018101173 0.23316881 0.6037516 0.24418385 -0.10666973
0.092804365 0.7606756 0.48753953 0.036393274 0.035351384 -0.5089384 -0.29674643 0.7340075
0.9191449 -0.3217262 0.36752403 0.1944187 -0.36880285 0.56194127 0.18716034 -0.34042433
-0.0039910567 -0.7586788 0.35503104 0.29508945 -0.5745708 -0.019508664 0.9244816 -0.33976075
0.0026959968 -0.32477087 -0.37022036 -0.2574102 -0.58293426 -0.7327216 0.09227061 0.19926314
-0.033905532 -0.031635728 0.5873958 -0.41893974 0.7613267 0.39885432 -0.1812811 -0.63989705
-0.28169167 -0.24131824 -0.18213776 -0.16841501 0.35631913 0.18351626 0.4081218 -0.6724302
0.11411421 -0.29541054 -0.88587886 0.8854406 0.04034958 -0.16450718 -0.4186604 -0.3997911
0.5661193 -0.26054206 -0.15311383 -0.53208673 0.59355354 -0.5460527 0.01184274 -0.097354196
-0.46554112 0.035542082 -0.11112056 -0.49732298 -0.07298064 0.12408398 -0.20519923 -0.14028855
-0.028589472 -0.049291555 0.1307798 0.29000488 -0.05509735 -0.2858123 0.4116818 0.5648476
-0.39121047 -0.44338727 0.043773506 -0.31088987 -0.50465524 0.54008555 0.69046885 0.32846254
-0.66779333 -0.5867675 -0.41833913 -0.5079946 0.08984968 -0.79501593 0.124365695 0.35501647
0.0051387316 0.3436511 -0.24123076 -0.193955 0.18852162 0.04752812 0.038065396 0.61262625
0.0684528 0.12923296 0.54615396 -0.06469446 -0.51087254 0.29269326 -0.25769383 -0.08556965
0.5629953 -0.5938206 0.1022776 -0.7853621 0.29742336 0.12384275 0.020003421 -0.18011113
-0.40063807 0.20738702 -0.3057341 0.27543914 -0.08535143 0.32718933 -0.5408413 -0.7324267
0.73075926 -0.30929887 -0.056621227 -0.34508273 0.3269632 -0.20396383 -0.052744772 0.11806354
0.3522168 0.20893542 0.18452263 0.097982675 -1.0427123 -0.47931704 0.10808502 -0.50827473
-0.016055303 -0.57957655 0.9759395 0.17779377 -0.9669755 -0.13292599 0.19936657 0.17482564
0.2438058 -1.5040681 -0.04652325 0.7066452 0.53386134 -0.16849458 -0.048298173 0.64395094
0.24200347 -0.6070502 0.3866892 0.24932154 -0.8072479 -0.4861537 -0.04263611 -0.6642129
-0.21511999 0.42964152 0.53046083 -0.316291 -0.41766497 -0.39251384 -0.09506777 0.3893635
0.12944923 0.42744952 0.6618853 -0.5653037 -0.074157834 0.47230595 0.036878556 -0.16549692

network_body._body_endoder.seq_layers.2.bias f4 [128]
00000000: 6de7 65bb 74cb c23a df1f d3b9 a55f 3cba
00000010: 6454 3db9 5aae ca38 7b14 623a ae63 f838
00000020: 4463 d93a e865 1bb9 8289 8c3a ac3d b138
00000030: dc3a e5b9 0ac8 a63a 8f5b 8b38 e5cf ceba
00000040: f90b e739 1186 92b9 00fc 8b3a f246 703a
00000050: 1dde 1aba dc37 eeb9 6f7a ec3a f8ca 0b3b
00000060: ad4f 8d39 4399 363a 2171 6cba 070d a93a
00000070: ea15 beb8 8ec0 5fba 55b4 243a b753 91ba
00000080: 408e 0137 46ad 833a bab5 aa3a 8258 e0ba
00000090: c166 00ba d7f1 833a f916 753a 6626 1bba
000000a0: f75e 70b9 53f7 f6ba 20cb 9e38 63eb a5b9
000000b0: 384b b2b9 c72d 1dba e343 9839 8751 64ba
000000c0: 5568 74ba 4842 a3ba ec32 1e3a f0a2 9239
000000d0: 7d56 b4ba f2b8 2b39 167b 40bb 8f15 76ba
000000e0: e985 b63a e9b2 adb9 55ad 263a f38e 2a39
000000f0: ed1f fa3a e044 e6b8 c225 2cba 396f d438
00000100: cd41 0a39 41c3 16bb affc 1dba 0630 ef39
00000110: 89b2 fc3a aecd 2539 2d99 23bb d2c3 4439
00000120: 8f1f cdb8 3c7a e539 a608 3539 8a8a 04bb
00000130: 0823 9fba 58fb 0fbb d72c 2cba 7d7f 7439
00000140: 4453 a53a 7e6d 3b3b 71b5 11bb 8e98 ac38
00000150: dd7d f1ba 7c5b 383a 421e 3d38 69fa 303b
00000160: 52d1 2fba 1a45 72b9 2740 d239 c14e 33ba
00000170: e811 ab3a 490e 1eb9 452a d4b9 6812 0eba
00000180: cff1 363a 4d16 bf3a 5bd8 5d3a cf2a dab9
00000190: 5174 4cb9 32b5 56ba ae0c fe3a 3235 ba39
000001a0: f75e 32ba e209 6db9 0aa7 fdb8 3ce8 8539
000001b0: 90f9 dc3a 7c91 d5ba 3861 da3a 935c 34ba
000001c0: 2a95 01bb e33a ba38 3b99 eeb9 d48f 19bb
000001d0: 03fe 7a3a a7c8 ceb9 4df4 d0ba 709b 203a
000001e0: b54a b539 c765 9b3a 4180 37b8 7714 69ba
000001f0: e820 62b8 1aa8 813a 8789 95ba 6a53 08bb
-0.0035080567 0.0014861659 -0.00040268802 -0.0007185883 -0.00018055883 9.664586e-05 0.00086242676 0.00011844128
0.001658537 -0.00014819915 0.0010722133 8.451505e-05 -0.00043722137 0.0012724411 6.6450906e-05 -0.001577851
0.00044068674 -0.00027947177 0.001067996 0.0009165845 -0.0005907731 -0.00045436516 0.0018041859 0.0021330696
0.0002695298 0.0006965587 -0.0009019543 0.0012897559 -9.063988e-05 -0.0008535468 0.0006282975 -0.0011087571
7.722119e-06 0.0010046146 0.001302413 -0.0017116221 -0.0004898124 0.0010066581 0.00093494315 -0.00059185026
-0.00022923561 -0.0018842019 7.571862e-05 -0.0003164663 -0.00034006848 -0.0005995896 0.0002904228 -0.0008709658
-0.0009323408 -0.0012455666 0.00060348096 0.00027968688 -0.0013758686 0.00016376728 -0.002937024 -0.0009387368
0.0013925406 -0.0003313043 0.0006358226 0.00016265716 0.0019083001 -0.000109800836 -0.00065669056 0.000101296646
0.00013185218 -0.0023004564 -0.00060267275 0.00045621413 0.0019279282 0.00015812248 -0.0024963126 0.00018764965
-9.78104e-05 0.00043769355 0.00017264727 -0.0020224177 -0.0012141177 -0.002196988 -0.0006567961 0.00023317146
0.0012613316 0.0028599198 -0.0022233392 8.230015e-05 -0.0018424351 0.0007032675 4.508929e-05 0.0027004725
-0.00067069114 -0.00023104661 0.00040102119 -0.00068400434 0.0013051601 -0.00015073376 -0.00040467284 -0.0005419613
0.00069787813 0.001457879 0.00084627204 -0.00041612095 -0.00019498287 -0.00081904524 0.0019382441 0.00035516318
-0.0006804312 -0.00022605763 -0.000120950936 0.00025540765 0.0016859043 -0.0016293968 0.0016661054 -0.000688025
-0.0019772747 8.88014e-05 -0.00045509063 -0.0023431676 0.0009574594 -0.0003944088 -0.0015941948 0.00061266776
0.0003457867 0.0011855894 -4.3750046e-05 -0.0008891294 -5.3913245e-05 0.0009892017 -0.0011408784 -0.0020801672

network_body._body_endoder.seq_layers.2.weight f4 [128, 128]
00000000: 26ce d9bd 0333 e53b 84d9 df3d 8a28 d7bd
00000010: 625a f2bd 0eef 2d3e 3e2b 1abe 8de4 febd
00000020: bfa6 8abb 9620 563d a6d2 34be 8124 4f3c
00000030: 6607 40bd ead0 2dbd 0712 cebd f0bd 323e
00000040: 3480 e0bd 08bd d73d fb72 b63c 5674 e03c
00000050: ed2e 82bd 0075 bcbd fa11 a9bd fedd 433c
00000060: 07c9 653d 3c31 41bd 89bd 423d c8a7 8d3d
00000070: 844a 343c 3e7e 23be e9ce e5bd 283b 21bc
00000080: 9524 e0bb 1258 5c3d ec8d 223e 5b59 0abe
00000090: 189d 45be baf9 e53d 7f5e 7ebd f408 cebc
000000a0: 7581 863d 77a0 adbd c1da ee3d 6f1e 703d
000000b0: 1e61 973b ec3f 59be 5669 003e 5cc2 d23d
000000c0: 2783 a7bd 4a58 a83a 47f0 f6bd d70c 3bbd
000000d0: 2dd2 a5bd 8075 b3bd 5772 cc3d 477c 01bc
000000e0: ed77 0e3e 1435 fabc a2c6 a23d 063f ddbd
000000f0: 252e 20bd fe8a 20bd 6c68 e9bd a58f 383d
00000100: 9b0b 1b3e 7623 b3bd 9118 31ba a427 43bc
00000110: f563 1cbd 1bd0 0d3d d39a 1a3d 7101 59be
00000120: 3da0 d73c 5aee 813e 68fe 1bbe 7f35 263c
00000130: bf82 39bd a02e b03d 4a79 123e cfd2 283e
00000140: 04ed 16bd abec 83ba 9064 1fbb 3b73 1f3c
00000150: fa3c a53c a36b ce3d b0b3 57bc c691 0dbe
00000160: 515f a43c ed70 b43d 71e3 a73d b310 41bd
00000170: 6fb7 8d3d e5f3 3a3d b369 26bc 4c1d 253d
00000180: 1845 d5bc 10a8 4a3d d142 ca3b 2263 ccbc
00000190: 8976 913d d5e9 eb3c d200 5abd 79d5 debc
000001a0: 2476 cc3d c1e0 a9bd 1916 6abd cde7 8abd
000001b0: c3f1 eb3c 383b c0bd 4ca0 a5bd 4c42 94bc
000001c0: e8ea 17be 765a 053d f8b7 413e 6883 9f3d
000001d0: 0b7f 633e b32b 77bc 55bd deb8 11eb b53d
000001e0: 9b96 62bd f7ba 3fbd 110c d9bd 3492 ecbd
000001f0: 6490 40bd 0e93 fa3c 01a7 22be f9db 1abd
00000200: ff6e a13c 6f24 06bd d0f2 843d c94d 2b3e
00000210: 34f5 06be 9cea 13bd b156 443d 6e1c 25bd
00000220: 51cc ad3d 959d c53d 6c7b 75bd 2c26 573e
00000230: 2091 b7bd 6930 2dbe a69e 3dbd f8b1 fb3d
00000240: c554 7d3d 8cce 01be f787 803e c8ec 1cbd
00000250: eb4e e33d 52a0 c5bd 0599 a63d 4ca0 2a3d
00000260: ce3b 33be 5bfa 193e cca6 f23c aea5 113e
00000270: 7315 6dbc 1974 7abd 7fd9 1a3c 872c 0b3c
00000280: a856 d2bd d9bf 93bd f051 33bd 5b05 c93d
00000290: 86b7 90bc 2ded aebd d091 0cbe 76ee 07bd
000002a0: 3dab da3d df12 853d fab6 1b3e 15dc 7bbd
000002b0: 3388 123d 085f 3f3d 39b7 58bc 7e2a 1c3d
000002c0: 7080 f43d 69af f43c 42bb 08bd eae2 c9bd
000002d0: d7c4 433e d1d8 f6bc dc56 423d a1ec 483d
000002e0: 215d 29be 1215 923d 32be 12be daee 83bd
000002f0: b3c4 f73d c74a acbd c7fa 8f3d 76f1 e73d
00000300: b8a1 033b d019 033c 7dd6 02bd 5711 05be
00000310: 101e 043e b450 a23a 080b 26bd 4a96 8ebd
00000320: 913a 333e 916a 8f3e 385e efbc c610 36be
00000330: ff7e d2bd 7ce0 d03d 1b52 673c 343f 873c
00000340: 8618 b03c f615 ae3d 75fc 38be 277a 97bb
00000350: eeb9 833c 5375 daba 7653 52be 67d9 f2bd
00000360: 7843 81bd bd5d f7bc cf7f 5dbc 35e8 3ebe
00000370: 6865 f2bd 8466 5a3d 3530 993d 1420 6ebd
00000380: d4b4 02bd ade1 1fbc a696 eebd e25b 86bd
00000390: 9ece f83d 5126 a9bd 2b83 bf3d 760a ad3d
000003a0: 1f81 babd f119 e9bd 9160 1e3e f9e9 7cbd
000003b0: 8a06 09bd 9c39 5cbe 3a83 323d adf2 a4bd
000003c0: 6853 9a3a 2f01 af3c cfd0 34bb 3f31 ce3c
000003d0: ccf1 2b3c 2196 76bc 6171 3bbc 45d1 ad3a
000003e0: f407 bc3d eb3c cbbd 6f00 52bc 6359 e2bc
000003f0: 9b9e 853d 2587 31be 0bc6 0d3e dcca a83c
-0.10635023 0.0069946065 0.1093016 -0.10505779 -0.118336454 0.16985723 -0.15055558 -0.12445936
-0.0042313035 0.05227717 -0.17658481 0.012642981 -0.046882056 -0.042435564 -0.10062032 0.17455268
-0.10961953 0.10534102 0.022271624 0.027399223 -0.06356607 -0.092020035 -0.08255382 0.0119547825
0.056099918 -0.047166094 0.047544036 0.06916767 0.011004094 -0.15966126 -0.112211056 -0.009840764
-0.0068402984 0.053794928 0.15874451 -0.13510649 -0.19298208 0.11229272 -0.062101837 -0.025150754
0.06567661 -0.08477872 0.11662818 0.058622774 0.0046197316 -0.2121579 0.12540182 0.10290977
-0.08179312 0.0012843695 -0.12057548 -0.045666542 -0.080967285 -0.08762646 0.09982746 -0.007903165
0.13912936 -0.030542888 0.079480425 -0.108030364 -0.039106507 -0.039195053 -0.1139687 0.045058865
0.15141146 -0.08746998 -0.0006755675 -0.0119113065 -0.038181264 0.034622293 0.037745308 -0.21191956
0.026321525 0.2537716 -0.15233767 0.01014459 -0.045290705 0.08602643 0.1430408 0.16486667
-0.03684713 -0.0010065039 -0.0024321415 0.009732063 0.020170677 0.10079124 -0.013165399 -0.1382514
0.020064982 0.088106014 0.08197678 -0.047135066 0.06919753 0.045642752 -0.010157037 0.040311143
-0.026033923 0.049476683 0.006172516 -0.024949614 0.07102687 0.028798023 -0.05322344 -0.027201401
0.09983471 -0.082948215 -0.05714998 -0.06782494 0.028801804 -0.09386295 -0.08087215 -0.018098019
-0.14835703 0.032556973 0.18917835 0.07788736 0.22216432 -0.015086102 -0.00010621051 0.08882726
-0.05531941 -0.046809163 -0.105980046 -0.115513235 -0.0470127 0.0305877 -0.1588402 -0.03780744
0.019706247 -0.03274959 0.06491625 0.16728891 -0.13179475 -0.036112413 0.047934238 -0.040310316
0.08486236 0.09649197 -0.059932157 0.21010655 -0.08963227 -0.16912998 -0.046293877 0.12289804
0.06184842 -0.12676448 0.25103733 -0.03831175 0.11099037 -0.09649719 0.08134655 0.041656777
-0.17503282 0.1503691 0.02962055 0.14223358 -0.014470446 -0.061145876 0.009451269 0.008494503
-0.102704346 -0.072143264 -0.043779314 0.098154746 -0.017665636 -0.085413314 -0.13727498 -0.0331864
0.10677192 0.0649774 0.15206519 -0.061489183 0.03577442 0.04672149 -0.013227277 0.03812646
0.1193856 0.029868798 -0.033381708 -0.098577335 0.19118057 -0.030132683 0.047446117 0.049053792
-0.16539432 0.07132925 -0.14330366 -0.06442042 0.12098064 -0.084127 0.07030254 0.11325352
0.0020085406 0.00800176 -0.031942833 -0.12994896 0.12902093 0.001238367 -0.040537864 -0.06962259
0.1750281 0.2801099 -0.029219732 -0.17779836 -0.10278129 0.10199067 0.014118697 0.01650963
0.021496069 0.085002825 -0.18065055 -0.004622716 0.01607987 -0.0016667045 -0.2053965 -0.118578725
-0.06311697 -0.030196065 -0.0135192415 -0.18643267 -0.11835748 0.053320423 0.07479898 -0.05813606
-0.031910732 -0.009758395 -0.11649828 -0.06560494 0.12148784 -0.082592614 0.0935119 0.08449261
-0.09106659 -0.11381901 0.15466525 -0.06174657 -0.0334535 -0.21506351 0.04358218 -0.08054099
0.0011774125 0.02136287 -0.002759028 0.025169967 0.010494661 -0.015050442 -0.011440606 0.001326122
0.091812044 -0.099237286 -0.012817486 -0.027630514 0.06524392 -0.1733671 0.13845079 0.020604543
