results/MoveTest/MoveTest/MoveTest-2290.onnx (onnx, 203177 bytes, 14 tensors)

action_model._continuous_distribution.log_sigma f4 [1, 2]
0	0x00000000	0.0
1	0x00000000	0.0

action_model._continuous_distribution.mu.bias f4 [2]
0	0x00000000	0.0
1	0x00000000	0.0

action_model._continuous_distribution.mu.weight f4 [2, 128]
0	0x3babec75	0.0052466937
1	0xbd6064f3	-0.054783773
2	0x3d0cd56f	0.034383234
3	0x3c01f74b	0.007932494
4	0x3ca8316e	0.020531382
5	0x3c0259c6	0.007955974
6	0x3d012f8a	0.031539477
7	0x3c30bb74	0.01078688
8	0xbd3998df	-0.045311805
9	0xbc662e78	-0.014049165
10	0x3cae713b	0.021294227
11	0xbc47e2a0	-0.012200028
12	0x3d63c623	0.05560888
13	0xbc8f29ac	-0.017475925
14	0xbc30b7d0	-0.010786012
15	0xbc50ae53	-0.012736875
16	0xbd046c94	-0.03233011
17	0xbc5839f5	-0.013197412
18	0xbb72fc98	-0.0037076827
19	0x3c52773f	0.012845813
20	0xbca4f58c	-0.020136617
21	0x3c7e9083	0.015537384
22	0x3bb1267d	0.0054061995
23	0xbcd54fba	-0.026038993
24	0x3a99f5a2	0.0011746178
25	0xbc04862d	-0.008088631
26	0xbb2efe94	-0.0026702033
27	0xbc937a4c	-0.018002652
28	0x3a7a257d	0.00095423294
29	0xbccbc98f	-0.024876384
30	0xbbc3fd2f	-0.0059811096
31	0xbd152c27	-0.03641906
32	0xbcbd174f	-0.023082403
33	0x3bcc4803	0.0062341704
34	0x3d0e2feb	0.034713667
35	0xbc1a46eb	-0.009416322
36	0xbca13d97	-0.019682689
37	0x3d0a3013	0.033737253
38	0xbba0aa9c	-0.0049031507
39	0xbbfc4005	-0.0076980614
40	0xbcc6bad9	-0.024259018
41	0x3c413c9f	0.011794238
42	0x3ca1a1d9	0.019730495
43	0xba7f22bf	-0.00097326556
44	0x3c493fc7	0.012283272
45	0x3d0d91b7	0.034562793
46	0x3d082dfb	0.033246975
47	0x3cac52ac	0.021035515
48	0x3c5e25e7	0.013558841
49	0xbab52e7a	-0.0013823055
50	0x3c19ade3	0.009379837
51	0xbc06880f	-0.00821115
52	0xbc6cc5d0	-0.014451459
53	0xbcb49662	-0.022044364
54	0xbb4e3978	-0.003146736
55	0xbb2baeb5	-0.0026196663
56	0xbbb596f2	-0.0055416757
57	0xbcc908bb	-0.024540296
58	0xbc6181c2	-0.013763847
59	0xba63c34d	-0.0008688465
60	0x3c8cc2bc	0.0171827
61	0xbc447c41	-0.011992515
62	0x3cdf1f63	0.027236646
63	0x3c4ca872	0.012491332
64	0x3c75b533	0.014996815
65	0xbcb6519b	-0.02225571
66	0xbcfc176b	-0.030772885
67	0x3cac3668	0.021022037
68	0x3ba450bc	0.005014507
69	0xbcd12c2f	-0.025533764
70	0x3c91b578	0.017786726
71	0xbc103a9e	-0.008803038
72	0xbcc5a5c3	-0.024126893
73	0xbc95b65d	-0.018275434
74	0xbc90b43f	-0.017664073
75	0xbbe9518a	-0.007120316
76	0xbc3927f7	-0.011301032
77	0x3bb24010	0.0054397658
78	0xbc4a22d2	-0.012337403
79	0x3c684657	0.014176927
80	0x3cce2ba8	0.025167301
81	0x3c6b1360	0.014347881
82	0x3bc3a670	0.0059707686
83	0xbc8e332c	-0.017358385
84	0x3b2d391a	0.002643174
85	0xbc0bacbb	-0.008525069
86	0xbcc22291	-0.023698123
87	0xbcf3e0c3	-0.02977026
88	0x3c6ad43a	0.014332825
89	0x3c888e3d	0.016669387
90	0x3d12f1e4	0.035875216
91	0x3b83c0c0	0.0040207803
92	0xbb136341	-0.002248958
93	0x3bff5daa	0.007793148
94	0x3caf3a93	0.021390235
95	0xbb210b34	-0.0024573328
96	0x3bed8622	0.007248656
97	0xbb73c65f	-0.0037197096
98	0xbc071d7b	-0.008246775
99	0x3cade8b6	0.02122913
100	0xbccad390	-0.024759084
101	0x3bcc41b6	0.0062334193
102	0x3bae83c2	0.0053257653
103	0xbb0f849a	-0.0021899105
104	0x3bfacca2	0.0076537887
105	0xb9700182	-0.00022888745
106	0x3c52bc28	0.012862243
107	0x3cd3ba92	0.0258458
108	0x3c966c0f	0.018362073
109	0x3ce98870	0.028507441
110	0x3ca2c236	0.019867998
111	0xbb46cd0a	-0.0030334615
112	0xbc1211a7	-0.008915341
113	0x3cb16615	0.021655122
114	0x3ce2080b	0.027591726
115	0x3ba87e3f	0.005142003
116	0xbbc721dd	-0.006077035
117	0xbb7376db	-0.00371497
118	0x3c081422	0.008305581
119	0x3c77774a	0.015104124
120	0x3d1e204b	0.038605016
121	0x3c3c1cca	0.011481473
122	0x3b11d53e	0.0022252346
123	0x3c08342b	0.008313219
124	0x3bb244cf	0.0054403315
125	0xbada393b	-0.0016649136
126	0x3c553940	0.013014138
127	0x3ba47fe7	0.00502013
128	0xbbd62682	-0.006535352
129	0xbc08dac8	-0.008352943
130	0x3b90d71e	0.004420175
131	0xbb4d7887	-0.0031352357
132	0x3b11b997	0.0022235864
133	0x3c29fee2	0.01037571
134	0x3ba13f74	0.0049208943
135	0xbbec87e2	-0.007218347
136	0xbc006861	-0.007837386
137	0x3c8c9ca3	0.017164534
138	0xbc470115	-0.012146254
139	0x3c51b92b	0.012800495
140	0xbc975951	-0.018475207
141	0x3c212344	0.009835068
142	0xb9da4a3f	-0.00041635518
143	0xbb345c11	-0.0027520696
144	0x3b9af2b7	0.004728641
145	0xbbe10918	-0.006867539
146	0x39f1b0e5	0.000460989
147	0xbc269ec4	-0.010169689
148	0x3ceeec32	0.029165361
149	0xbc21f0fe	-0.009884117
150	0x3ca7acbf	0.020468114
151	0xbbaf821a	-0.0053560855
152	0x3bfe10e5	0.007753479
153	0xbc573cc8	-0.01313705
154	0x3c0633b6	0.00819104
155	0x3c008c7d	0.007845995
156	0x3c354b6d	0.011065346
157	0xbb0d1613	-0.002152805
158	0x3c67819d	0.014130023
159	0xbc08404f	-0.008316114
160	0xb9c42aa6	-0.0003741581
161	0xbc53ebca	-0.012934634
162	0x3bfe31e0	0.0077574104
163	0x3c06506f	0.008197888
164	0x3b047b8b	0.002021524
165	0x3cf81a5a	0.030286003
166	0x3b11b0bc	0.0022230586
167	0xbc9cc799	-0.019138144
168	0x3ccc422b	0.024933895
169	0x3ccc8741	0.024966838
170	0x3bd3927d	0.0064566717
171	0xbce8c42b	-0.028413853
172	0x3c97de1c	0.018538527
173	0xbc96f2f5	-0.018426398
174	0x3cf073c2	0.029352073
175	0x3cb36eaf	0.021903364
176	0xbc977f5b	-0.018493345
177	0x3bf4c89b	0.007470203
178	0x3c5af40a	0.0133638475
179	0x3adf28f5	0.0017025756
180	0x3c83ac73	0.016073441
181	0xb951ac0a	-0.00019995883
182	0x3d0a5237	0.033769812
183	0x3b955d98	0.0045582764
184	0xbc6459f0	-0.013937458
185	0xbaa6ec7b	-0.0012735272
186	0xbc1c4e93	-0.009540218
187	0x3cdb48e8	0.026768163
188	0xbc67f0cb	-0.014156531
189	0x3c15b5c9	0.009137579
190	0xbcf730c3	-0.030174619
191	0xbc524bfa	-0.012835497
192	0x3c2af342	0.010433974
193	0x3c481c1f	0.012213736
194	0xbc27b98d	-0.01023711
195	0xbb82f53e	-0.0039965203
196	0xbbc7ef42	-0.00610152
197	0xbd12085d	-0.035652507
198	0xbc925955	-0.017864862
199	0x3b9ae28b	0.004726713
200	0x3c51b6f7	0.01279997
201	0xbb7dcf6b	-0.0038728367
202	0x3cc5cf45	0.024146685
203	0x3c7e09ca	0.015505264
204	0x3b0075e8	0.0019601528
205	0x3c73f700	0.014890432
206	0xbb1f6332	-0.00243206
207	0x3bbbdb40	0.0057329237
208	0x3ca2ddd5	0.019881168
209	0x3bd44c43	0.0064788177
210	0xbae6756b	-0.0017582601
211	0xba9a5a93	-0.0011776261
212	0xbbe5f820	-0.007018104
213	0x3a2dcc9f	0.0006629917
214	0x39940ca1	0.0002823817
215	0x3ae41957	0.0017402571
216	0xbc7ba9a8	-0.015360273
217	0xbc7b324b	-0.015331815
218	0x3cfef0d0	0.031120688
219	0x3cdab128	0.026695803
220	0xbcbe80b2	-0.023254726
221	0x3d7a1588	0.06105569
222	0x3bdfc187	0.00682849
223	0xbae3b612	-0.0017372987
224	0xbc193be6	-0.00935266
225	0xbc9c3b8d	-0.019071365
226	0xbba74084	-0.0051041264
227	0xbaf1f56f	-0.0018459986
228	0xbbefb99b	-0.007315827
229	0xbd206a7b	-0.039164048
230	0x3c9499c3	0.018139726
231	0x3b85c7b6	0.0040826453
232	0x3c2514f3	0.010075795
233	0xbbf0d450	-0.0073495284
234	0x3c7cc33b	0.015427406
235	0x3c3384b5	0.010956933
236	0x3cd3bb1f	0.025846062
237	0xbca6f267	-0.020379258
238	0x3cb36724	0.021899767
239	0x3cf08bdf	0.02936357
240	0xbca30de9	-0.019904094
241	0xbccf2422	-0.025285784
242	0xbbd73e7f	-0.0065687294
243	0xbb40b802	-0.0029406552
244	0x3c0b923f	0.0085187545
245	0x3c94efe9	0.018180804
246	0xbc98051c	-0.018557124
247	0xbcccfdff	-0.025023459
248	0xbd11a9b7	-0.035562243
249	0x3c7d14fb	0.015446897
250	0xbc537a93	-0.012907642
251	0xbc467873	-0.012113678
252	0x3b019983	0.0019775338
253	0x3bfe092d	0.0077525587
254	0x3cab2f1e	0.02089649
255	0xba8b0ee7	-0.00106093

action_model._discrete_distribution.branches.0.weight f4 [1, 128]
0	0xbc37a541	-0.011208833
1	0xbb76c198	-0.0037652012
2	0xbc070dbd	-0.008243022
3	0x3b1f401b	0.0024299684
4	0x3c428bca	0.011874149
5	0x3ac0485c	0.0014670002
6	0x3b1c28ab	0.002382795
7	0xbbd760e3	-0.006572829
8	0x3b338b38	0.0027396213
9	0xbb5e462d	-0.003391634
10	0xbb9e80c4	-0.0048371274
11	0xbb25ca95	-0.002529775
12	0x3b932bc0	0.0044912994
13	0xba883d4b	-0.0010394243
14	0x3c1087f3	0.008821475
15	0xbc27107b	-0.0101968
16	0x3c1fae93	0.009746212
17	0x3bc17e2b	0.005904933
18	0xbc84c20d	-0.016205812
19	0x3bad5997	0.005290221
20	0x3a977a7d	0.001155689
21	0xbbec4363	-0.0072101816
22	0xbab56350	-0.0013838802
23	0xbbad1a75	-0.005282695
24	0x3be96217	0.007122289
25	0xbaac7320	-0.0013156869
26	0x3c3b42a8	0.011429466
27	0xbb274316	-0.0025522164
28	0x3c0b5597	0.008504293
29	0xbb98f060	-0.004667327
30	0xbc4d0ea7	-0.0125157
31	0xbba409a7	-0.0050060335
32	0xbb1128be	-0.0022149528
33	0x3b9f8850	0.0048685446
34	0x396dd452	0.00022681177
35	0xbae0f29a	-0.0017162145
36	0x3b564f9f	0.0032701266
37	0xbc1bc7bd	-0.009508071
38	0x3c6a4e97	0.014300964
39	0x3b8412bd	0.004030554
40	0x3785b48b	1.5938907e-05
41	0xbc1a25d5	-0.009408434
42	0x3bfc8a2a	0.0077069
43	0x3b835010	0.004007347
44	0xbc25be4f	-0.010116174
45	0xbb8161fa	-0.0039484473
46	0x3c440ce3	0.011965963
47	0x3ba8b49f	0.005148485
48	0xbc3404c7	-0.010987467
49	0xbcb0b679	-0.021571385
50	0xbbe523f0	-0.0069928095
51	0x3ade4215	0.001695695
52	0xbc23581b	-0.009969736
53	0x3c52ad1d	0.012858656
54	0xb81a143b	-3.6735302e-05
55	0xbb9b5b0e	-0.004741079
56	0xbc29a2af	-0.010353728
57	0x3c45da4f	0.012075975
58	0xbb010ff8	-0.0019693356
59	0x3bf9a7c0	0.0076188743
60	0xbbdbf4d0	-0.0067125335
61	0xbbd2b4c0	-0.0064302385
62	0xbb962cc3	-0.0045829727
63	0x3b87a61a	0.004139674
64	0xbafd8d70	-0.001934452
65	0xbba3c4a8	-0.0049978085
66	0xbba6b47f	-0.005087435
67	0x3b3b369f	0.0028566492
68	0xbc149f5b	-0.009071196
69	0x3bacdeba	0.0052755745
70	0xbbc92c49	-0.0061393124
71	0x3c0336c0	0.008008659
72	0x3baf89d7	0.005357008
73	0x3bb3a6cf	0.0054825316
74	0xbba06764	-0.0048951376
75	0x38aa3ede	8.1179416e-05
76	0xb9a8ddea	-0.00032208796
77	0x3ca08f2f	0.019599525
78	0xbc552297	-0.013008735
79	0xbad346a5	-0.0016119076
80	0x3aeb262d	0.0017940454
81	0x3b577f2f	0.0032882204
82	0xbbeb193b	-0.0071746386
83	0x3c0d029f	0.008606582
84	0xbc4bf238	-0.012447886
85	0xbae25b30	-0.0017269608
86	0xbc817426	-0.015802454
87	0xbc55a112	-0.01303889
88	0x3c30061f	0.010743647
89	0x3bb5acc8	0.005544279
90	0xb92442ad	-0.00015665097
91	0xbba2942d	-0.0049615116
92	0x39a1f77c	0.00030892703
93	0xbbcdf350	-0.0062851086
94	0xbc0f007b	-0.008728142
95	0xbba5bfec	-0.0050582793
96	0xbbe5b50b	-0.0070101074
97	0xbae906e5	-0.0017778544
98	0xbb887923	-0.0041648312
99	0xbb63bedb	-0.003475121
100	0xbb492b43	-0.0030695952
101	0xbb57d435	-0.0032932882
102	0x3c493524	0.012280736
103	0xbc15b7df	-0.009138077
104	0x3a039780	0.00050198287
105	0x3bbc8e74	0.0057542864
106	0x3c6fd885	0.014639025
107	0x3bb5e45f	0.0055509056
108	0x391b6a17	0.00014821473
109	0xbcb0d41d	-0.021585518
110	0xbabd6527	-0.0014449701
111	0xbc220970	-0.009889945
112	0xbc191f4b	-0.00934584
113	0x3cab86bb	0.020938268
114	0xbc9f7aff	-0.019467829
115	0xbc304807	-0.01075936
116	0xbc294afa	-0.010332817
117	0xbbec7d0d	-0.0072170557
118	0xbc9ee044	-0.019394048
119	0x3bf439eb	0.0074531934
120	0x3c49c9fc	0.012316223
121	0x3b27c5ff	0.0025600193
122	0x3b8d5c76	0.0043140007
123	0x3c023511	0.007947222
124	0x3bb48fc6	0.005510303
125	0x3c5c0662	0.013429256
126	0x3bfa92f2	0.007646912
127	0xbb15c799	-0.0022854565

network_body._body_endoder.seq_layers.0.bias f4 [128]
0	0x00000000	0.0
1	0x00000000	0.0
2	0x00000000	0.0
3	0x00000000	0.0
4	0x00000000	0.0
5	0x00000000	0.0
6	0x00000000	0.0
7	0x00000000	0.0
8	0x00000000	0.0
9	0x00000000	0.0
10	0x00000000	0.0
11	0x00000000	0.0
12	0x00000000	0.0
13	0x00000000	0.0
14	0x00000000	0.0
15	0x00000000	0.0
16	0x00000000	0.0
17	0x00000000	0.0
18	0x00000000	0.0
19	0x00000000	0.0
20	0x00000000	0.0
21	0x00000000	0.0
22	0x00000000	0.0
23	0x00000000	0.0
24	0x00000000	0.0
25	0x00000000	0.0
26	0x00000000	0.0
27	0x00000000	0.0
28	0x00000000	0.0
29	0x00000000	0.0
30	0x00000000	0.0
31	0x00000000	0.0
32	0x00000000	0.0
33	0x00000000	0.0
34	0x00000000	0.0
35	0x00000000	0.0
36	0x00000000	0.0
37	0x00000000	0.0
38	0x00000000	0.0
39	0x00000000	0.0
40	0x00000000	0.0
41	0x00000000	0.0
42	0x00000000	0.0
43	0x00000000	0.0
44	0x00000000	0.0
45	0x00000000	0.0
46	0x00000000	0.0
47	0x00000000	0.0
48	0x00000000	0.0
49	0x00000000	0.0
50	0x00000000	0.0
51	0x00000000	0.0
52	0x00000000	0.0
53	0x00000000	0.0
54	0x00000000	0.0
55	0x00000000	0.0
56	0x00000000	0.0
57	0x00000000	0.0
58	0x00000000	0.0
59	0x00000000	0.0
60	0x00000000	0.0
61	0x00000000	0.0
62	0x00000000	0.0
63	0x00000000	0.0
64	0x00000000	0.0
65	0x00000000	0.0
66	0x00000000	0.0
67	0x00000000	0.0
68	0x00000000	0.0
69	0x00000000	0.0
70	0x00000000	0.0
71	0x00000000	0.0
72	0x00000000	0.0
73	0x00000000	0.0
74	0x00000000	0.0
75	0x00000000	0.0
76	0x00000000	0.0
77	0x00000000	0.0
78	0x00000000	0.0
79	0x00000000	0.0
80	0x00000000	0.0
81	0x00000000	0.0
82	0x00000000	0.0
83	0x00000000	0.0
84	0x00000000	0.0
85	0x00000000	0.0
86	0x00000000	0.0
87	0x00000000	0.0
88	0x00000000	0.0
89	0x00000000	0.0
90	0x00000000	0.0
91	0x00000000	0.0
92	0x00000000	0.0
93	0x00000000	0.0
94	0x00000000	0.0
95	0x00000000	0.0
96	0x00000000	0.0
97	0x00000000	0.0
98	0x00000000	0.0
99	0x00000000	0.0
100	0x00000000	0.0
101	0x00000000	0.0
102	0x00000000	0.0
103	0x00000000	0.0
104	0x00000000	0.0
105	0x00000000	0.0
106	0x00000000	0.0
107	0x00000000	0.0
108	0x00000000	0.0
109	0x00000000	0.0
110	0x00000000	0.0
111	0x00000000	0.0
112	0x00000000	0.0
113	0x00000000	0.0
114	0x00000000	0.0
115	0x00000000	0.0
116	0x00000000	0.0
117	0x00000000	0.0
118	0x00000000	0.0
119	0x00000000	0.0
120	0x00000000	0.0
121	0x00000000	0.0
122	0x00000000	0.0
123	0x00000000	0.0
124	0x00000000	0.0
125	0x00000000	0.0
126	0x00000000	0.0
127	0x00000000	0.0

network_body._body_endoder.seq_layers.0.weight f4 [128, 134]
0	0x3dcbd487	0.09952646
1	0xbdd8d1c2	-0.10586883
2	0x3d55d23a	0.05220244
3	0x3d7d8291	0.061892096
4	0x3d8349e9	0.064105816
5	0xbe2d2b18	-0.1691097
6	0x3d7a3c8e	0.061092906
7	0xbd5c217c	-0.05374287
8	0xbc9f5ad9	-0.0194525
9	0x3d9f4d97	0.07778471
10	0xbce4684a	-0.02788176
11	0xbd97cfed	-0.074127056
12	0xbd43f0ea	-0.047837175
13	0x3d0cdb85	0.034389038
14	0xbce880a2	-0.02838165
15	0x3e0b1d50	0.135854
16	0x3db8494b	0.089983545
17	0xbc443e44	-0.011977736
18	0x3d2e58db	0.042565208
19	0x3d5b7b6b	0.053584497
20	0x3cca043b	0.02466022
21	0xbd880b90	-0.0664283
22	0x3d800266	0.062504575
23	0x3cc55042	0.024086121
24	0x3dd2d60c	0.102947325
25	0xbd460d52	-0.048352547
26	0xbd589e77	-0.0528855
27	0xbdcae791	-0.09907449
28	0x3c3681bd	0.01113933
29	0xbdafd84c	-0.08586177
30	0x3e34d1d7	0.17658173
31	0xbdaf3d14	-0.085565716
32	0xbc292c04	-0.010325436
33	0xbc90a36a	-0.017656047
34	0x3d9bda2d	0.07609973
35	0xbd88869b	-0.06666299
36	0x3d6de71c	0.05808173
37	0x3c6cd5a8	0.0144552365
38	0x3d28cd29	0.04121128
39	0x3d48b726	0.04900279
40	0x3dbeb60f	0.09312069
41	0xbd97a327	-0.07404166
42	0xbde76115	-0.11297814
43	0x3d54e7c4	0.05197884
44	0x3e18fe82	0.14940837
45	0x3c1758b8	0.009237461
46	0x3d74eb01	0.05979443
47	0xbc93890d	-0.018009687
48	0xbe48795f	-0.1957755
49	0x3d5e33ab	0.054248493
50	0xbbf622bb	-0.0075114644
51	0xbe2900bb	-0.16504185
52	0xbc59906b	-0.013279061
53	0x3dda4130	0.10656965
54	0x3d568300	0.052371025
55	0x3d1e96ef	0.03871816
56	0x3d878573	0.0661725
57	0xbdf9e7f7	-0.12202447
58	0x3c1d0b77	0.009585253
59	0x3d626cbe	0.055279486
60	0xbd9ba68a	-0.07600124
61	0xbd1738e9	-0.036919508
62	0x3d87c714	0.06629768
63	0x3dc61cfa	0.096734956
64	0x3d82cb19	0.06386394
65	0xbdcf1b99	-0.10112686
66	0xbc82976a	-0.01594134
67	0x3d799e57	0.06094202
68	0x3df3a704	0.1189709
69	0x3c0a6978	0.008447997
70	0x3b970393	0.0046085804
71	0xbdce213d	-0.100649334
72	0xbd8f0feb	-0.06985458
73	0x3d768e60	0.060194373
74	0xbe1a3009	-0.15057386
75	0x3dc4ef1f	0.09615921
76	0x3ccba839	0.024860488
77	0xbd17d7d8	-0.03707108
78	0x3d9a9aa9	0.0754903
79	0xbcee689e	-0.02910262
80	0x3dc7dd12	0.09758963
81	0xbda83cd9	-0.08214731
82	0x3dde29dc	0.10847828
83	0x3dab3cab	0.08361181
84	0xba461e84	-0.0007557648
85	0xbc33fa42	-0.010984959
86	0x3d8d355f	0.06894945
87	0x3d8311bb	0.06399866
88	0x3c936730	0.01799354
89	0xbd343fa4	-0.044006005
90	0x3d2c28dc	0.042031154
91	0x3d7a55f5	0.06111713
92	0x3ce653e6	0.028116178
93	0x3e24cb4e	0.1609318
94	0xbc511b7f	-0.012762903
95	0xbda10eb7	-0.07864135
96	0x3dea83e7	0.114509396
97	0xbe0c485b	-0.13699476
98	0x3d8d9a61	0.06914211
99	0x3db95e94	0.090512425
100	0x3d1d71d3	0.03843863
101	0x3d845ed5	0.064634
102	0x3d74aece	0.05973702
103	0x3d9023b4	0.0703806
104	0x3d86ff5f	0.06591677
105	0x3e6eabc9	0.23307718
106	0x3ddadcb1	0.10686625
107	0x3de1acee	0.11019312
108	0x3dc46535	0.09589616
109	0x3d98dad0	0.0746361
110	0xbdb70851	-0.08937133
111	0x3e2c3c12	0.1681979
112	0xbcf145a9	-0.029452162
113	0x3d18b0d4	0.03727801
114	0xbc185827	-0.009298361
115	0x3deed3b9	0.11661477
116	0x3d0aeed1	0.03391916
117	0x3dbfb3bc	0.093604535
118	0xbe02b602	-0.12764743
119	0xbe1ac59a	-0.15114442
120	0x3da8bae3	0.08238771
121	0x3d95a434	0.0730671
122	0x3d221864	0.039574042
123	0xbe27119f	-0.16315316
124	0xbdafdb71	-0.08586777
125	0x3e1e1e81	0.15441324
126	0x3d1689ce	0.036752515
127	0xbdc33b6c	-0.09532818
128	0xbbcf83c6	-0.0063328473
129	0x3d984e39	0.07436795
130	0xbcd36be5	-0.025808284
131	0xbdec2ced	-0.115320064
132	0xbd8eb73c	-0.06968543
133	0xbc90221d	-0.017594391
134	0x3c0d5945	0.008627241
135	0x3d5e0659	0.054205272
136	0x3d2fac1a	0.04288874
137	0x3d190dc7	0.037366655
138	0x3d09f59d	0.0336815
139	0xbd822d5a	-0.063563064
140	0x3dfe850a	0.12427719
141	0xbd2161e2	-0.03939999
142	0x3dce0429	0.10059387
143	0xbdf9f290	-0.12204468
144	0x3ca16aa2	0.019704167
145	0x3dc76705	0.09736446
146	0x3d109a84	0.035303608
147	0xbcec43c3	-0.028840905
148	0xbdc0ef28	-0.094206154
149	0x3c56827d	0.013092634
150	0xbdfffff3	-0.1249999
151	0x3e00363a	0.12520686
152	0x3daac00e	0.08337413
153	0x3e3c0229	0.18360199
154	0xbd6e8f0d	-0.058241893
155	0xbca83348	-0.020532265
156	0xbdabb6ec	-0.08384499
157	0xbda7e777	-0.08198445
158	0x3d389a9b	0.04506932
159	0xbd0e1fa6	-0.03469815
160	0xbd03f80b	-0.032218974
161	0xbda01d96	-0.07818143
162	0xbd7d4324	-0.06183161
163	0x3d2687b0	0.040656745
164	0xbcf7b262	-0.030236427
165	0xbd4bd4c9	-0.049763475
166	0x3d8c044d	0.06836758
167	0x3dacd3b9	0.084388204
168	0x3cabc3a0	0.020967305
169	0xbced4d99	-0.028967666
170	0x3e0a4383	0.13502316
171	0xbdf5a6b5	-0.119946875
172	0xbcbc74d3	-0.023004925
173	0xbd89ff84	-0.06738189
174	0x3caa46c9	0.020785706
175	0xbc1b9be6	-0.009497618
176	0xbd94a1f2	-0.07257451
177	0x3d81cf37	0.06338351
178	0xbd91a9c2	-0.07112457
179	0x3d658530	0.05603522
180	0x3e061eb2	0.13097647
181	0xbe3f74f5	-0.1869696
182	0x3c6cc1eb	0.0144505305
183	0x3cba1ddd	0.022719318
184	0xbe5bc81c	-0.21463054
185	0x3e199793	0.14999227
186	0x3d350e78	0.04420325
187	0xbda4071d	-0.08009169
188	0x3cca3a20	0.02468592
189	0xbe72c9db	-0.23709814
190	0xbcb0b1f1	-0.021569224
191	0xbc630b06	-0.013857609
192	0xbd0b63d7	-0.03403076
193	0xbe25469c	-0.16140217
194	0x3d577cf3	0.052609395
195	0x3d74f598	0.05980453
196	0x3d057c50	0.032589257
197	0xbd39b361	-0.045337085
198	0xbdbe5534	-0.09293595
199	0x3b397d3d	0.0028303408
200	0xbbc1359f	-0.0058962847
201	0xbda57aae	-0.0808004
202	0x3c6d37ed	0.014478666
203	0x3d19b5da	0.037526943
204	0xbd61b404	-0.055103317
205	0x3d70620b	0.05868725
206	0xbe09cf12	-0.13457897
207	0xbda37364	-0.079809934
208	0xbdb108f9	-0.086442895
209	0x3c4dae1c	0.012553718
210	0x3c65bcc2	0.014022054
211	0xbc8ca6d7	-0.0171694
212	0xbb5ef20b	-0.003401878
213	0xbca76b50	-0.020436913
214	0x3dc8d5e6	0.09806423
215	0xbda2e60f	-0.079540364
216	0xbdf4f738	-0.11961216
217	0xbcc99b92	-0.024610315
218	0x3d8401e0	0.0644567
219	0x3c9e1beb	0.019300422
220	0xbe431cb1	-0.19053914
221	0xbd9070a8	-0.070527375
222	0xbd1dee20	-0.03855717
223	0x3d1f3a1e	0.038873784
224	0x3da831c4	0.08212617
225	0xbd7287b9	-0.059211466
226	0xbc263606	-0.010144716
227	0xbd28c5db	-0.041204315
228	0xbcaa7ae8	-0.02081056
229	0xbd785a5c	-0.06063305
230	0xbe6fb284	-0.23407942
231	0xbd97d1c0	-0.074130535
232	0xbd98393e	-0.07432793
233	0xbda0473e	-0.07826088
234	0x3c2b908a	0.0104714725
235	0xbd88bdd4	-0.06676832
236	0x3cdec101	0.02719164
237	0x3d98dd6f	0.0746411
238	0xbdc8dfb9	-0.09808297
239	0x3d529021	0.051406983
240	0xbd42aacb	-0.047526162
241	0xbde4292f	-0.11140668
242	0x3dc266b6	0.09492247
243	0xbd994592	-0.074839726
244	0xbcc2857e	-0.023745295
245	0x3d0c4dfa	0.03425405
246	0xbe095a24	-0.13413292
247	0xbcda8449	-0.026674407
248	0x3bcd526f	0.0062659304
249	0x3c7cb6d1	0.015424446
250	0xbcef38d2	-0.029201899
251	0x3d138313	0.036013674
252	0x3d19d7d4	0.037559345
253	0x3c59e783	0.013299826
254	0x3c9f8092	0.019470487
255	0x3db94886	0.09047036

network_body._body_endoder.seq_layers.2.bias f4 [128]
0	0x00000000	0.0
1	0x00000000	0.0
2	0x00000000	0.0
3	0x00000000	0.0
4	0x00000000	0.0
5	0x00000000	0.0
6	0x00000000	0.0
7	0x00000000	0.0
8	0x00000000	0.0
9	0x00000000	0.0
10	0x00000000	0.0
11	0x00000000	0.0
12	0x00000000	0.0
13	0x00000000	0.0
14	0x00000000	0.0
15	0x00000000	0.0
16	0x00000000	0.0
17	0x00000000	0.0
18	0x00000000	0.0
19	0x00000000	0.0
20	0x00000000	0.0
21	0x00000000	0.0
22	0x00000000	0.0
23	0x00000000	0.0
24	0x00000000	0.0
25	0x00000000	0.0
26	0x00000000	0.0
27	0x00000000	0.0
28	0x00000000	0.0
29	0x00000000	0.0
30	0x00000000	0.0
31	0x00000000	0.0
32	0x00000000	0.0
33	0x00000000	0.0
34	0x00000000	0.0
35	0x00000000	0.0
36	0x00000000	0.0
37	0x00000000	0.0
38	0x00000000	0.0
39	0x00000000	0.0
40	0x00000000	0.0
41	0x00000000	0.0
42	0x00000000	0.0
43	0x00000000	0.0
44	0x00000000	0.0
45	0x00000000	0.0
46	0x00000000	0.0
47	0x00000000	0.0
48	0x00000000	0.0
49	0x00000000	0.0
50	0x00000000	0.0
51	0x00000000	0.0
52	0x00000000	0.0
53	0x00000000	0.0
54	0x00000000	0.0
55	0x00000000	0.0
56	0x00000000	0.0
57	0x00000000	0.0
58	0x00000000	0.0
59	0x00000000	0.0
60	0x00000000	0.0
61	0x00000000	0.0
62	0x00000000	0.0
63	0x00000000	0.0
64	0x00000000	0.0
65	0x00000000	0.0
66	0x00000000	0.0
67	0x00000000	0.0
68	0x00000000	0.0
69	0x00000000	0.0
70	0x00000000	0.0
71	0x00000000	0.0
72	0x00000000	0.0
73	0x00000000	0.0
74	0x00000000	0.0
75	0x00000000	0.0
76	0x00000000	0.0
77	0x00000000	0.0
78	0x00000000	0.0
79	0x00000000	0.0
80	0x00000000	0.0
81	0x00000000	0.0
82	0x00000000	0.0
83	0x00000000	0.0
84	0x00000000	0.0
85	0x00000000	0.0
86	0x00000000	0.0
87	0x00000000	0.0
88	0x00000000	0.0
89	0x00000000	0.0
90	0x00000000	0.0
91	0x00000000	0.0
92	0x00000000	0.0
93	0x00000000	0.0
94	0x00000000	0.0
95	0x00000000	0.0
96	0x00000000	0.0
97	0x00000000	0.0
98	0x00000000	0.0
99	0x00000000	0.0
100	0x00000000	0.0
101	0x00000000	0.0
102	0x00000000	0.0
103	0x00000000	0.0
104	0x00000000	0.0
105	0x00000000	0.0
106	0x00000000	0.0
107	0x00000000	0.0
108	0x00000000	0.0
109	0x00000000	0.0
110	0x00000000	0.0
111	0x00000000	0.0
112	0x00000000	0.0
113	0x00000000	0.0
114	0x00000000	0.0
115	0x00000000	0.0
116	0x00000000	0.0
117	0x00000000	0.0
118	0x00000000	0.0
119	0x00000000	0.0
120	0x00000000	0.0
121	0x00000000	0.0
122	0x00000000	0.0
123	0x00000000	0.0
124	0x00000000	0.0
125	0x00000000	0.0
126	0x00000000	0.0
127	0x00000000	0.0

network_body._body_endoder.seq_layers.2.weight f4 [128, 128]
0	0xbcb724ea	-0.02235647
1	0xbd180f35	-0.037123878
2	0xbcab2ae6	-0.020894479
3	0xbd91de53	-0.07122483
4	0xbe01a00c	-0.1265871
5	0xbe1b646f	-0.15175031
6	0xbd0ac931	-0.033883277
7	0xbcce6eee	-0.02519938
8	0x3b71f9d7	0.0036922598
9	0x3d8c2cc7	0.06844478
10	0x3d4968bb	0.049172144
11	0x3c79c97a	0.01524579
12	0xbe3bee4c	-0.18352622
13	0xbc184d99	-0.0092958445
14	0xbe048766	-0.12942275
15	0xbcc9a5ef	-0.024615256
16	0x3da6b2bb	0.08139559
17	0xbd3b3be0	-0.045711398
18	0x39b57c51	0.00034615633
19	0x3e1a5c58	0.15074289
20	0xbe13fd94	-0.14452201
21	0xbd43651f	-0.04770386
22	0xbdacb64c	-0.08433208
23	0x3c4ba2dc	0.012428965
24	0xbe2870c9	-0.16449274
25	0xbd3c893c	-0.046029314
26	0xbca9e770	-0.02074024
27	0xbd8b9992	-0.068164006
28	0x3aa9696e	0.0012925097
29	0xbdc4cf52	-0.09609856
30	0xbb5c8505	-0.0033648622
31	0xbd00ea67	-0.031473543
32	0x3cb8ad9b	0.022543719
33	0xbe890552	-0.26761872
34	0xbdd69b21	-0.10478807
35	0x3dc2aa4e	0.09505139
36	0xbc441e85	-0.011970167
37	0xbd12bb5f	-0.035823222
38	0xba9f8a1f	-0.0012171901
39	0xbdb07e37	-0.086178236
40	0x3daab5bb	0.083354436
41	0x3de2b298	0.1106922
42	0xbdba48e3	-0.09095933
43	0xbe3dd396	-0.18537745
44	0x3e8eeacf	0.2791352
45	0xbd483ba5	-0.048885006
46	0xbd7fc342	-0.06244207
47	0xba993036	-0.0011687342
48	0xbd9dd3df	-0.07706427
49	0xbe466727	-0.19375287
50	0xbd939dd1	-0.072078355
51	0x3dadd457	0.08487766
52	0xbe358b22	-0.17728856
53	0xbdce7b64	-0.10082129
54	0x3cf070ed	0.029350722
55	0xbd852dd8	-0.065028846
56	0xbd7b966f	-0.06142276
57	0x3c473c48	0.012160368
58	0x3c89b735	0.016810993
59	0x3cb3842f	0.021913616
60	0x3c05d670	0.008168802
61	0x3e6071c3	0.21918397
62	0xbd72a983	-0.05924369
63	0xbbfc31e6	-0.007696378
64	0xbdbdf213	-0.092746876
65	0x3da9ce2c	0.08291277
66	0x3d5a04c7	0.053227212
67	0xbd2f8972	-0.042855687
68	0x3d86cc4f	0.065819375
69	0x3de1b01a	0.11019917
70	0x3c8e5103	0.017372614
71	0xbd8324b0	-0.06403482
72	0xbcb8d690	-0.022563249
73	0x3d848f7d	0.06472681
74	0xbd850bec	-0.064964145
75	0x3c9796ee	0.018504586
76	0x3bb48170	0.005508594
77	0x3da00144	0.078127414
78	0x3d5d4f57	0.054030742
79	0x3da2c179	0.07947058
80	0xbd3d0fce	-0.04615765
81	0x3cf00786	0.029300462
82	0xbccccfff	-0.025001524
83	0x3d40e52f	0.047093567
84	0xbd12f2a1	-0.03587592
85	0x3cf359ab	0.029705843
86	0xbcb89e26	-0.022536349
87	0x3df4c8da	0.11952372
88	0x3cefbdb7	0.029265268
89	0x3dce61b5	0.1007723
90	0xbbfe92fd	-0.007768987
91	0x3e63dfac	0.22253293
92	0xbc9aecdb	-0.01891177
93	0x3bc4f3b9	0.0060104993
94	0x3d7c82ca	0.061648168
95	0xbdb9cd5b	-0.090723716
96	0x3e18d385	0.14924438
97	0xbd95db5c	-0.0731723
98	0x3d016474	0.03158994
99	0xbc8e8609	-0.017397897
100	0x3de72f5f	0.11288332
101	0xbc2d8a05	-0.010591988
102	0xbdebe762	-0.11518742
103	0xbd9f8d85	-0.077906646
104	0x3d9c3a2d	0.07628284
105	0xbcaa40f7	-0.02078293
106	0xbd16016d	-0.036622453
107	0xbd2d42ea	-0.042300142
108	0xbc813e95	-0.015776912
109	0x3c04db48	0.008108921
110	0xbd21a805	-0.039466877
111	0xbdb79652	-0.08964218
112	0x3e129b11	0.14316966
113	0xba4c4c9e	-0.0007793399
114	0xbd679dff	-0.05654716
115	0x3cc32e2e	0.023825731
116	0xbe3b76df	-0.18307064
117	0xbbd760fe	-0.0065728417
118	0x3e21e5f0	0.1581037
119	0x3d76c887	0.06024983
120	0xbdbc6376	-0.09198658
121	0xbd9cb207	-0.076511435
122	0x3d227a89	0.03966764
123	0xbd686484	-0.056736484
124	0x3d992cba	0.07479234
125	0x3dc3a68a	0.09553249
126	0xbdeed4ee	-0.11661707
127	0x3be703cd	0.0070500136
128	0xbe086f0f	-0.13323615
129	0x3d1c256f	0.038121637
130	0x3d996310	0.07489598
131	0xbdf1e339	-0.118109174
132	0x3e120e81	0.14263345
133	0x3bd00587	0.006348315
134	0x3a154592	0.0005694266
135	0x3d524309	0.05133346
136	0xbe03fb1c	-0.1288876
137	0xbd807e62	-0.062741056
138	0x3bcf4766	0.00632565
139	0xbc79631e	-0.015221385
140	0xbcb193ed	-0.021676982
141	0x3d4eb67d	0.050467003
142	0xbddde0db	-0.108339034
143	0xbb3d2d87	-0.0028866248
144	0xbd34f7c0	-0.044181585
145	0xbdea77ee	-0.11448656
146	0xbcf03df8	-0.029326424
147	0xbdfe19a8	-0.12407237
148	0xbd037a70	-0.032099187
149	0x3cb64cc0	0.022253394
150	0xbdce1094	-0.10061756
151	0x3e00dde5	0.12584646
152	0x3d353022	0.044235356
153	0x3dfde415	0.12397019
154	0x3d411f52	0.04714901
155	0x3d810e6b	0.06301578
156	0x3d16e949	0.03684357
157	0x3d2c6866	0.04209175
158	0x3d11abcc	0.03556423
159	0x3b9ce71f	0.004788294
160	0xbd685c21	-0.056728486
161	0xbd6006d3	-0.054694008
162	0x3e440324	0.19141823
163	0x3bebc5e2	0.0071952203
164	0xbd2ba2ff	-0.041903492
165	0x3df2fa89	0.11864192
166	0xbcb0b55a	-0.02157085
167	0xbde91410	-0.1138078
168	0x3e224b15	0.15848954
169	0x3d9c2fde	0.076263174
170	0x3d641f6f	0.05569404
171	0xbe2f91a7	-0.17145406
172	0x3d497f86	0.04919388
173	0xbd1efbd2	-0.038814373
174	0xbdf3cb4e	-0.11904012
175	0xbe3fcda0	-0.18730783
176	0xbd7b41d4	-0.061342075
177	0x3e21d7e0	0.15805006
178	0x3d3366f9	0.043799374
179	0xbd7f5b82	-0.062343128
180	0x3da7ec1c	0.08199331
181	0xbdd17fec	-0.10229477
182	0x3d951ce1	0.07280899
183	0x3d3e813b	0.046509963
184	0x3bd0912e	0.006364963
185	0xbab63237	-0.0013900463
186	0xbd6ace1e	-0.057325475
187	0x3e1b4045	0.15161236
188	0x3d9d1bbe	0.07671307
189	0xbddf2944	-0.10896543
190	0x3dad29b3	0.08455219
191	0x3b840449	0.004028831
192	0x3d4d08f9	0.050057385
193	0x3db284bf	0.087167256
194	0x3d4bcbde	0.04975497
195	0x3cecff15	0.028930226
196	0xbd20f0ea	-0.039292254
197	0x3e03971a	0.1285061
198	0xbdd029da	-0.101642326
199	0xbde951f6	-0.11392586
200	0x3af503e8	0.0018693181
201	0xbe3c879f	-0.1841111
202	0x3dd6295d	0.10457108
203	0x3ca7649a	0.020433713
204	0xbd7a6995	-0.061135847
205	0xbd1a168e	-0.037619166
206	0xbda4239c	-0.080146044
207	0xbd6e3a53	-0.05816109
208	0x3da56ca3	0.080773614
209	0x3c7b82f9	0.0153510505
210	0xbd115902	-0.035485275
211	0x3d503eeb	0.050841253
212	0xbe08bf76	-0.13354287
213	0xbd546c3d	-0.051861037
214	0xbc4dd5b2	-0.012563156
215	0x3c1329d5	0.0089821415
216	0xbd480ce7	-0.04884043
217	0xbdd66c09	-0.10469825
218	0x3df100ac	0.11767706
219	0xbe1f0bca	-0.15531841
220	0x3d04af04	0.03239347
221	0x3e949a6b	0.29024062
222	0xbbc1fa15	-0.0059197047
223	0xbd37a937	-0.04483911
224	0x3da1fc25	0.07909421
225	0xbbd46b99	-0.006482553
226	0x3dd86609	0.10566337
227	0x3d8ffaa9	0.070302315
228	0x3dc61a10	0.0967294
229	0x3dc9973e	0.098433
230	0x3e0b1874	0.13583547
231	0x3c9a0b7c	0.018804304
232	0x3dd583f9	0.104255624
233	0x3d4b056a	0.04956571
234	0xbc858e8f	-0.016303329
235	0x3dfa4d27	0.12221747
236	0x3d45846f	0.048222
237	0x3c5dd69d	0.013539937
238	0x3de0a9d9	0.10969896
239	0xbe2191e5	-0.1577831
240	0xbddafbab	-0.10692533
241	0xbd8b7f73	-0.068114184
242	0x3da0e6b6	0.078565046
243	0x3c3c285b	0.011484231
244	0x3c9843b5	0.018586973
245	0x3d6d628d	0.057955313
246	0xbe068395	-0.13136132
247	0x3d13cb2b	0.036082428
248	0x3dbc140f	0.091835134
249	0x3ddae35b	0.10687896
250	0xbdd04f9e	-0.10171436
251	0xbd1eeb77	-0.038798776
252	0xbe17a45b	-0.1480879
253	0xbb453b26	-0.003009507
254	0xbdef75fe	-0.11692427
255	0x3d3a70ff	0.045517918

network_body.observation_encoder.processors.0.conv_layers.0.bias f4 [16]
0	0xba2ac7d9	-0.0006514765
1	0x3c89952e	0.016794767
2	0x3d1a742f	0.037708458
3	0x3d004548	0.03131607
4	0x3d3a01f2	0.04541201
5	0x3d52c455	0.051456768
6	0xbad28edd	-0.0016064305
7	0xbd653713	-0.055960726
8	0x3c6b7f21	0.014373572
9	0xbd8d2dd4	-0.06893507
10	0xbd320f52	-0.04347164
11	0x3a803d00	0.0009783804
12	0x3ce84d9f	0.028357325
13	0x3c943e02	0.018095974
14	0xbd51849f	-0.051151868
15	0xbd40b9d8	-0.047052234

network_body.observation_encoder.processors.0.conv_layers.0.weight f4 [16, 3, 8, 8]
0	0xbd822c56	-0.06356113
1	0x3b5a5d38	0.0033319723
2	0xbca160b0	-0.019699425
3	0x3d6f96d0	0.058493435
4	0xbcf3a437	-0.02974139
5	0x3c9cf651	0.019160422
6	0xbd2c488b	-0.04206137
7	0xbd0fa6bd	-0.035071123
8	0x3cc01bc2	0.023450736
9	0x3ce1553f	0.027506469
10	0xbcf0e6b0	-0.029406875
11	0x3d914d8d	0.0709487
12	0xbd26e96b	-0.04074995
13	0x3d1a0e84	0.0376115
14	0xbd6cbdaa	-0.057798065
15	0x3d881296	0.0664417
16	0xbc58e594	-0.013238329
17	0xbcdbc3ff	-0.026826857
18	0x3d25f5c3	0.04051758
19	0x3d42df4d	0.047576237
20	0xbd50f9dd	-0.05101954
21	0xbd0637cd	-0.03276806
22	0xbd22d06f	-0.03974956
23	0xbd83c745	-0.06434492
24	0x3d820a17	0.06349581
25	0xbbfb243f	-0.007664233
26	0xbd2ab932	-0.041680522
27	0x3ca8d29a	0.020608235
28	0x3d28a03f	0.041168448
29	0x3b6e84ff	0.003639519
30	0xbd15543a	-0.036457278
31	0xbc899692	-0.01679543
32	0xbc81b144	-0.015831597
33	0x3d8104eb	0.06299766
34	0x3d826a56	0.06367938
35	0xbd472f2a	-0.048628964
36	0xbc1e000f	-0.009643569
37	0xbd49b154	-0.04924138
38	0x3d8bb576	0.0682172
39	0x3d87ae41	0.06625033
40	0xbd87632f	-0.06610715
41	0xbd5e2334	-0.05423279
42	0xbcdfef41	-0.027335765
43	0xbd5d3f4a	-0.054015435
44	0xbd299087	-0.041397598
45	0x3baa56b0	0.0051983222
46	0xbc01ea51	-0.007929401
47	0x3cfd1541	0.030893924
48	0xbad24995	-0.0016043658
49	0x3d7c5db6	0.061612807
50	0xbd92d98a	-0.071703985
51	0x3d8842bc	0.066533536
52	0x3d832996	0.06404416
53	0x3d7abb3d	0.06121372
54	0xbb6e8671	-0.0036396051
55	0x3d149172	0.03627152
56	0xbcb00547	-0.021486891
57	0xbcf81094	-0.030281343
58	0x3c4e1c26	0.012579953
59	0x3d8aa9a5	0.067706384
60	0x3c714f09	0.014728316
61	0xbd0f9f05	-0.035063762
62	0x3c7da549	0.015481302
63	0x3d569ce7	0.052395727
64	0xbd10447c	-0.03522156
65	0x3cbae8a9	0.02281602
66	0xbccb536d	-0.024820054
67	0xbd61fee5	-0.055174727
68	0xbccf5185	-0.025307426
69	0xba8d2397	-0.0010768053
70	0xbd3ac7ff	-0.045600887
71	0x3d2a9b67	0.04165211
72	0x3a85f72f	0.0010220761
73	0xbc10f092	-0.008846419
74	0x3ce4cbc9	0.027929204
75	0x3d87e49d	0.066354014
76	0x3d58f4df	0.052967902
77	0xbd82978f	-0.06376564
78	0x3d82d7f9	0.0638885
79	0x3cdaae43	0.026694423
80	0x3ccf55a6	0.025309395
81	0x3c25bcee	0.010115845
82	0x3d617708	0.055045158
83	0x3d86fb56	0.06590907
84	0xbb91c7ec	-0.0044488814
85	0xbcf01690	-0.029307634
86	0x3d6be397	0.057590093
87	0x3d611312	0.054949827
88	0xbd729fb2	-0.05923433
89	0x3c05eef5	0.008174648
90	0xbcf09633	-0.029368496
91	0x3c83496f	0.016026227
92	0xbd830d4a	-0.06399019
93	0x3d7574f6	0.059925996
94	0xbcafddaf	-0.021468012
95	0x3ca87110	0.020561725
96	0x3c86a1fd	0.016434664
97	0xbd689bb4	-0.056789115
98	0xbd0814e5	-0.03322305
99	0xbb0e3476	-0.002169875
100	0xbd486a09	-0.048929248
101	0xbbe21fbc	-0.0069007557
102	0xbcca2fc9	-0.024680989
103	0xbc8d658d	-0.017260337
104	0x3c8e0b00	0.01733923
105	0x3babc81f	0.005242362
106	0xbd1a318c	-0.037644908
107	0x3d30e6a9	0.043188725
108	0x3d0f3d46	0.034970544
109	0x3cb9d293	0.022683417
110	0xbd857d3e	-0.06518029
111	0x3d1b8e97	0.03797778
112	0x3c94042f	0.018068401
113	0x3c181dbc	0.009284433
114	0x3d5e5fc8	0.054290563
115	0xbd23e2c5	-0.040011186
116	0xbd538267	-0.051638033
117	0x3d8dba8c	0.069203466
118	0xbc351b9b	-0.011053945
119	0xbcfac4e4	-0.030611463
120	0xbb311b63	-0.002702438
121	0x3c53454e	0.0128949415
122	0x3d85936f	0.06522261
123	0x3c62f77c	0.01385295
124	0xbd1add82	-0.037808903
125	0x3c7641d0	0.015030339
126	0x3ccf1dcf	0.025282769
127	0x3d19d9ef	0.037561353
128	0xbd6c2705	-0.0576544
129	0xbd2816a6	-0.041037224
130	0xbd33d32f	-0.043902572
131	0xbd78b5cc	-0.06072025
132	0x3d83e6ec	0.06440529
133	0x3d8abe2f	0.06774556
134	0xba4661c0	-0.00075676665
135	0x3d351428	0.044208676
136	0xbce4da01	-0.027935984
137	0x3d2b79c1	0.04186416
138	0x3cc28c0a	0.023748416
139	0xbcfc1926	-0.03077371
140	0xbc1fad89	-0.009745964
141	0x3d2a7977	0.041619744
142	0x3cef8258	0.029236957
143	0xbd76c8e2	-0.06025017
144	0x3b3f347a	0.0029175566
145	0x3c69e695	0.014276166
146	0xbd04bfef	-0.032409605
147	0xbccd2297	-0.025040908
148	0x39f02569	0.0004580424
149	0x3c9cb9ad	0.019131506
150	0xbcf0f87f	-0.029415367
151	0x3d34ac8f	0.044109877
152	0xbd5dfbcf	-0.05419522
153	0x3d5ebe10	0.054380476
154	0xbd73ba8b	-0.059504073
155	0x3c9c8b78	0.019109473
156	0xbd831409	-0.06400306
157	0xbccfd8b8	-0.025371894
158	0xbcd3a9aa	-0.025837738
159	0xbd34fe4c	-0.04418783
160	0x3d1f7c48	0.038936883
161	0x3cf0637a	0.02934431
162	0xbd2b2ddb	-0.041791778
163	0x3d72faa5	0.059321065
164	0xba91639b	-0.0011092307
165	0x3d4867c9	0.048927102
166	0x3d8098d6	0.06279151
167	0x3d7b0c49	0.061291013
168	0x3d452226	0.04812827
169	0xbc728cd0	-0.01480408
170	0x3d88f23a	0.06686826
171	0xbd106fbe	-0.035262816
172	0x3ae4b156	0.001744787
173	0x3d092263	0.03348006
174	0xbd46721a	-0.04844866
175	0xbd8fabaa	-0.07015164
176	0xbd1af3d4	-0.03783019
177	0xbbfe2989	-0.007756416
178	0xbcbf11b8	-0.023323879
179	0xbc556e51	-0.01302679
180	0x3d12e5ed	0.035863806
181	0xbd6da276	-0.058016263
182	0xbd83dd7c	-0.06438729
183	0xbd8c728c	-0.068577856
184	0xbc6be7cb	-0.0143985255
185	0x3d5e7c53	0.054317784
186	0x3d5813a4	0.052753106
187	0xbcbf8473	-0.023378586
188	0xbd8f9533	-0.07010879
189	0xbd7d4f51	-0.06184322
190	0xbd781e75	-0.06057592
191	0x3c914fec	0.017738305
192	0x3ad90ff1	0.0016560537
193	0xbafa23a6	-0.001908411
194	0xbd2e6454	-0.04257615
195	0xbce3f100	-0.027824879
196	0x3cde02eb	0.027101
197	0x3bdb0cce	0.006684876
198	0xbca69f96	-0.020339768
199	0xbd30820f	-0.043092784
200	0x3d2e9b00	0.04262829
201	0xbd5160ef	-0.051117834
202	0xbc1982ae	-0.009369535
203	0x3b807685	0.0039203786
204	0x3c7f9945	0.015600507
205	0xbd3533bb	-0.044238787
206	0x3d5e7e6b	0.05431978
207	0xbd4e96d2	-0.050436802
208	0x3d2720ee	0.04080289
209	0xbd445fd2	-0.047942944
210	0xbd93a83d	-0.07209823
211	0xbc2a03ad	-0.010376853
212	0xbc26e594	-0.010186572
213	0x3d5f78e8	0.054558665
214	0x3d469156	0.048478447
215	0xbd7b8f28	-0.06141582
216	0xbd914ca5	-0.07094697
217	0xbc96db3d	-0.018415088
218	0xbd2f4dd1	-0.04279882
219	0x3cb09666	0.02155609
220	0x3d2eb79b	0.04265557
221	0x3b472cfa	0.0030391798
222	0x3adae022	0.0016698877
223	0x3cb18aba	0.021672595
224	0xbca7cc1d	-0.020483071
225	0x3d0e6c1a	0.034771062
226	0x3d3fe55a	0.046849586
227	0xbd3fde62	-0.04684294
228	0xbb92c7cc	-0.004479384
229	0xbcf8c602	-0.030367855
230	0x3d701dcc	0.058622167
231	0xbd40b1ea	-0.047044672
232	0xbd7c8012	-0.061645575
233	0x3d54b92a	0.0519344
234	0xbcb665b3	-0.02226529
235	0xbc9b08d1	-0.018925102
236	0x3cd06e71	0.025443288
237	0xbd81326f	-0.063084476
238	0x3c53a983	0.012918833
239	0xbd64ffc3	-0.055907976
240	0xbc05e73c	-0.008172806
241	0xbcae5665	-0.02128143
242	0x3c53c03f	0.012924253
243	0xbd596ef6	-0.053084336
244	0xbd8df364	-0.06931189
245	0xbd77414c	-0.060365006
246	0x3d799017	0.06092843
247	0xbd2807a9	-0.04102293
248	0x3c7af60f	0.015317454
249	0x3d12044f	0.03564864
250	0x3d82f2d3	0.06393971
251	0xbd5367e5	-0.051612753
252	0x3cf13214	0.029442824
253	0xbd5d2b91	-0.053996626
254	0x3c11e7a4	0.008905325
255	0x3d147970	0.036248624

network_body.observation_encoder.processors.0.conv_layers.2.bias f4 [32]
0	0x3b52e100	0.0032177567
1	0x3d329e42	0.043607958
2	0xbcb4d22a	-0.02207287
3	0xbbe20ed0	-0.0068987384
4	0xbc6fbb30	-0.014632031
5	0xbc472a20	-0.0121560395
6	0x3cb05c60	0.021528423
7	0x3cbce1b0	0.023056835
8	0x3bed6ff0	0.00724601
9	0xbd65399b	-0.05596314
10	0xbd1b02fa	-0.037844636
11	0x3cfbec00	0.030752182
12	0xbd3856e8	-0.045004755
13	0x3d68a56a	0.056798376
14	0xbd1304b7	-0.03589317
15	0x3a898e80	0.0010494739
16	0xbc127948	-0.0089400485
17	0xbd474f5a	-0.04865966
18	0xbc675380	-0.014119029
19	0xbc2def98	-0.010616206
20	0x3d26a140	0.040681124
21	0x3d5a0d14	0.05323513
22	0xbb8a2d50	-0.0042168275
23	0x3d362066	0.04446449
24	0x3c837664	0.016047664
25	0x3ce1f848	0.02758421
26	0xbcba60ea	-0.02275129
27	0xbd65a291	-0.05606324
28	0x3be9d1e0	0.0071356148
29	0xbd7e308d	-0.06205802
30	0xbc5d4e28	-0.013507403
31	0xbd50a4af	-0.050938305

network_body.observation_encoder.processors.0.conv_layers.2.weight f4 [32, 16, 4, 4]
0	0x3c3dd370	0.011586055
1	0x3cc7c91c	0.024387889
2	0x3bef47d0	0.007302262
3	0xbd30a769	-0.043128405
4	0xbc8e01a8	-0.017334774
5	0x3a163900	0.00057305396
6	0xbc9dc188	-0.019257322
7	0xbcc03688	-0.023463503
8	0x3d2f8a8e	0.042856745
9	0x3d6bb8ee	0.05754941
10	0x3b958af0	0.004563682
11	0x3c775c50	0.015097693
12	0x3bf2cd40	0.0074097216
13	0x3d7b2cd8	0.061322063
14	0xbace7760	-0.0015752129
15	0xbd7e0033	-0.06201191
16	0xbb60f660	-0.0034326538
17	0x3d4ab408	0.049488097
18	0xbd1812dc	-0.03712736
19	0x3cf72514	0.030169047
20	0x3d2fbd98	0.04290542
21	0x3b202f60	0.00244423
22	0x3b2d7a20	0.0026470497
23	0x3d355018	0.044265836
24	0xbb2a2790	-0.0025963522
25	0xbd79170b	-0.06081299
26	0xbb671700	-0.0035261512
27	0x3d08a53a	0.033360697
28	0x3b879200	0.0041372776
29	0xbcbffdce	-0.023436453
30	0x3c01ef48	0.007930584
31	0x3d5fb89a	0.05461941
32	0x3b8a08c0	0.004212469
33	0xbc91a71a	-0.017779876
34	0x3c8a8cb4	0.016912796
35	0xb9e5a680	-0.00043802336
36	0xbd49027b	-0.04907463
37	0x3bc90f80	0.006135881
38	0x3d354eec	0.04426472
39	0x3c78a280	0.015175462
40	0xbc812b88	-0.015767828
41	0x3d41e2d2	0.047335453
42	0xbcd57ab4	-0.026059486
43	0x3c293c38	0.010329299
44	0xbd37f182	-0.044908054
45	0x3cb36114	0.021896876
46	0x3a1f7e00	0.0006084144
47	0xbcdfb742	-0.027309064
48	0xbcd587ec	-0.02606579
49	0xbbe5ba70	-0.0070107505
50	0xbd622763	-0.055213343
51	0x3cbf80c8	0.023376837
52	0xbd5ecfd0	-0.054397404
53	0x3c9d35dc	0.019190721
54	0x3cf14350	0.029451042
55	0x3c4bbb20	0.012434751
56	0x3d233cdc	0.039852962
57	0xbd463060	-0.048385978
58	0xbd02456a	-0.03180448
59	0xbcdb1700	-0.026744366
60	0xbd53aa00	-0.051675797
61	0xbb9efd00	-0.0048519373
62	0xbd542eaf	-0.051802333
63	0xbce7054e	-0.028200772
64	0xbd46f67e	-0.048574917
65	0xbcd4b1c6	-0.025963675
66	0x3cd42b4c	0.025899552
67	0x3cf6ac64	0.0301115
68	0x3cb9bcb8	0.022672996
69	0x3c60e970	0.013727531
70	0x3d173dda	0.03692422
71	0x3baeb6f0	0.0053318664
72	0xbd54c067	-0.0519413
73	0xbd1de5b2	-0.038549133
74	0xbc387508	-0.011258371
75	0xbc124088	-0.008926518
76	0xbcc23484	-0.023706682
77	0x3d55e682	0.052221783
78	0xbd6dc7eb	-0.058051985
79	0xbcb15c12	-0.021650348
80	0x3c5c8608	0.01345969
81	0x3c481500	0.012212038
82	0x3c5fbf00	0.013656378
83	0x3c9f6974	0.019459464
84	0x3c4f6fa0	0.012660891
85	0xbcdaf130	-0.026726335
86	0x3cb925b4	0.022600986
87	0x3d567bbe	0.052364103
88	0x3c8e6508	0.01738216
89	0xbd102887	-0.0351949
90	0x3cf052b8	0.029336318
91	0x3aac1fc0	0.0013132021
92	0xbcc3eda2	-0.023917023
93	0x3af1c080	0.001844421
94	0x3c7b8890	0.015352383
95	0xbd303a33	-0.043024253
96	0xbd7a3d11	-0.061093394
97	0xbca1a86c	-0.01973363
98	0x3d45a676	0.048254453
99	0xbd5ede8c	-0.054411456
100	0x3d7e4964	0.06208171
101	0x3c9b4038	0.01895152
102	0x3c042af8	0.008066885
103	0x3c236f80	0.009975314
104	0xbd21eef3	-0.03953452
105	0xbbfcdad8	-0.007716518
106	0x3d55a86e	0.05216258
107	0xbd15cc87	-0.036572006
108	0x3cfe39f0	0.031033486
109	0xbbe3b7f8	-0.006949421
110	0x3d1f8224	0.03894247
111	0xbc862084	-0.016372927
112	0x3c8df510	0.017328769
113	0x3d55032e	0.052004986
114	0xbd3c37a9	-0.04595152
115	0x3cc9df90	0.024642736
116	0x3d409400	0.047016144
117	0x3d0fd1a2	0.03511203
118	0xbb3f4fe0	-0.0029191896
119	0xbd6f0a19	-0.05835924
120	0x3d2768f6	0.040871583
121	0x3bc571b0	0.0060255155
122	0xbcfc58a0	-0.030803978
123	0x3d09ccce	0.033642583
124	0x3d5ce742	0.053931482
125	0x3d6bb5d8	0.057546467
126	0xbcb256be	-0.021769878
127	0xbc53d2b4	-0.0129286535
128	0x3d2166ac	0.039404556
129	0x39fe9e00	0.00048564374
130	0xbc8c9f24	-0.017165728
131	0x3d0f9590	0.035054743
132	0x3c3ea338	0.011635594
133	0x3d738d3c	0.059460863
134	0xbbf18d68	-0.0073715933
135	0xbcdf3472	-0.027246688
136	0x3c7bdaf0	0.015372023
137	0xbc2d8318	-0.010590337
138	0x3d384702	0.044989593
139	0x3c11c298	0.008896492
140	0xbb692b50	-0.0035578795
141	0x3c8a9e84	0.01692129
142	0x3c4792d0	0.012180999
143	0x3d234b9e	0.039867036
144	0x3b9cf850	0.0047903433
145	0x3d2cf590	0.042226374
146	0xbcebd1ac	-0.028786503
147	0xbd10a493	-0.0353132
148	0x3d40cb00	0.047068596
149	0xbca208ac	-0.019779526
150	0x3bfd9770	0.007739
151	0xbb4b2ef0	-0.0031003319
152	0xbbede0c8	-0.007259462
153	0x3d508c48	0.050915033
154	0x3c1cf1c8	0.0095791295
155	0xbd4575ca	-0.048208036
156	0xbcf41f0c	-0.02979996
157	0xbce29d58	-0.027662918
158	0xbd4b63a2	-0.049655564
159	0x3d336d92	0.043805666
160	0x3cd47db4	0.025938846
161	0xbc8ddba4	-0.017316647
162	0xbbf511c8	-0.0074789263
163	0xbcc6b9a0	-0.024258435
164	0xbba0d098	-0.004907679
165	0xbcb87a2e	-0.022519197
166	0xbd538da5	-0.051648755
167	0xba8d5da0	-0.0010785349
168	0xbd69432e	-0.056948833
169	0x3d6cc7ea	0.05780784
170	0x3c5fdd38	0.0136635825
171	0x3c0b2608	0.008492954
172	0x3beeea40	0.0072911084
173	0x3c81dc30	0.015852064
174	0xbca54c8e	-0.020178106
175	0x3d204aa8	0.039133698
176	0xbd17f88a	-0.03710226
177	0xbcc70fdc	-0.024299555
178	0x3ae482c0	0.0017433986
179	0x3d3006ca	0.042975225
180	0x3c9238b8	0.017849311
181	0x3c8bda74	0.01707194
182	0xbc5c2bcc	-0.013438176
183	0xbd15c275	-0.0365624
184	0x3c86016c	0.0163581
185	0xbd4635e2	-0.04839123
186	0x3bcd9040	0.0062732995
187	0x3d085d0a	0.033291854
188	0xbc0c41a0	-0.008560568
189	0x3d4c937c	0.04994534
190	0xbcac5fb6	-0.021041732
191	0xbd322036	-0.04348775
192	0xbd7589eb	-0.059945982
193	0x3d3b43c8	0.045718938
194	0xbcfd8b82	-0.030950312
195	0xbb5e6fd0	-0.0033941157
196	0xbd200020	-0.03906262
197	0xbcb86516	-0.022509139
198	0xbd110191	-0.035401884
199	0xbc1a74f8	-0.009427302
200	0x3d726dd4	0.05918677
201	0x3cb12c38	0.02162753
202	0xbd32adc6	-0.043622755
203	0xbd4d97f9	-0.05019376
204	0x3d684654	0.056707695
205	0xbd5b7eea	-0.05358783
206	0x3cb732e0	0.022363126
207	0xbd2aa60a	-0.041662253
208	0xbd1708e1	-0.036873702
209	0xbc3b51ec	-0.011433106
210	0xbcaf954e	-0.021433499
211	0x3c9997dc	0.01874917
212	0x3d1448ba	0.03620217
213	0x3d330f5a	0.043715812
214	0x3d0c2f84	0.034225002
215	0x3d46e800	0.048561096
216	0x3d3c67fa	0.045997597
217	0x3d0dbf78	0.034606427
218	0x3d617060	0.05503881
219	0x3c110a70	0.008852586
220	0xbd65ba0f	-0.056085642
221	0x3be01f30	0.0068396553
222	0x3b801ac0	0.003909439
223	0x3d7a3e7a	0.06109474
224	0x3d54ef2a	0.051985897
225	0x3c882a10	0.01662162
226	0x3c3c7578	0.011502616
227	0x3d133ef6	0.035948716
228	0x3d4fc654	0.05072625
229	0x3d3f529e	0.04670965
230	0xbd1b9658	-0.037985176
231	0x3d528766	0.051398657
232	0x3cddc188	0.027069822
233	0x3d5d8398	0.054080576
234	0x3c7e4820	0.015520126
235	0xba9877a0	-0.0011632331
236	0x3d628ebc	0.055311903
237	0xbd56fba0	-0.052486062
238	0xbd103dda	-0.035215236
239	0xbd435b34	-0.0476944
240	0xbc0c14bc	-0.008549865
241	0xbd1667f9	-0.03672025
242	0x3c4b4250	0.012405947
243	0xbd43a944	-0.047768846
244	0xbd6af347	-0.057360914
245	0xbd65bc46	-0.056087755
246	0xbd264d01	-0.04060078
247	0x3d554692	0.052069254
248	0x3cb52f7c	0.022117369
249	0x3d74d1ee	0.059770517
250	0x3c3a2a30	0.011362597
251	0xbca20eb0	-0.019782394
252	0x3d1c8e52	0.038221665
253	0x3b92e430	0.0044827685
254	0x3d012b44	0.031535402
255	0x3afa1040	0.0019078329

network_body.observation_encoder.processors.0.dense.0.bias f4 [128]
0	0x00000000	0.0
1	0x00000000	0.0
2	0x00000000	0.0
3	0x00000000	0.0
4	0x00000000	0.0
5	0x00000000	0.0
6	0x00000000	0.0
7	0x00000000	0.0
8	0x00000000	0.0
9	0x00000000	0.0
10	0x00000000	0.0
11	0x00000000	0.0
12	0x00000000	0.0
13	0x00000000	0.0
14	0x00000000	0.0
15	0x00000000	0.0
16	0x00000000	0.0
17	0x00000000	0.0
18	0x00000000	0.0
19	0x00000000	0.0
20	0x00000000	0.0
21	0x00000000	0.0
22	0x00000000	0.0
23	0x00000000	0.0
24	0x00000000	0.0
25	0x00000000	0.0
26	0x00000000	0.0
27	0x00000000	0.0
28	0x00000000	0.0
29	0x00000000	0.0
30	0x00000000	0.0
31	0x00000000	0.0
32	0x00000000	0.0
33	0x00000000	0.0
34	0x00000000	0.0
35	0x00000000	0.0
36	0x00000000	0.0
37	0x00000000	0.0
38	0x00000000	0.0
39	0x00000000	0.0
40	0x00000000	0.0
41	0x00000000	0.0
42	0x00000000	0.0
43	0x00000000	0.0
44	0x00000000	0.0
45	0x00000000	0.0
46	0x00000000	0.0
47	0x00000000	0.0
48	0x00000000	0.0
49	0x00000000	0.0
50	0x00000000	0.0
51	0x00000000	0.0
52	0x00000000	0.0
53	0x00000000	0.0
54	0x00000000	0.0
55	0x00000000	0.0
56	0x00000000	0.0
57	0x00000000	0.0
58	0x00000000	0.0
59	0x00000000	0.0
60	0x00000000	0.0
61	0x00000000	0.0
62	0x00000000	0.0
63	0x00000000	0.0
64	0x00000000	0.0
65	0x00000000	0.0
66	0x00000000	0.0
67	0x00000000	0.0
68	0x00000000	0.0
69	0x00000000	0.0
70	0x00000000	0.0
71	0x00000000	0.0
72	0x00000000	0.0
73	0x00000000	0.0
74	0x00000000	0.0
75	0x00000000	0.0
76	0x00000000	0.0
77	0x00000000	0.0
78	0x00000000	0.0
79	0x00000000	0.0
80	0x00000000	0.0
81	0x00000000	0.0
82	0x00000000	0.0
83	0x00000000	0.0
84	0x00000000	0.0
85	0x00000000	0.0
86	0x00000000	0.0
87	0x00000000	0.0
88	0x00000000	0.0
89	0x00000000	0.0
90	0x00000000	0.0
91	0x00000000	0.0
92	0x00000000	0.0
93	0x00000000	0.0
94	0x00000000	0.0
95	0x00000000	0.0
96	0x00000000	0.0
97	0x00000000	0.0
98	0x00000000	0.0
99	0x00000000	0.0
100	0x00000000	0.0
101	0x00000000	0.0
102	0x00000000	0.0
103	0x00000000	0.0
104	0x00000000	0.0
105	0x00000000	0.0
106	0x00000000	0.0
107	0x00000000	0.0
108	0x00000000	0.0
109	0x00000000	0.0
110	0x00000000	0.0
111	0x00000000	0.0
112	0x00000000	0.0
113	0x00000000	0.0
114	0x00000000	0.0
115	0x00000000	0.0
116	0x00000000	0.0
117	0x00000000	0.0
118	0x00000000	0.0
119	0x00000000	0.0
120	0x00000000	0.0
121	0x00000000	0.0
122	0x00000000	0.0
123	0x00000000	0.0
124	0x00000000	0.0
125	0x00000000	0.0
126	0x00000000	0.0
127	0x00000000	0.0
