results/testRein/ZARAgoal/ZARAgoal-427.onnx (onnx, 214078 bytes, 15 tensors)

discrete_act_size_vector f4 [1, 2]
0	0x40000000	2.0
1	0x40400000	3.0

network_body.observation_encoder.processors.0.conv_layers.0.weight f4 [16, 5, 8, 8]
0	0x3d193e2a	0.0374128
1	0x3a65e22e	0.000876936
2	0x3b97e60f	0.0046355794
3	0x3d0b532a	0.03401486
4	0xbd334afa	-0.043772675
5	0x3cfa8d54	0.030584969
6	0xbc74ac3b	-0.014933641
7	0x3d57abed	0.052654196
8	0x3c5dc7e4	0.013536427
9	0x3ca80fe4	0.02051539
10	0xbd42a198	-0.04751739
11	0x3d0fe3cd	0.035129357
12	0xbd01b274	-0.031664327
13	0x3cee7a83	0.029111153
14	0xbd3acd0e	-0.04560571
15	0x3d0da2cd	0.034579087
16	0x3d2ff6eb	0.04296009
17	0x3d0f9a67	0.03505936
18	0x3bbec1fe	0.0058214655
19	0x3cec31b6	0.028832298
20	0x3d0436a8	0.032278687
21	0x3c993ad6	0.018704813
22	0x3c89dbd9	0.016828464
23	0x3d0e7def	0.03478807
24	0xbd4dcba3	-0.05024303
25	0x3ad7ef2d	0.0016474478
26	0x3bc2a81e	0.0059404513
27	0xbc401dcc	-0.011725854
28	0x3d43773b	0.04772113
29	0xbd1d8ed8	-0.038466305
30	0xbd189b9e	-0.037257783
31	0xbd2a1d46	-0.041531824
32	0xbd296f52	-0.04136593
33	0x3d41497d	0.047189225
34	0x3d0443c2	0.03229118
35	0xbd31accb	-0.04337768
36	0xbcb4517a	-0.022011507
37	0xbd242918	-0.040078253
38	0xbb5884fe	-0.0033038254
39	0x3caddb21	0.021222653
40	0x3c82b140	0.01595366
41	0xbc231b01	-0.009955169
42	0x3cc80cca	0.02442016
43	0xbbb801a6	-0.005615431
44	0x3d1110d9	0.035416458
45	0xbc583078	-0.01319515
46	0xbb4055d3	-0.002934803
47	0x3b8a854c	0.004227316
48	0x3d292e2b	0.041303795
49	0x3cfab06c	0.030601703
50	0x3c6875ee	0.014188273
51	0x3d35d379	0.04439113
52	0x3cd367c7	0.02580632
53	0xbd1f1eac	-0.03884761
54	0x3d3e6422	0.046482213
55	0xbc5e894c	-0.013582539
56	0xbd296e17	-0.041364755
57	0xbd3efeea	-0.046629824
58	0x3c116f3b	0.008876617
59	0x3a2a72a1	0.00065020664
60	0x3b218b4b	0.0024649675
61	0x3c38064a	0.011231968
62	0x3d56ef6c	0.052474424
63	0xbc19d657	-0.0093894815
64	0xbb6afc0b	-0.0035855796
65	0x3ce05521	0.027384343
66	0xbd63b05d	-0.055588115
67	0x3cfedcad	0.031111086
68	0xbd4142dd	-0.047182906
69	0xbc2e42a9	-0.01063601
70	0x3d51cbd4	0.051219776
71	0xbd1eafc1	-0.03874183
72	0x3d38e98f	0.045144614
73	0x3ae6cefa	0.0017609291
74	0xbd226b85	-0.03965332
75	0x3bdd82e8	0.00675999
76	0x3c435ac7	0.0119234985
77	0x3cb553e0	0.022134721
78	0xbd3384f3	-0.043827962
79	0x3ccdde0e	0.025130298
80	0xbd040840	-0.03223443
81	0xbd52e3a9	-0.051486645
82	0xbd3e9648	-0.046530038
83	0x3d42d360	0.047564864
84	0x3c862af1	0.016377898
85	0xbcd662cd	-0.026170159
86	0x3c231e26	0.009955918
87	0x3d2e9597	0.04262313
88	0xbc10e9cb	-0.008844803
89	0xbcad4339	-0.021150218
90	0x3c07c9a2	0.008287819
91	0x3d2580ed	0.040406156
92	0xbd486144	-0.048920885
93	0x3c9002eb	0.017579516
94	0x3bc55c67	0.006022978
95	0xbc15ab03	-0.009135011
96	0xbacb0661	-0.0015489572
97	0x3d3f9057	0.046768513
98	0x3d22b04f	0.039718922
99	0x3d175bd3	0.036952805
100	0x3d581c95	0.052761633
101	0x3d4a667b	0.04941414
102	0xbcf86ac3	-0.030324345
103	0x3d404d25	0.04694857
104	0xbd06cbfb	-0.032909375
105	0xbc0d3e32	-0.008620786
106	0xbc617d53	-0.01376279
107	0xbd4bea19	-0.0497838
108	0x3cef1082	0.029182676
109	0xbd367af0	-0.044550836
110	0x3b2fce1f	0.0026825739
111	0xbd253dea	-0.04034225
112	0x3d5f5270	0.054521978
113	0xbca2c030	-0.019867033
114	0xbd55bce0	-0.05218208
115	0xbc4c9f14	-0.012489099
116	0x3cd37104	0.025810726
117	0xbcc16a98	-0.023610398
118	0x3b653905	0.0034976613
119	0x3d259903	0.040429126
120	0xba4ff7a9	-0.00079333276
121	0x3c80a611	0.015704187
122	0xbd3025d8	-0.04300484
123	0xbcd97c3a	-0.026548494
124	0x3ca6cc18	0.020360991
125	0x3d020305	0.03174116
126	0xbd4237c4	-0.047416463
127	0xbc5d2b04	-0.013499025
128	0x3ca13f85	0.019683609
129	0x3c7515d5	0.014958818
130	0x3b7bc450	0.0038416572
131	0x3c81931b	0.015817216
132	0xbd15e49a	-0.036594965
133	0x3b9514df	0.004549607
134	0x3c0101b0	0.0078739375
135	0x3d5b8c6c	0.053600714
136	0x3d1de357	0.038546886
137	0x3ca96a9b	0.020680716
138	0xbce4a273	-0.027909493
139	0x3d3690f9	0.04457185
140	0xbc186ef7	-0.0093038
141	0xbd2d3748	-0.04228905
142	0xbd012539	-0.03152964
143	0x3cc3d3c0	0.023904681
144	0x3d08132e	0.033221416
145	0xbc44cbe6	-0.012011504
146	0xbcb863f9	-0.022508608
147	0xbb761ece	-0.0037554982
148	0x3cc8382b	0.024440845
149	0x3b8e1813	0.004336366
150	0xbc6ba77a	-0.014383191
151	0xbd5c16f9	-0.053732846
152	0x3d4b2da1	0.049604062
153	0x3cacea79	0.021107899
154	0x3d0a4cc6	0.033764623
155	0xbd43b098	-0.047775835
156	0xbc7532b1	-0.014965699
157	0x3b8b165d	0.0042446093
158	0xbd412835	-0.047157485
159	0xbd4b6ec3	-0.049666177
160	0xbc6ecec8	-0.014575668
161	0xbbdca41c	-0.0067334305
162	0xbd1e8d7e	-0.038709156
163	0x3d4eee88	0.05052045
164	0x3cb5d861	0.022197904
165	0xbbe4e006	-0.0069847135
166	0x3d26c003	0.04071046
167	0x3d3c3b7f	0.045955177
168	0xbcd4bc42	-0.025968675
169	0x3cb1f349	0.021722453
170	0x3ceb4caa	0.02872308
171	0xbd0e06ad	-0.034674335
172	0xbd1d9d29	-0.038479958
173	0x3c825588	0.015909925
174	0x3d0212aa	0.03175608
175	0x3d3dc55f	0.046330806
176	0x3c9fdeb6	0.019515377
177	0x3d1877ee	0.03722375
178	0x3d47f08d	0.04881339
179	0xbcfcbf31	-0.030852886
180	0x3a898ced	0.001049427
181	0x3d4ba1f8	0.049715012
182	0xbcaaeee8	-0.020865873
183	0x3ce06219	0.027390527
184	0xbd5a99d9	-0.053369377
185	0xbcde3a92	-0.027127538
186	0x3ce88c8b	0.028387329
187	0xbd428f17	-0.047499742
188	0x3cce7aff	0.025205133
189	0xbd45b73b	-0.048270445
190	0xbc4a710a	-0.012356052
191	0x3b2d786c	0.0026469482
192	0x3d3d50ca	0.046219625
193	0xbccff5f3	-0.025385832
194	0x3cfb0984	0.030644186
195	0xbd11283a	-0.035438754
196	0x3d1b5f41	0.037932638
197	0x3c3b0aef	0.011416181
198	0xbcdb98de	-0.026806291
199	0xbce77006	-0.02825166
200	0xbc876274	-0.016526438
201	0xbb8803be	-0.0041508367
202	0xbd472eea	-0.048628725
203	0xbc79ff77	-0.0152586615
204	0x3d3b608e	0.04574638
205	0x3c97ee84	0.01854635
206	0x3bd5c2ad	0.0065234513
207	0xbc15f599	-0.009152793
208	0x3d2dccac	0.04243152
209	0xbd3289ab	-0.04358832
210	0x3c84aa73	0.016194558
211	0x3d247a1a	0.040155508
212	0x3caf0313	0.02136377
213	0x3cf28b75	0.029607514
214	0xbbe99d34	-0.007129336
215	0xbd39978b	-0.04531054
216	0x3d64cb07	0.055857684
217	0xbcd441fd	-0.025910372
218	0xbd37a556	-0.04483541
219	0x3cf66bb3	0.030080652
220	0x3d34eccf	0.04417115
221	0x3cc267f8	0.023731217
222	0xbd056ed6	-0.032576405
223	0xbcfa1a75	-0.030530194
224	0x3cb011b5	0.021492818
225	0xbcce86c9	-0.025210755
226	0xbd0bb6e4	-0.034109965
227	0x3d0e1fab	0.03469817
228	0xbd3551a2	-0.044267304
229	0xbc3cae85	-0.011516218
230	0x3c7ec919	0.015550875
231	0xbd3cb25c	-0.046068534
232	0xbd1d693e	-0.038430445
233	0x3d569985	0.0523925
234	0xbd56459d	-0.052312482
235	0xbcbfd175	-0.023415307
236	0x3c1f7356	0.009732088
237	0xbd194523	-0.03741945
238	0x3d02934d	0.03187876
239	0x3c7d59da	0.015463317
240	0xbc91bf46	-0.017791402
241	0xbd09d338	-0.0336487
242	0x3c9bee98	0.019034669
243	0xbd1623a8	-0.0366551
244	0x3cbfda4f	0.023419527
245	0xbd4f2026	-0.05056777
246	0xbd0e4b21	-0.034739617
247	0xbca3e2ae	-0.02000555
248	0xbc282151	-0.0102618495
249	0xbb71c97e	-0.003689378
250	0xbcfa6b3a	-0.030568708
251	0xbd007dc8	-0.031369954
252	0x3c593304	0.013256792
253	0x3c83936a	0.016061503
254	0xbcf95aae	-0.030438747
255	0xbd1b63fc	-0.03793715

network_body.observation_encoder.processors.0.conv_layers.0.bias f4 [16]
0	0xbd428001	-0.047485355
1	0xbc004c8a	-0.007830748
2	0xbd0b33ba	-0.033984877
3	0xbcd83f33	-0.026397323
4	0xbd3463bf	-0.044040438
5	0xbd3810c9	-0.044937883
6	0xbb9c5517	-0.0047708857
7	0xbcb7c020	-0.02243048
8	0xbd344bb8	-0.044017524
9	0xbd351e53	-0.044218373
10	0x3d3e20e4	0.046418086
11	0x39ca61b2	0.0003860123
12	0x3d4b7993	0.04967649
13	0x3c7646f1	0.015031562
14	0x3d2180b0	0.039429367
15	0xbd3dcdf5	-0.046338994

network_body.observation_encoder.processors.0.conv_layers.2.weight f4 [32, 16, 4, 4]
0	0x3d629d80	0.055325985
1	0xbd071222	-0.032976277
2	0xbd387d45	-0.04504134
3	0x3d2d940a	0.04237751
4	0x3d701412	0.05861289
5	0xbd7d52b2	-0.061846443
6	0xbd310606	-0.043218635
7	0xbd073efc	-0.03301905
8	0x3c2912d8	0.010319434
9	0x3b0f80e0	0.0021896884
10	0x3ce31e94	0.027724542
11	0x3d74ee54	0.0597976
12	0x3cdeacdc	0.027182035
13	0xbc7fa96c	-0.015604358
14	0x3c93b484	0.018030412
15	0xbcf0c2da	-0.029389787
16	0xbd1e0860	-0.038582206
17	0xbd0a4db5	-0.033765513
18	0x3d6d457a	0.057927586
19	0x3b9fd2f0	0.0048774406
20	0xbcdd04d8	-0.026979849
21	0xbd4ef54e	-0.05052691
22	0xbc43e968	-0.011957504
23	0xbce35320	-0.027749598
24	0x3d45aeb8	0.048262328
25	0x3c0bbc88	0.008528836
26	0xbc8ba276	-0.01704524
27	0x3c48e480	0.01226151
28	0x3cda0ab4	0.026616432
29	0x3c17c8f0	0.009264216
30	0xbbfa9b88	-0.0076479353
31	0x3d5fd514	0.054646567
32	0xbbe3c028	-0.006950397
33	0xbd2916ba	-0.04128144
34	0xbcbd41f8	-0.023102745
35	0xbd481b0c	-0.04885392
36	0x3d56f268	0.05247727
37	0x3d185026	0.03718581
38	0x3d378d0e	0.044812255
39	0x3bc03c00	0.0058665276
40	0x3ccbaee8	0.024863675
41	0xbd55a12a	-0.05215565
42	0xbc0bf040	-0.008541167
43	0x3d6070b6	0.05479499
44	0xbd4be661	-0.049780253
45	0xbd394b02	-0.04523755
46	0x3d4e8f9e	0.050429933
47	0x3d4dd440	0.050251245
48	0xbc424f20	-0.011859685
49	0x3aa4ec80	0.001258269
50	0xbcd88542	-0.02643073
51	0xbd133458	-0.03593859
52	0x3cfbdfe4	0.030746408
53	0xbd2a6a7b	-0.041605454
54	0xbc0d778c	-0.008634459
55	0xbcffd432	-0.031229112
56	0xbd309f32	-0.04312057
57	0x3d4dc99e	0.050241105
58	0x3bc6fe70	0.006072812
59	0xbd1c1e68	-0.038114935
60	0x3c7b80d8	0.015350543
61	0xbcfae810	-0.030628234
62	0x3d25bf96	0.040465914
63	0xbd4fb775	-0.050712068
64	0xbd3a2bd6	-0.04545196
65	0xbbfe95d0	-0.007769324
66	0x3ca30848	0.01990141
67	0xbbf3a688	-0.0074356236
68	0xbcb432ec	-0.021996938
69	0x3d4d9c02	0.05019761
70	0xbd4628d8	-0.048378795
71	0xbc45762c	-0.0120521
72	0x3ce9b534	0.028528787
73	0x3cee735c	0.029107742
74	0x3ceae3c4	0.02867306
75	0xbcb3845e	-0.021913704
76	0x3caa2998	0.020771787
77	0x3d678284	0.056520954
78	0xbd629a6f	-0.05532306
79	0xbd02bc43	-0.03191782
80	0xbad28500	-0.0016061366
81	0x3c912f0c	0.017722629
82	0x3cc28130	0.023743242
83	0xbd28528e	-0.041094355
84	0x3d6216f4	0.05519767
85	0x3cdde07c	0.027084582
86	0x3d53de7e	0.051725857
87	0xbc2dd9cc	-0.010611009
88	0x3c8333c4	0.016015895
89	0xbc8394e2	-0.016062204
90	0xbd412344	-0.047152773
91	0x3c7d1ea8	0.015449204
92	0x3d160198	0.036622614
93	0xbc208850	-0.009798124
94	0xbcb0fa02	-0.021603588
95	0x3c194738	0.009355359
96	0xbc758acc	-0.014986705
97	0x3d444024	0.04791273
98	0xbcc93572	-0.024561618
99	0xbcbf7ffc	-0.023376457
100	0xbd146cd4	-0.0362366
101	0x3cac785c	0.021053486
102	0x3caddda4	0.02122385
103	0xbd63d542	-0.0556233
104	0x3c8689ec	0.016423188
105	0xbcfe81dc	-0.031067781
106	0xbd54ec90	-0.051983416
107	0xbd69bae6	-0.057063006
108	0xbd67ea0a	-0.05661968
109	0x3d5d7ea4	0.054075852
110	0xbc459d7c	-0.012061473
111	0xbd6ca1df	-0.05777156
112	0xbd0c0caa	-0.034191765
113	0xbd3f7654	-0.046743706
114	0x3cb5ce94	0.02219323
115	0xbd6c0312	-0.057620116
116	0x3d5b25ac	0.053502724
117	0xbc039c70	-0.008032903
118	0x3cf0b738	0.02938424
119	0x3d10f076	0.03538557
120	0xbd02116e	-0.031754903
121	0x3d5da5ea	0.054113306
122	0x3d360518	0.04443845
123	0xbd6647e5	-0.056220908
124	0xbd58da76	-0.052942716
125	0x3d03a194	0.032136515
126	0xbc900554	-0.017580666
127	0x3d095298	0.033526033
128	0x3d2bf80e	0.04198461
129	0xbc7ae6b8	-0.015313797
130	0x3d1bbb02	0.03802014
131	0xbd015c8b	-0.031582396
132	0xbcdaf146	-0.026726376
133	0x3d4281a6	0.047486924
134	0xbd117906	-0.035515808
135	0xbd1075d6	-0.035268627
136	0xbd4e09ec	-0.05030243
137	0x3d52db00	0.051478386
138	0x3c638018	0.01388552
139	0xbce73d36	-0.02822743
140	0xbd683870	-0.056694448
141	0x3c32e2c8	0.010918327
142	0x3d219e0a	0.03945736
143	0xbd1db10e	-0.03849893
144	0x3c6ac9e8	0.014330365
145	0xbb5f95c0	-0.0034116358
146	0x3ccb24fc	0.024797909
147	0xbd4f883b	-0.05066703
148	0xbd1dd842	-0.038536318
149	0xbc018f38	-0.007907681
150	0xbcdae9be	-0.026722785
151	0x39de1f00	0.00042366236
152	0xbd6b051d	-0.057377923
153	0xbd0333c6	-0.032031797
154	0xbc4a7358	-0.012356602
155	0x3d5a7c10	0.05334097
156	0xbb8a6d58	-0.0042244606
157	0x3d4a629a	0.04941044
158	0x3d4a4f24	0.04939188
159	0x3cba7024	0.022758551
160	0xbb59f680	-0.0033258498
161	0x3ccd94e8	0.025095418
162	0x3cc1d59c	0.023661427
163	0xbb9e62f0	-0.0048335716
164	0x3d0a6842	0.033790834
165	0x3d132268	0.035921484
166	0xbc7d8770	-0.015474185
167	0x3c311410	0.010808006
168	0xbc17dc04	-0.009268764
169	0x3d187720	0.03722298
170	0xbd53b83b	-0.051689368
171	0xbd48a3c6	-0.04898431
172	0x3d75f020	0.060043454
173	0x3ca66c00	0.02031517
174	0xbd7e4407	-0.062076595
175	0x3cb8ce2c	0.022559248
176	0x3cd0951c	0.025461726
177	0x3bb2ae30	0.0054528937
178	0x3d1fcec0	0.03901553
179	0x3b1a5160	0.0023547038
180	0xbd118009	-0.035522494
181	0xbcce18c8	-0.025158301
182	0x3b709d00	0.0036714673
183	0xbd1f997a	-0.038964726
184	0xbbddfc30	-0.006774448
185	0xbd749273	-0.059709977
186	0x376da000	1.4163554e-05
187	0xbcc87530	-0.024469942
188	0xbc940c28	-0.018072203
189	0xbd04b472	-0.03239865
190	0x3d7fddfc	0.06246756
191	0xbd4addde	-0.049527995
192	0xbc9e10c6	-0.019295108
193	0xbd2ca8d6	-0.042153202
194	0xbd3b0a8f	-0.045664366
195	0x3cc5aa70	0.024129122
196	0xbd669e49	-0.056303296
197	0xbc464c98	-0.012103222
198	0x3d071c82	0.03298617
199	0x3cf140b8	0.029449806
200	0x3d0ee040	0.03488183
201	0x3d6bffe4	0.057617083
202	0xbd4b648e	-0.049656443
203	0xbd468380	-0.048465252
204	0xbc639a18	-0.013891719
205	0xbc3db8bc	-0.011579689
206	0xbd15b888	-0.036552936
207	0x3d547260	0.05186689
208	0x3d06300e	0.032760672
209	0xbd61ad48	-0.055096895
210	0x3bab15f0	0.005221121
211	0xbd736d2a	-0.05943028
212	0x3d3f9c1a	0.04677973
213	0x3c7c7140	0.01540786
214	0x3cb59ef0	0.022170514
215	0xbd0fd750	-0.035117447
216	0x3ccc7c90	0.02496174
217	0xbc3a6fa4	-0.011379156
218	0xbd77b337	-0.060473647
219	0xbd05a716	-0.03263005
220	0xbc843632	-0.016139124
221	0x3cb66698	0.022265717
222	0xbbb17830	-0.005415939
223	0xbceb456e	-0.02871963
224	0x3c158490	0.009125844
225	0xbd16b829	-0.036796723
226	0x3d0d8b48	0.034556657
227	0xbd5514e9	-0.052021895
228	0xbd0d6118	-0.034516424
229	0x3d555efa	0.05209253
230	0xbc32a9b0	-0.010904714
231	0xbd273aa5	-0.040827412
232	0xbd3d41ee	-0.046205454
233	0x3c95ae1c	0.018271498
234	0x3ce4b064	0.02791614
235	0x3ca9841c	0.020692877
236	0xbcbfecec	-0.023428403
237	0x3d24f4e8	0.040272623
238	0xbc24fc4c	-0.010069918
239	0xbc1ef6d0	-0.009702399
240	0xbc896840	-0.016773343
241	0xbc5c28ac	-0.013437431
242	0x3caeb1e8	0.021325067
243	0x3d20036e	0.03906577
244	0x3d0b8f8e	0.03407245
245	0x3d7fb3ce	0.062427334
246	0x3d404e06	0.04694941
247	0x3d0335e8	0.03203383
248	0x3b4b7ba0	0.0031049028
249	0x3d5d7564	0.05406703
250	0x3caf5944	0.02140487
251	0xbbd66bb8	-0.006543603
252	0x3d519dc2	0.05117584
253	0xbc1c9e14	-0.009559173
254	0xbca19c22	-0.01972777
255	0xbd304fa0	-0.043044686

network_body.observation_encoder.processors.0.conv_layers.2.bias f4 [32]
0	0x3c5e3d88	0.013564475
1	0x3d6f7d8e	0.058469348
2	0x3c5d36f0	0.013501868
3	0xbd3a3160	-0.045457244
4	0x3cb72138	0.022354707
5	0xbd188422	-0.037235387
6	0xbc1c3b08	-0.0095355585
7	0x3bc0b870	0.0058813617
8	0x3d00735c	0.031360015
9	0x3cf31148	0.029671326
10	0xbc3794d0	-0.011204913
11	0xbba1f4e0	-0.0049425215
12	0xbd51f730	-0.051261127
13	0x3cd05ad8	0.025433943
14	0x3ce8ca44	0.02841676
15	0x3d584a46	0.052805208
16	0xbc2df880	-0.010618329
17	0x3c4664e8	0.012109019
18	0xbc865280	-0.016396761
19	0xbd0291be	-0.03187727
20	0x3c5dd3d8	0.013539277
21	0xbccac1d6	-0.024750631
22	0xbd67dd50	-0.056607544
23	0x3ce7c6c8	0.028293028
24	0xbd07f037	-0.03318807
25	0xbd1342a4	-0.035952225
26	0xbc7686e0	-0.015046805
27	0xbd1d4d1c	-0.038403615
28	0x3cbdf404	0.023187645
29	0x3c0b6fe0	0.00851056
30	0xbd4bc5de	-0.049749248
31	0xbba9a380	-0.0051769614

network_body.observation_encoder.processors.0.dense.0.weight f4 [128, 32]
0	0x3ec5ba67	0.38618776
1	0x3e381467	0.17976533
2	0x3eb6716e	0.35633415
3	0xbe061e1c	-0.13097423
4	0x3ea99f86	0.3312952
5	0x3da26f30	0.079313636
6	0xbe5b7805	-0.21432503
7	0xbe8faf90	-0.2806363
8	0x3ec72a66	0.38899535
9	0xbe4e2143	-0.20129876
10	0x3eeb1f20	0.45922184
11	0x3e26ed31	0.16301419
12	0xbd75e073	-0.060028505
13	0xbea7bbdd	-0.32760516
14	0x3e1ab552	0.1510823
15	0x3eb5ff6d	0.35546437
16	0x3cc7a5d1	0.02437106
17	0x3de5c1b5	0.11218587
18	0x3c3aa6fe	0.011392353
19	0xbe1dac2f	-0.15397714
20	0x3e1b7cb6	0.15184292
21	0x3d980d52	0.07424416
22	0x3e90e70c	0.28301275
23	0xbd22e6c2	-0.03977085
24	0xbedcc279	-0.4311712
25	0x3e933483	0.28751
26	0x3e1334b6	0.14375576
27	0x3dfaa4bc	0.12238452
28	0x3e18ffb5	0.14941294
29	0x3e2ecb6a	0.17069784
30	0xbdc1a186	-0.09454636
31	0x3e954946	0.29157466
32	0xbee3b964	-0.4447738
33	0xbeb9125f	-0.3614683
34	0xbf0e2a07	-0.5553288
35	0xbe277a53	-0.16355257
36	0xbde53310	-0.1119138
37	0xbd14304a	-0.036178865
38	0x3acefed4	0.0015792497
39	0xbee67da7	-0.4501774
40	0x3f1af916	0.60536325
41	0xbe184986	-0.14871797
42	0x3edad1f3	0.42738304
43	0xbea32b96	-0.3186919
44	0x3e8a2ebb	0.26988778
45	0x3ca4149c	0.020029359
46	0x3c3c0e5a	0.011478031
47	0x3e5368a5	0.20645387
48	0x3e637b62	0.22215036
49	0x3e498176	0.19678292
50	0xbf0402a7	-0.5156655
51	0xbee4ce64	-0.44688714
52	0xbe9d2481	-0.30691913
53	0xbccfc883	-0.025364166
54	0xbea6de69	-0.3259156
55	0x3e278212	0.16358212
56	0x3d74ff18	0.05981359
57	0xbd24fee9	-0.040282164
58	0xbe87c238	-0.26515365
59	0xbcdb9c6d	-0.026807988
60	0xbe32343e	-0.17402741
61	0x3dab17f1	0.08354176
62	0x3dfbb6bc	0.12290713
63	0x3e9f8b76	0.31161088
64	0xbe5abd2c	-0.21361226
65	0x3e21ed17	0.15813099
66	0xbe19da4e	-0.15024683
67	0x3e7735a2	0.24141553
68	0xbdebb373	-0.115088366
69	0xbe6e043f	-0.23243807
70	0x3e528800	0.20559692
71	0xbe871539	-0.2638338
72	0x3e5e827a	0.2172946
73	0xbea4921c	-0.32142723
74	0xbdc7687e	-0.09736727
75	0xbb9c0ab3	-0.0047620176
76	0xbe313091	-0.17303683
77	0x3da66b49	0.08125932
78	0xbe773929	-0.24142899
79	0x3e0d846d	0.13820048
80	0xbbc7f5b5	-0.0061022886
81	0x3e5f051e	0.21779296
82	0xb7b7e641	-2.192252e-05
83	0xbe1ff2a1	-0.156199
84	0x3ed34fc7	0.41271803
85	0xbe1c594b	-0.15268438
86	0xbda3652d	-0.07978282
87	0x3d2334e5	0.039845366
88	0x3e327952	0.17429093
89	0x3e98bb1b	0.2983025
90	0x3ead8a77	0.33894703
91	0x3ec635c0	0.38712883
92	0xbed998c2	-0.42499357
93	0x3e19bba2	0.15012982
94	0x3db83c7b	0.08995911
95	0x3e659c47	0.22422896
96	0x3ea3e1b6	0.3200814
97	0x3e145008	0.14483654
98	0xbd36f7be	-0.04466986
99	0x3e1eb5c7	0.1549903
100	0xbeca1a31	-0.39473107
101	0x3d8a0fe9	0.06741316
102	0xbe114433	-0.14186172
103	0x3eebacdd	0.46030322
104	0xbd780636	-0.0605528
105	0xbc43b7e1	-0.011945696
106	0xbd82e9f9	-0.06392283
107	0xbd2cfc7a	-0.042232968
108	0xbd1f103c	-0.03883384
109	0x3e79a67b	0.24379914
110	0x3db2f316	0.08737771
111	0xbe3deff7	-0.1854857
112	0xbec72253	-0.38893375
113	0x3d638a4a	0.055551805
114	0x3eb487ea	0.35259944
115	0xbe0e388a	-0.13888755
116	0xbe144950	-0.14481091
117	0x3e6d4763	0.23171763
118	0xbcfe88ee	-0.031071153
119	0xbe1201b3	-0.1425846
120	0xbded0581	-0.115733154
121	0x3c75d6f1	0.015004859
122	0xbe1e6125	-0.15466745
123	0x3cdc081a	0.026859332
124	0x3e60f538	0.21968544
125	0xbe853f74	-0.26024973
126	0x3f0602aa	0.52347815
127	0xbc7a5799	-0.015279674
128	0xbe43efe8	-0.19134486
129	0x3a8dffbc	0.0010833661
130	0xbdd0713d	-0.101778485
131	0x3f0e00c8	0.5546994
132	0x3eec1c3e	0.46115297
133	0x3e8de5d8	0.2771442
134	0x3e07a8d8	0.13248003
135	0xbd229750	-0.039695084
136	0x3d75d61d	0.060018647
137	0xbe19e068	-0.1502701
138	0xbcfb3dcb	-0.030669114
139	0xbeb3ec55	-0.35141245
140	0xbeaa6876	-0.33282822
141	0x3ce1757a	0.027521838
142	0xbee49d4b	-0.44651255
143	0xbe25ee0b	-0.16204087
144	0xbe1af53d	-0.15132613
145	0x3e9ad632	0.30241543
146	0x3ddb2700	0.10700798
147	0x3f54247d	0.82868177
148	0x3ec86bb9	0.39144686
149	0x3c862d33	0.016378975
150	0x3e7347f7	0.23757921
151	0x3e9a091a	0.3008507
152	0xbea00894	-0.31256545
153	0x3e9a2369	0.3010514
154	0xbde7a69b	-0.11311074
155	0xbe825807	-0.25457785
156	0x3c8eb9c2	0.01742256
157	0xbe1d08e0	-0.15335417
158	0x3ebad155	0.36487833
159	0x3d3a299c	0.045449838
160	0x3ebad5db	0.36491284
161	0x3dedff1a	0.116209224
162	0xbe0228e5	-0.12710913
163	0xbd553822	-0.052055486
164	0x3e410592	0.18849781
165	0x3e7851f4	0.24250013
166	0x3ebf18d9	0.37323645
167	0xbe966329	-0.29372528
168	0x3e5c4bb7	0.21513258
169	0x3c508478	0.0127268955
170	0x3ed66b63	0.41878805
171	0x3ebe25f7	0.3713834
172	0xbd611418	-0.054950804
173	0xbdc9e741	-0.09858561
174	0xbea64232	-0.32472378
175	0xbd244d4f	-0.04011279
176	0x3e7ab3a1	0.24482585
177	0x3e7b8723	0.2456327
178	0xbdc83ce8	-0.09777242
179	0xbe6e1923	-0.23251776
180	0xbe9295d9	-0.2862995
181	0x3caf9ca9	0.021437006
182	0x3e2109f7	0.15726458
183	0x3e27860c	0.16359729
184	0x3e5cc1ce	0.21558306
185	0xbecbd735	-0.39812627
186	0xbb7a9998	-0.0038238522
187	0xbc9baa33	-0.019002056
188	0xbef2517d	-0.47327796
189	0x3edc9a6d	0.43086568
190	0x3e4b2b5e	0.19840762
191	0x3e6d46f3	0.23171596
192	0xbec36901	-0.3816605
193	0x3e54e6fe	0.20791242
194	0xbe6d8f77	-0.23199259
195	0x3e90dcb6	0.2829339
196	0x3e4b3529	0.19844498
197	0x3c42e2b2	0.011894869
198	0xbc459860	-0.012060255
199	0x3e8f9e36	0.28050393
200	0xbf2be959	-0.67152935
201	0xbea6eeeb	-0.32604155
202	0x3e3fc2a3	0.18726592
203	0xbea2d7cf	-0.31805274
204	0x3e55ca6a	0.20877996
205	0xbe51e983	-0.20499234
206	0x3dfb03a6	0.12256555
207	0xbd41c8d4	-0.047310665
208	0xbe9cdcbe	-0.30637163
209	0x3e5bb8b6	0.2145718
210	0x3e50d27e	0.20392796
211	0x3de09fe3	0.10967996
212	0xbd104382	-0.03522063
213	0x3eedf5ac	0.46476495
214	0x3e5cdfcc	0.21569747
215	0xbe75c46e	-0.24000713
216	0xbf3ebd26	-0.7450737
217	0x3e13e7c3	0.14443879
218	0xbc4dfcf0	-0.012572512
219	0xbeff6ec6	-0.498892
220	0xbdc5c2d5	-0.09656302
221	0x3da7e912	0.081987515
222	0xbd24acd8	-0.0402039
223	0xba8fe732	-0.0010978936
224	0x3f0e6896	0.55628335
225	0x3e8976d8	0.26848483
226	0x3e203e01	0.15648653
227	0x3e1b659c	0.1517548
228	0x3d909c31	0.07061041
229	0x3ddb8c5c	0.10720131
230	0x3c783357	0.015148959
231	0x3d44e17d	0.048066605
232	0xbe5fd633	-0.21859054
233	0xbd3dae98	-0.046309084
234	0xbdb6b4a8	-0.08921176
235	0xbe6cadb7	-0.23113142
236	0xbd57f9b6	-0.052728377
237	0xbe9ded3b	-0.30845055
238	0x3dffc9a7	0.12489634
239	0xbe3b20c8	-0.18274224
240	0x3dbc727d	0.092015244
241	0xbd98ebf8	-0.074668825
242	0xbe393a4b	-0.18088643
243	0xbe4ed914	-0.20199996
244	0xbdf027d9	-0.1172635
245	0xbe5c44ee	-0.2151067
246	0x3e451bd6	0.192489
247	0x3b9332e3	0.00449215
248	0x3f0ef830	0.55847454
249	0xbea5796e	-0.32319206
250	0x3eb5c5fa	0.35502607
251	0x3dc52b62	0.09627415
252	0xbef3ba36	-0.47603005
253	0xbde3bd8b	-0.11120137
254	0x3ea64166	0.3247177
255	0x3e9a397f	0.3012199

network_body.observation_encoder.processors.0.dense.0.bias f4 [128]
0	0x00000000	0.0
1	0x00000000	0.0
2	0x00000000	0.0
3	0x00000000	0.0
4	0x00000000	0.0
5	0x00000000	0.0
6	0x00000000	0.0
7	0x00000000	0.0
8	0x00000000	0.0
9	0x00000000	0.0
10	0x00000000	0.0
11	0x00000000	0.0
12	0x00000000	0.0
13	0x00000000	0.0
14	0x00000000	0.0
15	0x00000000	0.0
16	0x00000000	0.0
17	0x00000000	0.0
18	0x00000000	0.0
19	0x00000000	0.0
20	0x00000000	0.0
21	0x00000000	0.0
22	0x00000000	0.0
23	0x00000000	0.0
24	0x00000000	0.0
25	0x00000000	0.0
26	0x00000000	0.0
27	0x00000000	0.0
28	0x00000000	0.0
29	0x00000000	0.0
30	0x00000000	0.0
31	0x00000000	0.0
32	0x00000000	0.0
33	0x00000000	0.0
34	0x00000000	0.0
35	0x00000000	0.0
36	0x00000000	0.0
37	0x00000000	0.0
38	0x00000000	0.0
39	0x00000000	0.0
40	0x00000000	0.0
41	0x00000000	0.0
42	0x00000000	0.0
43	0x00000000	0.0
44	0x00000000	0.0
45	0x00000000	0.0
46	0x00000000	0.0
47	0x00000000	0.0
48	0x00000000	0.0
49	0x00000000	0.0
50	0x00000000	0.0
51	0x00000000	0.0
52	0x00000000	0.0
53	0x00000000	0.0
54	0x00000000	0.0
55	0x00000000	0.0
56	0x00000000	0.0
57	0x00000000	0.0
58	0x00000000	0.0
59	0x00000000	0.0
60	0x00000000	0.0
61	0x00000000	0.0
62	0x00000000	0.0
63	0x00000000	0.0
64	0x00000000	0.0
65	0x00000000	0.0
66	0x00000000	0.0
67	0x00000000	0.0
68	0x00000000	0.0
69	0x00000000	0.0
70	0x00000000	0.0
71	0x00000000	0.0
72	0x00000000	0.0
73	0x00000000	0.0
74	0x00000000	0.0
75	0x00000000	0.0
76	0x00000000	0.0
77	0x00000000	0.0
78	0x00000000	0.0
79	0x00000000	0.0
80	0x00000000	0.0
81	0x00000000	0.0
82	0x00000000	0.0
83	0x00000000	0.0
84	0x00000000	0.0
85	0x00000000	0.0
86	0x00000000	0.0
87	0x00000000	0.0
88	0x00000000	0.0
89	0x00000000	0.0
90	0x00000000	0.0
91	0x00000000	0.0
92	0x00000000	0.0
93	0x00000000	0.0
94	0x00000000	0.0
95	0x00000000	0.0
96	0x00000000	0.0
97	0x00000000	0.0
98	0x00000000	0.0
99	0x00000000	0.0
100	0x00000000	0.0
101	0x00000000	0.0
102	0x00000000	0.0
103	0x00000000	0.0
104	0x00000000	0.0
105	0x00000000	0.0
106	0x00000000	0.0
107	0x00000000	0.0
108	0x00000000	0.0
109	0x00000000	0.0
110	0x00000000	0.0
111	0x00000000	0.0
112	0x00000000	0.0
113	0x00000000	0.0
114	0x00000000	0.0
115	0x00000000	0.0
116	0x00000000	0.0
117	0x00000000	0.0
118	0x00000000	0.0
119	0x00000000	0.0
120	0x00000000	0.0
121	0x00000000	0.0
122	0x00000000	0.0
123	0x00000000	0.0
124	0x00000000	0.0
125	0x00000000	0.0
126	0x00000000	0.0
127	0x00000000	0.0

network_body._body_endoder.seq_layers.0.weight f4 [128, 137]
0	0xbdfb5bb5	-0.12273351
1	0xbcd64366	-0.026155185
2	0xbc82ff4a	-0.015990872
3	0xbb2fae46	-0.0026806756
4	0x38f3acbb	0.000116193165
5	0x3cea504e	0.028602745
6	0xbd9ab9bd	-0.07554958
7	0x3da3c135	0.07995836
8	0xbde92f56	-0.11385982
9	0xbb4f1464	-0.0031597847
10	0xbd7908d4	-0.060799435
11	0xbded5d81	-0.115901
12	0xbddcce34	-0.107815176
13	0x3ce0d4ea	0.027445275
14	0x3c968c22	0.018377367
15	0xbe4806a9	-0.1953379
16	0xbb31dcfd	-0.0027139776
17	0x3e076a3f	0.13224123
18	0xbd9778b1	-0.07396067
19	0xbdaa723a	-0.08322568
20	0xbce4d79d	-0.027934844
21	0x3a854ec9	0.0010170575
22	0xbd875230	-0.06607473
23	0xbe3af1b5	-0.18256266
24	0x3d3c8432	0.04602451
25	0x3c9f3b1f	0.01943737
26	0xbd1856cb	-0.037192147
27	0x3e29c330	0.16578364
28	0xbdb72de7	-0.08944302
29	0xbdc2e262	-0.09515835
30	0x3d47d74c	0.048789307
31	0xbad703d6	-0.0016404341
32	0xba764508	-0.0009394442
33	0xbdb3fac1	-0.08788062
34	0x3ce511a1	0.027962508
35	0xbd21bc24	-0.039486066
36	0x3d18148d	0.037128974
37	0xbb8a4330	-0.004219435
38	0xbc3b92a7	-0.011448539
39	0xbd87d814	-0.066330105
40	0xbe1fc867	-0.15603791
41	0xbd5209b5	-0.05127879
42	0xbd439958	-0.047753662
43	0x3cd0ccc5	0.025488267
44	0xbd210b75	-0.039317567
45	0xbd8f5ff4	-0.070007235
46	0xbc2f887e	-0.010713695
47	0xbe4731bd	-0.19452567
48	0x3cb2e329	0.021836834
49	0xbe083066	-0.13299713
50	0xbda81f34	-0.082090765
51	0x3c84e45e	0.016222175
52	0xbd963574	-0.07334414
53	0xbd89c58a	-0.06727131
54	0xbe263fef	-0.16235326
55	0x3b0737df	0.0020632667
56	0x3e33e7e6	0.17568931
57	0xbe3b3db3	-0.18285255
58	0xbce22399	-0.027604865
59	0xbccce2bf	-0.025010465
60	0x3d493df2	0.04913134
61	0x3da9e798	0.08296126
62	0xbe19d099	-0.1502098
63	0x3e62f54d	0.22163887
64	0xbd942123	-0.07232883
65	0xbd19f39c	-0.03758584
66	0x3d47cdca	0.04878024
67	0xbe0cb1ae	-0.13739654
68	0xbd56589f	-0.05233061
69	0x3d809c21	0.06279779
70	0x3c3c1cb5	0.011481454
71	0xbba2004a	-0.004943882
72	0x3c4456cd	0.011983586
73	0xbd08a254	-0.033357933
74	0xbdb59e04	-0.0886803
75	0xbe17929d	-0.14802022
76	0xbdabb9f5	-0.08385078
77	0x3d595406	0.053058647
78	0x3e0dc4f4	0.13844663
79	0xbc1ea3b2	-0.009682583
80	0x3d276610	0.04086882
81	0xbe050681	-0.12990762
82	0xbcdfe1ae	-0.027329292
83	0xbcf2f556	-0.029658
84	0xbdb93d3b	-0.09044882
85	0xbd8f9407	-0.07010656
86	0xbda8f5c4	-0.08250001
87	0x3d8978b2	0.06712474
88	0xbe11c282	-0.14234355
89	0xbd83d794	-0.06437603
90	0x3cb68f48	0.022285119
91	0xbdd581c6	-0.10425143
92	0x3cc5574c	0.024089478
93	0x3bb4e117	0.005519997
94	0xbe197aca	-0.14988247
95	0x3bb656ca	0.0055645453
96	0x3d5f400e	0.054504447
97	0x3ced55f4	0.02897165
98	0xbaecb111	-0.0018058141
99	0xbdf98290	-0.12183106
100	0x3d60039d	0.054690946
101	0x3dfc7767	0.12327462
102	0xbe0579c5	-0.13034733
103	0x3c5d3fd3	0.013503986
104	0xbdaaa410	-0.08332074
105	0x3e7f64e9	0.24940838
106	0xbdbc8e6d	-0.09206853
107	0x3e1a973c	0.15096754
108	0x3e39885b	0.18118422
109	0xbd4ba76b	-0.04972021
110	0x3df42be9	0.11922438
111	0xbde9b988	-0.114123404
112	0xbe1d8164	-0.1538139
113	0x3d95755f	0.072977774
114	0xbdbd3f86	-0.09240632
115	0x3d612494	0.054966524
116	0x3db8dde4	0.09026697
117	0x3c803fbd	0.015655393
118	0xbcdaa555	-0.026690165
119	0xbdaca6a5	-0.084302224
120	0xbd7bd81e	-0.061485402
121	0x3dfe1b99	0.124076076
122	0x3db0a005	0.08624271
123	0xbcd4b83a	-0.025966752
124	0x3e1123ca	0.14173809
125	0x3bb93cb4	0.0056529883
126	0x3d24246b	0.040073793
127	0xba7c8981	-0.0009633527
128	0xbd2189ac	-0.039437935
129	0xbccda5a8	-0.025103405
130	0x3d05a67f	0.032629486
131	0xbd456c8c	-0.04819922
132	0x3c228f52	0.009921866
133	0xbde471bc	-0.111545056
134	0x3c9145b0	0.017733425
135	0xbe02f35e	-0.1278815
136	0xbca6421c	-0.020295195
137	0x3c5af888	0.0133649185
138	0xbd9a3999	-0.07530517
139	0x3cfb9596	0.030710977
140	0x3ce23253	0.027611887
141	0x3df9574d	0.121748544
142	0xbd890ecb	-0.06692275
143	0x3d35cae8	0.04438296
144	0xbc20fb51	-0.0098255435
145	0x3db2b11b	0.087251864
146	0x3b672937	0.0035272369
147	0xbb89b078	-0.004201945
148	0x3ce4c064	0.02792377
149	0xbcbd9084	-0.0231402
150	0xbc878b23	-0.016545838
151	0xbd2c38a9	-0.042046223
152	0x3df4eb87	0.11958986
153	0xbcf2215c	-0.029556923
154	0xbda3874f	-0.079847924
155	0x3dea9032	0.11453284
156	0x3d4da754	0.050208405
157	0x3ccc931d	0.024972493
158	0x3e23d8e9	0.16000713
159	0xba4af323	-0.00077419187
160	0xbcca358d	-0.024683738
161	0xbcded3a5	-0.02720053
162	0x3d5059b5	0.0508668
163	0xbdc5b842	-0.09654285
164	0xbd4ae785	-0.0495372
165	0x3be83148	0.007085953
166	0x3d1a8a90	0.0377298
167	0xbd9fa040	-0.07794237
168	0xbc61f587	-0.013791448
169	0xbcf3a616	-0.029742282
170	0x3ccd3891	0.025051387
171	0xbc9c61fe	-0.019089695
172	0x3d82e738	0.06391758
173	0xbd682d9d	-0.056684125
174	0x3e000175	0.12500556
175	0xbde0eb37	-0.10982364
176	0xbe047a08	-0.12937176
177	0xbda0b152	-0.07846321
178	0x3e053b19	0.13010825
179	0xbdc7ee6d	-0.09762273
180	0xbc06b6c7	-0.008222288
181	0xb93c75d6	-0.00017972974
182	0xbd3f49d7	-0.04670128
183	0x3c400c8d	0.011721742
184	0xba6c2d2d	-0.0009009417
185	0x3e0ea340	0.13929462
186	0xbd18106e	-0.037125044
187	0x3d480b87	0.04883912
188	0xbd9d3f7d	-0.07678125
189	0xbcc9abe7	-0.024618102
190	0x3e1025aa	0.14076868
191	0x3b25958e	0.0025266143
192	0x3de24c77	0.11049741
193	0xbe065176	-0.13117012
194	0xbdce196f	-0.10063445
195	0x3cc5682c	0.024097525
196	0x3c9a65bf	0.018847344
197	0x3d0674e6	0.032826327
198	0x3b6d014c	0.0036164103
199	0x3e0b8e00	0.13628387
200	0xbbce576f	-0.006297044
201	0xbdba593e	-0.09099053
202	0x3c601495	0.013676782
203	0xbdadf9f5	-0.08494941
204	0xbd9293ce	-0.07157098
205	0xbdedc07a	-0.116089776
206	0xbda96fff	-0.08273315
207	0xbc43abe4	-0.011942837
208	0xbd399c8f	-0.04531532
209	0x3e525d4a	0.205434
210	0x3d75c20b	0.059999507
211	0x3c91f10a	0.017815132
212	0x3d655c60	0.0559963
213	0x3d1cc852	0.038276978
214	0xbe1f9871	-0.15585496
215	0x3dda0d3f	0.10647058
216	0xbd7d2ba0	-0.061809182
217	0xbd1e0403	-0.038578045
218	0x3d33a202	0.043855675
219	0xbcf391b9	-0.029732572
220	0x3d729bb8	0.059230536
221	0xbe247506	-0.16060266
222	0xbbee990a	-0.0072814273
223	0x3ded9c8f	0.11602127
224	0xbe099762	-0.13436654
225	0xbe0affec	-0.13574189
226	0xbdc2b0dc	-0.095063895
227	0xbd828eb2	-0.06374873
228	0x3e8636e2	0.26213747
229	0x3dd33f28	0.103147805
230	0xbe2378a0	-0.15963984
231	0x3babc9da	0.0052425684
232	0x3d16bc74	0.036800817
233	0x3cb3a5ed	0.021929706
234	0xbbb01f9a	-0.005374861
235	0xbd280104	-0.041016594
236	0xbe5da03b	-0.21643154
237	0x3df23812	0.11827101
238	0xbc260178	-0.010132186
239	0xbd3307af	-0.0437085
240	0x3d826077	0.063660555
241	0xbd7f10a8	-0.062271744
242	0xbde1a3a0	-0.11017537
243	0xbcc8c7dc	-0.024509363
244	0x3d081b78	0.03322932
245	0x3e3a0027	0.1816412
246	0x3b7a2a80	0.0038172305
247	0x3cd3d4fd	0.025858397
248	0xbe2e802d	-0.17041083
249	0xbd543f35	-0.05181809
250	0x3da538ed	0.08067498
251	0x3e25608d	0.16150112
252	0xbdcad946	-0.09904723
253	0xbb1740fb	-0.0023079503
254	0xbdc75153	-0.09732308
255	0xbd774d89	-0.060376678

network_body._body_endoder.seq_layers.0.bias f4 [128]
0	0x00000000	0.0
1	0x00000000	0.0
2	0x00000000	0.0
3	0x00000000	0.0
4	0x00000000	0.0
5	0x00000000	0.0
6	0x00000000	0.0
7	0x00000000	0.0
8	0x00000000	0.0
9	0x00000000	0.0
10	0x00000000	0.0
11	0x00000000	0.0
12	0x00000000	0.0
13	0x00000000	0.0
14	0x00000000	0.0
15	0x00000000	0.0
16	0x00000000	0.0
17	0x00000000	0.0
18	0x00000000	0.0
19	0x00000000	0.0
20	0x00000000	0.0
21	0x00000000	0.0
22	0x00000000	0.0
23	0x00000000	0.0
24	0x00000000	0.0
25	0x00000000	0.0
26	0x00000000	0.0
27	0x00000000	0.0
28	0x00000000	0.0
29	0x00000000	0.0
30	0x00000000	0.0
31	0x00000000	0.0
32	0x00000000	0.0
33	0x00000000	0.0
34	0x00000000	0.0
35	0x00000000	0.0
36	0x00000000	0.0
37	0x00000000	0.0
38	0x00000000	0.0
39	0x00000000	0.0
40	0x00000000	0.0
41	0x00000000	0.0
42	0x00000000	0.0
43	0x00000000	0.0
44	0x00000000	0.0
45	0x00000000	0.0
46	0x00000000	0.0
47	0x00000000	0.0
48	0x00000000	0.0
49	0x00000000	0.0
50	0x00000000	0.0
51	0x00000000	0.0
52	0x00000000	0.0
53	0x00000000	0.0
54	0x00000000	0.0
55	0x00000000	0.0
56	0x00000000	0.0
57	0x00000000	0.0
58	0x00000000	0.0
59	0x00000000	0.0
60	0x00000000	0.0
61	0x00000000	0.0
62	0x00000000	0.0
63	0x00000000	0.0
64	0x00000000	0.0
65	0x00000000	0.0
66	0x00000000	0.0
67	0x00000000	0.0
68	0x00000000	0.0
69	0x00000000	0.0
70	0x00000000	0.0
71	0x00000000	0.0
72	0x00000000	0.0
73	0x00000000	0.0
74	0x00000000	0.0
75	0x00000000	0.0
76	0x00000000	0.0
77	0x00000000	0.0
78	0x00000000	0.0
79	0x00000000	0.0
80	0x00000000	0.0
81	0x00000000	0.0
82	0x00000000	0.0
83	0x00000000	0.0
84	0x00000000	0.0
85	0x00000000	0.0
86	0x00000000	0.0
87	0x00000000	0.0
88	0x00000000	0.0
89	0x00000000	0.0
90	0x00000000	0.0
91	0x00000000	0.0
92	0x00000000	0.0
93	0x00000000	0.0
94	0x00000000	0.0
95	0x00000000	0.0
96	0x00000000	0.0
97	0x00000000	0.0
98	0x00000000	0.0
99	0x00000000	0.0
100	0x00000000	0.0
101	0x00000000	0.0
102	0x00000000	0.0
103	0x00000000	0.0
104	0x00000000	0.0
105	0x00000000	0.0
106	0x00000000	0.0
107	0x00000000	0.0
108	0x00000000	0.0
109	0x00000000	0.0
110	0x00000000	0.0
111	0x00000000	0.0
112	0x00000000	0.0
113	0x00000000	0.0
114	0x00000000	0.0
115	0x00000000	0.0
116	0x00000000	0.0
117	0x00000000	0.0
118	0x00000000	0.0
119	0x00000000	0.0
120	0x00000000	0.0
121	0x00000000	0.0
122	0x00000000	0.0
123	0x00000000	0.0
124	0x00000000	0.0
125	0x00000000	0.0
126	0x00000000	0.0
127	0x00000000	0.0

network_body._body_endoder.seq_layers.2.weight f4 [128, 128]
0	0xbe26e52e	-0.16298363
1	0xbd8e776c	-0.06956372
2	0xbe4a4a43	-0.19754891
3	0xbca16761	-0.019702615
4	0x3dba3025	0.09091214
5	0xbd6bd4fb	-0.05757616
6	0xbc0bb7a7	-0.008527673
7	0x3c2f6bf0	0.010706887
8	0xbe0a04ce	-0.13478395
9	0x3cfa015b	0.030518224
10	0xbdfcedd0	-0.12350047
11	0x3dd1c833	0.10243263
12	0x3d26640b	0.040622752
13	0xbd53889a	-0.051643945
14	0xbe23c9e2	-0.15994981
15	0x3d09ddbd	0.03365873
16	0x3b8893af	0.004167996
17	0xbcc52f7f	-0.0240705
18	0x3d400435	0.046879012
19	0x3e2707fe	0.16311643
20	0x3daffd41	0.08593226
21	0x3d79167e	0.060812466
22	0x3de88db7	0.11355155
23	0xbcf2aea9	-0.0296243
24	0x3d0e7867	0.034782793
25	0xbd0825bb	-0.033239108
26	0xbe6de163	-0.2323051
27	0x3d39b845	0.04534175
28	0x3db5ddf4	0.08880225
29	0xbd5c80a5	-0.053833622
30	0xbd9fc04a	-0.07800348
31	0x3d9de256	0.07709186
32	0xbc3d4af4	-0.011553515
33	0xbdc5125e	-0.09622644
34	0xbe1f02f1	-0.15528466
35	0xbe41ba4c	-0.18918723
36	0x3d4db540	0.05022168
37	0x3e0a7cab	0.1352412
38	0xbe2a60c0	-0.1663847
39	0xbd91ea26	-0.071247384
40	0x3d9295e8	0.071574986
41	0xbc87d49a	-0.016580869
42	0x3d27acdf	0.040936347
43	0xbcdadca2	-0.026716534
44	0xbb9f36a7	-0.00485881
45	0x3ca831f4	0.020531632
46	0xbdf98a9b	-0.1218464
47	0x3d6e0045	0.058105726
48	0xbd076626	-0.0330564
49	0x3da53f90	0.08068764
50	0x3d6b0de7	0.057386305
51	0x3cfd7070	0.030937403
52	0xbc5e3fb9	-0.013564997
53	0x3d865806	0.06559758
54	0xbd50ece7	-0.051007178
55	0xbc52a26c	-0.012856107
56	0x3c08f316	0.008358737
57	0xbc4a3a8f	-0.012343063
58	0xbe592c9a	-0.2120842
59	0x3d0a9866	0.033836745
60	0x3c7ab54f	0.015302016
61	0x3d4f1e2d	0.050565887
62	0xbd0a8470	-0.03381771
63	0x3d19e63e	0.03757309
64	0xbd985c0d	-0.07439432
65	0xbd7f4d41	-0.062329534
66	0x3da174c7	0.07883602
67	0xbd774ac7	-0.060374048
68	0xbbaa162f	-0.005190633
69	0x3c2f74a7	0.010708964
70	0x3dd369ad	0.103228904
71	0xbdd97142	-0.10617305
72	0xbc255dba	-0.010093147
73	0x3d73d73f	0.059531447
74	0x3e0249f6	0.12723526
75	0xbd3997e4	-0.04531087
76	0xbc055f51	-0.008140401
77	0xbdd46ba9	-0.10372097
78	0xbd99bc92	-0.0750667
79	0x3c98d9c2	0.018658523
80	0xbe00a9c5	-0.12564762
81	0xbda9db70	-0.082938075
82	0xbd265c25	-0.04061522
83	0xbcc6f117	-0.024284882
84	0xbe254689	-0.16140188
85	0xbe3c8494	-0.1840995
86	0xbcad9e32	-0.021193597
87	0xbb7c2e2f	-0.0038479676
88	0xbcdb09b4	-0.026738025
89	0x3d32a7b0	0.04361695
90	0x3dec4ae5	0.115377225
91	0x3d99b770	0.07505691
92	0x3c84bb4d	0.016202593
93	0x3e14d7ee	0.14535496
94	0x3d01897a	0.03162525
95	0x3da661c8	0.08124119
96	0x3dc85bf8	0.09783167
97	0xbc9b1396	-0.018930238
98	0x3dc135d2	0.094340935
99	0xbd229dca	-0.03970126
100	0xbe198fc3	-0.14996247
101	0xbdbb9db9	-0.091609426
102	0xbd8e5ece	-0.06951676
103	0xbd4e92d7	-0.050433006
104	0xbdd225ba	-0.10261102
105	0x3d200483	0.039066803
106	0x3d295d24	0.04134859
107	0x3c826785	0.015918503
108	0x3d94d035	0.07266275
109	0x3d15ca0a	0.036569633
110	0xbcf307a0	-0.029666722
111	0x3c8591d0	0.01630488
112	0xbdafa8e1	-0.08577133
113	0x3c9a3002	0.01882172
114	0xbe166fc6	-0.14691076
115	0x3d384085	0.044983406
116	0xbd06deaf	-0.03292721
117	0xbde3b609	-0.11118705
118	0x3cff4002	0.031158451
119	0xbda0de37	-0.07854884
120	0x3d761ea3	0.06008781
121	0x3dd04a41	0.10170413
122	0xbd3b660d	-0.04575162
123	0x3db3379a	0.087508395
124	0xbdd28444	-0.10279134
125	0xbd65c2bd	-0.05609392
126	0x3caa63ce	0.020799544
127	0x3dd3d4e8	0.10343343
128	0x3da4d6a7	0.08048754
129	0x3ddb9dfd	0.10723493
130	0xbcba1cfd	-0.0227189
131	0x3a7983ce	0.00095182366
132	0x3c5f4e9e	0.013629584
133	0xbde40504	-0.11133769
134	0xbd80f640	-0.062969685
135	0xbd9759de	-0.07390188
136	0xbdde9d90	-0.108698964
137	0x3d148a2a	0.036264576
138	0xbdfda67a	-0.123852685
139	0xbe5cafb7	-0.21551405
140	0x3d0f7a8e	0.035028987
141	0xbdaba2a7	-0.08380633
142	0x3c94a416	0.018144649
143	0x3e22aa0e	0.15885183
144	0x3d6cded2	0.057829686
145	0xbdfb5efb	-0.122739755
146	0x3d5b24d3	0.053501915
147	0xbcdc2024	-0.026870795
148	0xbd33e677	-0.04392096
149	0x3c6b4e86	0.014361983
150	0x3d33d824	0.0439073
151	0xbcda33d2	-0.026636038
152	0x3d5e8d03	0.054333698
153	0x3d25cf19	0.040480707
154	0xbdbed5f1	-0.0931815
155	0x3d922ed2	0.071378365
156	0x3bf07072	0.0073376233
157	0x3d763e4c	0.060118005
158	0xbd8a91e9	-0.067661114
159	0x3dceb9db	0.10094043
160	0x3d8f350b	0.06992539
161	0xbe02c59a	-0.12770692
162	0xb902a81b	-0.0001246039
163	0xbe0fd7ab	-0.14047115
164	0xbe0b0472	-0.13575915
165	0xbdb5b87e	-0.0887308
166	0xbdc98be3	-0.098411344
167	0xbc5dfcd6	-0.01354905
168	0xbdc2680f	-0.09492504
169	0xbe038aec	-0.12845963
170	0xbd061512	-0.032734938
171	0x3defb6a4	0.11704758
172	0x3d643528	0.055714756
173	0xbe3412e9	-0.17585339
174	0xbdd115fa	-0.1020927
175	0xbd3e15f0	-0.04640764
176	0x3b8d33bf	0.004309147
177	0x3c64adc2	0.013957443
178	0xbae6af44	-0.0017599841
179	0xbe01975f	-0.126554
180	0xbd306740	-0.043067217
181	0xbda281ce	-0.079349145
182	0xbe1115f1	-0.14168526
183	0x3dac5e0c	0.084163755
184	0xbd1b062d	-0.037847687
185	0x3e1ef8a5	0.15524538
186	0x3d887cba	0.06664415
187	0x3e146f77	0.14495645
188	0xbd90cefe	-0.070707306
189	0xbe1ee296	-0.15516123
190	0xbe2b835d	-0.1674933
191	0x3e384442	0.17994788
192	0x3bc33691	0.0059574326
193	0x3d6b46c2	0.057440527
194	0x3d43ef70	0.047835767
195	0xbdaea128	-0.08526832
196	0xbd9bdd2b	-0.07610544
197	0x3e63ddde	0.22252604
198	0xbbdc5d90	-0.0067250207
199	0xbd23c7b7	-0.039985385
200	0x3c55333f	0.013012706
201	0xbd10dfb5	-0.035369594
202	0x3e037f14	0.12841445
203	0xbe00040f	-0.12501548
204	0xbcf72ab4	-0.03017173
205	0xbcfa24dd	-0.030535156
206	0xbdf9842d	-0.12183414
207	0x3da29a8b	0.07939633
208	0x3d532bf0	0.051555574
209	0x3d8caba0	0.06868672
210	0xbd57c275	-0.052675683
211	0xbc3fab89	-0.011698612
212	0xbe1ee646	-0.1551753
213	0xbd4b14f3	-0.049580526
214	0x3c8937fb	0.016750326
215	0x3d943361	0.07236362
216	0xbca5da2b	-0.020245632
217	0x3d80302e	0.062591895
218	0x3d8fb7e6	0.07017498
219	0xbc72b8c9	-0.014814564
220	0x3e035e07	0.12828837
221	0xbdd34a1e	-0.10316871
222	0xbc3ce000	-0.011528015
223	0x3d53eea1	0.051741246
224	0xbdc65a9e	-0.096852526
225	0x3e11e031	0.14245678
226	0xbd9841f5	-0.07434455
227	0x3d1831ea	0.037156977
228	0x3e08ea80	0.13370705
229	0xbe37ac5a	-0.1793684
230	0xb8fe2120	-0.00012117834
231	0x3d850110	0.06494343
232	0xbb9aa4d9	-0.0047193584
233	0x3e299003	0.16558842
234	0x3ca115b4	0.01966367
235	0xbd0723d8	-0.032993168
236	0xba966aa5	-0.0011475874
237	0xbd75edbd	-0.060041178
238	0xbdb9fdc1	-0.09081603
239	0xbe22e892	-0.15909031
240	0x3def7c91	0.11693681
241	0x3bc31e03	0.0059545054
242	0x3e36a7fa	0.17837515
243	0xbae0731c	-0.0017124149
244	0x3d7b3ef1	0.061339322
245	0x3d57db2e	0.05269926
246	0x3d80c37b	0.06287285
247	0xbccf14f2	-0.025278542
248	0xbc3b14a0	-0.011418492
249	0xbcf0b7ff	-0.029384611
250	0xbc823dc4	-0.015898593
251	0x3debca46	0.1151319
252	0x3e2a11a7	0.16608296
253	0xbcc87abb	-0.024472585
254	0x3e0ab6d9	0.13546313
255	0x3d98b6d5	0.074567474

network_body._body_endoder.seq_layers.2.bias f4 [128]
0	0x00000000	0.0
1	0x00000000	0.0
2	0x00000000	0.0
3	0x00000000	0.0
4	0x00000000	0.0
5	0x00000000	0.0
6	0x00000000	0.0
7	0x00000000	0.0
8	0x00000000	0.0
9	0x00000000	0.0
10	0x00000000	0.0
11	0x00000000	0.0
12	0x00000000	0.0
13	0x00000000	0.0
14	0x00000000	0.0
15	0x00000000	0.0
16	0x00000000	0.0
17	0x00000000	0.0
18	0x00000000	0.0
19	0x00000000	0.0
20	0x00000000	0.0
21	0x00000000	0.0
22	0x00000000	0.0
23	0x00000000	0.0
24	0x00000000	0.0
25	0x00000000	0.0
26	0x00000000	0.0
27	0x00000000	0.0
28	0x00000000	0.0
29	0x00000000	0.0
30	0x00000000	0.0
31	0x00000000	0.0
32	0x00000000	0.0
33	0x00000000	0.0
34	0x00000000	0.0
35	0x00000000	0.0
36	0x00000000	0.0
37	0x00000000	0.0
38	0x00000000	0.0
39	0x00000000	0.0
40	0x00000000	0.0
41	0x00000000	0.0
42	0x00000000	0.0
43	0x00000000	0.0
44	0x00000000	0.0
45	0x00000000	0.0
46	0x00000000	0.0
47	0x00000000	0.0
48	0x00000000	0.0
49	0x00000000	0.0
50	0x00000000	0.0
51	0x00000000	0.0
52	0x00000000	0.0
53	0x00000000	0.0
54	0x00000000	0.0
55	0x00000000	0.0
56	0x00000000	0.0
57	0x00000000	0.0
58	0x00000000	0.0
59	0x00000000	0.0
60	0x00000000	0.0
61	0x00000000	0.0
62	0x00000000	0.0
63	0x00000000	0.0
64	0x00000000	0.0
65	0x00000000	0.0
66	0x00000000	0.0
67	0x00000000	0.0
68	0x00000000	0.0
69	0x00000000	0.0
70	0x00000000	0.0
71	0x00000000	0.0
72	0x00000000	0.0
73	0x00000000	0.0
74	0x00000000	0.0
75	0x00000000	0.0
76	0x00000000	0.0
77	0x00000000	0.0
78	0x00000000	0.0
79	0x00000000	0.0
80	0x00000000	0.0
81	0x00000000	0.0
82	0x00000000	0.0
83	0x00000000	0.0
84	0x00000000	0.0
85	0x00000000	0.0
86	0x00000000	0.0
87	0x00000000	0.0
88	0x00000000	0.0
89	0x00000000	0.0
90	0x00000000	0.0
91	0x00000000	0.0
92	0x00000000	0.0
93	0x00000000	0.0
94	0x00000000	0.0
95	0x00000000	0.0
96	0x00000000	0.0
97	0x00000000	0.0
98	0x00000000	0.0
99	0x00000000	0.0
100	0x00000000	0.0
101	0x00000000	0.0
102	0x00000000	0.0
103	0x00000000	0.0
104	0x00000000	0.0
105	0x00000000	0.0
106	0x00000000	0.0
107	0x00000000	0.0
108	0x00000000	0.0
109	0x00000000	0.0
110	0x00000000	0.0
111	0x00000000	0.0
112	0x00000000	0.0
113	0x00000000	0.0
114	0x00000000	0.0
115	0x00000000	0.0
116	0x00000000	0.0
117	0x00000000	0.0
118	0x00000000	0.0
119	0x00000000	0.0
120	0x00000000	0.0
121	0x00000000	0.0
122	0x00000000	0.0
123	0x00000000	0.0
124	0x00000000	0.0
125	0x00000000	0.0
126	0x00000000	0.0
127	0x00000000	0.0

action_model._discrete_distribution.branches.0.weight f4 [2, 128]
0	0xbc22e386	-0.009941941
1	0x3c32f04e	0.010921551
2	0x3c61ce92	0.01378216
3	0x3c0392e6	0.008030629
4	0x3bf81120	0.007570401
5	0xbb92f35e	-0.004484578
6	0xbc5407b8	-0.012941293
7	0x3ba99873	0.005175644
8	0x3c4bf706	0.012449032
9	0xbc83cf7f	-0.016090153
10	0x3b6b76e7	0.0035929026
11	0x3c81ff23	0.015868729
12	0x3c48cf49	0.012256452
13	0x3c1e9440	0.0096789
14	0xbc8fc926	-0.01755197
15	0xbbefba6d	-0.007315925
16	0x3ad51b8b	0.0016258819
17	0x3bea524f	0.007150925
18	0x3c13bfbf	0.009017884
19	0x3a94525b	0.0011316048
20	0x3b905c4d	0.0044055344
21	0x3b95b53f	0.0045687254
22	0x3b3e9967	0.0029083134
23	0x3c1bd56c	0.009511333
24	0x3b8ad259	0.004236501
25	0xbbb15e29	-0.005412836
26	0xbbc012fc	-0.005861638
27	0x3bef81af	0.0073091607
28	0x3c2fc72f	0.010728641
29	0x3cbef039	0.023307906
30	0x3a19d8b3	0.00058687775
31	0x3a91101a	0.0011067421
32	0xba016fbb	-0.00049376086
33	0xbc00edf9	-0.007869237
34	0xbbb0d69b	-0.0053966767
35	0xbbdaef1d	-0.0066813366
36	0x3c115268	0.008869745
37	0x3abcfaa7	0.0014417962
38	0xbc35c0f2	-0.011093365
39	0x3bc882a8	0.006119091
40	0x3c14191b	0.009039189
41	0xbc88d55e	-0.016703304
42	0xba70d937	-0.0009187641
43	0x3b35ef46	0.0027761026
44	0xbc9331bd	-0.017968053
45	0xbba2d691	-0.004969426
46	0x3bf7ef72	0.007566386
47	0x3c22bedf	0.0099332025
48	0x3ad4f33f	0.0016246809
49	0x3c0b58ab	0.008505027
50	0xbc2e06a7	-0.010621703
51	0x3c4d7807	0.012540824
52	0xb965bafa	-0.00021908796
53	0xba8d8ddf	-0.0010799727
54	0xbc3ec231	-0.0116429785
55	0x3a82bb06	0.000997395
56	0x3c0ad54b	0.008473705
57	0xbc00315d	-0.007824269
58	0x3b2d5c83	0.0026452846
59	0xbb6993a3	-0.0035640977
60	0xbbbaf4fc	-0.005705474
61	0xbad33e82	-0.0016116651
62	0x3ba78fab	0.005113562
63	0x3ae26ee5	0.0017275481
64	0x3c2da5f9	0.010598653
65	0xb9ed85e3	-0.00045303916
66	0x3b9fe488	0.004879538
67	0xbc9e30f3	-0.01931045
68	0xbc870d47	-0.016485823
69	0xba9f28c1	-0.0012142883
70	0xbb64ee90	-0.0034932233
71	0x3bc2070f	0.0059212516
72	0xbc388a5c	-0.011263456
73	0x3ba2b4a0	0.00496538
74	0xbacfdda3	-0.00158589
75	0xbbaf7908	-0.005355004
76	0x3be0f397	0.0068649757
77	0xbb8cc3cd	-0.004295802
78	0x3ada6afa	0.0016663962
79	0xbc09d652	-0.008412914
80	0xbaf7516f	-0.0018868874
81	0xbbebdcf5	-0.007197971
82	0xbb470ace	-0.003037143
83	0x3b2a5c17	0.0025994831
84	0xbc2f46ea	-0.01069806
85	0x3a9d0423	0.0011979382
86	0xbc803a01	-0.015652658
87	0x3bea051f	0.0071417238
88	0x3c2efc1b	0.010680224
89	0xbb6a1cea	-0.00357228
90	0x3b08fd56	0.0020902953
91	0x3c7bf3e7	0.015377975
92	0x3b92b7ea	0.0044774907
93	0x3bae2299	0.005314183
94	0xbc6814af	-0.014165088
95	0xbc2e490b	-0.010637532
96	0x3ba08528	0.004898686
97	0xbaab61a7	-0.0013075367
98	0x3b8e8f04	0.004350545
99	0x3bb70781	0.0055856113
100	0xba2022cf	-0.00061087025
101	0xbba0b7a5	-0.0049047046
102	0xbb91f4ce	-0.004454232
103	0xbacbed30	-0.0015558358
104	0x3bb50627	0.005524415
105	0x3c643955	0.013929685
106	0x3a247c7b	0.00062746526
107	0xbb1efc4f	-0.0024259274
108	0xbbb666b5	-0.005566443
109	0xbb6ca150	-0.0036106892
110	0x3c3a1ed3	0.011359888
111	0xbc96deac	-0.018416725
112	0xbc43a740	-0.011941731
113	0x3b477f5e	0.0030440907
114	0x3b923270	0.004461579
115	0x3aa0654b	0.0012237219
116	0xbc6478da	-0.013944829
117	0x3c9e3a9f	0.019315062
118	0xbbeb27a3	-0.007176356
119	0x3a4252a2	0.0007412826
120	0xb819967b	-3.661819e-05
121	0xbc26a9ab	-0.010172288
122	0xbc68a713	-0.01419999
123	0xba3c169e	-0.0007175001
124	0x39b353af	0.0003420389
125	0x3b76a770	0.0037636422
126	0x3cae9938	0.021313295
127	0xbbd34398	-0.006447267
128	0x3b2582ae	0.0025254893
129	0xbc0cfa20	-0.008604556
130	0x3b96513d	0.004587321
131	0xbbd4b535	-0.006491328
132	0x3933d22f	0.0001714907
133	0x3cef5e52	0.02921978
134	0xbc546715	-0.01296403
135	0x3bfdf3d7	0.0077500152
136	0x3b8485ce	0.004044271
137	0xbca09dad	-0.019606436
138	0x3c6baf08	0.014384992
139	0x3b3073e3	0.0026924543
140	0x3a157b2e	0.0005702254
141	0xbc71553d	-0.014729795
142	0xbba203b2	-0.004944288
143	0xbc329453	-0.010899621
144	0xbb024103	-0.0019875176
145	0xbb29ede7	-0.0025929154
146	0xbbe050e8	-0.0068455823
147	0x3bc681b6	0.006057943
148	0x3bc34193	0.005958745
149	0xbb8e43e0	-0.0043415874
150	0x3b60ad0b	0.003428283
151	0x3b8ddcbb	0.0043292916
152	0xbc494a92	-0.012285845
153	0x3c31ed24	0.010859761
154	0xbaf3c775	-0.0018598872
155	0x3bbfaa62	0.0058491686
156	0xbc0b1c0f	-0.008490576
157	0x3c99586f	0.018718926
158	0x3c101ed3	0.008796412
159	0x3c95bf49	0.018279688
160	0xbc47b196	-0.012188336
161	0x3c104c7a	0.008807296
162	0xbc38ad8b	-0.011271845
163	0xbbc5987b	-0.00603014
164	0xbbebab87	-0.0071920785
165	0x3b32cd05	0.0027282846
166	0x3a5d2a3d	0.0008436775
167	0x3b5e5542	0.003392533
168	0xbb75361f	-0.0037416292
169	0xbc52c1a0	-0.012863547
170	0x3ba8ebc0	0.0051550567
171	0xbb3c8aa7	-0.0028769167
172	0x3adb232f	0.001671886
173	0x3c2c6793	0.010522741
174	0xbbbb01df	-0.00570701
175	0xbb0910e8	-0.0020914618
176	0x3b8c77af	0.0042867283
177	0xbc6eb412	-0.014569299
178	0xbc699793	-0.0142573295
179	0xbc579f42	-0.013160529
180	0xbc1aa06a	-0.00943766
181	0x3b68f370	0.003554549
182	0x3bf557fd	0.0074872957
183	0xba985f0c	-0.0011625006
184	0x3bb67207	0.0055677923
185	0x3b257757	0.0025248134
186	0x3ba29589	0.0049616736
187	0xbb0ec18a	-0.0021782839
188	0xbc3e6e33	-0.011622953
189	0x3a4024f3	0.00073297246
190	0xbc145dff	-0.009055614
191	0xbc559e5a	-0.013038242
192	0x3c687e42	0.014190258
193	0x3ba20836	0.0049448265
194	0xba083a4f	-0.0005196677
195	0x3c829c5f	0.015943704
196	0xbac75d4f	-0.0015210303
197	0x3c414603	0.011796477
198	0x3cc29cab	0.023756346
199	0x3b8d750e	0.0043169325
200	0x3bdbd6f7	0.0067089754
201	0xbb3e81c5	-0.0029069048
202	0xbb2e572d	-0.0026602254
203	0x3c09931a	0.008396888
204	0xbb91d9cc	-0.0044510122
205	0x3b520ea3	0.0032052181
206	0xbba09283	-0.004900278
207	0x3b929b89	0.0044741076
208	0xbc48c3a8	-0.012253679
209	0x3c0ad9ef	0.008474811
210	0x3c3d8dd9	0.011569464
211	0xbc41183d	-0.011785564
212	0xbbe8cfd0	-0.0071048513
213	0xbc6db9db	-0.014509643
214	0x3bd44408	0.0064778365
215	0xbc4cd29d	-0.012501386
216	0x3bbe708b	0.005811756
217	0x3c095cc9	0.008383938
218	0x3aa517c4	0.0012595584
219	0x3c26e7f7	0.010187141
220	0x3c7940b5	0.015213181
221	0x3c296aeb	0.010340433
222	0xbb99b527	-0.0046907845
223	0x3bc21e43	0.0059240176
224	0xbc27a4bb	-0.010232146
225	0x3bfebe9a	0.0077741863
226	0xbb03e4a0	-0.0020125285
227	0xbc7af588	-0.015317328
228	0x3b7a154a	0.0038159662
229	0xbbfef06b	-0.007780125
230	0xbca72513	-0.02040342
231	0x3af643c8	0.0018788511
232	0xbca6fa27	-0.020382954
233	0x3c59a1e5	0.013283228
234	0x3b7433f8	0.003726242
235	0xbba5c251	-0.0050585647
236	0x3b7fc7f8	0.0039029103
237	0x3c0df053	0.008663255
238	0x3c3b3146	0.011425322
239	0xbb35f7cf	-0.0027766114
240	0x3c01fe2c	0.007934134
241	0xbc24a207	-0.010048396
242	0xbb45632f	-0.0030118932
243	0xbc493b3f	-0.012282192
244	0x3bc83395	0.0061096647
245	0x3bc66dd6	0.006055574
246	0x3ad8cea7	0.0016541079
247	0xbb199e2f	-0.0023440232
248	0x3bcf269b	0.006321741
249	0xbb93a381	-0.004505575
250	0x3b62301f	0.0034513546
251	0x3b45dbeb	0.0030190896
252	0xbb7737fb	-0.0037722576
253	0xbc697b3b	-0.014250572
254	0x3c935232	0.01798353
255	0xbba8d6c1	-0.005152554

action_model._discrete_distribution.branches.0.bias f4 [2]
0	0x00000000	0.0
1	0x00000000	0.0
