results/ZaraImitation/ZARAimitation/ZARAimitation-4383.onnx (onnx, 310409 bytes, 13 tensors)

network_body.observation_encoder.processors.0.conv_layers.0.weight f4 [16, 4, 8, 8]
000000 e8 e4 77 bc 60 51 1d bb 50 0d 86 bc f0 13 72 3c
       -0.015130259 -0.0024004802 -0.01636377 0.014775261
000010 be db 92 bc a2 6c 22 bd c8 c7 1b bd 0c 13 51 3d
       -0.017927047 -0.03965438 -0.038032323 0.051043555
000020 d4 40 f6 bc 92 05 96 bc 62 f5 7c 3d b0 34 cd bb
       -0.03006021 -0.018313203 0.061757453 -0.0062623844
000030 76 10 20 bd fa bd 79 3d 6e fc cd bc 9e 3d 37 bd
       -0.0390782 0.06097219 -0.025144782 -0.044736497
000040 08 db 37 3d 58 aa bf 3c 8e fc d4 bc 90 1a 6b 3c
       0.04488662 0.023396656 -0.025999334 0.014349595
000050 ca a8 35 3d 68 f4 67 3c aa a3 79 3d 18 ff 60 3c
       0.044350423 0.014157392 0.060947098 0.013732694
000060 c2 6a e2 bc 9d bc 4a bd 00 b8 4b b9 1c 51 f5 3c
       -0.027638797 -0.049496282 -0.00019428134 0.029945903
000070 42 0c 3c 3d 60 93 1f bb b8 ef ad 3c 24 c5 10 bc
       0.045910127 -0.0024349317 0.02123247 -0.0088360645
000080 60 2a 4d 3b 72 d8 70 3d ea 39 74 3d 00 df a5 3b
       0.0031305775 0.05880017 0.059625544 0.005061984
000090 4a ce 48 bd 58 05 4b 3c 7c 8c 70 bc 62 a4 45 bd
       -0.049024858 0.012391411 -0.014681932 -0.04825247
0000a0 96 41 07 bd d0 1c 1b 3c f8 6e 14 3c 00 78 03 bc
       -0.033021532 0.009467319 0.00905966 -0.008024216
0000b0 80 2d 55 3b 7c bd 5f 3d 52 fa 0d bd 28 ad b3 bb
       0.003252834 0.054624066 -0.034662552 -0.0054832883
0000c0 44 26 7e 3d 7c b6 17 3d 21 17 4a bd 60 9d 27 bb
       0.06204821 0.037039265 -0.049338464 -0.002557598
0000d0 70 79 cd 3b d3 eb 5d bd 16 c2 5f 3d 8a 5a 7c bd
       0.00627058 -0.054179978 0.054628454 -0.061609782
0000e0 d4 ee 2c bd 48 28 76 bd d8 7b 8f 3c 20 d9 76 3d
       -0.04221995 -0.06009701 0.017515108 0.06026566
0000f0 c6 7d ce bc 71 47 71 bd 20 2e bc 3c 3e 74 df bc
       -0.025206458 -0.058906022 0.022971213 -0.027277108
000100 a0 c5 0f bb d0 26 2a 3d f4 68 4a bc 33 92 19 bd
       -0.0021937862 0.04154092 -0.012354124 -0.037492942
000110 d0 45 5c bc 80 e4 63 bd 48 78 3d bd ce a0 12 bd
       -0.013444379 -0.055637836 -0.046257287 -0.035797887
000120 28 e8 8d bc a2 16 70 3d 80 01 97 ba 10 d5 ec bb
       -0.017322615 0.058615334 -0.0011520833 -0.0072275475
000130 ac df db 3c 84 3d d7 3c e4 02 74 3d c8 24 62 3d
       0.026840053 0.02627445 0.05957307 0.05521086
000140 78 e5 17 bd c0 87 60 3b b4 6f da bc 00 e2 bc 3a
       -0.037084073 0.00342606 -0.026664592 0.0014410615
000150 1a 31 61 bd 98 46 90 3c 10 4a b2 bb 4e 75 07 3d
       -0.054978468 0.017611787 -0.005440958 0.033070855
000160 d0 74 0c bd 00 e0 02 3c ec a3 e7 3c 32 d5 1f bd
       -0.03429109 0.007987976 0.028276406 -0.03902168
000170 75 5a 61 bd ca 00 2e 3d 8c 0b 97 3c 56 71 8b bc
       -0.055017907 0.04248122 0.018438123 -0.017021816
000180 7c f7 8c 3c 9a aa 35 bd 60 67 41 3c e0 8a 27 3d
       0.017207853 -0.04435215 0.011804432 0.040903926
000190 f0 91 d1 3b e7 9b 0d bd 2c 6d ee 3c ce e0 22 3d
       0.006395571 -0.03457251 0.029104792 0.03976517
0001a0 64 67 94 bc 0c 6b f5 3c 3a 48 48 3d 48 0b 02 3c
       -0.018115707 0.02995827 0.048897006 0.00793726
0001b0 e4 5b d5 bc 2c e6 59 bd 60 3c ee bb 58 77 78 3d
       -0.026044793 -0.053198025 -0.007270381 0.06066069
0001c0 e8 24 6a 3d f6 53 79 3d 5d ac 10 bd c2 a7 14 3d
       0.057164103 0.060871087 -0.03532063 0.0362928
0001d0 b2 b9 43 3d 1e 4c 36 3d 38 33 aa bb 3d 77 1a bd
       0.047784515 0.044506185 -0.005194094 -0.03771137
0001e0 20 c6 ac 3c d8 a8 ae bb 73 c9 60 bd 58 b3 08 bd
       0.021090567 -0.0053301863 -0.054879617 -0.03337416
0001f0 e8 3d 38 3c d4 ee 2e 3d d6 e8 33 3d 5e bf f6 bc
       0.011245228 0.042708233 0.04392322 -0.030120548
000200 68 e8 3c bc 90 f2 fc bb 50 12 c2 3c a0 d4 78 3d
       -0.011530019 -0.0077193454 0.023690373 0.06074965
000210 88 c6 3a bd 30 da fb bb b6 ce 32 3d 31 ec 66 bd
       -0.04559949 -0.007685922 0.043654166 -0.056377593
000220 ac 4a d5 3c d8 12 2b 3c 00 ba 99 bc d4 9c bf 3c
       0.026036583 0.010441504 -0.01876545 0.023390211
000230 40 c0 14 3b e0 79 3f bc 64 5e 7f 3d 8c 30 d7 3c
       0.0022697598 -0.011686772 0.062345877 0.026268266
000240 48 ee dc bc 3a 1c 11 3d e0 53 ec 3b d8 0e 80 3c
       -0.02696909 0.03542731 0.007212147 0.015632078
000250 e8 9d f1 3c bc 81 ed bc e2 68 5f 3d 60 e8 4b 3b
       0.02949424 -0.028992526 0.054543383 0.0031113848
000260 ba d6 08 bd df 54 58 bd e0 a1 74 3b 5c a8 ab bc
       -0.033407904 -0.052815314 0.003732793 -0.020954303
000270 98 34 f2 3c 66 98 45 3d d0 3d 4e bd ec d4 8a 3c
       0.029566094 0.04824104 -0.050351918 0.016947232
000280 42 46 ff bc 00 ed d7 3a 4e 1d 66 3d c8 11 1d bd
       -0.031161431 0.001647383 0.05618029 -0.038347036
000290 4c 3f c4 3c 3c fa 73 bd 1c 42 29 bd e0 21 ed bc
       0.023955964 -0.059564814 -0.041322812 -0.028946817
0002a0 3c 5a b9 3c e8 91 7b 3d 48 54 97 bc b2 f3 0e bd
       0.022626035 0.061418444 -0.018472806 -0.034900375
0002b0 28 87 24 3d 39 72 11 bd 7c 59 d3 3c 8e bd ee bc
       0.040167958 -0.03550932 0.025799505 -0.029143121
0002c0 6c 63 f3 3c 90 01 d8 3c c2 91 ac bc fc 2c 65 3d
       0.029710494 0.026367933 -0.021065596 0.055951104
0002d0 98 ad db bb ea 7d 0d bd d0 63 97 bc c6 75 05 3d
       -0.0067040436 -0.03454391 -0.018480211 0.03258302
0002e0 14 4c 5f bd 74 52 88 3c 08 17 09 bd 30 a1 22 3c
       -0.054515913 0.01664088 -0.03346923 0.009926125
0002f0 e6 04 4e bd 56 4f 76 3d 80 c0 b7 3b 54 e7 e6 3c
       -0.05029764 0.060134254 0.0056076646 0.028186478
000300 c4 89 9a bc da 22 38 3d 08 48 76 3c a0 3d 7f bd
       -0.01886452 0.044955112 0.015031822 -0.06231463
000310 84 fa c7 bc 10 68 48 bd 60 b6 73 3c 1c a1 43 bc
       -0.024411447 -0.048927367 0.014875025 -0.011940267
000320 97 f7 5a bd 40 d2 2e 3d 60 e5 3a 3c d4 11 e7 3c
       -0.053458776 0.04268098 0.011407226 0.028206743
000330 7e c7 1f 3d 7c 34 94 bc 90 09 e6 3c 0c bc a6 3c
       0.03900861 -0.018091433 0.028080732 0.02035334
000340 92 62 1d 3d 2e 94 71 3d 96 95 bb bc c8 bf 66 bc
       0.038424082 0.058979206 -0.022898477 -0.01408381
000350 ac a1 d4 3c 14 16 d0 3c 9e e5 09 3d 45 49 78 bd
       0.025955997 0.025401153 0.033666246 -0.06061675
000360 7c b1 20 bd c2 8e 4a 3d cc 29 a0 3c 60 bf 25 bc
       -0.039231762 0.04945255 0.01955118 -0.010116428
000370 50 68 e0 3c 88 36 0d bc 20 5d cb 3b d0 b9 4e 3d
       0.02739349 -0.008618958 0.0062061697 0.050470173
000380 f0 63 11 3c f0 ab d2 bb 48 7d 1f 3c 28 26 25 3c
       0.008873925 -0.006429188 0.009734459 0.010079898
000390 4a 1b a1 bc 7c 86 aa 3c 2c 03 f3 bc 63 32 63 bd
       -0.019666333 0.02081608 -0.029664598 -0.055467974
0003a0 38 1f 21 3d 9e 5d e2 bc 30 fb 53 bc 20 f7 b7 bc
       0.039336413 -0.02763253 -0.012938306 -0.022456706
0003b0 6e 06 16 bd 76 a7 3e 3d 89 c2 52 bd 66 fe 4c 3d
       -0.036627226 0.046546422 -0.051455054 0.0500473
0003c0 24 11 78 3d b4 11 77 3d b6 95 4c bd b0 2a ff 3c
       0.06056322 0.060319617 -0.049947463 0.031148285
0003d0 85 c2 58 bd 90 56 09 3d 00 0b 22 bc 9e d2 2c 3d
       -0.052919883 0.033529818 -0.009890318 0.042193048
0003e0 56 44 7e bd 9c 16 98 bc 4a 60 4b 3d b8 c8 f0 3c
       -0.06207689 -0.018565468 0.049652375 0.029392585
0003f0 98 31 33 3c f8 a4 8b bc 60 a7 19 3b d4 51 61 3d
       0.010937117 -0.017046437 0.002344571 0.055009678

network_body.observation_encoder.processors.0.conv_layers.0.bias f4 [16]
000000 48 d7 fc 3c d8 49 f6 3c 20 48 73 3b 80 f5 12 bd
       0.030864373 0.030064508 0.0037121847 -0.03587866
000010 68 9a 63 bd 51 50 15 bd 60 8f aa ba b8 1f d9 3c
       -0.055567175 -0.03645355 -0.00130127 0.026504382
000020 10 b5 fb bc 78 ee 90 bc 9c c7 47 3d 84 f0 11 3d
       -0.030725986 -0.017691836 0.048774347 0.035629764
000030 b0 80 f8 3b 90 ca 29 bd e4 8e a8 3c d4 21 48 3d
       0.0075837 -0.041452944 0.020575948 0.048860386

network_body.observation_encoder.processors.0.conv_layers.2.weight f4 [32, 16, 4, 4]
000000 6c b8 04 bc 80 ba b4 ba ac 8f 2a 3d ee 53 0f 3d
       -0.00810061 -0.0013788491 0.041640922 0.03499215
000010 c8 76 48 3d 84 d8 55 3d fb 1b 6c bd d0 15 b5 3b
       0.048941404 0.05220844 -0.05764387 0.005526282
000020 72 5c fa bc 2a 08 69 bd b0 79 5a 3d 96 32 82 bc
       -0.03056166 -0.05689255 0.053338706 -0.015893262
000030 3e 57 6a 3d 6f 3d 69 bd 46 b8 6c 3d 18 2b 02 3c
       0.057212107 -0.056943353 0.057792924 0.007944845
000040 70 77 8e bc b0 5e e8 3c 8a 69 51 3d b0 48 5b 3d
       -0.017390937 0.028365463 0.05112604 0.053536117
000050 e0 1d 8d bc 16 4b 21 bd 80 49 8b 3b 9e b5 1b 3d
       -0.01722616 -0.03937825 0.0042507052 0.038015
000060 c8 32 2d 3c c0 75 5a 3b 86 3a eb bc 1a 83 0b 3d
       0.010571189 0.0033334345 -0.02871443 0.034060575
000070 68 c9 39 3c 3c 53 62 3d c0 2c 40 3d 0c fc 64 3d
       0.011339523 0.05525516 0.046917677 0.055904433
000080 f8 aa 21 3c 7e fc df bc 40 8b da 3c 82 f0 13 3d
       0.009867422 -0.027342077 0.026677728 0.036118038
000090 7c 99 16 3d f0 70 3e bd 2a 6e f5 bc 98 74 dd bb
       0.036767468 -0.046494424 -0.029959757 -0.006758284
0000a0 7a d6 92 bc 2e e5 d9 bc 98 3a a8 bc 46 de e2 bc
       -0.017924536 -0.02659854 -0.020535752 -0.027693879
0000b0 98 a8 16 bd f8 c7 4d 3c f8 d7 c3 bc c8 20 e5 bb
       -0.036781877 0.012559883 -0.023906693 -0.006992433
0000c0 70 a1 e9 3c c0 89 40 3d 24 18 c9 3c 8e 0f 53 3d
       0.028519362 0.04700637 0.024547644 0.051528506
0000d0 18 67 16 bd b0 a6 0e bd 60 a4 96 bb 3a e3 f8 bc
       -0.03671941 -0.034826934 -0.0045972317 -0.030381788
0000e0 ba 71 c7 bc 20 c2 32 3c 38 0f e7 bc 3e a4 5c bd
       -0.024346221 0.010910541 -0.028205499 -0.05386757
0000f0 72 c2 b8 bc 82 fb 10 bd a8 af 2b 3c ac 26 ec 3c
       -0.022553656 -0.035396107 0.010478891 0.028827034
000100 e0 76 03 3b 88 80 c5 bc ad 45 10 bd f0 78 9b 3b
       0.0020059869 -0.02410914 -0.035222698 0.0047446415
000110 40 0a be ba 70 43 9e 3b 40 5f d9 3a 60 42 3b bc
       -0.0014498904 0.0048298165 0.0016584173 -0.011429399
000120 32 66 c8 bc 00 70 28 38 9a bf 72 bd 1e 7b bd bc
       -0.024462793 4.015863e-05 -0.059264757 -0.023129996
000130 40 3a 6a ba 06 c4 36 bd c4 cc 72 bc 60 b3 45 3c
       -0.00089350715 -0.044620536 -0.014819328 0.012066692
000140 da eb 0e 3d 08 b1 97 3c e8 83 0b 3c 1c da d3 bc
       0.034892894 0.018517032 0.008515336 -0.025860839
000150 02 65 52 3d ee c4 3e bd 0c d5 1b bd 50 29 01 bc
       0.05136586 -0.046574526 -0.038044974 -0.007883385
000160 44 7c 5b 3d 06 8f 5a 3d 2e 2f 91 bc 5e ff 05 bd
       0.053585306 0.053359054 -0.017722692 -0.03271424
000170 d0 ca 96 3c 38 06 1a 3c 00 c5 57 bb 18 32 0e 3d
       0.018407255 0.009400897 -0.0032923818 0.034715742
000180 a8 95 02 3c b8 cc 33 3d 88 61 d9 bb 70 66 76 bb
       0.007970251 0.043896407 -0.006633941 -0.0037597679
000190 50 96 7c bc 4c ac b3 3c 7a 51 dc bc 6c e0 05 3d
       -0.015416697 0.021932743 -0.02689432 0.03268473
0001a0 6c 7e 90 3c f8 b7 d2 3c 70 c9 ed 3b 50 28 ae 3b
       0.017638408 0.025722489 0.0072566792 0.005314864
0001b0 bc e2 95 3c 1c a9 f6 3c 00 f7 5d 3d e3 3d 11 bd
       0.018296592 0.030109935 0.054190636 -0.03545941
0001c0 ec 6f fb 3c 60 08 49 bd b4 8a 70 3d 80 38 a6 3b
       0.030693017 -0.049080253 0.058726028 0.0050726533
0001d0 18 88 f1 bb b6 74 ea bc 32 f1 5e bd 28 2f 81 bc
       -0.00737096 -0.028620105 -0.05442924 -0.015769556
0001e0 a2 42 69 3d ba 41 1a bd 94 d6 f1 bc 28 cc a4 bb
       0.05694831 -0.037660338 -0.029521264 -0.00502922
0001f0 3a ca 0e 3d 90 59 47 bb 04 4a e3 3c 28 4c ce bc
       0.034860827 -0.0030418374 0.027745254 -0.025182799
000200 30 cc 30 3c a8 83 db 3c 00 f6 94 bc 00 5e ae b9
       0.01079087 0.026796177 -0.018183708 -0.00033257902
000210 08 d8 46 bd 0e 97 17 3d ec 62 26 3d f0 c2 ad 3c
       -0.048545867 0.03700929 0.040621683 0.021211118
000220 90 4c ae bb a0 9e 02 3d c6 03 b7 bc e0 bd 0a bb
       -0.0053191856 0.031889558 -0.022340667 -0.0021170303
000230 48 22 0c 3d cc eb 6c 3d 53 06 43 bd de 95 35 3d
       0.03421238 0.05784206 -0.047613453 0.044332378
000240 46 bf 36 bd 9a 28 7b 3d ec b3 50 3d f8 11 30 3c
       -0.044616006 0.061318018 0.050952837 0.010746472
000250 74 09 9c 3c 00 91 2e 3a 9d 8f 1d bd 18 c5 71 bd
       0.019047476 0.000665918 -0.03846704 -0.059025854
000260 40 4a 0f 3d c0 de 1c 3c 42 11 1e 3d ff 0c 04 bd
       0.03498292 0.009574592 0.038590677 -0.032238957
000270 64 09 69 bc a1 3a 61 bd d8 ff 50 3c b4 bf fa bc
       -0.01422343 -0.054987554 0.01275631 -0.03060899
000280 32 b5 02 3d a0 13 f7 bc b4 3e a8 bc 92 4f 2e bd
       0.031911083 -0.030160725 -0.020537712 -0.042556353
000290 70 7e 15 3d dc 33 9e 3c 52 b3 d3 bc d8 e7 f7 bb
       0.036497533 0.019311838 -0.025842343 -0.0075654797
0002a0 60 c5 4a 3c 80 2c 60 bd b2 5b 07 3d 20 d4 16 3c
       0.012376159 -0.05472994 0.03304643 0.009205848
0002b0 ce 8f 18 3d e6 22 21 3d d0 33 c0 3b bc a8 a7 3c
       0.037246518 0.039339922 0.0058655515 0.020466201
0002c0 c8 3a 10 bc 48 80 46 bd 36 d9 c4 bc 30 b1 1f 3d
       -0.008803077 -0.048462182 -0.024029355 0.03898734
0002d0 c8 35 ff bc 20 02 3a 3d c4 71 4c bc 66 aa f1 bc
       -0.031153575 0.045412183 -0.012478296 -0.029500198
0002e0 24 1f 3f bd e0 13 07 3c 48 27 12 bd 00 86 01 39
       -0.046660557 0.008244485 -0.035681993 0.00012352318
0002f0 c9 c6 60 bd c0 42 c1 bc ee 27 4f 3d 72 ab 0c bd
       -0.054877076 -0.0235914 0.05057519 -0.03434319
000300 a0 fe 5b 3d c0 9c 58 bd 28 54 1e 3c e4 d1 34 3d
       0.053709626 -0.052883863 0.009663619 0.04414548
000310 92 47 d8 bc 44 4a 5b bd 1d 2f 4c bd 1e 65 35 bd
       -0.026401315 -0.053537622 -0.04984962 -0.044285886
000320 a4 63 3f 3d a0 5c 7d bb 9c a8 9e 3c 88 67 66 3c
       0.046725884 -0.0038659945 0.019367509 0.01406277
000330 5c 75 24 bd 8c c6 5f bc 7e 7b c6 bc 00 a2 42 3a
       -0.040150985 -0.013658177 -0.024228808 0.00074246526
000340 75 89 76 bd cb 76 15 bd b8 ff 53 bd 98 65 13 3c
       -0.060189683 -0.036490243 -0.051757544 0.00899639
000350 36 c8 eb bc ca f5 c5 bc 29 35 41 bd 30 5a 56 bd
       -0.028781991 -0.024165053 -0.047169838 -0.052332103
000360 15 2a 62 bd 38 53 69 bc fa ea c5 bc ef ee 7f bd
       -0.055215914 -0.014241032 -0.024159897 -0.062483724
000370 2c e9 b5 3c 8c 88 24 3d 10 59 62 bd 10 bc a5 3b
       0.022205912 0.040169284 -0.055260718 0.005057819
000380 bc e2 94 bc 20 a3 62 3c 64 33 3d bc cc 32 00 3d
       -0.018174522 0.013832837 -0.011547897 0.031298444
000390 7e 01 2d 3d d8 20 3c 3c db eb 36 bd 84 0b 37 bd
       0.04223775 0.01148244 -0.044658523 -0.044688717
0003a0 cc 83 ff bc 38 e6 65 bd 16 8a a4 bc d8 55 72 3d
       -0.031190775 -0.056127757 -0.020085376 0.0591639
0003b0 60 dd cd bc 26 5f 49 3d 86 6a 12 bd 52 54 c3 bc
       -0.025129974 0.049163006 -0.03574612 -0.023843918
0003c0 05 87 7c bd 4c 47 0f bd a5 b7 07 bd 16 17 3a 3d
       -0.061652202 -0.034980103 -0.03313412 0.045432173
0003d0 a0 c0 ea 3b d4 98 63 bc d6 df 3c bd 00 b6 dc bc
       0.007164076 -0.0138914175 -0.046111904 -0.026942253
0003e0 00 c6 8d b9 4e 17 66 3d 54 8a 6b bd 74 9c 98 bc
       -0.00027041137 0.05617457 -0.057504967 -0.01862929
0003f0 a4 1b f8 3c ce 72 19 bd e0 95 0b bd ea c0 e7 bc
       0.030286618 -0.037463002 -0.03407848 -0.02829023

network_body.observation_encoder.processors.0.conv_layers.2.bias f4 [32]
000000 c8 e4 de bb d8 ae fa bc 12 92 1c bd ec 63 73 3d
       -0.006802175 -0.03060095 -0.03822524 0.059421465
000010 1c 6d 25 3d 1a 1d 3e bd 1c 33 ae 3c 88 8e 3d bd
       0.040387258 -0.046414472 0.021264605 -0.046278507
000020 40 4a ed 3b 60 01 7e 3b e7 ce 72 bd c8 78 63 3d
       0.0072415173 0.0038758144 -0.05927935 0.055535108
000030 18 bf 20 3c 04 44 b6 bc 05 d2 02 bd 30 5c 3a 3d
       0.009811185 -0.02224923 -0.03193857 0.045498073
000040 90 38 32 3d 05 fc 6f bd 3c d5 7b bc d2 36 d6 bc
       0.043510973 -0.058589954 -0.015370663 -0.026149187
000050 34 92 73 3d 16 8c 49 3d 58 3c 5b 3d 58 82 79 3d
       0.059465602 0.049205862 0.053524345 0.06091532
000060 20 cc 5c bd 24 7a 3f 3d 65 a0 7a bd 00 c6 76 3d
       -0.053905606 0.04674734 -0.06118812 0.06024742
000070 fe ae 66 bd 6a 41 ba bc 58 85 8d bc 6c 64 59 3d
       -0.05631923 -0.02273627 -0.017275497 0.053074285

network_body.observation_encoder.processors.0.dense.0.weight f4 [128, 32]
000000 f8 82 63 3d dc ad 49 be 64 25 2b be 69 1c 93 3e
       0.055544823 -0.19695228 -0.16713482 0.28732613
000010 42 9d ae be 78 ed 90 3e f3 0e dd be a2 c8 9a be
       -0.34104353 0.28306174 -0.43175468 -0.30231196
000020 be c5 60 3d cb 5c f4 bd 2a 3a be be 31 c4 40 3d
       0.05487608 -0.11931761 -0.3715375 0.047062103
000030 cc ce 44 be a5 16 b0 be 54 3a 4f 3e 57 bb 74 3e
       -0.19219512 -0.34392276 0.20237094 0.2389959
000040 d4 9e a7 3b 4f e6 97 3e ca 69 97 3d 27 06 84 3e
       0.0051153693 0.296679 0.073932245 0.25785944
000050 b0 27 c3 3d 21 f2 29 3e 34 dc 0d 3e d3 fc a5 3e
       0.09529054 0.16596271 0.13853532 0.32419452
000060 c2 9d 78 3d 96 97 a4 3e c6 2f 14 bf ec 21 99 3e
       0.060697325 0.321469 -0.57885396 0.29908693
000070 c5 b9 89 be 4c c4 0e 3d 8b 69 47 be 48 59 22 3e
       -0.26899543 0.034855172 -0.19473855 0.1585437
000080 d9 d1 b3 3e f6 0d e1 bc cd 6f 5e 3d 60 ca 1b 3d
       0.3512104 -0.027472477 0.05430584 0.038034797
000090 66 e1 b8 be 79 c0 63 be 09 48 75 be 9d e2 2b 3e
       -0.36109465 -0.22241391 -0.2395326 0.16785665
0000a0 2f 31 71 3e 6b c9 98 3e 4f ff 77 3e 57 f2 cb 3d
       0.23553918 0.2984117 0.24218486 0.09958332
0000b0 65 b4 82 bd 36 ad d2 3d 8f 25 01 bf df f0 57 be
       -0.06382064 0.102869436 -0.50447935 -0.21087979
0000c0 9d fa fc 3d 46 2b b4 3e c5 88 65 3e b9 5f e3 3e
       0.12352488 0.35189265 0.22415455 0.44408968
0000d0 a4 4d b9 be 37 9a dc be c4 ba 97 be ae 50 b6 bd
       -0.36192048 -0.43086407 -0.29634678 -0.08902107
0000e0 a1 8a 6c 3d 8c d6 0a be 0e 43 aa be 5f e9 82 3e
       0.057749394 -0.13558406 -0.33254284 0.25568673
0000f0 73 41 6e 3e b7 63 18 3e 43 f3 0e bd 1f 3e 9b 3c
       0.23267154 0.14881788 -0.03489996 0.01895052
000100 0d a5 95 3e 6b 76 83 bd a5 a0 c5 3d d8 4d 4c 3e
       0.29227486 -0.06419071 0.09649781 0.1995157
000110 bd 89 b9 ba bf 2c 07 be 0e 07 7a bd 3d f5 9a be
       -0.0014155429 -0.13200663 -0.061041884 -0.30265227
000120 58 bd eb be 59 e0 da 3e df d5 1f 3e f2 77 ec 3d
       -0.46042895 0.4274929 0.15608929 0.11546315
000130 ac 43 a5 bd 0b df b9 be 9b 3a 7c 3e c8 c8 5b be
       -0.08069548 -0.3630298 0.24631731 -0.2146331
000140 3e 4a b7 be c1 73 07 3e cb 32 34 3c bf 5c 14 3e
       -0.3579883 0.1322775 0.010998438 0.14488505
000150 61 c5 09 3d a2 07 e2 be ad c8 60 be 81 39 1c 3e
       0.0336355 -0.44146448 -0.21951552 0.15256311
000160 8a 4f 3f be 17 dc 57 bd a5 9e a2 3e 00 ed cc 3d
       -0.18682685 -0.05270013 0.3176166 0.10006142
000170 10 3c 8b 3e 04 aa ca 3d e0 46 0a 3c 9a 57 18 bd
       0.27194262 0.09895709 0.0084397495 -0.03719292
000180 80 d4 d8 3d 76 86 1f 3e 91 0a 73 3d df 8d a2 3e
       0.10587406 0.15578637 0.05933625 0.31748864
000190 87 05 c1 3e 74 48 a5 3e dc 92 b7 bc c3 02 b8 3e
       0.3769953 0.3228184 -0.022408895 0.35939607
0001a0 7f a1 e3 be eb 41 97 bd 5a 77 1d be 8b 7b 67 be
       -0.4445915 -0.0738562 -0.1537756 -0.22605722
0001b0 55 5b 7f be 10 f7 9e 3e f6 dc cb 3e e2 0a e4 3d
       -0.24937184 0.3104787 0.39817017 0.11134888
0001c0 95 5c 2c bd 6e ea b8 3d 94 61 32 3e b2 09 17 3d
       -0.04208048 0.09029089 0.17420036 0.03687448
0001d0 3f 14 a0 3e 54 20 b2 3d 18 9f 8e 3e 6f 9e 3e 3e
       0.31265447 0.08697572 0.27855754 0.18615125
0001e0 93 e1 db 3e de 4c c1 3e 6f 7e 2d be c5 86 73 3e
       0.42945537 0.37753958 -0.16942762 0.23781879
0001f0 54 8b 78 bd c8 e0 98 be bf 60 d1 3c 38 82 95 bd
       -0.06067975 -0.29858994 0.025558827 -0.07300228
000200 89 1a 92 be 0e 8a e8 3e 6b dc a8 bc ca 8e 74 3e
       -0.2853587 0.45417827 -0.020612916 0.23882595
000210 cb df cf 3c e8 85 75 3e ba ef 55 3e 95 7d 3b be
       0.025375267 0.23976862 0.2089223 -0.18309624
000220 fe fd 21 bd 7a ac 3e 3c 39 a7 2b 3e f2 9b 38 be
       -0.039548866 0.011637801 0.16763009 -0.18028238
000230 f4 2b 93 bd 36 ec 71 be 5e 26 23 bd 8f 52 9c 3b
       -0.07186118 -0.23625264 -0.03983151 0.004770584
000240 3e f6 4e 3e 04 32 af 3e 1a d3 10 3c 8a 3e 0b be
       0.20211121 0.34217846 0.008839393 -0.13598076
000250 81 76 d7 3e de f3 9d 3d ab 4c 46 3e c8 d3 87 be
       0.420826 0.077125296 0.19365184 -0.26528764
000260 88 76 9f 3d 99 f9 56 be 7a 1c 20 be a7 5b 3a bd
       0.0778628 -0.20993651 -0.15635863 -0.045497563
000270 ce db d2 3e 80 c0 08 3d d4 2e 3f 3d d3 d8 d1 be
       0.41183323 0.033386707 0.04667552 -0.40985736
000280 91 41 0e 3e 71 bd a2 be 06 fb 99 3e 80 b2 c7 3e
       0.13892199 -0.31785157 0.30074328 0.39003372
000290 01 54 57 3d c6 18 e5 3d e2 96 55 3e 6e 6d 0e be
       0.052570347 0.11186366 0.20858338 -0.13908932
0002a0 56 53 8c 3c a1 6e 11 3e 05 03 07 3d 34 58 8f bc
       0.017129581 0.14202358 0.032961864 -0.017498113
0002b0 97 e1 80 be e4 e1 94 3e f0 3f 05 3f 29 ea b3 3c
       -0.2517211 0.2907859 0.52050686 0.021962242
0002c0 fa 61 9d 3e 72 4f 2e 3e d6 a0 c5 3c 9b d1 16 3d
       0.30738813 0.17022493 0.024124544 0.03682099
0002d0 27 69 9b 3e 72 59 27 3e 17 75 95 3e c6 1e 48 bd
       0.30353662 0.16342714 0.29190895 -0.048857473
0002e0 b5 4f 52 bd 6b 85 78 3b 04 d7 04 3e 5e f5 c2 3c
       -0.051345546 0.003792132 0.12972647 0.02379864
0002f0 94 52 eb 3c ed dd c8 bd ff 4d b1 be 38 ca 21 be
       0.0287259 -0.09807954 -0.3462982 -0.15799797
000300 50 5a 5a bf 70 7e 13 3f 99 e9 72 be 25 d9 28 bf
       -0.85294056 0.57614803 -0.23721923 -0.65956336
000310 5d 1a 84 3e 43 36 ac be 8c 73 0c be 4b 07 22 be
       0.25801364 -0.33635148 -0.13715953 -0.15823095
000320 b8 f1 d8 3e df 02 9f be d6 d0 dd bc a4 84 4f 3e
       0.42371917 -0.31056878 -0.02707712 0.20265442
000330 0a 2b 87 be 7f f9 d2 bd a6 d8 63 3e b1 27 a2 be
       -0.26400024 -0.10301494 0.22250614 -0.31670907
000340 1d 2a 20 3e c0 ea 11 3f 20 38 24 be 59 ca 81 3e
       0.15641065 0.56998825 -0.16037035 0.25349692
000350 18 15 80 3e 84 09 1c 3f 80 2d 99 be 8c 1e a5 3e
       0.25016093 0.6095202 -0.29917526 0.32249868
000360 56 11 7e be 59 b6 72 be 82 4a 07 3e b8 31 b0 3e
       -0.248113 -0.23702373 0.13212016 0.34412932
000370 1d ae 96 3e f1 fd e2 bc 26 10 c9 3e 55 fa 7c be
       0.29429713 -0.02770898 0.39270133 -0.24704869
000380 32 8c 20 be f8 22 ac be 25 c5 85 bd b6 b7 1d be
       -0.1567848 -0.3362043 -0.06531743 -0.15402111
000390 a6 fe 1b 3e 85 75 bb be 39 42 11 be 16 0f 22 3e
       0.1523386 -0.36613098 -0.14185418 0.15826067
0003a0 26 9f 1c 3e a9 64 e9 3d 16 2f 5e 3d 4d 80 a1 3d
       0.15295085 0.113961525 0.054244123 0.078857996
0003b0 ea 3d a5 3e 2d fa 6b be 78 31 81 3e ad 9f 36 3d
       0.322738 -0.23044653 0.25233054 0.044585872
0003c0 32 7f 15 3e eb 82 1c be e2 52 31 bd 64 e6 7e be
       0.14599302 -0.15284316 -0.043291934 -0.24892575
0003d0 88 a3 7a be 48 4b c6 bd 91 26 ad bd 7f ee b0 bd
       -0.24476445 -0.096823275 -0.084546216 -0.086392395
0003e0 49 ea d4 3d 77 aa 8f bd 70 df 63 be 5b 7b 25 3e
       0.10396249 -0.070149355 -0.22253203 0.16160338
0003f0 1d bb 71 3e 34 8d 0f 3f a1 a9 cf 3e e2 88 2a 3d
       0.23606534 0.56074834 0.40559104 0.041634448

network_body.observation_encoder.processors.0.dense.0.bias f4 [128]
000000 00 00 00 00 00 00 00 00 00 00 00 00 00 00 00 00
       0.0 0.0 0.0 0.0
000010 00 00 00 00 00 00 00 00 00 00 00 00 00 00 00 00
       0.0 0.0 0.0 0.0
000020 00 00 00 00 00 00 00 00 00 00 00 00 00 00 00 00
       0.0 0.0 0.0 0.0
000030 00 00 00 00 00 00 00 00 00 00 00 00 00 00 00 00
       0.0 0.0 0.0 0.0
000040 00 00 00 00 00 00 00 00 00 00 00 00 00 00 00 00
       0.0 0.0 0.0 0.0
000050 00 00 00 00 00 00 00 00 00 00 00 00 00 00 00 00
       0.0 0.0 0.0 0.0
000060 00 00 00 00 00 00 00 00 00 00 00 00 00 00 00 00
       0.0 0.0 0.0 0.0
000070 00 00 00 00 00 00 00 00 00 00 00 00 00 00 00 00
       0.0 0.0 0.0 0.0
000080 00 00 00 00 00 00 00 00 00 00 00 00 00 00 00 00
       0.0 0.0 0.0 0.0
000090 00 00 00 00 00 00 00 00 00 00 00 00 00 00 00 00
       0.0 0.0 0.0 0.0
0000a0 00 00 00 00 00 00 00 00 00 00 00 00 00 00 00 00
       0.0 0.0 0.0 0.0
0000b0 00 00 00 00 00 00 00 00 00 00 00 00 00 00 00 00
       0.0 0.0 0.0 0.0
0000c0 00 00 00 00 00 00 00 00 00 00 00 00 00 00 00 00
       0.0 0.0 0.0 0.0
0000d0 00 00 00 00 00 00 00 00 00 00 00 00 00 00 00 00
       0.0 0.0 0.0 0.0
0000e0 00 00 00 00 00 00 00 00 00 00 00 00 00 00 00 00
       0.0 0.0 0.0 0.0
0000f0 00 00 00 00 00 00 00 00 00 00 00 00 00 00 00 00
       0.0 0.0 0.0 0.0
000100 00 00 00 00 00 00 00 00 00 00 00 00 00 00 00 00
       0.0 0.0 0.0 0.0
000110 00 00 00 00 00 00 00 00 00 00 00 00 00 00 00 00
       0.0 0.0 0.0 0.0
000120 00 00 00 00 00 00 00 00 00 00 00 00 00 00 00 00
       0.0 0.0 0.0 0.0
000130 00 00 00 00 00 00 00 00 00 00 00 00 00 00 00 00
       0.0 0.0 0.0 0.0
000140 00 00 00 00 00 00 00 00 00 00 00 00 00 00 00 00
       0.0 0.0 0.0 0.0
000150 00 00 00 00 00 00 00 00 00 00 00 00 00 00 00 00
       0.0 0.0 0.0 0.0
000160 00 00 00 00 00 00 00 00 00 00 00 00 00 00 00 00
       0.0 0.0 0.0 0.0
000170 00 00 00 00 00 00 00 00 00 00 00 00 00 00 00 00
       0.0 0.0 0.0 0.0
000180 00 00 00 00 00 00 00 00 00 00 00 00 00 00 00 00
       0.0 0.0 0.0 0.0
000190 00 00 00 00 00 00 00 00 00 00 00 00 00 00 00 00
       0.0 0.0 0.0 0.0
0001a0 00 00 00 00 00 00 00 00 00 00 00 00 00 00 00 00
       0.0 0.0 0.0 0.0
0001b0 00 00 00 00 00 00 00 00 00 00 00 00 00 00 00 00
       0.0 0.0 0.0 0.0
0001c0 00 00 00 00 00 00 00 00 00 00 00 00 00 00 00 00
       0.0 0.0 0.0 0.0
0001d0 00 00 00 00 00 00 00 00 00 00 00 00 00 00 00 00
       0.0 0.0 0.0 0.0
0001e0 00 00 00 00 00 00 00 00 00 00 00 00 00 00 00 00
       0.0 0.0 0.0 0.0
0001f0 00 00 00 00 00 00 00 00 00 00 00 00 00 00 00 00
       0.0 0.0 0.0 0.0

network_body._body_endoder.seq_layers.0.weight f4 [128, 338]
000000 6e 11 2d 3c b7 e5 51 bd 03 02 c8 3d 39 c9 5e bd
       0.010563238 -0.051244464 0.09766009 -0.05439112
000010 16 17 4c 3d bf 4b c7 3c 26 4c ce 3c 81 50 bb 3d
       0.049826704 0.02432811 0.025182795 0.09146214
000020 64 7c 06 3d e1 2e 9c 3c bb 6a ad bc 44 49 a8 3c
       0.032833472 0.019065322 -0.021169057 0.020542748
000030 98 5a 7d 3d e2 96 6f 3d 2f 42 80 3c 25 73 8c bd
       0.061853975 0.058493502 0.015656559 -0.068578996
000040 26 b4 61 bc 5b 47 4f 3c 9c b2 b6 3c 38 ca 97 bd
       -0.013775861 0.01265129 0.022301964 -0.07411617
000050 e6 f6 9e 3d 85 f2 bd 3d 3c 83 3d bd f4 5b 93 3d
       0.07761936 0.092747726 -0.046267733 0.07195273
000060 f3 1d 91 3c a9 62 ce bc 54 8e ba 3d 46 b3 ff 3c
       0.017714476 -0.02519353 0.09109178 0.031213414
000070 92 74 f5 bd e9 3a f9 3c 35 72 33 bd d1 ae b4 3c
       -0.11985125 0.030423598 -0.04381009 0.022056015
000080 8f 48 8c 3c 1b 7e 87 bd ab 02 95 3c f7 4b 72 3d
       0.017124442 -0.066158496 0.018189749 0.059154477
000090 8b e9 62 3d a9 ed 31 bd 21 04 37 bd 50 5f fc 3b
       0.055398505 -0.04343954 -0.044681672 0.007701792
0000a0 41 13 2c bd dd c8 f1 bc 3e 48 23 bc 72 51 1a 3d
       -0.04201055 -0.029514724 -0.009965954 0.03767533
0000b0 58 d6 09 3b 12 ee 65 bd 11 f2 bc bd 90 eb 0d bd
       0.00210323 -0.056135245 -0.09225858 -0.034648478
0000c0 e6 13 37 bd da 04 8c bc 99 73 5b bb 4c 85 6c 3d
       -0.04469671 -0.017092157 -0.003348565 0.05774431
0000d0 63 63 b8 bd dc 95 84 3c c7 dd 9c 3b bb 1e f7 3d
       -0.090033315 0.01618474 0.00478718 0.12066408
0000e0 49 d6 94 bb 85 cb 4e bb 56 bf cd ba 27 39 ae 3c
       -0.0045421463 -0.0031554413 -0.0015697281 0.021267487
0000f0 fa 0e c8 bd b9 c9 82 3d 1d d8 1a bd 7e d4 21 3c
       -0.097684816 0.06386132 -0.037803758 0.009877322
000100 30 04 1a bd 06 86 06 be b4 5e 71 bd 7e e1 40 bd
       -0.03760165 -0.13137063 -0.058928207 -0.047090046
000110 4c 6a 97 bd 52 dc 53 3d ce 04 4d 3d 9d fb c5 3d
       -0.073933214 0.051723786 0.05005341 0.09667132
000120 bd 8a b1 ba 48 96 11 3c dc e6 85 3d 19 85 de 3c
       -0.0013545376 0.0088859275 0.065381736 0.027163075
000130 17 c3 43 bd ae 8b b6 3c 6e eb 78 bd 48 e7 07 3d
       -0.047793474 0.022283401 -0.0607714 0.03317955
000140 83 05 4f bb 8a 83 52 3d 90 80 6a bb 83 46 8e bd
       -0.0031588979 0.051394977 -0.0035782196 -0.06947043
000150 92 8e 3d bc 08 69 ce 3d c6 06 55 bd 06 c1 90 bd
       -0.011569636 0.10078627 -0.052008413 -0.07068066
000160 9d 73 cd 3d 9b ac 05 3d ee 34 bc 3d 9a bb 98 3d
       0.10031817 0.032635313 0.09189783 0.07457657
000170 51 10 63 bd 0c fb 36 bc c7 a6 dd 3c 01 cf 46 ba
       -0.055435482 -0.011168253 0.027057065 -0.00075839466
000180 0b 27 10 3d 40 e7 62 3d 88 84 12 bc 5b 1f 1e 3d
       0.035193484 0.05539632 -0.008942731 0.03860412
000190 66 fc 33 bd 49 cf e6 bc 56 11 e6 3c f6 15 6b 3c
       -0.043941878 -0.028175013 0.028084438 0.014348498
0001a0 03 a1 63 bd f7 21 72 3d 47 82 1c 3c ef 9e 2b 3d
       -0.055573475 0.059114423 0.009552545 0.041899618
0001b0 30 5a cf 3c bf cc e8 3c 3c ee a0 bd ee b1 0b bd
       0.02531156 0.028417943 -0.078579396 -0.034105234
0001c0 b0 62 31 3b 70 11 24 bd 4f ae 2c 3d e6 1e 37 3c
       0.002706688 -0.040055692 0.04215842 0.0111768
0001d0 3a d6 43 bc a3 d4 11 3d e2 3e 2e bd 80 4a 7a bd
       -0.011952931 0.035603177 -0.04254044 -0.061106205
0001e0 be dc 28 3b 88 f1 8e bb c5 3e 6a bd ad 20 91 3d
       0.0025766338 -0.004362289 -0.057188768 0.070863105
0001f0 c7 32 9c 3d 9c 00 6d bd 28 f7 3e bd d0 c9 e8 3c
       0.076268725 -0.05786191 -0.046622425 0.028416544
000200 a7 36 66 bd 89 34 b8 3d e5 26 07 bd 60 8c ae bc
       -0.056204464 0.08994395 -0.032996077 -0.02130717
000210 0b 33 88 bb 37 37 3f bd 1d e3 81 3d 3e 79 22 bd
       -0.0041564754 -0.046683516 0.063421465 -0.039666407
000220 17 a3 ed 3c 9e 9d a9 3d 28 43 04 bd 64 3c 4c 3b
       0.029008431 0.08282016 -0.032290608 0.0031163925
000230 9c 4f 9d bc 18 93 8b 3c 85 a9 13 be 47 d6 ad bc
       -0.019203 0.017037913 -0.14420135 -0.02122034
000240 59 5e ad 3c 37 48 25 bd 57 d9 84 3d a8 43 9f bd
       0.021163153 -0.040352073 0.06486767 -0.07776576
000250 f5 a0 84 bd 8b 43 ee bb 51 c2 35 bc 77 c4 0e bd
       -0.064760126 -0.0072712353 -0.011093692 -0.034855332
000260 39 8c 57 bd 47 6c 3e ba ed d5 8b bd 47 b8 10 bc
       -0.05262396 -0.00072640594 -0.068279125 -0.008832998
000270 0e 7f 20 bd f5 14 40 3d 42 ab 7b 3c b7 1a 4b bd
       -0.03918367 0.046894986 0.015360655 -0.049586024
000280 a9 92 24 bc c8 40 03 bd 5f da 46 3d 8b 13 5e bd
       -0.010044732 -0.032044202 0.0485481 -0.054217856
000290 c4 7f b6 3d 97 4f 43 bd e5 14 b0 bc d8 98 e8 bd
       0.08911088 -0.047683325 -0.021494338 -0.11357278
0002a0 8b c1 e6 bc 73 8c a7 bc 09 10 ff ba 2d a7 31 3d
       -0.02816846 -0.020452714 -0.0019459735 0.043372322
0002b0 fb db 99 bd a3 9b 64 3d b4 4a 54 3d 81 1b 65 bb
       -0.07512661 0.05581249 0.051829055 -0.003495902
0002c0 61 77 97 bd 4d e1 f8 3c ac 5e 98 bd bd 21 cd ba
       -0.073958166 0.03038087 -0.07439932 -0.0015650314
0002d0 94 de ca bc 7e 0f 9d ba 4e 85 94 3c 72 1a d1 3c
       -0.024764337 -0.0011982766 0.01812997 0.025525305
0002e0 ac 7a bd bc 35 8e b8 bc 5e 11 24 3d 2f e8 81 bd
       -0.023129784 -0.022528747 0.040055625 -0.06343114
0002f0 98 00 bc 3c 8a d5 07 bc eb a7 46 bc 95 81 a6 3c
       0.022949502 -0.008290658 -0.012124996 0.020325461
000300 36 86 f7 3c 17 0b d5 3c 99 3a dd bb 35 9a c3 3c
       0.030215364 0.026006265 -0.00675137 0.023877243
000310 e0 5f 6b 3c 13 7b 30 3d a7 98 7a bd 79 08 cd bd
       0.01436612 0.043086123 -0.061180737 -0.10011382
000320 4e 0a 41 bd 1c 89 55 3c 65 e9 4e 3c dc b3 a8 bd
       -0.047128968 0.013033178 0.012628888 -0.082374305
000330 2c cc 10 3d 99 96 b0 bd 0f d4 63 3a 1f a8 02 3d
       0.035350963 -0.08622474 0.0008690962 0.031898614
000340 20 90 ef bc a5 58 0e bc ab 9d 82 3d 3a 83 cb bb
       -0.029243529 -0.008688127 0.06377729 -0.006210712
000350 23 9c ce bc 13 a7 8d bc d0 bd 60 bd ae 73 4d bd
       -0.025220936 -0.017291581 -0.05486852 -0.05015915
000360 f1 fa 5b bc bc e1 c9 bd 62 da c9 bc 31 67 db 3c
       -0.013426528 -0.098575085 -0.024640266 0.026782604
000370 ac cc a9 bc ca 09 a3 3d 00 24 ef 3d 3b 29 05 3c
       -0.020727478 0.079608515 0.11676788 0.008127506
000380 ad f9 9a bd fc bd 78 3d 35 a6 23 bd ca ed 89 3d
       -0.07567153 0.06072806 -0.03995343 0.06734808
000390 5b 3d d7 3c 98 78 44 bc c0 aa f9 3d 58 26 f7 bb
       0.026274374 -0.011991642 0.12190771 -0.0075424127
0003a0 a6 4d 1c 3d dd ee 21 3d 71 d3 fd 3c d8 cf 54 bd
       0.03815999 0.03953444 0.030984612 -0.051956028
0003b0 0f 9c 8d bc ff 13 20 bc fc b6 b2 bd 0e 5d b9 bd
       -0.017286329 -0.009770392 -0.08726308 -0.09050952
0003c0 c0 4c a2 bd 96 96 02 3d 73 55 0c be 72 8a 5d bd
       -0.07924795 0.03188189 -0.13704471 -0.05408711
0003d0 6d 94 90 bc 56 e6 9f bd 1f c9 3f 3d d7 a6 3f bd
       -0.0176489 -0.07807605 0.046822663 -0.04678997
0003e0 3c 02 01 3d e9 10 e8 3d 4e 5a 1e 3d e7 d3 10 bd
       0.03149627 0.1133135 0.03866034 -0.035358336
0003f0 7a eb 8b bd 05 7d 94 bd 44 bf 56 bc 30 35 d0 3d
       -0.06832023 -0.07250408 -0.013107125 0.10166395

network_body._body_endoder.seq_layers.0.bias f4 [128]
000000 00 00 00 00 00 00 00 00 00 00 00 00 00 00 00 00
       0.0 0.0 0.0 0.0
000010 00 00 00 00 00 00 00 00 00 00 00 00 00 00 00 00
       0.0 0.0 0.0 0.0
000020 00 00 00 00 00 00 00 00 00 00 00 00 00 00 00 00
       0.0 0.0 0.0 0.0
000030 00 00 00 00 00 00 00 00 00 00 00 00 00 00 00 00
       0.0 0.0 0.0 0.0
000040 00 00 00 00 00 00 00 00 00 00 00 00 00 00 00 00
       0.0 0.0 0.0 0.0
000050 00 00 00 00 00 00 00 00 00 00 00 00 00 00 00 00
       0.0 0.0 0.0 0.0
000060 00 00 00 00 00 00 00 00 00 00 00 00 00 00 00 00
       0.0 0.0 0.0 0.0
000070 00 00 00 00 00 00 00 00 00 00 00 00 00 00 00 00
       0.0 0.0 0.0 0.0
000080 00 00 00 00 00 00 00 00 00 00 00 00 00 00 00 00
       0.0 0.0 0.0 0.0
000090 00 00 00 00 00 00 00 00 00 00 00 00 00 00 00 00
       0.0 0.0 0.0 0.0
0000a0 00 00 00 00 00 00 00 00 00 00 00 00 00 00 00 00
       0.0 0.0 0.0 0.0
0000b0 00 00 00 00 00 00 00 00 00 00 00 00 00 00 00 00
       0.0 0.0 0.0 0.0
0000c0 00 00 00 00 00 00 00 00 00 00 00 00 00 00 00 00
       0.0 0.0 0.0 0.0
0000d0 00 00 00 00 00 00 00 00 00 00 00 00 00 00 00 00
       0.0 0.0 0.0 0.0
0000e0 00 00 00 00 00 00 00 00 00 00 00 00 00 00 00 00
       0.0 0.0 0.0 0.0
0000f0 00 00 00 00 00 00 00 00 00 00 00 00 00 00 00 00
       0.0 0.0 0.0 0.0
000100 00 00 00 00 00 00 00 00 00 00 00 00 00 00 00 00
       0.0 0.0 0.0 0.0
000110 00 00 00 00 00 00 00 00 00 00 00 00 00 00 00 00
       0.0 0.0 0.0 0.0
000120 00 00 00 00 00 00 00 00 00 00 00 00 00 00 00 00
       0.0 0.0 0.0 0.0
000130 00 00 00 00 00 00 00 00 00 00 00 00 00 00 00 00
       0.0 0.0 0.0 0.0
000140 00 00 00 00 00 00 00 00 00 00 00 00 00 00 00 00
       0.0 0.0 0.0 0.0
000150 00 00 00 00 00 00 00 00 00 00 00 00 00 00 00 00
       0.0 0.0 0.0 0.0
000160 00 00 00 00 00 00 00 00 00 00 00 00 00 00 00 00
       0.0 0.0 0.0 0.0
000170 00 00 00 00 00 00 00 00 00 00 00 00 00 00 00 00
       0.0 0.0 0.0 0.0
000180 00 00 00 00 00 00 00 00 00 00 00 00 00 00 00 00
       0.0 0.0 0.0 0.0
000190 00 00 00 00 00 00 00 00 00 00 00 00 00 00 00 00
       0.0 0.0 0.0 0.0
0001a0 00 00 00 00 00 00 00 00 00 00 00 00 00 00 00 00
       0.0 0.0 0.0 0.0
0001b0 00 00 00 00 00 00 00 00 00 00 00 00 00 00 00 00
       0.0 0.0 0.0 0.0
0001c0 00 00 00 00 00 00 00 00 00 00 00 00 00 00 00 00
       0.0 0.0 0.0 0.0
0001d0 00 00 00 00 00 00 00 00 00 00 00 00 00 00 00 00
       0.0 0.0 0.0 0.0
0001e0 00 00 00 00 00 00 00 00 00 00 00 00 00 00 00 00
       0.0 0.0 0.0 0.0
0001f0 00 00 00 00 00 00 00 00 00 00 00 00 00 00 00 00
       0.0 0.0 0.0 0.0

network_body._body_endoder.seq_layers.2.weight f4 [128, 128]
000000 ad c6 81 3c f2 41 ac ba 66 3b de bc 44 2c b5 3d
       0.015841806 -0.0013142212 -0.027127933 0.088463336
000010 d3 50 0c 3d b4 96 30 be 3e 75 09 bb af d9 06 3d
       0.034256767 -0.17244989 -0.0020974423 0.032922443
000020 b5 18 85 3a 4e 7b da 3d a7 39 20 bd f7 1f 40 bd
       0.0010154458 0.1066805 -0.03911748 -0.046905484
000030 1b 81 ef 3b f4 8f 99 bc 68 e1 74 bd cf d0 b8 bd
       0.0073090917 -0.0187454 -0.059785277 -0.09024202
000040 64 3e 14 3e be b5 b5 bc cd 18 27 3d 1c a6 06 bc
       0.14476925 -0.022181388 0.040795136 -0.0082183145
000050 01 13 93 3d 74 fc c9 bb 58 d7 91 3e 18 bf 81 bd
       0.07181359 -0.006164128 0.28484607 -0.06335276
000060 09 19 4d bd d5 9e b5 3d 30 6c e4 3c ff e8 0f be
       -0.050072704 0.088681854 0.02788362 -0.14053725
000070 b7 01 3c 3c 5f dd a5 bd f5 11 53 3d 3e 69 13 bd
       0.011475018 -0.08098864 0.051530797 -0.03598904
000080 ac 8a fd bd 49 88 b9 bc 56 31 f0 bd f9 88 82 bd
       -0.12379965 -0.022647994 -0.1172816 -0.06373782
000090 ad 4f f6 bc ad c9 13 3e ad 99 08 3e ef f4 17 3c
       -0.03006729 0.14432402 0.13339873 0.009274705
0000a0 86 84 1f be 5a da ae 3d df ad a1 bc 73 66 a3 3d
       -0.15577897 0.08537741 -0.019736229 0.07978525
0000b0 3e f2 da bb 8c bd c9 bc ad 73 95 bb a3 4a 1a bc
       -0.0066817096 -0.024626516 -0.004560909 -0.009417209
0000c0 a9 ee 3a 3e dd 97 d2 3d fc 4d eb 3d c8 e9 a7 bd
       0.18255104 0.10282872 0.11489484 -0.08198887
0000d0 01 01 ee bd 7d e1 6c bd 06 2c ac bd 77 11 ec bc
       -0.11621285 -0.05783223 -0.08406834 -0.028816922
0000e0 d7 c1 b4 bc 15 03 b3 3c 7d 96 c4 3c 20 4b 27 bd
       -0.022065086 0.021852056 0.02399754 -0.04084313
0000f0 5f d3 2e bd 57 fb d9 bc 62 96 b8 3c 5d 14 81 3b
       -0.042682048 -0.026609106 0.022532646 0.003939195
000100 c7 ce 2a 3d 4e e3 1e 3d ae 6b 8b bc ee c6 3d be
       0.041701104 0.038790993 -0.01701912 -0.18532917
000110 63 c2 46 3d d0 6d 02 be 3b 59 fb 3d a7 67 79 bd
       0.048525225 -0.12737203 0.12272879 -0.060889866
000120 47 7a d6 bb a8 56 b1 bd af 29 11 3d ac 60 b4 bd
       -0.0065453383 -0.086591065 0.035440143 -0.08807501
000130 c2 4b 8f 3d 87 35 d4 3d c5 24 31 3c 1b e7 3e 3e
       0.069968715 0.10361772 0.010811989 0.18642847
000140 68 57 97 3d d8 b6 b5 3d a1 b4 ba bb ea 5f 8f bc
       0.07389718 0.08872765 -0.005697802 -0.01750179
000150 42 d9 1d bd 30 f1 02 3d d8 2a 81 3d fb 4c 0e bd
       -0.03853727 0.031968296 0.06307 -0.034741383
000160 78 cc 83 3d bd 0b 2f 3d b6 8d 8b bd 6a b9 c7 3d
       0.06435484 0.042735804 -0.068141386 0.09752162
000170 29 76 68 3d 87 c6 a4 3d 19 ee 8e bc da 0f ad 3d
       0.05675331 0.080456786 -0.017447518 0.08450289
000180 dd 10 2f 3d 1c 5e 42 bd d0 97 3e bd 85 25 c6 bd
       0.04274069 -0.04745303 -0.0465315 -0.09675125
000190 ea a3 34 3d 6c a0 ba bd b7 75 ff 3d 8a c7 bb 3d
       0.044101633 -0.09112629 0.12473624 0.091689184
0001a0 f1 fe 57 bd d1 c6 ee bc 91 ee be 3d 15 58 10 be
       -0.052733365 -0.029147537 0.09322847 -0.140961
0001b0 8b 33 a6 bc f5 32 e7 bc 8b 39 51 bd f4 9a cf 3c
       -0.02028825 -0.02822254 -0.051080268 0.025342442
0001c0 e0 a1 59 bd b0 23 8c bd 4d 34 6c 3d 72 9c 14 bd
       -0.05313289 -0.06842744 0.057667065 -0.03628201
0001d0 71 11 c0 bd 28 23 aa bc 98 0d c6 bd f6 71 3c be
       -0.09378327 -0.020768717 -0.096705616 -0.18402848
0001e0 ba f3 d3 3d 77 d8 06 be 90 65 94 bb 14 7d 93 bd
       0.103492215 -0.13168512 -0.0045287088 -0.07201591
0001f0 84 78 ed 3d 80 fc 75 bd 5d 44 48 be e8 56 c8 3b
       0.11595252 -0.060055256 -0.19557329 0.0061138757
000200 2b 31 39 be 9b 69 96 3d 5b 77 c8 bd e8 3e 02 3c
       -0.18085162 0.073443614 -0.0978839 0.007949568
000210 d7 1f 15 3e 28 4f 61 3e 8c 2c 0b bd 02 cf da 3c
       0.14562927 0.22002852 -0.03397803 0.026710037
000220 b6 f8 3a 3d 3a e6 11 3d 15 b8 bb bc d2 ae 2b 3e
       0.045647345 0.03561995 -0.022914926 0.16765907
000230 6a b7 44 3e 92 d8 45 bd 7d 62 58 be 6c 3d 8c bd
       0.19210592 -0.04830224 -0.2113132 -0.06847653
000240 cf 9c 61 bd 4e bc cb 3c c9 19 0d bd cb c5 91 bc
       -0.055081185 0.024870064 -0.03444842 -0.01779451
000250 01 c6 92 bd 63 18 98 3d 8e 16 cf bc c5 52 28 bd
       -0.071666725 0.074265264 -0.02527931 -0.04109456
000260 7b cf 11 bd dd ab 95 bd 8f 8b 99 3d fe d0 2d 3c
       -0.03559826 -0.07308171 0.07497322 0.01060891
000270 2c a8 a2 bd e7 b8 f6 3d 81 f8 aa bd 39 df 2c 3d
       -0.079422325 0.12046986 -0.083481796 0.04220507
000280 86 d3 02 bd 90 53 d9 3c f8 29 0b 3e c3 41 39 3d
       -0.031940006 0.026529104 0.13590229 0.04522873
000290 22 11 b0 3d 6a 8e f5 3d ed 65 40 bd 81 be 88 3d
       0.08597018 0.11990054 -0.046972204 0.06676961
0002a0 08 ec d2 bd 24 f8 98 3d e7 a6 7c bd f5 6a 12 3e
       -0.10298926 0.07469204 -0.061682608 0.14298613
0002b0 8d 4a bb bd a7 41 9c bd 94 c9 ea 3d f0 77 f8 bc
       -0.09145079 -0.0762971 0.11464229 -0.030330628
0002c0 6c 8d 97 bd 66 09 87 bb 4a d3 1d bd 68 4c f8 bd
       -0.07400021 -0.0041209934 -0.03853158 -0.12123948
0002d0 3d 94 9f bd ea fb b7 bd 0e 31 f6 bc 55 4e d5 3d
       -0.07791946 -0.08983596 -0.030052688 0.10415331
0002e0 5f 92 0d 3e da 41 ce bd a6 93 56 bb 6e 3a 99 3d
       0.13825367 -0.10071154 -0.0032741814 0.07481848
0002f0 b2 97 5a bd 4d e7 75 3c 5a 79 1c 3d 41 59 58 be
       -0.053367324 0.01500876 0.038201667 -0.21127798
000300 c3 3b 77 bd 01 52 02 3e 80 6e bd bc ad 85 08 3e
       -0.060359728 0.12726595 -0.02312398 0.13332243
000310 e9 d4 4e bd f4 f0 e1 3c a8 6c 5f bc 4f c4 5c bb
       -0.050496016 0.027580716 -0.0136367455 -0.0033686345
000320 79 58 ce 3c 28 07 fb bd 50 d9 45 3d 4e b8 81 3d
       0.025188671 -0.12257224 0.04830295 0.063339815
000330 45 d6 a7 bd 7b 46 25 3e f9 aa 89 bc 0d fd 4a 38
       -0.081951655 0.16140167 -0.016805159 4.8396225e-05
000340 2c 92 4d bd 47 1c 0d bd 51 7d 9a 3d d1 15 51 3e
       -0.05018823 -0.034450796 0.075434335 0.20418479
000350 55 70 4f 3d ba cc be 3d ee ac 87 3d 37 d3 cb 3d
       0.050644238 0.09316392 0.066247806 0.099523954
000360 6f 69 81 bd 07 4e ed 3b 9a 2e 37 3d 12 70 59 bd
       -0.06318938 0.0072419676 0.044722177 -0.053085394
000370 0e 52 94 be 4a b2 d6 3d 7e 1e 17 3e a3 71 1b bb
       -0.28968853 0.10483225 0.14757726 -0.0023718856
000380 f5 d8 c4 3c 49 51 ac bb 50 3b 48 3d 86 35 45 3e
       0.024029234 -0.0052587134 0.04888469 0.19258699
000390 ed 9d fa bd 7e 08 a1 bd e6 71 98 b9 a3 c8 02 be
       -0.12237153 -0.07862948 -0.0002907656 -0.1277185
0003a0 a0 8d a2 bd fa 91 b5 3d 30 2c 93 bd e0 4b 37 be
       -0.07937169 0.088657334 -0.071861625 -0.17900038
0003b0 61 be e3 bd f8 a4 f9 bd 56 cd 14 bc 63 92 23 3d
       -0.11120296 -0.121896684 -0.009082159 0.039934527
0003c0 70 82 4b bd fe 30 8a 3c 8c 04 14 bd 13 b0 2f bb
       -0.04968494 0.016869064 -0.03613715 -0.002680783
0003d0 3d d5 fd bd e1 e1 85 3c e3 eb 7b 3d 0d 19 04 be
       -0.123941876 0.016343059 0.061504256 -0.12900181
0003e0 9e 00 a5 3c 3d 40 65 ba e1 06 80 3d 0d 3a 0b 3e
       0.020141896 -0.0008745229 0.06251312 0.13596363
0003f0 af dd 5a 3d 4f e0 51 bd 5d a8 48 3d 76 cc 1a 3d
       0.05343407 -0.051239308 0.04898869 0.037792645

network_body._body_endoder.seq_layers.2.bias f4 [128]
000000 00 00 00 00 00 00 00 00 00 00 00 00 00 00 00 00
       0.0 0.0 0.0 0.0
000010 00 00 00 00 00 00 00 00 00 00 00 00 00 00 00 00
       0.0 0.0 0.0 0.0
000020 00 00 00 00 00 00 00 00 00 00 00 00 00 00 00 00
       0.0 0.0 0.0 0.0
000030 00 00 00 00 00 00 00 00 00 00 00 00 00 00 00 00
       0.0 0.0 0.0 0.0
000040 00 00 00 00 00 00 00 00 00 00 00 00 00 00 00 00
       0.0 0.0 0.0 0.0
000050 00 00 00 00 00 00 00 00 00 00 00 00 00 00 00 00
       0.0 0.0 0.0 0.0
000060 00 00 00 00 00 00 00 00 00 00 00 00 00 00 00 00
       0.0 0.0 0.0 0.0
000070 00 00 00 00 00 00 00 00 00 00 00 00 00 00 00 00
       0.0 0.0 0.0 0.0
000080 00 00 00 00 00 00 00 00 00 00 00 00 00 00 00 00
       0.0 0.0 0.0 0.0
000090 00 00 00 00 00 00 00 00 00 00 00 00 00 00 00 00
       0.0 0.0 0.0 0.0
0000a0 00 00 00 00 00 00 00 00 00 00 00 00 00 00 00 00
       0.0 0.0 0.0 0.0
0000b0 00 00 00 00 00 00 00 00 00 00 00 00 00 00 00 00
       0.0 0.0 0.0 0.0
0000c0 00 00 00 00 00 00 00 00 00 00 00 00 00 00 00 00
       0.0 0.0 0.0 0.0
0000d0 00 00 00 00 00 00 00 00 00 00 00 00 00 00 00 00
       0.0 0.0 0.0 0.0
0000e0 00 00 00 00 00 00 00 00 00 00 00 00 00 00 00 00
       0.0 0.0 0.0 0.0
0000f0 00 00 00 00 00 00 00 00 00 00 00 00 00 00 00 00
       0.0 0.0 0.0 0.0
000100 00 00 00 00 00 00 00 00 00 00 00 00 00 00 00 00
       0.0 0.0 0.0 0.0
000110 00 00 00 00 00 00 00 00 00 00 00 00 00 00 00 00
       0.0 0.0 0.0 0.0
000120 00 00 00 00 00 00 00 00 00 00 00 00 00 00 00 00
       0.0 0.0 0.0 0.0
000130 00 00 00 00 00 00 00 00 00 00 00 00 00 00 00 00
       0.0 0.0 0.0 0.0
000140 00 00 00 00 00 00 00 00 00 00 00 00 00 00 00 00
       0.0 0.0 0.0 0.0
000150 00 00 00 00 00 00 00 00 00 00 00 00 00 00 00 00
       0.0 0.0 0.0 0.0
000160 00 00 00 00 00 00 00 00 00 00 00 00 00 00 00 00
       0.0 0.0 0.0 0.0
000170 00 00 00 00 00 00 00 00 00 00 00 00 00 00 00 00
       0.0 0.0 0.0 0.0
000180 00 00 00 00 00 00 00 00 00 00 00 00 00 00 00 00
       0.0 0.0 0.0 0.0
000190 00 00 00 00 00 00 00 00 00 00 00 00 00 00 00 00
       0.0 0.0 0.0 0.0
0001a0 00 00 00 00 00 00 00 00 00 00 00 00 00 00 00 00
       0.0 0.0 0.0 0.0
0001b0 00 00 00 00 00 00 00 00 00 00 00 00 00 00 00 00
       0.0 0.0 0.0 0.0
0001c0 00 00 00 00 00 00 00 00 00 00 00 00 00 00 00 00
       0.0 0.0 0.0 0.0
0001d0 00 00 00 00 00 00 00 00 00 00 00 00 00 00 00 00
       0.0 0.0 0.0 0.0
0001e0 00 00 00 00 00 00 00 00 00 00 00 00 00 00 00 00
       0.0 0.0 0.0 0.0
0001f0 00 00 00 00 00 00 00 00 00 00 00 00 00 00 00 00
       0.0 0.0 0.0 0.0

action_model._continuous_distribution.log_sigma f4 [1, 2]
000000 00 00 00 00 00 00 00 00
       0.0 0.0
