results/ZaraImitation/ZARAimitation/ZARAimitation-183283.onnx (onnx, 343281 bytes, 15 tensors)

network_body.observation_encoder.processors.0.conv_layers.0.weight f4 [16, 4, 8, 8]
-0.03566841 0.012907844 -0.025654968 -0.0032431206 -0.07587368 -0.07729805 -0.054347426 -0.008409846
-0.00041365193 -0.07135538 -0.018271435 0.060286395 0.021823017 0.02410811 -0.021048445 -0.022426423
0.0330933 0.010023552 -0.014432039 0.022763073 -0.036895253 -0.01623416 0.03907627 -0.0020902227
-0.030747892 -0.031188078 -0.018542076 0.01693871 0.016340815 0.052771922 -0.027065137 -0.057430737
0.02176365 0.000880816 0.011195512 0.032556307 -0.024226403 -0.009525212 0.04070244 -0.008260623
-0.057400957 0.05255926 -0.0009685862 0.021246692 -0.016724484 -0.0035488647 -0.0009175879 0.051014323
0.0038502226 -0.030639281 -0.0007469928 -0.0052725268 0.041641448 0.047624066 -0.006367853 0.019610759
0.016937617 -0.053939085 -0.030633425 -0.020269701 -0.0098241065 -0.03876911 0.008496175 0.039457347
-0.068270445 -0.013294114 0.010386203 0.0046921284 -0.0083736945 0.034422733 0.0013157843 -0.06034213
-0.07492686 0.041163553 -0.014412451 -0.03401927 0.001711957 0.040765677 0.039396416 0.022016391
0.0026148397 -0.061774656 -0.045962125 -0.028313855 0.013936919 -0.02607858 -0.003980027 -0.03759049
-0.038182154 -0.023345584 -0.023614166 -0.03961982 -0.08135208 -0.052341796 -0.046010565 -0.038871277
0.037806362 -0.054022532 0.008245239 0.039376695 -0.057128653 -0.01718302 0.015157958 0.018605722
0.035472095 -0.016652802 -0.013545532 0.028597474 0.025116341 0.056061637 0.037134904 -0.021014443
0.056060396 -0.03291461 0.015665375 -0.052340828 -0.009375711 -0.047878973 0.036238384 0.013392402
0.055432 0.056702264 -0.021690452 -0.012273451 0.017590964 0.040099893 0.039445642 0.046517458
0.086361945 -0.0034728965 -0.02856598 0.057008866 -0.020330016 0.078639716 0.044314835 -0.02239761
0.08236663 -0.0071385694 0.03579211 0.005146992 -0.02614318 0.0050858567 0.07560441 0.05370578
0.073966034 0.023769667 0.012218508 0.016378015 0.038309045 -0.013213435 -0.008213613 0.0028993895
0.0061862585 -0.053411983 0.0061036935 -0.0010471353 0.022721792 0.014656234 0.05161496 -0.00040733273
-0.041970447 -0.0401227 0.053856988 0.049324512 0.04644584 -0.026696721 -0.05224653 0.06607586
-0.052215002 0.010467982 0.031129474 -0.046161402 -0.04105066 0.045846883 0.06371676 -0.05073119
0.010506983 -0.064527616 -0.020879505 0.007335672 0.023602696 0.064458795 -0.045520693 -0.03530925
-0.051108234 0.001724331 0.025961028 0.05915984 0.034995496 0.058655888 -0.020978196 0.053817946
0.049131345 -0.015878074 -0.048830196 0.057488557 0.017787615 0.05983993 0.064643495 -0.038126927
-0.019066613 -0.017963376 0.062329248 -0.042528294 0.028898658 0.05856701 0.07109663 -0.018744243
-0.038952656 -0.03133945 -0.024883611 0.026801476 -0.043432213 -0.018040646 0.030544024 0.058150355
-0.04106136 0.026316755 0.044225834 0.03356553 -0.0012779405 0.017538246 0.06363062 -0.034477577
0.02866778 -0.017633315 0.06693408 -0.023485748 -0.0036901294 0.003730425 -0.0064988136 -0.010052754
-0.01323968 0.058778293 0.081324786 -0.023327326 0.03024285 -0.01499367 0.030504182 0.011390938
0.049827017 0.03777223 -0.006589528 0.0661105 -0.012972036 0.051975705 -0.019486966 -0.021768833
0.028883087 -0.01702595 0.07427147 0.0625422 0.060514446 0.07429163 0.0063589504 0.0051930067
00000000: 0a19 12bd 6c7b 533c 5e2a d2bc 898a 54bb
00000010: a963 9bbd 714e 9ebd 689b 5ebd 73c9 09bc
00000020: 6cdf d8b9 c522 92bd faad 95bc deee 763d
00000030: 2fc6 b23c 5f7e c53c ca6d acbc 9eb7 b7bc
00000040: d78c 073d d339 243c 5c74 6cbc a079 ba3c
00000050: 7a1f 17bd 80fd 84bc 700e 203d 1efc 08bb
00000060: 01e3 fbbc 247e ffbc 8de5 97bc 0dc3 8a3c
00000070: 2cdd 853c 5f27 583d b5b7 ddbc 7e3c 6bbd
00000080: af49 b23c 90e6 663a 616d 373c c359 053d
00000090: 7376 c6bc a30f 1cbc 9ab7 263d 9057 07bc
000000a0: 441d 6bbd 6148 573d b8e8 7dba 8b0d ae3c
000000b0: c901 89bc 1294 68bb 488a 70ba 65f4 503d
000000c0: 0454 7c3b 3bff fabc d7d1 43ba 29c5 acbb
000000d0: 3990 2a3d 7411 433d 6ca9 d0bb bea6 a03c
000000e0: c2c0 8a3c 3bef 5cbd f3f2 fabc a50c a6bc
000000f0: 4af5 20bc 5ccc 1ebd 8a33 0b3c 079e 213d
00000100: 60d1 8bbd 8ecf 59bc e52a 2a3c 6dc0 993b
00000110: d231 09bc dafe 0c3d 6576 ac3a 4f29 77bd
00000120: 4173 99bd 1d9b 283d 3322 6cbc ca57 0bbd
00000130: bf63 e03a e9f9 263d 235e 213d b85b b43c
00000140: bb5d 2b3b 6c07 7dbd c842 3cbd 75f2 e7bc
00000150: ad57 643c bfa2 d5bc e36a 82bb 7cf8 19bd
00000160: e464 1cbd 3d3f bfbc 7f72 c1bc 6448 22bd
00000170: eb9b a6bd 5a64 56bd 9375 3cbd 7d37 1fbd
00000180: d8da 1a3d bb46 5dbd 0a17 073c 7549 213d
00000190: bcff 69bd 68c3 8cbc 1559 783c 076b 983c
000001a0: 304b 113d 756b 88bc 14ee 5dbc 4045 ea3c
000001b0: c9c0 cd3c e3a0 653d c51a 183d 7b26 acbc
000001c0: 969f 653d 78d1 06bd ac54 803c 5663 56bd
000001d0: 959c 19bc be1c 44bd b36e 143d ce6b 5b3c
000001e0: aa0c 633d a240 683d 2db0 b1bc 9616 49bc
000001f0: ed1a 903c c93f 243d c191 213d 1789 3e3d
00000200: 88de b03d 8999 63bb 3403 eabc 2182 693d
00000210: 228b a6bc dc0d a13d 7983 353d 317b b7bc
00000220: d6af a83d a9ea e9bb bf9a 123d 19a8 a83b
00000230: 392a d6bc 42a7 a63b 7cd6 9a3d 98fa 5b3d
00000240: 817b 973d 9bb8 c23c 2330 483c 302b 863c
00000250: f2e9 1c3d 2a7d 58bc 6492 06bc af03 3e3b
00000260: 19b6 ca3b 86c6 5abd 7e01 c83b 0840 89ba
00000270: 0d23 ba3c b320 703c 356a 533d 468f d5b9
00000280: 34e9 2bbd b357 24bd 2599 5c3d 8008 4a3d
00000290: fe3d 3e3d 15b3 dabc 7500 56bd c852 873d
000002a0: 66df 55bd e681 2b3c 3d03 ff3c bd13 3dbd
000002b0: bd24 28bd f1c9 3b3d ef7d 823d 82cb 4fbd
000002c0: 7b25 2c3c 0e27 84bd 7f0b abbc 1460 f03b
000002d0: 715a c13c f902 843d e873 3abd 6fa0 10bd
000002e0: de56 51bd f302 e23a 39ac d43c 9751 723d
000002f0: 7057 0f3d 2841 703d 77da abbc 3570 5c3d
00000300: f33d 493d bc12 82bc 2c02 48bd 1f79 6b3d
00000310: 55b7 913c b71a 753d cf63 843d fb2a 1cbd
00000320: 9631 9cbc ee27 93bc f44c 7f3d 2632 2ebd
00000330: e1bc ec3c f6e3 6f3d 1c9b 913d 878d 99bc
00000340: d28c 1fbd cc5d 00bd b7d8 cbbc c58e db3c
00000350: fae5 31bd fac9 93bc 7637 fa3c 112f 6e3d
00000360: f52f 28bd 3c96 d73c 2626 353d 027c 093d
00000370: 9180 a7ba 5eac 8f3c c550 823d 5c38 0dbd
00000380: b1d8 ea3c be73 90bc bc14 893d 2f65 c0bc
00000390: 19d6 71bb 257a 743b 00f4 d4bb 4eb4 24bc
000003a0: 3eeb 58bc 82c1 703d 9c8d a63d f318 bfbc
000003b0: dabf f73c 03a8 75bc e8e3 f93c 0fa1 3a3c
000003c0: 6a17 4c3d 0eb7 1a3d f8ec d7bb f164 873d
000003d0: aa88 54bc 7ae4 543d 21a3 9fbc 8d54 b2bc
000003e0: 399c ec3c 017a 8bbc a41b 983d 2016 803d
000003f0: ffdd 773d 3626 983d be5e d03b 192a aa3b

network_body.observation_encoder.processors.0.conv_layers.0.bias f4 [16]
-0.030774359 0.010439481 0.04400996 0.064083286 0.027249524 -0.0011646238 0.04086747 0.061074775
-0.0060497094 -0.037492745 -0.0006718906 0.021657713 0.06450866 0.06339088 0.0033819492 -0.030511934
00000000: 821a fcbc 5b0a 2b3c ca43 343d 193e 833d
00000010: 653a df3c 4aa6 98ba a664 273d 8b29 7a3d
00000020: a43c c6bb fe91 19bd d121 30ba 846b b13c
00000030: 1e1d 843d 14d3 813d b1a3 5d3b 2af4 f9bc

network_body.observation_encoder.processors.0.conv_layers.2.weight f4 [32, 16, 4, 4]
0.05561335 0.019390719 0.016206875 -0.04333933 0.04268084 0.07891438 -0.015915846 0.024887199
-0.05460995 0.03026594 0.04194089 -0.031149276 0.07368895 -0.018534362 -0.04269782 0.047149606
0.05527483 -0.047122017 -0.013047344 -0.005466746 0.04054567 0.015770948 0.012285212 -0.054114617
-0.027453698 -0.02296087 0.040890034 0.016290784 0.021036658 -0.025646986 0.06300632 0.029848443
0.013219261 0.05071762 0.037468463 -0.054222003 -0.01836953 0.033940062 -0.005856196 -0.052935135
-0.028613452 0.036755342 0.03479846 -0.0416893 0.01614511 0.039177585 -0.023376845 0.029401949
0.0051125726 -0.007227339 0.061336666 0.02458228 0.010858626 0.05325596 -0.015041119 -0.012798278
-0.012826742 0.06357972 -0.012323307 -0.057000704 -0.009368467 -0.058079865 0.023413815 0.024223667
-0.028100053 0.047695283 -0.070113994 -0.012663199 0.044001177 0.040358216 0.032736674 -0.04663448
0.021331618 0.04762814 -0.0779637 -0.054677363 -0.026684267 -0.024531625 -0.028609635 -0.045505308
-0.021066599 -0.012642111 -0.019856788 0.034998287 -0.060623184 -0.056014724 0.0326211 0.03710275
0.0497832 0.0073080813 -0.053884547 -0.058288004 0.012514456 -0.039256893 -0.06405988 0.023692867
-0.007052885 -0.007821748 -0.009275656 -0.05265609 0.024291232 -0.009404769 0.001455192 0.006084239
-0.04845306 0.03763054 -0.041632205 0.0018480747 0.01105336 -0.008522 -0.03508211 -0.05322298
-0.006088833 -0.025365876 0.061840117 -0.0055215755 -0.010305736 0.07189106 0.029033396 0.05621274
-0.053354107 -0.024900775 0.002875146 0.0023970883 0.047181413 0.017626235 0.009297042 -0.0022311357
-0.04617503 0.034714278 0.0022531531 -0.054876275 0.013380428 -0.010935024 -0.0538813 -0.0053180186
0.044307027 0.034610085 -0.042980433 0.032544434 -0.03526693 0.027489334 0.04568124 -0.0076843346
0.06664643 -0.013112068 -0.0017656923 -0.040542927 0.022206075 0.050255977 0.011045131 0.017344305
-0.045501027 0.043851115 -0.010697087 -0.069146 0.0072934087 0.0006528646 -0.034502644 -0.019446582
0.023067623 -0.077737115 0.0249788 -0.033305474 -0.026788568 -0.017529838 0.012169744 0.05370679
-0.0043385588 0.008587669 0.021639569 0.004200501 0.040119372 0.049397778 -0.034695372 -0.04412188
0.024432229 -0.039827604 0.007854957 0.034030925 0.014633454 -0.028534701 -0.015365612 -0.044910356
0.00013216196 -0.019065853 -0.068418175 0.03260746 0.013748512 0.065670624 0.006868073 -0.07261314
0.018001242 0.007604029 -0.03441722 0.009566006 0.018520331 0.048509274 0.0148583315 0.053888083
-0.06434703 -0.07129003 -0.021282017 0.043183625 0.031203689 0.023662135 0.004310601 -0.0034171029
0.007715055 -0.04116201 0.062031075 0.02113107 0.067079425 -0.03643146 0.06398526 -0.0054463176
-0.059865993 -0.015773322 -0.04943964 -0.063722424 -0.034800388 0.027092842 -0.019044986 -0.05667056
0.058848538 0.044442758 -0.0589947 -0.00022072306 0.04137306 0.01427485 -0.023927357 -0.052137394
-0.04184017 0.036851626 0.009970109 -0.052536428 -0.037149675 0.0068612746 0.010320687 0.012785093
-0.0104333665 0.017044274 0.05036069 0.05020657 -0.006198877 -0.006362937 -0.0012819454 -0.0330463
-0.047507685 0.016750641 0.036996696 -0.02333695 0.051287048 0.06572775 0.032542855 -0.010739033
00000000: d3ca 633d 49d9 9e3c 48c4 843c 9584 31bd
00000010: 1bd2 2e3d dd9d a13d f361 82bc 3de0 cb3c
00000020: afae 5fbd 47f0 f73c 36ca 2b3d c42c ffbc
00000030: 3bea 963d 60d5 97bc e9e3 2ebd f21f 413d
00000040: dc67 623d 0403 41bd 87c4 55bc 6422 b3bb
00000050: 3713 263d 1332 813c ea47 493c 4aa7 5dbd
00000060: 94e6 e0bc 6f18 bcbc 4f7c 273d 4074 853c
00000070: 1255 ac3c a119 d2bc 7509 813d b984 f43c
00000080: 9995 583c 47bd 4f3d 8878 193d e417 5ebd
00000090: b27b 96bc bc04 0b3d 55e5 bfbb 83d2 58bd
000000a0: c266 eabc c58c 163d d488 0e3d 66c2 2abd
000000b0: c042 843c ad78 203d cc80 bfbc 5bdc f03c
000000c0: 5e87 a73b 50d3 ecbb 283c 7b3d c760 c93c
000000d0: 61e8 313c ec22 5a3d 076f 76bc deaf 51bc
000000e0: 4127 52bc 1636 823d b2e7 49bc 9279 69bd
000000f0: 337e 19bc 27e5 6dbd 54ce bf3c b670 c63c
00000100: 1532 e6bc 215c 433d ed97 8fbd 4e79 4fbc
00000110: 943a 343d a84e 253d e416 063d cc03 3fbd
00000120: a5bf ae3c b915 433d 6fab 9fbd 5ff5 5fbd
00000130: f798 dabc 8cf6 c8bc c15e eabc c663 3abd
00000140: dc93 acbc db20 4fbc b4aa a2bc 5d5a 0f3d
00000150: 0450 78bd b26f 65bd b49d 053d 0ef9 173d
00000160: 78e9 4b3d a178 ef3b 0bb6 5cbd 67bf 6ebd
00000170: 6f09 4d3c d6cb 20bd d431 83bd 8b17 c23c
00000180: e31b e7bb ca26 00bc ecf8 17bc eaad 57bd
00000190: 68fe c63c 7616 1abc 24bc be3a 4c5e c73b
000001a0: b776 46bd 7b22 1a3d 8886 2abd 193b f23a
000001b0: 2719 353c dc9f 0bbc 42b2 0fbd 5700 5abd
000001c0: d584 c7bb 19cc cfbc 104c 7d3d 55ee b4bb
000001d0: 64d9 28bc 9f3b 933d 72d7 ed3c 543f 663d
000001e0: d689 5abd b6fc cbbc f26c 3c3b 7818 1d3b
000001f0: 4c41 413d e564 903c 9f52 183c 3f38 12bb
00000200: 0722 3dbd 8f30 0e3d a3a9 133b f2c5 60bd
00000210: 9539 5b3c d128 33bc a3b2 5cbd c642 aebb
00000220: 497b 353d 4ec3 0d3d 400c 30bd 504d 053d
00000230: 0e74 10bd 5031 e13c 401c 3b3d dfcc fbbb
00000240: ec7d 883d 00d4 56bc cd6e e7ba 5710 26bd
00000250: 84e9 b53c 36d9 4d3d a3f6 343c a515 8e3c
00000260: 495f 3abd 3a9d 333d d642 2fbc 6b9c 8dbd
00000270: 8cfd ee3b 0025 2b3a a552 0dbd 704e 9fbc
00000280: 50f8 bc3c a334 9fbd 57a0 cc3c 526b 08bd
00000290: b373 dbbc bc9a 8fbc 9b63 473c a7fb 5b3d
000002a0: 782a 8ebb 4bb3 0c3c 7745 b13c 5ba4 893b
000002b0: 3654 243d 5355 4a3d bc1c 0ebd 25b9 34bd
000002c0: 1926 c83c 4522 23bd 14b2 003c 0364 0b3d
000002d0: 28c1 6f3c 9bc1 e9bc 0cc0 7bbc ecf3 37bd
000002e0: f594 0a39 fe2f 9cbc d41e 8cbd 668f 053d
000002f0: 7041 613c 527e 863d 920d e13b 33b6 94bd
00000300: 5777 933c 382b f93b 12f9 0cbd bdba 1c3c
00000310: f3b7 973c a9b1 463d 5c70 733c c0b9 5c3d
00000320: 60c8 83bd 8200 92bd a057 aebc 50e1 303d
00000330: e19e ff3c 18d7 c13c f13f 8d3b 79f1 5fbb
00000340: 92ce fc3b 7f99 28bd 4c14 7e3d 111b ad3c
00000350: f060 893d 2839 15bd b40a 833d 0677 b2bb
00000360: 0b36 75bd 0e37 81bc 3881 4abd e780 82bd
00000370: da8a 0ebd cff1 dd3c 3b04 9cbc 641f 68bd
00000380: 2a0b 713d 9c09 363d 6da4 71bd e571 67b9
00000390: cc76 293d 0fe1 693c 4e03 c4bc 058e 55bd
000003a0: 9960 2bbd bbf1 163d ab59 233c 7030 57bd
000003b0: 422a 18bd 8bd4 e03b 1918 293c 9178 513c
000003c0: b6f0 2abc 6fa0 8b3c 0347 4e3d 68a5 4d3d
000003d0: f31f cbbb 2f80 d0bb f306 a8ba 8f5b 07bd
000003e0: 6b97 42bd a438 893c d989 173d 222d bfbc
000003f0: 5e12 523d 459c 863d a84b 053d c5f2 2fbc

network_body.observation_encoder.processors.0.conv_layers.2.bias f4 [32]
0.06849611 0.057710156 -0.010818097 0.0011575216 -0.02903843 -0.019228896 -0.0728551 -0.045303747
-0.03342036 0.0057219355 0.07064644 0.008101759 0.03918095 0.05199086 -0.060913146 -0.002971677
0.0003430674 0.05360538 0.03838459 -0.012015096 0.040767286 -0.05276204 0.047770526 -0.0021047485
0.012388716 0.038042333 0.009291182 0.031891305 0.048080187 0.012267237 -0.031848438 -0.0015915636
00000000: b047 8c3d 7c61 6c3d 633e 31bc fbb7 973a
00000010: 00e2 edbc eb85 9dbc 0e35 95bd 6c90 39bd
00000020: cae3 08bd 137f bb3b 15af 903d 3dbd 043c
00000030: 347c 203d 5ef4 543d 1080 79bd 78c0 42bb
00000040: badd b339 5191 5b3d 2939 1d3d f7da 44bc
00000050: 99fb 263d 021d 58bd 07ab 433d d2ef 09bb
00000060: 0bfa 4a3c 47d2 1b3d 0b3a 183c 75a0 023d
00000070: bbef 443d 85fc 483c 8273 02bd 039c d0ba

network_body.observation_encoder.processors.0.dense.0.weight f4 [128, 32]
-0.38306046 0.11262068 0.023799263 0.21126688 -0.63092566 -0.22926712 0.3563077 -0.0009864352
0.10716648 0.038213633 0.16944465 -0.03229323 0.0031533528 0.14865346 0.044621974 0.37671015
0.118433 -0.08151738 0.39241064 -0.026945049 -0.29854256 0.14725855 -0.30192548 -0.18483202
-0.123712435 0.509023 -0.048891824 0.014457834 -0.2764346 0.1106028 -0.26482028 0.06324832
-0.11292395 -0.052416787 -0.49598047 0.123463236 0.4937839 -0.15122993 0.31776252 0.14227796
0.11288498 0.24641332 0.06291972 0.51484907 -0.12790325 -0.13311876 -0.031321727 0.4211621
0.22723842 0.05618243 -0.27418604 0.037238043 0.046541195 0.3104513 0.27701965 0.062628
-0.03079262 0.047592822 0.00029507253 -0.058588803 0.27051136 0.11796676 0.21709469 -0.23923838
0.045076 -0.21633694 -0.54541725 -0.010704993 0.12407541 0.1742868 0.106858276 -0.14906378
0.043748192 -0.05079574 0.16945694 0.08093712 0.1297365 -0.7227414 0.0834007 0.17802761
0.027228182 0.16383012 -0.15756272 -0.10546424 -0.031867977 -0.04932692 0.08425325 0.095495805
0.11620905 -0.43046904 -0.16271497 0.22594583 0.13813585 -0.031177964 0.5502308 0.11556186
-0.07649734 -0.20999698 0.29788586 -0.19771628 0.12211809 -0.1332771 -0.010179311 -0.27644452
0.092934184 -0.1293718 0.12727931 0.16151789 -0.15947582 0.04785796 0.1422631 -0.49944952
0.022969827 -0.39205542 0.29644337 -0.024017518 0.029397072 -0.021525638 0.0033190027 0.23364216
0.053720627 -0.28655016 0.131707 0.020580828 0.066993795 -0.21251066 0.23347577 0.27715033
0.29970753 0.10476778 0.20313315 0.17577517 0.28435123 0.08266199 -0.064625844 -0.33008352
0.11460549 -0.02413286 -0.12849674 -0.12822196 -0.45855734 -0.081568904 -0.12301825 -0.17656705
0.1419748 -0.17129964 0.016417822 0.029423162 -0.32855424 -0.14397992 0.1573081 0.057508796
0.3289637 -0.2517952 0.087652005 0.279882 0.5596799 0.34336296 0.006274448 -0.25291562
0.06983137 -0.5161878 0.24671192 0.30126727 -0.22481671 -0.0843449 0.08084601 -0.09538814
0.3458785 -0.6526621 0.67090917 -0.04105951 -0.6024453 -0.1644317 -0.43398324 0.23949493
-0.07024114 -0.3626668 -0.046130355 -0.22872874 -0.14030193 0.09296998 0.24538092 -0.060414873
0.025728496 -0.101468556 0.61501056 0.019807193 -0.08055544 -0.3732 0.6134772 0.12929472
-0.31629837 -0.14799881 0.05134135 -0.06347298 0.09810408 0.0040304186 0.32453686 -0.26766095
0.08537942 -0.38177276 0.31155783 0.42675492 -0.22783504 0.10159873 -0.15903567 0.5418116
-0.24589963 0.12616734 -0.025032599 -0.15485595 -0.21091303 -0.5090855 0.5037713 -0.24711335
-0.12763967 -0.09973443 0.30698708 -0.28540674 -0.034548722 -0.1976565 -0.16922836 -0.00707847
0.035383105 -0.6282144 0.23244826 0.2189536 -0.3528749 0.069150545 0.27734 0.22928728
-0.15308881 -0.6520001 -0.6114241 0.027999789 -0.24029002 -0.16007678 -0.094284706 -0.14556397
0.33980983 -0.04054906 0.20457381 -0.07431914 0.18350606 0.19179848 0.17192796 -0.0543658
0.47257397 0.26341522 -0.48710203 -0.18201764 -0.21750963 0.25657195 -0.42213538 0.14753678
00000000: 8020 c4be aca5 e63d acf6 c23c 5856 583e
00000010: 5884 21bf 00c5 6abe f66d b63e 464b 81ba
00000020: 197a db3d e685 1c3d e682 2d3e e845 04bd
00000030: 7ba8 4e3b 9d38 183e 88c5 363d 27e0 c03e
00000040: 008d f23d 96f2 a6bd 0cea c83e ddbb dcbc
00000050: 92da 98be f2ca 163e fa95 9abe 9b44 3dbe
00000060: f25c fdbd 554f 023f cb42 48bd 8de0 6c3c
00000070: d688 8dbe b983 e23d 8696 87be 5688 813d
00000080: ac44 e7bd fcb2 56bd 27f1 fdbe 4bda fc3d
00000090: 3ed1 fc3e 05dc 1abe c5b1 a23e 50b1 113e
000000a0: 3e30 e73d c653 7c3e 0edc 803d 26cd 033f
000000b0: 12f9 02be 4950 08be 364b 00bd 8fa2 d73e
000000c0: 30b1 683e 8c1f 663d 1d62 8cbe eb86 183d
000000d0: fba1 3e3d 79f3 9e3e 85d5 8d3e 1c43 803d
000000e0: ce40 fcbc b1f0 423d f7b3 9a39 d0fa 6fbd
000000f0: 7780 8a3e 8f98 f13d 124e 5e3e e8fa 74be
00000100: 9da1 383d 6e87 5dbe 77a0 0bbf ff63 2fbc
00000110: 401b fe3d 3d78 323e 83d8 da3d 2da4 18be
00000120: 4e31 333d 320f 50bd 1f86 2d3e 5cc2 a53d
00000130: a5d9 043e 9505 39bf fccd aa3d df4c 363e
00000140: a30d df3c 15c3 273e 1f58 21be a3fd d7bd
00000150: ff87 02bd 060b 4abd f88c ac3d 4e93 c33d
00000160: 03ff ed3d 7066 dcbe c19e 26be 585e 673e
00000170: 7c73 0d3e ee68 ffbc eddb 0c3f b2ab ec3d
00000180: a3aa 9cbd 7309 57be 7f84 983e 2376 4abe
00000190: 0d19 fa3d cb79 08be 20c7 26bc 238a 8dbe
000001a0: 4754 be3d 0b7a 04be 8255 023e f264 253e
000001b0: a14d 23be b506 443d 6bad 113e d9b7 ffbe
000001c0: 382b bc3c 7dbb c8be 6dc7 973e 63c0 c4bc
000001d0: 21d2 f03c 8956 b0bc a083 593b e43f 6f3e
000001e0: 290a 5c3d b4b6 92be 33de 063e 2099 a83c
000001f0: 0b34 893d 659c 59be 4614 6f3e a6e6 8d3e
00000200: 4473 993e 7d90 d63d 2302 503e 68fe 333e
00000210: 7c96 913e b04a a93d 8e5a 84bd b500 a9be
00000220: 48b6 ea3d 47b2 c5bc a694 03be 9e4c 03be
00000230: 07c8 eabe 990d a7bd fef0 fbbd fecd 34be
00000240: d861 113e 2c69 2fbe ab7e 863c d808 f13c
00000250: 4338 a8be 796f 13be 6015 213e 588e 6b3d
00000260: ee6d a83e 4deb 80be e582 b33d b24c 8f3e
00000270: 2f47 0f3f 45cd af3e e299 cd3b 287e 81be
00000280: c003 8f3d e224 04bf 0da2 7c3e b43f 9a3e
00000290: 5a36 66be 05bd acbd 9892 a53d db5a c3bd
000002a0: fd16 b13e dd14 27bf b4c0 2b3f 042e 28bd
000002b0: db39 1abf c960 28be 0d33 debe 293e 753e
000002c0: 96da 8fbd 76af b9be 2ff3 3cbd de37 6abe
000002d0: 4fab 0fbe 0b67 be3d 2345 7b3e 9675 77bd
000002e0: 91c4 d23c bfce cfbd 5571 1d3f b242 a23c
000002f0: 40fa a4bd 1214 bfbe d70c 1d3f d665 043e
00000300: dcf1 a1be 008d 17be 4f4b 523d 1ffe 81bd
00000310: cbea c83d 9a11 843b b229 a63e db0a 89be
00000320: 68db ae3d b877 c3be 8284 9f3e 9f7f da3e
00000330: 974d 69be ff12 d03d 3fda 22be 2ab4 0a3f
00000340: 1dcd 7bbe 0332 013e 2a11 cdbc 8f92 1ebe
00000350: 96f9 57be 6d53 02bf 28f7 003f 480b 7dbe
00000360: f9b3 02be 9141 ccbd 692d 9d3e d520 92be
00000370: f682 0dbd 7766 4abe 334a 2dbe 83f2 e7bb
00000380: e0ed 103d a9d2 20bf eb06 6e3e 5f35 603e
00000390: 05ac b4be cd9e 8d3d 82ff 8d3e 49ca 6a3e
000003a0: 50c3 1cbe 7be9 26bf 4a86 1cbf d05f e53c
000003b0: 960e 76be 2beb 23be 5718 c1bd b90e 15be
000003c0: 8efb ad3e c516 26bd cc7b 513e a234 98bd
000003d0: 03e9 3b3e d266 443e e20d 303e acae 5ebd
000003e0: 37f5 f13e 5cde 863e 7065 f9be d562 3abe
000003f0: d8ba 5ebe 665d 833e 2122 d8be e213 173e

network_body.observation_encoder.processors.0.dense.0.bias f4 [128]
-0.0016798902 0.003632948 -0.001448449 0.020770365 0.013472806 0.033490904 -0.008483703 0.014741169
0.01468857 0.012430096 0.018230584 -0.014477595 0.0104863215 -0.0013031055 0.0026212712 0.010362567
0.01787208 0.0061042407 0.0070742555 0.024674794 0.003089178 0.006458353 0.01752216 -0.013402566
0.022929389 0.023220666 0.008452601 0.0003578025 -0.002669437 -0.0029996196 0.018112406 -0.0034850852
0.00048097913 -0.008729326 0.0009606678 0.007718223 -0.0052382485 -0.00974055 0.0024921326 0.0145675875
0.023653356 0.00942443 0.00805769 -0.015552289 0.0012168807 0.0065559666 0.026658727 0.0034466847
0.016202018 0.016949918 0.0012037096 -0.0019558382 0.00087887666 -0.0041730166 0.0012030294 0.0078850845
0.020191062 0.0085463915 0.00034631777 -0.013003957 0.012783792 -0.0027747964 0.0093014855 0.003081753
0.006275172 -0.005181437 0.017587027 0.0005044466 -0.0026985651 0.015158808 -0.0027065375 0.0016848864
0.026081303 -0.00032895207 -0.009654009 -0.0029211086 0.0147137735 0.0007082259 0.0032196604 0.019105105
-0.00019306077 0.008329315 -0.011630821 0.007864015 0.006644338 -0.0032382996 0.0014501775 0.016034866
-0.0037122997 0.021987762 0.017118212 -0.009914957 -0.009637903 0.013829966 -0.0013221785 0.014994581
0.011449735 0.0042950613 -0.0021385606 0.015770594 0.0112766605 0.007565069 0.0051886095 0.011152559
0.008259625 -0.0049561677 0.0039805174 0.03902033 0.009125777 0.020718021 0.0043210103 0.009057613
0.0049096406 0.011533112 0.011687005 0.0073020994 0.0061108503 -0.007230695 -0.008825578 0.014203825
0.00276773 0.017683998 0.006206835 0.011916458 0.00435978 0.0024533933 0.0036127649 -0.0001496503
00000000: c32f dcba c116 6e3b e2d9 bdba 9d26 aa3c
00000010: 0bbd 5c3c c22d 093d 3bff 0abc f284 713c
00000020: 54a8 703c 9aa7 4b3c 4e58 953c 6f33 6dbc
00000030: d2ce 2b3c f7cc aaba a2c9 2b3b c2c7 293c
00000040: 7868 923c 1506 c83b 28cf e73b cb22 ca3c
00000050: ce73 4a3b 97a0 d33b a28a 8f3c 7096 5bbc
00000060: 6ad6 bb3c 4439 be3c c77c 0a3c 7097 bb39
00000070: b9f1 2ebb 4495 44bb 7860 943c 0766 64bb
00000080: ed2b fc39 7205 0fbc 53d5 7b3a 26e9 fc3b
00000090: 9da5 abbb d496 1fbc 0c53 233b e4ac 6e3c
000000a0: afc4 c13c ed68 1a3c 6704 043c 07cf 7ebc
000000b0: be7f 9f3a 6fd3 d63b 6763 da3c c6e1 613b
000000c0: 18ba 843c 8eda 8a3c cbc5 9d3a 852d 00bb
000000d0: 6a64 663a cdbd 88bb f8ae 9d3a 7130 013c
000000e0: ba67 a53c 2a06 0c3c fc91 b539 8d0e 55bc
000000f0: 1c73 513c 5cd9 35bb 4265 183c 3cf7 493b
00000100: f59f cd3b 0bc9 a9bb ab12 903c d73c 043a
00000110: 69da 30bb a65c 783c 2a60 31bb 68d7 dc3a
00000120: 75a8 d53c 3377 acb9 d92b 1ebc 1270 3fbb
00000130: 0a12 713c 3ca8 393a f000 533b 4f82 9c3c
00000140: 5b70 4ab9 ae77 083c 338f 3ebc 12d8 003c
00000150: bfb8 d93b a739 54bb e213 be3a 8d5b 833c
00000160: 0e4a 73bb ae1f b43c 7e3b 8c3c 5872 22bc
00000170: 4ce8 1dbc 1597 623c f34c adba d5ab 753c
00000180: ab97 3b3c 96bd 8c3b 1827 0cbb 5531 813c
00000190: bec1 383c 66e4 f73b 3605 aa3b 39b9 363c
000001a0: 6153 073c 5967 a2bb 006f 823b c8d3 1f3d
000001b0: 4884 153c d7b8 a93c 4397 8d3b 6266 143c
000001c0: 0de1 a03b 61f5 3c3c da7a 3f3c 7346 ef3b
000001d0: 873d c83b 77ef ecbb 2899 10bc 29b7 683c
000001e0: ce62 353b 08de 903c b562 cb3b 3f3d 433c
000001f0: 7cdc 8e3b 1cc9 203b 23c4 6c3b 72eb 1cb9

network_body._body_endoder.seq_layers.0.weight f4 [128, 398]
0.049883947 -0.04900443 -0.00029133566 0.096781604 -0.0005596405 -0.012228007 0.024881901 0.06471082
0.016474377 -0.019678034 0.041478623 -0.050399635 0.072068475 0.07153538 0.01326983 -0.055930577
0.008123213 -0.030128632 -0.024725735 -0.047955044 -0.0074980925 0.03673247 0.044302303 0.036733426
-0.0080355555 0.046923798 0.034460716 -0.024263255 0.09849575 -0.01218561 0.023360468 -0.071295105
-0.04314568 -0.013011836 0.009163767 -0.062348418 0.084636465 -0.069112174 -0.06976352 -0.04893976
-0.06472839 -0.030722033 -0.06380386 0.059266444 -0.04450796 0.054136503 0.011618931 -0.01049799
-0.004254776 0.066274546 0.00868294 0.0008459662 -0.0011198343 -0.034439728 0.08693632 -0.05318927
0.021735711 0.02807861 -0.007278966 0.014571869 0.087805256 0.052825008 -0.042705476 0.009674369
0.017736642 -0.0012595936 -0.023040067 0.016279463 0.03765273 -0.07169813 0.05786707 0.085394226
0.02096608 -0.0787711 -0.0063701505 0.095895655 0.03171568 0.121038 -0.0019357929 -0.057304326
0.052870683 0.04188792 0.057065334 0.050599575 0.04596147 0.005074537 -0.07069295 -0.019059414
0.06196108 -0.043624543 -0.061435387 0.026444899 0.015701177 0.015930617 0.086024545 -0.10131342
-0.06310132 0.035713274 0.023722889 -0.037096187 0.035447363 0.04179056 0.024915062 -0.007731481
-0.14738841 -0.039028995 -0.07081107 -0.040286556 0.015247899 -0.004562434 0.06324055 0.105587944
0.10537586 -0.033398937 -0.05178457 0.13874595 -0.069041155 0.020212604 0.041565556 -0.03682429
0.051591326 0.011065017 0.057654176 0.04205403 0.02956525 0.07763971 -0.0064410665 0.05073068
0.04367833 0.03180951 -0.056505483 0.06167977 0.010384831 0.052451443 -0.02548549 0.08184608
-0.03047472 0.08730547 -0.009392967 -0.1542586 -0.07010656 0.060326587 0.035161637 -0.023139557
0.009307449 -0.04292732 0.0028069692 -0.01580792 0.054127775 -0.052736815 0.07732338 -0.051385492
-0.10829597 -0.07576364 0.0069619725 0.0325916 -0.018468253 -0.04339653 -0.013052058 0.0005773423
0.009858853 -0.041294653 -0.006299639 -0.04776721 -0.020627046 0.037100613 0.08732704 -0.016042009
-0.026018143 0.0013172391 -0.06473011 -0.08843622 0.02615987 -0.0015015656 -0.06037454 -0.0152398385
0.024704646 0.002971383 -0.02543229 0.07527543 0.06275101 0.0865065 0.040406384 0.0120702125
-0.0453897 0.0638541 0.020537877 0.07434877 -0.033656474 0.0014536261 0.0040321057 -0.036388543
-0.01246147 0.097934626 -0.104650624 0.06971518 0.01045037 0.015696917 0.007870592 -0.13813215
-0.029616907 0.01817356 0.06237248 0.004456806 0.00054345845 0.039764423 0.06034634 -0.09424446
0.0686537 -0.056986015 -0.008745667 0.050797522 -0.035034597 0.019923689 -0.04741452 0.012701488
-0.12542018 -0.010360024 0.07017577 -0.026235277 0.02146914 -0.06042346 0.113614306 0.03333484
0.03806929 0.02406822 -0.024193596 0.11315647 0.10775111 0.025301551 -0.08914212 0.098675534
-0.042623255 0.021688346 0.018933699 0.03172113 -0.046434738 0.051320236 0.026796369 -0.0028105811
-0.004099083 0.037848767 -0.028685296 -0.06298203 0.02716968 -0.025978373 0.037751004 0.01798445
-0.014491813 -0.037117638 -0.071359344 0.041526064 0.029374909 -0.15010554 -0.0056797857 0.10371242
00000000: 1c53 4c3d dfb8 48bd 69be 98b9 6f35 c63d
00000010: d7b4 12ba fb57 48bc 21d5 cb3c 1b87 843d
00000020: 46f5 863c d433 a1bc 7de5 293d d96f 4ebd
00000030: a398 933d 2481 923d b369 593c 7617 65bd
00000040: 3a17 053c 52d0 f6bc a08d cabc 826c 44bd
00000050: 8fb2 f5bb c974 163d 5576 353d ca75 163d
00000060: 90a7 03bc 2b33 403d ae26 0d3d bcc3 c6bc
00000070: 24b8 c93d 27a6 47bc 745e bf3c 2b03 92bd
00000080: 86b9 30bd 992f 55bc a023 163c 0e61 7fbd
00000090: e255 ad3d af8a 8dbd 2de0 8ebd 0f75 48bd
000000a0: 5190 84bd c6ac fbbc 99ab 82bd 5fc1 723d
000000b0: fb4d 36bd 3dbe 5d3d 545d 3e3c c3ff 2bbc
000000c0: a66b 8bbb f3ba 873d e442 0e3c d5c3 5d3a
000000d0: 67c7 92ba ac10 0dbd ab0b b23d fedc 59bd
000000e0: 170f b23c 1d05 e63c 6484 eebb d9be 6e3c
000000f0: 3ed3 b33d 095f 583d f0eb 2ebd 3f81 1e3c
00000100: 6f4c 913c f318 a5ba 86be bcbc 825c 853c
00000110: c039 1a3d 78d6 92bd 0506 6d3d 2be3 ae3d
00000120: 0ec1 ab3c be52 a1bd b2bc d0bb f164 c43d
00000130: 4de8 013d c5e2 f73d 6eba fdba f1b7 6abd
00000140: ee8e 583d ab92 2b3d 57bd 693d 8041 4f3d
00000150: 1842 3c3d 4d48 a63b 77c7 90bd 7d22 9cbc
00000160: e7ca 7d3d a6af 32bd aca3 7bbd f9a2 d83c
00000170: c19f 803c ed80 823c a32d b03d 697d cfbd
00000180: 443b 81bd 1548 123d 8156 c23c 2cf2 17bd
00000190: 4131 113d 942c 2b3d ac1a cc3c 5d58 fdbb
000001a0: fdec 16be dedc 1fbd 6505 91bd 8403 25bd
000001b0: 53d2 793c 7880 95bb 4384 813d 7e3e d83d
000001c0: 4dcf d73d 53cd 08bd 0f1c 54bd 6b13 0e3e
000001d0: 7365 8dbd e794 a53c a540 2a3d 11d5 16bd
000001e0: 6d51 533d 0c4a 353c c926 6c3d d940 2c3d
000001f0: d332 f23c 9101 9f3d 950f d3bb f9ca 4f3d
00000200: 0ce8 323d b04a 023d 4b72 67bd eda3 7c3d
00000210: 2325 2a3c 53d7 563d f2c6 d0bc eb9e a73d
00000220: 1fa6 f9bc 36cd b23d f6e4 19bc f7f5 1dbe
00000230: 0794 8fbd 0319 773d a605 103d 2b8f bdbc
00000240: 457e 183c 8fd4 2fbd 21f5 373b 9c7f 81bc
00000250: 16b5 5d3d 8f02 58bd b85b 9e3d 9879 52bd
00000260: 47ca ddbd f829 9bbd 4221 e43b c57e 053d
00000270: bc4a 97bc 8fc0 31bd 4dd8 55bc c958 173a
00000280: 0787 213c 9524 29bd 346d cebb 8da7 43bd
00000290: 0dfa a8bc d0f6 173d 85d8 b23d 886a 83bc
000002a0: 0024 d5bc 36a7 ac3a 3891 84bd 0d1e b5bd
000002b0: 394d d63c 2ed0 c4ba 4b4b 77bd 84b0 79bc
000002c0: 6661 ca3c 89bb 423b 6157 d0bc 012a 9a3d
000002d0: 9a83 803d 522a b13d 2a81 253d 24c2 453c
000002e0: 8dea 39bd f0c5 823d 0d3f a83c 2b44 983d
000002f0: 5fdb 09bd 9987 be3a c11f 843b 270c 15bd
00000300: 322b 4cbc f391 c83d 1153 d6bd d5c6 8e3d
00000310: 0738 2b3c d296 803c a8f3 003c 8472 0dbe
00000320: 289f f2bc b8e0 943c 497a 7f3d 660a 923b
00000330: e176 0e3a 05e0 223d b92d 773d 3d03 c1bd
00000340: 509a 8c3d 2b6a 69bd fc49 0fbc 1011 503d
00000350: 7080 0fbd 0137 a33c ba35 42bd e719 503c
00000360: 266e 00be 17bd 29bc 50b8 8f3d 5deb d6bc
00000370: 0de0 af3c 977e 77bd 9eae e83d 1d8a 083d
00000380: 8bee 1b3d b72a c53c a631 c6bc 94be e73d
00000390: 9dac dc3d 3345 cf3c 2590 b6bd 6616 ca3d
000003a0: b995 2ebd c2ab b13c d81a 9b3c 04ee 013d
000003b0: 5a32 3ebd 2b35 523d 0f84 db3c ba31 38bb
000003c0: 9a51 86bb 4f07 1b3d 6dfd eabc b9fc 80bd
000003d0: f392 de3c 99d0 d4bc cca0 1a3d 2054 933c
000003e0: 126f 6dbc aa08 18bd d924 92bd 3c17 2a3d
000003f0: a6a3 f03c 44b5 19be 7f1d babb 2d67 d43d

network_body._body_endoder.seq_layers.0.bias f4 [128]
0.0018726281 -0.009891403 0.00065875985 -0.0024647224 0.0013588461 0.014766315 0.005176691 0.019146033
0.0037090285 0.02334114 -0.004041518 -0.0044594216 0.007543972 -0.00253193 0.005260285 0.0127110295
0.010101166 0.014086037 -0.009636567 -0.0049772183 0.010561685 -0.002714029 -0.004003611 0.0014832817
0.0039035168 -0.0029499878 -0.011391766 0.003658403 0.014153501 0.004901583 0.015685376 0.0021406882
0.0022636473 -0.001231524 0.0033686138 -0.006208739 0.026849084 0.0072025866 0.014100916 0.017208844
-0.005911572 -0.002695695 -0.005431613 -0.015599175 0.0009122196 0.00196233 -0.0052987607 -0.0069308872
0.0031184128 -0.0062354654 0.010406652 0.017367993 0.00793077 -0.0023825017 0.017278673 -0.006327486
0.006318725 0.0037744478 -0.004247972 -0.0013679166 0.001889355 0.0022934086 0.0038406863 -0.00583386
-0.0008758555 0.0011659304 -0.0043696035 0.014621147 -0.0155764725 0.013795526 -0.0016154088 0.009648181
0.023057617 0.0027482186 0.009214053 -0.00575734 0.007341065 -0.0020860722 -0.0066931783 -0.0055526374
0.0054200147 0.010800703 0.0048422874 -0.012497367 0.008993088 -0.008790564 0.0006927472 6.934424e-05
0.0071482644 -0.0006728447 0.0001745664 0.0068428707 0.0008690628 -0.004450341 -0.005281525 0.0034536794
0.013696292 0.003173399 -0.0056252982 -0.0037546377 -0.0010244239 -0.0031110262 -0.007700704 0.0105867665
0.0027670942 -0.0025486273 -0.01501101 0.0014995795 0.0053705466 -0.0058103343 -0.010196376 -0.009163719
0.011812552 -0.005031972 0.006822483 0.004071931 -0.0049108453 0.010786432 0.010052243 0.022980792
-0.00958018 -0.0023977451 0.0052722218 0.0012236211 0.013110219 0.0060483892 0.01480404 0.007587136
00000000: f972 f53a 8d0f 22bc a0b0 2c3a 2e87 21bb
00000010: 4f1b b23a 6aee 713c 3ba1 a93b 24d8 9c3c
00000020: 2c13 733b eb35 bf3c b66e 84bb 5720 92bb
00000030: 6d33 f73b bdee 25bb 785e ac3b ec41 503c
00000040: 5c7f 253c 1fc9 663c b1e2 1dbc ef17 a3bb
00000050: eb0a 2d3c dadd 31bb b930 83bb ad6a c23a
00000060: 25d2 7f3b 9554 41bb 88a4 3abc d1c1 6f3b
00000070: 16e4 673c 759d a03b 9e7e 803c ca4a 0c3b
00000080: b359 143b 176b a1ba f6c3 5c3b ad72 cbbb
00000090: 9cf2 db3c ad03 ec3b 8707 673c 90f9 8c3c
000000a0: dcb5 c1bb 42aa 30bb acfb b1bb af93 7fbc
000000b0: 0522 6f3a 6f9a 003b 3aa1 adbb 7f1c e3bb
000000c0: 495e 4c3b e052 ccbb aa80 2a3c 5247 8e3c
000000d0: 0ff0 013c bf23 1cbb 018c 8d3c cd56 cfbb
000000e0: 4f0d cf3b ba5c 773b 9232 8bbb aa4b b3ba
000000f0: 3ca4 f73a 034d 163b 06b4 7b3b f729 bfbb
00000100: ab99 65ba 22d2 983a e42e 8fbb 898d 6f3c
00000110: 7634 7fbc a106 623c 20bc d3ba 6713 1e3c
00000120: 54e3 bc3c 751b 343b 8af6 163c 12a8 bcbb
00000130: 518d f03b 7cb6 08bb 7352 dbbb e6f2 b5bb
00000140: 619a b13b 6ff5 303c 0dac 9e3b c2c1 4cbc
00000150: bf57 133c 4c06 10bc 7a99 353a e86c 9138
00000160: fd3b ea3b d861 30ba d00b 3739 293a e03b
00000170: d1d1 633a 2bd4 91bb a510 adbb 2057 623b
00000180: 6a66 603c cdf8 4f3b 6c54 b8bb 5e10 76bb
00000190: f645 86ba 5ce2 4bbb 3056 fcbb 1e74 2d3c
000001a0: 2358 353b df06 27bb bdf0 75bc 8a8d c43a
000001b0: 69fb af3b 9e64 bebb b30e 27bc 6c23 16bc
000001c0: 6f89 413c 3ee3 a4bb 238f df3b d56d 853b
000001d0: 28eb a0bb 93b9 303c 2ab2 243c 3742 bc3c
000001e0: 30f6 1cbc 7d23 1dbb 9ac2 ac3b e961 a03a
000001f0: 3ecc 563c 9131 c63b a58c 723c 829d f83b

network_body._body_endoder.seq_layers.2.weight f4 [128, 128]
-0.16964222 0.11208826 -0.091205366 0.07528107 0.12845437 -0.07484425 -0.025329579 0.18107593
0.06555017 0.008198255 -0.11485044 -0.049917188 -0.028762728 0.1325783 0.15785071 0.121999085
0.017244896 0.03677979 -0.10463443 0.017483657 0.06674586 0.037049048 -0.103394456 -0.0175449
0.020640092 0.08763873 -0.15127048 -0.016618108 0.13410033 0.03141496 -0.035876468 0.05185467
0.0680322 0.0062634707 -0.15446764 0.019106947 -0.026646644 0.0011050536 -0.09978085 0.0004847491
-0.1583346 -0.1465389 0.022868281 -0.0021985683 -0.03496113 -0.015643477 0.018661724 0.05856263
-0.079333656 -0.17825866 -0.0065371683 0.08238517 -0.051242437 0.07874726 -0.07372551 -0.17703137
-0.01738993 -0.1896 -0.00779539 -0.019458307 0.05641453 0.046144955 -0.025431218 -0.12699655
-0.089711554 -0.0362412 -0.09495084 -0.03317091 0.11401899 0.032611173 0.09188651 -0.015760487
0.0156689 -0.123969704 -0.10897229 0.039642885 0.059932347 0.014310215 -0.012248327 0.012431272
-0.0936395 -0.017528247 -0.063730925 -0.14766765 -0.102066986 -0.06431627 -0.04785944 -0.0034868189
-0.069122724 -0.12864797 -0.04222391 0.034659293 0.04339607 -0.01283465 -0.05564459 0.16213378
0.10996 0.05379809 0.008877278 -0.01752042 0.08295135 -0.13485926 -0.031800117 -0.033973422
-0.038418565 -0.052786235 -0.062465318 0.16669396 -0.056657027 -0.13892893 0.03493809 -0.10951885
-0.11734735 -0.017126542 0.12735341 0.040959023 -0.14731225 -0.018819334 0.024943905 -0.04961685
0.03524439 -0.12075353 -0.103270784 -0.0623684 0.17258568 0.007551814 -0.07091272 0.010500995
0.13027385 0.008920541 -0.054742496 -0.010663764 0.012848885 0.07242529 0.08623386 0.04784901
0.07501793 -0.14829695 -0.11833578 0.005578555 -0.0651833 -0.07868373 -0.12762648 0.17144965
-0.06826127 -0.15639864 0.07776744 0.04289092 0.010662237 0.071216114 -0.03792564 0.024475655
0.13223204 -0.111024596 -0.02275557 0.021700826 0.054992907 -0.11623344 0.062943496 0.2449654
-0.033201158 -0.07120567 -0.04781429 0.030666225 0.028203852 -0.12414125 -0.04707466 -0.014481332
-0.018198898 -0.018786334 -0.105626665 -0.06159278 0.045889314 0.15147091 -0.016064763 0.015797127
-0.06968664 0.0749833 0.0058141844 -0.007219477 0.09878262 -0.20467786 -0.0658309 0.10179723
-0.117503606 0.14392707 -0.029077575 0.07677635 -0.11523619 -0.015685946 -0.016241975 -0.14102381
0.06795834 -0.0197369 -0.0761478 0.071321905 -0.04975597 -0.04863355 0.1007626 0.040879242
0.052054074 0.07547344 0.07318843 -0.17927858 -0.05221176 0.08961588 0.033043984 -0.07359772
-0.038521327 0.14686896 -0.120832205 -0.1309107 0.020804202 -0.059991363 0.02422071 0.19585404
-0.14127955 -0.07965806 -0.092618465 -0.044249374 -0.00803355 0.0050063566 -0.066021346 -0.060442153
-0.12012827 -0.04182463 0.067975365 0.12939608 -0.06862786 -0.103223294 0.033573028 -0.014678757
-0.047311347 0.04515712 -0.01901753 0.08842626 0.0073106377 -0.0018289594 0.04759292 0.10876344
-0.07699323 0.05922632 0.10385396 -0.027119799 -0.020615362 -0.116050206 0.038553152 -0.026399069
0.019245347 -0.010711624 -0.08669365 -0.037999664 -0.03231603 0.03002537 -0.062189534 -0.18036488
00000000: b1b6 2dbe 888e e53d e1c9 babd f62c 9a3d
00000010: 8b89 033e f147 99bd fa7f cfbc f86b 393e
00000020: 2b3f 863d f951 063c b536 ebbd f775 4cbd
00000030: d09f ebbc 9bc2 073e 9ea3 213e a8da f93d
00000040: 2b45 8d3c 68a6 163d 934a d6bd e339 8f3c
00000050: 0eb2 883d bec0 173d 79c0 d3bd 52ba 8fbc
00000060: 6915 a93c ef7b b33d a6e6 1abe b322 88bc
00000070: 9951 093e f9ac 003d 34f3 12bd 9065 543d
00000080: 7754 8b3d cd3d cd3b c42c 1ebe 2c86 9c3c
00000090: 104a dabc 72d7 903a e759 ccbd ec25 fe39
000000a0: 7722 22be 4b0e 16be 4356 bb3c db15 10bb
000000b0: 6733 0fbd c026 80bc 79e0 983c 5edf 6f3d
000000c0: af79 a2bd 7089 36be be35 d6bb 8eb9 a83d
000000d0: 97e3 51bd 3e46 a13d 66fd 96bd b647 35be
000000e0: 5475 8ebc 8126 42be 7970 ffbb 0767 9fbc
000000f0: ec12 673d 7e02 3d3d 2155 d0bc 620b 02be
00000100: b1ba b7bd a771 14bd 9675 c2bd 38de 07bd
00000110: ca82 e93d 4b93 053d ff2e bc3d 231c 81bc
00000120: 115c 803c d4e3 fdbd dd2c dfbd 9460 223d
00000130: 9f7b 753d 6475 6a3c 35ad 48bc 89ac 4b3c
00000140: 11c6 bfbd 6697 8fbc 5c85 82bd 3036 17be
00000150: 7f08 d1bd 40b8 83bd 4308 44bd 1d83 64bb
00000160: 3790 8dbd 4bbc 03be fbf2 2cbd e7f6 0d3d
00000170: 14c0 313d 6d48 52bc 95eb 63bd 6606 263e
00000180: b532 e13d 635b 5c3d 0172 113c fc86 8fbc
00000190: 66e2 a93d 8c18 0abe d740 02bd b727 0bbd
000001a0: c95c 1dbd 6136 58bd a2db 7fbd d2b1 2a3e
000001b0: 3311 68bd 6343 0ebe 3e1b 0f3d 6b4b e0bd
000001c0: cf53 f0bd f64c 8cbc ef68 023e a6c4 273d
000001d0: 06d9 16be 012b 9abc 2957 cc3c 0a3b 4bbd
000001e0: 6c5c 103d a04d f7bd a27f d3bd 0276 7fbd
000001f0: 4dba 303e 3575 f73b b03a 91bd 5e0c 2c3c
00000200: 8266 053e 7627 123c ab39 60bd 11b7 2ebc
00000210: 2184 523c b653 943d 619b b03d 53fd 433d
00000220: 00a3 993d 28db 17be 085a f2bd 50cc b63b
00000230: d27e 85bd ef24 a1bd 84b0 02be 7f90 2f3e
00000240: 91cc 8bbd f726 20be 8944 9f3d 64ae 2f3d
00000250: aab0 2e3c c1d9 913d ea57 1bbd 2b81 c83c
00000260: d667 073e dd60 e3bd e469 babc eec5 b13c
00000270: 3e40 613d cc0b eebd 85e8 803d 36d8 7a3e
00000280: f0fd 07bd 47d4 91bd ebd8 43bd bc37 fb3c
00000290: c40b e73c c53d febd 5cd1 40bd 1c43 6dbc
000002a0: db15 95bc cce5 99bc cb52 d8bd b648 7cbd
000002b0: 6ff6 3b3d 311b 1b3e 409a 83bc fa68 813c
000002c0: deb7 8ebd d890 993d ea84 be3b 5d91 ecbb
000002d0: 8b4e ca3d 1397 51be 5ad2 86bd 117b d03d
000002e0: bba5 f0bd 9e61 133e 1834 eebc eb3c 9d3d
000002f0: f400 ecbd d07f 80bc e40d 85bc 8c68 10be
00000300: be2d 8b3d 48af a1bc 61f3 9bbd 3811 923d
00000310: eacc 4bbd f933 47bd 9f5c ce3d fe70 273d
00000320: a736 553d d291 9a3d d1e3 953d ce94 37be
00000330: 00dc 55bd 8888 b73d 2159 073d 67ba 96bd
00000340: 8ac8 1dbd d164 163e e076 f7bd 740d 06be
00000350: 936d aa3c 81b9 75bd 836a c63c f68d 483e
00000360: 96ab 10be c423 a3bd c0ae bdbd d53e 35bd
00000370: 279f 03bc 5d0c a43b 3336 87bd 3192 77bd
00000380: cf05 f6bd 4e50 2bbd ab36 8b3d 6880 043e
00000390: c38c 8cbd bc66 d3bd df83 093d 2b7f 70bc
000003a0: 8bc9 41bd acf6 383d a7ca 9bbc d418 b53d
000003b0: 138e ef3b b2b9 efba cbf0 423d 5ebf de3d
000003c0: a0ae 9dbd 4c97 723d 63b1 d43d 572a debc
000003d0: 8ce1 a8bc bbab edbd e9e9 1d3d dc42 d8bc
000003e0: 6ba8 9d3c cf7f 2fbc 718c b1bd 89a5 1bbd
000003f0: d05d 04bd c4f7 f53c 74ba 7ebd 92b1 38be

network_body._body_endoder.seq_layers.2.bias f4 [128]
0.0038198347 0.0035919205 0.007796668 0.0009867478 -0.0014206881 0.003591432 0.0024838152 -0.0010160003
0.007927983 -0.008069106 0.01820147 -0.0043554124 -0.0025871133 0.017550303 -0.00036058275 0.0042255614
0.011482196 0.0016858394 -0.006906324 -0.0019036083 -0.0015089433 -0.0014908627 -0.005566466 -0.0016175561
0.009742756 0.0032354635 0.0015345799 0.013124535 0.00038336718 0.0013709331 -0.008199255 0.003991495
-0.003111289 -0.008444794 0.0024134626 0.008738584 -0.00039505845 -0.0027990392 0.00754277 -0.0149516305
0.0012065994 0.010416552 -0.00020388112 -0.011599257 -0.010697129 -0.004189939 0.004533082 0.0075130276
0.008105576 0.0015969462 0.0001316502 0.0010355124 -0.010640334 -0.009525494 0.0012099165 -0.0012596833
-0.0050876075 -0.005919949 0.01116038 0.007773687 -0.010573146 -0.015332937 0.020149486 -0.0070777647
-0.011338905 -0.006601944 0.0041267257 0.0043539386 0.0024517116 0.009314933 0.0015717346 -0.004511282
-0.0057055973 0.0067848405 -0.0078015197 -0.0011222288 0.0020913265 0.004130332 -0.0025477032 -0.009476802
0.0017817864 -0.0059529785 0.0072911396 -0.0067213196 -0.010203502 -0.004731144 -0.0018002572 0.020798348
-0.0048898887 0.010039297 -0.0104178535 -0.0049603507 0.010417147 -0.00214313 0.00011840118 0.018324614
0.010516445 -0.00949618 0.009290539 0.047769047 0.0016197738 0.0014676902 0.00566891 -0.012392896
-0.006923387 0.032636855 5.2713756e-05 -4.662877e-05 0.01300799 -0.0100072585 0.0015074698 -0.007931637
-0.008128733 0.004327452 -0.006261506 -0.0047531324 -0.0035915808 0.005136683 0.0021151495 0.010426736
0.002150852 0.0155861415 0.0017192576 -0.005161555 0.01797589 0.0024244834 0.0010640621 -0.0017364065
00000000: 3156 7a3b 6d66 6b3b 317b ff3b c355 813a
00000010: 6236 baba 3b5e 6b3b 81c7 223b 502b 85ba
00000020: 5fe4 013c 4934 04bc 401b 953c d9b7 8ebb
00000030: 8f8c 29bb a7c5 8f3c 990c bdb9 9476 8a3b
00000040: d21f 3c3c 62f7 dc3a 724e e2bb 7f82 f9ba
00000050: bcc7 c5ba 0d69 c3ba e766 b6bb 2d04 d4ba
00000060: 15a0 1f3c 120a 543b f523 c93a 4a08 573c
00000070: acfe c839 e2b0 b33a 2b56 06bc 16cb 823b
00000080: c5e6 4bbb 095c 0abc 2f2b 1e3b 472c 0f3c
00000090: d91f cfb9 1670 37bb 5729 f73b aff7 74bc
000000a0: c226 9e3a 30aa 2a3c ecc8 55b9 cf0a 3ebc
000000b0: 0343 2fbc c14b 89bb 3f8a 943b d82f f63b
000000c0: 40cd 043c 9f50 d13a 950b 0a39 08ba 873a
000000d0: cc54 2ebc d110 1cbc 1096 9e3a f51b a5ba
000000e0: f2b5 a6bb 22fc c1bb 07da 363c 6aba fe3b
000000f0: fd3a 2dbc 0037 7bbc 8910 a53c 98ec e7bb
00000100: d1c6 39bc 1f55 d8bb 7c39 873b 7cab 8e3b
00000110: e5ac 203b a99d 183c a902 ce3a 60d3 93bb
00000120: 05f6 babb 5e53 de3b e4a3 ffbb c017 93ba
00000130: a30e 093b bc57 873b 5ef7 26bb 9744 1bbc
00000140: d58a e93a 3411 c3bb 83ea ee3b 843e dcbb
00000150: 972c 27bc b607 9bbb 9cf6 ebba 4c61 aa3c
00000160: 5c3b a0bb dd7b 243c a5af 2abc 708a a2bb
00000170: aeac 2a3c c173 0cbb 264e f838 801d 963c
00000180: 2b4d 2c3c de95 1bbc 5837 183c 7aa9 433d
00000190: 974e d43a 835f c03a 44c2 b93b 930b 4bbc
000001a0: 94dd e2bb 39ae 053d f718 5d38 4393 43b8
000001b0: 771f 553c 7cf5 23bc 4b96 c53a b2f3 01bc
000001c0: 612e 05bc 4ccd 8d3b 522d cdbb 2ac0 9bbb
000001d0: ba60 6bbb 9f51 a83b 529e 0a3b e7d4 2a3c
000001e0: 4ff5 0c3b 045d 7f3c b658 e13a 4322 a9bb
000001f0: 2c42 933c 15e4 1e3b 0078 8b3a 2298 e3ba

action_model._continuous_distribution.log_sigma f4 [1, 2]
0.034768242 -0.044309586
00000000: 2569 0e3d f87d 35bd

action_model._continuous_distribution.mu.weight f4 [2, 128]
-0.05567996 -0.013553601 -0.0063857837 0.023511646 -0.016791383 0.019040849 0.008933999 -0.017755892
0.017628985 -0.01634526 0.024650104 0.031781957 -0.0061851493 0.0078379195 0.005576708 0.0068473173
-0.018651653 0.0016018964 0.0063568032 0.030975047 0.0031292476 0.023352727 -0.036419097 0.036099214
0.0035771665 -0.027038481 -0.00017075047 0.010089019 -0.034044657 -0.04906818 0.033909988 0.029174443
-0.011559552 0.0064782524 -0.0051366994 -0.00071378704 -0.009822241 0.021894913 -0.026938757 0.013866846
-0.007886008 -0.011545096 -0.0013700757 -0.0055093374 0.0035622155 -0.017984826 -0.02763249 -0.011910567
-0.03263992 -0.005856841 0.026902827 -0.031511877 0.0065632467 0.0067062266 -0.021088054 -0.015475158
0.017266953 -0.0076726787 -0.0023864661 -0.013112223 -0.0003547049 0.0009148678 0.023731386 -0.009907434
0.0052053137 0.013466278 0.0009956473 -0.011937953 -0.023572154 0.04397052 0.025948595 0.030095873
-0.0120771155 0.023127368 0.019670395 -0.017460814 0.004757554 0.025166934 0.0033006268 0.008811216
0.013951049 -0.007702168 -0.005693493 -0.02768398 0.004496566 0.002624332 0.004181162 0.019532407
0.041510276 -0.00078398985 0.0040616645 -0.0049881027 -0.0050390307 0.008507292 0.042489033 0.0047186026
0.0025044316 0.015801167 0.018438732 -0.005152613 0.04678336 -0.005186455 0.019028312 0.008110393
0.017489722 -0.00039611766 0.04578119 0.028858159 0.013768948 -0.012348929 0.03162232 0.0215106
-0.006557165 -0.011581545 0.019725759 -0.020864794 -0.016876094 -0.027025407 -0.005481125 0.026761295
0.024746928 -0.03857997 -0.008223658 -0.0026194986 0.058137257 0.0041191853 -0.0020245316 0.03618099
-0.010353731 0.027869217 -0.018369388 -0.0023297756 0.047610503 0.006127305 -0.015009973 -0.013418816
0.009146768 0.016342873 -0.017653396 0.0066264737 0.038858145 -0.00051348965 -0.025938028 -0.0051800283
-0.031212594 0.032591805 0.011525719 0.04992351 -0.0059996294 -0.0034210535 0.033862084 -0.018393254
-0.019170685 -0.018185982 -0.03154109 -0.011163714 0.0408786 -0.006981327 0.038237892 -0.022402953
0.033806138 0.020819701 -0.00086035917 -0.034763813 0.007714981 0.03603431 -0.015180241 0.009980203
0.011070362 -0.024735551 0.0072862823 0.014729753 0.033889983 0.021592595 0.011917434 -0.022040704
-0.021040894 -0.024716653 0.048251405 3.718153e-06 0.012184105 0.014216649 0.019709732 -0.02890211
0.0014026335 0.0019647465 -0.027092468 0.0007629882 0.0142230205 0.023461238 -0.033072866 0.0016684826
0.020449493 -0.0053821392 -0.024030732 0.03596955 0.036992338 -0.032544766 -0.02735089 0.0049783452
0.016765505 0.025079736 0.010738743 0.0047172904 0.0009523938 0.012503694 -0.003251072 -0.0054054987
0.0026733335 -0.011318278 0.019116543 0.03376872 0.004451881 -0.007687902 -0.00047393318 -0.027199797
0.008879333 -0.017051032 0.026715947 -0.008042223 -0.019245338 0.039448995 -0.0018811857 -0.04144699
-0.016768552 0.008159303 -0.016485238 -0.00032910748 -0.009287951 0.028288864 -0.019241204 0.011805635
0.041702528 -0.014667561 -0.029627385 -0.007974394 -0.013244617 0.023210246 -0.0064097005 0.03721793
-0.0013948111 0.021997046 0.039374687 0.006979085 -0.0072673974 -0.018074458 0.02117408 -0.004566868
0.02618265 -0.029830674 -8.4743224e-05 0.012132504 -0.04018081 0.036209144 0.0067328243 0.013646444
00000000: ab10 64bd ec0f 5ebc d63f d1bb 7f9b c03c
00000010: 158e 89bc 8efb 9b3c e85f 123c ce74 91bc
00000020: a96a 903c 7fe6 85bc 04ef c93c cc2d 023d
00000030: cbac cabb 9e6a 003c d1bc b63b 765f e03b
00000040: 5acb 98bc b9f6 d13a bb4c d03b 62bf fd3c
00000050: 1014 4d3b 384e bf3c 312c 15bd c5dc 133d
00000060: e56e 6a3b ce7f ddbc 7b0b 33b9 6a4c 253c
00000070: 6972 0bbd b7fb 48bd 33e5 0a3d 3eff ee3c
00000080: 4664 3dbc 8547 d43b c251 a8bb 701d 3bba
00000090: 77ed 20bc f65c b33c abae dcbc c531 633c
000000a0: 5134 01bc a427 3dbc 1d94 b3ba ac87 b4bb
000000b0: 0f74 693b ea54 93bc 885d e2bc 8a24 43bc
000000c0: 70b1 05bd beea bfbb 5163 dc3c 9912 01bd
000000d0: 8110 d73b e8bf db3b dbc0 acbc 848b 7dbc
000000e0: 6d73 8d3c 186b fbbb 4266 1cbb a6d4 56bc
000000f0: b0f7 b9b9 bdd3 6f3a 5368 c23c ca52 22bc
00000100: 5691 aa3b aaa1 5c3c 6180 823a 6797 43bc
00000110: 641a c1bc 6f1a 343d 2692 d43c 9f8b f63c
00000120: 18df 45bc 9b75 bd3c cf23 a13c fb09 8fbc
00000130: 41e5 9b3b e32a ce3c 544f 583b eb5c 103c
00000140: f192 643c 7862 fcbb 7b90 babb 84c9 e2bc
00000150: ee57 933b fcfc 2b3b 2102 893b 6d02 a03c
00000160: ae06 2a3d ab84 4dba b617 853b 3d73 a3bb
00000170: 741e a5bb 2b62 0b3c fb08 2e3d 829e 9a3b
00000180: 6421 243b 7371 813c d30c 973c 40d7 a8bb
00000190: e99f 3f3d 23f3 a9bb 43e1 9b3c 74e1 043c
000001a0: 9b46 8f3c 03ae cfb9 0f85 3b3d f267 ec3c
000001b0: 2797 613c 2a53 4abc 6886 013d ff36 b03c
000001c0: 7ddd d6bb 85c0 3dbc ea97 a13c a5ec aabc
000001d0: bc3f 8abc 6364 ddbc 029b b3bb 813a db3c
000001e0: 12ba ca3c 0806 1ebd 86bc 06bc e5ab 2bbb
000001f0: 5521 6e3d 3bfa 863b 01ae 04bb 8532 143d
00000200: b2a2 29bc fc4d e43c 667b 96bc 26af 18bb
00000210: 3b03 433d 8fc7 c83b 64ec 75bc 98da 5bbc
00000220: 53dc 153c 7de1 853c db9d 90bc e422 d93b
00000230: b829 1f3d b59b 06ba fd7b d4bc 3abd a9bb
00000240: 8eb1 ffbc fc7e 053d 5fd6 3c3c 987c 4c3d
00000250: 8a98 c4bb c133 60bb f8b2 0a3d 73ad 96bc
00000260: d70b 9dbc c5fa 94bc 3b31 01bd 03e8 36bc
00000270: 5270 273d 9ec3 e4bb 569f 1c3d 6686 b7bc
00000280: 4e78 0a3d 148e aa3c ba89 61ba 8064 0ebd
00000290: f4cd fc3b b698 133d 8cb6 78bc 0184 233c
000002a0: 7760 353c 36a2 cabc c4c1 ee3b 1055 713c
000002b0: 39d0 0a3d f4e2 b03c 5741 433c b58e b4bc
000002c0: f45d acbc 947a cabc 44a3 453d 6285 7936
000002d0: d79f 473c f3ec 683c 4e76 a13c 1ec4 ecbc
000002e0: 92d8 b73a fac2 003b 06f1 ddbc 4503 483a
000002f0: ac07 693c c831 c03c 6a77 07bd fcb0 da3a
00000300: b285 a73c a85c b0bb 19dc c4bc cf54 133d
00000310: 4785 173d a94d 05bd f90e e0bc 6321 a33b
00000320: d057 893c 0574 cd3c 8df1 2f3c 8093 9a3b
00000330: 11aa 793a 4bdc 4c3c f00f 55bb 9c20 b1bb
00000340: 1833 2f3b 4c70 39bc 4c9a 9c3c 1251 0a3d
00000350: 16e1 913b ccea fbbb 3c7a f8b9 1cd2 debc
00000360: 9f7a 113c 9bae 8bbc 67db da3c 87c3 03bc
00000370: 66a8 9dbc 4595 213d 1e92 f6ba 52c4 29bd
00000380: 345e 89bc 99ae 053c 0d0c 87bc 0f8c acb9
00000390: 7d2c 18bc 0cbe e73c bb9f 9dbc 6c6c 413c
000003a0: 45d0 2a3d 3650 70bc 21b5 f2bc 08a7 02bc
000003b0: f3ff 58bc 6a23 be3c 7708 d2bb d471 183d
000003c0: 18d2 b6ba 2633 b43c 5a47 213d cfb0 e43b
000003d0: 5923 eebb e310 94bc 4475 ad3c aaa5 95bb
000003e0: ff7c d63c 755f f4bc 2cb8 b1b8 69c7 463c
000003f0: a294 24bd 0a50 143d 069f dc3b 5695 5f3c

action_model._continuous_distribution.mu.bias f4 [2]
0.00079878746 -0.00962582
00000000: b865 513a 9eb5 1dbc
