results/ZaraImitation/ZARAimitation/ZARAimitation-555.pt (torch, 619461 bytes, 36 tensors)

network_body.observation_encoder.processors.0.conv_layers.0.weight f4 [16, 4, 8, 8]
-0.019341007 -0.051145736 0.028188638 0.03115394 0.04918164 -0.0057784915 0.059188545 -0.050788827
-0.040824994 -0.022195913 -0.020336553 0.04092513 -0.037144355 0.021573924 -0.021379676 0.055921756
0.020801462 -0.023992047 0.056596473 -0.02678521 0.061084494 0.056681827 -0.013074413 -0.044756107
-0.04222493 0.04164017 0.032221697 0.06153565 -0.011187192 -0.030375078 -0.04528933 0.04891622
0.022278756 -0.04586178 -0.007442318 -0.06016447 -0.047778815 0.0122631565 -0.04839529 0.046538413
0.0214554 0.0047429875 -0.044714972 -0.032405622 0.026699118 0.0388031 0.02758532 0.054275922
0.0576718 0.060878724 0.0153414905 -0.031775303 -0.004020661 0.037564144 -0.012774717 -0.036269173
0.010715805 0.028301038 -0.011941191 -0.02495702 -0.022893138 -0.004502237 0.012386844 -0.06226513
-0.054969385 0.050302617 0.030143484 0.01907666 -0.0151755065 -0.060917433 0.05903019 -0.004763618
-0.0005033538 0.057697028 0.021464787 -0.014989439 -0.04765534 -0.029603448 0.009542555 -0.016436439
0.020789385 0.03405129 -0.0071290173 -0.004818946 -0.039083906 0.038853675 -0.045802332 0.05114086
0.028031953 -0.02074736 -0.047141086 -0.049483 0.025042996 0.04868541 -0.055226207 0.021272033
-0.053744286 0.046191946 -0.022770766 -0.035974037 -0.056889474 0.001252681 0.03990934 0.04173462
-0.032804135 0.02832698 0.010411151 0.056792557 0.0073844567 -0.06171192 -0.02869352 0.01946313
-0.023351777 0.043085262 0.02689457 -0.061298594 -0.029646344 0.016144969 -0.0054168366 0.030195527
-0.0038125776 -0.00393771 -0.062458694 0.0334057 0.019747108 0.045469016 -0.043008886 -0.02729161
0.018465653 -0.037244186 0.059261575 0.025835924 -0.0036887266 0.03666477 -0.048405044 -0.028486978
-0.039668184 -0.059234343 -0.0072194375 0.02217663 -0.050681658 -0.012894094 0.009828441 -0.042508326
-0.034676697 0.008713953 0.01868426 0.05029834 -0.019985512 0.020211063 -0.048673347 0.059715867
-0.054114148 0.03629847 -0.019339517 -0.06041016 0.030578904 0.053825274 0.0057700723 -0.0029963069
-0.037032686 0.025767073 -0.049159843 -0.026999395 -0.013117824 0.003791906 0.0024524778 0.03805192
-0.050871506 -0.0064981766 0.03438533 0.009437874 -0.048508044 0.061166883 -0.020589262 0.005322419
-0.016798954 0.035750866 0.034985557 0.04440859 0.044201314 0.040639028 -0.013300873 0.05993692
-0.012155905 0.031177767 -0.01563109 0.04866688 -0.061235312 -0.006375622 0.05846569 -0.05135207
0.008046538 -0.046946175 -0.011670452 0.041056946 0.01839763 -0.004830841 0.05088324 0.058007114
-0.010931864 0.0035901368 -0.046345294 0.04083722 -0.056229442 -0.0130791105 -0.01608758 -0.03351383
-0.032117903 -0.029568076 0.062057592 -0.03153456 0.01647994 0.06160064 -0.021494683 -0.024632826
-0.0068694204 -0.022738691 -0.055189017 -0.0038462952 -0.0023705922 0.0033326745 0.0032814816 -0.0047077574
-0.021702752 -0.051873017 0.061443426 0.04297199 -0.00268339 0.024217866 -0.04292033 -0.061870575
-0.025588207 -0.012503047 0.026466787 0.0015299544 -0.011832003 0.0057680905 0.0042192563 -0.011774082
0.047887824 -0.0049920566 -0.0047602393 0.048134223 -0.054354593 0.039117232 -0.05842238 -0.04241041
-0.022614323 -0.044218242 -0.023668587 -0.026120976 -0.0067936443 -0.024237279 -0.0040936805 0.047872484
00000000: 0871 9ebc 317e 51bd dceb e63c 8c36 ff3c
00000010: b072 493d 8059 bdbb b06f 723d f207 50bd
00000020: 1c38 27bd 34d4 b5bc d898 a6bc 1ca1 273d
00000030: ae24 18bd ccbb b03c 6e24 afbc 360e 653d
00000040: d467 aa3c f88a c4bc b4d1 673d a86c dbbc
00000050: bc33 7a3d 342b 683d 1036 56bc 2e52 37bd
00000060: 0cf4 2cbd e28e 2a3d e6fa 033d ce0c 7c3d
00000070: 7c4a 37bc 28d5 f8bc 4e81 39bd 605c 483d
00000080: f081 b63c 90d9 3bbd b0de f3bb 056f 76bd
00000090: b8b3 43bd 68eb 483c 243a 46bd 109f 3e3d
000000a0: 3cc3 af3c 106b 9b3b 0c27 37bd c2bb 04bd
000000b0: 1cb8 da3c 00f0 1e3d 9cfa e13c 6e50 5e3d
000000c0: 4439 6c3d f85b 793d e05a 7b3c d226 02bd
000000d0: c0bf 83bb dcdc 193d 0c4d 51bc fc8e 14bd
000000e0: 5891 2f3c 94d7 e73c fca4 43bc aa72 ccbc
000000f0: 648a bbbc 8087 93bb 30f2 4a3c b909 7fbd
00000100: 9427 61bd 1e0a 4e3d 78ef f63c a846 9c3c
00000110: b0a2 78bc 8f84 79bd a4c9 713d 2018 9cbb
00000120: 80f3 03ba b853 6c3d ecd6 af3c 4496 75bc
00000130: 3f32 43bd ee82 f2bc 6058 1c3c b6a5 86bc
00000140: 804e aa3c 5e79 0b3d 889a e9bb 40e8 9dbb
00000150: 7216 20bd 0825 1f3d 3a9b 3bbd 1479 513d
00000160: 44a3 e53c 5ef6 a9bc 0317 41bd b0ae 4abd
00000170: f826 cd3c 5a6a 473d e034 62bd b042 ae3c
00000180: f822 5cbd c433 3d3d c289 babc 8359 13bd
00000190: f004 69bd 0031 a43a fa77 233d ecf1 2a3d
000001a0: a15d 06bd fc0d e83c 8893 2a3c 509f 683d
000001b0: 50f9 f13b a3c5 7cbd ac0e ebbc 2471 9f3c
000001c0: 3a4c bfbc 2c7a 303d 0052 dc3c 3c14 7bbd
000001d0: e4dc f2bc 7442 843c b87f b1bb 9c5c f73c
000001e0: 70dc 79bb e807 81bb b0d4 7fbd 6ad4 083d
000001f0: b0c4 a13c b83d 3a3d 162a 30bd a892 dfbc
00000200: 4845 973c 5c8d 18bd 44bc 723d dca5 d33c
00000210: 90be 71bb cc2d 163d 5e44 46bd 865d e9bc
00000220: 1b7b 22bd b69f 72bd 0891 ecbb c4ab b53c
00000230: 9297 4fbd c041 53bc 7807 213c 361d 2ebd
00000240: 2709 0ebd f8c4 0e3c bc0f 993c a205 4e3d
00000250: a8b8 a3bc ac91 a53c b45d 47bd a098 743d
00000260: cca6 5dbd b4ad 143d e86d 9ebc a570 77bd
00000270: 9c80 fa3c e477 5c3d e012 bd3b b05d 44bb
00000280: 96af 17bd 7815 d33c d55b 49bd d62d ddbc
00000290: 24ec 56bc a081 783b c0b9 203b 54dc 1b3d
000002a0: a45e 50bd a8ee d4bb a2d7 0c3d 50a1 1a3c
000002b0: 5fb0 46bd 208a 7a3d d0aa a8bc b067 ae3b
000002c0: f69d 89bc 806f 123d 044d 0f3d c8e5 353d
000002d0: 700c 353d 1c75 263d e8eb 59bc 6a80 753d
000002e0: 9029 47bc 8468 ff3c c60c 80bc ec56 473d
000002f0: e1d1 7abd 98ea d0bb b879 6f3d 8c56 52bd
00000300: a0d5 033c a24a 40bd 6c35 3fbc 542b 283d
00000310: a0b6 963c 084c 9ebb f26a 503d de98 6d3d
00000320: 901b 33bc 8048 6b3b 90d4 3dbd ee44 273d
00000330: d850 66bd c449 56bc 1aca 83bc cc45 09bd
00000340: 108e 03bd c038 f2bc 1a30 7e3d 622a 01bd
00000350: f000 873c f450 7c3d 9e15 b0bc c8ca c9bc
00000360: e018 e1bb 7e46 babc e10d 62bd 2012 7cbb
00000370: f05b 1bbb 0069 5a3b 200e 573b 8843 9abb
00000380: f8c9 b1bc cd78 54bd 1aac 7b3d 6603 303d
00000390: d0db 2fbb 8c64 c63c 3acd 2fbd 006c 7dbd
000003a0: 5c9e d1bc 94d9 4cbc e0d0 d83c c088 c83a
000003b0: 04db 41bc 4002 bd3b b041 8a3b 14e8 40bc
000003c0: 0626 443d 6894 a3bb c8fb 9bbb 6428 453d
000003d0: eca2 5ebd 6439 203d 4e4c 6fbd 8ab6 2dbd
000003e0: ac41 b9bc 301e 35bd a0e4 c1bc a8fb d5bc
000003f0: 389d debb 428d c6bc 4824 86bb f015 443d

network_body.observation_encoder.processors.0.conv_layers.0.bias f4 [16]
-0.031083804 0.054933712 0.04211901 -0.017466214 0.041748166 -0.044378348 0.024852887 0.038820654
0.026544034 0.034211695 0.044112623 -0.018014722 -0.026592258 -0.0038252883 -0.023043524 0.015882663
00000000: 76a3 febc 2c02 613d fc84 2c3d 4e15 8fbc
00000010: 2000 2b3d 12c6 35bd 4898 cb3c 6802 1f3d
00000020: e072 d93c 9021 0c3d 70af 343d 9c93 93bc
00000030: 02d8 d9bc b0b1 7abb c6c5 bcbc 5c1c 823c

network_body.observation_encoder.processors.0.conv_layers.2.weight f4 [32, 16, 4, 4]
-0.03775164 -0.021730635 -0.01855139 -0.00952895 -0.04939261 0.016458124 0.028614871 0.05711972
0.004678391 0.0037056431 -0.056748655 -0.041793767 -0.053168662 -0.055883836 -0.055519313 0.01781474
-0.009154096 -0.030507222 -0.05655902 -0.042454645 0.012150921 -0.037498545 0.019419134 -0.0023000538
-0.02380313 -0.05560795 0.0027755424 0.036554016 0.026915617 -0.039353736 -0.0309386 0.0460923
-0.022064973 -0.0363221 -0.0048519075 -0.020663887 -0.04644774 -0.0070051365 0.05502089 0.0446309
-0.0043205284 -0.046916377 -0.009529561 -0.033473305 0.00034074485 0.009391934 0.05296354 0.05335883
0.020230822 -0.03638678 -0.041086003 0.03818366 0.018678255 -0.03244613 0.0064750165 0.04323846
0.018982 -0.053604677 -0.022837829 0.046928458 0.03977234 0.050109394 -0.01806568 -0.020384565
0.039869204 0.0449894 0.006614864 -0.05219439 -0.009322595 -0.052717857 0.040980883 0.041672833
-0.052808598 -0.024139699 0.010448076 -0.0042757057 0.05549725 0.050437987 0.019871466 -0.03250754
0.03304132 -0.058307674 -0.012598965 -0.05430606 0.014064424 0.03138017 -0.05230333 -0.05001837
-0.042049337 -0.01233637 -0.0144048 -0.0119265355 -0.04418134 0.012997836 -0.06068506 -0.0031211376
0.051902518 0.009440772 -0.0052871183 0.017680041 0.057080284 -0.031551067 0.045088038 -0.036965765
-0.0514128 -0.03653094 0.056848466 -0.040034957 -0.0068232976 0.057826705 0.021480694 0.03692308
0.012446627 -0.009608727 -0.014748812 0.051734075 0.047500394 0.0279307 0.051470444 -0.04053899
0.053684965 -0.02837867 -0.019561682 0.06230998 -0.028387167 -0.026079934 0.01169233 -0.016451593
0.019395232 -0.05406416 -0.026072871 -0.056678697 -0.017357726 -0.03378949 0.04041495 -0.0141584985
0.013565935 0.05594918 0.013324752 -0.010694716 -0.045049194 -0.000978373 0.014284857 0.058286577
0.0310729 -0.019465715 -0.021483775 0.00065826625 0.03962779 0.040032856 -0.0071385615 0.023764633
-0.011353586 -0.0062967613 0.008939885 0.050351493 0.019181572 0.0014733076 0.010718092 0.023791425
-0.019747809 -0.06191522 0.030049905 -0.05617481 0.026195385 0.044695295 -0.015771735 -0.041201238
-0.028422095 0.012602955 0.04975497 0.023155376 -0.008602627 -0.033752058 0.0018110201 0.020709194
0.053309232 0.054896757 0.013154604 -0.02259932 -0.005778756 -0.050654747 0.0042972118 0.05526904
-0.026915748 -0.008776188 0.00021813065 0.05117424 0.041234583 0.018031858 -0.036629528 -0.034560643
0.046108767 -0.041364603 -0.0142017715 -0.032504 -0.019686066 -0.044031322 0.025823005 -0.009109568
0.058515847 -0.02949091 0.053821065 0.03574323 -0.01060671 -0.046417102 -0.061517213 0.034580834
-0.027922578 0.05597519 -0.010918792 -0.027270712 0.0005378127 -0.05749636 0.01297842 -0.04553535
0.018272988 0.022248022 -0.024751708 -0.04194898 -0.0086294785 -0.034384243 -0.020697333 0.04067912
0.039912723 0.024696536 -0.0074229017 0.0030879602 -0.04400182 -0.050446868 -0.0026756972 -0.0433024
0.009702578 0.050584085 0.036267348 -0.014379948 -0.01048002 0.048665904 -0.04720664 -0.015084926
-0.05927333 0.00598526 -0.02322913 0.010813288 -0.041261412 -0.05591168 0.030754305 -0.015000567
-0.043712407 0.057979196 0.025286354 -0.0302886 -0.057713732 0.04485265 0.032064393 -0.016821288
00000000: 77a1 1abd 7204 b2bc 16f9 97bc 501f 1cbc
00000010: e84f 4abd 30d3 863c bc69 ea3c 5ef6 693d
00000020: 304d 993b 60da 723b 4771 68bd f12f 2bbd
00000030: 62c7 59bd 73e6 64bd 3868 63bd 38f0 913c
00000040: 10fb 15bc 48ea f9bc 6eaa 67bd ece4 2dbd
00000050: a814 473c 1398 19bd e014 9f3c 80bc 16bb
00000060: c8fe c2bc 29c5 63bd e0e5 353b aab9 153d
00000070: 247e dc3c 6231 21bd f272 fdbc 48cb 3c3d
00000080: 9ac1 b4bc 7bc6 14bd c0fc 9ebb 5047 a9bc
00000090: fc3f 3ebd 588b e5bb 965d 613d e4ce 363d
000000a0: 3893 8dbb 632b 40bd e021 1cbc 4e1b 09bd
000000b0: 00a6 b239 a0e0 193c 4cf0 583d ca8e 5a3d
000000c0: 1cbb a53c 4e0a 15bd cc49 28bd 7866 1c3d
000000d0: 2403 993c 3ce6 04bd 602c d43b d01a 313d
000000e0: 2480 9b3c 9490 5bbd 6616 bbbc 0e38 403d
000000f0: 52e8 223d 823f 4d3d 7afe 93bc 88fd a6bc
00000100: e44d 233d ce46 383d 80c1 d83b c9c9 55bd
00000110: ccbd 18bc aeee 57bd 92db 273d 22b1 2a3d
00000120: d44d 58bd 9ec0 c5bc 682e 2b3c 381b 8cbb
00000130: 1651 633d 1098 4e3d 7cc9 a23c a026 05bd
00000140: 5656 073d 07d4 6ebd e46b 4ebc 0870 5ebd
00000150: 786e 663c 7e88 003d 043c 56bd 10e0 4cbd
00000160: ed3b 2cbd 7c1e 4abc 1c02 6cbc 8467 43bc
00000170: 7ef7 34bd e0f4 543c e690 78bd 008c 4cbb
00000180: bc97 543d 78ad 1a3c 903f adbb bcd5 903c
00000190: 04cd 693d b13b 01bd 3cae 383d 6a69 17bd
000001a0: 3a96 52bd 78a1 15bd f0d9 683d b2fb 23bd
000001b0: f895 dfbb b2db 6c3d 48f8 af3c a83c 173d
000001c0: f0ec 4b3c ec6d 1dbc 00a5 71bc 1ce7 533d
000001d0: c68f 423d ecce e43c acd2 523d 360c 26bd
000001e0: c4e4 5b3d 627a e8bc d23f a0bc c038 7f3d
000001f0: 348c e8bc 96a5 d5bc 3091 3f3c 7ec5 86bc
00000200: c0e2 9e3c 6172 5dbd c696 d5bc ec27 68bd
00000210: ca31 8ebc d966 0abd 268a 253d 0cf9 67bc
00000220: a843 5e3c f82a 653d 1050 5a3c e438 2fbc
00000230: 8185 38bd c03c 80ba 080b 6a3c e8bd 6e3d
00000240: 988c fe3c 9076 9fbc befe afbc 808f 2c3a
00000250: c050 223d 7ef9 233d 98ea e9bb 0cae c23c
00000260: 6404 3abc 1055 cebb 9878 123c 5e3d 4e3d
00000270: ac22 9d3c 001c c13a f09a 2f3c 3ce6 c23c
00000280: 28c6 a1bc d09a 7dbd 382b f63c 8f17 66bd
00000290: b497 d63c 6a12 373d ba33 81bc a1c2 28bd
000002a0: 74d5 e8bc a07c 4e3c decb 4b3d 58b0 bd3c
000002b0: 08f2 0cbc 993f 0abd c05f ed3a 54a6 a93c
000002c0: c85a 5a3d 6cdb 603d 6886 573c 3622 b9bc
000002d0: b85b bdbb 5a7b 4fbd a0cf 8c3b ca61 623d
000002e0: 6a7e dcbc 00ca 0fbc 00ba 6439 149c 513d
000002f0: 98e5 283d 8cb7 933c d808 16bd 768f 0dbd
00000300: 8cdc 3c3d ee6d 29bd 8cae 68bc ea22 05bd
00000310: ac44 a1bc 305a 34bd c48a d33c 4c40 15bc
00000320: 50ae 6f3d ec96 f1bc 7a73 5c3d 7e67 123d
00000330: c4c7 2dbc dc1f 3ebd 79f9 7bbd a2a4 0d3d
00000340: e4bd e4bc 3e46 653d bce4 32bc d466 dfbc
00000350: 00fc 0c3a 4e81 6bbd 70a3 543c 4683 3abd
00000360: 3cb1 953c 7c41 b63c 18c4 cabc b2d2 2bbd
00000370: a862 0dbc 7ed6 0cbd 748d a9bc 269f 263d
00000380: 867b 233d 6450 ca3c d03b f3bb 605f 4a3b
00000390: 413b 34bd 60a1 4ebd c05a 2fbb db5d 31bd
000003a0: 90f7 1e3c 4231 4f3d 128d 143d e099 6bbc
000003b0: 64b4 2bbc e655 473d c05b 41bd c426 77bc
000003c0: 97c8 72bd 0020 c43b 044b bebc 382a 313c
000003d0: ba01 29bd a503 65bd 74f0 fb3c f0c4 75bc
000003e0: c80b 33bd 987b 6d3d 5425 cf3c cc1f f8bc
000003f0: 3c65 6cbd 6ab7 373d f455 033d cccc 89bc

network_body.observation_encoder.processors.0.conv_layers.2.bias f4 [32]
0.0062582046 0.044703647 -0.0021326058 -0.016184554 0.0035525635 -0.036713168 0.018401347 0.008070692
-0.016063936 -0.057847373 -0.046990078 0.061639585 -0.044033434 -0.0063308664 0.0333075 -0.038808927
-0.01678786 -0.013891861 0.040072188 -0.030414749 -0.0510387 -0.04581897 0.022930667 -0.061136745
-0.028884567 -0.02287104 -0.018155627 -0.0134998225 -0.041421853 0.016987287 -0.061949976 0.029355712
00000000: a011 cd3b 2c1b 373d 30c3 0bbb 7895 84bc
00000010: 20d2 683b 8c60 16bd 6cbe 963c f03a 043c
00000020: 8498 83bc 5ef1 6cbd ab78 40bd ca79 7c3d
00000030: 675c 34bd 2873 cfbb 726d 083d 1cf6 1ebd
00000040: b286 89bc b09a 63bc bc22 243d 5a28 f9bc
00000050: f50d 51bd acac 3bbd 18d9 bb3c 866a 7abd
00000060: 549f ecbc 0c5c bbbc 1cbb 94bc 5c2e 5dbc
00000070: f6a9 29bd ec28 8b3c 42bf 7dbd 647b f03c

network_body.observation_encoder.processors.0.dense.0.weight f4 [128, 32]
-0.21475337 0.112706214 0.056751486 -0.29693964 -0.31806517 0.10891789 -0.42110786 0.30387422
-0.32589608 0.03492065 -0.017722946 0.35216224 0.16854264 0.119175136 -0.024792094 0.13337727
-0.5486641 -0.04210585 0.11239439 -0.17024788 0.21503118 0.60693353 -0.1921514 0.23217735
-0.2168222 0.05312318 -0.15016782 -0.2425828 0.034807593 0.06261633 -0.03910993 0.15212598
-0.07912166 0.028213866 -0.1661609 0.25058395 0.05031546 -0.3997562 0.139632 0.09645539
0.06324989 -0.31349325 -0.13409045 -0.18895082 0.07194528 0.19149743 -0.046348985 0.338734
0.31751218 -0.27996367 0.27618313 0.33498198 0.14530289 -0.21054181 -0.16647768 0.27316132
-0.14755978 -0.23855095 -0.043861832 -0.30508122 -0.10043218 0.187103 0.033863842 -0.13434279
-0.084841326 -0.5304572 0.016624764 0.12547691 0.48556095 -0.19761096 0.024447087 0.32574645
0.07257405 -0.17679751 -0.4726182 0.089554384 0.09772583 -0.12814243 0.119583175 0.1321406
0.17829037 -0.18369372 -0.0107232835 -0.091868065 -0.06270771 -0.15022422 0.2727143 -0.053170096
-0.0033419728 0.3957785 -0.209142 0.3758645 0.22823201 -0.44027796 -0.45323986 -0.46784693
-0.10948405 -0.09788888 0.028370257 0.15512657 -0.07308448 -0.1407222 -0.4538913 -0.09909791
-0.08921786 -0.025629502 0.2622476 0.19877067 0.079582624 -0.20171161 0.2532347 -0.017842742
0.43562013 0.070768416 -0.3274597 -0.10992338 0.5165745 0.028934896 0.19925381 -0.23429093
-0.045067906 -0.44452754 -0.100946486 0.31744623 -0.0106723895 -0.0015941587 0.35151482 0.08923254
-0.22789088 0.28213063 0.1915767 -0.1583229 -0.40761918 -0.012466263 0.31821823 -0.20190403
-0.24062829 0.36156985 0.16603817 -0.100108385 0.20346253 -0.12491017 0.20091802 0.34667617
0.09904863 0.0407549 0.3247992 0.096609265 -0.07775836 0.21354048 0.27682862 0.08823024
-0.14308807 -0.3895612 -0.3080682 -0.361774 -0.07354344 -0.16946368 -0.29712933 0.13834867
0.2012709 -0.031962123 -0.15355815 0.023082055 -0.16121662 0.2556529 -0.35883138 0.12082486
0.10136921 -0.15611345 -0.027354328 -0.4409231 0.13067783 0.028140375 0.10458843 -0.07771386
0.5294929 -0.2218781 0.58162117 0.18026315 -0.50441456 0.047779985 0.5205005 -0.38873062
0.12048874 -0.17359167 -0.08663507 0.35878032 0.20845588 0.12591554 -0.33431774 -0.5091358
-0.11811208 0.36690834 0.20964533 0.19519784 0.053678017 0.4145722 -0.07874247 0.17925456
-0.05869733 -0.38859084 -0.058430713 0.18579265 -0.31898743 -0.027234882 -0.17332566 -0.3904569
0.13902254 -0.253256 -0.22514255 0.13505077 -0.30167466 0.4271867 0.05615033 0.08463396
-0.12088885 -0.65287775 -0.05998209 -0.10912984 0.003837597 -0.09654104 0.16576572 -0.40512562
0.11241088 -0.013884207 -0.16230266 -0.605995 -0.0077311574 0.12891614 -0.22612372 0.26136327
0.13842103 0.13705644 0.2255472 -0.046465978 0.13589564 0.0013119186 -0.37350547 0.12483304
-0.028470658 -0.59616834 -0.20465803 -0.27307215 0.36902007 0.025230655 -0.05240089 -0.3119763
0.31601965 0.014563254 0.032152142 0.22892152 0.51144636 -0.44606397 -0.45757228 -0.1329045
00000000: 4fe8 5bbe 84d2 e63d 3f74 683d 7908 98be
00000010: 70d9 a2be 5810 df3d 739b d7be 6795 9b3e
00000020: dadb a6be f508 0f3d b62f 91bc 9c4e b43e
00000030: 7196 2c3e 1812 f43d ca18 cbbc 0d94 083e
00000040: 4075 0cbf 2f77 2cbd 082f e63d 7655 2ebe
00000050: 2231 5c3e ff5f 1b3f 56c3 44be e6bf 6d3e
00000060: a406 5ebe b197 593d 98c5 19be a067 78be
00000070: 6892 0e3d fe3c 803d bc31 20bd eac6 1b3e
00000080: 890a a2bd c420 e73c 1526 2abe 8a4c 803e
00000090: 9517 4e3d d8ac ccbe b1fb 0e3e 678a c53d
000000a0: 2989 813d 3082 a0be 024f 09be 537c 41be
000000b0: 0c58 933d e717 443e 6fd8 3dbd 8b6e ad3e
000000c0: f590 a23e 6657 8fbe e067 8d3e c282 ab3e
000000d0: 48ca 143e 4698 57be 2079 2abe cddb 8b3e
000000e0: e919 17be b346 74be 77a8 33bd 9b33 9cbe
000000f0: 63af cdbd ee97 3f3e d0b4 0a3d 2891 09be
00000100: 4ac1 adbd 0bcc 07bf a830 883c 057d 003e
00000110: 729b f83e 875a 4abe 4245 c83c 3dc8 a63e
00000120: b4a1 943d 680a 35be 03fb f1be 4a68 b73d
00000130: 7b24 c83d c537 03be 06e8 f43d de4f 073e
00000140: c091 363e 351a 3cbe b6b0 2fbc 5325 bcbd
00000150: e66c 80bd 61d4 19be 35a1 8b3e e3c8 59bd
00000160: 0005 5bbb 7ba3 ca3e 5229 56be 5071 c03e
00000170: a7b5 693e 1d6c e1be 0e0f e8be a289 efbe
00000180: 2c39 e0bd f779 c8bd be68 e83c 80d9 1e3e
00000190: 51ad 95bd 7b19 10be 7164 e8be d8f3 cabd
000001a0: dab7 b6bd f6f4 d1bc 5145 863e 8a8a 4b3e
000001b0: 37fc a23d 7d8d 4ebe fba7 813e f12a 92bc
000001c0: 9a09 df3e 08ef 903d cca8 a7be 821f e1bd
000001d0: 3a3e 043f e008 ed3c 3109 4c3e f6e9 6fbe
000001e0: 2099 38bd 1d99 e3be 08bd cebd 5088 a23e
000001f0: 3fdb 2ebc 17f3 d0ba c0f9 b33e 8dbf b63d
00000200: 3a5c 69be 6d73 903e af2c 443e 661f 22be
00000210: 76b3 d0be 4c3f 4cbc 80ed a23e eebf 4ebe
00000220: 4367 76be af1f b93e e905 2a3e a005 cdbd
00000230: 7b58 503e e7d0 ffbd 74bd 4d3e 8a7f b13e
00000240: 02da ca3d 9cee 263d 154c a63e 14db c53d
00000250: c63f 9fbd 5baa 5a3e 7bbc 8d3e 0eb2 b43d
00000260: ae85 12be 9174 c7be 1dbb 9dbe 713a b9be
00000270: f19d 96bd e387 2dbe 5621 98be 46ab 0d3e
00000280: f519 4e3e b7ea 02bd 593e 1dbe 9416 bd3c
00000290: f815 25be f0e4 823e bfb8 b7be 0673 f73d
000002a0: a99a cf3d 34dc 1fbe 2f16 e0bc acc0 e1be
000002b0: 69d0 053e a586 e63c 7532 d63d 7228 9fbd
000002c0: d98c 073f 0334 63be 20e5 143f e796 383e
000002d0: 5021 01bf f2b4 433d 853f 053f b307 c7be
000002e0: cdc2 f63d 04c2 31be ba6d b1bd 0eb2 b73e
000002f0: 7575 553e 01f0 003e b22b abbe b956 02bf
00000300: bfe4 f1bd 69db bb3e 44ad 563e f1e1 473e
00000310: 7bdd 5b3d cf42 d43e bb43 a1bd 828e 373e
00000320: 9d6c 70bd 61f5 c6be 0b55 6fbd 6e40 3e3e
00000330: 5252 a3be b01b dfbc 487c 31be f7e9 c7be
00000340: ed5b 0e3e c5aa 81be c58b 66be c04a 0a3e
00000350: 1a75 9abe 37b8 da3e e3fd 653d 9254 ad3d
00000360: 9394 f7bd ff22 27bf c8af 75bd 777f dfbd
00000370: 3280 7b3b 4fb7 c5bd 7dbe 293e a06c cfbe
00000380: ad37 e63d 967a 63bc ab32 26be 7d22 1bbf
00000390: a655 fdbb 9802 043e fa8c 67be 68d1 853e
000003a0: 3ebe 0d3e 8658 0c3e d8f5 663e 1c53 3ebd
000003b0: 3a28 0b3e aff4 ab3a 1c3c bfbe 77a8 ff3d
000003c0: 4c3b e9bc 7d9e 18bf e091 51be 1dd0 8bbe
000003d0: 33f0 bc3e 85b0 ce3c 51a2 56bd 5cbb 9fbe
000003e0: 54cd a13e b79a 6e3c f7b1 033d 676a 6a3e
000003f0: 26ee 023f 7f62 e4be ea46 eabe 1e18 08be

network_body.observation_encoder.processors.0.dense.0.bias f4 [128]
0.0 0.0 0.0 0.0 0.0 0.0 0.0 0.0
0.0 0.0 0.0 0.0 0.0 0.0 0.0 0.0
0.0 0.0 0.0 0.0 0.0 0.0 0.0 0.0
0.0 0.0 0.0 0.0 0.0 0.0 0.0 0.0
0.0 0.0 0.0 0.0 0.0 0.0 0.0 0.0
0.0 0.0 0.0 0.0 0.0 0.0 0.0 0.0
0.0 0.0 0.0 0.0 0.0 0.0 0.0 0.0
0.0 0.0 0.0 0.0 0.0 0.0 0.0 0.0
0.0 0.0 0.0 0.0 0.0 0.0 0.0 0.0
0.0 0.0 0.0 0.0 0.0 0.0 0.0 0.0
0.0 0.0 0.0 0.0 0.0 0.0 0.0 0.0
0.0 0.0 0.0 0.0 0.0 0.0 0.0 0.0
0.0 0.0 0.0 0.0 0.0 0.0 0.0 0.0
0.0 0.0 0.0 0.0 0.0 0.0 0.0 0.0
0.0 0.0 0.0 0.0 0.0 0.0 0.0 0.0
0.0 0.0 0.0 0.0 0.0 0.0 0.0 0.0
00000000: 0000 0000 0000 0000 0000 0000 0000 0000
00000010: 0000 0000 0000 0000 0000 0000 0000 0000
00000020: 0000 0000 0000 0000 0000 0000 0000 0000
00000030: 0000 0000 0000 0000 0000 0000 0000 0000
00000040: 0000 0000 0000 0000 0000 0000 0000 0000
00000050: 0000 0000 0000 0000 0000 0000 0000 0000
00000060: 0000 0000 0000 0000 0000 0000 0000 0000
00000070: 0000 0000 0000 0000 0000 0000 0000 0000
00000080: 0000 0000 0000 0000 0000 0000 0000 0000
00000090: 0000 0000 0000 0000 0000 0000 0000 0000
000000a0: 0000 0000 0000 0000 0000 0000 0000 0000
000000b0: 0000 0000 0000 0000 0000 0000 0000 0000
000000c0: 0000 0000 0000 0000 0000 0000 0000 0000
000000d0: 0000 0000 0000 0000 0000 0000 0000 0000
000000e0: 0000 0000 0000 0000 0000 0000 0000 0000
000000f0: 0000 0000 0000 0000 0000 0000 0000 0000
00000100: 0000 0000 0000 0000 0000 0000 0000 0000
00000110: 0000 0000 0000 0000 0000 0000 0000 0000
00000120: 0000 0000 0000 0000 0000 0000 0000 0000
00000130: 0000 0000 0000 0000 0000 0000 0000 0000
00000140: 0000 0000 0000 0000 0000 0000 0000 0000
00000150: 0000 0000 0000 0000 0000 0000 0000 0000
00000160: 0000 0000 0000 0000 0000 0000 0000 0000
00000170: 0000 0000 0000 0000 0000 0000 0000 0000
00000180: 0000 0000 0000 0000 0000 0000 0000 0000
00000190: 0000 0000 0000 0000 0000 0000 0000 0000
000001a0: 0000 0000 0000 0000 0000 0000 0000 0000
000001b0: 0000 0000 0000 0000 0000 0000 0000 0000
000001c0: 0000 0000 0000 0000 0000 0000 0000 0000
000001d0: 0000 0000 0000 0000 0000 0000 0000 0000
000001e0: 0000 0000 0000 0000 0000 0000 0000 0000
000001f0: 0000 0000 0000 0000 0000 0000 0000 0000

network_body.processors.0.conv_layers.0.weight f4 [16, 4, 8, 8]
-0.019341007 -0.051145736 0.028188638 0.03115394 0.04918164 -0.0057784915 0.059188545 -0.050788827
-0.040824994 -0.022195913 -0.020336553 0.04092513 -0.037144355 0.021573924 -0.021379676 0.055921756
0.020801462 -0.023992047 0.056596473 -0.02678521 0.061084494 0.056681827 -0.013074413 -0.044756107
-0.04222493 0.04164017 0.032221697 0.06153565 -0.011187192 -0.030375078 -0.04528933 0.04891622
0.022278756 -0.04586178 -0.007442318 -0.06016447 -0.047778815 0.0122631565 -0.04839529 0.046538413
0.0214554 0.0047429875 -0.044714972 -0.032405622 0.026699118 0.0388031 0.02758532 0.054275922
0.0576718 0.060878724 0.0153414905 -0.031775303 -0.004020661 0.037564144 -0.012774717 -0.036269173
0.010715805 0.028301038 -0.011941191 -0.02495702 -0.022893138 -0.004502237 0.012386844 -0.06226513
-0.054969385 0.050302617 0.030143484 0.01907666 -0.0151755065 -0.060917433 0.05903019 -0.004763618
-0.0005033538 0.057697028 0.021464787 -0.014989439 -0.04765534 -0.029603448 0.009542555 -0.016436439
0.020789385 0.03405129 -0.0071290173 -0.004818946 -0.039083906 0.038853675 -0.045802332 0.05114086
0.028031953 -0.02074736 -0.047141086 -0.049483 0.025042996 0.04868541 -0.055226207 0.021272033
-0.053744286 0.046191946 -0.022770766 -0.035974037 -0.056889474 0.001252681 0.03990934 0.04173462
-0.032804135 0.02832698 0.010411151 0.056792557 0.0073844567 -0.06171192 -0.02869352 0.01946313
-0.023351777 0.043085262 0.02689457 -0.061298594 -0.029646344 0.016144969 -0.0054168366 0.030195527
-0.0038125776 -0.00393771 -0.062458694 0.0334057 0.019747108 0.045469016 -0.043008886 -0.02729161
0.018465653 -0.037244186 0.059261575 0.025835924 -0.0036887266 0.03666477 -0.048405044 -0.028486978
-0.039668184 -0.059234343 -0.0072194375 0.02217663 -0.050681658 -0.012894094 0.009828441 -0.042508326
-0.034676697 0.008713953 0.01868426 0.05029834 -0.019985512 0.020211063 -0.048673347 0.059715867
-0.054114148 0.03629847 -0.019339517 -0.06041016 0.030578904 0.053825274 0.0057700723 -0.0029963069
-0.037032686 0.025767073 -0.049159843 -0.026999395 -0.013117824 0.003791906 0.0024524778 0.03805192
-0.050871506 -0.0064981766 0.03438533 0.009437874 -0.048508044 0.061166883 -0.020589262 0.005322419
-0.016798954 0.035750866 0.034985557 0.04440859 0.044201314 0.040639028 -0.013300873 0.05993692
-0.012155905 0.031177767 -0.01563109 0.04866688 -0.061235312 -0.006375622 0.05846569 -0.05135207
0.008046538 -0.046946175 -0.011670452 0.041056946 0.01839763 -0.004830841 0.05088324 0.058007114
-0.010931864 0.0035901368 -0.046345294 0.04083722 -0.056229442 -0.0130791105 -0.01608758 -0.03351383
-0.032117903 -0.029568076 0.062057592 -0.03153456 0.01647994 0.06160064 -0.021494683 -0.024632826
-0.0068694204 -0.022738691 -0.055189017 -0.0038462952 -0.0023705922 0.0033326745 0.0032814816 -0.0047077574
-0.021702752 -0.051873017 0.061443426 0.04297199 -0.00268339 0.024217866 -0.04292033 -0.061870575
-0.025588207 -0.012503047 0.026466787 0.0015299544 -0.011832003 0.0057680905 0.0042192563 -0.011774082
0.047887824 -0.0049920566 -0.0047602393 0.048134223 -0.054354593 0.039117232 -0.05842238 -0.04241041
-0.022614323 -0.044218242 -0.023668587 -0.026120976 -0.0067936443 -0.024237279 -0.0040936805 0.047872484
00000000: 0871 9ebc 317e 51bd dceb e63c 8c36 ff3c
00000010: b072 493d 8059 bdbb b06f 723d f207 50bd
00000020: 1c38 27bd 34d4 b5bc d898 a6bc 1ca1 273d
00000030: ae24 18bd ccbb b03c 6e24 afbc 360e 653d
00000040: d467 aa3c f88a c4bc b4d1 673d a86c dbbc
00000050: bc33 7a3d 342b 683d 1036 56bc 2e52 37bd
00000060: 0cf4 2cbd e28e 2a3d e6fa 033d ce0c 7c3d
00000070: 7c4a 37bc 28d5 f8bc 4e81 39bd 605c 483d
00000080: f081 b63c 90d9 3bbd b0de f3bb 056f 76bd
00000090: b8b3 43bd 68eb 483c 243a 46bd 109f 3e3d
000000a0: 3cc3 af3c 106b 9b3b 0c27 37bd c2bb 04bd
000000b0: 1cb8 da3c 00f0 1e3d 9cfa e13c 6e50 5e3d
000000c0: 4439 6c3d f85b 793d e05a 7b3c d226 02bd
000000d0: c0bf 83bb dcdc 193d 0c4d 51bc fc8e 14bd
000000e0: 5891 2f3c 94d7 e73c fca4 43bc aa72 ccbc
000000f0: 648a bbbc 8087 93bb 30f2 4a3c b909 7fbd
00000100: 9427 61bd 1e0a 4e3d 78ef f63c a846 9c3c
00000110: b0a2 78bc 8f84 79bd a4c9 713d 2018 9cbb
00000120: 80f3 03ba b853 6c3d ecd6 af3c 4496 75bc
00000130: 3f32 43bd ee82 f2bc 6058 1c3c b6a5 86bc
00000140: 804e aa3c 5e79 0b3d 889a e9bb 40e8 9dbb
00000150: 7216 20bd 0825 1f3d 3a9b 3bbd 1479 513d
00000160: 44a3 e53c 5ef6 a9bc 0317 41bd b0ae 4abd
00000170: f826 cd3c 5a6a 473d e034 62bd b042 ae3c
00000180: f822 5cbd c433 3d3d c289 babc 8359 13bd
00000190: f004 69bd 0031 a43a fa77 233d ecf1 2a3d
000001a0: a15d 06bd fc0d e83c 8893 2a3c 509f 683d
000001b0: 50f9 f13b a3c5 7cbd ac0e ebbc 2471 9f3c
000001c0: 3a4c bfbc 2c7a 303d 0052 dc3c 3c14 7bbd
000001d0: e4dc f2bc 7442 843c b87f b1bb 9c5c f73c
000001e0: 70dc 79bb e807 81bb b0d4 7fbd 6ad4 083d
000001f0: b0c4 a13c b83d 3a3d 162a 30bd a892 dfbc
00000200: 4845 973c 5c8d 18bd 44bc 723d dca5 d33c
00000210: 90be 71bb cc2d 163d 5e44 46bd 865d e9bc
00000220: 1b7b 22bd b69f 72bd 0891 ecbb c4ab b53c
00000230: 9297 4fbd c041 53bc 7807 213c 361d 2ebd
00000240: 2709 0ebd f8c4 0e3c bc0f 993c a205 4e3d
00000250: a8b8 a3bc ac91 a53c b45d 47bd a098 743d
00000260: cca6 5dbd b4ad 143d e86d 9ebc a570 77bd
00000270: 9c80 fa3c e477 5c3d e012 bd3b b05d 44bb
00000280: 96af 17bd 7815 d33c d55b 49bd d62d ddbc
00000290: 24ec 56bc a081 783b c0b9 203b 54dc 1b3d
000002a0: a45e 50bd a8ee d4bb a2d7 0c3d 50a1 1a3c
000002b0: 5fb0 46bd 208a 7a3d d0aa a8bc b067 ae3b
000002c0: f69d 89bc 806f 123d 044d 0f3d c8e5 353d
000002d0: 700c 353d 1c75 263d e8eb 59bc 6a80 753d
000002e0: 9029 47bc 8468 ff3c c60c 80bc ec56 473d
000002f0: e1d1 7abd 98ea d0bb b879 6f3d 8c56 52bd
00000300: a0d5 033c a24a 40bd 6c35 3fbc 542b 283d
00000310: a0b6 963c 084c 9ebb f26a 503d de98 6d3d
00000320: 901b 33bc 8048 6b3b 90d4 3dbd ee44 273d
00000330: d850 66bd c449 56bc 1aca 83bc cc45 09bd
00000340: 108e 03bd c038 f2bc 1a30 7e3d 622a 01bd
00000350: f000 873c f450 7c3d 9e15 b0bc c8ca c9bc
00000360: e018 e1bb 7e46 babc e10d 62bd 2012 7cbb
00000370: f05b 1bbb 0069 5a3b 200e 573b 8843 9abb
00000380: f8c9 b1bc cd78 54bd 1aac 7b3d 6603 303d
00000390: d0db 2fbb 8c64 c63c 3acd 2fbd 006c 7dbd
000003a0: 5c9e d1bc 94d9 4cbc e0d0 d83c c088 c83a
000003b0: 04db 41bc 4002 bd3b b041 8a3b 14e8 40bc
000003c0: 0626 443d 6894 a3bb c8fb 9bbb 6428 453d
000003d0: eca2 5ebd 6439 203d 4e4c 6fbd 8ab6 2dbd
000003e0: ac41 b9bc 301e 35bd a0e4 c1bc a8fb d5bc
000003f0: 389d debb 428d c6bc 4824 86bb f015 443d

network_body.processors.0.conv_layers.0.bias f4 [16]
-0.031083804 0.054933712 0.04211901 -0.017466214 0.041748166 -0.044378348 0.024852887 0.038820654
0.026544034 0.034211695 0.044112623 -0.018014722 -0.026592258 -0.0038252883 -0.023043524 0.015882663
00000000: 76a3 febc 2c02 613d fc84 2c3d 4e15 8fbc
00000010: 2000 2b3d 12c6 35bd 4898 cb3c 6802 1f3d
00000020: e072 d93c 9021 0c3d 70af 343d 9c93 93bc
00000030: 02d8 d9bc b0b1 7abb c6c5 bcbc 5c1c 823c

network_body.processors.0.conv_layers.2.weight f4 [32, 16, 4, 4]
-0.03775164 -0.021730635 -0.01855139 -0.00952895 -0.04939261 0.016458124 0.028614871 0.05711972
0.004678391 0.0037056431 -0.056748655 -0.041793767 -0.053168662 -0.055883836 -0.055519313 0.01781474
-0.009154096 -0.030507222 -0.05655902 -0.042454645 0.012150921 -0.037498545 0.019419134 -0.0023000538
-0.02380313 -0.05560795 0.0027755424 0.036554016 0.026915617 -0.039353736 -0.0309386 0.0460923
-0.022064973 -0.0363221 -0.0048519075 -0.020663887 -0.04644774 -0.0070051365 0.05502089 0.0446309
-0.0043205284 -0.046916377 -0.009529561 -0.033473305 0.00034074485 0.009391934 0.05296354 0.05335883
0.020230822 -0.03638678 -0.041086003 0.03818366 0.018678255 -0.03244613 0.0064750165 0.04323846
0.018982 -0.053604677 -0.022837829 0.046928458 0.03977234 0.050109394 -0.01806568 -0.020384565
0.039869204 0.0449894 0.006614864 -0.05219439 -0.009322595 -0.052717857 0.040980883 0.041672833
-0.052808598 -0.024139699 0.010448076 -0.0042757057 0.05549725 0.050437987 0.019871466 -0.03250754
0.03304132 -0.058307674 -0.012598965 -0.05430606 0.014064424 0.03138017 -0.05230333 -0.05001837
-0.042049337 -0.01233637 -0.0144048 -0.0119265355 -0.04418134 0.012997836 -0.06068506 -0.0031211376
0.051902518 0.009440772 -0.0052871183 0.017680041 0.057080284 -0.031551067 0.045088038 -0.036965765
-0.0514128 -0.03653094 0.056848466 -0.040034957 -0.0068232976 0.057826705 0.021480694 0.03692308
0.012446627 -0.009608727 -0.014748812 0.051734075 0.047500394 0.0279307 0.051470444 -0.04053899
0.053684965 -0.02837867 -0.019561682 0.06230998 -0.028387167 -0.026079934 0.01169233 -0.016451593
0.019395232 -0.05406416 -0.026072871 -0.056678697 -0.017357726 -0.03378949 0.04041495 -0.0141584985
0.013565935 0.05594918 0.013324752 -0.010694716 -0.045049194 -0.000978373 0.014284857 0.058286577
0.0310729 -0.019465715 -0.021483775 0.00065826625 0.03962779 0.040032856 -0.0071385615 0.023764633
-0.011353586 -0.0062967613 0.008939885 0.050351493 0.019181572 0.0014733076 0.010718092 0.023791425
-0.019747809 -0.06191522 0.030049905 -0.05617481 0.026195385 0.044695295 -0.015771735 -0.041201238
-0.028422095 0.012602955 0.04975497 0.023155376 -0.008602627 -0.033752058 0.0018110201 0.020709194
0.053309232 0.054896757 0.013154604 -0.02259932 -0.005778756 -0.050654747 0.0042972118 0.05526904
-0.026915748 -0.008776188 0.00021813065 0.05117424 0.041234583 0.018031858 -0.036629528 -0.034560643
0.046108767 -0.041364603 -0.0142017715 -0.032504 -0.019686066 -0.044031322 0.025823005 -0.009109568
0.058515847 -0.02949091 0.053821065 0.03574323 -0.01060671 -0.046417102 -0.061517213 0.034580834
-0.027922578 0.05597519 -0.010918792 -0.027270712 0.0005378127 -0.05749636 0.01297842 -0.04553535
0.018272988 0.022248022 -0.024751708 -0.04194898 -0.0086294785 -0.034384243 -0.020697333 0.04067912
0.039912723 0.024696536 -0.0074229017 0.0030879602 -0.04400182 -0.050446868 -0.0026756972 -0.0433024
0.009702578 0.050584085 0.036267348 -0.014379948 -0.01048002 0.048665904 -0.04720664 -0.015084926
-0.05927333 0.00598526 -0.02322913 0.010813288 -0.041261412 -0.05591168 0.030754305 -0.015000567
-0.043712407 0.057979196 0.025286354 -0.0302886 -0.057713732 0.04485265 0.032064393 -0.016821288
00000000: 77a1 1abd 7204 b2bc 16f9 97bc 501f 1cbc
00000010: e84f 4abd 30d3 863c bc69 ea3c 5ef6 693d
00000020: 304d 993b 60da 723b 4771 68bd f12f 2bbd
00000030: 62c7 59bd 73e6 64bd 3868 63bd 38f0 913c
00000040: 10fb 15bc 48ea f9bc 6eaa 67bd ece4 2dbd
00000050: a814 473c 1398 19bd e014 9f3c 80bc 16bb
00000060: c8fe c2bc 29c5 63bd e0e5 353b aab9 153d
00000070: 247e dc3c 6231 21bd f272 fdbc 48cb 3c3d
00000080: 9ac1 b4bc 7bc6 14bd c0fc 9ebb 5047 a9bc
00000090: fc3f 3ebd 588b e5bb 965d 613d e4ce 363d
000000a0: 3893 8dbb 632b 40bd e021 1cbc 4e1b 09bd
000000b0: 00a6 b239 a0e0 193c 4cf0 583d ca8e 5a3d
000000c0: 1cbb a53c 4e0a 15bd cc49 28bd 7866 1c3d
000000d0: 2403 993c 3ce6 04bd 602c d43b d01a 313d
000000e0: 2480 9b3c 9490 5bbd 6616 bbbc 0e38 403d
000000f0: 52e8 223d 823f 4d3d 7afe 93bc 88fd a6bc
00000100: e44d 233d ce46 383d 80c1 d83b c9c9 55bd
00000110: ccbd 18bc aeee 57bd 92db 273d 22b1 2a3d
00000120: d44d 58bd 9ec0 c5bc 682e 2b3c 381b 8cbb
00000130: 1651 633d 1098 4e3d 7cc9 a23c a026 05bd
00000140: 5656 073d 07d4 6ebd e46b 4ebc 0870 5ebd
00000150: 786e 663c 7e88 003d 043c 56bd 10e0 4cbd
00000160: ed3b 2cbd 7c1e 4abc 1c02 6cbc 8467 43bc
00000170: 7ef7 34bd e0f4 543c e690 78bd 008c 4cbb
00000180: bc97 543d 78ad 1a3c 903f adbb bcd5 903c
00000190: 04cd 693d b13b 01bd 3cae 383d 6a69 17bd
000001a0: 3a96 52bd 78a1 15bd f0d9 683d b2fb 23bd
000001b0: f895 dfbb b2db 6c3d 48f8 af3c a83c 173d
000001c0: f0ec 4b3c ec6d 1dbc 00a5 71bc 1ce7 533d
000001d0: c68f 423d ecce e43c acd2 523d 360c 26bd
000001e0: c4e4 5b3d 627a e8bc d23f a0bc c038 7f3d
000001f0: 348c e8bc 96a5 d5bc 3091 3f3c 7ec5 86bc
00000200: c0e2 9e3c 6172 5dbd c696 d5bc ec27 68bd
00000210: ca31 8ebc d966 0abd 268a 253d 0cf9 67bc
00000220: a843 5e3c f82a 653d 1050 5a3c e438 2fbc
00000230: 8185 38bd c03c 80ba 080b 6a3c e8bd 6e3d
00000240: 988c fe3c 9076 9fbc befe afbc 808f 2c3a
00000250: c050 223d 7ef9 233d 98ea e9bb 0cae c23c
00000260: 6404 3abc 1055 cebb 9878 123c 5e3d 4e3d
00000270: ac22 9d3c 001c c13a f09a 2f3c 3ce6 c23c
00000280: 28c6 a1bc d09a 7dbd 382b f63c 8f17 66bd
00000290: b497 d63c 6a12 373d ba33 81bc a1c2 28bd
000002a0: 74d5 e8bc a07c 4e3c decb 4b3d 58b0 bd3c
000002b0: 08f2 0cbc 993f 0abd c05f ed3a 54a6 a93c
000002c0: c85a 5a3d 6cdb 603d 6886 573c 3622 b9bc
000002d0: b85b bdbb 5a7b 4fbd a0cf 8c3b ca61 623d
000002e0: 6a7e dcbc 00ca 0fbc 00ba 6439 149c 513d
000002f0: 98e5 283d 8cb7 933c d808 16bd 768f 0dbd
00000300: 8cdc 3c3d ee6d 29bd 8cae 68bc ea22 05bd
00000310: ac44 a1bc 305a 34bd c48a d33c 4c40 15bc
00000320: 50ae 6f3d ec96 f1bc 7a73 5c3d 7e67 123d
00000330: c4c7 2dbc dc1f 3ebd 79f9 7bbd a2a4 0d3d
00000340: e4bd e4bc 3e46 653d bce4 32bc d466 dfbc
00000350: 00fc 0c3a 4e81 6bbd 70a3 543c 4683 3abd
00000360: 3cb1 953c 7c41 b63c 18c4 cabc b2d2 2bbd
00000370: a862 0dbc 7ed6 0cbd 748d a9bc 269f 263d
00000380: 867b 233d 6450 ca3c d03b f3bb 605f 4a3b
00000390: 413b 34bd 60a1 4ebd c05a 2fbb db5d 31bd
000003a0: 90f7 1e3c 4231 4f3d 128d 143d e099 6bbc
000003b0: 64b4 2bbc e655 473d c05b 41bd c426 77bc
000003c0: 97c8 72bd 0020 c43b 044b bebc 382a 313c
000003d0: ba01 29bd a503 65bd 74f0 fb3c f0c4 75bc
000003e0: c80b 33bd 987b 6d3d 5425 cf3c cc1f f8bc
000003f0: 3c65 6cbd 6ab7 373d f455 033d cccc 89bc

network_body.processors.0.conv_layers.2.bias f4 [32]
0.0062582046 0.044703647 -0.0021326058 -0.016184554 0.0035525635 -0.036713168 0.018401347 0.008070692
-0.016063936 -0.057847373 -0.046990078 0.061639585 -0.044033434 -0.0063308664 0.0333075 -0.038808927
-0.01678786 -0.013891861 0.040072188 -0.030414749 -0.0510387 -0.04581897 0.022930667 -0.061136745
-0.028884567 -0.02287104 -0.018155627 -0.0134998225 -0.041421853 0.016987287 -0.061949976 0.029355712
00000000: a011 cd3b 2c1b 373d 30c3 0bbb 7895 84bc
00000010: 20d2 683b 8c60 16bd 6cbe 963c f03a 043c
00000020: 8498 83bc 5ef1 6cbd ab78 40bd ca79 7c3d
00000030: 675c 34bd 2873 cfbb 726d 083d 1cf6 1ebd
00000040: b286 89bc b09a 63bc bc22 243d 5a28 f9bc
00000050: f50d 51bd acac 3bbd 18d9 bb3c 866a 7abd
00000060: 549f ecbc 0c5c bbbc 1cbb 94bc 5c2e 5dbc
00000070: f6a9 29bd ec28 8b3c 42bf 7dbd 647b f03c

network_body.processors.0.dense.0.weight f4 [128, 32]
-0.21475337 0.112706214 0.056751486 -0.29693964 -0.31806517 0.10891789 -0.42110786 0.30387422
-0.32589608 0.03492065 -0.017722946 0.35216224 0.16854264 0.119175136 -0.024792094 0.13337727
-0.5486641 -0.04210585 0.11239439 -0.17024788 0.21503118 0.60693353 -0.1921514 0.23217735
-0.2168222 0.05312318 -0.15016782 -0.2425828 0.034807593 0.06261633 -0.03910993 0.15212598
-0.07912166 0.028213866 -0.1661609 0.25058395 0.05031546 -0.3997562 0.139632 0.09645539
0.06324989 -0.31349325 -0.13409045 -0.18895082 0.07194528 0.19149743 -0.046348985 0.338734
0.31751218 -0.27996367 0.27618313 0.33498198 0.14530289 -0.21054181 -0.16647768 0.27316132
-0.14755978 -0.23855095 -0.043861832 -0.30508122 -0.10043218 0.187103 0.033863842 -0.13434279
-0.084841326 -0.5304572 0.016624764 0.12547691 0.48556095 -0.19761096 0.024447087 0.32574645
0.07257405 -0.17679751 -0.4726182 0.089554384 0.09772583 -0.12814243 0.119583175 0.1321406
0.17829037 -0.18369372 -0.0107232835 -0.091868065 -0.06270771 -0.15022422 0.2727143 -0.053170096
-0.0033419728 0.3957785 -0.209142 0.3758645 0.22823201 -0.44027796 -0.45323986 -0.46784693
-0.10948405 -0.09788888 0.028370257 0.15512657 -0.07308448 -0.1407222 -0.4538913 -0.09909791
-0.08921786 -0.025629502 0.2622476 0.19877067 0.079582624 -0.20171161 0.2532347 -0.017842742
0.43562013 0.070768416 -0.3274597 -0.10992338 0.5165745 0.028934896 0.19925381 -0.23429093
-0.045067906 -0.44452754 -0.100946486 0.31744623 -0.0106723895 -0.0015941587 0.35151482 0.08923254
-0.22789088 0.28213063 0.1915767 -0.1583229 -0.40761918 -0.012466263 0.31821823 -0.20190403
-0.24062829 0.36156985 0.16603817 -0.100108385 0.20346253 -0.12491017 0.20091802 0.34667617
0.09904863 0.0407549 0.3247992 0.096609265 -0.07775836 0.21354048 0.27682862 0.08823024
-0.14308807 -0.3895612 -0.3080682 -0.361774 -0.07354344 -0.16946368 -0.29712933 0.13834867
0.2012709 -0.031962123 -0.15355815 0.023082055 -0.16121662 0.2556529 -0.35883138 0.12082486
0.10136921 -0.15611345 -0.027354328 -0.4409231 0.13067783 0.028140375 0.10458843 -0.07771386
0.5294929 -0.2218781 0.58162117 0.18026315 -0.50441456 0.047779985 0.5205005 -0.38873062
0.12048874 -0.17359167 -0.08663507 0.35878032 0.20845588 0.12591554 -0.33431774 -0.5091358
-0.11811208 0.36690834 0.20964533 0.19519784 0.053678017 0.4145722 -0.07874247 0.17925456
-0.05869733 -0.38859084 -0.058430713 0.18579265 -0.31898743 -0.027234882 -0.17332566 -0.3904569
0.13902254 -0.253256 -0.22514255 0.13505077 -0.30167466 0.4271867 0.05615033 0.08463396
-0.12088885 -0.65287775 -0.05998209 -0.10912984 0.003837597 -0.09654104 0.16576572 -0.40512562
0.11241088 -0.013884207 -0.16230266 -0.605995 -0.0077311574 0.12891614 -0.22612372 0.26136327
0.13842103 0.13705644 0.2255472 -0.046465978 0.13589564 0.0013119186 -0.37350547 0.12483304
-0.028470658 -0.59616834 -0.20465803 -0.27307215 0.36902007 0.025230655 -0.05240089 -0.3119763
0.31601965 0.014563254 0.032152142 0.22892152 0.51144636 -0.44606397 -0.45757228 -0.1329045
00000000: 4fe8 5bbe 84d2 e63d 3f74 683d 7908 98be
00000010: 70d9 a2be 5810 df3d 739b d7be 6795 9b3e
00000020: dadb a6be f508 0f3d b62f 91bc 9c4e b43e
00000030: 7196 2c3e 1812 f43d ca18 cbbc 0d94 083e
00000040: 4075 0cbf 2f77 2cbd 082f e63d 7655 2ebe
00000050: 2231 5c3e ff5f 1b3f 56c3 44be e6bf 6d3e
00000060: a406 5ebe b197 593d 98c5 19be a067 78be
00000070: 6892 0e3d fe3c 803d bc31 20bd eac6 1b3e
00000080: 890a a2bd c420 e73c 1526 2abe 8a4c 803e
00000090: 9517 4e3d d8ac ccbe b1fb 0e3e 678a c53d
000000a0: 2989 813d 3082 a0be 024f 09be 537c 41be
000000b0: 0c58 933d e717 443e 6fd8 3dbd 8b6e ad3e
000000c0: f590 a23e 6657 8fbe e067 8d3e c282 ab3e
000000d0: 48ca 143e 4698 57be 2079 2abe cddb 8b3e
000000e0: e919 17be b346 74be 77a8 33bd 9b33 9cbe
000000f0: 63af cdbd ee97 3f3e d0b4 0a3d 2891 09be
00000100: 4ac1 adbd 0bcc 07bf a830 883c 057d 003e
00000110: 729b f83e 875a 4abe 4245 c83c 3dc8 a63e
00000120: b4a1 943d 680a 35be 03fb f1be 4a68 b73d
00000130: 7b24 c83d c537 03be 06e8 f43d de4f 073e
00000140: c091 363e 351a 3cbe b6b0 2fbc 5325 bcbd
00000150: e66c 80bd 61d4 19be 35a1 8b3e e3c8 59bd
00000160: 0005 5bbb 7ba3 ca3e 5229 56be 5071 c03e
00000170: a7b5 693e 1d6c e1be 0e0f e8be a289 efbe
00000180: 2c39 e0bd f779 c8bd be68 e83c 80d9 1e3e
00000190: 51ad 95bd 7b19 10be 7164 e8be d8f3 cabd
000001a0: dab7 b6bd f6f4 d1bc 5145 863e 8a8a 4b3e
000001b0: 37fc a23d 7d8d 4ebe fba7 813e f12a 92bc
000001c0: 9a09 df3e 08ef 903d cca8 a7be 821f e1bd
000001d0: 3a3e 043f e008 ed3c 3109 4c3e f6e9 6fbe
000001e0: 2099 38bd 1d99 e3be 08bd cebd 5088 a23e
000001f0: 3fdb 2ebc 17f3 d0ba c0f9 b33e 8dbf b63d
00000200: 3a5c 69be 6d73 903e af2c 443e 661f 22be
00000210: 76b3 d0be 4c3f 4cbc 80ed a23e eebf 4ebe
00000220: 4367 76be af1f b93e e905 2a3e a005 cdbd
00000230: 7b58 503e e7d0 ffbd 74bd 4d3e 8a7f b13e
00000240: 02da ca3d 9cee 263d 154c a63e 14db c53d
00000250: c63f 9fbd 5baa 5a3e 7bbc 8d3e 0eb2 b43d
00000260: ae85 12be 9174 c7be 1dbb 9dbe 713a b9be
00000270: f19d 96bd e387 2dbe 5621 98be 46ab 0d3e
00000280: f519 4e3e b7ea 02bd 593e 1dbe 9416 bd3c
00000290: f815 25be f0e4 823e bfb8 b7be 0673 f73d
000002a0: a99a cf3d 34dc 1fbe 2f16 e0bc acc0 e1be
000002b0: 69d0 053e a586 e63c 7532 d63d 7228 9fbd
000002c0: d98c 073f 0334 63be 20e5 143f e796 383e
000002d0: 5021 01bf f2b4 433d 853f 053f b307 c7be
000002e0: cdc2 f63d 04c2 31be ba6d b1bd 0eb2 b73e
000002f0: 7575 553e 01f0 003e b22b abbe b956 02bf
00000300: bfe4 f1bd 69db bb3e 44ad 563e f1e1 473e
00000310: 7bdd 5b3d cf42 d43e bb43 a1bd 828e 373e
00000320: 9d6c 70bd 61f5 c6be 0b55 6fbd 6e40 3e3e
00000330: 5252 a3be b01b dfbc 487c 31be f7e9 c7be
00000340: ed5b 0e3e c5aa 81be c58b 66be c04a 0a3e
00000350: 1a75 9abe 37b8 da3e e3fd 653d 9254 ad3d
00000360: 9394 f7bd ff22 27bf c8af 75bd 777f dfbd
00000370: 3280 7b3b 4fb7 c5bd 7dbe 293e a06c cfbe
00000380: ad37 e63d 967a 63bc ab32 26be 7d22 1bbf
00000390: a655 fdbb 9802 043e fa8c 67be 68d1 853e
000003a0: 3ebe 0d3e 8658 0c3e d8f5 663e 1c53 3ebd
000003b0: 3a28 0b3e aff4 ab3a 1c3c bfbe 77a8 ff3d
000003c0: 4c3b e9bc 7d9e 18bf e091 51be 1dd0 8bbe
000003d0: 33f0 bc3e 85b0 ce3c 51a2 56bd 5cbb 9fbe
000003e0: 54cd a13e b79a 6e3c f7b1 033d 676a 6a3e
000003f0: 26ee 023f 7f62 e4be ea46 eabe 1e18 08be

network_body.processors.0.dense.0.bias f4 [128]
0.0 0.0 0.0 0.0 0.0 0.0 0.0 0.0
0.0 0.0 0.0 0.0 0.0 0.0 0.0 0.0
0.0 0.0 0.0 0.0 0.0 0.0 0.0 0.0
0.0 0.0 0.0 0.0 0.0 0.0 0.0 0.0
0.0 0.0 0.0 0.0 0.0 0.0 0.0 0.0
0.0 0.0 0.0 0.0 0.0 0.0 0.0 0.0
0.0 0.0 0.0 0.0 0.0 0.0 0.0 0.0
0.0 0.0 0.0 0.0 0.0 0.0 0.0 0.0
0.0 0.0 0.0 0.0 0.0 0.0 0.0 0.0
0.0 0.0 0.0 0.0 0.0 0.0 0.0 0.0
0.0 0.0 0.0 0.0 0.0 0.0 0.0 0.0
0.0 0.0 0.0 0.0 0.0 0.0 0.0 0.0
0.0 0.0 0.0 0.0 0.0 0.0 0.0 0.0
0.0 0.0 0.0 0.0 0.0 0.0 0.0 0.0
0.0 0.0 0.0 0.0 0.0 0.0 0.0 0.0
0.0 0.0 0.0 0.0 0.0 0.0 0.0 0.0
00000000: 0000 0000 0000 0000 0000 0000 0000 0000
00000010: 0000 0000 0000 0000 0000 0000 0000 0000
00000020: 0000 0000 0000 0000 0000 0000 0000 0000
00000030: 0000 0000 0000 0000 0000 0000 0000 0000
00000040: 0000 0000 0000 0000 0000 0000 0000 0000
00000050: 0000 0000 0000 0000 0000 0000 0000 0000
00000060: 0000 0000 0000 0000 0000 0000 0000 0000
00000070: 0000 0000 0000 0000 0000 0000 0000 0000
00000080: 0000 0000 0000 0000 0000 0000 0000 0000
00000090: 0000 0000 0000 0000 0000 0000 0000 0000
000000a0: 0000 0000 0000 0000 0000 0000 0000 0000
000000b0: 0000 0000 0000 0000 0000 0000 0000 0000
000000c0: 0000 0000 0000 0000 0000 0000 0000 0000
000000d0: 0000 0000 0000 0000 0000 0000 0000 0000
000000e0: 0000 0000 0000 0000 0000 0000 0000 0000
000000f0: 0000 0000 0000 0000 0000 0000 0000 0000
00000100: 0000 0000 0000 0000 0000 0000 0000 0000
00000110: 0000 0000 0000 0000 0000 0000 0000 0000
00000120: 0000 0000 0000 0000 0000 0000 0000 0000
00000130: 0000 0000 0000 0000 0000 0000 0000 0000
00000140: 0000 0000 0000 0000 0000 0000 0000 0000
00000150: 0000 0000 0000 0000 0000 0000 0000 0000
00000160: 0000 0000 0000 0000 0000 0000 0000 0000
00000170: 0000 0000 0000 0000 0000 0000 0000 0000
00000180: 0000 0000 0000 0000 0000 0000 0000 0000
00000190: 0000 0000 0000 0000 0000 0000 0000 0000
000001a0: 0000 0000 0000 0000 0000 0000 0000 0000
000001b0: 0000 0000 0000 0000 0000 0000 0000 0000
000001c0: 0000 0000 0000 0000 0000 0000 0000 0000
000001d0: 0000 0000 0000 0000 0000 0000 0000 0000
000001e0: 0000 0000 0000 0000 0000 0000 0000 0000
000001f0: 0000 0000 0000 0000 0000 0000 0000 0000
