results/ZaraImitation/ZARAimitation/ZARAimitation-808.pt (torch, 681279 bytes, 38 tensors)

network_body.observation_encoder.processors.0.conv_layers.0.weight f4 [16, 4, 8, 8]
000000 b4 de 7a 3d 3e e4 a8 bc 20 1c 69 3b 00 a0 1a bb
       0.061247543 -0.020616647 0.0035569742 -0.0023593903
000010 a0 e8 05 bb fb ee 55 bd 20 78 17 bb a0 fd 78 bb
       -0.0020432845 -0.052229863 -0.0023112372 -0.003799297
000020 56 36 ba bc 58 4d b1 bc 06 86 27 3d f8 a9 eb 3c
       -0.022730988 -0.021643326 0.0408993 0.02876757
000030 fe d2 1f 3d e0 db 75 bb de 24 26 3d c4 bf 09 bc
       0.039019577 -0.003751509 0.040562503 -0.008407537
000040 8c 0b 01 3d 26 ac 92 bc 66 a3 61 3d 8e 78 06 3d
       0.031505153 -0.017904352 0.05508747 0.032829814
000050 06 ce 1c 3d a0 a1 98 3b 2e 1e 1e bd 46 77 6c 3d
       0.038282417 0.004657939 -0.038603 0.057730936
000060 76 17 2f 3d 1a f0 5e bd fe 73 05 3d ef 85 7a bd
       0.042746983 -0.054428197 0.032581322 -0.061162885
000070 3a cc ab bc 20 ea 43 3d 70 27 72 bc c0 e5 40 bb
       -0.020971406 0.0478307 -0.01477991 -0.0029433817
000080 6e 90 5f bd b4 08 6b 3d ee 6c 7b bd ce 92 77 3d
       -0.0545811 0.057381347 -0.06138318 0.06044274
000090 08 07 ad bb ca ae 13 3d 3c e5 06 bd a0 2a 62 bc
       -0.005280379 0.036055364 -0.03293346 -0.013804108
0000a0 5e 35 35 3d 50 19 2a bd b2 24 85 bc 40 04 f5 3b
       0.044240348 -0.041528046 -0.01625285 0.0074773133
0000b0 d2 bc 98 bc 20 d6 ae 3b 18 48 4b bc c0 77 b2 3c
       -0.018644724 0.0053355843 -0.012407325 0.021785617
0000c0 80 cb 8b 3c c4 fe f0 3c 5e 3d a3 bc 00 d9 34 3d
       0.01706481 0.029418357 -0.019926723 0.04415226
0000d0 c8 00 3c 3c 14 8e 45 bc 20 29 22 bc d4 fa 09 bd
       0.011474796 -0.0120578 -0.0098975 -0.033686474
0000e0 a4 ed 8a 3c 7c 72 69 3d 53 56 05 bd dc dd 9c 3c
       0.016959019 0.056993946 -0.03255303 0.01914876
0000f0 6c e7 bc 3c 44 df 69 3d d2 1d 0f bd 72 4b 52 bd
       0.02305957 0.05709769 -0.03494055 -0.05134148
000100 2a f6 ff bc 14 3c af bc fe 56 31 3d 9e e4 4d 3d
       -0.03124531 -0.021390952 0.043295853 0.050266854
000110 d6 42 23 bd 08 ee a1 bb 28 95 b0 bc f0 77 8f bc
       -0.03985866 -0.0049417056 -0.021555498 -0.017513245
000120 48 9a 37 3c 64 7a 8a 3c 68 11 5a bc a8 16 af bb
       0.011206217 0.016904064 -0.013309814 -0.005343277
000130 72 a9 79 3d 14 32 82 bc b2 95 5a bd 78 f5 0d bc
       0.06095261 -0.01589302 -0.053365417 -0.008664481
000140 90 e0 e5 3b c8 11 24 3d d0 23 be 3b f0 01 3e bb
       0.0070152953 0.04005602 0.005802609 -0.0028992854
000150 98 54 e0 bc 68 26 a7 3c aa 80 47 bd f2 70 45 bd
       -0.027384087 0.020404056 -0.048706688 -0.048203416
000160 84 34 f0 3c c8 37 9b bc 88 c2 bc 3c bf 8c 49 bd
       0.029321916 -0.018947497 0.023041978 -0.04920649
000170 64 b9 5c 3d 61 1f 48 bd cc 3e b3 3c 20 d3 db 3b
       0.05388774 -0.04885805 0.02188053 0.0067085177
000180 98 90 74 3c b2 36 7d 3d a8 81 57 3d 34 d8 41 3d
       0.014927052 0.06181974 0.052613884 0.047325328
000190 02 74 4c 3d 4c 99 13 bd 5c c0 4c 3d dc 05 7c 3d
       0.04991532 -0.036034867 0.049988136 0.061529025
0001a0 74 1b 02 bd 02 b5 77 3d fe 47 28 bd fc 59 4b 3d
       -0.031764463 0.060475357 -0.041084282 0.049646363
0001b0 28 6c 59 3c 3c 9d 14 bc 02 37 3a bd 14 d6 31 bd
       0.013270415 -0.009070691 -0.045462616 -0.04341705
0001c0 4f c9 6b bd 18 eb e4 bb 78 93 e1 3c 48 53 c8 3c
       -0.05756503 -0.006986033 0.027536139 0.024453774
0001d0 28 0f 6a 3d 70 9e 8b bb c8 0b 03 bd 66 fe 07 3d
       0.05714336 -0.0042608306 -0.031993657 0.033201598
0001e0 38 a4 d9 bb 38 3e 55 bc a0 00 43 bd 5c 73 51 bc
       -0.006641891 -0.013015322 -0.047608018 -0.0127838515
0001f0 60 5d c0 bb 16 8b a5 bc b8 86 b2 bc 00 c1 71 ba
       -0.005870506 -0.020207923 -0.021792755 -0.00092221797
000200 f8 d7 78 3d c0 3f 26 3c da 6c 77 3d f4 7a 14 bc
       0.06075284 0.010147035 0.060406543 -0.009062517
000210 4c 04 0c bc 51 4e 27 bd 0a 23 48 bd 20 df dd 3c
       -0.008545946 -0.040846173 -0.04886154 0.027083933
000220 70 28 3f 3c 34 8a fa bc 64 94 40 bd 84 c5 c8 bc
       0.011667356 -0.030583479 -0.047016516 -0.024508245
000230 50 5b 0f bb 9c f1 d6 3c 18 5a 1e 3c 3a 39 8f bc
       -0.0021874495 0.026238255 0.009665035 -0.017483342
000240 32 55 47 3d 90 f3 f1 3b 28 8f 29 bd 86 d6 12 bd
       0.048665233 0.0073837712 -0.04139629 -0.035849117
000250 48 7d 01 bd 3c 37 66 bc b0 d9 a0 3b 7c 00 b1 3c
       -0.031613618 -0.014051255 0.004908763 0.021606676
000260 2b 79 69 bd a0 47 57 bd 74 a7 75 3d cc 39 2e bc
       -0.05700032 -0.05255854 0.05997415 -0.010633897
000270 1a 3d 48 bd 38 2e ba 3c 8e 0e 85 bc a2 e9 61 3d
       -0.048886396 0.022727117 -0.016242292 0.05515445
000280 fe 4f 64 bd 9c 54 42 bd 40 7d 40 ba c2 e9 3a 3d
       -0.05574035 -0.04744397 -0.00073428825 0.045633085
000290 20 92 5d bd 3d f4 74 bd 40 98 cb ba 60 cb d8 3b
       -0.054094434 -0.059803236 -0.0015533045 0.006616041
0002a0 ff 14 46 bd 0e 1c a2 bc 50 ae 3d bd ac 47 cc 3c
       -0.048359867 -0.019788768 -0.046308815 0.02493652
0002b0 96 5f 72 3d f8 00 50 bc 5c d4 b0 3c 08 85 38 3d
       0.05917319 -0.0126955435 0.021585636 0.045048743
0002c0 10 54 f9 3c de 17 22 bd 90 66 d4 3c a0 17 ff ba
       0.030435592 -0.039573543 0.025927812 -0.0019461997
0002d0 d2 98 3c bd 68 b3 e5 bb d2 32 71 bd 60 5a 42 bd
       -0.04604418 -0.0070099123 -0.058886357 -0.04744947
0002e0 00 be 98 bb 22 01 8a bc 60 11 9f 3b e3 bc 5e bd
       -0.0046613216 -0.016846243 0.004854366 -0.054379355
0002f0 2c 2f d9 3c 6c 90 4e bc 7c 43 32 bd 2a c4 ef bc
       0.026511751 -0.012607675 -0.04352139 -0.029268343
000300 58 fa 5a bd 52 a1 42 3d c6 70 09 bd a2 79 48 bd
       -0.053461403 0.04751713 -0.033554815 -0.048944123
000310 60 5a aa 3c dc 9b d6 3c 84 8f ad 3c df bc 78 bd
       0.020795047 0.026197366 0.021186598 -0.060726997
000320 b8 0f 6b 3d 8c 4f 6c bd 66 0d 41 bd e6 fe d9 bc
       0.057388037 -0.05769305 -0.04713192 -0.026610803
000330 7e f3 93 bc 1a d2 4f bd 20 45 c0 bc 68 61 74 bd
       -0.018060442 -0.050737478 -0.023470461 -0.059663206
000340 00 ee 1b 3a 94 af 9b 3c f4 b6 26 bd fd 28 33 bd
       0.00059482455 0.01900462 -0.04070182 -0.04374026
000350 a6 88 0b 3d 80 80 2f ba 00 e0 85 38 08 22 64 bc
       0.034065865 -0.0006694868 6.3836575e-05 -0.013924129
000360 58 a5 d2 3c cb b2 51 bd 9a fc ec bc c4 55 47 bd
       0.025713608 -0.0511959 -0.028929044 -0.048665777
000370 f4 38 33 3d 64 c8 ac 3c 20 30 0c 3d 50 93 68 bc
       0.043755487 0.021091647 0.034225583 -0.014195278
000380 53 6c 16 bd ee e7 10 3d a7 6b 5a bd 54 ae 1a bd
       -0.0367244 0.035377435 -0.05332532 -0.03776391
000390 00 83 31 b9 80 9c 5c 3c 10 5e 79 bc 0d 6a 56 bd
       -0.00016928837 0.013465047 -0.01522018 -0.05234723
0003a0 60 69 7f bd 43 be 5c bd 30 e5 b3 bc 30 ae a5 3b
       -0.062356353 -0.053892385 -0.021959871 0.005056165
0003b0 26 53 29 bd 14 ad 56 3d 1a 65 18 bd 24 1d 53 bd
       -0.041339062 0.052411154 -0.037205793 -0.051541463
0003c0 18 a9 38 3d a0 20 f2 3b 82 aa 60 3d dc 05 e1 bc
       0.045083135 0.007389143 0.05485011 -0.027468614
0003d0 5c d7 ac 3c f0 f8 ab 3c 82 74 a8 bc 94 08 d7 3c
       0.021098785 0.020992726 -0.020563368 0.026249208
0003e0 70 f6 07 3c 52 77 37 3d 40 00 32 3c fe 2b 63 bd
       0.008298501 0.044791527 0.010864317 -0.055461876
0003f0 98 90 2d 3d 40 1c 06 3d 40 b8 52 3b 6c d9 eb 3c
       0.042374223 0.032741785 0.0032153279 0.028790198

network_body.observation_encoder.processors.0.conv_layers.0.bias f4 [16]
000000 fe bc 7b 3d 58 54 dd bb 7a f1 3b 3d 22 22 18 bd
       0.061459534 -0.0067544393 0.045884587 -0.037141927
000010 64 3c b5 3c f4 b5 be 3c cc 7c c8 3c 98 0f 6d 3c
       0.022123523 0.023280121 0.02447357 0.01446905
000020 52 3b 02 3d d4 b8 8e 3c 43 36 15 bd aa 3a e5 bc
       0.031794854 0.017422117 -0.0364287 -0.027982075
000030 d4 75 64 bc 48 2b 7d bc 3e 7b 1f bd f4 25 0f bc
       -0.013944108 -0.015452214 -0.038935892 -0.008737076

network_body.observation_encoder.processors.0.conv_layers.2.weight f4 [32, 16, 4, 4]
000000 82 c2 55 3d e0 4c 6d 3c b2 ba 58 bd 06 b5 7b 3d
       0.05218745 0.01448366 -0.05291242 0.061451934
000010 6c d0 b1 bc 48 b5 1c 3d 18 0e a2 3c c0 0a f0 3c
       -0.021705829 0.03825882 0.019782111 0.029302001
000020 20 20 6a bb b6 eb 8a bc 64 65 f3 bc 59 16 74 bd
       -0.0035724714 -0.016958099 -0.029711433 -0.059591625
000030 dc 4f 34 bc 2e 58 48 bd 74 5a 8f 3c d4 e6 3c 3d
       -0.011005368 -0.04891222 0.017499186 0.046118572
000040 74 95 06 bd 6a 27 0c bd 0a 2b eb bc 21 0e 43 bd
       -0.032857373 -0.034217276 -0.028707046 -0.047620896
000050 fc 21 eb bc 5e 85 67 3d 54 07 31 bd 18 9a a6 3c
       -0.028702728 0.056523673 -0.04321988 0.02033715
000060 18 65 44 bd b4 ea 77 3d 30 bf 38 bd a4 b6 68 bd
       -0.047947973 0.060526565 -0.045104206 -0.056814805
000070 a0 45 3f 3d 68 3c d0 3c c7 69 2d bd 3c 54 bf 3c
       0.04669726 0.025419429 -0.042337205 0.023355596
000080 ce e1 5d 3d a8 6a 20 3d a2 d4 74 3d d2 d3 72 bd
       0.054170422 0.039164215 0.059773095 -0.05928404
000090 ea d4 e3 bc 78 c8 23 3d c8 e0 38 3d 88 51 15 bd
       -0.027811486 0.039986104 0.045136243 -0.036454707
0000a0 98 82 d5 3c 84 32 ce bc 40 db c3 3a f8 34 59 3d
       0.026063249 -0.025170572 0.0014942661 0.05302903
0000b0 2e d0 ac bc d8 43 36 bc 6a 77 0b bd 32 c9 59 bd
       -0.021095362 -0.011124574 -0.03404943 -0.05317039
0000c0 82 d2 16 3d 7a 4d 46 3d e8 f8 a9 3c 78 16 1e 3d
       0.03682185 0.04841373 0.02074857 0.038595647
0000d0 ea 0b 1b bd d8 79 40 bc dc 0c fe 3c 5c 12 33 bd
       -0.03785316 -0.0117478 0.031011991 -0.04371868
0000e0 f1 04 7e bd 94 85 03 3d c0 76 fe ba 69 21 46 bd
       -0.06201643 0.032109812 -0.0019414052 -0.048371706
0000f0 1e 78 0a bd 64 c6 bc 3c 40 df 12 3c 50 f8 6f 3d
       -0.03380596 0.023043819 0.00896436 0.05858642
000100 10 95 0e bd b8 9b 50 3c 00 9c 76 39 84 3d 2a bc
       -0.034810126 0.012732439 0.00023518503 -0.010390643
000110 fc 90 a4 bc 00 3d 4e 3a 62 ca 7d bd a0 aa 9e 3b
       -0.020088665 0.0007867366 -0.061960585 0.0048421174
000120 7f 32 6b bd 68 9a 1c 3d 4c 02 92 3c a0 c2 6f bd
       -0.057421204 0.03823319 0.01782336 -0.05853522
000130 96 89 cd bc 60 9e 11 bd 98 9f 65 bc 4a 1d 53 3d
       -0.02509002 -0.03555143 -0.014015101 0.051541604
000140 7e 60 0f 3d 70 43 76 3c 00 45 bb bb b4 58 34 bd
       0.03500413 0.015030727 -0.0057150126 -0.044029906
000150 14 dc 06 bd 86 83 10 bd 70 7b 7d 3d 98 d1 45 bc
       -0.032924727 -0.03528168 0.061885297 -0.012073897
000160 d7 39 42 bd 90 9e 4a 3d 40 16 07 3c d0 c1 f3 3b
       -0.04741844 0.049467623 0.008245051 0.0074388757
000170 72 3e 5a 3d a4 63 8f 3c d8 f6 87 3c 02 e9 2a 3d
       0.05328221 0.017503567 0.016597196 0.04172612
000180 01 76 61 bd 18 2d 7e bd f0 ec d7 bb b2 fc 25 3d
       -0.055044178 -0.062054724 -0.0065895244 0.040524192
000190 d8 51 6a 3d 2c ba 14 bd 24 42 85 3c 40 70 46 ba
       0.05720696 -0.03631036 0.01626689 -0.0007569827
0001a0 fa b1 2f 3d 48 a2 86 3c e4 90 c0 3c 0a 0f 6b 3d
       0.04289434 0.016434804 0.02350659 0.05738739
0001b0 1e d3 67 3d 1f 66 43 bd fc 51 02 3d 70 e0 03 bb
       0.05659782 -0.047704812 0.031816468 -0.002012279
0001c0 6e 91 d0 bc dc e8 19 bd 88 01 0b 3d 14 4a 00 3d
       -0.025459971 -0.037575588 0.033937007 0.031320646
0001d0 9e 31 3e bd de de 1d bd f4 15 1e 3d f1 fc 2c bd
       -0.046434037 -0.03854262 0.038595155 -0.04223341
0001e0 10 ca 97 bb 30 1c c2 bb bc 45 6d 3d e8 e7 49 3d
       -0.004632242 -0.0059237704 0.057927832 0.04929343
0001f0 d0 41 4c 3c f0 3b f5 3b 08 d6 0d 3c 80 ea 87 3b
       0.012466863 0.0074839517 0.008656986 0.0041478276
000200 a4 27 96 3c 2f cb 4d bd e6 ec 22 bd fe 6d c4 bc
       0.018329449 -0.0502426 -0.039776705 -0.02397823
000210 f0 b0 13 bc e6 f3 96 bc 88 af b0 3c 48 f2 18 3c
       -0.009014353 -0.018426847 0.021568075 0.009335108
000220 d0 49 4d bb 74 a7 14 3d 3c ef 8e 3c 0e 6d 10 3d
       -0.0031324513 0.03629251 0.01744806 0.035260253
000230 cc 11 70 3d 68 b7 5e 3d 28 0b d3 3c 7c db 82 3c
       0.058610722 0.05437413 0.025762156 0.015973799
000240 20 b5 93 bb eb 31 1c bd d8 50 b9 3c c4 b7 03 3d
       -0.0045076758 -0.038133543 0.022621557 0.032157674
000250 2a 11 f4 bc 32 78 c5 bc 5a 31 47 bd 9e aa 63 3d
       -0.02979334 -0.024105165 -0.04863105 0.055582635
000260 b5 7b 19 bd b0 af 0e 3d 70 88 13 3d 60 49 45 bc
       -0.03747149 0.034835517 0.03601879 -0.01204142
000270 3e 09 d5 bc 90 47 ee bb c0 3f be bc 18 0d 90 3c
       -0.026005384 -0.0072717145 -0.023223758 0.017584369
000280 e0 be 70 bb 9b 94 36 bd be 7e 88 bc 3a 72 04 bd
       -0.0036734864 -0.044575315 -0.016661998 -0.032335497
000290 38 d8 53 bd 06 3c 4e 3d 4e de 64 bd f0 98 4f 3d
       -0.051719874 0.05035021 -0.05587607 0.050682962
0002a0 1c 3f 18 3d d4 c6 1f 3d 98 27 69 bd 00 c0 8f 3a
       0.03716956 0.039007977 -0.056922525 0.0010967255
0002b0 9e 12 3f 3d 12 bb 4f 3d 48 49 0f 3c 20 e2 cf 3b
       0.046648614 0.050715514 0.008745499 0.006344095
0002c0 24 50 5b bc cc 67 c2 3c 32 55 28 3d 70 ba 35 bd
       -0.013385806 0.023731135 0.041096874 -0.044367254
0002d0 82 74 cb bc b2 fc 4b 3d c2 51 29 bd 84 b5 4c 3d
       -0.024835829 0.049801536 -0.041337736 0.049977794
0002e0 97 60 64 bd 03 9f 3c bd 7c ad 48 bd 90 0f d8 3b
       -0.055756178 -0.046050083 -0.048993573 0.006593652
0002f0 40 1e 3c 3c ca ca a8 bc 4e 90 4e 3d c9 e5 02 bd
       0.011481822 -0.02060451 0.05043059 -0.03195742
000300 b0 1f a8 bb e8 a5 85 bc 74 88 33 3d 14 dd 76 bd
       -0.0051307306 -0.016314462 0.043831304 -0.06026943
000310 b0 1e 0a 3c 3f 44 5b bd 1c f8 68 bd 60 1b 16 bd
       0.008430168 -0.05353188 -0.05687724 -0.0366472
000320 b0 5a 15 3c 38 a5 37 3c fc dc 18 3d d4 1b b4 bc
       0.00911586 0.011208825 0.037320122 -0.021985926
000330 29 ba 1c bd ae 5d 13 3d 88 23 6c bd 90 2f 44 3c
       -0.038263474 0.03597801 -0.057651073 0.01197423
000340 70 74 14 3d f4 d1 0f bc c0 6d 4b 3b fe bf 57 3d
       0.036243856 -0.008778084 0.0031040758 0.052673332
000350 e8 1a 5b 3c d6 f7 8f bc 38 80 2d 3d 84 44 32 bd
       0.013373114 -0.017574232 0.042358607 -0.043522373
000360 20 a0 3a 3b 10 85 ab 3b 93 2e 78 bd 6c 9b 2a bd
       0.002847679 0.005234368 -0.06059129 -0.041652128
000370 b8 1b 06 3d 20 a4 2b bb ea 34 70 3d 34 a8 6d 3d
       0.03274128 -0.0026190355 0.058644213 0.05802174
000380 a0 6e 8e 3b 00 9c 26 3a b0 f5 4e bc 8f bf 0a bd
       0.0043466836 0.0006355643 -0.012631819 -0.03387409
000390 68 46 11 bc 72 46 5d 3d ec 95 9d bc 80 9f af 3a
       -0.008866884 0.05402226 -0.019236527 0.0013398975
0003a0 05 ba 60 bd 90 ce 7a 3d 90 52 76 3d 60 cf 1b 3c
       -0.054864902 0.06123215 0.06013733 0.009509891
0003b0 02 a8 f8 bc b8 d4 28 bd 80 4e a0 bb 14 dd ef bc
       -0.03035355 -0.04121849 -0.0048921704 -0.029280223
0003c0 d0 09 82 3c ec 9f e1 3c 04 43 c8 bc 00 c3 5b 3c
       0.01587382 0.027542077 -0.024446018 0.013413191
0003d0 58 1a df 3c d8 bc 31 3d a8 0f ba 3c 64 5e 18 3d
       0.027234241 0.043392986 0.022712544 0.037199393
0003e0 58 90 64 bd 9e 84 1a 3d 9d 20 46 bd 58 15 f2 bc
       -0.05580172 0.03772413 -0.048370946 -0.029551193
0003f0 c4 fb eb 3c 4d 22 16 bd 08 74 40 3c e8 ff 7c 3d
       0.028806575 -0.036653806 0.011746414 0.06176749

network_body.observation_encoder.processors.0.conv_layers.2.bias f4 [32]
000000 d8 5e 68 3c 4c 75 e3 bc 48 1b 4b 3c d0 90 29 3d
       0.014182769 -0.027765892 0.012396641 0.04139787
000010 90 cd 33 3c 58 80 18 3d 30 41 4b 3d 68 9b 9a bc
       0.010974303 0.037231773 0.049622715 -0.018872932
000020 00 0d 00 bb 60 c2 09 3b 8e 54 51 bd f0 84 50 bd
       -0.0019538999 0.0021020398 -0.05110603 -0.05090803
000030 6a 81 48 3d 00 50 d4 3c e0 4f 75 3d 0c 0f 50 bc
       0.048951544 0.025917053 0.059890628 -0.0126989
000040 00 18 15 bd 76 a0 3c bd 94 c9 d9 3c 0a a8 68 3d
       -0.03639984 -0.046051465 0.026585378 0.05680088
000050 0c bb fb 3c 8a 3e b9 bc c0 46 0b ba 95 bd 59 bd
       0.03072884 -0.022612829 -0.0005312972 -0.053159315
000060 fe df 0f 3d ea 0c 66 3d f8 fc 96 3c 60 79 99 3b
       0.035125725 0.05616466 0.018431172 0.0046836585
000070 18 98 f4 bb 3e 3b 42 3d 64 dc cb 3c c8 04 e0 3c
       -0.00746442 0.04741978 0.024885364 0.02734603

network_body.observation_encoder.processors.0.dense.0.weight f4 [128, 32]
000000 77 dd 6a 3c 8f 83 57 be af aa 53 3d 7c 5d 70 be
       0.014335028 -0.2104628 0.05167645 -0.23473161
000010 c7 79 27 be 10 7a b3 bd a3 b0 0c 3e 4f b3 48 3e
       -0.16355048 -0.08763516 0.13739257 0.19599651
000020 2b 7e 8d bd 1c 51 c3 3d 7c 59 98 be 8e d4 94 3e
       -0.0690883 0.09536955 -0.2975577 0.29068416
000030 20 01 35 3e 49 98 44 bb 57 58 8b 3e b4 13 25 be
       0.1767621 -0.0029997996 0.27215835 -0.16120797
000040 d5 cd 98 bd 44 b3 24 3e cf 23 81 bd 6e 7c 8e 3e
       -0.07461134 0.1608401 -0.06305658 0.27829307
000050 f3 15 38 be a8 3c 52 3d 46 43 ab 3e 66 38 8a 3e
       -0.17977123 0.051327378 0.33449763 0.26996154
000060 da 3a eb 3c 1b 8b d1 be 9b e0 9b 3d 29 7f 71 3e
       0.028714586 -0.40926442 0.076111995 0.23583664
000070 fa 7d c4 3d 78 c7 35 3f 07 13 c3 3e 59 e1 d9 be
       0.095943406 0.7100749 0.38100454 -0.4255474
000080 64 77 05 bf 97 2f ce bb d4 ac ee bd 13 e0 f6 bd
       -0.521353 -0.0062922942 -0.11654058 -0.120544575
000090 6e d6 b9 be ce 3a 0d bf 98 ca db 3e 1c f3 a2 be
       -0.3629641 -0.55167854 0.42928004 -0.31826103
0000a0 cf fd 9b bd 2f fd 00 3e f5 d7 ef bd 75 00 22 be
       -0.076167695 0.12596582 -0.117111124 -0.15820487
0000b0 79 ab ea 3e 22 a6 b3 3e 85 2d 7f bd 84 6d 9f bd
       0.45833948 0.35087687 -0.06229927 -0.0778456
0000c0 aa 72 48 3e d3 d9 8b 3d fd 98 5a 3d c4 c1 96 be
       0.19574991 0.06828656 0.053368557 -0.29444706
0000d0 56 01 6d be b5 41 d9 be 40 40 9f 3e 33 d4 c7 3c
       -0.23145041 -0.42432943 0.31103706 0.024393177
0000e0 6e d7 d1 bd 94 32 a3 3e ec 63 01 be fb 75 35 bc
       -0.10246168 0.31874526 -0.12635773 -0.011075492
0000f0 9c 5a 5b be 5e ac ca be f2 fb e6 bc 9a c9 a8 be
       -0.21421283 -0.3958463 -0.028196309 -0.3296631
000100 0b 8d 91 bd a4 f0 6e be e4 b1 28 3d f9 e9 95 3e
       -0.0710698 -0.23333985 0.041185275 0.2928007
000110 e5 a7 c7 3d f1 f3 1a bf 7d e3 3d 3e 80 6e 0a 3d
       0.0974882 -0.60528475 0.18543811 0.033796787
000120 2a fd b9 be be e4 61 3e 61 b9 cc be 38 b7 d2 be
       -0.3632596 0.22059914 -0.39985183 -0.4115541
000130 6a f5 c5 bd 1c 42 9a 3e 05 45 c3 bd 0a 17 3b 3e
       -0.0966595 0.30128562 -0.09534649 0.18270507
000140 2e 85 25 bd e8 24 2d be ca 49 19 3e 24 29 00 3e
       -0.040410213 -0.1690861 0.14969555 0.12515694
000150 52 d7 fc be b9 5b 4a bd d5 b1 f2 be c6 2a 48 3d
       -0.49383026 -0.04940388 -0.474013 0.048868917
000160 cb 41 10 be ee 90 55 bd ab e4 e5 3b 1d a3 7c 3d
       -0.14087598 -0.05214017 0.0070157847 0.061678994
000170 39 e3 9b be 37 40 be 3e d7 2c 1e bf db a5 a3 bd
       -0.30446795 0.37158367 -0.6178717 -0.07990619
000180 2f ce f3 3e 3b 5b 13 3d d1 d5 0d 3d f8 d2 66 3e
       0.47618243 0.035975676 0.03462774 0.22541416
000190 6f 59 14 be c8 38 86 bc 68 3d 1d 3d 35 94 93 be
       -0.14487241 -0.016384497 0.03838864 -0.2882401
0001a0 6f 99 82 3e 9c 58 04 3e c1 6d 19 3e 84 7b 1a 3e
       0.25507686 0.12924427 0.14983274 0.1508618
0001b0 c2 9a fa 3e 44 98 89 be e3 f4 06 3e 75 5f 88 be
       0.48946196 -0.26873982 0.13179354 -0.26635328
0001c0 5f ab 0f be 01 7f bb 3e 15 6f a8 be 1e 8d bd bd
       -0.14030217 0.36620334 -0.3289725 -0.092554316
0001d0 3d 1c d2 3e 24 a6 96 3d 88 a4 df bd 7c c1 50 be
       0.4103717 0.073559076 -0.10920054 -0.20386308
0001e0 9d 12 15 3d 4f 4b 4a 3d 8f 49 ed bd a9 8b 4a be
       0.036394704 0.049388226 -0.11586296 -0.19779839
0001f0 45 94 e2 3e 54 e7 69 3e de 7c 14 be 1b fc 45 3c
       0.44253746 0.22842151 -0.14500758 0.012084032
000200 65 4d 32 3f 70 0f a8 bd 89 ec bc 3d 1e d3 a1 3c
       0.69649345 -0.082060695 0.09224803 0.019753989
000210 42 5e 9e be a6 8c ed bd 31 e6 d9 3e f0 6f 56 3d
       -0.30931288 -0.11599092 0.42558435 0.052352846
000220 4b 1d 87 3e 00 d2 18 3e 35 ac c9 3d 9c 13 03 3f
       0.26389536 0.14923859 0.09847299 0.51201797
000230 69 79 43 3d c1 34 90 3d 2e dd 3a 3e be e3 f5 3d
       0.047723208 0.07041312 0.18248436 0.12006329
000240 d3 64 a5 3d c9 cc a6 3d d4 f5 ad bd c6 92 27 3f
       0.08075871 0.081445284 -0.084941536 0.65458333
000250 a7 2c 51 3e 24 57 df bd 48 fe f4 3e 82 ca 45 be
       0.2042719 -0.10905293 0.4785025 -0.19315532
000260 7b 7a 8d bd 27 6f 3b 3e 90 4d 72 3e c4 14 a6 3e
       -0.06908127 0.1830412 0.236624 0.32437718
000270 ec 2c 3d be 85 64 ce 3d 21 1b 38 bd a8 f7 4c 3e
       -0.18474168 0.10077766 -0.044947747 0.20016348
000280 4a 49 6d 3d 7d 93 0d be 21 cb 43 3e 3b a4 a8 be
       0.057931222 -0.13825794 0.19120456 -0.32937798
000290 8f 44 28 3d d8 71 02 be 4e e6 d8 3e 5b c7 a0 3d
       0.041081008 -0.1273874 0.4236321 0.07850524
0002a0 9c 6a 59 3e 56 97 c7 be c0 ab eb 3e 4f 84 c8 3d
       0.21232074 -0.38982648 0.46029472 0.09790861
0002b0 b6 87 6c 3d e3 5f 53 3e 01 e6 a9 3e 92 6c 33 be
       0.05774661 0.20642047 0.33183292 -0.17521885
0002c0 9f bb 15 be a1 63 99 bd 5d c4 ce 3d 5e 3b ac 3e
       -0.14622353 -0.07489706 0.10096047 0.33639044
0002d0 b6 9d ad be be 3b 01 bf b9 6b 8e 3d 69 75 59 be
       -0.33909386 -0.50481784 0.0695414 -0.21236195
0002e0 b5 90 60 3e 13 64 1c bd 75 00 c8 be 76 d8 67 3e
       0.21930201 -0.038181376 -0.3906285 0.22641167
0002f0 1b 7c fa bd 54 48 ee 3c a4 38 9e 3c 4b 79 d2 3d
       -0.122307025 0.029087223 0.019314118 0.10277041
000300 12 51 a7 3d 85 43 04 3d bd 69 e0 be e3 cc 3c 3e
       0.0816976 0.032290954 -0.43830672 0.18437533
000310 70 55 8d 3e 0b 6e 57 3e 37 fb af 3e 38 47 a1 bd
       0.27604246 0.21038072 0.3437135 -0.07874912
000320 a4 8d 03 be 18 7a b2 be fa b0 0c 3e 14 57 67 3e
       -0.12847 -0.34858775 0.13739386 0.22591811
000330 c2 b8 53 3d 9c db a2 3c 4a f9 21 bd 93 b9 2a be
       0.05168987 0.019880109 -0.03954438 -0.16672353
000340 58 d5 8b 3e 2e b5 e6 bc 94 51 47 be d4 a1 83 be
       0.27311206 -0.028162565 -0.19464713 -0.25709403
000350 ae 5e 9b 3e 07 9b 5b bd 40 46 4c 3c 75 d1 49 bd
       0.30345672 -0.053614642 0.012467921 -0.04927202
000360 fa f6 72 3e 20 70 f3 bc c7 65 9f 3d 9a 6f dc 3e
       0.23727027 -0.029716551 0.07783084 0.43053895
000370 1a 1e 25 3f 34 9d 90 3e 1a 7f dc bd 62 95 a1 bd
       0.64499056 0.28244936 -0.1076643 -0.07889821
000380 eb 8a 9e bd 0a ef b8 bd 0a 0f 9c 3d 75 7c b5 be
       -0.0774134 -0.09029968 0.07620056 -0.35446516
000390 04 d3 b9 be d4 45 9c 3e 2e c0 79 be 67 9b 9a be
       -0.36293805 0.30522025 -0.24389717 -0.30196688
0003a0 00 40 b9 be 7c e2 e3 3c a1 e1 17 bf e4 12 49 3d
       -0.3618164 0.027817957 -0.5932866 0.04909028
0003b0 15 96 d6 3c 65 df 2c 3e e1 c2 3f 3e 04 0d b4 bd
       0.026194612 0.16882093 0.18726684 -0.08791545
0003c0 b0 a7 f8 3e 05 92 b0 3e 32 04 b5 bd 1f f7 35 be
       0.48565435 0.34486404 -0.08838691 -0.1777005
0003d0 b6 fd 03 bf e2 d8 4b 3e c7 59 aa 3e 01 3e 58 3e
       -0.5155901 0.19906953 0.3327162 0.21117403
0003e0 a3 14 70 be c4 50 e5 3d d0 cf 00 3e a5 be 8f 3e
       -0.23445372 0.111970454 0.12579274 0.28075138
0003f0 16 0b ad 3d d3 4f 9a 3e a8 b7 21 be f7 83 ba be
       0.0844938 0.30139026 -0.15792716 -0.36428806

network_body.observation_encoder.processors.0.dense.0.bias f4 [128]
000000 00 00 00 00 00 00 00 00 00 00 00 00 00 00 00 00
       0.0 0.0 0.0 0.0
000010 00 00 00 00 00 00 00 00 00 00 00 00 00 00 00 00
       0.0 0.0 0.0 0.0
000020 00 00 00 00 00 00 00 00 00 00 00 00 00 00 00 00
       0.0 0.0 0.0 0.0
000030 00 00 00 00 00 00 00 00 00 00 00 00 00 00 00 00
       0.0 0.0 0.0 0.0
000040 00 00 00 00 00 00 00 00 00 00 00 00 00 00 00 00
       0.0 0.0 0.0 0.0
000050 00 00 00 00 00 00 00 00 00 00 00 00 00 00 00 00
       0.0 0.0 0.0 0.0
000060 00 00 00 00 00 00 00 00 00 00 00 00 00 00 00 00
       0.0 0.0 0.0 0.0
000070 00 00 00 00 00 00 00 00 00 00 00 00 00 00 00 00
       0.0 0.0 0.0 0.0
000080 00 00 00 00 00 00 00 00 00 00 00 00 00 00 00 00
       0.0 0.0 0.0 0.0
000090 00 00 00 00 00 00 00 00 00 00 00 00 00 00 00 00
       0.0 0.0 0.0 0.0
0000a0 00 00 00 00 00 00 00 00 00 00 00 00 00 00 00 00
       0.0 0.0 0.0 0.0
0000b0 00 00 00 00 00 00 00 00 00 00 00 00 00 00 00 00
       0.0 0.0 0.0 0.0
0000c0 00 00 00 00 00 00 00 00 00 00 00 00 00 00 00 00
       0.0 0.0 0.0 0.0
0000d0 00 00 00 00 00 00 00 00 00 00 00 00 00 00 00 00
       0.0 0.0 0.0 0.0
0000e0 00 00 00 00 00 00 00 00 00 00 00 00 00 00 00 00
       0.0 0.0 0.0 0.0
0000f0 00 00 00 00 00 00 00 00 00 00 00 00 00 00 00 00
       0.0 0.0 0.0 0.0
000100 00 00 00 00 00 00 00 00 00 00 00 00 00 00 00 00
       0.0 0.0 0.0 0.0
000110 00 00 00 00 00 00 00 00 00 00 00 00 00 00 00 00
       0.0 0.0 0.0 0.0
000120 00 00 00 00 00 00 00 00 00 00 00 00 00 00 00 00
       0.0 0.0 0.0 0.0
000130 00 00 00 00 00 00 00 00 00 00 00 00 00 00 00 00
       0.0 0.0 0.0 0.0
000140 00 00 00 00 00 00 00 00 00 00 00 00 00 00 00 00
       0.0 0.0 0.0 0.0
000150 00 00 00 00 00 00 00 00 00 00 00 00 00 00 00 00
       0.0 0.0 0.0 0.0
000160 00 00 00 00 00 00 00 00 00 00 00 00 00 00 00 00
       0.0 0.0 0.0 0.0
000170 00 00 00 00 00 00 00 00 00 00 00 00 00 00 00 00
       0.0 0.0 0.0 0.0
000180 00 00 00 00 00 00 00 00 00 00 00 00 00 00 00 00
       0.0 0.0 0.0 0.0
000190 00 00 00 00 00 00 00 00 00 00 00 00 00 00 00 00
       0.0 0.0 0.0 0.0
0001a0 00 00 00 00 00 00 00 00 00 00 00 00 00 00 00 00
       0.0 0.0 0.0 0.0
0001b0 00 00 00 00 00 00 00 00 00 00 00 00 00 00 00 00
       0.0 0.0 0.0 0.0
0001c0 00 00 00 00 00 00 00 00 00 00 00 00 00 00 00 00
       0.0 0.0 0.0 0.0
0001d0 00 00 00 00 00 00 00 00 00 00 00 00 00 00 00 00
       0.0 0.0 0.0 0.0
0001e0 00 00 00 00 00 00 00 00 00 00 00 00 00 00 00 00
       0.0 0.0 0.0 0.0
0001f0 00 00 00 00 00 00 00 00 00 00 00 00 00 00 00 00
       0.0 0.0 0.0 0.0

network_body.processors.0.conv_layers.0.weight f4 [16, 4, 8, 8]
000000 b4 de 7a 3d 3e e4 a8 bc 20 1c 69 3b 00 a0 1a bb
       0.061247543 -0.020616647 0.0035569742 -0.0023593903
000010 a0 e8 05 bb fb ee 55 bd 20 78 17 bb a0 fd 78 bb
       -0.0020432845 -0.052229863 -0.0023112372 -0.003799297
000020 56 36 ba bc 58 4d b1 bc 06 86 27 3d f8 a9 eb 3c
       -0.022730988 -0.021643326 0.0408993 0.02876757
000030 fe d2 1f 3d e0 db 75 bb de 24 26 3d c4 bf 09 bc
       0.039019577 -0.003751509 0.040562503 -0.008407537
000040 8c 0b 01 3d 26 ac 92 bc 66 a3 61 3d 8e 78 06 3d
       0.031505153 -0.017904352 0.05508747 0.032829814
000050 06 ce 1c 3d a0 a1 98 3b 2e 1e 1e bd 46 77 6c 3d
       0.038282417 0.004657939 -0.038603 0.057730936
000060 76 17 2f 3d 1a f0 5e bd fe 73 05 3d ef 85 7a bd
       0.042746983 -0.054428197 0.032581322 -0.061162885
000070 3a cc ab bc 20 ea 43 3d 70 27 72 bc c0 e5 40 bb
       -0.020971406 0.0478307 -0.01477991 -0.0029433817
000080 6e 90 5f bd b4 08 6b 3d ee 6c 7b bd ce 92 77 3d
       -0.0545811 0.057381347 -0.06138318 0.06044274
000090 08 07 ad bb ca ae 13 3d 3c e5 06 bd a0 2a 62 bc
       -0.005280379 0.036055364 -0.03293346 -0.013804108
0000a0 5e 35 35 3d 50 19 2a bd b2 24 85 bc 40 04 f5 3b
       0.044240348 -0.041528046 -0.01625285 0.0074773133
0000b0 d2 bc 98 bc 20 d6 ae 3b 18 48 4b bc c0 77 b2 3c
       -0.018644724 0.0053355843 -0.012407325 0.021785617
0000c0 80 cb 8b 3c c4 fe f0 3c 5e 3d a3 bc 00 d9 34 3d
       0.01706481 0.029418357 -0.019926723 0.04415226
0000d0 c8 00 3c 3c 14 8e 45 bc 20 29 22 bc d4 fa 09 bd
       0.011474796 -0.0120578 -0.0098975 -0.033686474
0000e0 a4 ed 8a 3c 7c 72 69 3d 53 56 05 bd dc dd 9c 3c
       0.016959019 0.056993946 -0.03255303 0.01914876
0000f0 6c e7 bc 3c 44 df 69 3d d2 1d 0f bd 72 4b 52 bd
       0.02305957 0.05709769 -0.03494055 -0.05134148
000100 2a f6 ff bc 14 3c af bc fe 56 31 3d 9e e4 4d 3d
       -0.03124531 -0.021390952 0.043295853 0.050266854
000110 d6 42 23 bd 08 ee a1 bb 28 95 b0 bc f0 77 8f bc
       -0.03985866 -0.0049417056 -0.021555498 -0.017513245
000120 48 9a 37 3c 64 7a 8a 3c 68 11 5a bc a8 16 af bb
       0.011206217 0.016904064 -0.013309814 -0.005343277
000130 72 a9 79 3d 14 32 82 bc b2 95 5a bd 78 f5 0d bc
       0.06095261 -0.01589302 -0.053365417 -0.008664481
000140 90 e0 e5 3b c8 11 24 3d d0 23 be 3b f0 01 3e bb
       0.0070152953 0.04005602 0.005802609 -0.0028992854
000150 98 54 e0 bc 68 26 a7 3c aa 80 47 bd f2 70 45 bd
       -0.027384087 0.020404056 -0.048706688 -0.048203416
000160 84 34 f0 3c c8 37 9b bc 88 c2 bc 3c bf 8c 49 bd
       0.029321916 -0.018947497 0.023041978 -0.04920649
000170 64 b9 5c 3d 61 1f 48 bd cc 3e b3 3c 20 d3 db 3b
       0.05388774 -0.04885805 0.02188053 0.0067085177
000180 98 90 74 3c b2 36 7d 3d a8 81 57 3d 34 d8 41 3d
       0.014927052 0.06181974 0.052613884 0.047325328
000190 02 74 4c 3d 4c 99 13 bd 5c c0 4c 3d dc 05 7c 3d
       0.04991532 -0.036034867 0.049988136 0.061529025
0001a0 74 1b 02 bd 02 b5 77 3d fe 47 28 bd fc 59 4b 3d
       -0.031764463 0.060475357 -0.041084282 0.049646363
0001b0 28 6c 59 3c 3c 9d 14 bc 02 37 3a bd 14 d6 31 bd
       0.013270415 -0.009070691 -0.045462616 -0.04341705
0001c0 4f c9 6b bd 18 eb e4 bb 78 93 e1 3c 48 53 c8 3c
       -0.05756503 -0.006986033 0.027536139 0.024453774
0001d0 28 0f 6a 3d 70 9e 8b bb c8 0b 03 bd 66 fe 07 3d
       0.05714336 -0.0042608306 -0.031993657 0.033201598
0001e0 38 a4 d9 bb 38 3e 55 bc a0 00 43 bd 5c 73 51 bc
       -0.006641891 -0.013015322 -0.047608018 -0.0127838515
0001f0 60 5d c0 bb 16 8b a5 bc b8 86 b2 bc 00 c1 71 ba
       -0.005870506 -0.020207923 -0.021792755 -0.00092221797
000200 f8 d7 78 3d c0 3f 26 3c da 6c 77 3d f4 7a 14 bc
       0.06075284 0.010147035 0.060406543 -0.009062517
000210 4c 04 0c bc 51 4e 27 bd 0a 23 48 bd 20 df dd 3c
       -0.008545946 -0.040846173 -0.04886154 0.027083933
000220 70 28 3f 3c 34 8a fa bc 64 94 40 bd 84 c5 c8 bc
       0.011667356 -0.030583479 -0.047016516 -0.024508245
000230 50 5b 0f bb 9c f1 d6 3c 18 5a 1e 3c 3a 39 8f bc
       -0.0021874495 0.026238255 0.009665035 -0.017483342
000240 32 55 47 3d 90 f3 f1 3b 28 8f 29 bd 86 d6 12 bd
       0.048665233 0.0073837712 -0.04139629 -0.035849117
000250 48 7d 01 bd 3c 37 66 bc b0 d9 a0 3b 7c 00 b1 3c
       -0.031613618 -0.014051255 0.004908763 0.021606676
000260 2b 79 69 bd a0 47 57 bd 74 a7 75 3d cc 39 2e bc
       -0.05700032 -0.05255854 0.05997415 -0.010633897
000270 1a 3d 48 bd 38 2e ba 3c 8e 0e 85 bc a2 e9 61 3d
       -0.048886396 0.022727117 -0.016242292 0.05515445
000280 fe 4f 64 bd 9c 54 42 bd 40 7d 40 ba c2 e9 3a 3d
       -0.05574035 -0.04744397 -0.00073428825 0.045633085
000290 20 92 5d bd 3d f4 74 bd 40 98 cb ba 60 cb d8 3b
       -0.054094434 -0.059803236 -0.0015533045 0.006616041
0002a0 ff 14 46 bd 0e 1c a2 bc 50 ae 3d bd ac 47 cc 3c
       -0.048359867 -0.019788768 -0.046308815 0.02493652
0002b0 96 5f 72 3d f8 00 50 bc 5c d4 b0 3c 08 85 38 3d
       0.05917319 -0.0126955435 0.021585636 0.045048743
0002c0 10 54 f9 3c de 17 22 bd 90 66 d4 3c a0 17 ff ba
       0.030435592 -0.039573543 0.025927812 -0.0019461997
0002d0 d2 98 3c bd 68 b3 e5 bb d2 32 71 bd 60 5a 42 bd
       -0.04604418 -0.0070099123 -0.058886357 -0.04744947
0002e0 00 be 98 bb 22 01 8a bc 60 11 9f 3b e3 bc 5e bd
       -0.0046613216 -0.016846243 0.004854366 -0.054379355
0002f0 2c 2f d9 3c 6c 90 4e bc 7c 43 32 bd 2a c4 ef bc
       0.026511751 -0.012607675 -0.04352139 -0.029268343
000300 58 fa 5a bd 52 a1 42 3d c6 70 09 bd a2 79 48 bd
       -0.053461403 0.04751713 -0.033554815 -0.048944123
000310 60 5a aa 3c dc 9b d6 3c 84 8f ad 3c df bc 78 bd
       0.020795047 0.026197366 0.021186598 -0.060726997
000320 b8 0f 6b 3d 8c 4f 6c bd 66 0d 41 bd e6 fe d9 bc
       0.057388037 -0.05769305 -0.04713192 -0.026610803
000330 7e f3 93 bc 1a d2 4f bd 20 45 c0 bc 68 61 74 bd
       -0.018060442 -0.050737478 -0.023470461 -0.059663206
000340 00 ee 1b 3a 94 af 9b 3c f4 b6 26 bd fd 28 33 bd
       0.00059482455 0.01900462 -0.04070182 -0.04374026
000350 a6 88 0b 3d 80 80 2f ba 00 e0 85 38 08 22 64 bc
       0.034065865 -0.0006694868 6.3836575e-05 -0.013924129
000360 58 a5 d2 3c cb b2 51 bd 9a fc ec bc c4 55 47 bd
       0.025713608 -0.0511959 -0.028929044 -0.048665777
000370 f4 38 33 3d 64 c8 ac 3c 20 30 0c 3d 50 93 68 bc
       0.043755487 0.021091647 0.034225583 -0.014195278
000380 53 6c 16 bd ee e7 10 3d a7 6b 5a bd 54 ae 1a bd
       -0.0367244 0.035377435 -0.05332532 -0.03776391
000390 00 83 31 b9 80 9c 5c 3c 10 5e 79 bc 0d 6a 56 bd
       -0.00016928837 0.013465047 -0.01522018 -0.05234723
0003a0 60 69 7f bd 43 be 5c bd 30 e5 b3 bc 30 ae a5 3b
       -0.062356353 -0.053892385 -0.021959871 0.005056165
0003b0 26 53 29 bd 14 ad 56 3d 1a 65 18 bd 24 1d 53 bd
       -0.041339062 0.052411154 -0.037205793 -0.051541463
0003c0 18 a9 38 3d a0 20 f2 3b 82 aa 60 3d dc 05 e1 bc
       0.045083135 0.007389143 0.05485011 -0.027468614
0003d0 5c d7 ac 3c f0 f8 ab 3c 82 74 a8 bc 94 08 d7 3c
       0.021098785 0.020992726 -0.020563368 0.026249208
0003e0 70 f6 07 3c 52 77 37 3d 40 00 32 3c fe 2b 63 bd
       0.008298501 0.044791527 0.010864317 -0.055461876
0003f0 98 90 2d 3d 40 1c 06 3d 40 b8 52 3b 6c d9 eb 3c
       0.042374223 0.032741785 0.0032153279 0.028790198

network_body.processors.0.conv_layers.0.bias f4 [16]
000000 fe bc 7b 3d 58 54 dd bb 7a f1 3b 3d 22 22 18 bd
       0.061459534 -0.0067544393 0.045884587 -0.037141927
000010 64 3c b5 3c f4 b5 be 3c cc 7c c8 3c 98 0f 6d 3c
       0.022123523 0.023280121 0.02447357 0.01446905
000020 52 3b 02 3d d4 b8 8e 3c 43 36 15 bd aa 3a e5 bc
       0.031794854 0.017422117 -0.0364287 -0.027982075
000030 d4 75 64 bc 48 2b 7d bc 3e 7b 1f bd f4 25 0f bc
       -0.013944108 -0.015452214 -0.038935892 -0.008737076

network_body.processors.0.conv_layers.2.weight f4 [32, 16, 4, 4]
000000 82 c2 55 3d e0 4c 6d 3c b2 ba 58 bd 06 b5 7b 3d
       0.05218745 0.01448366 -0.05291242 0.061451934
000010 6c d0 b1 bc 48 b5 1c 3d 18 0e a2 3c c0 0a f0 3c
       -0.021705829 0.03825882 0.019782111 0.029302001
000020 20 20 6a bb b6 eb 8a bc 64 65 f3 bc 59 16 74 bd
       -0.0035724714 -0.016958099 -0.029711433 -0.059591625
000030 dc 4f 34 bc 2e 58 48 bd 74 5a 8f 3c d4 e6 3c 3d
       -0.011005368 -0.04891222 0.017499186 0.046118572
000040 74 95 06 bd 6a 27 0c bd 0a 2b eb bc 21 0e 43 bd
       -0.032857373 -0.034217276 -0.028707046 -0.047620896
000050 fc 21 eb bc 5e 85 67 3d 54 07 31 bd 18 9a a6 3c
       -0.028702728 0.056523673 -0.04321988 0.02033715
000060 18 65 44 bd b4 ea 77 3d 30 bf 38 bd a4 b6 68 bd
       -0.047947973 0.060526565 -0.045104206 -0.056814805
000070 a0 45 3f 3d 68 3c d0 3c c7 69 2d bd 3c 54 bf 3c
       0.04669726 0.025419429 -0.042337205 0.023355596
000080 ce e1 5d 3d a8 6a 20 3d a2 d4 74 3d d2 d3 72 bd
       0.054170422 0.039164215 0.059773095 -0.05928404
000090 ea d4 e3 bc 78 c8 23 3d c8 e0 38 3d 88 51 15 bd
       -0.027811486 0.039986104 0.045136243 -0.036454707
0000a0 98 82 d5 3c 84 32 ce bc 40 db c3 3a f8 34 59 3d
       0.026063249 -0.025170572 0.0014942661 0.05302903
0000b0 2e d0 ac bc d8 43 36 bc 6a 77 0b bd 32 c9 59 bd
       -0.021095362 -0.011124574 -0.03404943 -0.05317039
0000c0 82 d2 16 3d 7a 4d 46 3d e8 f8 a9 3c 78 16 1e 3d
       0.03682185 0.04841373 0.02074857 0.038595647
0000d0 ea 0b 1b bd d8 79 40 bc dc 0c fe 3c 5c 12 33 bd
       -0.03785316 -0.0117478 0.031011991 -0.04371868
0000e0 f1 04 7e bd 94 85 03 3d c0 76 fe ba 69 21 46 bd
       -0.06201643 0.032109812 -0.0019414052 -0.048371706
0000f0 1e 78 0a bd 64 c6 bc 3c 40 df 12 3c 50 f8 6f 3d
       -0.03380596 0.023043819 0.00896436 0.05858642
000100 10 95 0e bd b8 9b 50 3c 00 9c 76 39 84 3d 2a bc
       -0.034810126 0.012732439 0.00023518503 -0.010390643
000110 fc 90 a4 bc 00 3d 4e 3a 62 ca 7d bd a0 aa 9e 3b
       -0.020088665 0.0007867366 -0.061960585 0.0048421174
000120 7f 32 6b bd 68 9a 1c 3d 4c 02 92 3c a0 c2 6f bd
       -0.057421204 0.03823319 0.01782336 -0.05853522
000130 96 89 cd bc 60 9e 11 bd 98 9f 65 bc 4a 1d 53 3d
       -0.02509002 -0.03555143 -0.014015101 0.051541604
000140 7e 60 0f 3d 70 43 76 3c 00 45 bb bb b4 58 34 bd
       0.03500413 0.015030727 -0.0057150126 -0.044029906
000150 14 dc 06 bd 86 83 10 bd 70 7b 7d 3d 98 d1 45 bc
       -0.032924727 -0.03528168 0.061885297 -0.012073897
000160 d7 39 42 bd 90 9e 4a 3d 40 16 07 3c d0 c1 f3 3b
       -0.04741844 0.049467623 0.008245051 0.0074388757
000170 72 3e 5a 3d a4 63 8f 3c d8 f6 87 3c 02 e9 2a 3d
       0.05328221 0.017503567 0.016597196 0.04172612
000180 01 76 61 bd 18 2d 7e bd f0 ec d7 bb b2 fc 25 3d
       -0.055044178 -0.062054724 -0.0065895244 0.040524192
000190 d8 51 6a 3d 2c ba 14 bd 24 42 85 3c 40 70 46 ba
       0.05720696 -0.03631036 0.01626689 -0.0007569827
0001a0 fa b1 2f 3d 48 a2 86 3c e4 90 c0 3c 0a 0f 6b 3d
       0.04289434 0.016434804 0.02350659 0.05738739
0001b0 1e d3 67 3d 1f 66 43 bd fc 51 02 3d 70 e0 03 bb
       0.05659782 -0.047704812 0.031816468 -0.002012279
0001c0 6e 91 d0 bc dc e8 19 bd 88 01 0b 3d 14 4a 00 3d
       -0.025459971 -0.037575588 0.033937007 0.031320646
0001d0 9e 31 3e bd de de 1d bd f4 15 1e 3d f1 fc 2c bd
       -0.046434037 -0.03854262 0.038595155 -0.04223341
0001e0 10 ca 97 bb 30 1c c2 bb bc 45 6d 3d e8 e7 49 3d
       -0.004632242 -0.0059237704 0.057927832 0.04929343
0001f0 d0 41 4c 3c f0 3b f5 3b 08 d6 0d 3c 80 ea 87 3b
       0.012466863 0.0074839517 0.008656986 0.0041478276
000200 a4 27 96 3c 2f cb 4d bd e6 ec 22 bd fe 6d c4 bc
       0.018329449 -0.0502426 -0.039776705 -0.02397823
000210 f0 b0 13 bc e6 f3 96 bc 88 af b0 3c 48 f2 18 3c
       -0.009014353 -0.018426847 0.021568075 0.009335108
000220 d0 49 4d bb 74 a7 14 3d 3c ef 8e 3c 0e 6d 10 3d
       -0.0031324513 0.03629251 0.01744806 0.035260253
000230 cc 11 70 3d 68 b7 5e 3d 28 0b d3 3c 7c db 82 3c
       0.058610722 0.05437413 0.025762156 0.015973799
000240 20 b5 93 bb eb 31 1c bd d8 50 b9 3c c4 b7 03 3d
       -0.0045076758 -0.038133543 0.022621557 0.032157674
000250 2a 11 f4 bc 32 78 c5 bc 5a 31 47 bd 9e aa 63 3d
       -0.02979334 -0.024105165 -0.04863105 0.055582635
000260 b5 7b 19 bd b0 af 0e 3d 70 88 13 3d 60 49 45 bc
       -0.03747149 0.034835517 0.03601879 -0.01204142
000270 3e 09 d5 bc 90 47 ee bb c0 3f be bc 18 0d 90 3c
       -0.026005384 -0.0072717145 -0.023223758 0.017584369
000280 e0 be 70 bb 9b 94 36 bd be 7e 88 bc 3a 72 04 bd
       -0.0036734864 -0.044575315 -0.016661998 -0.032335497
000290 38 d8 53 bd 06 3c 4e 3d 4e de 64 bd f0 98 4f 3d
       -0.051719874 0.05035021 -0.05587607 0.050682962
0002a0 1c 3f 18 3d d4 c6 1f 3d 98 27 69 bd 00 c0 8f 3a
       0.03716956 0.039007977 -0.056922525 0.0010967255
0002b0 9e 12 3f 3d 12 bb 4f 3d 48 49 0f 3c 20 e2 cf 3b
       0.046648614 0.050715514 0.008745499 0.006344095
0002c0 24 50 5b bc cc 67 c2 3c 32 55 28 3d 70 ba 35 bd
       -0.013385806 0.023731135 0.041096874 -0.044367254
0002d0 82 74 cb bc b2 fc 4b 3d c2 51 29 bd 84 b5 4c 3d
       -0.024835829 0.049801536 -0.041337736 0.049977794
0002e0 97 60 64 bd 03 9f 3c bd 7c ad 48 bd 90 0f d8 3b
       -0.055756178 -0.046050083 -0.048993573 0.006593652
0002f0 40 1e 3c 3c ca ca a8 bc 4e 90 4e 3d c9 e5 02 bd
       0.011481822 -0.02060451 0.05043059 -0.03195742
000300 b0 1f a8 bb e8 a5 85 bc 74 88 33 3d 14 dd 76 bd
       -0.0051307306 -0.016314462 0.043831304 -0.06026943
000310 b0 1e 0a 3c 3f 44 5b bd 1c f8 68 bd 60 1b 16 bd
       0.008430168 -0.05353188 -0.05687724 -0.0366472
000320 b0 5a 15 3c 38 a5 37 3c fc dc 18 3d d4 1b b4 bc
       0.00911586 0.011208825 0.037320122 -0.021985926
000330 29 ba 1c bd ae 5d 13 3d 88 23 6c bd 90 2f 44 3c
       -0.038263474 0.03597801 -0.057651073 0.01197423
000340 70 74 14 3d f4 d1 0f bc c0 6d 4b 3b fe bf 57 3d
       0.036243856 -0.008778084 0.0031040758 0.052673332
000350 e8 1a 5b 3c d6 f7 8f bc 38 80 2d 3d 84 44 32 bd
       0.013373114 -0.017574232 0.042358607 -0.043522373
000360 20 a0 3a 3b 10 85 ab 3b 93 2e 78 bd 6c 9b 2a bd
       0.002847679 0.005234368 -0.06059129 -0.041652128
000370 b8 1b 06 3d 20 a4 2b bb ea 34 70 3d 34 a8 6d 3d
       0.03274128 -0.0026190355 0.058644213 0.05802174
000380 a0 6e 8e 3b 00 9c 26 3a b0 f5 4e bc 8f bf 0a bd
       0.0043466836 0.0006355643 -0.012631819 -0.03387409
000390 68 46 11 bc 72 46 5d 3d ec 95 9d bc 80 9f af 3a
       -0.008866884 0.05402226 -0.019236527 0.0013398975
0003a0 05 ba 60 bd 90 ce 7a 3d 90 52 76 3d 60 cf 1b 3c
       -0.054864902 0.06123215 0.06013733 0.009509891
0003b0 02 a8 f8 bc b8 d4 28 bd 80 4e a0 bb 14 dd ef bc
       -0.03035355 -0.04121849 -0.0048921704 -0.029280223
0003c0 d0 09 82 3c ec 9f e1 3c 04 43 c8 bc 00 c3 5b 3c
       0.01587382 0.027542077 -0.024446018 0.013413191
0003d0 58 1a df 3c d8 bc 31 3d a8 0f ba 3c 64 5e 18 3d
       0.027234241 0.043392986 0.022712544 0.037199393
0003e0 58 90 64 bd 9e 84 1a 3d 9d 20 46 bd 58 15 f2 bc
       -0.05580172 0.03772413 -0.048370946 -0.029551193
0003f0 c4 fb eb 3c 4d 22 16 bd 08 74 40 3c e8 ff 7c 3d
       0.028806575 -0.036653806 0.011746414 0.06176749

network_body.processors.0.conv_layers.2.bias f4 [32]
000000 d8 5e 68 3c 4c 75 e3 bc 48 1b 4b 3c d0 90 29 3d
       0.014182769 -0.027765892 0.012396641 0.04139787
000010 90 cd 33 3c 58 80 18 3d 30 41 4b 3d 68 9b 9a bc
       0.010974303 0.037231773 0.049622715 -0.018872932
000020 00 0d 00 bb 60 c2 09 3b 8e 54 51 bd f0 84 50 bd
       -0.0019538999 0.0021020398 -0.05110603 -0.05090803
000030 6a 81 48 3d 00 50 d4 3c e0 4f 75 3d 0c 0f 50 bc
       0.048951544 0.025917053 0.059890628 -0.0126989
000040 00 18 15 bd 76 a0 3c bd 94 c9 d9 3c 0a a8 68 3d
       -0.03639984 -0.046051465 0.026585378 0.05680088
000050 0c bb fb 3c 8a 3e b9 bc c0 46 0b ba 95 bd 59 bd
       0.03072884 -0.022612829 -0.0005312972 -0.053159315
000060 fe df 0f 3d ea 0c 66 3d f8 fc 96 3c 60 79 99 3b
       0.035125725 0.05616466 0.018431172 0.0046836585
000070 18 98 f4 bb 3e 3b 42 3d 64 dc cb 3c c8 04 e0 3c
       -0.00746442 0.04741978 0.024885364 0.02734603

network_body.processors.0.dense.0.weight f4 [128, 32]
000000 77 dd 6a 3c 8f 83 57 be af aa 53 3d 7c 5d 70 be
       0.014335028 -0.2104628 0.05167645 -0.23473161
000010 c7 79 27 be 10 7a b3 bd a3 b0 0c 3e 4f b3 48 3e
       -0.16355048 -0.08763516 0.13739257 0.19599651
000020 2b 7e 8d bd 1c 51 c3 3d 7c 59 98 be 8e d4 94 3e
       -0.0690883 0.09536955 -0.2975577 0.29068416
000030 20 01 35 3e 49 98 44 bb 57 58 8b 3e b4 13 25 be
       0.1767621 -0.0029997996 0.27215835 -0.16120797
000040 d5 cd 98 bd 44 b3 24 3e cf 23 81 bd 6e 7c 8e 3e
       -0.07461134 0.1608401 -0.06305658 0.27829307
000050 f3 15 38 be a8 3c 52 3d 46 43 ab 3e 66 38 8a 3e
       -0.17977123 0.051327378 0.33449763 0.26996154
000060 da 3a eb 3c 1b 8b d1 be 9b e0 9b 3d 29 7f 71 3e
       0.028714586 -0.40926442 0.076111995 0.23583664
000070 fa 7d c4 3d 78 c7 35 3f 07 13 c3 3e 59 e1 d9 be
       0.095943406 0.7100749 0.38100454 -0.4255474
000080 64 77 05 bf 97 2f ce bb d4 ac ee bd 13 e0 f6 bd
       -0.521353 -0.0062922942 -0.11654058 -0.120544575
000090 6e d6 b9 be ce 3a 0d bf 98 ca db 3e 1c f3 a2 be
       -0.3629641 -0.55167854 0.42928004 -0.31826103
0000a0 cf fd 9b bd 2f fd 00 3e f5 d7 ef bd 75 00 22 be
       -0.076167695 0.12596582 -0.117111124 -0.15820487
0000b0 79 ab ea 3e 22 a6 b3 3e 85 2d 7f bd 84 6d 9f bd
       0.45833948 0.35087687 -0.06229927 -0.0778456
0000c0 aa 72 48 3e d3 d9 8b 3d fd 98 5a 3d c4 c1 96 be
       0.19574991 0.06828656 0.053368557 -0.29444706
0000d0 56 01 6d be b5 41 d9 be 40 40 9f 3e 33 d4 c7 3c
       -0.23145041 -0.42432943 0.31103706 0.024393177
0000e0 6e d7 d1 bd 94 32 a3 3e ec 63 01 be fb 75 35 bc
       -0.10246168 0.31874526 -0.12635773 -0.011075492
0000f0 9c 5a 5b be 5e ac ca be f2 fb e6 bc 9a c9 a8 be
       -0.21421283 -0.3958463 -0.028196309 -0.3296631
000100 0b 8d 91 bd a4 f0 6e be e4 b1 28 3d f9 e9 95 3e
       -0.0710698 -0.23333985 0.041185275 0.2928007
000110 e5 a7 c7 3d f1 f3 1a bf 7d e3 3d 3e 80 6e 0a 3d
       0.0974882 -0.60528475 0.18543811 0.033796787
000120 2a fd b9 be be e4 61 3e 61 b9 cc be 38 b7 d2 be
       -0.3632596 0.22059914 -0.39985183 -0.4115541
000130 6a f5 c5 bd 1c 42 9a 3e 05 45 c3 bd 0a 17 3b 3e
       -0.0966595 0.30128562 -0.09534649 0.18270507
000140 2e 85 25 bd e8 24 2d be ca 49 19 3e 24 29 00 3e
       -0.040410213 -0.1690861 0.14969555 0.12515694
000150 52 d7 fc be b9 5b 4a bd d5 b1 f2 be c6 2a 48 3d
       -0.49383026 -0.04940388 -0.474013 0.048868917
000160 cb 41 10 be ee 90 55 bd ab e4 e5 3b 1d a3 7c 3d
       -0.14087598 -0.05214017 0.0070157847 0.061678994
000170 39 e3 9b be 37 40 be 3e d7 2c 1e bf db a5 a3 bd
       -0.30446795 0.37158367 -0.6178717 -0.07990619
000180 2f ce f3 3e 3b 5b 13 3d d1 d5 0d 3d f8 d2 66 3e
       0.47618243 0.035975676 0.03462774 0.22541416
000190 6f 59 14 be c8 38 86 bc 68 3d 1d 3d 35 94 93 be
       -0.14487241 -0.016384497 0.03838864 -0.2882401
0001a0 6f 99 82 3e 9c 58 04 3e c1 6d 19 3e 84 7b 1a 3e
       0.25507686 0.12924427 0.14983274 0.1508618
0001b0 c2 9a fa 3e 44 98 89 be e3 f4 06 3e 75 5f 88 be
       0.48946196 -0.26873982 0.13179354 -0.26635328
0001c0 5f ab 0f be 01 7f bb 3e 15 6f a8 be 1e 8d bd bd
       -0.14030217 0.36620334 -0.3289725 -0.092554316
0001d0 3d 1c d2 3e 24 a6 96 3d 88 a4 df bd 7c c1 50 be
       0.4103717 0.073559076 -0.10920054 -0.20386308
0001e0 9d 12 15 3d 4f 4b 4a 3d 8f 49 ed bd a9 8b 4a be
       0.036394704 0.049388226 -0.11586296 -0.19779839
0001f0 45 94 e2 3e 54 e7 69 3e de 7c 14 be 1b fc 45 3c
       0.44253746 0.22842151 -0.14500758 0.012084032
000200 65 4d 32 3f 70 0f a8 bd 89 ec bc 3d 1e d3 a1 3c
       0.69649345 -0.082060695 0.09224803 0.019753989
000210 42 5e 9e be a6 8c ed bd 31 e6 d9 3e f0 6f 56 3d
       -0.30931288 -0.11599092 0.42558435 0.052352846
000220 4b 1d 87 3e 00 d2 18 3e 35 ac c9 3d 9c 13 03 3f
       0.26389536 0.14923859 0.09847299 0.51201797
000230 69 79 43 3d c1 34 90 3d 2e dd 3a 3e be e3 f5 3d
       0.047723208 0.07041312 0.18248436 0.12006329
000240 d3 64 a5 3d c9 cc a6 3d d4 f5 ad bd c6 92 27 3f
       0.08075871 0.081445284 -0.084941536 0.65458333
000250 a7 2c 51 3e 24 57 df bd 48 fe f4 3e 82 ca 45 be
       0.2042719 -0.10905293 0.4785025 -0.19315532
000260 7b 7a 8d bd 27 6f 3b 3e 90 4d 72 3e c4 14 a6 3e
       -0.06908127 0.1830412 0.236624 0.32437718
000270 ec 2c 3d be 85 64 ce 3d 21 1b 38 bd a8 f7 4c 3e
       -0.18474168 0.10077766 -0.044947747 0.20016348
000280 4a 49 6d 3d 7d 93 0d be 21 cb 43 3e 3b a4 a8 be
       0.057931222 -0.13825794 0.19120456 -0.32937798
000290 8f 44 28 3d d8 71 02 be 4e e6 d8 3e 5b c7 a0 3d
       0.041081008 -0.1273874 0.4236321 0.07850524
0002a0 9c 6a 59 3e 56 97 c7 be c0 ab eb 3e 4f 84 c8 3d
       0.21232074 -0.38982648 0.46029472 0.09790861
0002b0 b6 87 6c 3d e3 5f 53 3e 01 e6 a9 3e 92 6c 33 be
       0.05774661 0.20642047 0.33183292 -0.17521885
0002c0 9f bb 15 be a1 63 99 bd 5d c4 ce 3d 5e 3b ac 3e
       -0.14622353 -0.07489706 0.10096047 0.33639044
0002d0 b6 9d ad be be 3b 01 bf b9 6b 8e 3d 69 75 59 be
       -0.33909386 -0.50481784 0.0695414 -0.21236195
0002e0 b5 90 60 3e 13 64 1c bd 75 00 c8 be 76 d8 67 3e
       0.21930201 -0.038181376 -0.3906285 0.22641167
0002f0 1b 7c fa bd 54 48 ee 3c a4 38 9e 3c 4b 79 d2 3d
       -0.122307025 0.029087223 0.019314118 0.10277041
000300 12 51 a7 3d 85 43 04 3d bd 69 e0 be e3 cc 3c 3e
       0.0816976 0.032290954 -0.43830672 0.18437533
000310 70 55 8d 3e 0b 6e 57 3e 37 fb af 3e 38 47 a1 bd
       0.27604246 0.21038072 0.3437135 -0.07874912
000320 a4 8d 03 be 18 7a b2 be fa b0 0c 3e 14 57 67 3e
       -0.12847 -0.34858775 0.13739386 0.22591811
000330 c2 b8 53 3d 9c db a2 3c 4a f9 21 bd 93 b9 2a be
       0.05168987 0.019880109 -0.03954438 -0.16672353
000340 58 d5 8b 3e 2e b5 e6 bc 94 51 47 be d4 a1 83 be
       0.27311206 -0.028162565 -0.19464713 -0.25709403
000350 ae 5e 9b 3e 07 9b 5b bd 40 46 4c 3c 75 d1 49 bd
       0.30345672 -0.053614642 0.012467921 -0.04927202
000360 fa f6 72 3e 20 70 f3 bc c7 65 9f 3d 9a 6f dc 3e
       0.23727027 -0.029716551 0.07783084 0.43053895
000370 1a 1e 25 3f 34 9d 90 3e 1a 7f dc bd 62 95 a1 bd
       0.64499056 0.28244936 -0.1076643 -0.07889821
000380 eb 8a 9e bd 0a ef b8 bd 0a 0f 9c 3d 75 7c b5 be
       -0.0774134 -0.09029968 0.07620056 -0.35446516
000390 04 d3 b9 be d4 45 9c 3e 2e c0 79 be 67 9b 9a be
       -0.36293805 0.30522025 -0.24389717 -0.30196688
0003a0 00 40 b9 be 7c e2 e3 3c a1 e1 17 bf e4 12 49 3d
       -0.3618164 0.027817957 -0.5932866 0.04909028
0003b0 15 96 d6 3c 65 df 2c 3e e1 c2 3f 3e 04 0d b4 bd
       0.026194612 0.16882093 0.18726684 -0.08791545
0003c0 b0 a7 f8 3e 05 92 b0 3e 32 04 b5 bd 1f f7 35 be
       0.48565435 0.34486404 -0.08838691 -0.1777005
0003d0 b6 fd 03 bf e2 d8 4b 3e c7 59 aa 3e 01 3e 58 3e
       -0.5155901 0.19906953 0.3327162 0.21117403
0003e0 a3 14 70 be c4 50 e5 3d d0 cf 00 3e a5 be 8f 3e
       -0.23445372 0.111970454 0.12579274 0.28075138
0003f0 16 0b ad 3d d3 4f 9a 3e a8 b7 21 be f7 83 ba be
       0.0844938 0.30139026 -0.15792716 -0.36428806

network_body.processors.0.dense.0.bias f4 [128]
000000 00 00 00 00 00 00 00 00 00 00 00 00 00 00 00 00
       0.0 0.0 0.0 0.0
000010 00 00 00 00 00 00 00 00 00 00 00 00 00 00 00 00
       0.0 0.0 0.0 0.0
000020 00 00 00 00 00 00 00 00 00 00 00 00 00 00 00 00
       0.0 0.0 0.0 0.0
000030 00 00 00 00 00 00 00 00 00 00 00 00 00 00 00 00
       0.0 0.0 0.0 0.0
000040 00 00 00 00 00 00 00 00 00 00 00 00 00 00 00 00
       0.0 0.0 0.0 0.0
000050 00 00 00 00 00 00 00 00 00 00 00 00 00 00 00 00
       0.0 0.0 0.0 0.0
000060 00 00 00 00 00 00 00 00 00 00 00 00 00 00 00 00
       0.0 0.0 0.0 0.0
000070 00 00 00 00 00 00 00 00 00 00 00 00 00 00 00 00
       0.0 0.0 0.0 0.0
000080 00 00 00 00 00 00 00 00 00 00 00 00 00 00 00 00
       0.0 0.0 0.0 0.0
000090 00 00 00 00 00 00 00 00 00 00 00 00 00 00 00 00
       0.0 0.0 0.0 0.0
0000a0 00 00 00 00 00 00 00 00 00 00 00 00 00 00 00 00
       0.0 0.0 0.0 0.0
0000b0 00 00 00 00 00 00 00 00 00 00 00 00 00 00 00 00
       0.0 0.0 0.0 0.0
0000c0 00 00 00 00 00 00 00 00 00 00 00 00 00 00 00 00
       0.0 0.0 0.0 0.0
0000d0 00 00 00 00 00 00 00 00 00 00 00 00 00 00 00 00
       0.0 0.0 0.0 0.0
0000e0 00 00 00 00 00 00 00 00 00 00 00 00 00 00 00 00
       0.0 0.0 0.0 0.0
0000f0 00 00 00 00 00 00 00 00 00 00 00 00 00 00 00 00
       0.0 0.0 0.0 0.0
000100 00 00 00 00 00 00 00 00 00 00 00 00 00 00 00 00
       0.0 0.0 0.0 0.0
000110 00 00 00 00 00 00 00 00 00 00 00 00 00 00 00 00
       0.0 0.0 0.0 0.0
000120 00 00 00 00 00 00 00 00 00 00 00 00 00 00 00 00
       0.0 0.0 0.0 0.0
000130 00 00 00 00 00 00 00 00 00 00 00 00 00 00 00 00
       0.0 0.0 0.0 0.0
000140 00 00 00 00 00 00 00 00 00 00 00 00 00 00 00 00
       0.0 0.0 0.0 0.0
000150 00 00 00 00 00 00 00 00 00 00 00 00 00 00 00 00
       0.0 0.0 0.0 0.0
000160 00 00 00 00 00 00 00 00 00 00 00 00 00 00 00 00
       0.0 0.0 0.0 0.0
000170 00 00 00 00 00 00 00 00 00 00 00 00 00 00 00 00
       0.0 0.0 0.0 0.0
000180 00 00 00 00 00 00 00 00 00 00 00 00 00 00 00 00
       0.0 0.0 0.0 0.0
000190 00 00 00 00 00 00 00 00 00 00 00 00 00 00 00 00
       0.0 0.0 0.0 0.0
0001a0 00 00 00 00 00 00 00 00 00 00 00 00 00 00 00 00
       0.0 0.0 0.0 0.0
0001b0 00 00 00 00 00 00 00 00 00 00 00 00 00 00 00 00
       0.0 0.0 0.0 0.0
0001c0 00 00 00 00 00 00 00 00 00 00 00 00 00 00 00 00
       0.0 0.0 0.0 0.0
0001d0 00 00 00 00 00 00 00 00 00 00 00 00 00 00 00 00
       0.0 0.0 0.0 0.0
0001e0 00 00 00 00 00 00 00 00 00 00 00 00 00 00 00 00
       0.0 0.0 0.0 0.0
0001f0 00 00 00 00 00 00 00 00 00 00 00 00 00 00 00 00
       0.0 0.0 0.0 0.0
