results/ZaraImitation/ZARAimitation/ZARAimitation-3739.pt (torch, 681279 bytes, 38 tensors)

network_body.observation_encoder.processors.0.conv_layers.0.weight f4 [16, 4, 8, 8]
0.042200126 -0.013299178 0.024600022 -0.060625203 -0.04076002 0.017745696 -0.05170209 -0.019567162
-0.051944904 -0.048202075 -0.0067777745 -0.032557756 -0.0076813325 -0.021298062 0.002062492 0.04521461
0.001232788 -0.02786303 -0.053414263 0.03440447 0.04251484 -0.059629407 -0.053859726 0.042389244
-0.057305392 -0.034852576 0.014042906 0.050113507 0.018132485 0.00063180923 0.0450797 0.0159055
0.035908543 0.0069161654 0.03575337 -0.029567502 -0.018572342 0.012252256 0.0040914863 -0.05737131
0.05791995 0.0063040107 0.057761244 0.0073384047 -0.021891423 0.036494397 -0.035402104 0.057145916
0.03083691 -0.037552748 -0.043725867 0.05151613 0.045290798 0.048247494 -0.017853357 -0.037033666
-0.040734112 0.013854936 -0.038454235 -0.060627807 -0.0040511563 -0.059752412 0.03907431 -0.045525655
0.03395754 -0.040866353 -0.028297666 -0.06020067 0.06002272 -0.03271223 -0.020998862 -0.010174122
0.04559265 -0.03943918 0.007936619 0.008939981 0.00058006495 -0.0016565882 -0.033411406 -0.058938213
0.04996884 0.026487745 -0.013488103 -0.029677954 0.009049907 -0.056829587 -0.05551469 2.4735928e-05
-0.03450589 -0.026238203 -0.013639752 -0.038904794 0.061164223 0.025673464 -0.03318138 -0.03838808
-0.027046632 -0.054636575 -0.020187773 0.0077342093 -0.030679654 0.033191808 -0.039760377 0.043245733
-0.021965843 -0.049695283 0.05454828 -0.00250417 0.00057919323 0.027130015 -0.02664423 0.059960008
-0.060972508 -0.027105298 0.012046136 0.027124152 0.019049495 0.05164516 0.02929116 0.015530571
-0.03358461 -0.03799383 -0.017432 0.0099781975 -0.041855782 -0.05886414 -0.053799115 -0.031815536
-0.05477038 -0.05513724 -0.014541045 0.050987437 -0.031735845 -0.053538647 -0.039163016 0.024083316
-0.025572486 0.011486828 -0.058647856 -0.0527669 -0.042830847 -0.057988785 0.044587657 -0.0394324
0.025895461 -0.053435713 0.034326017 0.05160173 -0.058393314 -0.018883381 -0.0012618117 -0.0028377585
-0.023945894 -0.0075464956 -0.021296337 0.046567954 -0.011655886 0.032364175 0.010566309 0.02931168
-0.04353553 0.0026013404 -0.03399868 0.0005210787 -0.060726468 -0.035835627 -0.0028419346 0.048597045
-0.031669647 0.014696315 -0.03647235 -0.05668951 -0.045728944 -0.026334915 -0.03228554 -0.00836483
-0.056785177 -0.05226887 0.0018080771 -0.028223518 0.028631173 -0.039066788 -0.05884663 0.0505409
0.006476499 -0.057102524 -0.045960285 -0.029172406 -0.032114953 -0.055023193 0.008342005 -0.046673894
0.025441207 0.060784996 -0.016965255 0.044323146 -0.060366068 -0.04293932 0.017359473 0.04927811
0.023574255 0.03206353 -0.008262586 0.015244506 0.04055149 -0.003325723 0.0061633587 -0.042937618
0.011844546 0.010299973 0.040508337 -0.006603483 0.017987944 -0.035383828 -0.052672938 -0.04755864
0.015584953 0.05205507 0.016279541 -0.044778727 -0.04905346 0.0047076046 0.05100465 0.039723985
-0.052966338 -0.010011498 0.00560458 -0.042318977 -0.008039448 -0.040421024 0.008692205 -0.018302213
0.048986286 -0.023661256 0.019101262 -0.026299559 -0.031270094 -0.013716694 -0.024305753 0.04608511
0.010964915 0.045201354 0.026872799 -0.050085783 0.043420598 -0.011906143 -0.0045704953 0.03752572
0.0020416677 -0.060143888 -0.000822857 -0.059656672 -0.050390188 0.048257932 -0.034936134 -0.011214737
00000000: 0ada 2c3d cce4 59bc fc85 c93c 2252 78bd
00000010: fbf3 26bd 6c5f 913c 92c5 53bd 504b a0bc
00000020: 2ec4 54bd 8a6f 45bd 1818 debb 485b 05bd
00000030: b0b3 fbbb 4679 aebc e02a 073b f432 393d
00000040: 8095 a13a 0241 e4bc eac8 5abd b4eb 0c3d
00000050: 0a24 2e3d f73d 74bd 049c 5cbd 58a0 2d3d
00000060: 0fb9 6abd 93c1 0ebd 3814 663c d243 4d3d
00000070: 948a 943c 00a0 253a 7ea5 383d 404c 823c
00000080: d614 133d 00a1 e23b 2072 123d 8c37 f2bc
00000090: 0625 98bc b0bd 483c e011 863b 2efe 6abd
000000a0: 783d 6d3d e091 ce3b 0e97 6c3d 0077 f03b
000000b0: a455 b3bc 267b 153d cc01 11bd d611 6a3d
000000c0: b09d fc3c e9d0 19bd e519 33bd 9402 533d
000000d0: d882 393d 2a9f 453d 3441 92bc 9db0 17bd
000000e0: d0d8 26bd d0ff 623c 3082 1dbd dd54 78bd
000000f0: 90bf 84bb f2be 74bd 620c 203d 1c79 3abd
00000100: 1017 0b3d 7a63 27bd 82d0 e7bc fa94 76bd
00000110: 62da 753d 42fd 05bd ce05 acbc 5cb1 26bc
00000120: 5cbf 3a3d fa8a 21bd 9808 023c 0079 123c
00000130: 800f 183a e021 d9ba 66da 08bd 3269 71bd
00000140: 20ac 4c3d d4fc d83c 34fd 5cbc 2e1f f3bc
00000150: 1046 143c 24c6 68bd 5f63 63bd 0080 cf37
00000160: 0c56 0dbd 80f1 d6bc 4479 5fbc a25a 1fbd
00000170: 5687 7a3d 2851 d23c 33e9 07bd d23c 1dbd
00000180: e690 ddbc 9aca 5fbd d460 a5bc 406f fd3b
00000190: e653 fbbc 22f4 073d c7db 22bd 7022 313d
000001a0: b6f1 b3bc 488d 4bbd 046e 5f3d 001d 24bb
000001b0: 00d5 173a c43f de3c 0045 dabc a098 753d
000001c0: 4fbe 79bd ee0b debc 285d 453c 7833 de3c
000001d0: b00d 9c3c e089 533d 04f4 ef3c f073 7e3c
000001e0: 0490 09bd 6b9f 1bbd 8ecd 8ebc 987b 233c
000001f0: f870 2bbd 861b 71bd 765c 5cbd 0251 02bd
00000200: e856 60bd 96d7 61bd 903d 6ebc 34d8 503d
00000210: 72fd 01bd 574b 5bbd 6669 20bd 604a c53c
00000220: 647d d1bc 4033 3c3c bc38 70bd 1b22 58bd
00000230: 666f 2fbd a685 6dbd 8ca1 363d de83 21bd
00000240: b822 d43c 68df 5abd 7099 0c3d 565c 533d
00000250: d42d 6fbd 52b1 9abc 6063 a5ba b0f9 39bb
00000260: 2e2a c4bc 9848 f7bb a875 aebc 0abe 3e3d
00000270: 54f8 3ebc 4c90 043d 501e 2d3c 0c1f f03c
00000280: 5052 32bd 407b 2a3b 3342 0bbd 0099 083a
00000290: 51bc 78bd 61c8 12bd c03f 3abb b20d 473d
000002a0: 08b8 01bd d0c8 703c 0864 15bd 4233 68bd
000002b0: 464e 3bbd 52bc d7bc d83d 04bd a40c 09bc
000002c0: 9397 68bd e217 56bd 00fd ec3a 0235 e7bc
000002d0: ec8b ea3c 7f04 20bd 2a09 71bd fa03 4f3d
000002e0: d038 d43b 56e4 69bd da40 3cbd f8fa eebc
000002f0: f88a 03bd 0060 61bd e8ac 083c 202d 3fbd
00000300: 146a d03c b0f9 783d b8fa 8abc 308c 353d
00000310: 6942 77bd 24e1 2fbd 7435 8e3c d8d7 493d
00000320: cc1e c13c 0c55 033d cc5f 07bc 18c4 793c
00000330: 5219 263d 60f4 59bb 00f6 c93b 5bdf 2fbd
00000340: a00f 423c 38c1 283c 12ec 253d 0862 d8bb
00000350: 745b 933c a2ee 10bd 94bf 57bd d9cc 42bd
00000360: 0858 7f3c b237 553d ac5c 853c e669 37bd
00000370: 48ec 48bd 4042 9a3b 40ea 503d 9eb5 223d
00000380: 3bf3 58bd 4407 24bc a0a6 b73b aa56 2dbd
00000390: e4b7 03bc 8490 25bd c069 0e3c 86ee 95bc
000003a0: d8a5 483d 40d5 c1bc 407a 9c3c 2c72 d7bc
000003b0: 1215 00bd fcbb 60bc dc1c c7bc bec3 3c3d
000003c0: 30a6 333c 0e25 393d 5824 dc3c c026 4dbd
000003d0: ccd9 313d fc11 43bc 18c4 95bb 92b4 193d
000003e0: 80cd 053b 7059 76bd 00b5 57ba 8e5a 74bd
000003f0: f165 4ebd 1caa 453d 3119 0fbd 04be 37bc

network_body.observation_encoder.processors.0.conv_layers.0.bias f4 [16]
-0.0004657805 0.03826093 0.047799416 -0.021557514 -0.038238622 0.0104294345 0.014027007 -0.023805894
-0.0112455 -0.011899561 0.024683699 -0.03650289 -0.043787096 0.013056301 -0.0031295754 0.0069044307
00000000: 0034 f4b9 7eb7 1c3d 52c9 433d 6299 b0bc
00000010: 1aa0 1cbd 38e0 2a3c 88d1 653c 9404 c3bc
00000020: 0c3f 38bc 60f6 42bc 7835 ca3c 0e84 15bd
00000030: 195a 33bd 18ea 553c 9019 4dbb 903e e23b

network_body.observation_encoder.processors.0.conv_layers.2.weight f4 [32, 16, 4, 4]
-0.009427551 0.061280623 0.05768428 0.056193724 0.0002452731 -0.017723184 -0.041572645 0.01358597
-0.057990227 -0.04702062 0.0059481263 0.037378155 0.04578107 -0.029338516 0.041663334 0.03463874
0.05831162 -0.010203231 0.033427022 -0.025351968 0.01803425 -0.015505239 0.008368619 -0.041616343
0.04454366 0.050088443 0.026397564 -0.009368617 -0.005551584 0.008391745 -0.035088222 0.011019208
0.04166086 -0.0048623607 -0.045965213 -0.016789354 -0.033109143 -0.028201189 -0.041321784 0.05389665
-0.061061725 -0.049963273 -0.017065234 -0.0028770864 -0.061776806 0.017657764 -0.002025649 0.020904846
-0.05137489 -0.06134577 0.050515793 -0.056752566 -0.03673599 0.04107997 0.025038265 0.005463265
-0.028698947 0.037560165 -0.058924086 0.036848754 0.013905272 0.052698955 0.007614337 -0.030793961
-0.057871714 -0.040723074 0.04935149 0.017169401 0.043597057 0.034168005 0.015510879 0.03923241
0.048464313 -0.0035412759 -0.047020692 0.04682883 0.02159319 -0.019215506 -0.015454959 0.021896802
-0.021886766 -0.039011564 0.043288164 -0.029592775 -0.024384178 0.008549243 0.03652952 -0.030032892
0.022867754 -0.0441062 0.0053679794 0.010845847 0.031207204 -0.011132415 -0.0061027296 0.051627442
-0.024848968 0.009714395 0.008661695 -0.049857188 -0.044812776 -0.0030424893 -0.011661392 0.0040190592
0.04112953 0.0564531 -0.03565882 0.052333035 -0.008904286 -0.018901087 -0.0003690943 0.037010103
0.004224047 0.052816465 -0.035230555 0.055554442 -0.017103594 0.05635257 0.027620375 0.052468807
0.040131398 0.048793405 -0.030873977 0.0023346841 0.008111894 0.0136837065 0.033424586 0.017546333
0.0086970255 -0.0118268505 0.0054140314 -0.061119437 0.040454365 -0.007421177 0.053128004 -0.048557613
0.027509771 -0.034053653 0.03875652 0.009811714 0.04787329 0.036311798 -0.03682158 -0.053268634
-0.033224873 0.043448307 0.036026552 0.032354213 -0.058120355 -0.012200557 0.053460278 -0.04910501
-0.04992897 -0.043163188 -0.04047894 0.054349154 -0.008221671 0.018442906 -0.0035027675 -0.056293845
0.030825242 0.048631266 -0.03570632 -0.055385754 0.046028808 0.014615513 0.027641349 0.029201202
-0.051336527 0.021146186 0.030045554 -0.01433574 -0.006332461 0.03989491 -0.043492917 -0.027966578
-0.055730417 -0.037966847 -0.039836347 -0.051971354 -0.0088863 0.023416698 0.032834865 -0.059634462
-0.01596843 0.042421445 -0.021366637 -0.017308354 0.02143488 0.018575802 -0.031093955 -0.042735886
0.041679204 0.051801264 -0.0480982 -0.049596235 0.017765068 0.0070213526 0.057684764 0.051873997
0.025519028 -0.0133363195 0.050902493 -0.0538731 -0.026822366 -0.04863527 0.0153675005 -0.019609839
0.021290496 0.028911486 -0.022654619 -0.008454334 0.018301234 0.010524504 -0.0040591396 0.053061217
-0.042760335 0.02353736 -0.011588644 -0.018977158 0.05018109 0.0604226 0.05829349 0.047087222
-0.056167856 0.059731178 0.019749835 0.053711653 0.049979612 -0.01889633 -0.0089003965 -0.05799241
0.057872698 0.045465276 -0.0036249459 0.026894987 -0.050743043 0.04770177 -0.05606983 -0.060427967
-0.0015524328 -0.025378235 -0.030702565 0.010095939 0.044434726 0.020432405 -0.0265456 0.0370213
-0.055711128 0.021895528 0.062424824 -0.007818989 -0.058571737 0.02637294 0.058175743 0.010808438
00000000: 0476 1abc 6401 7b3d 5a46 6c3d 642b 663d
00000010: 0098 8039 3630 91bc 1448 2abd b097 5e3c
00000020: 2987 6dbd b298 40bd 80e8 c23b d619 193d
00000030: ee84 3b3d 5457 f0bc 2ca7 2a3d 5ae1 0d3d
00000040: 2ad8 6e3d 742b 27bc c6ea 083d eeae cfbc
00000050: 90bc 933c b009 7ebc 881c 093c e675 2abd
00000060: 6a73 363d 8a29 4d3d b43f d83c d47e 19bc
00000070: 10ea b5bb 887d 093c abb8 0fbd e889 343c
00000080: 94a4 2a3d 7054 9fbb 0546 3cbd d489 89bc
00000090: 749d 07bd 2e06 e7bc 0841 29bd bcc2 5c3d
000000a0: dc1b 7abd 4aa6 4cbd 64cc 8bbc 808d 3cbb
000000b0: ad09 7dbd 04a7 903c c0c0 04bb a440 ab3c
000000c0: 7a6e 52bd b445 7bbd a6e9 4e3d 6175 68bd
000000d0: 7a78 16bd 7843 283d 0c1d cd3c 3005 b33b
000000e0: 0e1a ebbc b0d8 193d 625a 71bd b8ee 163d
000000f0: f0d2 633c dcda 573d b081 f93b 9e43 fcbc
00000100: e40a 6dbd 3dcd 26bd ca24 4a3d d8a6 8c3c
00000110: d492 323d c0f3 0b3d 5821 7e3c 2ab2 203d
00000120: 8482 463d c014 68bb c598 40bd 96cf 3f3d
00000130: 34e4 b03c d669 9dbc cc36 7dbc ec60 b33c
00000140: e04b b3bc 97ca 1fbd ee4e 313d 8c6c f2bc
00000150: 54c1 c7bc 2012 0c3c fa9f 153d 8a07 f6bc
00000160: 2855 bb3c b4a8 34bd e0e5 af3b c8b2 313c
00000170: 40a6 ff3c bc64 36bc 68f9 c7bb 4c77 533d
00000180: 1090 cbbc 2029 1f3c c8e9 0d3c 0d37 4cbd
00000190: 9a8d 37bd 8064 47bb 6c0f 3fbc 50b2 833b
000001a0: 7077 283d 5e3b 673d fc0e 12bd 2a5b 563d
000001b0: 48e3 11bc 74d6 9abc 0083 c1b9 e897 173d
000001c0: e069 8a3b 1456 583d ea4d 10bd 0e8d 633d
000001d0: d61c 8cbc f4d1 663d 2044 e23c 88e9 563d
000001e0: d260 243d 98db 473d 6ceb fcbc 8001 193b
000001f0: c0e7 043c a031 603c 38e8 083d 54bd 8f3c
00000200: f87d 0e3c 68c5 41bc 3068 b13b 6058 7abd
00000210: 7ab3 253d 582d f3bb c09c 593d 59e4 46bd
00000220: 2c5c e13c d87b 0bbd 28bf 1e3d 50c1 203c
00000230: c816 443d aebb 143d 3ad2 16bd 3630 5abd
00000240: ce16 08bd daf6 313d 9490 133d da85 043d
00000250: 9c0f 6ebd d8e4 47bc 2af9 5a3d 5622 49bd
00000260: 5282 4cbd e2cb 30bd 3fcd 25bd 389d 5e3d
00000270: 30b4 06bc 9415 973c b08e 65bb 6094 66bd
00000280: 3885 fc3c 9431 473d ca40 12bd 2cdc 62bd
00000290: b488 3c3d e875 6f3c 1c70 e23c 5c37 ef3c
000002a0: 4046 52bd c43a ad3c 1822 f63c 74e0 6abc
000002b0: 8880 cfbb d868 233d a125 32bd 2a1a e5bc
000002c0: 9445 64bd 2083 1bbd 702b 23bd eadf 54bd
000002d0: d897 11bc 60d4 bf3c da7d 063d 4443 74bd
000002e0: 3ad0 82bc 1cc2 2d3d 1609 afbc 40ca 8dbc
000002f0: 3498 af3c 482c 983c c0b8 febc d30b 2fbd
00000300: d0b7 2a3d 902d 543d 9e02 45bd 6c25 4bbd
00000310: 0c88 913c 6013 e63b dc46 6c3d d479 543d
00000320: 480d d13c 9480 5abc 227f 503d 0aaa 5cbd
00000330: 94ba dbbc c735 47bd f8c7 7b3c d0a4 a0bc
00000340: 6869 ae3c c8d7 ec3c 2e96 b9bc 0c84 0abc
00000350: 78ec 953c f86e 2c3c 8802 85bb b856 593d
00000360: 7625 2fbd 6cd1 c03c 4cde 3dbc fc75 9bbc
00000370: b08a 4d3d b07d 773d 28c5 6e3d 88de 403d
00000380: 4410 66bd aea8 743d 68ca a13c c000 5c3d
00000390: 6cb7 4c3d 7acc 9abc f8d2 11bc 7389 6dbd
000003a0: ec0b 6d3d cc39 3a3d 8090 6dbb e052 dc3c
000003b0: f0d7 4fbd ee62 433d 7aa9 65bd 5183 77bd
000003c0: 007b cbba 04e6 cfbc f283 fbbc 7069 253c
000003d0: 3001 363d dc61 a73c 2876 d9bc a6a3 173d
000003e0: 5a31 64bd 405e b33c 2cb1 7f3d 381b 00bc
000003f0: ebe8 6fbd 100c d83c b049 6e3d e015 313c

network_body.observation_encoder.processors.0.conv_layers.2.bias f4 [32]
-0.051335134 0.05033551 0.012910113 -0.05383556 0.01645632 -0.019206945 -0.035603918 0.020649254
0.031454235 0.043057315 -0.040642336 -0.033174694 -0.011519477 -0.047579505 0.059136428 0.05897253
-0.027453583 -0.023621242 0.04932028 0.00019004941 0.024797872 -0.036115848 0.038777813 -0.044012964
0.030874014 -0.021597672 -0.059509303 0.01821205 -0.030509327 0.01675114 0.0210246 0.042400286
00000000: ca44 52bd 9c2c 4e3d f084 533c ad82 5cbd
00000010: 68cf 863c e257 9dbc 6ad5 11bd a028 a93c
00000020: 28d6 003d de5c 303d 9478 26bd 30e2 07bd
00000030: 30bc 3cbc bae2 42bd 0a39 723d 2e8d 713d
00000040: 56e6 e0bc 5681 c1bc 1004 4a3d 0048 4739
00000050: e824 cb3c 36ee 13bd 7cd5 1e3d f046 34bd
00000060: 80eb fc3c 9aed b0bc 07c0 73bd 7031 953c
00000070: b2ee f9bc b039 893c c83b ac3c ecab 2d3d

network_body.observation_encoder.processors.0.dense.0.weight f4 [128, 32]
0.29698884 0.54520243 0.13100003 0.42281777 -0.27508482 0.260113 0.3715634 -0.14776212
0.015233651 -0.24467334 0.051023632 -0.14870363 -0.2661466 -0.18067294 -0.020463416 -0.08013084
0.74067837 -0.4120539 0.04389944 0.06661224 -0.34374312 -0.16774844 0.2893561 -0.30757752
0.354195 0.06702185 0.04286474 -0.13762727 -0.3032519 -0.3153684 0.058136925 -0.17091459
-0.16581826 -0.1833828 -0.46336004 -0.24137151 0.1624885 0.2865302 -0.040914185 0.035783343
-0.13987121 -0.2713923 -0.11980915 -0.36017022 0.054498415 -0.030770382 -0.21718088 -0.055060193
-0.3785405 0.37179255 0.10260743 0.09482542 0.20722911 0.12897749 -0.0323053 -0.039371744
-0.38195157 -0.34181663 -0.023910658 0.051609214 -0.07640666 0.103539884 -0.049927063 -0.35026157
0.31516075 0.25053787 -0.047977276 0.25879636 -0.28546923 0.12798893 -0.24841969 0.16208054
-0.26988593 0.17561942 0.21691968 -0.09341253 0.35548374 -0.24906112 -0.21253164 -0.11382062
-0.09702844 0.005760094 0.085830085 0.24850793 0.25599518 0.20954509 -0.06730487 -0.07094799
0.050062258 -0.23723383 0.108965546 0.5607907 0.05261629 -0.27715355 0.619882 -0.14251569
0.13537814 -0.31716534 0.1786052 -0.37779015 0.1692835 -0.41475588 0.14750728 0.054950863
0.041551497 0.2560481 0.07843546 0.40628526 -0.1944738 0.25058636 -0.097768344 0.036285017
0.32161218 0.14942661 0.22704922 0.20954026 -0.11251691 -0.1830139 0.0731082 -0.39854816
0.3329741 -0.018930972 -0.13316575 0.075435884 -0.4973675 0.19119965 -0.5326384 0.17527959
-0.2829007 -0.10591852 0.31524375 -0.06046686 0.087001905 0.05628325 0.15626915 -0.038806994
0.0036559016 -0.08281428 0.029772265 0.036738556 0.10890667 0.278068 -0.20930259 0.37727317
0.2931107 -0.34606296 0.27630863 0.07662539 0.2452604 -0.2659313 0.3727153 0.30486792
0.13355494 0.22247428 0.21495779 -0.18421337 -0.42026395 -0.2357326 0.175938 -0.023974221
-0.14281937 0.060098294 -0.044097483 0.031920306 0.15082586 0.17025678 0.26349074 0.049569268
-0.46881172 -0.20711909 0.68496704 -0.0026692364 0.15780392 0.01545962 -0.5899575 0.5124123
-0.41136822 0.02740633 0.04034467 -0.08672953 0.20247516 -0.1911823 0.017813202 -0.08331684
0.023573019 -0.15007125 0.25253862 0.10800508 0.081099026 0.15619421 0.08545714 0.35997087
-0.0073068864 -0.23604447 0.017095929 -0.18209592 0.24521753 -0.009667857 -0.009516565 0.11754253
0.0025781551 -0.1040024 -0.044878017 0.4767798 0.26363832 0.24622013 -0.2630745 -0.12846564
-0.06292127 0.4805958 0.3327634 0.07914579 -0.07027562 0.02461819 -0.19623825 -0.37274483
0.57154846 -0.27909726 -0.09072333 -0.15412542 0.023938578 -0.22408773 -0.51886225 0.23325181
0.038053364 -0.04372685 0.20498164 -0.18898264 0.054818317 -0.09154627 -0.4012786 0.11286371
-0.34138426 -0.011380594 -0.0553324 -0.29917368 0.24464864 -0.15627143 -0.39201322 0.0482568
-0.07000786 0.053044416 -0.26240018 -0.19416612 0.12525111 0.26077637 0.23944181 -0.5196617
0.23809865 0.11613019 -0.1684123 0.09030195 -0.24048798 -0.337176 0.02896544 -0.295123
00000000: ec0e 983e 6392 0b3f df24 063e 927b d83e
00000010: ebd7 8cbe 882d 853e 8f3d be3e f44e 17be
00000020: 9096 793c a68b 7abe 28fe 503d c445 18be
00000030: 5e44 88be 5402 39be e5a2 a7bc a31b a4bd
00000040: 199d 3d3f bbf8 d2be e6cf 333d 006c 883d
00000050: 19ff afbe 3fc6 2bbe 7c26 943e cd7a 9dbe
00000060: 0c59 b53e c042 893d f092 2f3d 2aee 0cbe
00000070: d543 9bbe f877 a1be fc20 6e3d 3c04 2fbe
00000080: 43cc 29be b3c8 3bbe 873d edbe 182a 77be
00000090: 6363 263e 16b4 923e a295 27bd 8e91 123d
000000a0: 663a 0fbe eef3 8abe 805e f5bd 3b68 b8be
000000b0: bb39 5f3d 2b12 fcbc aa64 5ebe cc86 61bd
000000c0: 0fd0 c1be 985b be3e d823 d23d d433 c23d
000000d0: de33 543e ad12 043e 9052 04bd 4444 21bd
000000e0: 288f c3be 9702 afbe 49e0 c3bc 2f64 533d
000000f0: 187b 9cbd b80c d43d 5280 4cbd 7c55 b3be
00000100: c05c a13e 8046 803e d283 44bd f580 843e
00000110: 0629 92be 880f 033e bb61 7ebe 71f8 253e
00000120: 7d2e 8abe 94d5 333e 3120 5e3e 124f bfbd
00000130: f701 b63e e109 7fbe e5a1 59be c91a e9bd
00000140: d9b6 c6bd 2cbf bc3b afc7 af3d dd78 7e3e
00000150: cd11 833e fd92 563e 23d7 89bd 2e4d 91bd
00000160: 150e 4d3d 6ded 72be 5429 df3d fb8f 0f3f
00000170: 2e84 573d 12e7 8dbe 96b0 1e3f a2ef 11be
00000180: 91a0 0a3e 7f63 a2be 48e4 363e b66d c1be
00000190: a758 2d3e e25a d4be 260c 173e 2814 613d
000001a0: e731 2a3d bd18 833e c5a2 a03d 9f04 d03e
000001b0: 2424 47be db4c 803e c53a c8bd 999f 143d
000001c0: 5aaa a43e 4a03 193e 977f 683e b991 563e
000001d0: 446f e6bd ff67 3bbe c1b9 953d 810e ccbe
000001e0: 957b aa3e 2015 9bbc 9a5c 08be 217e 9a3d
000001f0: f4a6 febe d7c9 433e fd5a 08bf 7e7c 333e
00000200: 5cd8 90be cfeb d8bd a167 a13e 19ac 77bd
00000210: 0e2e b23d 4489 663d 0505 203e 15f4 1ebd
00000220: da97 6f3b 899a a9bd f7e4 f33c 2b7b 163d
00000230: 760a df3d ee5e 8e3e 6b53 56be f329 c13e
00000240: 9b12 963e 2a2f b1be 5378 8d3e c6ed 9c3d
00000250: 8b25 7b3e 2628 88be 8ad4 be3e a617 9c3e
00000260: a0c2 083e 4cd0 633e e51d 5c3e 6ea2 3cbe
00000270: d62c d7be e363 71be 1729 343e 9665 c4bc
00000280: 3e3f 12be a129 763d 909f 34bd debe 023d
00000290: 1872 1a3e cb57 2e3e 42e8 863e 2509 4b3d
000002a0: 1708 f0be 0717 54be 005a 2f3f 5bee 2ebb
000002b0: 5a97 213e 594a 7d3c 7407 17bf 742d 033f
000002c0: db9e d2be 3d83 e03c 7440 253d 409f b1bd
000002d0: a655 4f3e 4bc5 43be feec 913c 05a2 aabd
000002e0: 341c c13c 47ac 19be be4c 813e c431 dd3d
000002f0: 3f17 a63d 60f1 1f3e 2704 af3d 1a4e b83e
00000300: 9b6e efbb a4b5 71be c30c 8c3c 5a77 3abe
00000310: 4e1a 7b3e ee65 1ebc 5eeb 1bbc 23ba f03d
00000320: 44f6 283b 36ff d4bd 03d2 37bd 7b1c f43e
00000330: 9afb 863e 2121 7c3e b3b1 86be 7f8c 03be
00000340: dedc 80bd a710 f63e f75f aa3e 3017 a23d
00000350: aaec 8fbd 16ac c93c aef2 48be 69d8 bebe
00000360: 0051 123f d6e5 8ebe 27cd b9bd 0ed3 1dbe
00000370: d61a c43c 4177 65be 28d4 04bf 90d9 6e3e
00000380: d8dd 1b3d ed1a 33bd b5e6 513e aa84 41be
00000390: 2c89 603d 9c7c bbbd 6374 cdbe 1725 e73d
000003a0: ebc9 aebe ac75 3abc 3aa4 62bd 4b2d 99be
000003b0: 2c85 7a3e 9e05 20be f5b5 c8be eca8 453d
000003c0: 4860 8fbd 1a45 593d 5159 86be 7cd3 46be
000003d0: d441 003e 7b84 853e 3c30 753e 8d08 05bf
000003e0: 22d0 733e aad5 ed3d 4674 2cbe 3bf0 b83d
000003f0: 7b42 76be 55a2 acbe ee48 ed3c 5d1a 97be

network_body.observation_encoder.processors.0.dense.0.bias f4 [128]
0.0 0.0 0.0 0.0 0.0 0.0 0.0 0.0
0.0 0.0 0.0 0.0 0.0 0.0 0.0 0.0
0.0 0.0 0.0 0.0 0.0 0.0 0.0 0.0
0.0 0.0 0.0 0.0 0.0 0.0 0.0 0.0
0.0 0.0 0.0 0.0 0.0 0.0 0.0 0.0
0.0 0.0 0.0 0.0 0.0 0.0 0.0 0.0
0.0 0.0 0.0 0.0 0.0 0.0 0.0 0.0
0.0 0.0 0.0 0.0 0.0 0.0 0.0 0.0
0.0 0.0 0.0 0.0 0.0 0.0 0.0 0.0
0.0 0.0 0.0 0.0 0.0 0.0 0.0 0.0
0.0 0.0 0.0 0.0 0.0 0.0 0.0 0.0
0.0 0.0 0.0 0.0 0.0 0.0 0.0 0.0
0.0 0.0 0.0 0.0 0.0 0.0 0.0 0.0
0.0 0.0 0.0 0.0 0.0 0.0 0.0 0.0
0.0 0.0 0.0 0.0 0.0 0.0 0.0 0.0
0.0 0.0 0.0 0.0 0.0 0.0 0.0 0.0
00000000: 0000 0000 0000 0000 0000 0000 0000 0000
00000010: 0000 0000 0000 0000 0000 0000 0000 0000
00000020: 0000 0000 0000 0000 0000 0000 0000 0000
00000030: 0000 0000 0000 0000 0000 0000 0000 0000
00000040: 0000 0000 0000 0000 0000 0000 0000 0000
00000050: 0000 0000 0000 0000 0000 0000 0000 0000
00000060: 0000 0000 0000 0000 0000 0000 0000 0000
00000070: 0000 0000 0000 0000 0000 0000 0000 0000
00000080: 0000 0000 0000 0000 0000 0000 0000 0000
00000090: 0000 0000 0000 0000 0000 0000 0000 0000
000000a0: 0000 0000 0000 0000 0000 0000 0000 0000
000000b0: 0000 0000 0000 0000 0000 0000 0000 0000
000000c0: 0000 0000 0000 0000 0000 0000 0000 0000
000000d0: 0000 0000 0000 0000 0000 0000 0000 0000
000000e0: 0000 0000 0000 0000 0000 0000 0000 0000
000000f0: 0000 0000 0000 0000 0000 0000 0000 0000
00000100: 0000 0000 0000 0000 0000 0000 0000 0000
00000110: 0000 0000 0000 0000 0000 0000 0000 0000
00000120: 0000 0000 0000 0000 0000 0000 0000 0000
00000130: 0000 0000 0000 0000 0000 0000 0000 0000
00000140: 0000 0000 0000 0000 0000 0000 0000 0000
00000150: 0000 0000 0000 0000 0000 0000 0000 0000
00000160: 0000 0000 0000 0000 0000 0000 0000 0000
00000170: 0000 0000 0000 0000 0000 0000 0000 0000
00000180: 0000 0000 0000 0000 0000 0000 0000 0000
00000190: 0000 0000 0000 0000 0000 0000 0000 0000
000001a0: 0000 0000 0000 0000 0000 0000 0000 0000
000001b0: 0000 0000 0000 0000 0000 0000 0000 0000
000001c0: 0000 0000 0000 0000 0000 0000 0000 0000
000001d0: 0000 0000 0000 0000 0000 0000 0000 0000
000001e0: 0000 0000 0000 0000 0000 0000 0000 0000
000001f0: 0000 0000 0000 0000 0000 0000 0000 0000

network_body.processors.0.conv_layers.0.weight f4 [16, 4, 8, 8]
0.042200126 -0.013299178 0.024600022 -0.060625203 -0.04076002 0.017745696 -0.05170209 -0.019567162
-0.051944904 -0.048202075 -0.0067777745 -0.032557756 -0.0076813325 -0.021298062 0.002062492 0.04521461
0.001232788 -0.02786303 -0.053414263 0.03440447 0.04251484 -0.059629407 -0.053859726 0.042389244
-0.057305392 -0.034852576 0.014042906 0.050113507 0.018132485 0.00063180923 0.0450797 0.0159055
0.035908543 0.0069161654 0.03575337 -0.029567502 -0.018572342 0.012252256 0.0040914863 -0.05737131
0.05791995 0.0063040107 0.057761244 0.0073384047 -0.021891423 0.036494397 -0.035402104 0.057145916
0.03083691 -0.037552748 -0.043725867 0.05151613 0.045290798 0.048247494 -0.017853357 -0.037033666
-0.040734112 0.013854936 -0.038454235 -0.060627807 -0.0040511563 -0.059752412 0.03907431 -0.045525655
0.03395754 -0.040866353 -0.028297666 -0.06020067 0.06002272 -0.03271223 -0.020998862 -0.010174122
0.04559265 -0.03943918 0.007936619 0.008939981 0.00058006495 -0.0016565882 -0.033411406 -0.058938213
0.04996884 0.026487745 -0.013488103 -0.029677954 0.009049907 -0.056829587 -0.05551469 2.4735928e-05
-0.03450589 -0.026238203 -0.013639752 -0.038904794 0.061164223 0.025673464 -0.03318138 -0.03838808
-0.027046632 -0.054636575 -0.020187773 0.0077342093 -0.030679654 0.033191808 -0.039760377 0.043245733
-0.021965843 -0.049695283 0.05454828 -0.00250417 0.00057919323 0.027130015 -0.02664423 0.059960008
-0.060972508 -0.027105298 0.012046136 0.027124152 0.019049495 0.05164516 0.02929116 0.015530571
-0.03358461 -0.03799383 -0.017432 0.0099781975 -0.041855782 -0.05886414 -0.053799115 -0.031815536
-0.05477038 -0.05513724 -0.014541045 0.050987437 -0.031735845 -0.053538647 -0.039163016 0.024083316
-0.025572486 0.011486828 -0.058647856 -0.0527669 -0.042830847 -0.057988785 0.044587657 -0.0394324
0.025895461 -0.053435713 0.034326017 0.05160173 -0.058393314 -0.018883381 -0.0012618117 -0.0028377585
-0.023945894 -0.0075464956 -0.021296337 0.046567954 -0.011655886 0.032364175 0.010566309 0.02931168
-0.04353553 0.0026013404 -0.03399868 0.0005210787 -0.060726468 -0.035835627 -0.0028419346 0.048597045
-0.031669647 0.014696315 -0.03647235 -0.05668951 -0.045728944 -0.026334915 -0.03228554 -0.00836483
-0.056785177 -0.05226887 0.0018080771 -0.028223518 0.028631173 -0.039066788 -0.05884663 0.0505409
0.006476499 -0.057102524 -0.045960285 -0.029172406 -0.032114953 -0.055023193 0.008342005 -0.046673894
0.025441207 0.060784996 -0.016965255 0.044323146 -0.060366068 -0.04293932 0.017359473 0.04927811
0.023574255 0.03206353 -0.008262586 0.015244506 0.04055149 -0.003325723 0.0061633587 -0.042937618
0.011844546 0.010299973 0.040508337 -0.006603483 0.017987944 -0.035383828 -0.052672938 -0.04755864
0.015584953 0.05205507 0.016279541 -0.044778727 -0.04905346 0.0047076046 0.05100465 0.039723985
-0.052966338 -0.010011498 0.00560458 -0.042318977 -0.008039448 -0.040421024 0.008692205 -0.018302213
0.048986286 -0.023661256 0.019101262 -0.026299559 -0.031270094 -0.013716694 -0.024305753 0.04608511
0.010964915 0.045201354 0.026872799 -0.050085783 0.043420598 -0.011906143 -0.0045704953 0.03752572
0.0020416677 -0.060143888 -0.000822857 -0.059656672 -0.050390188 0.048257932 -0.034936134 -0.011214737
00000000: 0ada 2c3d cce4 59bc fc85 c93c 2252 78bd
00000010: fbf3 26bd 6c5f 913c 92c5 53bd 504b a0bc
00000020: 2ec4 54bd 8a6f 45bd 1818 debb 485b 05bd
00000030: b0b3 fbbb 4679 aebc e02a 073b f432 393d
00000040: 8095 a13a 0241 e4bc eac8 5abd b4eb 0c3d
00000050: 0a24 2e3d f73d 74bd 049c 5cbd 58a0 2d3d
00000060: 0fb9 6abd 93c1 0ebd 3814 663c d243 4d3d
00000070: 948a 943c 00a0 253a 7ea5 383d 404c 823c
00000080: d614 133d 00a1 e23b 2072 123d 8c37 f2bc
00000090: 0625 98bc b0bd 483c e011 863b 2efe 6abd
000000a0: 783d 6d3d e091 ce3b 0e97 6c3d 0077 f03b
000000b0: a455 b3bc 267b 153d cc01 11bd d611 6a3d
000000c0: b09d fc3c e9d0 19bd e519 33bd 9402 533d
000000d0: d882 393d 2a9f 453d 3441 92bc 9db0 17bd
000000e0: d0d8 26bd d0ff 623c 3082 1dbd dd54 78bd
000000f0: 90bf 84bb f2be 74bd 620c 203d 1c79 3abd
00000100: 1017 0b3d 7a63 27bd 82d0 e7bc fa94 76bd
00000110: 62da 753d 42fd 05bd ce05 acbc 5cb1 26bc
00000120: 5cbf 3a3d fa8a 21bd 9808 023c 0079 123c
00000130: 800f 183a e021 d9ba 66da 08bd 3269 71bd
00000140: 20ac 4c3d d4fc d83c 34fd 5cbc 2e1f f3bc
00000150: 1046 143c 24c6 68bd 5f63 63bd 0080 cf37
00000160: 0c56 0dbd 80f1 d6bc 4479 5fbc a25a 1fbd
00000170: 5687 7a3d 2851 d23c 33e9 07bd d23c 1dbd
00000180: e690 ddbc 9aca 5fbd d460 a5bc 406f fd3b
00000190: e653 fbbc 22f4 073d c7db 22bd 7022 313d
000001a0: b6f1 b3bc 488d 4bbd 046e 5f3d 001d 24bb
000001b0: 00d5 173a c43f de3c 0045 dabc a098 753d
000001c0: 4fbe 79bd ee0b debc 285d 453c 7833 de3c
000001d0: b00d 9c3c e089 533d 04f4 ef3c f073 7e3c
000001e0: 0490 09bd 6b9f 1bbd 8ecd 8ebc 987b 233c
000001f0: f870 2bbd 861b 71bd 765c 5cbd 0251 02bd
00000200: e856 60bd 96d7 61bd 903d 6ebc 34d8 503d
00000210: 72fd 01bd 574b 5bbd 6669 20bd 604a c53c
00000220: 647d d1bc 4033 3c3c bc38 70bd 1b22 58bd
00000230: 666f 2fbd a685 6dbd 8ca1 363d de83 21bd
00000240: b822 d43c 68df 5abd 7099 0c3d 565c 533d
00000250: d42d 6fbd 52b1 9abc 6063 a5ba b0f9 39bb
00000260: 2e2a c4bc 9848 f7bb a875 aebc 0abe 3e3d
00000270: 54f8 3ebc 4c90 043d 501e 2d3c 0c1f f03c
00000280: 5052 32bd 407b 2a3b 3342 0bbd 0099 083a
00000290: 51bc 78bd 61c8 12bd c03f 3abb b20d 473d
000002a0: 08b8 01bd d0c8 703c 0864 15bd 4233 68bd
000002b0: 464e 3bbd 52bc d7bc d83d 04bd a40c 09bc
000002c0: 9397 68bd e217 56bd 00fd ec3a 0235 e7bc
000002d0: ec8b ea3c 7f04 20bd 2a09 71bd fa03 4f3d
000002e0: d038 d43b 56e4 69bd da40 3cbd f8fa eebc
000002f0: f88a 03bd 0060 61bd e8ac 083c 202d 3fbd
00000300: 146a d03c b0f9 783d b8fa 8abc 308c 353d
00000310: 6942 77bd 24e1 2fbd 7435 8e3c d8d7 493d
00000320: cc1e c13c 0c55 033d cc5f 07bc 18c4 793c
00000330: 5219 263d 60f4 59bb 00f6 c93b 5bdf 2fbd
00000340: a00f 423c 38c1 283c 12ec 253d 0862 d8bb
00000350: 745b 933c a2ee 10bd 94bf 57bd d9cc 42bd
00000360: 0858 7f3c b237 553d ac5c 853c e669 37bd
00000370: 48ec 48bd 4042 9a3b 40ea 503d 9eb5 223d
00000380: 3bf3 58bd 4407 24bc a0a6 b73b aa56 2dbd
00000390: e4b7 03bc 8490 25bd c069 0e3c 86ee 95bc
000003a0: d8a5 483d 40d5 c1bc 407a 9c3c 2c72 d7bc
000003b0: 1215 00bd fcbb 60bc dc1c c7bc bec3 3c3d
000003c0: 30a6 333c 0e25 393d 5824 dc3c c026 4dbd
000003d0: ccd9 313d fc11 43bc 18c4 95bb 92b4 193d
000003e0: 80cd 053b 7059 76bd 00b5 57ba 8e5a 74bd
000003f0: f165 4ebd 1caa 453d 3119 0fbd 04be 37bc

network_body.processors.0.conv_layers.0.bias f4 [16]
-0.0004657805 0.03826093 0.047799416 -0.021557514 -0.038238622 0.0104294345 0.014027007 -0.023805894
-0.0112455 -0.011899561 0.024683699 -0.03650289 -0.043787096 0.013056301 -0.0031295754 0.0069044307
00000000: 0034 f4b9 7eb7 1c3d 52c9 433d 6299 b0bc
00000010: 1aa0 1cbd 38e0 2a3c 88d1 653c 9404 c3bc
00000020: 0c3f 38bc 60f6 42bc 7835 ca3c 0e84 15bd
00000030: 195a 33bd 18ea 553c 9019 4dbb 903e e23b

network_body.processors.0.conv_layers.2.weight f4 [32, 16, 4, 4]
-0.009427551 0.061280623 0.05768428 0.056193724 0.0002452731 -0.017723184 -0.041572645 0.01358597
-0.057990227 -0.04702062 0.0059481263 0.037378155 0.04578107 -0.029338516 0.041663334 0.03463874
0.05831162 -0.010203231 0.033427022 -0.025351968 0.01803425 -0.015505239 0.008368619 -0.041616343
0.04454366 0.050088443 0.026397564 -0.009368617 -0.005551584 0.008391745 -0.035088222 0.011019208
0.04166086 -0.0048623607 -0.045965213 -0.016789354 -0.033109143 -0.028201189 -0.041321784 0.05389665
-0.061061725 -0.049963273 -0.017065234 -0.0028770864 -0.061776806 0.017657764 -0.002025649 0.020904846
-0.05137489 -0.06134577 0.050515793 -0.056752566 -0.03673599 0.04107997 0.025038265 0.005463265
-0.028698947 0.037560165 -0.058924086 0.036848754 0.013905272 0.052698955 0.007614337 -0.030793961
-0.057871714 -0.040723074 0.04935149 0.017169401 0.043597057 0.034168005 0.015510879 0.03923241
0.048464313 -0.0035412759 -0.047020692 0.04682883 0.02159319 -0.019215506 -0.015454959 0.021896802
-0.021886766 -0.039011564 0.043288164 -0.029592775 -0.024384178 0.008549243 0.03652952 -0.030032892
0.022867754 -0.0441062 0.0053679794 0.010845847 0.031207204 -0.011132415 -0.0061027296 0.051627442
-0.024848968 0.009714395 0.008661695 -0.049857188 -0.044812776 -0.0030424893 -0.011661392 0.0040190592
0.04112953 0.0564531 -0.03565882 0.052333035 -0.008904286 -0.018901087 -0.0003690943 0.037010103
0.004224047 0.052816465 -0.035230555 0.055554442 -0.017103594 0.05635257 0.027620375 0.052468807
0.040131398 0.048793405 -0.030873977 0.0023346841 0.008111894 0.0136837065 0.033424586 0.017546333
0.0086970255 -0.0118268505 0.0054140314 -0.061119437 0.040454365 -0.007421177 0.053128004 -0.048557613
0.027509771 -0.034053653 0.03875652 0.009811714 0.04787329 0.036311798 -0.03682158 -0.053268634
-0.033224873 0.043448307 0.036026552 0.032354213 -0.058120355 -0.012200557 0.053460278 -0.04910501
-0.04992897 -0.043163188 -0.04047894 0.054349154 -0.008221671 0.018442906 -0.0035027675 -0.056293845
0.030825242 0.048631266 -0.03570632 -0.055385754 0.046028808 0.014615513 0.027641349 0.029201202
-0.051336527 0.021146186 0.030045554 -0.01433574 -0.006332461 0.03989491 -0.043492917 -0.027966578
-0.055730417 -0.037966847 -0.039836347 -0.051971354 -0.0088863 0.023416698 0.032834865 -0.059634462
-0.01596843 0.042421445 -0.021366637 -0.017308354 0.02143488 0.018575802 -0.031093955 -0.042735886
0.041679204 0.051801264 -0.0480982 -0.049596235 0.017765068 0.0070213526 0.057684764 0.051873997
0.025519028 -0.0133363195 0.050902493 -0.0538731 -0.026822366 -0.04863527 0.0153675005 -0.019609839
0.021290496 0.028911486 -0.022654619 -0.008454334 0.018301234 0.010524504 -0.0040591396 0.053061217
-0.042760335 0.02353736 -0.011588644 -0.018977158 0.05018109 0.0604226 0.05829349 0.047087222
-0.056167856 0.059731178 0.019749835 0.053711653 0.049979612 -0.01889633 -0.0089003965 -0.05799241
0.057872698 0.045465276 -0.0036249459 0.026894987 -0.050743043 0.04770177 -0.05606983 -0.060427967
-0.0015524328 -0.025378235 -0.030702565 0.010095939 0.044434726 0.020432405 -0.0265456 0.0370213
-0.055711128 0.021895528 0.062424824 -0.007818989 -0.058571737 0.02637294 0.058175743 0.010808438
00000000: 0476 1abc 6401 7b3d 5a46 6c3d 642b 663d
00000010: 0098 8039 3630 91bc 1448 2abd b097 5e3c
00000020: 2987 6dbd b298 40bd 80e8 c23b d619 193d
00000030: ee84 3b3d 5457 f0bc 2ca7 2a3d 5ae1 0d3d
00000040: 2ad8 6e3d 742b 27bc c6ea 083d eeae cfbc
00000050: 90bc 933c b009 7ebc 881c 093c e675 2abd
00000060: 6a73 363d 8a29 4d3d b43f d83c d47e 19bc
00000070: 10ea b5bb 887d 093c abb8 0fbd e889 343c
00000080: 94a4 2a3d 7054 9fbb 0546 3cbd d489 89bc
00000090: 749d 07bd 2e06 e7bc 0841 29bd bcc2 5c3d
000000a0: dc1b 7abd 4aa6 4cbd 64cc 8bbc 808d 3cbb
000000b0: ad09 7dbd 04a7 903c c0c0 04bb a440 ab3c
000000c0: 7a6e 52bd b445 7bbd a6e9 4e3d 6175 68bd
000000d0: 7a78 16bd 7843 283d 0c1d cd3c 3005 b33b
000000e0: 0e1a ebbc b0d8 193d 625a 71bd b8ee 163d
000000f0: f0d2 633c dcda 573d b081 f93b 9e43 fcbc
00000100: e40a 6dbd 3dcd 26bd ca24 4a3d d8a6 8c3c
00000110: d492 323d c0f3 0b3d 5821 7e3c 2ab2 203d
00000120: 8482 463d c014 68bb c598 40bd 96cf 3f3d
00000130: 34e4 b03c d669 9dbc cc36 7dbc ec60 b33c
00000140: e04b b3bc 97ca 1fbd ee4e 313d 8c6c f2bc
00000150: 54c1 c7bc 2012 0c3c fa9f 153d 8a07 f6bc
00000160: 2855 bb3c b4a8 34bd e0e5 af3b c8b2 313c
00000170: 40a6 ff3c bc64 36bc 68f9 c7bb 4c77 533d
00000180: 1090 cbbc 2029 1f3c c8e9 0d3c 0d37 4cbd
00000190: 9a8d 37bd 8064 47bb 6c0f 3fbc 50b2 833b
000001a0: 7077 283d 5e3b 673d fc0e 12bd 2a5b 563d
000001b0: 48e3 11bc 74d6 9abc 0083 c1b9 e897 173d
000001c0: e069 8a3b 1456 583d ea4d 10bd 0e8d 633d
000001d0: d61c 8cbc f4d1 663d 2044 e23c 88e9 563d
000001e0: d260 243d 98db 473d 6ceb fcbc 8001 193b
000001f0: c0e7 043c a031 603c 38e8 083d 54bd 8f3c
00000200: f87d 0e3c 68c5 41bc 3068 b13b 6058 7abd
00000210: 7ab3 253d 582d f3bb c09c 593d 59e4 46bd
00000220: 2c5c e13c d87b 0bbd 28bf 1e3d 50c1 203c
00000230: c816 443d aebb 143d 3ad2 16bd 3630 5abd
00000240: ce16 08bd daf6 313d 9490 133d da85 043d
00000250: 9c0f 6ebd d8e4 47bc 2af9 5a3d 5622 49bd
00000260: 5282 4cbd e2cb 30bd 3fcd 25bd 389d 5e3d
00000270: 30b4 06bc 9415 973c b08e 65bb 6094 66bd
00000280: 3885 fc3c 9431 473d ca40 12bd 2cdc 62bd
00000290: b488 3c3d e875 6f3c 1c70 e23c 5c37 ef3c
000002a0: 4046 52bd c43a ad3c 1822 f63c 74e0 6abc
000002b0: 8880 cfbb d868 233d a125 32bd 2a1a e5bc
000002c0: 9445 64bd 2083 1bbd 702b 23bd eadf 54bd
000002d0: d897 11bc 60d4 bf3c da7d 063d 4443 74bd
000002e0: 3ad0 82bc 1cc2 2d3d 1609 afbc 40ca 8dbc
000002f0: 3498 af3c 482c 983c c0b8 febc d30b 2fbd
00000300: d0b7 2a3d 902d 543d 9e02 45bd 6c25 4bbd
00000310: 0c88 913c 6013 e63b dc46 6c3d d479 543d
00000320: 480d d13c 9480 5abc 227f 503d 0aaa 5cbd
00000330: 94ba dbbc c735 47bd f8c7 7b3c d0a4 a0bc
00000340: 6869 ae3c c8d7 ec3c 2e96 b9bc 0c84 0abc
00000350: 78ec 953c f86e 2c3c 8802 85bb b856 593d
00000360: 7625 2fbd 6cd1 c03c 4cde 3dbc fc75 9bbc
00000370: b08a 4d3d b07d 773d 28c5 6e3d 88de 403d
00000380: 4410 66bd aea8 743d 68ca a13c c000 5c3d
00000390: 6cb7 4c3d 7acc 9abc f8d2 11bc 7389 6dbd
000003a0: ec0b 6d3d cc39 3a3d 8090 6dbb e052 dc3c
000003b0: f0d7 4fbd ee62 433d 7aa9 65bd 5183 77bd
000003c0: 007b cbba 04e6 cfbc f283 fbbc 7069 253c
000003d0: 3001 363d dc61 a73c 2876 d9bc a6a3 173d
000003e0: 5a31 64bd 405e b33c 2cb1 7f3d 381b 00bc
000003f0: ebe8 6fbd 100c d83c b049 6e3d e015 313c

network_body.processors.0.conv_layers.2.bias f4 [32]
-0.051335134 0.05033551 0.012910113 -0.05383556 0.01645632 -0.019206945 -0.035603918 0.020649254
0.031454235 0.043057315 -0.040642336 -0.033174694 -0.011519477 -0.047579505 0.059136428 0.05897253
-0.027453583 -0.023621242 0.04932028 0.00019004941 0.024797872 -0.036115848 0.038777813 -0.044012964
0.030874014 -0.021597672 -0.059509303 0.01821205 -0.030509327 0.01675114 0.0210246 0.042400286
00000000: ca44 52bd 9c2c 4e3d f084 533c ad82 5cbd
00000010: 68cf 863c e257 9dbc 6ad5 11bd a028 a93c
00000020: 28d6 003d de5c 303d 9478 26bd 30e2 07bd
00000030: 30bc 3cbc bae2 42bd 0a39 723d 2e8d 713d
00000040: 56e6 e0bc 5681 c1bc 1004 4a3d 0048 4739
00000050: e824 cb3c 36ee 13bd 7cd5 1e3d f046 34bd
00000060: 80eb fc3c 9aed b0bc 07c0 73bd 7031 953c
00000070: b2ee f9bc b039 893c c83b ac3c ecab 2d3d

network_body.processors.0.dense.0.weight f4 [128, 32]
0.29698884 0.54520243 0.13100003 0.42281777 -0.27508482 0.260113 0.3715634 -0.14776212
0.015233651 -0.24467334 0.051023632 -0.14870363 -0.2661466 -0.18067294 -0.020463416 -0.08013084
0.74067837 -0.4120539 0.04389944 0.06661224 -0.34374312 -0.16774844 0.2893561 -0.30757752
0.354195 0.06702185 0.04286474 -0.13762727 -0.3032519 -0.3153684 0.058136925 -0.17091459
-0.16581826 -0.1833828 -0.46336004 -0.24137151 0.1624885 0.2865302 -0.040914185 0.035783343
-0.13987121 -0.2713923 -0.11980915 -0.36017022 0.054498415 -0.030770382 -0.21718088 -0.055060193
-0.3785405 0.37179255 0.10260743 0.09482542 0.20722911 0.12897749 -0.0323053 -0.039371744
-0.38195157 -0.34181663 -0.023910658 0.051609214 -0.07640666 0.103539884 -0.049927063 -0.35026157
0.31516075 0.25053787 -0.047977276 0.25879636 -0.28546923 0.12798893 -0.24841969 0.16208054
-0.26988593 0.17561942 0.21691968 -0.09341253 0.35548374 -0.24906112 -0.21253164 -0.11382062
-0.09702844 0.005760094 0.085830085 0.24850793 0.25599518 0.20954509 -0.06730487 -0.07094799
0.050062258 -0.23723383 0.108965546 0.5607907 0.05261629 -0.27715355 0.619882 -0.14251569
0.13537814 -0.31716534 0.1786052 -0.37779015 0.1692835 -0.41475588 0.14750728 0.054950863
0.041551497 0.2560481 0.07843546 0.40628526 -0.1944738 0.25058636 -0.097768344 0.036285017
0.32161218 0.14942661 0.22704922 0.20954026 -0.11251691 -0.1830139 0.0731082 -0.39854816
0.3329741 -0.018930972 -0.13316575 0.075435884 -0.4973675 0.19119965 -0.5326384 0.17527959
-0.2829007 -0.10591852 0.31524375 -0.06046686 0.087001905 0.05628325 0.15626915 -0.038806994
0.0036559016 -0.08281428 0.029772265 0.036738556 0.10890667 0.278068 -0.20930259 0.37727317
0.2931107 -0.34606296 0.27630863 0.07662539 0.2452604 -0.2659313 0.3727153 0.30486792
0.13355494 0.22247428 0.21495779 -0.18421337 -0.42026395 -0.2357326 0.175938 -0.023974221
-0.14281937 0.060098294 -0.044097483 0.031920306 0.15082586 0.17025678 0.26349074 0.049569268
-0.46881172 -0.20711909 0.68496704 -0.0026692364 0.15780392 0.01545962 -0.5899575 0.5124123
-0.41136822 0.02740633 0.04034467 -0.08672953 0.20247516 -0.1911823 0.017813202 -0.08331684
0.023573019 -0.15007125 0.25253862 0.10800508 0.081099026 0.15619421 0.08545714 0.35997087
-0.0073068864 -0.23604447 0.017095929 -0.18209592 0.24521753 -0.009667857 -0.009516565 0.11754253
0.0025781551 -0.1040024 -0.044878017 0.4767798 0.26363832 0.24622013 -0.2630745 -0.12846564
-0.06292127 0.4805958 0.3327634 0.07914579 -0.07027562 0.02461819 -0.19623825 -0.37274483
0.57154846 -0.27909726 -0.09072333 -0.15412542 0.023938578 -0.22408773 -0.51886225 0.23325181
0.038053364 -0.04372685 0.20498164 -0.18898264 0.054818317 -0.09154627 -0.4012786 0.11286371
-0.34138426 -0.011380594 -0.0553324 -0.29917368 0.24464864 -0.15627143 -0.39201322 0.0482568
-0.07000786 0.053044416 -0.26240018 -0.19416612 0.12525111 0.26077637 0.23944181 -0.5196617
0.23809865 0.11613019 -0.1684123 0.09030195 -0.24048798 -0.337176 0.02896544 -0.295123
00000000: ec0e 983e 6392 0b3f df24 063e 927b d83e
00000010: ebd7 8cbe 882d 853e 8f3d be3e f44e 17be
00000020: 9096 793c a68b 7abe 28fe 503d c445 18be
00000030: 5e44 88be 5402 39be e5a2 a7bc a31b a4bd
00000040: 199d 3d3f bbf8 d2be e6cf 333d 006c 883d
00000050: 19ff afbe 3fc6 2bbe 7c26 943e cd7a 9dbe
00000060: 0c59 b53e c042 893d f092 2f3d 2aee 0cbe
00000070: d543 9bbe f877 a1be fc20 6e3d 3c04 2fbe
00000080: 43cc 29be b3c8 3bbe 873d edbe 182a 77be
00000090: 6363 263e 16b4 923e a295 27bd 8e91 123d
000000a0: 663a 0fbe eef3 8abe 805e f5bd 3b68 b8be
000000b0: bb39 5f3d 2b12 fcbc aa64 5ebe cc86 61bd
000000c0: 0fd0 c1be 985b be3e d823 d23d d433 c23d
000000d0: de33 543e ad12 043e 9052 04bd 4444 21bd
000000e0: 288f c3be 9702 afbe 49e0 c3bc 2f64 533d
000000f0: 187b 9cbd b80c d43d 5280 4cbd 7c55 b3be
00000100: c05c a13e 8046 803e d283 44bd f580 843e
00000110: 0629 92be 880f 033e bb61 7ebe 71f8 253e
00000120: 7d2e 8abe 94d5 333e 3120 5e3e 124f bfbd
00000130: f701 b63e e109 7fbe e5a1 59be c91a e9bd
00000140: d9b6 c6bd 2cbf bc3b afc7 af3d dd78 7e3e
00000150: cd11 833e fd92 563e 23d7 89bd 2e4d 91bd
00000160: 150e 4d3d 6ded 72be 5429 df3d fb8f 0f3f
00000170: 2e84 573d 12e7 8dbe 96b0 1e3f a2ef 11be
00000180: 91a0 0a3e 7f63 a2be 48e4 363e b66d c1be
00000190: a758 2d3e e25a d4be 260c 173e 2814 613d
000001a0: e731 2a3d bd18 833e c5a2 a03d 9f04 d03e
000001b0: 2424 47be db4c 803e c53a c8bd 999f 143d
000001c0: 5aaa a43e 4a03 193e 977f 683e b991 563e
000001d0: 446f e6bd ff67 3bbe c1b9 953d 810e ccbe
000001e0: 957b aa3e 2015 9bbc 9a5c 08be 217e 9a3d
000001f0: f4a6 febe d7c9 433e fd5a 08bf 7e7c 333e
00000200: 5cd8 90be cfeb d8bd a167 a13e 19ac 77bd
00000210: 0e2e b23d 4489 663d 0505 203e 15f4 1ebd
00000220: da97 6f3b 899a a9bd f7e4 f33c 2b7b 163d
00000230: 760a df3d ee5e 8e3e 6b53 56be f329 c13e
00000240: 9b12 963e 2a2f b1be 5378 8d3e c6ed 9c3d
00000250: 8b25 7b3e 2628 88be 8ad4 be3e a617 9c3e
00000260: a0c2 083e 4cd0 633e e51d 5c3e 6ea2 3cbe
00000270: d62c d7be e363 71be 1729 343e 9665 c4bc
00000280: 3e3f 12be a129 763d 909f 34bd debe 023d
00000290: 1872 1a3e cb57 2e3e 42e8 863e 2509 4b3d
000002a0: 1708 f0be 0717 54be 005a 2f3f 5bee 2ebb
000002b0: 5a97 213e 594a 7d3c 7407 17bf 742d 033f
000002c0: db9e d2be 3d83 e03c 7440 253d 409f b1bd
000002d0: a655 4f3e 4bc5 43be feec 913c 05a2 aabd
000002e0: 341c c13c 47ac 19be be4c 813e c431 dd3d
000002f0: 3f17 a63d 60f1 1f3e 2704 af3d 1a4e b83e
00000300: 9b6e efbb a4b5 71be c30c 8c3c 5a77 3abe
00000310: 4e1a 7b3e ee65 1ebc 5eeb 1bbc 23ba f03d
00000320: 44f6 283b 36ff d4bd 03d2 37bd 7b1c f43e
00000330: 9afb 863e 2121 7c3e b3b1 86be 7f8c 03be
00000340: dedc 80bd a710 f63e f75f aa3e 3017 a23d
00000350: aaec 8fbd 16ac c93c aef2 48be 69d8 bebe
00000360: 0051 123f d6e5 8ebe 27cd b9bd 0ed3 1dbe
00000370: d61a c43c 4177 65be 28d4 04bf 90d9 6e3e
00000380: d8dd 1b3d ed1a 33bd b5e6 513e aa84 41be
00000390: 2c89 603d 9c7c bbbd 6374 cdbe 1725 e73d
000003a0: ebc9 aebe ac75 3abc 3aa4 62bd 4b2d 99be
000003b0: 2c85 7a3e 9e05 20be f5b5 c8be eca8 453d
000003c0: 4860 8fbd 1a45 593d 5159 86be 7cd3 46be
000003d0: d441 003e 7b84 853e 3c30 753e 8d08 05bf
000003e0: 22d0 733e aad5 ed3d 4674 2cbe 3bf0 b83d
000003f0: 7b42 76be 55a2 acbe ee48 ed3c 5d1a 97be

network_body.processors.0.dense.0.bias f4 [128]
0.0 0.0 0.0 0.0 0.0 0.0 0.0 0.0
0.0 0.0 0.0 0.0 0.0 0.0 0.0 0.0
0.0 0.0 0.0 0.0 0.0 0.0 0.0 0.0
0.0 0.0 0.0 0.0 0.0 0.0 0.0 0.0
0.0 0.0 0.0 0.0 0.0 0.0 0.0 0.0
0.0 0.0 0.0 0.0 0.0 0.0 0.0 0.0
0.0 0.0 0.0 0.0 0.0 0.0 0.0 0.0
0.0 0.0 0.0 0.0 0.0 0.0 0.0 0.0
0.0 0.0 0.0 0.0 0.0 0.0 0.0 0.0
0.0 0.0 0.0 0.0 0.0 0.0 0.0 0.0
0.0 0.0 0.0 0.0 0.0 0.0 0.0 0.0
0.0 0.0 0.0 0.0 0.0 0.0 0.0 0.0
0.0 0.0 0.0 0.0 0.0 0.0 0.0 0.0
0.0 0.0 0.0 0.0 0.0 0.0 0.0 0.0
0.0 0.0 0.0 0.0 0.0 0.0 0.0 0.0
0.0 0.0 0.0 0.0 0.0 0.0 0.0 0.0
00000000: 0000 0000 0000 0000 0000 0000 0000 0000
00000010: 0000 0000 0000 0000 0000 0000 0000 0000
00000020: 0000 0000 0000 0000 0000 0000 0000 0000
00000030: 0000 0000 0000 0000 0000 0000 0000 0000
00000040: 0000 0000 0000 0000 0000 0000 0000 0000
00000050: 0000 0000 0000 0000 0000 0000 0000 0000
00000060: 0000 0000 0000 0000 0000 0000 0000 0000
00000070: 0000 0000 0000 0000 0000 0000 0000 0000
00000080: 0000 0000 0000 0000 0000 0000 0000 0000
00000090: 0000 0000 0000 0000 0000 0000 0000 0000
000000a0: 0000 0000 0000 0000 0000 0000 0000 0000
000000b0: 0000 0000 0000 0000 0000 0000 0000 0000
000000c0: 0000 0000 0000 0000 0000 0000 0000 0000
000000d0: 0000 0000 0000 0000 0000 0000 0000 0000
000000e0: 0000 0000 0000 0000 0000 0000 0000 0000
000000f0: 0000 0000 0000 0000 0000 0000 0000 0000
00000100: 0000 0000 0000 0000 0000 0000 0000 0000
00000110: 0000 0000 0000 0000 0000 0000 0000 0000
00000120: 0000 0000 0000 0000 0000 0000 0000 0000
00000130: 0000 0000 0000 0000 0000 0000 0000 0000
00000140: 0000 0000 0000 0000 0000 0000 0000 0000
00000150: 0000 0000 0000 0000 0000 0000 0000 0000
00000160: 0000 0000 0000 0000 0000 0000 0000 0000
00000170: 0000 0000 0000 0000 0000 0000 0000 0000
00000180: 0000 0000 0000 0000 0000 0000 0000 0000
00000190: 0000 0000 0000 0000 0000 0000 0000 0000
000001a0: 0000 0000 0000 0000 0000 0000 0000 0000
000001b0: 0000 0000 0000 0000 0000 0000 0000 0000
000001c0: 0000 0000 0000 0000 0000 0000 0000 0000
000001d0: 0000 0000 0000 0000 0000 0000 0000 0000
000001e0: 0000 0000 0000 0000 0000 0000 0000 0000
000001f0: 0000 0000 0000 0000 0000 0000 0000 0000
