results/ZaraImitation/ZARAimitation/ZARAimitation-2000.pt (torch, 681279 bytes, 38 tensors)

network_body.observation_encoder.processors.0.conv_layers.0.weight f4 [16, 4, 8, 8]
000000 74 91 55 bc 34 83 43 bd a2 62 70 3d 58 06 b7 bc
       -0.013035167 -0.047732547 0.058687814 -0.022341892
000010 42 5e 47 3d fa dc 77 3d 2b e2 50 bd cb 6f 49 bd
       0.048673876 0.060513474 -0.05099694 -0.04917888
000020 2e b6 39 3d de d6 46 bd d3 1e 41 bd 50 12 c8 3b
       0.045339756 -0.048544757 -0.047148537 0.0061056986
000030 68 fc 6a bd 7c 3e e3 3c 7e 1c ca bc 56 f0 57 bd
       -0.05736962 0.027739756 -0.02467179 -0.052719437
000040 60 51 0d 3d 4c f4 be bc bc 05 15 bd 00 a3 78 bb
       0.034501433 -0.02330985 -0.03638242 -0.0037938952
000050 c0 f9 78 bb 21 0b 76 bd b0 e7 14 3d 1c d3 2e 3d
       -0.003799066 -0.060069207 0.036353767 0.0426818
000060 9a 57 01 3d f4 67 aa 3c be c4 49 bd 9a 38 10 bd
       0.031577684 0.020801522 -0.049259894 -0.03521023
000070 9e 2a 57 bd 8e f0 52 bd 04 62 c0 3c dc dd 51 bc
       -0.052530877 -0.051498942 0.023484237 -0.012809243
000080 48 32 14 bd 8e 3f 99 bc ac a4 be bc ac db f1 3c
       -0.036180764 -0.018707063 -0.023271881 0.029523693
000090 ec 1b 7f 3d 98 2e ed 3c 4a e9 88 bc 20 63 a6 bc
       0.062282488 0.028952882 -0.016712803 -0.020310938
0000a0 50 b4 ce bb 9f eb 61 bd be 00 12 3d 7d b6 50 bd
       -0.006308116 -0.055156346 0.03564524 -0.050955284
0000b0 f4 30 fb 3c b0 ce 73 3d b4 02 89 bc a0 85 5f 3d
       0.030662991 0.059523284 -0.016724922 0.054570794
0000c0 c4 4e 37 3d 40 2d 64 bd be 35 46 bd 00 33 82 3a
       0.04475285 -0.055707216 -0.048391096 0.0009933412
0000d0 48 17 21 bd ee 6b 5f 3d ee 42 2d 3d 7d 1e 5f bd
       -0.039328843 0.05454629 0.042300157 -0.054472435
0000e0 c8 db 37 3d b4 b6 d9 3c 00 e8 b7 3b 70 5d 66 bd
       0.044887334 0.026576377 0.0056123734 -0.056241453
0000f0 c0 6e 55 3b fe 59 16 3d 60 44 0e 3b b8 9e e6 bb
       0.0032567233 0.036706917 0.0021708235 -0.0070379637
000100 3c 5b d6 bc 0a 75 3b bd 48 65 65 bd 5c 84 02 3d
       -0.02616655 -0.045765914 -0.056004792 0.03186451
000110 93 92 57 bd 50 27 53 bd 9c f6 47 3d 74 0d 5c bc
       -0.05263002 -0.051551163 0.04881917 -0.013430942
000120 d8 c0 6c bd 60 1b 4c 3b a0 39 7d 3b dc 00 97 3c
       -0.057801098 0.0031144246 0.0038639084 0.018433027
000130 e8 80 01 bd 20 60 ab 3b 06 6c dc bc f0 a3 b0 bb
       -0.031617075 0.005229965 -0.026906978 -0.0053906366
000140 cc ce fa 3c 4d f8 52 bd d6 b0 e2 bc 2e e7 53 3d
       0.030616187 -0.05150633 -0.027672213 0.051734142
000150 a8 30 c6 bc e4 86 3c bc 13 bf 76 bd 7a 15 23 3d
       -0.024193123 -0.01150677 -0.060240816 0.039815404
000160 ec ab 48 3d 84 a1 0e bd 80 d8 d0 3c 1e cd 0a bd
       0.048992082 -0.034822002 0.02549386 -0.03388702
000170 64 c3 e0 3c 20 56 e2 3c 74 52 34 bd 34 1e 55 3d
       0.02743692 0.027628958 -0.044023946 0.052030757
000180 c8 49 65 3c c2 94 77 bd 96 9d 52 3d 32 bb 08 bd
       0.013994642 -0.0604446 0.051419817 -0.03338165
000190 28 15 06 bc b4 0f ed bc f8 73 3d 3d 1a d9 ee bc
       -0.008183755 -0.028938152 0.046253175 -0.029156256
0001a0 e3 57 63 bd 81 eb 63 bd 50 a9 ba 3c bc a8 89 bc
       -0.055503737 -0.055644516 0.022785813 -0.016804092
0001b0 be 86 38 bd 7e b1 22 bd e8 6b cf 3c 50 a8 f7 3b
       -0.045050375 -0.03972005 0.025320008 0.007557906
0001c0 a4 43 42 3d 5c e1 47 3d d8 6a 6f bc 00 11 50 3b
       0.04742779 0.048798904 -0.014612876 0.0031748414
0001d0 6a 6a ed bc 28 7e 42 3d d8 93 a2 bb c0 80 f1 3b
       -0.028981406 0.047483593 -0.004961472 0.0073700845
0001e0 1c 03 60 bd ba a6 1a 3d 50 08 39 bc f4 5f 2d bd
       -0.054690465 0.03775666 -0.011293486 -0.042327836
0001f0 08 72 5e 3c 1c 2e c1 3c 22 b6 5d 3d 80 0a 90 b9
       0.013576992 0.023581557 0.054128774 -0.00027473643
000200 40 d5 21 bd d8 3d a2 3c 20 3b 53 3d d0 f6 d0 3b
       -0.03951001 0.01980488 0.051570058 0.0063770786
000210 1c 87 ad 3c b0 7e 32 bb ae a0 49 bd 36 bf 6f 3d
       0.02118259 -0.0027236156 -0.0492255 0.058531962
000220 a8 04 da bb 72 bd 4c bd 5e 2e 2b bd 30 b2 7e 3d
       -0.006653387 -0.049985357 -0.041792266 0.06218165
000230 08 28 b5 3c e8 b5 b9 bb 03 43 7f bd d0 57 be 3c
       0.022113815 -0.005667437 -0.062319767 0.023235232
000240 0f 4a 1d bd 7c fd b3 3c b2 1f e7 bc 70 69 d1 bb
       -0.038400706 0.021971457 -0.028213356 -0.006390743
000250 20 b4 f0 ba 38 de e8 bc a8 70 b3 3c ce 6c 46 3d
       -0.0018364228 -0.028426275 0.021904305 0.048443608
000260 d0 c9 ea 3b b0 4a 3c 3d 7e 6e 2b 3d 3c 7b 15 3d
       0.007165171 0.045969665 0.04185342 0.03649448
000270 28 f2 a7 3c 42 bc 04 3d 48 fb a8 bc 77 d2 70 bd
       0.020501211 0.0324061 -0.020627633 -0.058794465
000280 c4 9d 0a bd 34 a0 6d 3d dc 04 83 3c 66 3c 74 3d
       -0.033841863 0.05801411 0.015993528 0.059627913
000290 40 34 60 3b 6a c7 f8 bc 9e d2 20 bd f2 75 e9 bc
       0.003421083 -0.030368526 -0.03926336 -0.028498624
0002a0 e0 1e c7 bc 70 70 19 3d f8 53 1a 3c 9c dc cc 3c
       -0.024306715 0.037460744 0.009419434 0.025007538
0002b0 ce 5c 43 bd 2a ca 02 bd c2 36 64 3d 0c aa 22 bd
       -0.047695927 -0.03193108 0.055716284 -0.03971295
0002c0 02 a4 01 3d 78 67 49 3d b8 15 9b bb aa e9 5e 3d
       0.03165055 0.04917094 -0.0047328137 0.05442206
0002d0 9a ff b6 bc 54 5c 43 bd 10 4f c3 3c 3e 30 dd bc
       -0.022338677 -0.047695473 0.02384141 -0.027000543
0002e0 3e db 2d 3d b0 0d a2 bb 07 73 75 bd 8e 84 61 bd
       0.042445414 -0.0049454793 -0.05992415 -0.055058055
0002f0 3a 81 54 3d 66 06 a5 bc 8a 56 5c 3d b8 44 b6 3c
       0.051881053 -0.020144653 0.053793468 0.022249565
000300 70 40 71 bd e8 4c 24 bd 32 72 24 3d 6e d9 0d 3d
       -0.058899343 -0.040112406 0.040147968 0.034631185
000310 72 09 3d 3d 80 4f 1e 3b 92 80 1b 3d 39 9b 5a bd
       0.046151586 0.0024156272 0.03796441 -0.053370688
000320 ee ce 30 3d 28 17 26 3c 0a 78 57 bd f4 10 e3 3c
       0.043166094 0.010137357 -0.052604713 0.027718045
000330 27 8f 76 bd 80 51 46 3c d2 97 5a bd 36 a9 cd bc
       -0.060195114 0.012104392 -0.053367443 -0.0251051
000340 51 69 4f bd 30 13 2a 3d 76 b0 e6 bc c8 b8 7e bd
       -0.050637547 0.041522205 -0.028160315 -0.06218794
000350 e4 be ba 3c be a8 10 bd 82 9e fd bc c0 a5 5e 3b
       0.022796102 -0.035317175 -0.030959371 0.0033973306
000360 f8 ae 66 3d c0 5a 03 bb 92 4f 64 bd d8 f9 ef bc
       0.056319207 -0.0020043105 -0.055739947 -0.02929394
000370 9c 94 9f bc c2 0c 56 3d 68 d5 5f 3c 64 52 ae 3c
       -0.019480042 0.05225826 0.01366172 0.021279521
000380 f1 28 60 bd 80 2f 34 3a 3e 25 33 bd 50 77 29 3c
       -0.054726545 0.0006873533 -0.04373669 0.010343388
000390 ce bf 1e bd cc 16 f4 bc e8 b8 16 bd 6a 2f a6 bc
       -0.038757138 -0.029796027 -0.036797434 -0.02028628
0003a0 88 23 32 bc 5a 83 4d 3d f8 37 1a 3c ec b6 39 bc
       -0.010872729 0.050174095 0.009412758 -0.011335116
0003b0 11 64 5a bd 70 a9 38 3d c6 e4 79 3d c8 dc ea bc
       -0.053318087 0.045083463 0.06100919 -0.02866973
0003c0 d4 73 28 bd 1e 87 18 bd ea ca 54 3d a0 28 31 bd
       -0.041126087 -0.037238233 0.051951326 -0.043251634
0003d0 2a 05 20 bd 16 00 55 bd 14 43 69 bc f2 24 1f 3d
       -0.039067425 -0.052002035 -0.014237184 0.038853593
0003e0 64 e5 cd 3c 22 0e 3c 3d 11 e2 08 bd 0c d0 10 bd
       0.025133796 0.045911916 -0.03341872 -0.03535466
0003f0 08 3b 06 3d ee e2 b5 bc f6 d5 a6 bc 9a be 7f 3d
       0.03277114 -0.022202935 -0.020365696 0.06243763

network_body.observation_encoder.processors.0.conv_layers.0.bias f4 [16]
000000 02 76 0e bd f2 32 84 bc 3e 1a 0c 3d 80 56 fe 3a
       -0.03478051 -0.016137574 0.034204714 0.0019404441
000010 4c 7f 90 bc 18 ae 7b 3d 58 7f 78 3d e2 8e 36 bd
       -0.017638825 0.061445326 0.06066832 -0.044569857
000020 7e 8a 55 bd a0 9d 3b bd 72 f4 50 3d 2a d9 45 3d
       -0.05213403 -0.04580462 0.05101437 0.048302807
000030 28 9d 91 3c 24 2c 9d bc 94 43 1b 3d 7a 40 13 3d
       0.017775133 -0.019186087 0.037906244 0.03595016

network_body.observation_encoder.processors.0.conv_layers.2.weight f4 [32, 16, 4, 4]
000000 28 57 ce bc 24 4c 25 bd 8c e8 0d 3d 60 49 65 3d
       -0.025188044 -0.040355816 0.034645602 0.05597818
000010 20 ac 05 3d 6c f3 35 3d 52 58 63 bd 80 df 5d bc
       0.032634854 0.0444216 -0.05550415 -0.013542056
000020 56 61 1c bd 30 ac f4 3b b0 b3 da bc 58 b8 bf 3c
       -0.038178764 0.0074668154 -0.02669701 0.023403332
000030 e8 09 3c bc f2 17 28 3d 46 a2 05 3d 6e f0 56 bd
       -0.011476971 0.04103846 0.03262546 -0.052475385
000040 d0 3a 31 3d 82 d7 68 3d 7a 30 fa bc 12 25 1f bd
       0.04326898 0.05684615 -0.030540694 -0.038853712
000050 a0 21 76 bc 50 c6 f8 3c 50 2f dc 3b f8 aa 13 bc
       -0.015022665 0.030368 0.0067195073 -0.00901293
000060 50 4c ab 3c 26 fc e6 bc de 00 d0 bc 68 2a 3b bd
       0.020910412 -0.028196406 -0.025391039 -0.04569474
000070 20 4b 19 3b 50 65 09 3c 60 d9 a0 ba 7c 65 fa bc
       0.0023390725 0.008385971 -0.0012271814 -0.03056597
000080 be 6a 6b bd c6 6b 09 3d 14 e6 0f 3d e8 b8 f3 3c
       -0.057474844 0.033550046 0.03513153 0.029751256
000090 fa 9c 55 bd ba 7a 25 3d 9d 90 5b bd 22 dd 7e 3d
       -0.052151658 0.040400244 -0.05360471 0.062222607
0000a0 68 56 25 3d b8 7e c4 3c 79 eb 77 bd 70 fc 83 bb
       0.040365607 0.023986205 -0.0605273 -0.0040278956
0000b0 7e 67 2f 3d cc 7c e6 bc f9 c7 06 bd 24 e4 10 3d
       0.042823307 -0.02813568 -0.032905553 0.03537382
0000c0 61 c2 4b bd 3c 57 46 3d 5e ee cf bc 30 ae 27 3c
       -0.04974592 0.048423037 -0.025382217 0.010234401
0000d0 0a 77 d7 bc c6 b5 16 3d 20 5b df 3b 84 04 3e bd
       -0.02630188 0.036794446 0.006816283 -0.046391025
0000e0 c2 b0 c5 bc 5c 4f 20 bd 6d da 70 bd 14 5a d7 bc
       -0.024132136 -0.039138183 -0.058802057 -0.02628807
0000f0 7b 1a 07 bd c4 ef 38 bc 88 cd 5d bc 7a 81 58 bd
       -0.032984238 -0.011287633 -0.013537772 -0.052857853
000100 f4 47 51 bc 20 1c 44 3d 98 67 00 3c 56 ab 2d 3d
       -0.012773503 0.047878385 0.007837199 0.042399727
000110 a4 32 8f bc 4f ef 38 bd f4 0d a2 3c 48 f6 1a bd
       -0.017480202 -0.045150097 0.019782044 -0.03783253
000120 ae 9a 26 3d c0 54 31 3c 80 01 34 3d b0 76 29 bb
       0.040674858 0.010823429 0.043946743 -0.0025858097
000130 d6 c8 09 3d 56 39 02 bd 8c 91 f2 3c ae 80 03 bd
       0.033638798 -0.03179296 0.029610418 -0.03210514
000140 70 01 2f bb b0 45 8b bb 00 94 85 bc c8 43 70 3d
       -0.0026703738 -0.0042502508 -0.016305923 0.05865839
000150 e4 e9 57 3d 85 bb 03 bd c5 d3 64 bd 4c ae ed 3c
       0.05271329 -0.032161254 -0.05586602 0.029013775
000160 0c 4d 98 bc 22 06 71 3d 34 90 bd 3c aa ea 38 bd
       -0.018591426 0.05884374 0.02314005 -0.045145668
000170 c0 c9 7b 3d 0c fa 60 bc 8e d1 b9 bc 28 6a fd 3c
       0.0614717 -0.013731491 -0.022682931 0.030934408
000180 36 23 54 3d 88 73 07 3c 46 9b 32 bd 00 81 c5 bb
       0.051791392 0.008267291 -0.04360511 -0.006027341
000190 ca 96 c2 bc 30 12 fc bb 9a 99 68 bd 48 ed 01 3d
       -0.023753542 -0.007692598 -0.05678711 0.03172043
0001a0 40 f5 fc 3c 1a 2a 58 bd ba ac 32 3d 42 09 5d bd
       0.030878663 -0.052774526 0.043621756 -0.053963907
0001b0 c0 1e 01 bb c0 02 7b 3b 54 44 88 3c bf 4c 18 bd
       -0.0019702166 0.00383012 0.016634144 -0.037182566
0001c0 e4 b8 4b bc f8 e1 f6 3c 98 19 19 bc e0 b5 ca 3c
       -0.012434218 0.030137047 -0.009344481 0.024744928
0001d0 2c f7 4e bd 74 56 74 3d a0 d6 cd ba be 8f da bc
       -0.05052869 0.05965276 -0.0015704222 -0.02667987
0001e0 a8 c8 e4 3c a6 6e dc bc 60 85 a8 3c 7c 1c 0e 3d
       0.027927712 -0.02690823 0.02057141 0.034695134
0001f0 80 fd 50 3a 62 c3 1f bd 18 93 b6 3c 10 ef d4 3b
       0.0007972345 -0.03900469 0.022286937 0.006498225
000200 fc 69 6b 3d c0 27 a1 ba 01 da 79 bd 8e 10 05 3d
       0.05747412 -0.0012295172 -0.06099892 0.03248649
000210 1c fc fc bc 9c 9d 46 3d 80 cc 32 3a 84 91 d0 bc
       -0.030881934 0.04849015 0.0006820634 -0.025460012
000220 00 2c 97 38 a4 24 5c 3d 3e 23 13 bd 8e 1c 7e 3d
       7.208437e-05 0.05374588 -0.03592228 0.06203895
000230 5c ac 54 bd 78 6d 7a bc 24 1a 78 bc 96 1b 8f bc
       -0.051922187 -0.015284888 -0.015142951 -0.017469209
000240 96 64 0e bd 1a a0 f3 bc a8 74 6e bc cc 54 65 bd
       -0.034763895 -0.029739428 -0.01455418 -0.05598907
000250 ac dc 36 bd 58 45 17 bc 32 d9 7e 3d 35 5d 79 bd
       -0.044644043 -0.009232841 0.062218852 -0.060879905
000260 c6 48 85 bc 26 54 01 bd dc 18 5e bc c0 0a c9 bc
       -0.016270053 -0.03157439 -0.013555732 -0.024541259
000270 82 63 7f 3d e2 49 25 bd 28 e9 9e 3c f0 35 57 3d
       0.062350757 -0.040353663 0.019398287 0.052541673
000280 24 81 c5 3c 40 b2 64 3d 34 08 9e 3c 68 35 18 3c
       0.02410943 0.055834055 0.01929102 0.009290077
000290 5c 7b ec 3c c0 62 ab 3a 00 a3 1b 3a e0 20 80 3c
       0.028867416 0.0013075694 0.00059370697 0.015640676
0002a0 03 af 7f bd 90 88 55 3c 4a 3e 18 bd ca 15 58 3d
       -0.062422764 0.013033047 -0.03716878 0.052755155
0002b0 1e e8 e2 bc fc 5b 19 bd 2e e7 5e 3d f4 60 89 bc
       -0.027698573 -0.03744124 0.05441969 -0.016769864
0002c0 9e ca 20 3d c0 ab d4 3a 90 d7 c1 3c 94 ba ad 3c
       0.03925573 0.0016225502 0.023662359 0.021207131
0002d0 8e 97 b9 bc 2e 4a 98 bc 46 13 08 bd 60 97 86 3b
       -0.022655275 -0.01859006 -0.033221506 0.004107401
0002e0 64 eb 65 3d 64 50 7a 3d 12 7b 62 3d 40 aa dc 3b
       0.05613269 0.061111823 0.05529315 0.0067341626
0002f0 50 e3 d5 3b 5c aa 90 3c b1 be 45 bd 7c 9b 07 3d
       0.006527342 0.017659359 -0.04827756 0.033107266
000300 24 55 39 bd b4 15 ef bc e0 f7 8f 3c b8 88 6f 3c
       -0.045247212 -0.029185154 0.01757425 0.014619999
000310 60 de 45 3b 66 1b b0 bc 64 37 de 3c 28 ef 5a bd
       0.003019236 -0.02149744 0.027126022 -0.053450733
000320 9e 70 41 3d cc 8f 91 3c 6a 2a 4b 3d 98 16 94 bc
       0.04722654 0.017768763 0.049600996 -0.01807718
000330 d8 97 d0 bb e2 12 22 3d 88 f0 10 bd f4 1a 56 3d
       -0.0063657574 0.03956879 -0.03538564 0.0522718
000340 bc 31 61 3d 3b 23 7c bd 48 9c 8c bb 10 e0 6d bc
       0.05497907 -0.061557036 -0.004291091 -0.014518753
000350 aa 62 01 3d 3c 12 32 bd 92 af 42 bd 66 2c 13 bd
       0.031588234 -0.04347442 -0.04753072 -0.035931014
000360 bc d5 3d 3d 9e 0f 4b 3d 70 0a 24 bb a8 8a e9 bb
       0.04634641 0.04957544 -0.0025030635 -0.007127125
000370 4a c5 79 3d c4 b7 20 3d 08 9a 0e 3d dc 57 e4 3c
       0.060979165 0.039237753 0.034814864 0.027873926
000380 78 18 88 3c e0 55 e5 bc 6c c5 5c bc 18 de 1b bc
       0.01661323 -0.02799505 -0.013474803 -0.0095134005
000390 ed 76 74 bd 48 a6 85 bc b2 60 13 3d 23 72 2e bd
       -0.05968373 -0.01631464 0.035980888 -0.042589318
0003a0 52 68 7a bd c8 d6 7d 3c a0 fd 85 3b 59 b8 49 bd
       -0.061134644 0.015493102 0.0040890723 -0.049248073
0003b0 9c 6d cf 3c 34 2d 86 3c bd 3b 75 bd 04 8d e1 3c
       0.02532082 0.016378976 -0.059871424 0.027533062
0003c0 f8 cd 61 3c 9d fd 1e bd e2 dc e8 bc fc ff 84 3c
       0.013782017 -0.038816083 -0.028425638 0.016235344
0003d0 5c ff 5b bd d0 0b 56 3c 54 47 ae bc 1e 23 36 3d
       -0.053710327 0.01306434 -0.021274246 0.044467084
0003e0 2a 65 9f bc 30 7e d1 3b 00 08 64 39 f8 e5 b9 bc
       -0.019457418 0.0063932166 0.00021746755 -0.022692665
0003f0 6c b3 40 3d 7e 86 ae bc 40 b9 43 3b 82 c4 28 bd
       0.04704611 -0.021304365 0.0029865056 -0.04120303

network_body.observation_encoder.processors.0.conv_layers.2.bias f4 [32]
000000 d6 6e dd bc 50 fe 8c bb e8 f4 37 bd 05 d5 47 bd
       -0.02703039 -0.0043027773 -0.044911295 -0.048787136
000010 ea d2 fb bc e8 6c 19 3d 84 9a 72 3d 10 df 61 bb
       -0.03074022 0.037457377 0.05922939 -0.003446523
000020 7c b5 56 bd 00 f0 13 3a c0 be 40 3b 1e 82 5a 3d
       -0.05241917 0.0005643368 0.002941057 0.053346746
000030 00 05 e9 3a f2 fb 2d bd 6c 7d ad 3c 00 ca e7 b9
       0.0017777979 -0.042476602 0.02117797 -0.00044210255
000040 5c 20 46 3d c0 6a cb bb a4 2a d2 3c 82 39 3c bd
       0.048370704 -0.006207794 0.025655098 -0.04595328
000050 00 62 de b8 b0 ba 09 bd b2 44 38 3d f2 4a 52 3d
       -0.00010604039 -0.033625305 0.044987388 0.051341005
000060 a8 4c f1 3c 22 c4 7f 3d fe aa 36 bd c8 dd 35 bd
       0.029455498 0.062442906 -0.044596665 -0.04440096
000070 e6 9b 4d 3d a8 c1 2a bc 6e eb ea bc 2c c3 24 3d
       0.050197504 -0.010422148 -0.028676715 0.040225193

network_body.observation_encoder.processors.0.dense.0.weight f4 [128, 32]
000000 be 91 bf 3e 96 b1 32 3e 7a 2e c6 bd 84 90 be 3c
       0.3741588 0.17450556 -0.096768335 0.02326227
000010 b9 9b 83 be e7 24 69 3e 9b bd d5 3d 0d 02 bc be
       -0.25704744 0.22767983 0.10436555 -0.36720315
000020 9f ea 84 be 71 fb 4b 3a 20 0d eb be ec a9 d1 3d
       -0.25960252 0.0007781303 -0.4590845 0.10237488
000030 05 97 1f 3d 6c 69 2b 3e 73 e6 27 be f3 ae 88 3e
       0.038962383 0.16739434 -0.16396503 0.26695976
000040 20 3d d9 bc 1b b1 93 3e a3 92 b2 be 42 78 fd 3c
       -0.026518404 0.28846058 -0.348775 0.030941132
000050 93 ec da 3d 50 8e c4 be 2c dd 56 be 17 32 5d 3e
       0.10689654 -0.38389826 -0.20982808 0.21601139
000060 e2 85 b2 3e b5 51 25 3d 69 ec 73 3e 7e 62 58 be
       0.3486777 0.040361125 0.23820652 -0.21131322
000070 e4 4b 28 3e b4 47 3e 3d 80 d5 92 bb 83 de 3d be
       0.164352 0.0464551 -0.0044810176 -0.18541913
000080 6e 83 94 be a1 d5 fe 3c 7d 71 52 3e ab 21 a7 be
       -0.29006523 0.031107726 0.20551105 -0.32642874
000090 77 3e 4d 3e fe ed 83 bd 1b 73 94 be 86 0c 86 3e
       0.2004336 -0.06441878 -0.28994069 0.2618143
0000a0 80 08 b3 be 9b 74 47 be 50 de b0 bd c4 69 cc 3d
       -0.34967422 -0.19478075 -0.08636153 0.09981111
0000b0 d3 6a df bd f6 23 32 bd a5 03 55 3e 75 c5 11 3e
       -0.10909047 -0.043491326 0.20802172 0.1423548
0000c0 c9 76 00 3f ce 18 d7 3e 05 07 78 3e 40 01 38 be
       0.5018125 0.42011112 0.24221428 -0.17969227
0000d0 50 28 fd be 4c d7 c7 3e 71 cc e1 bc b9 84 e6 3d
       -0.49444818 0.39031446 -0.027563306 0.112557836
0000e0 89 92 9f 3d 2f 35 79 3e 1f ae 97 3e 1a bf 92 3d
       0.07791621 0.24336694 0.2962503 0.07165356
0000f0 9f b4 52 be 08 14 81 bd 4a 35 fb 3d 42 b0 8c 3e
       -0.20576714 -0.06302649 0.122660235 0.27478224
000100 28 50 f7 bd 87 b9 93 ba 65 bc e2 bd 21 87 b8 be
       -0.120758355 -0.0011270501 -0.1107109 -0.36040595
000110 a1 eb e4 be 58 8c c6 3e b2 79 a4 3e 00 8b fc bd
       -0.4471102 0.3877895 0.32124096 -0.123312
000120 f0 7a 6c 3e cc 48 46 3e c8 ad 24 be 62 17 6c 3c
       0.23093772 0.19363707 -0.16081917 0.014409872
000130 a3 75 d2 be e1 30 c5 bc 5d 4b 49 3a c9 fe 1f 3e
       -0.41105375 -0.024071159 0.00076787715 0.15624537
000140 6d df 95 3d 7a ce 47 3e 7b f4 79 3d a4 d3 75 3d
       0.07318006 0.19512358 0.06102417 0.06001629
000150 34 d7 98 3d 65 0d 36 3e 36 21 4d 3e 8c c0 9a be
       0.07462922 0.17778547 0.200322 -0.30225027
000160 bf 27 2e 3d 22 ce 67 3d 9d 56 ed 3e 4a 05 4b bc
       0.042518374 0.056593068 0.46355143 -0.012391398
000170 a1 bf 58 3d 2a 35 a3 3e 31 e6 d5 3c 6a df 4f 3e
       0.052917127 0.31876498 0.02611074 0.2030007
000180 72 b6 d2 3d 57 02 50 be bc cc fa 3b eb 23 5a 3e
       0.10288705 -0.20313393 0.007653801 0.21302764
000190 69 02 88 3e 2e 10 e6 bc e8 2a 0f 3e 1a a0 91 3e
       0.2656434 -0.028083887 0.13981211 0.2844246
0001a0 b5 ad 2d bd 68 dd 7f bd 9a 0f 77 be 0d 43 90 be
       -0.042401988 -0.06246701 -0.24127045 -0.28176156
0001b0 bb bf 85 be 94 a0 c1 3d a5 fe fa 3c 7f 21 80 3e
       -0.2612284 0.09454456 0.030639002 0.25025555
0001c0 ae f4 9a be 1f 0e ae be 6d 99 00 3e f9 b2 20 be
       -0.302648 -0.3399515 0.12558527 -0.15693273
0001d0 4d 52 09 bf 29 48 89 be bd 7f d4 bc 2e 8d ce be
       -0.53641206 -0.26812866 -0.025939817 -0.40342087
0001e0 cb 51 58 be 6b 1d dd 3d 8b d5 eb 3d bc bf 0a be
       -0.21124952 0.10796627 0.115153395 -0.13549703
0001f0 3a a0 71 be 79 4f 49 be dd 4c 43 be f4 d9 ea 3d
       -0.23596278 -0.19659223 -0.1907229 0.114673525
000200 95 f8 b1 3e 33 cc 82 be 64 30 71 3e 8b 6c 30 3e
       0.34759966 -0.25546417 0.23553616 0.17228906
000210 be 87 10 3e 4b 26 38 3c 5f d8 8a bd 17 d8 be be
       0.14114282 0.0112395985 -0.06779551 -0.37274238
000220 8c c6 ed 3e f4 ee ec 3d 2c 5a 0f 3e bb 42 ad 3e
       0.46440542 0.11569014 0.13999242 0.33839974
000230 3c ab 02 bd 82 46 2f be 0b 0f 92 be cf fa b7 be
       -0.031901583 -0.1711674 -0.28527102 -0.3593354
000240 86 b1 b4 3e f8 a6 08 3f a4 75 72 be 57 49 35 3e
       0.3529169 0.53379774 -0.23677689 0.17703758
000250 c3 35 21 3e 39 d2 79 be 09 2e d4 bb 4a 2f 3f 3e
       0.15743165 -0.243966 -0.0064752144 0.18670383
000260 60 7e bc 3e a8 68 68 be 58 13 25 3e f8 9e 1a 3d
       0.36815166 -0.22696173 0.1612066 0.03774926
000270 7a 7c 32 3e 77 99 24 3e 48 eb 4c 3e 42 7d 19 bd
       0.17430297 0.16074167 0.20011628 -0.03747297
000280 2a a5 ef bd ae 16 13 3d 4b 62 6e be b6 b6 82 39
       -0.117014244 0.0359103 -0.23279683 0.00024931662
000290 7a 57 22 be 89 01 2f 3e 4c 13 37 3e 62 36 01 be
       -0.15853682 0.1709043 0.17878455 -0.12618402
0002a0 89 aa 6a 3e dc 0f be be 2d 4a 88 bc 59 cf 98 be
       0.22916616 -0.37121475 -0.016636932 -0.29845694
0002b0 bc 7c 84 be 87 20 50 bd bb 78 b6 3c 6d 63 81 3d
       -0.25876415 -0.05081227 0.022274366 0.06317792
0002c0 9e 92 1f be d7 cd 51 3e 95 a2 dc 3d 3b 70 86 bd
       -0.15583274 0.20488678 0.107731976 -0.06564375
0002d0 16 07 ec bb aa 4f 92 be a0 f8 71 3e 3c ee 49 bd
       -0.007202993 -0.28576404 0.23629999 -0.049299464
0002e0 6b fc 8e be 10 8a b9 be a7 f7 74 3e bc 8b c1 3e
       -0.27926955 -0.36238146 0.23922597 0.3780192
0002f0 57 35 36 be d7 e2 34 be 9f be 41 be 47 aa b3 38
       -0.17793785 -0.17664658 -0.18920372 8.567102e-05
000300 57 8b da 3e 34 8f 3a bd 65 05 75 3d d7 da 8f 3d
       0.42684433 -0.045546725 0.059819598 0.07024162
000310 9f 5a 77 be 58 ee 0b 3e c8 13 d7 be 15 7b 23 3e
       -0.24155663 0.1366514 -0.4200728 0.15964921
000320 d0 ed c4 3d 29 d4 3b 3e c7 df 77 bd 85 8a cc be
       0.09615672 0.18342651 -0.060516145 -0.39949432
000330 96 f9 0e be 8b 31 f9 3e e4 2a ff 3c 09 61 f0 3d
       -0.13962397 0.4867061 0.031148382 0.11737258
000340 6f c6 b4 be d2 5f 2c be 66 ab 7b 3e ba d9 0e 3d
       -0.35307643 -0.16833428 0.24577102 0.03487561
000350 57 e2 36 bd 1a ce 33 b9 43 35 e2 3d e8 d0 2b 3c
       -0.04464945 -0.00017147549 0.11045315 0.010486819
000360 77 ad 5a 3e 13 e1 c5 bd f9 14 1c 3e 50 d3 d0 3d
       0.21355234 -0.0966207 0.15242375 0.10196555
000370 ed 36 a1 3e f1 9a 91 3d 68 48 2a 3e 93 96 cc 3d
       0.31487218 0.07109631 0.16629183 0.09989657
000380 2c b1 35 be 97 2f 2a be 6d a6 05 bf ce fc 1e 3e
       -0.17743367 -0.16619717 -0.5220707 0.15526125
000390 ec a0 f4 3e af c4 6c 3e e5 57 3a bf ea c1 b8 3e
       0.47779024 0.23121904 -0.72790366 0.36085445
0003a0 36 7f 1a 3e cb 52 02 3e cb 31 1b be 7a f4 88 be
       0.1508759 0.12726896 -0.15155713 -0.2674902
0003b0 8d 7d e9 3e be 54 a9 3e 11 4d 3b be 32 55 13 be
       0.456036 0.33072466 -0.18291117 -0.14387968
0003c0 c0 38 b3 3b a2 6d 0a be 99 0a 48 3c 63 b7 00 bd
       0.0054694116 -0.13518384 0.012209558 -0.03142489
0003d0 5e d1 81 bd ac 52 5b 3e cf 40 d9 bd da 3d 11 be
       -0.06338762 0.21418256 -0.106080644 -0.14183751
0003e0 f9 59 0a bd 05 77 a9 be d8 a4 8e be 17 f0 18 be
       -0.03377721 -0.33098617 -0.2786014 -0.14935337
0003f0 cb f8 2d be 13 4f 17 3e 93 8b 80 be 8c 99 6b 3e
       -0.16989438 0.14776258 -0.25106487 0.23007792

network_body.observation_encoder.processors.0.dense.0.bias f4 [128]
000000 00 00 00 00 00 00 00 00 00 00 00 00 00 00 00 00
       0.0 0.0 0.0 0.0
000010 00 00 00 00 00 00 00 00 00 00 00 00 00 00 00 00
       0.0 0.0 0.0 0.0
000020 00 00 00 00 00 00 00 00 00 00 00 00 00 00 00 00
       0.0 0.0 0.0 0.0
000030 00 00 00 00 00 00 00 00 00 00 00 00 00 00 00 00
       0.0 0.0 0.0 0.0
000040 00 00 00 00 00 00 00 00 00 00 00 00 00 00 00 00
       0.0 0.0 0.0 0.0
000050 00 00 00 00 00 00 00 00 00 00 00 00 00 00 00 00
       0.0 0.0 0.0 0.0
000060 00 00 00 00 00 00 00 00 00 00 00 00 00 00 00 00
       0.0 0.0 0.0 0.0
000070 00 00 00 00 00 00 00 00 00 00 00 00 00 00 00 00
       0.0 0.0 0.0 0.0
000080 00 00 00 00 00 00 00 00 00 00 00 00 00 00 00 00
       0.0 0.0 0.0 0.0
000090 00 00 00 00 00 00 00 00 00 00 00 00 00 00 00 00
       0.0 0.0 0.0 0.0
0000a0 00 00 00 00 00 00 00 00 00 00 00 00 00 00 00 00
       0.0 0.0 0.0 0.0
0000b0 00 00 00 00 00 00 00 00 00 00 00 00 00 00 00 00
       0.0 0.0 0.0 0.0
0000c0 00 00 00 00 00 00 00 00 00 00 00 00 00 00 00 00
       0.0 0.0 0.0 0.0
0000d0 00 00 00 00 00 00 00 00 00 00 00 00 00 00 00 00
       0.0 0.0 0.0 0.0
0000e0 00 00 00 00 00 00 00 00 00 00 00 00 00 00 00 00
       0.0 0.0 0.0 0.0
0000f0 00 00 00 00 00 00 00 00 00 00 00 00 00 00 00 00
       0.0 0.0 0.0 0.0
000100 00 00 00 00 00 00 00 00 00 00 00 00 00 00 00 00
       0.0 0.0 0.0 0.0
000110 00 00 00 00 00 00 00 00 00 00 00 00 00 00 00 00
       0.0 0.0 0.0 0.0
000120 00 00 00 00 00 00 00 00 00 00 00 00 00 00 00 00
       0.0 0.0 0.0 0.0
000130 00 00 00 00 00 00 00 00 00 00 00 00 00 00 00 00
       0.0 0.0 0.0 0.0
000140 00 00 00 00 00 00 00 00 00 00 00 00 00 00 00 00
       0.0 0.0 0.0 0.0
000150 00 00 00 00 00 00 00 00 00 00 00 00 00 00 00 00
       0.0 0.0 0.0 0.0
000160 00 00 00 00 00 00 00 00 00 00 00 00 00 00 00 00
       0.0 0.0 0.0 0.0
000170 00 00 00 00 00 00 00 00 00 00 00 00 00 00 00 00
       0.0 0.0 0.0 0.0
000180 00 00 00 00 00 00 00 00 00 00 00 00 00 00 00 00
       0.0 0.0 0.0 0.0
000190 00 00 00 00 00 00 00 00 00 00 00 00 00 00 00 00
       0.0 0.0 0.0 0.0
0001a0 00 00 00 00 00 00 00 00 00 00 00 00 00 00 00 00
       0.0 0.0 0.0 0.0
0001b0 00 00 00 00 00 00 00 00 00 00 00 00 00 00 00 00
       0.0 0.0 0.0 0.0
0001c0 00 00 00 00 00 00 00 00 00 00 00 00 00 00 00 00
       0.0 0.0 0.0 0.0
0001d0 00 00 00 00 00 00 00 00 00 00 00 00 00 00 00 00
       0.0 0.0 0.0 0.0
0001e0 00 00 00 00 00 00 00 00 00 00 00 00 00 00 00 00
       0.0 0.0 0.0 0.0
0001f0 00 00 00 00 00 00 00 00 00 00 00 00 00 00 00 00
       0.0 0.0 0.0 0.0

network_body.processors.0.conv_layers.0.weight f4 [16, 4, 8, 8]
000000 74 91 55 bc 34 83 43 bd a2 62 70 3d 58 06 b7 bc
       -0.013035167 -0.047732547 0.058687814 -0.022341892
000010 42 5e 47 3d fa dc 77 3d 2b e2 50 bd cb 6f 49 bd
       0.048673876 0.060513474 -0.05099694 -0.04917888
000020 2e b6 39 3d de d6 46 bd d3 1e 41 bd 50 12 c8 3b
       0.045339756 -0.048544757 -0.047148537 0.0061056986
000030 68 fc 6a bd 7c 3e e3 3c 7e 1c ca bc 56 f0 57 bd
       -0.05736962 0.027739756 -0.02467179 -0.052719437
000040 60 51 0d 3d 4c f4 be bc bc 05 15 bd 00 a3 78 bb
       0.034501433 -0.02330985 -0.03638242 -0.0037938952
000050 c0 f9 78 bb 21 0b 76 bd b0 e7 14 3d 1c d3 2e 3d
       -0.003799066 -0.060069207 0.036353767 0.0426818
000060 9a 57 01 3d f4 67 aa 3c be c4 49 bd 9a 38 10 bd
       0.031577684 0.020801522 -0.049259894 -0.03521023
000070 9e 2a 57 bd 8e f0 52 bd 04 62 c0 3c dc dd 51 bc
       -0.052530877 -0.051498942 0.023484237 -0.012809243
000080 48 32 14 bd 8e 3f 99 bc ac a4 be bc ac db f1 3c
       -0.036180764 -0.018707063 -0.023271881 0.029523693
000090 ec 1b 7f 3d 98 2e ed 3c 4a e9 88 bc 20 63 a6 bc
       0.062282488 0.028952882 -0.016712803 -0.020310938
0000a0 50 b4 ce bb 9f eb 61 bd be 00 12 3d 7d b6 50 bd
       -0.006308116 -0.055156346 0.03564524 -0.050955284
0000b0 f4 30 fb 3c b0 ce 73 3d b4 02 89 bc a0 85 5f 3d
       0.030662991 0.059523284 -0.016724922 0.054570794
0000c0 c4 4e 37 3d 40 2d 64 bd be 35 46 bd 00 33 82 3a
       0.04475285 -0.055707216 -0.048391096 0.0009933412
0000d0 48 17 21 bd ee 6b 5f 3d ee 42 2d 3d 7d 1e 5f bd
       -0.039328843 0.05454629 0.042300157 -0.054472435
0000e0 c8 db 37 3d b4 b6 d9 3c 00 e8 b7 3b 70 5d 66 bd
       0.044887334 0.026576377 0.0056123734 -0.056241453
0000f0 c0 6e 55 3b fe 59 16 3d 60 44 0e 3b b8 9e e6 bb
       0.0032567233 0.036706917 0.0021708235 -0.0070379637
000100 3c 5b d6 bc 0a 75 3b bd 48 65 65 bd 5c 84 02 3d
       -0.02616655 -0.045765914 -0.056004792 0.03186451
000110 93 92 57 bd 50 27 53 bd 9c f6 47 3d 74 0d 5c bc
       -0.05263002 -0.051551163 0.04881917 -0.013430942
000120 d8 c0 6c bd 60 1b 4c 3b a0 39 7d 3b dc 00 97 3c
       -0.057801098 0.0031144246 0.0038639084 0.018433027
000130 e8 80 01 bd 20 60 ab 3b 06 6c dc bc f0 a3 b0 bb
       -0.031617075 0.005229965 -0.026906978 -0.0053906366
000140 cc ce fa 3c 4d f8 52 bd d6 b0 e2 bc 2e e7 53 3d
       0.030616187 -0.05150633 -0.027672213 0.051734142
000150 a8 30 c6 bc e4 86 3c bc 13 bf 76 bd 7a 15 23 3d
       -0.024193123 -0.01150677 -0.060240816 0.039815404
000160 ec ab 48 3d 84 a1 0e bd 80 d8 d0 3c 1e cd 0a bd
       0.048992082 -0.034822002 0.02549386 -0.03388702
000170 64 c3 e0 3c 20 56 e2 3c 74 52 34 bd 34 1e 55 3d
       0.02743692 0.027628958 -0.044023946 0.052030757
000180 c8 49 65 3c c2 94 77 bd 96 9d 52 3d 32 bb 08 bd
       0.013994642 -0.0604446 0.051419817 -0.03338165
000190 28 15 06 bc b4 0f ed bc f8 73 3d 3d 1a d9 ee bc
       -0.008183755 -0.028938152 0.046253175 -0.029156256
0001a0 e3 57 63 bd 81 eb 63 bd 50 a9 ba 3c bc a8 89 bc
       -0.055503737 -0.055644516 0.022785813 -0.016804092
0001b0 be 86 38 bd 7e b1 22 bd e8 6b cf 3c 50 a8 f7 3b
       -0.045050375 -0.03972005 0.025320008 0.007557906
0001c0 a4 43 42 3d 5c e1 47 3d d8 6a 6f bc 00 11 50 3b
       0.04742779 0.048798904 -0.014612876 0.0031748414
0001d0 6a 6a ed bc 28 7e 42 3d d8 93 a2 bb c0 80 f1 3b
       -0.028981406 0.047483593 -0.004961472 0.0073700845
0001e0 1c 03 60 bd ba a6 1a 3d 50 08 39 bc f4 5f 2d bd
       -0.054690465 0.03775666 -0.011293486 -0.042327836
0001f0 08 72 5e 3c 1c 2e c1 3c 22 b6 5d 3d 80 0a 90 b9
       0.013576992 0.023581557 0.054128774 -0.00027473643
000200 40 d5 21 bd d8 3d a2 3c 20 3b 53 3d d0 f6 d0 3b
       -0.03951001 0.01980488 0.051570058 0.0063770786
000210 1c 87 ad 3c b0 7e 32 bb ae a0 49 bd 36 bf 6f 3d
       0.02118259 -0.0027236156 -0.0492255 0.058531962
000220 a8 04 da bb 72 bd 4c bd 5e 2e 2b bd 30 b2 7e 3d
       -0.006653387 -0.049985357 -0.041792266 0.06218165
000230 08 28 b5 3c e8 b5 b9 bb 03 43 7f bd d0 57 be 3c
       0.022113815 -0.005667437 -0.062319767 0.023235232
000240 0f 4a 1d bd 7c fd b3 3c b2 1f e7 bc 70 69 d1 bb
       -0.038400706 0.021971457 -0.028213356 -0.006390743
000250 20 b4 f0 ba 38 de e8 bc a8 70 b3 3c ce 6c 46 3d
       -0.0018364228 -0.028426275 0.021904305 0.048443608
000260 d0 c9 ea 3b b0 4a 3c 3d 7e 6e 2b 3d 3c 7b 15 3d
       0.007165171 0.045969665 0.04185342 0.03649448
000270 28 f2 a7 3c 42 bc 04 3d 48 fb a8 bc 77 d2 70 bd
       0.020501211 0.0324061 -0.020627633 -0.058794465
000280 c4 9d 0a bd 34 a0 6d 3d dc 04 83 3c 66 3c 74 3d
       -0.033841863 0.05801411 0.015993528 0.059627913
000290 40 34 60 3b 6a c7 f8 bc 9e d2 20 bd f2 75 e9 bc
       0.003421083 -0.030368526 -0.03926336 -0.028498624
0002a0 e0 1e c7 bc 70 70 19 3d f8 53 1a 3c 9c dc cc 3c
       -0.024306715 0.037460744 0.009419434 0.025007538
0002b0 ce 5c 43 bd 2a ca 02 bd c2 36 64 3d 0c aa 22 bd
       -0.047695927 -0.03193108 0.055716284 -0.03971295
0002c0 02 a4 01 3d 78 67 49 3d b8 15 9b bb aa e9 5e 3d
       0.03165055 0.04917094 -0.0047328137 0.05442206
0002d0 9a ff b6 bc 54 5c 43 bd 10 4f c3 3c 3e 30 dd bc
       -0.022338677 -0.047695473 0.02384141 -0.027000543
0002e0 3e db 2d 3d b0 0d a2 bb 07 73 75 bd 8e 84 61 bd
       0.042445414 -0.0049454793 -0.05992415 -0.055058055
0002f0 3a 81 54 3d 66 06 a5 bc 8a 56 5c 3d b8 44 b6 3c
       0.051881053 -0.020144653 0.053793468 0.022249565
000300 70 40 71 bd e8 4c 24 bd 32 72 24 3d 6e d9 0d 3d
       -0.058899343 -0.040112406 0.040147968 0.034631185
000310 72 09 3d 3d 80 4f 1e 3b 92 80 1b 3d 39 9b 5a bd
       0.046151586 0.0024156272 0.03796441 -0.053370688
000320 ee ce 30 3d 28 17 26 3c 0a 78 57 bd f4 10 e3 3c
       0.043166094 0.010137357 -0.052604713 0.027718045
000330 27 8f 76 bd 80 51 46 3c d2 97 5a bd 36 a9 cd bc
       -0.060195114 0.012104392 -0.053367443 -0.0251051
000340 51 69 4f bd 30 13 2a 3d 76 b0 e6 bc c8 b8 7e bd
       -0.050637547 0.041522205 -0.028160315 -0.06218794
000350 e4 be ba 3c be a8 10 bd 82 9e fd bc c0 a5 5e 3b
       0.022796102 -0.035317175 -0.030959371 0.0033973306
000360 f8 ae 66 3d c0 5a 03 bb 92 4f 64 bd d8 f9 ef bc
       0.056319207 -0.0020043105 -0.055739947 -0.02929394
000370 9c 94 9f bc c2 0c 56 3d 68 d5 5f 3c 64 52 ae 3c
       -0.019480042 0.05225826 0.01366172 0.021279521
000380 f1 28 60 bd 80 2f 34 3a 3e 25 33 bd 50 77 29 3c
       -0.054726545 0.0006873533 -0.04373669 0.010343388
000390 ce bf 1e bd cc 16 f4 bc e8 b8 16 bd 6a 2f a6 bc
       -0.038757138 -0.029796027 -0.036797434 -0.02028628
0003a0 88 23 32 bc 5a 83 4d 3d f8 37 1a 3c ec b6 39 bc
       -0.010872729 0.050174095 0.009412758 -0.011335116
0003b0 11 64 5a bd 70 a9 38 3d c6 e4 79 3d c8 dc ea bc
       -0.053318087 0.045083463 0.06100919 -0.02866973
0003c0 d4 73 28 bd 1e 87 18 bd ea ca 54 3d a0 28 31 bd
       -0.041126087 -0.037238233 0.051951326 -0.043251634
0003d0 2a 05 20 bd 16 00 55 bd 14 43 69 bc f2 24 1f 3d
       -0.039067425 -0.052002035 -0.014237184 0.038853593
0003e0 64 e5 cd 3c 22 0e 3c 3d 11 e2 08 bd 0c d0 10 bd
       0.025133796 0.045911916 -0.03341872 -0.03535466
0003f0 08 3b 06 3d ee e2 b5 bc f6 d5 a6 bc 9a be 7f 3d
       0.03277114 -0.022202935 -0.020365696 0.06243763

network_body.processors.0.conv_layers.0.bias f4 [16]
000000 02 76 0e bd f2 32 84 bc 3e 1a 0c 3d 80 56 fe 3a
       -0.03478051 -0.016137574 0.034204714 0.0019404441
000010 4c 7f 90 bc 18 ae 7b 3d 58 7f 78 3d e2 8e 36 bd
       -0.017638825 0.061445326 0.06066832 -0.044569857
000020 7e 8a 55 bd a0 9d 3b bd 72 f4 50 3d 2a d9 45 3d
       -0.05213403 -0.04580462 0.05101437 0.048302807
000030 28 9d 91 3c 24 2c 9d bc 94 43 1b 3d 7a 40 13 3d
       0.017775133 -0.019186087 0.037906244 0.03595016

network_body.processors.0.conv_layers.2.weight f4 [32, 16, 4, 4]
000000 28 57 ce bc 24 4c 25 bd 8c e8 0d 3d 60 49 65 3d
       -0.025188044 -0.040355816 0.034645602 0.05597818
000010 20 ac 05 3d 6c f3 35 3d 52 58 63 bd 80 df 5d bc
       0.032634854 0.0444216 -0.05550415 -0.013542056
000020 56 61 1c bd 30 ac f4 3b b0 b3 da bc 58 b8 bf 3c
       -0.038178764 0.0074668154 -0.02669701 0.023403332
000030 e8 09 3c bc f2 17 28 3d 46 a2 05 3d 6e f0 56 bd
       -0.011476971 0.04103846 0.03262546 -0.052475385
000040 d0 3a 31 3d 82 d7 68 3d 7a 30 fa bc 12 25 1f bd
       0.04326898 0.05684615 -0.030540694 -0.038853712
000050 a0 21 76 bc 50 c6 f8 3c 50 2f dc 3b f8 aa 13 bc
       -0.015022665 0.030368 0.0067195073 -0.00901293
000060 50 4c ab 3c 26 fc e6 bc de 00 d0 bc 68 2a 3b bd
       0.020910412 -0.028196406 -0.025391039 -0.04569474
000070 20 4b 19 3b 50 65 09 3c 60 d9 a0 ba 7c 65 fa bc
       0.0023390725 0.008385971 -0.0012271814 -0.03056597
000080 be 6a 6b bd c6 6b 09 3d 14 e6 0f 3d e8 b8 f3 3c
       -0.057474844 0.033550046 0.03513153 0.029751256
000090 fa 9c 55 bd ba 7a 25 3d 9d 90 5b bd 22 dd 7e 3d
       -0.052151658 0.040400244 -0.05360471 0.062222607
0000a0 68 56 25 3d b8 7e c4 3c 79 eb 77 bd 70 fc 83 bb
       0.040365607 0.023986205 -0.0605273 -0.0040278956
0000b0 7e 67 2f 3d cc 7c e6 bc f9 c7 06 bd 24 e4 10 3d
       0.042823307 -0.02813568 -0.032905553 0.03537382
0000c0 61 c2 4b bd 3c 57 46 3d 5e ee cf bc 30 ae 27 3c
       -0.04974592 0.048423037 -0.025382217 0.010234401
0000d0 0a 77 d7 bc c6 b5 16 3d 20 5b df 3b 84 04 3e bd
       -0.02630188 0.036794446 0.006816283 -0.046391025
0000e0 c2 b0 c5 bc 5c 4f 20 bd 6d da 70 bd 14 5a d7 bc
       -0.024132136 -0.039138183 -0.058802057 -0.02628807
0000f0 7b 1a 07 bd c4 ef 38 bc 88 cd 5d bc 7a 81 58 bd
       -0.032984238 -0.011287633 -0.013537772 -0.052857853
000100 f4 47 51 bc 20 1c 44 3d 98 67 00 3c 56 ab 2d 3d
       -0.012773503 0.047878385 0.007837199 0.042399727
000110 a4 32 8f bc 4f ef 38 bd f4 0d a2 3c 48 f6 1a bd
       -0.017480202 -0.045150097 0.019782044 -0.03783253
000120 ae 9a 26 3d c0 54 31 3c 80 01 34 3d b0 76 29 bb
       0.040674858 0.010823429 0.043946743 -0.0025858097
000130 d6 c8 09 3d 56 39 02 bd 8c 91 f2 3c ae 80 03 bd
       0.033638798 -0.03179296 0.029610418 -0.03210514
000140 70 01 2f bb b0 45 8b bb 00 94 85 bc c8 43 70 3d
       -0.0026703738 -0.0042502508 -0.016305923 0.05865839
000150 e4 e9 57 3d 85 bb 03 bd c5 d3 64 bd 4c ae ed 3c
       0.05271329 -0.032161254 -0.05586602 0.029013775
000160 0c 4d 98 bc 22 06 71 3d 34 90 bd 3c aa ea 38 bd
       -0.018591426 0.05884374 0.02314005 -0.045145668
000170 c0 c9 7b 3d 0c fa 60 bc 8e d1 b9 bc 28 6a fd 3c
       0.0614717 -0.013731491 -0.022682931 0.030934408
000180 36 23 54 3d 88 73 07 3c 46 9b 32 bd 00 81 c5 bb
       0.051791392 0.008267291 -0.04360511 -0.006027341
000190 ca 96 c2 bc 30 12 fc bb 9a 99 68 bd 48 ed 01 3d
       -0.023753542 -0.007692598 -0.05678711 0.03172043
0001a0 40 f5 fc 3c 1a 2a 58 bd ba ac 32 3d 42 09 5d bd
       0.030878663 -0.052774526 0.043621756 -0.053963907
0001b0 c0 1e 01 bb c0 02 7b 3b 54 44 88 3c bf 4c 18 bd
       -0.0019702166 0.00383012 0.016634144 -0.037182566
0001c0 e4 b8 4b bc f8 e1 f6 3c 98 19 19 bc e0 b5 ca 3c
       -0.012434218 0.030137047 -0.009344481 0.024744928
0001d0 2c f7 4e bd 74 56 74 3d a0 d6 cd ba be 8f da bc
       -0.05052869 0.05965276 -0.0015704222 -0.02667987
0001e0 a8 c8 e4 3c a6 6e dc bc 60 85 a8 3c 7c 1c 0e 3d
       0.027927712 -0.02690823 0.02057141 0.034695134
0001f0 80 fd 50 3a 62 c3 1f bd 18 93 b6 3c 10 ef d4 3b
       0.0007972345 -0.03900469 0.022286937 0.006498225
000200 fc 69 6b 3d c0 27 a1 ba 01 da 79 bd 8e 10 05 3d
       0.05747412 -0.0012295172 -0.06099892 0.03248649
000210 1c fc fc bc 9c 9d 46 3d 80 cc 32 3a 84 91 d0 bc
       -0.030881934 0.04849015 0.0006820634 -0.025460012
000220 00 2c 97 38 a4 24 5c 3d 3e 23 13 bd 8e 1c 7e 3d
       7.208437e-05 0.05374588 -0.03592228 0.06203895
000230 5c ac 54 bd 78 6d 7a bc 24 1a 78 bc 96 1b 8f bc
       -0.051922187 -0.015284888 -0.015142951 -0.017469209
000240 96 64 0e bd 1a a0 f3 bc a8 74 6e bc cc 54 65 bd
       -0.034763895 -0.029739428 -0.01455418 -0.05598907
000250 ac dc 36 bd 58 45 17 bc 32 d9 7e 3d 35 5d 79 bd
       -0.044644043 -0.009232841 0.062218852 -0.060879905
000260 c6 48 85 bc 26 54 01 bd dc 18 5e bc c0 0a c9 bc
       -0.016270053 -0.03157439 -0.013555732 -0.024541259
000270 82 63 7f 3d e2 49 25 bd 28 e9 9e 3c f0 35 57 3d
       0.062350757 -0.040353663 0.019398287 0.052541673
000280 24 81 c5 3c 40 b2 64 3d 34 08 9e 3c 68 35 18 3c
       0.02410943 0.055834055 0.01929102 0.009290077
000290 5c 7b ec 3c c0 62 ab 3a 00 a3 1b 3a e0 20 80 3c
       0.028867416 0.0013075694 0.00059370697 0.015640676
0002a0 03 af 7f bd 90 88 55 3c 4a 3e 18 bd ca 15 58 3d
       -0.062422764 0.013033047 -0.03716878 0.052755155
0002b0 1e e8 e2 bc fc 5b 19 bd 2e e7 5e 3d f4 60 89 bc
       -0.027698573 -0.03744124 0.05441969 -0.016769864
0002c0 9e ca 20 3d c0 ab d4 3a 90 d7 c1 3c 94 ba ad 3c
       0.03925573 0.0016225502 0.023662359 0.021207131
0002d0 8e 97 b9 bc 2e 4a 98 bc 46 13 08 bd 60 97 86 3b
       -0.022655275 -0.01859006 -0.033221506 0.004107401
0002e0 64 eb 65 3d 64 50 7a 3d 12 7b 62 3d 40 aa dc 3b
       0.05613269 0.061111823 0.05529315 0.0067341626
0002f0 50 e3 d5 3b 5c aa 90 3c b1 be 45 bd 7c 9b 07 3d
       0.006527342 0.017659359 -0.04827756 0.033107266
000300 24 55 39 bd b4 15 ef bc e0 f7 8f 3c b8 88 6f 3c
       -0.045247212 -0.029185154 0.01757425 0.014619999
000310 60 de 45 3b 66 1b b0 bc 64 37 de 3c 28 ef 5a bd
       0.003019236 -0.02149744 0.027126022 -0.053450733
000320 9e 70 41 3d cc 8f 91 3c 6a 2a 4b 3d 98 16 94 bc
       0.04722654 0.017768763 0.049600996 -0.01807718
000330 d8 97 d0 bb e2 12 22 3d 88 f0 10 bd f4 1a 56 3d
       -0.0063657574 0.03956879 -0.03538564 0.0522718
000340 bc 31 61 3d 3b 23 7c bd 48 9c 8c bb 10 e0 6d bc
       0.05497907 -0.061557036 -0.004291091 -0.014518753
000350 aa 62 01 3d 3c 12 32 bd 92 af 42 bd 66 2c 13 bd
       0.031588234 -0.04347442 -0.04753072 -0.035931014
000360 bc d5 3d 3d 9e 0f 4b 3d 70 0a 24 bb a8 8a e9 bb
       0.04634641 0.04957544 -0.0025030635 -0.007127125
000370 4a c5 79 3d c4 b7 20 3d 08 9a 0e 3d dc 57 e4 3c
       0.060979165 0.039237753 0.034814864 0.027873926
000380 78 18 88 3c e0 55 e5 bc 6c c5 5c bc 18 de 1b bc
       0.01661323 -0.02799505 -0.013474803 -0.0095134005
000390 ed 76 74 bd 48 a6 85 bc b2 60 13 3d 23 72 2e bd
       -0.05968373 -0.01631464 0.035980888 -0.042589318
0003a0 52 68 7a bd c8 d6 7d 3c a0 fd 85 3b 59 b8 49 bd
       -0.061134644 0.015493102 0.0040890723 -0.049248073
0003b0 9c 6d cf 3c 34 2d 86 3c bd 3b 75 bd 04 8d e1 3c
       0.02532082 0.016378976 -0.059871424 0.027533062
0003c0 f8 cd 61 3c 9d fd 1e bd e2 dc e8 bc fc ff 84 3c
       0.013782017 -0.038816083 -0.028425638 0.016235344
0003d0 5c ff 5b bd d0 0b 56 3c 54 47 ae bc 1e 23 36 3d
       -0.053710327 0.01306434 -0.021274246 0.044467084
0003e0 2a 65 9f bc 30 7e d1 3b 00 08 64 39 f8 e5 b9 bc
       -0.019457418 0.0063932166 0.00021746755 -0.022692665
0003f0 6c b3 40 3d 7e 86 ae bc 40 b9 43 3b 82 c4 28 bd
       0.04704611 -0.021304365 0.0029865056 -0.04120303

network_body.processors.0.conv_layers.2.bias f4 [32]
000000 d6 6e dd bc 50 fe 8c bb e8 f4 37 bd 05 d5 47 bd
       -0.02703039 -0.0043027773 -0.044911295 -0.048787136
000010 ea d2 fb bc e8 6c 19 3d 84 9a 72 3d 10 df 61 bb
       -0.03074022 0.037457377 0.05922939 -0.003446523
000020 7c b5 56 bd 00 f0 13 3a c0 be 40 3b 1e 82 5a 3d
       -0.05241917 0.0005643368 0.002941057 0.053346746
000030 00 05 e9 3a f2 fb 2d bd 6c 7d ad 3c 00 ca e7 b9
       0.0017777979 -0.042476602 0.02117797 -0.00044210255
000040 5c 20 46 3d c0 6a cb bb a4 2a d2 3c 82 39 3c bd
       0.048370704 -0.006207794 0.025655098 -0.04595328
000050 00 62 de b8 b0 ba 09 bd b2 44 38 3d f2 4a 52 3d
       -0.00010604039 -0.033625305 0.044987388 0.051341005
000060 a8 4c f1 3c 22 c4 7f 3d fe aa 36 bd c8 dd 35 bd
       0.029455498 0.062442906 -0.044596665 -0.04440096
000070 e6 9b 4d 3d a8 c1 2a bc 6e eb ea bc 2c c3 24 3d
       0.050197504 -0.010422148 -0.028676715 0.040225193

network_body.processors.0.dense.0.weight f4 [128, 32]
000000 be 91 bf 3e 96 b1 32 3e 7a 2e c6 bd 84 90 be 3c
       0.3741588 0.17450556 -0.096768335 0.02326227
000010 b9 9b 83 be e7 24 69 3e 9b bd d5 3d 0d 02 bc be
       -0.25704744 0.22767983 0.10436555 -0.36720315
000020 9f ea 84 be 71 fb 4b 3a 20 0d eb be ec a9 d1 3d
       -0.25960252 0.0007781303 -0.4590845 0.10237488
000030 05 97 1f 3d 6c 69 2b 3e 73 e6 27 be f3 ae 88 3e
       0.038962383 0.16739434 -0.16396503 0.26695976
000040 20 3d d9 bc 1b b1 93 3e a3 92 b2 be 42 78 fd 3c
       -0.026518404 0.28846058 -0.348775 0.030941132
000050 93 ec da 3d 50 8e c4 be 2c dd 56 be 17 32 5d 3e
       0.10689654 -0.38389826 -0.20982808 0.21601139
000060 e2 85 b2 3e b5 51 25 3d 69 ec 73 3e 7e 62 58 be
       0.3486777 0.040361125 0.23820652 -0.21131322
000070 e4 4b 28 3e b4 47 3e 3d 80 d5 92 bb 83 de 3d be
       0.164352 0.0464551 -0.0044810176 -0.18541913
000080 6e 83 94 be a1 d5 fe 3c 7d 71 52 3e ab 21 a7 be
       -0.29006523 0.031107726 0.20551105 -0.32642874
000090 77 3e 4d 3e fe ed 83 bd 1b 73 94 be 86 0c 86 3e
       0.2004336 -0.06441878 -0.28994069 0.2618143
0000a0 80 08 b3 be 9b 74 47 be 50 de b0 bd c4 69 cc 3d
       -0.34967422 -0.19478075 -0.08636153 0.09981111
0000b0 d3 6a df bd f6 23 32 bd a5 03 55 3e 75 c5 11 3e
       -0.10909047 -0.043491326 0.20802172 0.1423548
0000c0 c9 76 00 3f ce 18 d7 3e 05 07 78 3e 40 01 38 be
       0.5018125 0.42011112 0.24221428 -0.17969227
0000d0 50 28 fd be 4c d7 c7 3e 71 cc e1 bc b9 84 e6 3d
       -0.49444818 0.39031446 -0.027563306 0.112557836
0000e0 89 92 9f 3d 2f 35 79 3e 1f ae 97 3e 1a bf 92 3d
       0.07791621 0.24336694 0.2962503 0.07165356
0000f0 9f b4 52 be 08 14 81 bd 4a 35 fb 3d 42 b0 8c 3e
       -0.20576714 -0.06302649 0.122660235 0.27478224
000100 28 50 f7 bd 87 b9 93 ba 65 bc e2 bd 21 87 b8 be
       -0.120758355 -0.0011270501 -0.1107109 -0.36040595
000110 a1 eb e4 be 58 8c c6 3e b2 79 a4 3e 00 8b fc bd
       -0.4471102 0.3877895 0.32124096 -0.123312
000120 f0 7a 6c 3e cc 48 46 3e c8 ad 24 be 62 17 6c 3c
       0.23093772 0.19363707 -0.16081917 0.014409872
000130 a3 75 d2 be e1 30 c5 bc 5d 4b 49 3a c9 fe 1f 3e
       -0.41105375 -0.024071159 0.00076787715 0.15624537
000140 6d df 95 3d 7a ce 47 3e 7b f4 79 3d a4 d3 75 3d
       0.07318006 0.19512358 0.06102417 0.06001629
000150 34 d7 98 3d 65 0d 36 3e 36 21 4d 3e 8c c0 9a be
       0.07462922 0.17778547 0.200322 -0.30225027
000160 bf 27 2e 3d 22 ce 67 3d 9d 56 ed 3e 4a 05 4b bc
       0.042518374 0.056593068 0.46355143 -0.012391398
000170 a1 bf 58 3d 2a 35 a3 3e 31 e6 d5 3c 6a df 4f 3e
       0.052917127 0.31876498 0.02611074 0.2030007
000180 72 b6 d2 3d 57 02 50 be bc cc fa 3b eb 23 5a 3e
       0.10288705 -0.20313393 0.007653801 0.21302764
000190 69 02 88 3e 2e 10 e6 bc e8 2a 0f 3e 1a a0 91 3e
       0.2656434 -0.028083887 0.13981211 0.2844246
0001a0 b5 ad 2d bd 68 dd 7f bd 9a 0f 77 be 0d 43 90 be
       -0.042401988 -0.06246701 -0.24127045 -0.28176156
0001b0 bb bf 85 be 94 a0 c1 3d a5 fe fa 3c 7f 21 80 3e
       -0.2612284 0.09454456 0.030639002 0.25025555
0001c0 ae f4 9a be 1f 0e ae be 6d 99 00 3e f9 b2 20 be
       -0.302648 -0.3399515 0.12558527 -0.15693273
0001d0 4d 52 09 bf 29 48 89 be bd 7f d4 bc 2e 8d ce be
       -0.53641206 -0.26812866 -0.025939817 -0.40342087
0001e0 cb 51 58 be 6b 1d dd 3d 8b d5 eb 3d bc bf 0a be
       -0.21124952 0.10796627 0.115153395 -0.13549703
0001f0 3a a0 71 be 79 4f 49 be dd 4c 43 be f4 d9 ea 3d
       -0.23596278 -0.19659223 -0.1907229 0.114673525
000200 95 f8 b1 3e 33 cc 82 be 64 30 71 3e 8b 6c 30 3e
       0.34759966 -0.25546417 0.23553616 0.17228906
000210 be 87 10 3e 4b 26 38 3c 5f d8 8a bd 17 d8 be be
       0.14114282 0.0112395985 -0.06779551 -0.37274238
000220 8c c6 ed 3e f4 ee ec 3d 2c 5a 0f 3e bb 42 ad 3e
       0.46440542 0.11569014 0.13999242 0.33839974
000230 3c ab 02 bd 82 46 2f be 0b 0f 92 be cf fa b7 be
       -0.031901583 -0.1711674 -0.28527102 -0.3593354
000240 86 b1 b4 3e f8 a6 08 3f a4 75 72 be 57 49 35 3e
       0.3529169 0.53379774 -0.23677689 0.17703758
000250 c3 35 21 3e 39 d2 79 be 09 2e d4 bb 4a 2f 3f 3e
       0.15743165 -0.243966 -0.0064752144 0.18670383
000260 60 7e bc 3e a8 68 68 be 58 13 25 3e f8 9e 1a 3d
       0.36815166 -0.22696173 0.1612066 0.03774926
000270 7a 7c 32 3e 77 99 24 3e 48 eb 4c 3e 42 7d 19 bd
       0.17430297 0.16074167 0.20011628 -0.03747297
000280 2a a5 ef bd ae 16 13 3d 4b 62 6e be b6 b6 82 39
       -0.117014244 0.0359103 -0.23279683 0.00024931662
000290 7a 57 22 be 89 01 2f 3e 4c 13 37 3e 62 36 01 be
       -0.15853682 0.1709043 0.17878455 -0.12618402
0002a0 89 aa 6a 3e dc 0f be be 2d 4a 88 bc 59 cf 98 be
       0.22916616 -0.37121475 -0.016636932 -0.29845694
0002b0 bc 7c 84 be 87 20 50 bd bb 78 b6 3c 6d 63 81 3d
       -0.25876415 -0.05081227 0.022274366 0.06317792
0002c0 9e 92 1f be d7 cd 51 3e 95 a2 dc 3d 3b 70 86 bd
       -0.15583274 0.20488678 0.107731976 -0.06564375
0002d0 16 07 ec bb aa 4f 92 be a0 f8 71 3e 3c ee 49 bd
       -0.007202993 -0.28576404 0.23629999 -0.049299464
0002e0 6b fc 8e be 10 8a b9 be a7 f7 74 3e bc 8b c1 3e
       -0.27926955 -0.36238146 0.23922597 0.3780192
0002f0 57 35 36 be d7 e2 34 be 9f be 41 be 47 aa b3 38
       -0.17793785 -0.17664658 -0.18920372 8.567102e-05
000300 57 8b da 3e 34 8f 3a bd 65 05 75 3d d7 da 8f 3d
       0.42684433 -0.045546725 0.059819598 0.07024162
000310 9f 5a 77 be 58 ee 0b 3e c8 13 d7 be 15 7b 23 3e
       -0.24155663 0.1366514 -0.4200728 0.15964921
000320 d0 ed c4 3d 29 d4 3b 3e c7 df 77 bd 85 8a cc be
       0.09615672 0.18342651 -0.060516145 -0.39949432
000330 96 f9 0e be 8b 31 f9 3e e4 2a ff 3c 09 61 f0 3d
       -0.13962397 0.4867061 0.031148382 0.11737258
000340 6f c6 b4 be d2 5f 2c be 66 ab 7b 3e ba d9 0e 3d
       -0.35307643 -0.16833428 0.24577102 0.03487561
000350 57 e2 36 bd 1a ce 33 b9 43 35 e2 3d e8 d0 2b 3c
       -0.04464945 -0.00017147549 0.11045315 0.010486819
000360 77 ad 5a 3e 13 e1 c5 bd f9 14 1c 3e 50 d3 d0 3d
       0.21355234 -0.0966207 0.15242375 0.10196555
000370 ed 36 a1 3e f1 9a 91 3d 68 48 2a 3e 93 96 cc 3d
       0.31487218 0.07109631 0.16629183 0.09989657
000380 2c b1 35 be 97 2f 2a be 6d a6 05 bf ce fc 1e 3e
       -0.17743367 -0.16619717 -0.5220707 0.15526125
000390 ec a0 f4 3e af c4 6c 3e e5 57 3a bf ea c1 b8 3e
       0.47779024 0.23121904 -0.72790366 0.36085445
0003a0 36 7f 1a 3e cb 52 02 3e cb 31 1b be 7a f4 88 be
       0.1508759 0.12726896 -0.15155713 -0.2674902
0003b0 8d 7d e9 3e be 54 a9 3e 11 4d 3b be 32 55 13 be
       0.456036 0.33072466 -0.18291117 -0.14387968
0003c0 c0 38 b3 3b a2 6d 0a be 99 0a 48 3c 63 b7 00 bd
       0.0054694116 -0.13518384 0.012209558 -0.03142489
0003d0 5e d1 81 bd ac 52 5b 3e cf 40 d9 bd da 3d 11 be
       -0.06338762 0.21418256 -0.106080644 -0.14183751
0003e0 f9 59 0a bd 05 77 a9 be d8 a4 8e be 17 f0 18 be
       -0.03377721 -0.33098617 -0.2786014 -0.14935337
0003f0 cb f8 2d be 13 4f 17 3e 93 8b 80 be 8c 99 6b 3e
       -0.16989438 0.14776258 -0.25106487 0.23007792
