results/ZaraImitation/ZARAimitation/ZARAimitation-13903.onnx (onnx, 337653 bytes, 15 tensors)

network_body.observation_encoder.processors.0.conv_layers.0.weight f4 [16, 4, 8, 8]
0	0xbc1c50f5	-0.009540786
1	0x3d52e96c	0.05149214
2	0xbd228158	-0.039674133
3	0xbd258658	-0.040411323
4	0x3d6d6a5b	0.057962757
5	0xbd144a64	-0.036203757
6	0xbc375a49	-0.011190959
7	0xbd0e1d10	-0.034695685
8	0x3cc31d61	0.02381772
9	0xbcbea2f5	-0.023271063
10	0x3d4f8a3d	0.050668944
11	0x3d4ac190	0.049501
12	0xbd050d3a	-0.032483317
13	0x3cf5b5de	0.029993948
14	0xbd0ba81f	-0.03409588
15	0xbc81fcd5	-0.01586763
16	0x3ce6ff4e	0.02819791
17	0x3d3eb98a	0.046563663
18	0xbd2fb7c3	-0.04289986
19	0x3d079c00	0.033107758
20	0x3c72b5c5	0.014813845
21	0x3c159a52	0.009131031
22	0x3b5a3f09	0.0033301732
23	0xbc3124bf	-0.010811984
24	0xbd0340cf	-0.03204423
25	0xbce8ac42	-0.028402451
26	0x3cb9d036	0.02268229
27	0x3d46587d	0.048424233
28	0x3d5fbe37	0.054624762
29	0xbd6e5897	-0.058189955
30	0xbd7d7ba2	-0.061885484
31	0xbd0fca1d	-0.03510486
32	0x3d6ca568	0.05777493
33	0x3bfb42f5	0.007667894
34	0xbd224e5b	-0.039625507
35	0xbd77f078	-0.060532063
36	0x3cc608ff	0.024174212
37	0xbc67d60d	-0.014150155
38	0xbd022614	-0.031774595
39	0xbd7fd35e	-0.062457435
40	0x3c84bdce	0.016203787
41	0x3c96a553	0.01838938
42	0x3d15b68f	0.036551055
43	0xbd6703b9	-0.056400035
44	0xbd27c416	-0.040958486
45	0xbcf84a32	-0.030308817
46	0x3aca4586	0.0015432097
47	0xba917544	-0.001109757
48	0x3d6b298d	0.057412673
49	0xbd69e1d3	-0.05710013
50	0x3d2fa6f7	0.04288384
51	0x3c1dd5dc	0.009633508
52	0x3d229dcb	0.039701264
53	0xbd72af77	-0.059249368
54	0xbb9b8ec9	-0.004747246
55	0x3d3216ce	0.04347878
56	0x3d6e222c	0.058138058
57	0x3c5948bd	0.013261971
58	0x3cf2499e	0.029576119
59	0x3c85831f	0.016297875
60	0xbb029eb2	-0.0019931016
61	0x3d7d7e81	0.06188822
62	0x3c9ba0ee	0.018997636
63	0xbd2e63ba	-0.042575575
64	0x3d178601	0.03699303
65	0xbcdf7591	-0.02727774
66	0x3d74fe92	0.05981309
67	0x3d5014bd	0.050801028
68	0x3c64f2ed	0.013973934
69	0xbd544850	-0.051826775
70	0x3d6bb8bf	0.057549234
71	0x3d2657b1	0.040610973
72	0x3d47c81d	0.048774827
73	0xbd1a9699	-0.037741277
74	0xbd54639a	-0.0518528
75	0xbd77e9dc	-0.06052576
76	0x3c809074	0.01569388
77	0xbd676229	-0.056490097
78	0x3bf72472	0.0075421864
79	0xbcd1b442	-0.025598649
80	0x3d79ea8b	0.061014693
81	0x3d1ee303	0.038790714
82	0x3d7f9c57	0.062404957
83	0x3d1ae24b	0.037813466
84	0xbd40acda	-0.047039844
85	0xbd7780d8	-0.06042561
86	0xbce09dcc	-0.027418993
87	0xbd6f87a2	-0.05847896
88	0xbc064a42	-0.008196415
89	0x3a588f57	0.00082611054
90	0x3d0a82f9	0.03381631
91	0x3d70c48a	0.058781184
92	0x3d23e5e4	0.040014163
93	0xbce28553	-0.027651465
94	0x3d74182f	0.059593376
95	0xbc53ca77	-0.012926689
96	0x3d1dc71c	0.038519964
97	0x3ce97936	0.02850018
98	0x3d124d51	0.035718266
99	0x3d53fc29	0.05175415
100	0xbbbd250a	-0.0057722377
101	0x3d2155bf	0.039388414
102	0xbd2cbef8	-0.04217431
103	0x3b8d7317	0.0043166983
104	0x3d59e0ee	0.053193025
105	0x3c1baabd	0.009501156
106	0x3d59cd13	0.05317409
107	0x3d043719	0.032279108
108	0x3d2598f2	0.040429063
109	0x3c74cc22	0.014941247
110	0xbbb506d4	-0.0055244956
111	0xbd688597	-0.056768026
112	0xbce521bc	-0.027970187
113	0x3d2e45ff	0.042547222
114	0xbb718fbe	-0.0036859359
115	0xbd581ea4	-0.052763596
116	0xbd0eacf1	-0.0348329
117	0x3d2d9046	0.042373918
118	0x3d344204	0.04400827
119	0x3cc67d97	0.024229808
120	0x3c9618f4	0.018322445
121	0xbd33084d	-0.043709088
122	0xbcbbec68	-0.022939876
123	0xbcf29b90	-0.029615194
124	0xbd1a5d00	-0.037686348
125	0xba032ead	-0.00050042087
126	0x3cbbfc4b	0.022947451
127	0xbd6634e1	-0.056202773
128	0x3d30ae55	0.043135006
129	0xbbcbdd92	-0.0062214816
130	0xbd1e12ea	-0.038592257
131	0x3ceb98a8	0.028759316
132	0x3bcb703f	0.006208449
133	0xbd63afe3	-0.05558766
134	0xba833a58	-0.0010011895
135	0x3ba0259c	0.004887296
136	0xbbea7f6f	-0.0071563045
137	0xbd38881a	-0.04505167
138	0xbd08e407	-0.03342059
139	0xbd7c5a96	-0.061609827
140	0xbd3a71e7	-0.045518782
141	0xbd7cf6ea	-0.061758913
142	0xbc1981a7	-0.00936929
143	0xbd7d5f1c	-0.06185828
144	0x3cdf87c3	0.027286416
145	0xbd06f296	-0.03294619
146	0x3cb5b0e5	0.022179076
147	0x3d2ce62f	0.042211708
148	0xbd85caaa	-0.06532796
149	0x3bdeb229	0.0067961407
150	0x3cc7c9b9	0.024388181
151	0xbcb4ee2f	-0.022086231
152	0xbd798a89	-0.060923133
153	0x3d54f404	0.051990524
154	0xbcc9a64f	-0.024615435
155	0xbcbd0e2e	-0.02307805
156	0x3cd9a985	0.026570091
157	0x3c3473ec	0.011013966
158	0x3c1c5949	0.009542772
159	0x3d12fd8e	0.03588634
160	0x3d50bc6a	0.050960936
161	0x3d6f3093	0.058395933
162	0x3d4d6966	0.050149344
163	0xbd27b4d7	-0.040943947
164	0x3d55df97	0.052215185
165	0xbd2626b8	-0.04056427
166	0xbc82f0c1	-0.015983941
167	0xbd2f7305	-0.0428343
168	0x3d114cc1	0.03547359
169	0xbd5f67ce	-0.054542355
170	0xbbce3c5e	-0.0062938174
171	0xbd6b1854	-0.057396248
172	0x3bedab08	0.0072530545
173	0xbce63986	-0.028103601
174	0xbcf2f589	-0.029658096
175	0x3cf20a4b	0.029545924
176	0x3cc2e5ec	0.023791276
177	0x3d0ee6d3	0.0348881
178	0x3c923965	0.017849633
179	0xbc9ab68b	-0.018885871
180	0x3c8e95d4	0.017405428
181	0x3d189bd5	0.037257988
182	0xbcb15855	-0.021648565
183	0x3d66f609	0.05638698
184	0xbd296c9f	-0.041363355
185	0xbd07b146	-0.033128045
186	0xbb9e40af	-0.004829488
187	0x3d0dbe05	0.034605045
188	0x3d3253a8	0.043536812
189	0x3be5c16f	0.0070115845
190	0xbcfb5b54	-0.030683197
191	0xbd65e217	-0.05612382
192	0x3bd24fbb	0.006418196
193	0x3d1e5dd9	0.03866372
194	0x3d1fbf3e	0.039000742
195	0xbcee233e	-0.02906954
196	0xbd6d1351	-0.05787975
197	0x3d8551d9	0.06509752
198	0xbcd8fdb9	-0.026488172
199	0xbd50ff74	-0.05102487
200	0x3d62525f	0.055254336
201	0xbd59520e	-0.05305677
202	0x3d6b1c28	0.0573999
203	0x3b83030d	0.0039981664
204	0xbc90a896	-0.017658513
205	0xbd63daa2	-0.055628426
206	0x3b162f64	0.002291643
207	0x3d2d1ebd	0.042265642
208	0x3d6ba4fe	0.057530396
209	0xbbf11d21	-0.0073582088
210	0xbd4bb1c5	-0.04973008
211	0x3d613446	0.054981492
212	0x3d1a23f3	0.03763194
213	0xbd6d5b6e	-0.057948522
214	0xbd36ee5f	-0.044660922
215	0x3c865103	0.016396051
216	0xbcb16ce7	-0.021658374
217	0x3d01f379	0.031726334
218	0xbd66458a	-0.05621866
219	0xbd370e5f	-0.04469144
220	0x3d09ce8e	0.03364425
221	0x3ba2835f	0.0049595083
222	0x3d74c74a	0.05976037
223	0x3d281be7	0.041042235
224	0x3a1c9c61	0.000597423
225	0xbd46a5e6	-0.048498057
226	0xbc93ad1f	-0.018026887
227	0x3cbecb0f	0.023290185
228	0x3d13874c	0.0360177
229	0xb9ef3633	-0.00045626014
230	0xbd31357f	-0.04326391
231	0x3ce2774c	0.027644776
232	0x3b3be81c	0.0028672284
233	0xbb39f9f1	-0.0028377736
234	0x3d4260a7	0.047455456
235	0xbd6efe0d	-0.05834775
236	0x3c21b963	0.00987086
237	0xbd6a081e	-0.057136647
238	0x3c3052d8	0.010761939
239	0x3d405bba	0.046962477
240	0xbd25a6d2	-0.040442295
241	0xbcb2b834	-0.02181635
242	0xbc1b5c16	-0.009482404
243	0xbd331d2f	-0.043729004
244	0xbcdfd267	-0.027322007
245	0x3d34e3d1	0.044162575
246	0x3d4d50b1	0.05012578
247	0x3cbb19a1	0.02283937
248	0x3cb10fa3	0.021613901
249	0x3d324d66	0.043530844
250	0xbb7fb6b5	-0.0039018814
251	0x3c312af3	0.010813463
252	0xbd28577f	-0.041099068
253	0x3d670014	0.05639656
254	0x3be0b9e6	0.0068580983
255	0xbd0905bd	-0.033452738

network_body.observation_encoder.processors.0.conv_layers.0.bias f4 [16]
0	0x3d524d3d	0.05134319
1	0x3d6be75f	0.0575937
2	0x3d0dbe9a	0.0346056
3	0x3d71d409	0.059040103
4	0xbc651e78	-0.013984315
5	0x3d80afc3	0.06283524
6	0xbd22bb2f	-0.039729293
7	0xbbe34e5f	-0.006936833
8	0xbca705d7	-0.020388527
9	0x3d417aa2	0.047236092
10	0xbd5f28e5	-0.05448236
11	0xbcc6c296	-0.024262708
12	0xbd498b21	-0.04920495
13	0xbd166040	-0.036712885
14	0x3d2b64cf	0.041844185
15	0xbd623f60	-0.05523622

network_body.observation_encoder.processors.0.conv_layers.2.weight f4 [32, 16, 4, 4]
0	0x3d1941ea	0.037416376
1	0x3ceda63e	0.029009935
2	0xbd86c2c7	-0.065801196
3	0xbcb5e339	-0.022203075
4	0xbb74ba86	-0.0037342622
5	0xbd85f00c	-0.06539926
6	0xbd41190c	-0.047143027
7	0x3c8f8393	0.017518794
8	0x3c48a2fe	0.012245892
9	0x3cf61567	0.030039502
10	0xbcbca473	-0.023027634
11	0x3cadb30d	0.021203542
12	0xbd2109d8	-0.03931603
13	0x3d5c13cd	0.05372982
14	0xbcf35396	-0.029702943
15	0x3cf0e260	0.029404819
16	0x3c54afcf	0.012981369
17	0x3d15ea8c	0.036600634
18	0x3d30c8e5	0.043160338
19	0x3d3f11ec	0.04664795
20	0xbc63ace7	-0.013896204
21	0xbd600dac	-0.05470054
22	0xbd27a556	-0.04092916
23	0x3b6cad3f	0.0036114005
24	0xbd3f3060	-0.046676993
25	0xbc915a22	-0.017743174
26	0xbc598898	-0.013277195
27	0x3d6bef59	0.057601307
28	0x3d0554eb	0.032551687
29	0x38fa1e12	0.0001192653
30	0x3d08d36b	0.03340475
31	0x3a2e00c2	0.0006637686
32	0x3d46d74c	0.048545167
33	0x3b1e05d6	0.0024112365
34	0xbd6c93b0	-0.057758033
35	0x3b86be4f	0.004112042
36	0x3cfb74e6	0.03069539
37	0xbc9b3ba2	-0.018949334
38	0xbd36d0aa	-0.04463259
39	0x3cf0c80f	0.02939227
40	0x3b90996e	0.0044128215
41	0xbcb5e619	-0.022204446
42	0xbca71b66	-0.020398807
43	0x3c35c106	0.011093384
44	0x3d2f9314	0.042864874
45	0x3d5e4023	0.054260384
46	0xbcd98260	-0.026551425
47	0xbb6052d3	-0.0034229055
48	0x3d1a7863	0.037712466
49	0x3d21bfa6	0.03948941
50	0xbc9fc02d	-0.019500816
51	0x3c913509	0.017725484
52	0xbd10d0c2	-0.035355337
53	0x3ce27465	0.027643392
54	0x3ccfc4a6	0.025362324
55	0x3d1e67dc	0.038673267
56	0x3d6361fa	0.05551336
57	0x3cd41bc0	0.025892138
58	0x3d03a00c	0.032135054
59	0xbcc4621d	-0.023972565
60	0xbd39618a	-0.045259036
61	0x3b141841	0.0022597464
62	0x3cb82062	0.022476379
63	0x3d3d1806	0.04616549
64	0x3cfbb5c5	0.030726323
65	0xbd870436	-0.065926
66	0xbd4adab4	-0.049524978
67	0xbd02918a	-0.031877078
68	0xbb97a5a3	-0.0046278997
69	0x3b860817	0.00409032
70	0x3cd81339	0.026376354
71	0x3d608c1c	0.05482112
72	0xbcd13d8d	-0.025542045
73	0x3d378346	0.044802926
74	0x3d562c30	0.052288234
75	0xba9b520d	-0.0011850015
76	0xbcf32da0	-0.029684842
77	0x3d1acf4f	0.03779536
78	0xbd1898e3	-0.03725518
79	0x3cb3f8c0	0.0219692
80	0xbb350812	-0.0027623218
81	0xbd6e38c3	-0.0581596
82	0x3d60ad2e	0.054852657
83	0xbd533976	-0.05156847
84	0xbd6d609c	-0.057953462
85	0xbce094f1	-0.02741477
86	0xbb7043a9	-0.0036661422
87	0xbc07ede5	-0.008296465
88	0xbd426ef1	-0.047469083
89	0xbb275a91	-0.002553616
90	0xbcfb9a6f	-0.030713288
91	0xbd4f82ff	-0.050662037
92	0xbd8ab294	-0.06772342
93	0xbd560162	-0.052247413
94	0x3d2d29dc	0.04227625
95	0xbd73dbff	-0.059535976
96	0x3d054288	0.032534152
97	0xbc920253	-0.017823374
98	0x3b41d60c	0.0029577045
99	0xb9e8c131	-0.00044394427
100	0xbc8e466c	-0.017367564
101	0xbd69ed5b	-0.057111125
102	0x3d40190a	0.04689888
103	0xbd3f06ef	-0.04663747
104	0x3cce8914	0.025211848
105	0x3d03c491	0.032169882
106	0x3d1db177	0.03849932
107	0xbd1a97c9	-0.03774241
108	0xbcac948a	-0.021066923
109	0xbca89f71	-0.02058384
110	0xbd5d05e1	-0.053960685
111	0x3d62a93e	0.055337183
112	0xbd47b15d	-0.04875313
113	0x38acc766	8.23874e-05
114	0x3d0c2b3b	0.034220915
115	0xbb98c329	-0.004661937
116	0x3bf14c36	0.0073638214
117	0xbb020ade	-0.0019842903
118	0xbd30b07a	-0.04313705
119	0x3d260ba6	0.040538453
120	0xbc2325eb	-0.009957771
121	0x3c44424b	0.011978696
122	0xbd1c4769	-0.03815404
123	0xbd69f207	-0.05711558
124	0xbc997d34	-0.01873646
125	0xbd64013a	-0.055665232
126	0x3d51b2ba	0.051195838
127	0x3d1c670a	0.038184203
128	0x3c7cf32a	0.015438834
129	0x3d02cd1d	0.031933893
130	0x3caa769e	0.020808514
131	0xbd4f48f9	-0.0506067
132	0xbcadedf3	-0.021231627
133	0x3c3cc4a5	0.011521493
134	0x3d202f91	0.039107863
135	0x3aec2a62	0.0018018002
136	0x3c4782fa	0.012177223
137	0xbd5e8c06	-0.054332756
138	0xbd1c88a0	-0.038216233
139	0x3d19fbaf	0.03759354
140	0x3d54ee2a	0.051984943
141	0xbd59f175	-0.053208787
142	0xbc02bfc3	-0.00798029
143	0xbcbfa1cf	-0.023392586
144	0xbc882f4c	-0.016624115
145	0xbd705dc4	-0.058683172
146	0xbd828582	-0.06373121
147	0x3cb180e5	0.021667907
148	0xbd7b007a	-0.06127975
149	0xbbe26c73	-0.006909901
150	0xbc480423	-0.0122080175
151	0xbd69d1e6	-0.05708494
152	0x3ac0d0dc	0.0014710682
153	0xbc7cacf6	-0.0154220965
154	0x3cf852a7	0.03031285
155	0x3d60329c	0.054735765
156	0x3d583a0d	0.052789737
157	0xbc6328b2	-0.013864683
158	0xbc8d40e9	-0.017242866
159	0x3a62de4c	0.00086543406
160	0x3c0f12ce	0.008732511
161	0xbd7cf897	-0.06176051
162	0xbd370b9b	-0.044688802
163	0xbccbd774	-0.02488301
164	0xbc82c2e4	-0.015962072
165	0xbd69da42	-0.057092912
166	0x3d490831	0.049080078
167	0x3c5570e1	0.013027401
168	0x3b8b36b8	0.0042484663
169	0xbcd15c1f	-0.025556622
170	0x3cbfeb13	0.023427522
171	0x3d05b4a4	0.032642975
172	0xbd002837	-0.031288352
173	0xbcb947f0	-0.02261731
174	0xbb7ecba2	-0.0038878699
175	0x3d0260aa	0.031830467
176	0x3d40ef05	0.047102947
177	0xbd8999df	-0.06718802
178	0xbd2da2d9	-0.04239163
179	0xbbe74eb5	-0.007058943
180	0xbc468d45	-0.012118642
181	0x3c652f1b	0.013988282
182	0xbc540c53	-0.012942391
183	0xbd095cc2	-0.033535726
184	0xbd03a8d0	-0.032143414
185	0x3d317ba8	0.04333082
186	0x3d0a86ac	0.03381984
187	0xbb8d970e	-0.0043209856
188	0x3d3e52f7	0.04646584
189	0xbd162452	-0.03665573
190	0x3d225737	0.039633956
191	0xbd44f45e	-0.04808461
192	0x3d3140bb	0.043274622
193	0xbcb2be31	-0.021819206
194	0xbd7b951a	-0.06142149
195	0x3c33b210	0.010967746
196	0x3d59428a	0.053041972
197	0x3c641678	0.013921373
198	0x3c276482	0.010216834
199	0x3c3c4b7e	0.011492608
200	0x3ada56e7	0.0016657979
201	0xbd00e190	-0.031465113
202	0xbce49cbd	-0.02790677
203	0xbc4964ed	-0.012292129
204	0xbd649d53	-0.0558141
205	0xbd19e259	-0.037569378
206	0xbaa76082	-0.001276985
207	0x3c9a49a1	0.018833937
208	0xbd304e79	-0.043043587
209	0x3d10634a	0.03525094
210	0x3c9803f1	0.018556567
211	0xbd637930	-0.055535495
212	0x3d6f294c	0.058388993
213	0x3cf31723	0.029674118
214	0xbd0d953d	-0.034566153
215	0xbd6864a2	-0.056736596
216	0xbcf1543c	-0.029459111
217	0x3af2d130	0.0018525477
218	0x3c26f39b	0.010189916
219	0xbd34cd1b	-0.044140916
220	0x3d09c9fe	0.0336399
221	0x3d66c5c2	0.05634094
222	0x3d1da7b2	0.038490005
223	0x3cea8b4f	0.02863088
224	0x3d38df4b	0.045134824
225	0x3d00a35f	0.031405803
226	0xbd02c6ca	-0.03192786
227	0xbd241d7f	-0.040067192
228	0xbd47f123	-0.04881395
229	0xbd8772f7	-0.06613725
230	0xbd3b3786	-0.04570725
231	0xbd6c51c9	-0.057695184
232	0x3bc7be9b	0.00609572
233	0x3cf57fab	0.029968103
234	0xbb8dce80	-0.0043275952
235	0xbd24b848	-0.040214807
236	0xbd7798fc	-0.06044863
237	0x3d3d14ba	0.046162345
238	0x3cde4578	0.027132735
239	0xbd41b51f	-0.04729187
240	0xbc050d25	-0.00812081
241	0xbba2ec5b	-0.0049720234
242	0x3caf1a6f	0.02137491
243	0x3d06c977	0.032906976
244	0x3d3245d1	0.043523613
245	0x3b7cf7b2	0.0038599786
246	0xbd885fc3	-0.0665889
247	0xbd00ec27	-0.031475212
248	0xbd11bd3f	-0.03558087
249	0xbd2c168e	-0.042013697
250	0xbd6a0c78	-0.057140797
251	0x3be50352	0.006988921
252	0x3ce901e3	0.028443282
253	0xbd27e861	-0.0409931
254	0xbc948dfe	-0.018134113
255	0xbd3192b1	-0.043352786

network_body.observation_encoder.processors.0.conv_layers.2.bias f4 [32]
0	0x3d62d1b9	0.05537579
1	0xbd3f9065	-0.046768565
2	0x3d56deff	0.05245876
3	0x3cb2c803	0.021823889
4	0xbcaf4b21	-0.021398129
5	0xbb546637	-0.0032409558
6	0x3d4a9b98	0.049464792
7	0x3c8095ce	0.015696432
8	0x3d2f257d	0.04276036
9	0x3cd287b8	0.025699481
10	0xbb711379	-0.0036785288
11	0x3bffe7ec	0.0078096297
12	0x3c493179	0.012279862
13	0xbc9bd510	-0.019022495
14	0x3c909e99	0.01765375
15	0x3d2a1c1c	0.041530713
16	0x3cc988ca	0.024601359
17	0xbd265f13	-0.040618014
18	0x3c0f38ca	0.008741567
19	0xbcad9ec2	-0.021193866
20	0x3d2cbdb7	0.042173114
21	0xbd6e3ad8	-0.058161587
22	0x3caf6d91	0.02141455
23	0xbbd7f14b	-0.0065900437
24	0xbcf5e4b8	-0.030016288
25	0xbc9b2ff0	-0.018943757
26	0x3cb894c8	0.022531882
27	0x3d614d72	0.0550055
28	0xbd6ac07f	-0.057312485
29	0xbd76ee8e	-0.060286097
30	0x3cc7082b	0.024295887
31	0x3c80d379	0.015725838

network_body.observation_encoder.processors.0.dense.0.weight f4 [128, 32]
0	0xbdf0cfc3	-0.117583774
1	0xbeb7197a	-0.35761625
2	0xbd8c0175	-0.068362154
3	0x3edc66d4	0.43047202
4	0xbdd04534	-0.101694494
5	0x3e8838b8	0.26605773
6	0xbe961e15	-0.29319826
7	0xbe97334d	-0.29531327
8	0xbe27e84b	-0.16397206
9	0x3d8ca219	0.06866855
10	0xbc19d962	-0.009390207
11	0x3f08d916	0.53456247
12	0xbe7b3533	-0.24532013
13	0x3d5367bf	0.05161261
14	0x3ebfa7dc	0.37432754
15	0xbdb3257f	-0.08747386
16	0xbea8baaa	-0.32954913
17	0xbdecd978	-0.11564916
18	0x3ed23afb	0.41060624
19	0xbefc5be6	-0.49288863
20	0xbe094dfe	-0.13408658
21	0x3e74ad71	0.23894288
22	0xbe4b7a71	-0.19870926
23	0x3e8c9868	0.27460027
24	0x3e1a45bf	0.15065669
25	0xbe043dd7	-0.12914215
26	0x3c637348	0.013882466
27	0xbd2412b0	-0.040056884
28	0x3de2bea1	0.11071516
29	0xbf0cfabe	-0.550701
30	0x3eb2973c	0.34881008
31	0xbe2bda5f	-0.1678252
32	0xbebf47d6	-0.37359494
33	0x3ea7507d	0.32678595
34	0x3e930db8	0.28721404
35	0x3e8df700	0.2772751
36	0x3c5ea54f	0.013589217
37	0x3ec5f42a	0.38662845
38	0xbdd3ad9b	-0.10335847
39	0xbda89896	-0.082322285
40	0x3e8c2837	0.27374431
41	0x3ef3777e	0.47552103
42	0xbe46fc2d	-0.19432135
43	0xbe99b44e	-0.30020374
44	0x3e92826d	0.28615132
45	0x3bd4bf23	0.006492512
46	0x3e218fec	0.15777558
47	0xbca3ad83	-0.019980198
48	0x3eac124e	0.33607715
49	0x3eeb740d	0.45986977
50	0x3e428505	0.18996055
51	0x3d0b7e29	0.034055863
52	0x3e19550d	0.1497385
53	0x3d21034a	0.039309777
54	0xbd7c91e9	-0.06166259
55	0xbe1fe119	-0.15613212
56	0x3b03ca84	0.0020109722
57	0x3e3dc710	0.18532968
58	0x3e0397ff	0.1285095
59	0xbe17fb92	-0.1484206
60	0xbdd5b57a	-0.104350045
61	0x3f22205a	0.63330615
62	0x3f02b797	0.51061386
63	0xbe9fd7ec	-0.31219423
64	0x3c9972df	0.018731533
65	0x3e12e997	0.1434692
66	0xbf6e091b	-0.92982644
67	0xbd684e54	-0.056715325
68	0xbe52aa61	-0.20572807
69	0xbe03e772	-0.12881258
70	0xbea4be24	-0.32176316
71	0x3d12c3a6	0.035831116
72	0xbe49daf9	-0.19712438
73	0xbe8b058c	-0.2715267
74	0x3e6f6556	0.233785
75	0x3dfc67d8	0.12324494
76	0x3de8ba21	0.11363626
77	0xbcf70eb2	-0.030158374
78	0x3ec390c0	0.38196373
79	0xbe19783d	-0.14987274
80	0xbe6f0238	-0.2334069
81	0x3e1c730b	0.1527826
82	0xbcbf60e2	-0.023361627
83	0xbe5ba47a	-0.21449462
84	0xbed4ca55	-0.41560617
85	0x3e1b53ad	0.15168639
86	0x3d6930ef	0.056931432
87	0x3caf143e	0.021371957
88	0xbdb13280	-0.0865221
89	0xbeede2e3	-0.46462163
90	0x3de4f7a3	0.111800455
91	0xbe8427c5	-0.25811592
92	0xbdb9df03	-0.09075739
93	0xbea42de3	-0.3206626
94	0x3e9a6267	0.301532
95	0xbdde09ab	-0.10841688
96	0x3d610f76	0.054946385
97	0x3df4ed06	0.11959271
98	0xbe46e3fd	-0.19422908
99	0xbea4cfae	-0.32189697
100	0x3e0c13da	0.13679448
101	0xbe1c33bd	-0.15254112
102	0xbee1b2de	-0.44081777
103	0x3d3e7b3b	0.04650424
104	0x3f048121	0.51759535
105	0x3ea97c15	0.3310248
106	0x3eb87e3f	0.36033818
107	0xbd8d9b95	-0.069144405
108	0xbe391361	-0.18073799
109	0x3e602d3d	0.21892257
110	0xbe943187	-0.28944036
111	0x3f070ea7	0.5275673
112	0x3e4d2381	0.20033075
113	0xbf0c20e5	-0.54737693
114	0x3ee53d27	0.44773218
115	0xbe2af5c4	-0.16695315
116	0x3e5fdddf	0.21861981
117	0x3e3e3c12	0.18577603
118	0xbe14d947	-0.1453601
119	0x3e841232	0.25795132
120	0x3dc3c061	0.09558178
121	0xbdf0305c	-0.11727974
122	0xbf5154f1	-0.81770235
123	0xbe8be4d5	-0.27323022
124	0xbed6bf4e	-0.4194283
125	0x3ea37a61	0.31929305
126	0xbd21a049	-0.0394595
127	0xbc739e31	-0.014869259
128	0xbe133d49	-0.14378847
129	0x3e439ef3	0.19103603
130	0xbe03041c	-0.12794536
131	0x3e7106d9	0.23537768
132	0xbdce65a9	-0.10077984
133	0xbd9451f3	-0.07242193
134	0x3e0acf5b	0.13555662
135	0x3e5331f7	0.20624529
136	0xbe88dc32	-0.26730496
137	0xbe955e6e	-0.29173607
138	0xbc2f96b4	-0.010717083
139	0xbeb53ced	-0.35398045
140	0xbc32d74e	-0.01091559
141	0x3d9db1e8	0.076999485
142	0x3ea9b711	0.3314748
143	0x3e176751	0.14785506
144	0xbe83ad39	-0.25718096
145	0xbc44af8f	-0.012004747
146	0xbc9c8ac3	-0.019109135
147	0xbe4ba7dd	-0.19888254
148	0x3e336e3d	0.17522521
149	0x3dfbf936	0.123033926
150	0xbdf5fab1	-0.12010706
151	0xbecdb8c2	-0.40180022
152	0xbd4af351	-0.04954845
153	0xbe8c7c1c	-0.27438438
154	0x3e177e79	0.14794339
155	0x3ec03283	0.37538537
156	0xbb9b0b8a	-0.0047316
157	0xbe2d5f00	-0.16930771
158	0x3cb3d1c3	0.021950608
159	0xbeb87870	-0.36029387
160	0xbba2c63f	-0.0049674804
161	0xbe6f51c4	-0.23371035
162	0xbcecda6e	-0.02891275
163	0x3dd8e10d	0.105898
164	0x3e6890fb	0.22711556
165	0x3e14c808	0.14529431
166	0xbe876c03	-0.26449594
167	0x3e406533	0.18788604
168	0xbe0371ad	-0.12836333
169	0x3e099b92	0.13438252
170	0xbee0c85a	-0.43902856
171	0x3e04f12e	0.12982628
172	0x3f179649	0.5921369
173	0xbb1f5e73	-0.002431777
174	0xbc4d40ad	-0.012527627
175	0x3e6ab122	0.22919133
176	0x3f156ec2	0.5837213
177	0xbe3d987f	-0.18515204
178	0x3ce6a09f	0.028152762
179	0xbd80e048	-0.06292778
180	0xbce07a87	-0.027402176
181	0x3e3ecd6c	0.1863305
182	0xbce7d798	-0.028301045
183	0x3eaf1205	0.34193435
184	0x3eefce16	0.4683692
185	0xbdd018f4	-0.101610094
186	0x3ea4ff26	0.32225913
187	0xbece1c8a	-0.4025615
188	0x3d1d6580	0.038426876
189	0x3e447869	0.19186558
190	0xbc9cb9f6	-0.019131642
191	0xbe6a5c70	-0.22886825
192	0xbdbd8533	-0.09253921
193	0xbe8d709d	-0.2762498
194	0xbe92cf02	-0.2867356
195	0x3d40b5ee	0.0470485
196	0x3e68888a	0.22708336
197	0xbd9df123	-0.07712009
198	0x3d8ecc42	0.06972553
199	0x3e71d32f	0.23615716
200	0x3e512860	0.20425558
201	0xbe23a665	-0.15981443
202	0xbe26da09	-0.16294111
203	0xbe84b9e1	-0.25923064
204	0x3e46c40d	0.19410725
205	0xbe1edb7a	-0.15513411
206	0x3d89f41d	0.06736014
207	0x3deb5a96	0.11491887
208	0x3e242a86	0.16031846
209	0x3c77ad80	0.015117049
210	0xbee2ea78	-0.4431951
211	0xbe4e7071	-0.2016008
212	0xbe8bd517	-0.27311012
213	0xbe4d7003	-0.2006226
214	0x3f142402	0.57867444
215	0x3c10ae0b	0.008830558
216	0xbc1be35f	-0.009514659
217	0xbdae8a34	-0.08522454
218	0xbe1d8323	-0.15382056
219	0x3e06e21b	0.1317219
220	0x3e43f03a	0.19134608
221	0xbe0e5d5e	-0.13902804
222	0x3e3f7c4a	0.18699756
223	0xbe41f41a	-0.18940774
224	0x3e54dec5	0.20788105
225	0x3c97bfdc	0.018524103
226	0x3eeca6ba	0.46220952
227	0xbdbd27bb	-0.092360936
228	0xbebdb5dc	-0.3705281
229	0x3e1705f0	0.14748359
230	0xbde263a9	-0.11054165
231	0xbdd256db	-0.102704726
232	0x3e835dfc	0.25657642
233	0xbe676e78	-0.22600734
234	0xbe222919	-0.1583599
235	0x3e698b0f	0.22806953
236	0xbd949e53	-0.072567604
237	0x3e40292e	0.18765709
238	0x3ebbd55d	0.3668622
239	0xbe9d536c	-0.30727708
240	0xbe19c05c	-0.15014786
241	0x3e830ad0	0.25594187
242	0xbe5302f9	-0.20606603
243	0xbd64f4f3	-0.055897664
244	0xbe2d896b	-0.16946952
245	0xbe897aad	-0.26851407
246	0x3ed9666d	0.42460957
247	0xbe69a599	-0.22817077
248	0xbe9664e6	-0.29373854
249	0xbc093551	-0.008374528
250	0x3e299492	0.16560581
251	0xbdb707c0	-0.08937025
252	0x3e795b8d	0.2435133
253	0x3ecd9caf	0.40158603
254	0x3e37ddeb	0.17955749
255	0xbda35fea	-0.079772785

network_body.observation_encoder.processors.0.dense.0.bias f4 [128]
0	0xba915448	-0.001108774
1	0x386dc8c0	5.6692166e-05
2	0xb99a1ec4	-0.0002939609
3	0x3b1d33ca	0.0023987168
4	0xb9ee5dcf	-0.0004546479
5	0x3af0b1b8	0.0018363511
6	0x3b33d80c	0.0027442006
7	0xbb85866e	-0.004074863
8	0xbb2321e6	-0.0024892031
9	0xbb341382	-0.0027477448
10	0x3b459174	0.0030146511
11	0x3a3bbf9d	0.00071620365
12	0x3b4b0b52	0.003098209
13	0xbb802cb3	-0.0039115786
14	0x3b089c6f	0.0020845195
15	0xbafc3265	-0.0019241093
16	0x3997c425	0.00028947103
17	0x3bdca298	0.00673325
18	0xbb40db28	-0.0029427502
19	0xbb2ab58c	-0.0026048152
20	0x3ae31f99	0.0017328142
21	0xbb225732	-0.002477121
22	0x3b97f4cb	0.004637336
23	0x3b5cd2e0	0.0033695027
24	0xbb927c27	-0.0044703665
25	0xbabc2671	-0.0014354718
26	0xbad38cda	-0.001614
27	0x3b611258	0.003434321
28	0xbaec2423	-0.0018016141
29	0xbb1c698e	-0.0023866626
30	0x3b223d31	0.0024755711
31	0xba44a766	-0.0007501751
32	0xbb5720de	-0.0032825987
33	0xbb02a668	-0.0019935612
34	0xbb80ee8b	-0.0039346865
35	0x38069879	3.209009e-05
36	0x3b4ca5b9	0.0031226708
37	0x3b642508	0.0034812111
38	0xbb99fc26	-0.004699248
39	0x3ae9b6da	0.0017830983
40	0xbb98594e	-0.004649318
41	0xbb148c69	-0.0022666699
42	0xbb1e6196	-0.0024167052
43	0xbb2fc001	-0.0026817324
44	0x3b67f907	0.0035396235
45	0xbbc9e4d7	-0.006161313
46	0x3a9c8e66	0.0011944294
47	0x3b3c2fb4	0.0028714957
48	0x3b8deec0	0.0043314397
49	0xba5901c1	-0.00082781544
50	0xbb116e5a	-0.0022191019
51	0x3b41b479	0.0029557033
52	0x3b820de1	0.0039689397
53	0x3b859ba3	0.0040773912
54	0xbaf07a1e	-0.0018346941
55	0xbb81e29c	-0.0039637815
56	0xbba1c94e	-0.0049373275
57	0xbb5b08cb	-0.003342199
58	0x392976ac	0.00016161305
59	0xbbabe85b	-0.005246205
60	0xbb38387d	-0.0028109842
61	0xbb2990fb	-0.0025873769
62	0xbb9d6ca7	-0.004804212
63	0xbb9b038f	-0.004730649
64	0x3b9a676f	0.0047120373
65	0xbaaf0f00	-0.0013355911
66	0xbb94da3d	-0.0045426176
67	0xbaa90012	-0.0012893698
68	0x3a696938	0.00089039234
69	0xbb8cd1bf	-0.0042974646
70	0x3b54327f	0.003237873
71	0x3b5f3026	0.0034055798
72	0xbb41a77c	-0.0029549291
73	0xbb4ca11f	-0.0031223965
74	0xbb6819c2	-0.0035415743
75	0xba9544a3	-0.0011388253
76	0x3b7cf41e	0.0038597654
77	0x3b98baf0	0.0046609566
78	0x3ab9dca2	0.0014180134
79	0xbb91e29c	-0.004452063
80	0x38f86772	0.0001184483
81	0xba976e32	-0.0011553227
82	0x3b870f10	0.0041216686
83	0x3ae396ec	0.0017363704
84	0x3ad04dab	0.0015892287
85	0xba49ffe6	-0.00077056733
86	0x3a8f9716	0.0010955061
87	0x3ba2a09f	0.004962995
88	0xbb4f5b53	-0.0031640127
89	0x3b7dc04e	0.003871936
90	0x3b017e25	0.0019759026
91	0x3a92642d	0.0011168771
92	0x3b94c4c0	0.004540056
93	0x3af55bd8	0.0018719388
94	0xbab4c75f	-0.0013792327
95	0xb8d4acf0	-0.0001014116
96	0xb8c10738	-9.204302e-05
97	0x3a441ca0	0.0007481072
98	0x3b327a5d	0.0027233579
99	0x3b9cf082	0.004789413
100	0x3b820488	0.0039678253
101	0x3b21872f	0.0024647226
102	0xb97b5008	-0.0002396704
103	0xbb88f3dc	-0.004179461
104	0xbb9ea6cf	-0.0048416625
105	0xbb2cedb1	-0.0026386792
106	0x3ae9c792	0.0017835966
107	0x3b312dde	0.0027035396
108	0x3a82cbba	0.0009978928
109	0xbb82e0bb	-0.003994075
110	0xbb1b6e74	-0.0023716958
111	0x3b72a12c	0.0037022335
112	0x3bcc2545	0.006230029
113	0xbb382180	-0.002809614
114	0x3a77ed6f	0.00094576826
115	0xbae59f33	-0.0017518759
116	0xbb863cd0	-0.004096605
117	0x3b6f67d5	0.0036530395
118	0xbabade73	-0.0014256969
119	0x3b44d6de	0.0030035297
120	0xba636415	-0.0008674276
121	0xbbab32e3	-0.005224572
122	0x3b633814	0.0034670876
123	0x3b71327b	0.003680377
124	0xba97e9c7	-0.0011590057
125	0xbb866082	-0.00410086
126	0xbb5d9658	-0.0033811536
127	0xbaa7a096	-0.0012788947

network_body._body_endoder.seq_layers.0.weight f4 [128, 386]
0	0x3d99660f	0.07490169
1	0x3d0b7d6d	0.034055162
2	0xbd904c91	-0.07045854
3	0xbc0bebc7	-0.0085401
4	0x3d4cebc3	0.050029527
5	0xbd5d403f	-0.054016348
6	0x3c1c9b9d	0.0095585855
7	0x3b45375f	0.0030092818
8	0xbc1a6df3	-0.009425628
9	0x3d179e82	0.0370164
10	0x3ce85ad4	0.028363623
11	0xbc98b314	-0.018640079
12	0xbc7401db	-0.0148930205
13	0x3a4a3b69	0.0007714541
14	0x3d27d8cd	0.04097824
15	0x3d241b1a	0.04006491
16	0x3ce35328	0.027749613
17	0xbd0d7f97	-0.034545507
18	0xbd221873	-0.039574098
19	0xbd3d8877	-0.04627272
20	0x3bd09911	0.006365903
21	0x3cbb56d8	0.022868559
22	0xbde3c402	-0.1112137
23	0x3cfbc0ff	0.030731676
24	0xbd86c5cd	-0.06580696
25	0xbae1b9b8	-0.0017221486
26	0xbd074dd3	-0.033033203
27	0xbd957d3f	-0.072992794
28	0xbda82489	-0.082100935
29	0xbc23a41c	-0.009987857
30	0x3be286ff	0.0069130654
31	0xbca9db38	-0.020734414
32	0x3d20610a	0.039155044
33	0x3cd14d6d	0.025549615
34	0x3d13f1cd	0.03611927
35	0x3cfc1a1d	0.03077417
36	0xbdb14f02	-0.08657648
37	0x3d63b67b	0.05559395
38	0x3d4eade3	0.0504588
39	0xbda87e53	-0.082272194
40	0xbc30e5a7	-0.010796941
41	0xbbe3a8d6	-0.006947617
42	0x3d9e786e	0.07737814
43	0xbe196d02	-0.1498299
44	0x3ce85224	0.02835948
45	0xbc840f70	-0.016120642
46	0xbc3df0f2	-0.01159309
47	0x3d55f9dd	0.05224024
48	0x3d80ac70	0.0628289
49	0x3c6f4203	0.014603141
50	0xbbb0909b	-0.005388332
51	0xbcd8e561	-0.026476564
52	0x3d41a5ec	0.047277376
53	0x3ba86e0f	0.005140073
54	0xbd3c8b4d	-0.046031285
55	0x3a97a249	0.001156875
56	0x3c2a355d	0.010388699
57	0x3cc19ddb	0.023634842
58	0xbc0334ec	-0.008008223
59	0x3d8e9c03	0.069633506
60	0x3cceb52d	0.025232876
61	0x3cdbb008	0.026817337
62	0x3bea4571	0.0071493913
63	0xbdaf93cf	-0.08573114
64	0x3c21862e	0.009858651
65	0x3dee361c	0.11631414
66	0xbb9fdb5b	-0.004878444
67	0x3d7a4e61	0.061109904
68	0x3d7e49e6	0.062082194
69	0xbdfa2f43	-0.12216046
70	0xbe03e384	-0.12879759
71	0x3d4b8a28	0.049692303
72	0x3cf70be5	0.030157039
73	0xbc8739d0	-0.01650706
74	0x3cf0dbeb	0.02940174
75	0x3d0ff29d	0.035143483
76	0xbc6e8b20	-0.014559537
77	0x3cb2c7e6	0.021823835
78	0xbddfe413	-0.109321736
79	0xbd1ea76e	-0.038733892
80	0x3d9e9719	0.07743663
81	0x3b9cab90	0.004781194
82	0xbd32968c	-0.043600604
83	0x3cf87551	0.030329378
84	0xbda0b211	-0.078464635
85	0xbd8d6082	-0.06903173
86	0xbca29097	-0.019844336
87	0x3cfafda5	0.030638525
88	0x3d941266	0.07230072
89	0xbd91848f	-0.07105362
90	0x3ded1686	0.11576562
91	0xbd6ed814	-0.058311537
92	0x3db9ed33	0.09078445
93	0xbdb3ee71	-0.087857135
94	0xbd0d5235	-0.034502227
95	0x3cffbbef	0.031217543
96	0x3b63015f	0.0034638268
97	0x3cc95234	0.02457533
98	0x3cb97404	0.022638328
99	0x3d475f13	0.048674654
100	0x3cdd2860	0.026996791
101	0x3c1ecee8	0.009692885
102	0xbc605584	-0.0136922635
103	0x3b3bdb2c	0.0028664572
104	0xbd2dbc77	-0.042416062
105	0x3d0be6e4	0.03415574
106	0x3db8cb2a	0.090231255
107	0xbc873bc7	-0.016507996
108	0x3d2bb965	0.041924853
109	0x3d9a556c	0.07535824
110	0xbe0a7f18	-0.13525045
111	0xbba17026	-0.004926699
112	0x3c88379a	0.016628075
113	0x3d658c39	0.05604193
114	0x3d5cdb9b	0.05392037
115	0x3d6c3f60	0.057677627
116	0x3ddfae58	0.10921925
117	0x3c35b379	0.011090153
118	0xbac12bc4	-0.0014737775
119	0xbd6da1d4	-0.05801566
120	0x3d3d7d88	0.046262294
121	0x3d0f0df5	0.03492542
122	0xbd2bcf5d	-0.041945804
123	0xbda82d00	-0.08211708
124	0xbd344194	-0.044007853
125	0x3d2d28de	0.042275302
126	0xbc00ebf2	-0.007868754
127	0x3caa6666	0.02080078
128	0x3b05169a	0.002030766
129	0x3d0d64db	0.03452001
130	0x3d443abe	0.047907583
131	0x3d63cef2	0.05561728
132	0xbcac0685	-0.020999203
133	0x3dbe6f47	0.09298568
134	0xbd0787bf	-0.033088442
135	0xbc5b09e1	-0.0133690545
136	0x3cf3aad3	0.029744541
137	0x3c16f8c8	0.0092145875
138	0x3d3e0831	0.04639453
139	0xbd3c0652	-0.045904465
140	0xbbc44c81	-0.0059905653
141	0xbda24692	-0.079236165
142	0xbda8a232	-0.08234061
143	0x3cef1ac3	0.029187566
144	0x3ceff918	0.029293582
145	0x3d004251	0.031313244
146	0xbdce6b43	-0.10079052
147	0xbd1f7d05	-0.038937587
148	0x3bd4f7d0	0.006499268
149	0xbdbffe5a	-0.093746856
150	0xbd227e91	-0.039671484
151	0x3d27295d	0.04081093
152	0x3d11a265	0.035555262
153	0xbd914e83	-0.07095053
154	0x3dc49785	0.095992126
155	0x3c390f18	0.011295103
156	0x3ca103f4	0.019655205
157	0x3c84158a	0.016123552
158	0x3d268cf2	0.04066176
159	0xbd603142	-0.054734476
160	0xbc844cd7	-0.016149921
161	0x3d18a803	0.037269603
162	0xbcc5a4df	-0.024126468
163	0x3dc146bd	0.094373204
164	0xbd144208	-0.036195785
165	0x3d242dae	0.040082626
166	0xbd799b69	-0.060939226
167	0xbc90c24f	-0.017670779
168	0xbdb121d3	-0.086490296
169	0x3ca14868	0.019687846
170	0xbced65a7	-0.028979136
171	0x3cac5a5e	0.021039184
172	0xbd169495	-0.036762793
173	0x3c2bd46b	0.010487656
174	0xbdab6935	-0.08369676
175	0xbafc9916	-0.0019271697
176	0x3cfd6f56	0.030936878
177	0xbd8d8784	-0.06910613
178	0x3c4d04fe	0.012513397
179	0xbcfae7d3	-0.03062812
180	0x3dd491ab	0.103793465
181	0x3da201b4	0.07910481
182	0xbcc4dfc1	-0.024032475
183	0xbc6adda9	-0.014335074
184	0x3d95792b	0.072985016
185	0x3c05d9ba	0.008169586
186	0x3d333008	0.043746978
187	0xbce23d64	-0.027617164
188	0x3cfbd6a5	0.030741999
189	0x3d85b2bc	0.065282315
190	0x3bb7679b	0.0055970675
191	0x3d2854aa	0.041096367
192	0x3de005d1	0.109386094
193	0x3d2339a5	0.039849896
194	0x3b56c357	0.003277024
195	0xbbdf0d0b	-0.0068069748
196	0x3daa06c5	0.083020724
197	0x3d03f9c2	0.03222061
198	0x3d81799d	0.06322024
199	0x3d0905c6	0.03345277
200	0xbbc90516	-0.0061346395
201	0x3c63bb9f	0.013899713
202	0xbdf228ac	-0.11824164
203	0x3d1cb106	0.03825476
204	0xbdacf90f	-0.08445942
205	0x3c3ea628	0.011636294
206	0x3d51e1a9	0.051240597
207	0xbd37db8a	-0.044887103
208	0x3ce8e6cd	0.028430367
209	0x3c93a43b	0.018022647
210	0xbc9b6c71	-0.018972607
211	0x3c029f6d	0.00797258
212	0xbd366b74	-0.04453607
213	0x3bf8c9b2	0.0075924033
214	0x3c9c9a51	0.019116553
215	0x3b3a3549	0.0028413108
216	0xbd0a62e9	-0.033785734
217	0xbbd8396d	-0.0065986426
218	0xbbb82ec2	-0.0056208083
219	0xbe057248	-0.13031876
220	0x3d29bcb4	0.041439727
221	0xbb989adc	-0.0046571326
222	0x3d209511	0.03920466
223	0x3dd38489	0.103280134
224	0x3d54eba6	0.051982544
225	0x3d209379	0.03920314
226	0xbddd1408	-0.10794836
227	0xbe00a683	-0.12563519
228	0xbd57055f	-0.052495357
229	0x3d40a64d	0.047033597
230	0x3dfaba6c	0.122425884
231	0xbdbf7c25	-0.093498506
232	0xba2d1671	-0.00066027703
233	0xbd4ae55b	-0.049535137
234	0x3d07e932	0.033181377
235	0x3d350b60	0.0442003
236	0x3d99c64e	0.07508527
237	0x3cee210f	0.029068498
238	0xbcbbaa7b	-0.02290844
239	0xba966d5a	-0.0011476681
240	0x3d461e68	0.04836884
241	0xbd17a43b	-0.037021857
242	0xbd3b6f87	-0.045760658
243	0x3c920d92	0.017828736
244	0xbbb29558	-0.005449932
245	0x3c15599f	0.009115606
246	0xbb291ee6	-0.002580577
247	0xbdac1bdf	-0.084037535
248	0xbd40e88e	-0.04709678
249	0x3d715edd	0.05892836
250	0xbcba718f	-0.022759227
251	0x3d402301	0.046908382
252	0xbd7f1f27	-0.06228557
253	0xbbf25967	-0.0073959115
254	0x3c8e7521	0.017389836
255	0x3d635a5d	0.0555061

network_body._body_endoder.seq_layers.0.bias f4 [128]
0	0x3bc49c56	0.006000082
1	0xbb573cc4	-0.0032842616
2	0x3a57cc88	0.00082320767
3	0x3b430a8d	0.0029760927
4	0x3ba7ac7e	0.005116998
5	0xbaf6f978	-0.0018842658
6	0x3b9bfa26	0.0047600446
7	0x3b622ba4	0.0034510875
8	0x3bba3ebc	0.005683748
9	0x3b28406c	0.0025673164
10	0xbb84b867	-0.004050303
11	0x3b55d029	0.0032625294
12	0x3b5ea8cc	0.0033975122
13	0x3ab7a1d8	0.0014010025
14	0x3b4a5d96	0.0030878535
15	0x392e5f8b	0.00016629526
16	0xbbaa5f93	-0.0051993816
17	0x3ad7b05c	0.0016455757
18	0xbb959afe	-0.0045655956
19	0xbae916d7	-0.0017783296
20	0xbb903d85	-0.004401865
21	0x3b185a40	0.0023247153
22	0xbb8a9642	-0.004229338
23	0xba46ecc8	-0.0007588384
24	0xbb176f9a	-0.0023107291
25	0xbb44dc28	-0.003003845
26	0x3bb22314	0.0054363105
27	0xbabe59ac	-0.0014522574
28	0x3b3c7147	0.0028754042
29	0xba887dd0	-0.0010413472
30	0x3b7cf741	0.0038599523
31	0x3aaaa268	0.0013018372
32	0x3b5bb9e0	0.0033527538
33	0xbb80778b	-0.0039205006
34	0x3b4d7d1e	0.0031355093
35	0xbb87155f	-0.0041224207
36	0xbac4a5b4	-0.0015002997
37	0xba6049ec	-0.0008555937
38	0x3b546539	0.0032408966
39	0xbb32e740	-0.002729848
40	0x3b080623	0.002075561
41	0xbb323d4a	-0.0027197176
42	0x3b7455b3	0.0037282526
43	0xbb3351e7	-0.002736205
44	0x3b85a110	0.004078038
45	0x3b644a02	0.003483415
46	0x3abab02e	0.001424318
47	0x394ca431	0.00019516122
48	0x3a3576ba	0.00069222937
49	0xbb8a1549	-0.004213963
50	0xbb02e3b9	-0.001997216
51	0x3ad2ae19	0.0016073614
52	0x3b33d75f	0.0027441604
53	0x393025ce	0.00016798751
54	0x3b8ddfbf	0.004329651
55	0xba07ecc1	-0.00051851204
56	0xbb4a0dfd	-0.0030831092
57	0xbb0433cb	-0.0020172473
58	0x3b504a68	0.003178263
59	0x3b5f8d85	0.0034111452
60	0x3ab9ac16	0.0014165665
61	0xba894ba1	-0.001047481
62	0xb9e30408	-0.00043299817
63	0x3b1a374d	0.0023531497
64	0x3a0ce31a	0.0005374417
65	0xbb9c49b5	-0.0047695288
66	0x3a4ee44e	0.00078922964
67	0xb9598862	-0.00020745539
68	0x3b43d122	0.0029879292
69	0x3ae4e5d7	0.0017463517
70	0x3a960fe2	0.0011448825
71	0x3a85a2d4	0.0010195621
72	0x3a8edbdb	0.0010899262
73	0x3846e129	4.7416575e-05
74	0x3b94958f	0.0045344303
75	0xbbc308b3	-0.0059519648
76	0xbac4b3b7	-0.0015007172
77	0xbb3d995d	-0.0028930523
78	0xbb7a8c5c	-0.0038230633
79	0xba1db9bf	-0.0006016753
80	0x3b519cfc	0.003198444
81	0x3bc6f04d	0.0060711266
82	0x3b8ef192	0.0043622935
83	0x3b2b80be	0.0026169266
84	0x3adbd837	0.0016772811
85	0xbb6f1aca	-0.0036484473
86	0xbb20002e	-0.002441417
87	0xbb80a53c	-0.0039259475
88	0x3b4dd381	0.0031406584
89	0x3b08eda8	0.0020893607
90	0x3b04e847	0.002028005
91	0xbb8f18b2	-0.0043669576
92	0xbbd02dec	-0.0063531306
93	0x3ad2ff6f	0.0016097854
94	0xbb98f7cd	-0.004668212
95	0x3b0cfe2a	0.0021513798
96	0xbaa6b40e	-0.0012718455
97	0x3b71d1c0	0.0036898702
98	0xbb6055f3	-0.0034230917
99	0xbb92d1c3	-0.004480572
100	0x3b4926f4	0.0030693384
101	0x3b86f8e4	0.0041190255
102	0xbaf53e8b	-0.0018710656
103	0x3b60345f	0.0034210903
104	0xba831452	-0.0010000563
105	0xbae55803	-0.0017497543
106	0x3b26a220	0.0025426224
107	0x3a808b6c	0.0009807176
108	0x3b86b2b1	0.004110657
109	0xbb0a10c4	-0.0021067122
110	0x3a65f954	0.00087728095
111	0x3bbb1b11	0.0057100137
112	0x3b7f0b57	0.0038916671
113	0x3a08c6bb	0.00052176014
114	0x3b120604	0.0022281418
115	0xbb5aec6b	-0.0033405076
116	0xbb6d4a4a	-0.003620761
117	0xbb490efe	-0.0030679102
118	0x3ba1fd1d	0.0049435035
119	0xbb7918b6	-0.0038009114
120	0xba9f2f4f	-0.0012144836
121	0x3b3ccbfa	0.0028808103
122	0xbb1dfe7e	-0.0024107988
123	0xbba06dd2	-0.004895904
124	0xbb85533d	-0.0040687607
125	0x3a2e039d	0.00066381117
126	0xbb8ce81c	-0.0043001305
127	0x3b19cb78	0.0023467224

network_body._body_endoder.seq_layers.2.weight f4 [128, 128]
0	0x3e41be5e	0.18920276
1	0x3d5eff5a	0.05444274
2	0xbd1c659b	-0.038182836
3	0xbe41ef92	-0.18939045
4	0xbc056bbc	-0.008143362
5	0xbd556c7e	-0.05210542
6	0xbcef1bac	-0.029188
7	0x3d277bee	0.040889673
8	0xbd04233d	-0.03226017
9	0x3d795258	0.060869545
10	0x3d1908b1	0.037361804
11	0xbcc72d21	-0.024313511
12	0x3d6a6cbc	0.057232603
13	0x3c1f28df	0.009714334
14	0x3da01014	0.07815567
15	0xbc9604d8	-0.018312857
16	0xbd17a697	-0.037024107
17	0x3d870ef4	0.06594649
18	0xbdfef6ee	-0.12449442
19	0xbcf86b5d	-0.030324632
20	0xbe3225e6	-0.1739727
21	0x3d39c61d	0.04535495
22	0xbdb1a201	-0.08673478
23	0xbcc128d0	-0.023579031
24	0xbe5b8594	-0.21437675
25	0xbd4d66d6	-0.0501469
26	0xbdd18dfe	-0.10232161
27	0x3e53e7f6	0.20693955
28	0x3d252462	0.0403179
29	0x3e178c35	0.14799578
30	0x3daff8b5	0.08592359
31	0x3e1034db	0.14082663
32	0xbd308d63	-0.043103587
33	0x3d840e05	0.064479865
34	0x3e1dfa84	0.15427595
35	0x3d15be18	0.03655824
36	0x3db28395	0.087165035
37	0x3c6475c4	0.013944093
38	0x3de5802b	0.11206087
39	0x3afe0abc	0.0019381861
40	0xbdaef4ad	-0.08542762
41	0x3e00d88e	0.12582609
42	0x3d776b48	0.060405046
43	0x3c6ac9a6	0.014330303
44	0x3d7dc455	0.061954815
45	0xbda56bf5	-0.08077232
46	0x3cbe4932	0.023228262
47	0x3e150c3f	0.14555453
48	0xbd7ae4b5	-0.06125327
49	0x3e17be7e	0.14818761
50	0x3d916b12	0.071005
51	0xbc37a094	-0.011207718
52	0xbdb936ef	-0.09043681
53	0xbd302872	-0.04300732
54	0xbd5cdf67	-0.05392399
55	0xbe20a3ec	-0.15687531
56	0x3e7dce52	0.24785736
57	0xbd44df59	-0.048064563
58	0xbd2a0458	-0.04150805
59	0xbd805f8a	-0.06268223
60	0xbcb9f875	-0.022701481
61	0xbdbb8de5	-0.091579236
62	0xbd9af273	-0.07565775
63	0xbdb80fe5	-0.08987407
64	0x3d81aad8	0.06331414
65	0x3dba2611	0.09089292
66	0x3d98ac90	0.07454789
67	0xbd3c7353	-0.04600842
68	0x3db9a3af	0.09064423
69	0x3d174622	0.03693212
70	0xbc788e04	-0.015170578
71	0xbd1b8036	-0.03796407
72	0xbd033fc2	-0.032043226
73	0x3d663e91	0.05621201
74	0xbe21c4c8	-0.15797722
75	0x3d6cc13c	0.05780147
76	0x3d4a0dfc	0.049329743
77	0xbe11e87d	-0.14248843
78	0x3c8b9703	0.017039781
79	0xbdc5f5f1	-0.0966605
80	0xbe101b40	-0.14072895
81	0x3d8e66a6	0.069531724
82	0xbe0a169e	-0.1348519
83	0xbc833e1f	-0.016020833
84	0xbda00fb8	-0.07815498
85	0xbe0bfe53	-0.13671236
86	0x3dcd0fa4	0.10012749
87	0x3e2c3246	0.16816053
88	0xbdbc2df1	-0.0918845
89	0xbdb7d8fa	-0.08976932
90	0xbe550cfb	-0.20805733
91	0x3e2da8de	0.16958949
92	0x3dca1baa	0.09868558
93	0x3e41d3b0	0.18928409
94	0xbe1f3c83	-0.15550427
95	0xbd27b32d	-0.04094236
96	0xbd13b492	-0.036060877
97	0xbcc888a5	-0.02447922
98	0x3d27e6ac	0.04099147
99	0x3e241bce	0.16026232
100	0x3db6b3a2	0.08920981
101	0xbd21636a	-0.03940145
102	0x3cf2dd93	0.02964667
103	0xbc13ef8b	-0.009029279
104	0x3d43ca2c	0.047800228
105	0xbe6bbbb6	-0.23020825
106	0x3bbaf02e	0.005704901
107	0xbd48d83b	-0.04903434
108	0x3c9e11a2	0.019295517
109	0xbc902efc	-0.017600529
110	0x3c4b93ec	0.012425404
111	0xbc931af1	-0.017957183
112	0xbd091e43	-0.033476125
113	0x3ddaf371	0.10690964
114	0xbd1d29ed	-0.03837006
115	0xbda679c5	-0.081286944
116	0x3d49629b	0.049166303
117	0xbcb85ff5	-0.022506693
118	0xbdca56e0	-0.09879851
119	0x3de35858	0.111008346
120	0xbdaa78c8	-0.083238184
121	0x3d5d42ab	0.054018658
122	0xbc5e75da	-0.013577903
123	0xbc4b03b4	-0.01239102
124	0xbd721fd3	-0.05911238
125	0xbd2be32e	-0.041964702
126	0x3c929ef8	0.017898068
127	0xbd8b5e1a	-0.06805058
128	0xbd1a1f0d	-0.03762727
129	0x3d3b5c37	0.04574224
130	0xbd4cc2b4	-0.04999037
131	0xbd24d441	-0.040241484
132	0x3cfaa50a	0.030596275
133	0xbc96aa9c	-0.0183919
134	0x3d659114	0.05604656
135	0xbd78854e	-0.060674004
136	0x3d80ab51	0.06282676
137	0x3dbf268f	0.09333526
138	0x3d1b8f98	0.03797874
139	0x3dab5984	0.08366683
140	0xbd0a20a4	-0.033722535
141	0x3a594cb5	0.00082893233
142	0x3d5b1776	0.05348917
143	0xbe106bd9	-0.1410364
144	0x3d0b9ec2	0.03408695
145	0x3df89929	0.12138588
146	0x3da6c76c	0.081435055
147	0x3da9ee31	0.082973845
148	0xbdca63d8	-0.09882325
149	0x3d7b63f2	0.061374612
150	0xbe5acfb7	-0.213683
151	0xbd87a059	-0.06622381
152	0x3c93e270	0.01805231
153	0xbe64978b	-0.22323434
154	0x3df68dfb	0.120387994
155	0xbdbc6880	-0.09199619
156	0xbc0ffb9e	-0.008788018
157	0x3dea9026	0.114532754
158	0xbe53e61a	-0.20693246
159	0xbdc78158	-0.09741467
160	0xbd19222e	-0.037386112
161	0x3d5b977f	0.053611275
162	0x3dc7c8f6	0.09755127
163	0x3d7cee1b	0.061750513
164	0x3cfca738	0.030841455
165	0x3db167f3	0.08662405
166	0x3cff426c	0.031159602
167	0x3d209c3a	0.03921149
168	0xbdf8c1d7	-0.12146347
169	0xbe0e5617	-0.13900028
170	0x3c9d44c2	0.019197825
171	0xbd1250c8	-0.03572157
172	0x3c614cb5	0.013751199
173	0x3c4629f3	0.012094962
174	0x3db8da05	0.09025959
175	0x3cdc044c	0.026857518
176	0xbe19a4a4	-0.15004212
177	0xbcf77df5	-0.030211428
178	0xbd93f84f	-0.072250955
179	0x3d4053fd	0.046955097
180	0x3d59c82b	0.05316941
181	0x3c994f46	0.018714558
182	0x3c3d46b3	0.011552501
183	0xbd357211	-0.044298235
184	0x3db38f5e	0.087675795
185	0xbc233e98	-0.009963654
186	0x3d1c2ba9	0.038127575
187	0x3dc651fb	0.09683605
188	0xbe70c71c	-0.23513454
189	0x3e1a603a	0.1507577
190	0x3d191100	0.037369728
191	0x3dce70cc	0.10080108
192	0xbdd8bdad	-0.10583053
193	0xbda083f5	-0.07837669
194	0x3dd58643	0.10425999
195	0x3c7cd136	0.015430739
196	0xbe55ac4b	-0.20866506
197	0x3e53b6cf	0.20675205
198	0x3d59cd3a	0.053174235
199	0xbcacfd08	-0.021116748
200	0x3d549cfc	0.051907524
201	0x3cef9a2d	0.029248321
202	0x3cf8107b	0.030281296
203	0xbda750b8	-0.08169693
204	0xbdfe502e	-0.12417637
205	0x3bb58044	0.005538972
206	0xbdad4833	-0.084610365
207	0x3e021445	0.12703045
208	0x3dd5d755	0.10441462
209	0x3e36eaa3	0.17862944
210	0x3e08ad44	0.13347346
211	0xbd7a917a	-0.061173894
212	0xbd606066	-0.054779433
213	0x3c01b13f	0.007915794
214	0xbd29e57a	-0.04147861
215	0xbd9d8a11	-0.0769235
216	0x3cf0bde7	0.029387427
217	0x3e2682ee	0.16260883
218	0xbce7ad1a	-0.028280783
219	0xbd365571	-0.044515077
220	0x3d3f76dd	0.046744216
221	0x3dd6647c	0.104683846
222	0xbc906da6	-0.01763041
223	0x3db5e571	0.08881653
224	0x3e2ad7db	0.16683905
225	0xbdf1defc	-0.11810109
226	0xbd50b0dd	-0.05094992
227	0x3cb62b61	0.022237482
228	0x3deca5b0	0.1155504
229	0x3e169b98	0.14707792
230	0x3da3a695	0.079907574
231	0x3d805664	0.06266478
232	0x3c951d33	0.0182024
233	0xbdc0f54f	-0.09421789
234	0xbd9bb30b	-0.07602509
235	0xbdd64c1b	-0.10463735
236	0x3db91558	0.09037274
237	0xbe150075	-0.14550956
238	0xbdd3d1d2	-0.103427544
239	0x3e32b736	0.17452702
240	0xbc1cbfc5	-0.009567206
241	0x3df873ec	0.12131485
242	0xbd86ba58	-0.06578511
243	0x3e08d1f5	0.13361342
244	0x3d977ef0	0.07397258
245	0x3d9dd9e3	0.07707574
246	0xbe04379c	-0.12911838
247	0xbdc3ee11	-0.09566892
248	0xbc755812	-0.014974611
249	0x3d7940f6	0.060852967
250	0x3d2d8cf1	0.04237074
251	0xbc598010	-0.013275161
252	0xbd3ae8b3	-0.045632076
253	0xbd558e94	-0.052137926
254	0xbce32656	-0.027728241
255	0xbd1d893d	-0.03846096

network_body._body_endoder.seq_layers.2.bias f4 [128]
0	0xbb35cae8	-0.002773935
1	0x3ba10447	0.00491384
2	0x3b690b36	0.003555966
3	0x3b9ec120	0.0048447996
4	0x3b4466ad	0.0029968426
5	0x3b4f8a08	0.0031667966
6	0x3b3a3a17	0.0028415972
7	0x3a6bbe4a	0.0008992894
8	0x3b91f751	0.0044545312
9	0x3b92baa0	0.004477814
10	0xbb616ac3	-0.003439591
11	0xbb7a6fc1	-0.0038213583
12	0xbb8971fe	-0.004194497
13	0x3b699a6b	0.0035645019
14	0x3b7dace3	0.0038707785
15	0xbb938766	-0.0045022247
16	0x3b4aab6b	0.0030924927
17	0x3b862bad	0.004094562
18	0xbb209ecb	-0.002450871
19	0x3b39a4bd	0.0028326951
20	0xbb920093	-0.004455635
21	0x3b8ca340	0.004291922
22	0x3b86dbfc	0.0041155796
23	0x3b28ea5d	0.0025774457
24	0x3b46e16f	0.0030346771
25	0x3b3aec07	0.002852203
26	0xbb47735f	-0.0030433757
27	0xbb75a9e6	-0.00374853
28	0xbb55020d	-0.0032502443
29	0xbb8046c2	-0.003914685
30	0xbb5d5895	-0.0033774723
31	0xbb4def6f	-0.003142323
32	0x3b3aece6	0.002852255
33	0xbb21b353	-0.0024673536
34	0xbba21579	-0.0049464074
35	0xbb67d1a0	-0.003537275
36	0xbb9a2109	-0.004703645
37	0x3b58e5e6	0.0033096015
38	0x3b67895d	0.0035329678
39	0xbb8b2cf5	-0.0042473027
40	0xbbaa00e0	-0.0051880926
41	0x3b29a222	0.0025883992
42	0xbb4cedba	-0.0031269626
43	0x3b5d215d	0.003374181
44	0x3b713570	0.0036805533
45	0x3b648ca1	0.003487386
46	0x3b24e4cc	0.0025160788
47	0x3a8da1c3	0.0010805655
48	0xbb3cfd87	-0.0028837638
49	0xbb87c738	-0.004143622
50	0x3b3aa729	0.0028480983
51	0xbba1eb8d	-0.00494141
52	0x3b47d26f	0.0030490418
53	0xbb836b05	-0.0040105605
54	0x3b92c6d7	0.00447927
55	0xbb51ebdf	-0.003203146
56	0x3b99c2b4	0.0046924
57	0x3b66399c	0.0035129553
58	0xba1e5b7c	-0.0006040854
59	0xbb7a5d3a	-0.003820254
60	0xbb943b59	-0.0045236764
61	0x3b99eb39	0.00469723
62	0x3b2878d9	0.0025706796
63	0xbb5fe19a	-0.0034161569
64	0x3aa476e4	0.0012547639
65	0x3b8f43c4	0.004372092
66	0xbb4ad2f9	-0.0030948503
67	0xbbb3af5e	-0.005483552
68	0x3b4e8c4c	0.003151673
69	0xbb1a1ff6	-0.0023517585
70	0x3b8123b7	0.003941025
71	0x3b1caa17	0.0023905092
72	0xbb145241	-0.0022632035
73	0x3b7ce021	0.003858574
74	0xbb86de17	-0.0041158306
75	0xbbae602d	-0.0053215236
76	0x3b3d1862	0.0028853645
77	0x3baac889	0.005211894
78	0x3b3b24dc	0.0028555905
79	0x3b0c1049	0.0021372011
80	0xba8c4668	-0.0010702135
81	0x3ba6084c	0.005066907
82	0xbb65bd28	-0.0035055373
83	0xbb8c4dca	-0.004281734
84	0x3b52664b	0.0032104428
85	0x3b7d7ec9	0.0038680306
86	0x3b8fb7d9	0.00438593
87	0xbb89ca01	-0.004204989
88	0xbb6e1d15	-0.0036333252
89	0x3b22725b	0.00247874
90	0x3b5b1a2b	0.0033432345
91	0x3ad84d9c	0.0016502622
92	0xbb5efcdf	-0.0034025235
93	0xbb51a8a6	-0.0031991391
94	0xbb8d9b6c	-0.0043215062
95	0x3b73c8e6	0.0037198602
96	0x3b529af5	0.0032135819
97	0x3b8b520e	0.004251725
98	0xbb9a61d2	-0.004711368
99	0x3b8fd1a6	0.0043890057
100	0x3b74216e	0.003725137
101	0xb97af1f4	-0.00023931992
102	0xbb92761c	-0.004469646
103	0xbb807c35	-0.0039210566
104	0xbb3b13f9	-0.002854584
105	0xbb90a976	-0.0044147326
106	0xbad6ca3a	-0.0016387173
107	0xbb50022c	-0.0031739576
108	0x3b5ec693	0.0033992871
109	0x3b8e1315	0.004335771
110	0xbb7852f5	-0.0037891243
111	0x3b3a33fe	0.0028412337
112	0xbb76fa52	-0.0037685824
113	0x3b00d2e4	0.001965695
114	0x3b6930c3	0.0035582043
115	0x3b6cb05b	0.0036115858
116	0xbb83d6c3	-0.0040234043
117	0x3b588c19	0.003304249
118	0xbb85d7cc	-0.004084563
119	0x3b73933f	0.0037166623
120	0x3b9ff178	0.0048810802
121	0x3b33960c	0.0027402667
122	0xbb9eea97	-0.0048497426
123	0xbb8109fb	-0.0039379573
124	0xbb8cd42c	-0.004297754
125	0x3b0db88a	0.0021624886
126	0x3b800ccd	0.003907776
127	0xbb809f23	-0.0039252206

action_model._continuous_distribution.log_sigma f4 [1, 2]
0	0x38ddfbf9	0.00010585035
1	0xbbe285c7	-0.00691292
