results/ZaraImitation2/ZARAimitation/ZARAimitation-3470.onnx (onnx, 275696 bytes, 15 tensors)

network_body.observation_encoder.processors.0.conv_layers.0.weight f4 [16, 4, 8, 8]
0	0x3d24aa3e	0.040201418
1	0x3bcc3100	0.006231427
2	0x3abf5440	0.0014597252
3	0x3c81de38	0.015853032
4	0xbb160f30	-0.0022897236
5	0xbd1ccba2	-0.038280137
6	0xbd2d6c69	-0.042339716
7	0x3c3b87d0	0.011445954
8	0xbcf22fbc	-0.029563777
9	0xbd71849d	-0.05896436
10	0x3d40a50e	0.04703241
11	0x3d679138	0.056534976
12	0x3d6295e8	0.055318743
13	0xbcc56512	-0.024096046
14	0xbcf275be	-0.02959716
15	0x3d51d67e	0.051229946
16	0x3d1f1792	0.038840838
17	0x3c3049b8	0.010759763
18	0xbd03a2e2	-0.03213776
19	0xbc254090	-0.010086194
20	0x3c5b0c70	0.013369665
21	0xbd74f2b6	-0.05980178
22	0x3d6c8676	0.05774542
23	0x3cdb3078	0.02675651
24	0x3d6473ee	0.05577462
25	0xbc79a99c	-0.015238192
26	0xbcf257b8	-0.029582843
27	0x3ce845c0	0.028353572
28	0x3d14efe0	0.036361575
29	0x3cea6efc	0.028617375
30	0x3d3d06cc	0.04614906
31	0x3ad3a800	0.001614809
32	0xbd0b92b8	-0.03407547
33	0x3bf7bef0	0.0075606033
34	0xba5ff640	-0.0008543469
35	0x3d164d4e	0.036694817
36	0x3d121fb0	0.03567475
37	0xbaef5280	-0.001825884
38	0x3d45f280	0.04832697
39	0xbcc8e034	-0.02452097
40	0xbd0913d4	-0.033466175
41	0x3cf3715c	0.02971714
42	0x3c85fd00	0.016355991
43	0xbc131374	-0.008976806
44	0xbcf04d82	-0.029333834
45	0xbbfc4a90	-0.007699318
46	0x3d01c57e	0.031682484
47	0x3c1efaf0	0.009703383
48	0xbc4ce42c	-0.012505572
49	0x3b855db0	0.0040700063
50	0x3d0c077e	0.034186833
51	0xbca71c78	-0.020399317
52	0xbd110896	-0.03540858
53	0xbc874310	-0.01651147
54	0x3d388376	0.045047246
55	0x3bcb6390	0.006206937
56	0xba85b0a0	-0.0010199733
57	0x3d7a9982	0.061181553
58	0x3d1fc29a	0.039003946
59	0xbc2532e8	-0.010082938
60	0x3c83fe8c	0.016112588
61	0xbd47af2e	-0.04875105
62	0x3c285318	0.010273717
63	0xbd2b344e	-0.04179793
64	0xbc0253e4	-0.007954571
65	0x3cf4edfc	0.029898636
66	0x3d714950	0.058907807
67	0x3d3a9d92	0.045560427
68	0xbd61e929	-0.055154
69	0xbcdd8086	-0.027038824
70	0xbc815f2c	-0.015792452
71	0xba942da0	-0.0011305101
72	0x3d3221f6	0.04348942
73	0xbc0e03d8	-0.008667909
74	0x3c531e48	0.012885638
75	0xbd47733f	-0.04869389
76	0x3c36b328	0.011151113
77	0x3d07aeb4	0.033125594
78	0xbb0b44a0	-0.002125062
79	0x3ae53940	0.0017488375
80	0x3c3fd468	0.011708356
81	0xbd1370c0	-0.0359962
82	0x3d54b08e	0.05192619
83	0x3d443edc	0.04791151
84	0xbcafb5cc	-0.021448992
85	0x3cb52b44	0.022115357
86	0xbc9973ca	-0.01873197
87	0x3d6647f6	0.05622097
88	0xbd00127c	-0.031267628
89	0x3d35b3ec	0.04436104
90	0xbd481e92	-0.04885728
91	0x3b8347c0	0.004006356
92	0x3cf8d2ec	0.030374013
93	0xbc8e8a62	-0.01739997
94	0xbd243ca1	-0.040096883
95	0xbd096fa8	-0.03355375
96	0xbcd5d2ea	-0.026101548
97	0x3cb8fdbc	0.022581927
98	0xbd23cdf7	-0.039991345
99	0xbd73ec1b	-0.05955134
100	0x3d56afa2	0.05241359
101	0xbcc56f00	-0.02410078
102	0xbd70d662	-0.0587982
103	0xbd3e0a9e	-0.046396844
104	0xbd2a2e83	-0.041548263
105	0x3c58b5a8	0.013226904
106	0x3d5a275a	0.053260185
107	0x3d06456c	0.03278105
108	0x3d0b43bc	0.034000143
109	0xbd2f34b6	-0.04277488
110	0xbd599e14	-0.05312927
111	0x3d047928	0.032342106
112	0x3d284ba0	0.041087747
113	0x39b42f00	0.00034367293
114	0x3d7cc7fc	0.061714157
115	0xbb890508	-0.004181508
116	0x3ccee634	0.025256254
117	0x3cebcf04	0.028785236
118	0xbd57cbc9	-0.05268458
119	0x3d15c080	0.036560535
120	0xbd026cf4	-0.031842187
121	0x3cbab2dc	0.022790365
122	0x3d2f1510	0.042744696
123	0x3d6ef614	0.058340147
124	0x3d524052	0.051330872
125	0xbd700be9	-0.05860511
126	0x3a46ea80	0.0007588044
127	0xbcd784ee	-0.026308503
128	0xbd2f4500	-0.042790413
129	0x3cfc5288	0.030801073
130	0x3d598288	0.053103
131	0x3d13b3f6	0.036060296
132	0x3d49cc84	0.049267307
133	0x3bf3f130	0.0074445233
134	0xbb9e5168	-0.0048314817
135	0x3ceb13b8	0.028695926
136	0x3cc13a00	0.023587227
137	0xbd21ce6e	-0.039503507
138	0xbd1e5c19	-0.03866205
139	0xba9f3860	-0.0012147538
140	0x3d1124da	0.035435535
141	0xbc7cb7cc	-0.01542468
142	0x3ba22230	0.004947923
143	0xbc2efff0	-0.010681137
144	0xbc95adc8	-0.018271342
145	0x3cdc185c	0.026867084
146	0xbd6727d0	-0.056434453
147	0x3c868e10	0.016425163
148	0xbbc55dc0	-0.0060231388
149	0x3b9ed910	0.004847653
150	0xbd43758c	-0.047719523
151	0xbcd90e6e	-0.026496138
152	0x3d3772e6	0.04478731
153	0xbcfafcc4	-0.030638106
154	0x3c399ff8	0.011329643
155	0xbcfffb7e	-0.03124785
156	0x3cce4f7c	0.025184385
157	0xbd19e781	-0.037574295
158	0x3d78fafc	0.060786232
159	0x3d1195e8	0.035543352
160	0xbc8cf078	-0.017204508
161	0xbd0a2210	-0.03372389
162	0xbd7723e4	-0.060336962
163	0xbd67faaa	-0.056635536
164	0xbccc173c	-0.024913423
165	0xbcd7302c	-0.026268087
166	0x3cd96c5c	0.026540928
167	0xbd488484	-0.0489545
168	0xbd377dfe	-0.04479789
169	0x3d44fa0c	0.048090026
170	0xbce18116	-0.027527373
171	0x3d125e46	0.035734437
172	0x3d35b00e	0.044357352
173	0xbd159260	-0.036516547
174	0x39e6c100	0.00044012815
175	0x3bb73f00	0.005592227
176	0xbd1c353f	-0.038136717
177	0xbcc43902	-0.023952965
178	0x3d5a5cfa	0.053311326
179	0x3cb0835c	0.021547012
180	0xbd43219d	-0.047639478
181	0xbb791b30	-0.003801059
182	0x3d1f6078	0.03891036
183	0x3d198e28	0.037489086
184	0xbd347b3b	-0.044062834
185	0xbd255a0a	-0.04036907
186	0x3d2de33c	0.042453036
187	0xbc92d2d0	-0.017922789
188	0x3b9ab3e0	0.00472115
189	0x3ba16ae0	0.0049260706
190	0xbc750b10	-0.014956251
191	0x3c20f728	0.009824552
192	0x3cba47f0	0.02273938
193	0x3c0b1058	0.008487783
194	0x3cb73eac	0.022368751
195	0xbd5b03ef	-0.05347055
196	0x3bd500d0	0.006500341
197	0xbbaaa190	-0.005207248
198	0x3d075b3c	0.033045992
199	0xba75d640	-0.0009377934
200	0x3c9e44e8	0.019319966
201	0x3cdae1f4	0.026719071
202	0x3c9a1894	0.018810548
203	0xbcd8f04a	-0.026481766
204	0xbb67d730	-0.0035376064
205	0x3d63e2d0	0.055636227
206	0xbced32a2	-0.028954808
207	0xbd6cf87e	-0.057854168
208	0x3d18e190	0.03732449
209	0x3ca55114	0.020180263
210	0xbc3f1f3c	-0.011665162
211	0xbd01226a	-0.03152696
212	0xbcd51512	-0.026011024
213	0x3d296e82	0.041365154
214	0x3d6e591e	0.058190458
215	0x3bc38de0	0.0059678406
216	0x3d51f9ac	0.051263496
217	0x3c14c920	0.009081155
218	0x3d3bd078	0.04585311
219	0x3ce27388	0.02764298
220	0x3d79c674	0.060980275
221	0xbce96408	-0.028490081
222	0xbd446f10	-0.04795748
223	0x3d70b424	0.058765545
224	0x3c1fa708	0.009744413
225	0x3d6a51de	0.05720698
226	0xbbbe4740	-0.0058068335
227	0xbd67b0df	-0.05656516
228	0xbcfc996e	-0.03083488
229	0x3cc40ae4	0.023930974
230	0xbd3d6638	-0.04624006
231	0xbd75f3fe	-0.060047142
232	0xbd79e736	-0.061011516
233	0x3bfacab0	0.0076535568
234	0xbb9b5980	-0.004740894
235	0xbd3c4ad0	-0.045969784
236	0xbcda5976	-0.026653986
237	0x3d327fd0	0.043578923
238	0x3bb16de0	0.0054147094
239	0x3c7e4d80	0.015521407
240	0x3c02a598	0.007974051
241	0x3d3bf540	0.045888186
242	0xbd4b4731	-0.04962844
243	0xbd2acf27	-0.041701462
244	0xbcd4d730	-0.025981516
245	0xbc8c4e50	-0.017127186
246	0x3d448bb0	0.04798478
247	0x3cee4948	0.029087678
248	0x3cd294a0	0.025705636
249	0xbd6331b7	-0.055467334
250	0xbca977f8	-0.020687088
251	0xbcb408ae	-0.021976795
252	0x3b1f5220	0.0024310425
253	0xbd2618a0	-0.040550828
254	0x3d78eaf6	0.06077095
255	0x3cda20a0	0.026626885

network_body.observation_encoder.processors.0.conv_layers.0.bias f4 [16]
0	0xbcb2a62a	-0.021807749
1	0x3c03aff8	0.00803756
2	0x3cfcf608	0.030879036
3	0xbc6eff00	-0.014587164
4	0x3ccb6564	0.02482862
5	0xbccba490	-0.024858743
6	0x3d362c48	0.044475824
7	0xbcfbda62	-0.030743781
8	0xbc7d6114	-0.01546504
9	0xbcd86152	-0.026413593
10	0xbd4851b4	-0.048906043
11	0xbb97e2b0	-0.0046351776
12	0xbd1977fc	-0.03746794
13	0x3b34eca0	0.002760686
14	0x3c9f20a8	0.019424751
15	0xbd379620	-0.044820905

network_body.observation_encoder.processors.0.conv_layers.2.weight f4 [32, 16, 4, 4]
0	0xbd7b050c	-0.06128411
1	0xbd48e82d	-0.049049545
2	0xbd49802b	-0.049194496
3	0x3d4303d4	0.047611073
4	0xbcec53ac	-0.028848492
5	0x3d2a151c	0.041524038
6	0xbd713d15	-0.058896143
7	0x3c883364	0.016626067
8	0xbcd40a34	-0.025883771
9	0x3d152744	0.0364144
10	0x3ce46f78	0.027885184
11	0xbc395e98	-0.011314057
12	0xbd76ac88	-0.060223132
13	0x3c580858	0.013185583
14	0x3cf1e674	0.029528834
15	0xbd4730f4	-0.04863067
16	0x3c8a583c	0.016887777
17	0xbcf5e276	-0.030015212
18	0xbcfc6d44	-0.03081382
19	0xbc57ebac	-0.013178747
20	0xbcec992c	-0.028881632
21	0x3d257f4e	0.04040461
22	0xbd287324	-0.04112543
23	0xbc937484	-0.017999895
24	0xbd752679	-0.059851144
25	0x3cd19600	0.02558422
26	0xbce109a4	-0.027470417
27	0x3d058c42	0.032604463
28	0x3d2b6fee	0.04185479
29	0xba507b40	-0.0007952936
30	0xbcb054ae	-0.021524753
31	0x3c7b2d08	0.0153305605
32	0x3d5e46a0	0.054266572
33	0x3af56700	0.0018722713
34	0x3cf252bc	0.029580466
35	0x3d44f8be	0.04808878
36	0xbd5f61c6	-0.054536603
37	0x3d0e4996	0.034738146
38	0x3bc7dbb0	0.006099187
39	0xbc3bc1a0	-0.011459738
40	0x3d5226a2	0.051306374
41	0xbd3ffe88	-0.0468736
42	0x3cbff2b0	0.023431152
43	0x3cf7aea0	0.030234635
44	0xbc3d8f54	-0.011569817
45	0xbd5619fe	-0.05227088
46	0x3d41c2e2	0.047304995
47	0x3d03bbb0	0.032161415
48	0x3b75b260	0.0037490353
49	0x3c058c20	0.008151084
50	0x3d177d3a	0.03698466
51	0xbd6131c1	-0.05497909
52	0x3d1c27a8	0.038123757
53	0xbd61264c	-0.054968163
54	0xbc303718	-0.010755323
55	0x3cab1680	0.020884752
56	0xbcd53b92	-0.026029382
57	0xbc946390	-0.018113881
58	0x3ca74e58	0.0204231
59	0xbc466990	-0.012110129
60	0xbc4daa28	-0.012552775
61	0xbd262b32	-0.040568538
62	0xbd69c75c	-0.05707489
63	0xbd5b4082	-0.053528316
64	0x3cb6eadc	0.022328787
65	0xbc6cda00	-0.014456272
66	0x3d3b47dc	0.045722827
67	0x3d3c26fe	0.045935623
68	0x3cfde2e4	0.030991979
69	0x3cecb848	0.028896466
70	0xbd21ef77	-0.039535012
71	0x3d3fc5d8	0.046819538
72	0x3d086fac	0.033309624
73	0xbcfd348e	-0.03090885
74	0xbb027610	-0.0019906797
75	0x3a0fad00	0.0005480796
76	0x3cc1f968	0.023678496
77	0x3d37bcec	0.044857904
78	0xbd384fa6	-0.044997834
79	0x39c56700	0.0003765151
80	0x3d58f438	0.05296728
81	0x3c36e870	0.011163816
82	0x3bf59dc0	0.007495612
83	0xbd68624e	-0.056734376
84	0x3b1d3640	0.0023988634
85	0xbcc814c6	-0.024423968
86	0x3d790a04	0.060800567
87	0xbccd854a	-0.025087971
88	0xbd50ee6d	-0.05100863
89	0x3d0b8924	0.034066334
90	0xbd0f4144	-0.03497435
91	0xbd135a42	-0.03597475
92	0xbbf97388	-0.0076126494
93	0x3d21ce74	0.03950353
94	0x3cb2b804	0.021816261
95	0x3d70ab56	0.05875715
96	0xbc26a260	-0.010170549
97	0xbc702498	-0.014657162
98	0x3d359e7e	0.044340603
99	0xbc20df40	-0.009818852
100	0xbd77f5be	-0.060537092
101	0x3c345588	0.01100672
102	0x3bd47cc0	0.006484598
103	0x3d79fa08	0.061029464
104	0x3d48229a	0.048861124
105	0xbc243f48	-0.010024853
106	0xbca3f922	-0.020016257
107	0xbd3710ee	-0.04469388
108	0xbd648256	-0.05578836
109	0xbd4d8966	-0.05017986
110	0x3c86c060	0.016449153
111	0xbcb5d5ee	-0.022196736
112	0x3d64ff20	0.05590737
113	0xbd350246	-0.04419162
114	0xbc8b5596	-0.017008584
115	0xbd7d5276	-0.06184622
116	0x3c9bd9c8	0.019024745
117	0xbd56e3e9	-0.052463446
118	0x3d2f6b70	0.04282707
119	0xbd723842	-0.059135683
120	0x3cfaef50	0.030631691
121	0xbd568097	-0.052368727
122	0xbc46a238	-0.012123637
123	0x3c8dd84c	0.017315052
124	0xbca15142	-0.019692067
125	0xbd16ca97	-0.0368143
126	0x3d58fb30	0.052973926
127	0x3c145a30	0.0090547055
128	0xbd4ea4ab	-0.05045001
129	0x3d3178b8	0.043328017
130	0x3cd00538	0.025393113
131	0x3c7c9060	0.015415281
132	0x3d304950	0.043038666
133	0xbd66c254	-0.05633767
134	0xbc85ae8a	-0.016318578
135	0xbd1f0252	-0.038820572
136	0xbcc73390	-0.02431658
137	0x3d79968c	0.06093459
138	0xbcbe9522	-0.023264471
139	0xbc6a5710	-0.014302984
140	0xbd330fcf	-0.043716248
141	0x3d728d2a	0.059216656
142	0xbc244d90	-0.010028258
143	0x3cb996e8	0.022654966
144	0x3bf733e0	0.007544026
145	0xbd532e40	-0.05155778
146	0xbc4e2b68	-0.012583591
147	0x3c374df8	0.011188023
148	0xbd4e8f84	-0.050429836
149	0xbce56b20	-0.028005183
150	0xbd06ef9a	-0.032943346
151	0xbcb1f1b6	-0.021721702
152	0x3d2c1aae	0.04201763
153	0xbc057dec	-0.008147698
154	0x3ca3a73c	0.019977205
155	0x3d5ba3f4	0.053623155
156	0xbd282d00	-0.04105854
157	0x3d1d7028	0.03843704
158	0x3d3af9f6	0.045648538
159	0xbbc18fc8	-0.0059070326
160	0xbd0f31b5	-0.034959514
161	0xbd5f26a4	-0.05448021
162	0xbcb774fe	-0.022394653
163	0xbc9978f6	-0.018734436
164	0x3d55d54c	0.05220537
165	0x3d23da3e	0.040003054
166	0xbd775c85	-0.060390968
167	0x3a938e80	0.0011257678
168	0xbc488578	-0.012238853
169	0xbd21fc08	-0.039546996
170	0x3c7bd4d8	0.01537057
171	0x3c46b500	0.012128115
172	0xbc68c63c	-0.014207419
173	0xbd6fd227	-0.058550026
174	0xbd6919d2	-0.05690939
175	0x3c509950	0.012731865
176	0x3cfcac08	0.03084375
177	0x3d756f24	0.059920445
178	0xbd21cd3c	-0.039502367
179	0x3d7263e4	0.059177294
180	0xbd21ea72	-0.039530225
181	0x3cb32bc8	0.021871462
182	0x3d00d370	0.031451643
183	0x3d229714	0.03969486
184	0xbcef9930	-0.02924785
185	0xbcd7e258	-0.026353046
186	0x3c4046b0	0.011735603
187	0xbd439e96	-0.04775866
188	0xb9a3b800	-0.00031226873
189	0x3ce0ec98	0.027456567
190	0x3d2ce032	0.042205997
191	0x3d36e4ba	0.044651724
192	0xbce24c48	-0.027624264
193	0x3c8be8a8	0.017078713
194	0x3cd9f670	0.026606768
195	0x3c67c7a0	0.014146715
196	0xbcf18cb8	-0.029486045
197	0x3d457eec	0.048216745
198	0x3c34de48	0.011039324
199	0x3caf09d4	0.021366991
200	0x3cb7126c	0.022347651
201	0x3d2023b2	0.03909654
202	0x3cdc3820	0.026882231
203	0x3ce5695c	0.02800434
204	0xbd167dd0	-0.036741078
205	0xbd15864c	-0.03650503
206	0xbca90bfa	-0.020635594
207	0x3c172140	0.009224236
208	0x3d7f120a	0.062273063
209	0x3d78d404	0.06074907
210	0x3c533500	0.012891054
211	0x3d1350fe	0.035965912
212	0x3d2e0fb4	0.042495444
213	0xbca4c66a	-0.020114142
214	0x3c196098	0.009361409
215	0x3ce485c4	0.027895816
216	0xbd7b1c26	-0.06130614
217	0x39c74500	0.00038007647
218	0x3d7ad96c	0.061242506
219	0x3d369d2c	0.044583485
220	0x3d5f2d04	0.05448629
221	0xbd50fa4b	-0.051019948
222	0xbd3a587e	-0.04549455
223	0xbd01d82c	-0.0317003
224	0x3c98b7d8	0.018642351
225	0x3b7509e0	0.003738992
226	0x3d112328	0.03543392
227	0xbcd67c72	-0.026182387
228	0xbd218f70	-0.039443433
229	0xbcf93254	-0.030419506
230	0xbce17522	-0.027521674
231	0x3bae3af0	0.0053170845
232	0xbd7b053a	-0.06128428
233	0x3d06532c	0.032794163
234	0x3d20dfc4	0.0392759
235	0xbd174f64	-0.036940947
236	0x3d1204d4	0.035649136
237	0x3d410852	0.047127075
238	0xbd33c100	-0.04388523
239	0xbd250c3c	-0.04029487
240	0x3c373140	0.011181176
241	0x3cfd1498	0.030893609
242	0x3c9028ec	0.017597638
243	0x3d5989ac	0.05310981
244	0x3d2d5fd8	0.04232773
245	0x3d1bf336	0.03807374
246	0xbc9c36ec	-0.019069158
247	0xbc63a068	-0.013893224
248	0x3d116880	0.03550005
249	0x3d479368	0.048724562
250	0x3cab116c	0.02088233
251	0x3b7010a0	0.0036631003
252	0xbd40080c	-0.046882674
253	0x3cabac44	0.020956166
254	0xbd344fc2	-0.044021375
255	0xbbe54870	-0.0069971606

network_body.observation_encoder.processors.0.conv_layers.2.bias f4 [32]
0	0xbd5fdaec	-0.05465214
1	0x3b9b3b50	0.004737295
2	0xbc8af8c2	-0.01696432
3	0xbd5eaecf	-0.05436593
4	0x3ba277e0	0.004958138
5	0x3d709c82	0.058743007
6	0x3c497018	0.012294792
7	0x3d603b20	0.054743886
8	0x3d593e4a	0.05303792
9	0xbcc2c6a0	-0.023776352
10	0xbd5dbd1a	-0.05413542
11	0x3c6d93b8	0.014500551
12	0xbb8fe350	-0.0043911114
13	0x3d68f410	0.05687338
14	0xbd7c4368	-0.06158772
15	0x3d50a9d6	0.05094322
16	0xbcf4c842	-0.029880647
17	0x3d6f6e12	0.05845458
18	0xbd68257f	-0.056676384
19	0xbd43c77e	-0.047797672
20	0xbc0d6e60	-0.0086322725
21	0xbb702040	-0.0036640316
22	0x3cd31d8c	0.025770925
23	0x3d18a0d8	0.037262768
24	0x3c227470	0.009915456
25	0x3d35edd4	0.044416264
26	0xbce10910	-0.027470142
27	0x3cc86510	0.024462253
28	0xbd489fc0	-0.048980474
29	0x3d3dd812	0.04634864
30	0xbd08957c	-0.033345684
31	0xbd7fb9b8	-0.062432975

network_body.observation_encoder.processors.0.dense.0.weight f4 [128, 32]
0	0x3eb6bc5e	0.35690588
1	0x3d6311e2	0.055436976
2	0x3e7951c5	0.24347599
3	0x3df1bfb9	0.11804146
4	0x3ea2356a	0.31681377
5	0x3f128bcb	0.5724456
6	0x3e8c5808	0.27410913
7	0x3d0b26ce	0.033972554
8	0x3e5bd957	0.21469627
9	0xbdd6c021	-0.104858644
10	0xbedb7312	-0.4286123
11	0x3eb1f1f4	0.34754908
12	0x3e4f4837	0.20242392
13	0xbcbd7956	-0.023129147
14	0xbde78c6a	-0.11306079
15	0xbd294d60	-0.041333556
16	0x3ee6c15f	0.45069405
17	0xbc853e6c	-0.016265117
18	0xbc3803cd	-0.011231375
19	0xbdaa7dad	-0.08324752
20	0x3e820594	0.2539488
21	0x3d11153f	0.035420652
22	0x3ecf237c	0.4045676
23	0xbcc4459a	-0.02395897
24	0xbe93ad9d	-0.28843394
25	0xbecc4dfa	-0.3990324
26	0xbdaf8fa3	-0.085723184
27	0xbeb04c2d	-0.34433118
28	0x3e1e99bf	0.15488337
29	0xbd7d3c57	-0.061825123
30	0x3eafee12	0.3436132
31	0xbe143071	-0.14471604
32	0x3ef36adb	0.47542462
33	0xbe46a66b	-0.19399421
34	0xbe3660ef	-0.17810415
35	0xbe516f7e	-0.20452687
36	0xbeb8815e	-0.360362
37	0xbe9a67dd	-0.30157366
38	0xbe908608	-0.28227258
39	0xbd306300	-0.043063164
40	0xbd4d6773	-0.050147485
41	0xbdc5ac82	-0.09652044
42	0x3b91eb67	0.004453111
43	0x3e5c7b4e	0.21531412
44	0x3d67fcd2	0.056637593
45	0xbeaa3363	-0.3324233
46	0xbdb5fc3e	-0.08886002
47	0xbe9947c7	-0.29937574
48	0xbdb5e930	-0.088823676
49	0xbe542388	-0.20716679
50	0xbf40f6f4	-0.7537682
51	0x3e0dad55	0.13835652
52	0x3d2f4d24	0.042798176
53	0xbe51609d	-0.20447011
54	0x3e0c3000	0.13690186
55	0xbe206c22	-0.1566625
56	0xbc8c18fa	-0.017101754
57	0x3efbb9d4	0.49165213
58	0xbe12ea9a	-0.14347306
59	0xbe53c79a	-0.2068161
60	0xbd895c50	-0.0670706
61	0x3e799130	0.24371791
62	0x3d175e9f	0.036955472
63	0xbe6ab783	-0.22921567
64	0x3d9c1c6d	0.07622609
65	0xbc7cb166	-0.015423154
66	0xbeae8e7b	-0.3409308
67	0x3eeed587	0.46647283
68	0x3cfdd247	0.030984057
69	0xbeddc4d4	-0.4331423
70	0x3d3a2d86	0.04545357
71	0xbd93d4f5	-0.07218353
72	0xbde18406	-0.110115096
73	0x3e26b66b	0.16280524
74	0x3ef22131	0.47290948
75	0x3e7ed09a	0.24884263
76	0xbf074845	-0.5284465
77	0x3d3c2cf1	0.045941297
78	0xbea33aa1	-0.31880668
79	0x3e4a10c9	0.19732966
80	0xbd731685	-0.05934765
81	0x3e89f24d	0.26942673
82	0xbd3411f2	-0.043962426
83	0xbd99b28f	-0.075047605
84	0x3f0c7b24	0.548754
85	0xbda2cced	-0.07949243
86	0x3d861a60	0.065479994
87	0xbeb91e93	-0.3615614
88	0x3d30fcab	0.043209713
89	0xbea68b6d	-0.32528248
90	0xbd195ed1	-0.03744394
91	0xbcc20b01	-0.023686888
92	0x3e61b7a1	0.22042705
93	0xbeb69e40	-0.3566761
94	0xbf08bc0f	-0.53411955
95	0xbe35bafb	-0.17747109
96	0x3f02cc53	0.51093024
97	0xbde3b53d	-0.11118553
98	0x3ec0e4d2	0.37674576
99	0xbe279ae3	-0.16367678
100	0x3e0e28dd	0.13882776
101	0xbe3d8fc1	-0.18511869
102	0xbe284906	-0.16434106
103	0xbde675dd	-0.112529494
104	0xbe95e37a	-0.29275113
105	0xbe15df5a	-0.14635983
106	0xbe2e1f4d	-0.17004128
107	0x3e8668cd	0.26251832
108	0x3e1a8b50	0.15092206
109	0x3dcef2e3	0.10104921
110	0xbd3a65b0	-0.045507133
111	0xbe68ee23	-0.22747092
112	0xbe5dea38	-0.21671379
113	0x3eef3ea6	0.46727484
114	0x3eb1449f	0.34622666
115	0x3f3d15d5	0.7386144
116	0x3e94609c	0.28979957
117	0x3e56fcdd	0.20994897
118	0xbe525cb1	-0.20543171
119	0x3e8cc115	0.2749106
120	0xbe91b63f	-0.28459355
121	0xbe175a29	-0.14780487
122	0xbe2ecef6	-0.17071137
123	0xbf21451b	-0.6299607
124	0xbe3a2de2	-0.18181565
125	0xbe157c99	-0.14598311
126	0xbe978c32	-0.29599148
127	0xbad51d6e	-0.0016259381
128	0xbd3f9353	-0.04677136
129	0xbf0c76ab	-0.5486857
130	0x3d01f4d5	0.03172763
131	0xbca2daec	-0.01987978
132	0x3e067eed	0.13134356
133	0x3e0d5165	0.13800581
134	0x3e47c492	0.1950858
135	0x3e0c6a5a	0.13712445
136	0xbd808fb6	-0.06277411
137	0xbe6cbb68	-0.23118365
138	0x3debcf9f	0.1151421
139	0xbd4dac8b	-0.050213378
140	0x3e93f4c8	0.2889769
141	0x3ecd8aa5	0.4014484
142	0x3d908f36	0.07058565
143	0xbcc66993	-0.024220264
144	0x3ec7d638	0.39030623
145	0x3eb46295	0.35231462
146	0xbe0e4910	-0.13895059
147	0x3d3dc4f6	0.046330415
148	0xbdcb5fe1	-0.09930397
149	0xbe355dde	-0.17711589
150	0xbe1ab180	-0.15106773
151	0x3d4fbd5e	0.050717704
152	0xbeaf0c16	-0.34188908
153	0x3ec67146	0.38758296
154	0xbdd9f10e	-0.10641681
155	0x3e1a83ea	0.15089384
156	0xbdded4f4	-0.10880461
157	0xbd0f3936	-0.03496667
158	0xbda536c8	-0.08067089
159	0x3ed43368	0.4144547
160	0xbc0de426	-0.008660352
161	0x3df7dd6f	0.12102782
162	0x3b7b7628	0.0038369987
163	0xbe46e66c	-0.19423836
164	0x3d3007b8	0.04297611
165	0xbde3a32f	-0.11115109
166	0x3e8417d1	0.2579942
167	0x3eb5b5ea	0.35490352
168	0xbe089b68	-0.13340533
169	0x3e059a62	0.13047174
170	0xbf09d842	-0.5384561
171	0x3d6d3e95	0.05792101
172	0x3d0d05c7	0.034429338
173	0x3f09c6d6	0.53819025
174	0xbcd5643f	-0.026048778
175	0x3c2aaa71	0.010416613
176	0x3e565bdf	0.20933484
177	0x3ef31438	0.47476363
178	0x3e97f7f8	0.29681373
179	0xbd14f026	-0.036361836
180	0x3e5ad88f	0.21371673
181	0x3ea5dda6	0.32395667
182	0xbe81c5c1	-0.25346187
183	0x3de04d58	0.10952252
184	0x3e7ffc9b	0.24998705
185	0x3ebb60f0	0.36597395
186	0xbe3487de	-0.17629954
187	0x3daac336	0.08338015
188	0xbc95ff0f	-0.018310098
189	0x3e92cdec	0.2867273
190	0x3e09ba0a	0.13449875
191	0xbd815fc7	-0.06317096
192	0xbe828e72	-0.25499302
193	0x3e311bda	0.17295781
194	0x3e077925	0.13229807
195	0x3e10c7d0	0.14138722
196	0x3d37f025	0.044906754
197	0xbdcfb9d3	-0.10142865
198	0x3d9318a3	0.071824335
199	0xbec31db0	-0.38108587
200	0xbedfce35	-0.4371201
201	0xbeddf6eb	-0.43352446
202	0xbd2bb901	-0.04192448
203	0x3e91068e	0.28325313
204	0x3eb23d49	0.34812382
205	0xbe6b7002	-0.22991946
206	0x3db0bbc0	0.086295605
207	0x3e2ede1e	0.17076918
208	0xbe92d8ff	-0.2868118
209	0x3dd57ae2	0.10423829
210	0x3e370522	0.17873052
211	0x3dce3d81	0.10070325
212	0xbe207c58	-0.15672433
213	0x3e9070a6	0.28210944
214	0x3ccfc8f8	0.025364384
215	0xbe8fc040	-0.28076363
216	0x3e635be1	0.22203018
217	0xbe5a7dd3	-0.2133706
218	0xbd7fc784	-0.062446132
219	0x3d5fee67	0.054670718
220	0x3e29d120	0.16583681
221	0xbf262125	-0.64894325
222	0x3ebb83e5	0.36624065
223	0x3e2c41f4	0.16822034
224	0x3da90790	0.082533956
225	0xbe93d007	-0.2886965
226	0xbe408bc1	-0.18803312
227	0xbdf94081	-0.12170506
228	0x3e39f880	0.18161201
229	0xbd9671f9	-0.07345957
230	0xbec9e5ad	-0.3943304
231	0xbd1fc564	-0.039006606
232	0x3deba3dc	0.11505863
233	0x3ef41c19	0.47677687
234	0x3d8ddc0a	0.06926735
235	0x3d84c39c	0.06482622
236	0xbded49f7	-0.11586373
237	0x3da6b4c2	0.081399456
238	0x3e1f47fc	0.15554804
239	0xbe0f66f8	-0.14004123
240	0x3d8f447f	0.069954865
241	0x3e558900	0.20853043
242	0xbe6bf128	-0.23041213
243	0x3e78902e	0.2427375
244	0xbefeddca	-0.49778587
245	0x3b3f7ccd	0.0029218674
246	0xbe5b7f0b	-0.21435182
247	0xbe47385e	-0.19455096
248	0xbe54ab25	-0.20768411
249	0x3eb7fc78	0.35934806
250	0x3d448ef0	0.04798788
251	0x3df19194	0.11795345
252	0xbe733d95	-0.2375396
253	0xbc933924	-0.017971583
254	0xbc28e2b2	-0.010307955
255	0x3f23e8d9	0.6402717

network_body.observation_encoder.processors.0.dense.0.bias f4 [128]
0	0x00000000	0.0
1	0x00000000	0.0
2	0x00000000	0.0
3	0x00000000	0.0
4	0x00000000	0.0
5	0x00000000	0.0
6	0x00000000	0.0
7	0x00000000	0.0
8	0x00000000	0.0
9	0x00000000	0.0
10	0x00000000	0.0
11	0x00000000	0.0
12	0x00000000	0.0
13	0x00000000	0.0
14	0x00000000	0.0
15	0x00000000	0.0
16	0x00000000	0.0
17	0x00000000	0.0
18	0x00000000	0.0
19	0x00000000	0.0
20	0x00000000	0.0
21	0x00000000	0.0
22	0x00000000	0.0
23	0x00000000	0.0
24	0x00000000	0.0
25	0x00000000	0.0
26	0x00000000	0.0
27	0x00000000	0.0
28	0x00000000	0.0
29	0x00000000	0.0
30	0x00000000	0.0
31	0x00000000	0.0
32	0x00000000	0.0
33	0x00000000	0.0
34	0x00000000	0.0
35	0x00000000	0.0
36	0x00000000	0.0
37	0x00000000	0.0
38	0x00000000	0.0
39	0x00000000	0.0
40	0x00000000	0.0
41	0x00000000	0.0
42	0x00000000	0.0
43	0x00000000	0.0
44	0x00000000	0.0
45	0x00000000	0.0
46	0x00000000	0.0
47	0x00000000	0.0
48	0x00000000	0.0
49	0x00000000	0.0
50	0x00000000	0.0
51	0x00000000	0.0
52	0x00000000	0.0
53	0x00000000	0.0
54	0x00000000	0.0
55	0x00000000	0.0
56	0x00000000	0.0
57	0x00000000	0.0
58	0x00000000	0.0
59	0x00000000	0.0
60	0x00000000	0.0
61	0x00000000	0.0
62	0x00000000	0.0
63	0x00000000	0.0
64	0x00000000	0.0
65	0x00000000	0.0
66	0x00000000	0.0
67	0x00000000	0.0
68	0x00000000	0.0
69	0x00000000	0.0
70	0x00000000	0.0
71	0x00000000	0.0
72	0x00000000	0.0
73	0x00000000	0.0
74	0x00000000	0.0
75	0x00000000	0.0
76	0x00000000	0.0
77	0x00000000	0.0
78	0x00000000	0.0
79	0x00000000	0.0
80	0x00000000	0.0
81	0x00000000	0.0
82	0x00000000	0.0
83	0x00000000	0.0
84	0x00000000	0.0
85	0x00000000	0.0
86	0x00000000	0.0
87	0x00000000	0.0
88	0x00000000	0.0
89	0x00000000	0.0
90	0x00000000	0.0
91	0x00000000	0.0
92	0x00000000	0.0
93	0x00000000	0.0
94	0x00000000	0.0
95	0x00000000	0.0
96	0x00000000	0.0
97	0x00000000	0.0
98	0x00000000	0.0
99	0x00000000	0.0
100	0x00000000	0.0
101	0x00000000	0.0
102	0x00000000	0.0
103	0x00000000	0.0
104	0x00000000	0.0
105	0x00000000	0.0
106	0x00000000	0.0
107	0x00000000	0.0
108	0x00000000	0.0
109	0x00000000	0.0
110	0x00000000	0.0
111	0x00000000	0.0
112	0x00000000	0.0
113	0x00000000	0.0
114	0x00000000	0.0
115	0x00000000	0.0
116	0x00000000	0.0
117	0x00000000	0.0
118	0x00000000	0.0
119	0x00000000	0.0
120	0x00000000	0.0
121	0x00000000	0.0
122	0x00000000	0.0
123	0x00000000	0.0
124	0x00000000	0.0
125	0x00000000	0.0
126	0x00000000	0.0
127	0x00000000	0.0

network_body._body_endoder.seq_layers.0.weight f4 [128, 266]
0	0xbd9099cf	-0.07060587
1	0x3d8fb3c1	0.07016707
2	0xbcb09ee8	-0.021560147
3	0x3d20d246	0.039263032
4	0xbde08d75	-0.10964481
5	0x3d63998f	0.055566367
6	0xbd86914e	-0.065706834
7	0x3d3ec358	0.046573013
8	0xbc0c0106	-0.008545166
9	0x3d15b4f0	0.03654951
10	0xbce2ffbc	-0.027709834
11	0x3c763543	0.015027347
12	0xbc8c4905	-0.017124662
13	0x3c67c49d	0.014145997
14	0x3d20114b	0.03907899
15	0xbd09857d	-0.03357457
16	0x3d838fe8	0.06423932
17	0x3d388e94	0.045057848
18	0x3d12d1c1	0.03584457
19	0x3c0044e3	0.007828924
20	0x3b6caf4f	0.0036115234
21	0x3db98f3d	0.09060524
22	0xbb97f74f	-0.004637636
23	0x3bca9a1d	0.0061829225
24	0x3b266961	0.00253924
25	0xbe0569d4	-0.13028651
26	0xbcf587e9	-0.029972034
27	0xbb535681	-0.0032247605
28	0x3d5d3cea	0.05401317
29	0x3d8e4186	0.06946091
30	0xbd9a0e1d	-0.07522223
31	0x3cfbbc42	0.030729417
32	0x3d34e323	0.044161927
33	0x3e01a30f	0.12659858
34	0xbc5375cb	-0.012906502
35	0x3e0c9ffd	0.13732906
36	0xbdaedf83	-0.08538725
37	0xbc5fd11d	-0.013660696
38	0xbacd54f4	-0.0015665577
39	0x3d2d76b7	0.042349543
40	0xbd721f9f	-0.059112187
41	0x3dae16d3	0.08500447
42	0x3d5f5144	0.05452086
43	0xbc85700a	-0.016288776
44	0x3c0a2611	0.008431927
45	0x3d3ebd54	0.046567276
46	0x3cd06d5f	0.025442777
47	0x3d45eabb	0.04831956
48	0xbd9c0f5a	-0.076201156
49	0xbc846abc	-0.016164176
50	0xbd66be45	-0.0563338
51	0x3cd12763	0.025531476
52	0xbdaace1d	-0.08340094
53	0x3d0be33c	0.034152254
54	0xbd18f7cb	-0.03734569
55	0xbda81f38	-0.082090795
56	0x3d866f7a	0.06564231
57	0x3de08bf6	0.109641954
58	0xbe25ee41	-0.16204168
59	0x3da10343	0.0786195
60	0xbca43963	-0.020046895
61	0xbd411c25	-0.04714598
62	0xbb73a3f9	-0.0037176593
63	0xbd4450bb	-0.047928553
64	0x3d3a3ccd	0.04546814
65	0x3cb2ba40	0.021817327
66	0xbba79fc8	-0.005115483
67	0xbd8d4069	-0.06897051
68	0xbcd224d9	-0.025652336
69	0x3e18c1f1	0.14917733
70	0xbce62535	-0.028093914
71	0xbc84eef6	-0.016227227
72	0xbbd18265	-0.006393718
73	0xbdab3ed9	-0.083615966
74	0xbdc36a6a	-0.09541781
75	0x3ba382ff	0.004989981
76	0x3d14f6ae	0.036368065
77	0x3d014e86	0.031569026
78	0xbc87e1e3	-0.016587203
79	0xbcf9703a	-0.030449022
80	0xbdec0a62	-0.11525418
81	0x3d665708	0.056235343
82	0x3bd2a644	0.006428512
83	0x3d7f5933	0.062340926
84	0x3cd8c420	0.026460707
85	0xbacbdeef	-0.001555411
86	0x3d679877	0.056541886
87	0xbe332413	-0.1749423
88	0x3e262972	0.16226748
89	0xbc07af5b	-0.008281554
90	0x3d985840	0.07438707
91	0x3dc6f1bd	0.09714077
92	0x3c996a2a	0.01872738
93	0x3d45b24b	0.048265737
94	0x3b177ae0	0.002311401
95	0x3cd31f05	0.025771627
96	0x3cda77ae	0.026668396
97	0xbc457c6d	-0.012053591
98	0x3caa01c0	0.020752788
99	0xbd01a158	-0.03164801
100	0x3dbcb7ee	0.09214769
101	0x3cbfdc6c	0.023420535
102	0xbcd1b53d	-0.025599116
103	0x3d17a970	0.037026823
104	0xbdbd9eef	-0.0925883
105	0xbd8495de	-0.064738974
106	0x3d34fc87	0.04418614
107	0xbc407a03	-0.01174784
108	0x3c74a87d	0.014932749
109	0x3d93339b	0.07187577
110	0xbc12a377	-0.008950106
111	0x3d84c84a	0.064835146
112	0x3e2ad3da	0.16682377
113	0xbd2bbc4d	-0.041927624
114	0xbc16da45	-0.009207313
115	0x3b83f9da	0.0040275874
116	0xbd053d28	-0.032529026
117	0xbd9ea7ac	-0.077468246
118	0x3cfad893	0.030620849
119	0xbd8ded33	-0.06930008
120	0x3da99d21	0.08281923
121	0x3ba7f1a0	0.0051252395
122	0xbdf43d54	-0.1192576
123	0xbd702abb	-0.0586345
124	0xbc8f128d	-0.0174649
125	0xbdaf8ec2	-0.08572151
126	0x3d891298	0.066929996
127	0x3d1bf2a7	0.03807321
128	0x3d311c46	0.043239854
129	0x3ba7e72c	0.0051239934
130	0x3d5b3301	0.053515438
131	0x3d9af9f0	0.07567203
132	0x3bec0d5b	0.0072037405
133	0xbd58d80c	-0.052940413
134	0xbd8a6bf5	-0.067588724
135	0x3cce5bca	0.025190253
136	0xbcb0ed1a	-0.021597434
137	0xbd6613ae	-0.05617111
138	0x3ce493bd	0.027902478
139	0x3de849c0	0.11342192
140	0xbdeba803	-0.11506655
141	0x3ccc44de	0.024935182
142	0x3d55f064	0.052231207
143	0xbdc69338	-0.096960485
144	0x3d55c63b	0.052191
145	0xbd44af60	-0.048018813
146	0x3d924a85	0.0714312
147	0xbc7fbbd7	-0.015608749
148	0xbdc84c63	-0.097801946
149	0xbde90fc2	-0.11379959
150	0x3d9c0725	0.0761855
151	0xbd91a090	-0.07110703
152	0x3d9b65fb	0.075878106
153	0xbc9f2d3a	-0.019430745
154	0xbd8cf1cf	-0.06882059
155	0x3c731903	0.014837506
156	0x3d43dfcd	0.047820855
157	0xbdaf4f8e	-0.08560096
158	0xbda4b32b	-0.08041986
159	0xbda14604	-0.078746825
160	0x3d037f65	0.032103915
161	0xbd37e4e9	-0.04489604
162	0x3d854a59	0.06508321
163	0x3dae5cec	0.08513817
164	0xbc2997de	-0.010351149
165	0x3d105ee4	0.035246745
166	0x3b033307	0.0020019428
167	0x3b3e3cc4	0.0029027918
168	0xbd057278	-0.03257987
169	0xbc81090b	-0.015751382
170	0xbb1bb1a9	-0.0023757017
171	0x3cee512b	0.029091438
172	0x3d5025e2	0.050817378
173	0x3c9f49ed	0.01944443
174	0xbdc45490	-0.095864415
175	0xbd9d2269	-0.07672579
176	0x3d04f980	0.032464504
177	0x3c589a8b	0.01322044
178	0x3db1b04a	0.086762026
179	0x3cf35cfd	0.029707426
180	0xbc5be530	-0.013421342
181	0x3d258b5e	0.040416114
182	0x3c280ee4	0.010257456
183	0x3d7abbe8	0.061214358
184	0xbd07bff2	-0.033142038
185	0x3dfbc35a	0.1229312
186	0x3cb01a03	0.021496778
187	0xbdc1a219	-0.09454746
188	0x3d4005a3	0.046880376
189	0xbd4d5a48	-0.050134927
190	0x3d4e6716	0.05039128
191	0x3c49a1e7	0.012306667
192	0xbd022ac7	-0.031779077
193	0xbdbc9411	-0.09207929
194	0xbcdd0665	-0.026980588
195	0xbd0aa681	-0.033850197
196	0xbd04ecdd	-0.032452453
197	0x3dbc1f53	0.09185662
198	0x3dc92dc2	0.09823181
199	0xbc2502ef	-0.0100715
200	0x3cd334c2	0.025781993
201	0x3d525c39	0.05135748
202	0xbd9d7ca9	-0.07689793
203	0xbd505591	-0.050862852
204	0xbd0159d3	-0.031579804
205	0x3de8f061	0.11373974
206	0x3c1bd7fa	0.009511942
207	0xbd064919	-0.032784555
208	0xbdf30160	-0.11865497
209	0xbdde0bd3	-0.10842099
210	0xbc7f9103	-0.015598538
211	0x3d24c63b	0.04022811
212	0xbd892b34	-0.066976935
213	0x3c78fb9b	0.015196706
214	0x3bf7fcbf	0.0075679715
215	0x3d651dc1	0.05593658
216	0x3da39dce	0.07989083
217	0x3d440571	0.04785675
218	0x3d158ab6	0.03650924
219	0xbd5ea586	-0.054357074
220	0xbc0c6ce6	-0.008570885
221	0xbd9836fc	-0.074323624
222	0xbd4401b8	-0.0478532
223	0xbb44890c	-0.0029988913
224	0xbbe5200e	-0.0069923466
225	0x3afaffda	0.0019149736
226	0xbd27a47e	-0.040928356
227	0x3d97378a	0.0738364
228	0x3d3070e6	0.04307642
229	0xbd680475	-0.056644876
230	0x3d4158ed	0.047203947
231	0x3d167729	0.036734734
232	0x3d96a67c	0.07355973
233	0xbc923789	-0.017848747
234	0x3db2d084	0.087311774
235	0xbd6b274c	-0.057410523
236	0x3dd8f184	0.105929404
237	0xbd24cc54	-0.040233925
238	0xbd82d734	-0.06388703
239	0x3cdc1dd3	0.02686969
240	0x3cce4248	0.02517809
241	0x3dc78507	0.0974217
242	0xbd087c0e	-0.033321433
243	0xbe09b203	-0.13446812
244	0xbd0081e5	-0.031373877
245	0xbd8f40db	-0.06994792
246	0x3dbc74e6	0.09201984
247	0x3b869cfd	0.00410807
248	0x3d6667b2	0.056251235
249	0x3d6fd920	0.058556676
250	0xbd8a03fa	-0.0673904
251	0xbd78bae9	-0.060725126
252	0x3b87b513	0.004141459
253	0xbb352702	-0.0027641659
254	0xbd7afeef	-0.06127828
255	0xbdfda338	-0.12384647

network_body._body_endoder.seq_layers.0.bias f4 [128]
0	0x00000000	0.0
1	0x00000000	0.0
2	0x00000000	0.0
3	0x00000000	0.0
4	0x00000000	0.0
5	0x00000000	0.0
6	0x00000000	0.0
7	0x00000000	0.0
8	0x00000000	0.0
9	0x00000000	0.0
10	0x00000000	0.0
11	0x00000000	0.0
12	0x00000000	0.0
13	0x00000000	0.0
14	0x00000000	0.0
15	0x00000000	0.0
16	0x00000000	0.0
17	0x00000000	0.0
18	0x00000000	0.0
19	0x00000000	0.0
20	0x00000000	0.0
21	0x00000000	0.0
22	0x00000000	0.0
23	0x00000000	0.0
24	0x00000000	0.0
25	0x00000000	0.0
26	0x00000000	0.0
27	0x00000000	0.0
28	0x00000000	0.0
29	0x00000000	0.0
30	0x00000000	0.0
31	0x00000000	0.0
32	0x00000000	0.0
33	0x00000000	0.0
34	0x00000000	0.0
35	0x00000000	0.0
36	0x00000000	0.0
37	0x00000000	0.0
38	0x00000000	0.0
39	0x00000000	0.0
40	0x00000000	0.0
41	0x00000000	0.0
42	0x00000000	0.0
43	0x00000000	0.0
44	0x00000000	0.0
45	0x00000000	0.0
46	0x00000000	0.0
47	0x00000000	0.0
48	0x00000000	0.0
49	0x00000000	0.0
50	0x00000000	0.0
51	0x00000000	0.0
52	0x00000000	0.0
53	0x00000000	0.0
54	0x00000000	0.0
55	0x00000000	0.0
56	0x00000000	0.0
57	0x00000000	0.0
58	0x00000000	0.0
59	0x00000000	0.0
60	0x00000000	0.0
61	0x00000000	0.0
62	0x00000000	0.0
63	0x00000000	0.0
64	0x00000000	0.0
65	0x00000000	0.0
66	0x00000000	0.0
67	0x00000000	0.0
68	0x00000000	0.0
69	0x00000000	0.0
70	0x00000000	0.0
71	0x00000000	0.0
72	0x00000000	0.0
73	0x00000000	0.0
74	0x00000000	0.0
75	0x00000000	0.0
76	0x00000000	0.0
77	0x00000000	0.0
78	0x00000000	0.0
79	0x00000000	0.0
80	0x00000000	0.0
81	0x00000000	0.0
82	0x00000000	0.0
83	0x00000000	0.0
84	0x00000000	0.0
85	0x00000000	0.0
86	0x00000000	0.0
87	0x00000000	0.0
88	0x00000000	0.0
89	0x00000000	0.0
90	0x00000000	0.0
91	0x00000000	0.0
92	0x00000000	0.0
93	0x00000000	0.0
94	0x00000000	0.0
95	0x00000000	0.0
96	0x00000000	0.0
97	0x00000000	0.0
98	0x00000000	0.0
99	0x00000000	0.0
100	0x00000000	0.0
101	0x00000000	0.0
102	0x00000000	0.0
103	0x00000000	0.0
104	0x00000000	0.0
105	0x00000000	0.0
106	0x00000000	0.0
107	0x00000000	0.0
108	0x00000000	0.0
109	0x00000000	0.0
110	0x00000000	0.0
111	0x00000000	0.0
112	0x00000000	0.0
113	0x00000000	0.0
114	0x00000000	0.0
115	0x00000000	0.0
116	0x00000000	0.0
117	0x00000000	0.0
118	0x00000000	0.0
119	0x00000000	0.0
120	0x00000000	0.0
121	0x00000000	0.0
122	0x00000000	0.0
123	0x00000000	0.0
124	0x00000000	0.0
125	0x00000000	0.0
126	0x00000000	0.0
127	0x00000000	0.0

network_body._body_endoder.seq_layers.2.weight f4 [128, 128]
0	0xbbe01742	-0.00683871
1	0xbd8a5b74	-0.067557245
2	0xbd1c42af	-0.038149532
3	0x3dbb04eb	0.091317974
4	0x3dbc41c6	0.09192233
5	0x3d2d4c6f	0.04230922
6	0x3cf35692	0.029704366
7	0xbe057f98	-0.13036954
8	0xbd1eedfd	-0.038801182
9	0xbded3490	-0.11582291
10	0x3bdeed10	0.0068031624
11	0x3db0f7f2	0.08641042
12	0x3d438b86	0.04774048
13	0xbd5c0dab	-0.053723972
14	0xbe54e800	-0.20791626
15	0x3d0513ea	0.032489695
16	0xbc4c35ee	-0.01246403
17	0xbdb47901	-0.08812142
18	0x3ca84a90	0.020543367
19	0xbdaaae6c	-0.083340496
20	0x3d714b36	0.058909617
21	0xbcc5ae7e	-0.024131056
22	0x3d971b2a	0.07378228
23	0xbe150021	-0.1455083
24	0x3deea958	0.116533935
25	0xbdcbda71	-0.09953774
26	0x3ded5ff6	0.11590569
27	0xbd99e87e	-0.075150475
28	0xbdad9a0d	-0.084766485
29	0xbdb605e9	-0.08887846
30	0xbe2c37b1	-0.1681812
31	0x3cc5f3a3	0.024164027
32	0xbd267009	-0.04063419
33	0xbd07b643	-0.033132803
34	0xbd639832	-0.055565067
35	0xbc5da8ec	-0.013529044
36	0x3c1bb922	0.009504588
37	0x3c85b0c8	0.016319647
38	0x3e003a98	0.12522352
39	0xbe216dfe	-0.15764615
40	0x3d6a2ab0	0.057169616
41	0xbd3619f1	-0.044458333
42	0xbcadeaae	-0.021230068
43	0xbc266956	-0.01015695
44	0x3d919751	0.071089394
45	0x3d80d857	0.062912636
46	0xbde8d1f4	-0.113681704
47	0x3e75b48d	0.23994656
48	0x3e0813a1	0.13288738
49	0x3da9a63c	0.0828366
50	0xbd1b1c10	-0.03786856
51	0xbce8f748	-0.028438225
52	0xbc1f393e	-0.009718237
53	0x3bc27516	0.005934368
54	0xbb5632f1	-0.0032684172
55	0xbd7d34f5	-0.061818082
56	0x3d9e34dc	0.07724926
57	0x3e3cbd05	0.1843148
58	0x3e8d54f0	0.27603865
59	0x3dffc867	0.124893956
60	0xbdb63eb3	-0.08898678
61	0x3c26404e	0.010147167
62	0xbe068a43	-0.1313868
63	0xbc725d2c	-0.014792722
64	0xbdd2ca09	-0.102924414
65	0xbd87f6a7	-0.06638842
66	0x3c43e76a	0.011957029
67	0x3d901f14	0.07037178
68	0xbdc69ef3	-0.09698286
69	0x3d14fbd5	0.03637298
70	0xbb23d28e	-0.0024997327
71	0x3d76d934	0.060265735
72	0x3e0838be	0.13302895
73	0xbe3fcb94	-0.18730003
74	0xbcd003ab	-0.025392374
75	0xbd703964	-0.058648482
76	0xbe3cd365	-0.18440016
77	0xbd03543c	-0.032062754
78	0xbd7de841	-0.061989073
79	0x3b3df631	0.0028985853
80	0x3d899173	0.06717195
81	0x3dd70f02	0.105009094
82	0xbc90298f	-0.017597942
83	0x3ae824af	0.0017711128
84	0xbda7fdc1	-0.082026966
85	0x3e59e220	0.21277666
86	0xbdabf61f	-0.08396553
87	0x3db84146	0.08996825
88	0xbd62bb28	-0.055354267
89	0x3d55dc10	0.05221182
90	0x3cc05fe9	0.023483234
91	0xbd0ca460	-0.034336448
92	0xbae16ceb	-0.0017198598
93	0xbdd66bb6	-0.10469763
94	0xbcbbb8fb	-0.022915354
95	0x395f57d3	0.00021299654
96	0x3e3c9972	0.1841791
97	0x3d87c19c	0.06628725
98	0x3e5f4965	0.21805342
99	0x3d80ee16	0.06295411
100	0x3d024ec9	0.031813417
101	0xba69fed8	-0.00089262193
102	0x3de5c4a0	0.11219144
103	0x3e465911	0.19369914
104	0x3d2e409d	0.04254209
105	0x3cee25df	0.029070793
106	0x3d96219a	0.07330628
107	0x3d53aef5	0.051680524
108	0xbe03627a	-0.12830535
109	0x3e18ac78	0.14909542
110	0xbda9aa4f	-0.08284437
111	0xbda197c7	-0.07890277
112	0x3cd165a5	0.025561163
113	0x3e4ac71c	0.19802517
114	0xbbf86e71	-0.007581525
115	0x3da4faff	0.08055686
116	0xbd28573f	-0.04109883
117	0xbd839a8b	-0.06425961
118	0x3d578463	0.05261649
119	0xbe3b7a97	-0.18308483
120	0x3da9c950	0.082903504
121	0x3be3e104	0.006954314
122	0xbd0b6dac	-0.034040138
123	0x3cda2737	0.026630027
124	0x3c0c322c	0.008556884
125	0x3de32e84	0.110928565
126	0xbdb90ef4	-0.09036055
127	0x3d9157c9	0.07096822
128	0x3cb857ae	0.022502746
129	0xbd08fb61	-0.03344286
130	0x3cda176f	0.026622502
131	0xbda37ed8	-0.07983178
132	0x3c05917b	0.008152361
133	0xbe012b2c	-0.12614125
134	0x3a36a9c1	0.00069680443
135	0x3d3b117b	0.045670968
136	0xbde7fc38	-0.11327404
137	0xbdfae0d1	-0.122499116
138	0xbd44fbb8	-0.04809162
139	0x3bb01fa1	0.005374864
140	0xbe03a69a	-0.12856522
141	0xbe0cc027	-0.13745175
142	0x3e38ebe3	0.18058734
143	0xbde304cc	-0.11084899
144	0x3d7faa2e	0.062418155
145	0xbdc517c4	-0.096236736
146	0xbccbdfe2	-0.02488703
147	0x3d9cc6bf	0.07655095
148	0xbd9f4e3f	-0.07778596
149	0xbcfce59e	-0.030871209
150	0xbd91d04a	-0.07119806
151	0xbd41d31a	-0.047320463
152	0x3db078e5	0.08616809
153	0x3d964645	0.073376216
154	0x3e07b410	0.13252282
155	0x3d926f10	0.0715009
156	0x3d9b65ba	0.07587762
157	0xbd6e3b76	-0.058162175
158	0xbdeb13a3	-0.11478355
159	0x3d5960d1	0.053070847
160	0xbe1cbb2e	-0.15305778
161	0xbdd872aa	-0.105687454
162	0xbdced8d3	-0.1009995
163	0x3d482e59	0.048872326
164	0x3d9f526c	0.077793926
165	0x3d36a457	0.04459032
166	0xbcb58157	-0.0221564
167	0x3d46fad5	0.048579056
168	0x3c6b44cb	0.014359663
169	0xbc39cec8	-0.011340804
170	0x3e04784c	0.12936515
171	0x3dcbd820	0.09953332
172	0xbcf80fb2	-0.030280922
173	0x3e59d784	0.21273619
174	0xbd807c9e	-0.06273769
175	0x3d825d68	0.06365472
176	0xbdbe4931	-0.09291304
177	0x3d8d3548	0.06894928
178	0xbd35d5fe	-0.044393532
179	0xbd6a4016	-0.057190023
180	0x3db1cfd4	0.08682218
181	0x3e1413af	0.14460634
182	0xbc995abc	-0.018720023
183	0x3cd5905a	0.026069809
184	0xbdbb1429	-0.091347046
185	0xbbcd4a73	-0.0062649786
186	0x3da4774c	0.080305666
187	0xbd85df8c	-0.06536779
188	0x3d57869d	0.05261861
189	0x3cc6595f	0.024212537
190	0xbdc59fce	-0.09649621
191	0xbd899d4d	-0.06719456
192	0x3d243839	0.04009268
193	0x3e2c8982	0.1684933
194	0xbdaa858f	-0.083262555
195	0x3cbf1345	0.023324618
196	0xbd1d4b3a	-0.03840182
197	0x3b5f38a8	0.003406087
198	0xbdd4db82	-0.1039343
199	0xbdafc624	-0.08582714
200	0xbaa02154	-0.0012216964
201	0x3da355ad	0.07975326
202	0x3c1027a5	0.0087985145
203	0x3e248acd	0.16068573
204	0xbc8a7e0c	-0.016905807
205	0x3cd848b1	0.02640185
206	0x3d252f14	0.0403281
207	0x3e224952	0.15848282
208	0xbae62ad1	-0.0017560368
209	0x3ca19599	0.019724654
210	0x3e022d1d	0.12712522
211	0xbbc8cff6	-0.0061283065
212	0xbd9066c5	-0.07050852
213	0x3e4530ca	0.19256893
214	0x3d8b6d77	0.06807988
215	0x3dfa41b2	0.12219562
216	0xbe1e565b	-0.1546263
217	0xbd000960	-0.03125894
218	0xbd509223	-0.050920617
219	0xbc9edf39	-0.01939355
220	0x3c992aea	0.01869722
221	0x3dcd383e	0.10020493
222	0xbd6f3eb9	-0.058409426
223	0xbcf38847	-0.029728068
224	0x3c6046df	0.013688772
225	0xbe2abb8f	-0.1667311
226	0xbb98dd81	-0.004665077
227	0x3ba61977	0.0050689536
228	0x3d9321b9	0.071841665
229	0xbd167284	-0.036730304
230	0x3de8fa06	0.11375813
231	0x3d9241f9	0.071414895
232	0x3ccdac6e	0.025106635
233	0x3d07be4d	0.03314047
234	0x3c8854cc	0.016641997
235	0x3dbef2b0	0.09323633
236	0xbdb8063e	-0.089855656
237	0x3ce49988	0.02790524
238	0x3abaa1c6	0.0014238886
239	0xbd7c5a93	-0.061609816
240	0x3d37a19a	0.04483185
241	0xbd1d11a7	-0.038346913
242	0x3dad8938	0.08473438
243	0x3cc12119	0.023575353
244	0x3dbcd29d	0.09219859
245	0xbc5c93ff	-0.013463019
246	0xbc6d2d46	-0.014476126
247	0x3d9cd2a1	0.07657362
248	0xbc1fc48e	-0.009751452
249	0xbbf2c877	-0.007409151
250	0xbe344e4e	-0.17607996
251	0x3cac5fb1	0.021041723
252	0x3d6496f8	0.055808038
253	0xbd4ba123	-0.04971422
254	0xbd187bd5	-0.03722747
255	0x3de0a70a	0.1096936

network_body._body_endoder.seq_layers.2.bias f4 [128]
0	0x00000000	0.0
1	0x00000000	0.0
2	0x00000000	0.0
3	0x00000000	0.0
4	0x00000000	0.0
5	0x00000000	0.0
6	0x00000000	0.0
7	0x00000000	0.0
8	0x00000000	0.0
9	0x00000000	0.0
10	0x00000000	0.0
11	0x00000000	0.0
12	0x00000000	0.0
13	0x00000000	0.0
14	0x00000000	0.0
15	0x00000000	0.0
16	0x00000000	0.0
17	0x00000000	0.0
18	0x00000000	0.0
19	0x00000000	0.0
20	0x00000000	0.0
21	0x00000000	0.0
22	0x00000000	0.0
23	0x00000000	0.0
24	0x00000000	0.0
25	0x00000000	0.0
26	0x00000000	0.0
27	0x00000000	0.0
28	0x00000000	0.0
29	0x00000000	0.0
30	0x00000000	0.0
31	0x00000000	0.0
32	0x00000000	0.0
33	0x00000000	0.0
34	0x00000000	0.0
35	0x00000000	0.0
36	0x00000000	0.0
37	0x00000000	0.0
38	0x00000000	0.0
39	0x00000000	0.0
40	0x00000000	0.0
41	0x00000000	0.0
42	0x00000000	0.0
43	0x00000000	0.0
44	0x00000000	0.0
45	0x00000000	0.0
46	0x00000000	0.0
47	0x00000000	0.0
48	0x00000000	0.0
49	0x00000000	0.0
50	0x00000000	0.0
51	0x00000000	0.0
52	0x00000000	0.0
53	0x00000000	0.0
54	0x00000000	0.0
55	0x00000000	0.0
56	0x00000000	0.0
57	0x00000000	0.0
58	0x00000000	0.0
59	0x00000000	0.0
60	0x00000000	0.0
61	0x00000000	0.0
62	0x00000000	0.0
63	0x00000000	0.0
64	0x00000000	0.0
65	0x00000000	0.0
66	0x00000000	0.0
67	0x00000000	0.0
68	0x00000000	0.0
69	0x00000000	0.0
70	0x00000000	0.0
71	0x00000000	0.0
72	0x00000000	0.0
73	0x00000000	0.0
74	0x00000000	0.0
75	0x00000000	0.0
76	0x00000000	0.0
77	0x00000000	0.0
78	0x00000000	0.0
79	0x00000000	0.0
80	0x00000000	0.0
81	0x00000000	0.0
82	0x00000000	0.0
83	0x00000000	0.0
84	0x00000000	0.0
85	0x00000000	0.0
86	0x00000000	0.0
87	0x00000000	0.0
88	0x00000000	0.0
89	0x00000000	0.0
90	0x00000000	0.0
91	0x00000000	0.0
92	0x00000000	0.0
93	0x00000000	0.0
94	0x00000000	0.0
95	0x00000000	0.0
96	0x00000000	0.0
97	0x00000000	0.0
98	0x00000000	0.0
99	0x00000000	0.0
100	0x00000000	0.0
101	0x00000000	0.0
102	0x00000000	0.0
103	0x00000000	0.0
104	0x00000000	0.0
105	0x00000000	0.0
106	0x00000000	0.0
107	0x00000000	0.0
108	0x00000000	0.0
109	0x00000000	0.0
110	0x00000000	0.0
111	0x00000000	0.0
112	0x00000000	0.0
113	0x00000000	0.0
114	0x00000000	0.0
115	0x00000000	0.0
116	0x00000000	0.0
117	0x00000000	0.0
118	0x00000000	0.0
119	0x00000000	0.0
120	0x00000000	0.0
121	0x00000000	0.0
122	0x00000000	0.0
123	0x00000000	0.0
124	0x00000000	0.0
125	0x00000000	0.0
126	0x00000000	0.0
127	0x00000000	0.0

action_model._continuous_distribution.log_sigma f4 [1, 2]
0	0x00000000	0.0
1	0x00000000	0.0

action_model._continuous_distribution.mu.weight f4 [2, 128]
0	0xbb274117	-0.0025520974
1	0xbcb61eec	-0.022231542
2	0xbc95dc7c	-0.018293612
3	0xbb199107	-0.002343239
4	0xbc2cd74b	-0.010549377
5	0x3c08147b	0.008305664
6	0x3ba64e96	0.005075286
7	0x3c2486ba	0.010041887
8	0xbc9e886d	-0.019352162
9	0x3ba19747	0.0049313637
10	0x3bdfeeb3	0.006833875
11	0x3d0cbef3	0.03436179
12	0xbbab4150	-0.0052262917
13	0x3c4e4c25	0.012591396
14	0x3c6ec61a	0.014573598
15	0x3c622e0a	0.013804922
16	0x3c985dbb	0.018599382
17	0x3d209a0a	0.039209403
18	0xbd0fd7c1	-0.03511787
19	0x3cb0b527	0.021570755
20	0xbb18bc6b	-0.0023305665
21	0x3c4acf65	0.012378548
22	0xbb5568e3	-0.0032563738
23	0x3cb2e2b3	0.021836614
24	0x3d06e710	0.032935202
25	0xbcf4eb5d	-0.029897386
26	0x3b6fbc9d	0.0036580928
27	0x3cd36f8a	0.025810022
28	0x3ca7fcd2	0.020506296
29	0x3cb58466	0.022157859
30	0xbc22db27	-0.009939945
31	0x3af1b8e5	0.0018441944
32	0xba860aef	-0.0010226647
33	0x3b2942af	0.00258271
34	0x3b5fa6c3	0.0034126497
35	0xbcbcdc93	-0.023054397
36	0x3c937665	0.01800079
37	0xbc6f2845	-0.014597003
38	0xbc0648b5	-0.008196046
39	0xbb30cc4d	-0.0026977242
40	0x3a039067	0.0005018771
41	0xbb23fcff	-0.0025022624
42	0xbcbb6a79	-0.022877919
43	0x3b751f0f	0.0037402546
44	0xbca02cce	-0.019552615
45	0x3c888ef7	0.016669733
46	0xbc9b693b	-0.018971076
47	0x3b681eea	0.0035418817
48	0xb9a7ab20	-0.0003198022
49	0xbd128697	-0.035772886
50	0x3ccc12c1	0.024911286
51	0x3c373632	0.011182355
52	0xbb1523dc	-0.002275697
53	0xbc18014b	-0.009277652
54	0x3c97d84f	0.018535761
55	0x3cc74972	0.024327014
56	0xbb9ac09d	-0.0047226683
57	0x3c4eddcd	0.012626124
58	0xbc5b566f	-0.013387307
59	0x3c85ffcc	0.016357325
60	0x3c520e0d	0.012820733
61	0x3ba15970	0.004923992
62	0x3c4f083b	0.01263624
63	0x3cda2f40	0.026633859
64	0xbb4e87ef	-0.0031514128
65	0x3bf82a0d	0.007573372
66	0x3c9532f9	0.018212782
67	0x3ba1b91b	0.0049353964
68	0x3b84d4db	0.0040536947
69	0x3cb91195	0.022591392
70	0x3c4e1d97	0.012580297
71	0xbc85a0bd	-0.016311998
72	0xbc06ae98	-0.008220337
73	0xb8ec86b5	-0.00011278448
74	0x3c87cb73	0.016576504
75	0x3c88e7c7	0.016712083
76	0xbcbcafd4	-0.02303306
77	0xbc293124	-0.010326657
78	0xbc4550f3	-0.012043226
79	0xbc8fc4cc	-0.017549895
80	0x3a650822	0.00087368686
81	0x3bfdbbcf	0.007743336
82	0xbcc5c84c	-0.02414336
83	0xbc9426ce	-0.01808491
84	0xbc2a94b8	-0.010411434
85	0xbc1024db	-0.0087978495
86	0xbbbe75eb	-0.0058123968
87	0x38a3f2eb	7.817693e-05
88	0xba2a7bf5	-0.00065034564
89	0xbbb52545	-0.0055281245
90	0x3bccb2f9	0.006246921
91	0xbb1ecbe7	-0.0024230422
92	0x3c207a08	0.0097947195
93	0x3ce58fb0	0.028022617
94	0x3b7deb90	0.0038745143
95	0x3b94c121	0.0045396243
96	0x3c5b2dfb	0.013377662
97	0x3cd2c29a	0.025727559
98	0xbcc48d77	-0.023993237
99	0x3bf501eb	0.0074770353
100	0x3c88f47f	0.016718147
101	0xbd07892a	-0.033089794
102	0x3cd7b73d	0.026332492
103	0xbcc310ee	-0.023811784
104	0x3c7d732d	0.015469355
105	0xbc0360c8	-0.00801868
106	0xbcc09c57	-0.023512049
107	0x3c821393	0.015878474
108	0x3d180363	0.037112605
109	0xbc12bb6d	-0.008955819
110	0xbb8741e2	-0.004127727
111	0xbcaeae38	-0.021323308
112	0x3cfd3b50	0.030912071
113	0x3c249a3f	0.010046541
114	0xba326066	-0.00068045256
115	0xbcd36c08	-0.02580835
116	0x3b81f3a3	0.0039658113
117	0x3a9b015f	0.001182597
118	0xb9a38fa1	-0.00031196795
119	0xbb2e6ee9	-0.00266164
120	0xbc369b39	-0.011145406
121	0xbcb9bce2	-0.022673074
122	0x3a06d6fa	0.00051437283
123	0x3be570fa	0.0070019932
124	0x3c7441a7	0.014908231
125	0xbbf65273	-0.007517153
126	0x3c0d59be	0.008627353
127	0xbbc464e4	-0.0059934724
128	0x3d1d9ccb	0.038479608
129	0xbca79ce6	-0.020460557
130	0x3ce7d3dd	0.028299266
131	0x3a75e772	0.00093804963
132	0x3c4a80a4	0.012359772
133	0x3bf79ee7	0.0075567844
134	0x3c281877	0.010259739
135	0x3d1377e3	0.036003005
136	0xbc566afd	-0.013087031
137	0x3d091fc3	0.033477556
138	0x3c8c2ad1	0.01711026
139	0xbc5593ca	-0.013035724
140	0x3cc69a87	0.024243606
141	0x3c4f907b	0.012668724
142	0xbc26433b	-0.010147865
143	0x3b99e5d5	0.0046965876
144	0xbcd1b835	-0.025600532
145	0xbbf6b717	-0.00752915
146	0xbb27990c	-0.00255734
147	0x3add7498	0.001689571
148	0xbbffb745	-0.00780383
149	0xbc327275	-0.0108915465
150	0xbd0ba355	-0.034091312
151	0xba799615	-0.000952096
152	0xbca27783	-0.019832378
153	0x3d0e2187	0.034699943
154	0x3b24da0d	0.0025154382
155	0xbbec809a	-0.007217479
156	0x3d1d58d9	0.03841481
157	0x3aaaa3db	0.0013018803
158	0xbc0d6c24	-0.00863174
159	0x3cb0e723	0.02159459
160	0x3bb440ff	0.005500912
161	0x3c5bf993	0.013426202
162	0x3b131457	0.0022442543
163	0xbc42c641	-0.011888088
164	0x3d5d2857	0.05399355
165	0x3c9efd48	0.019407883
166	0xbcedb13f	-0.029015182
167	0xbc81b80f	-0.015834836
168	0xbaf23843	-0.0018479902
169	0xbb1389dc	-0.002251259
170	0x3b53dd0d	0.0032327801
171	0x3c9e515a	0.0193259
172	0xbc8f883b	-0.017521014
173	0x3c5cb172	0.013470041
174	0xbd03787d	-0.03209733
175	0xbc0ffbd3	-0.008788067
176	0x38aab249	8.13944e-05
177	0x3c8ca3fa	0.017168034
178	0xb95856da	-0.0002063172
179	0x3c8299b2	0.015942428
180	0xbca00f0e	-0.019538429
181	0xbb863893	-0.0040960996
182	0xbcb189f9	-0.021672236
183	0x3c1c5c5a	0.009543503
184	0x3add4f57	0.0016884607
185	0xbcb42657	-0.021990938
186	0xbc8f306a	-0.01747914
187	0x3d66a6c0	0.05631137
188	0xbc9a7edc	-0.01885932
189	0x3b79ecad	0.0038135455
190	0x3cc1a32b	0.023637375
191	0xbc8162d3	-0.015794193
192	0x3b445fa2	0.0029964228
193	0x3b6016cf	0.0034193282
194	0x3c46410c	0.012100469
195	0x3c81a548	0.015825883
196	0xbc1ca422	-0.009560617
197	0xbcff5e95	-0.03117303
198	0xbcf9d532	-0.030497167
199	0xbcef8088	-0.029236093
200	0x3c281c5b	0.010260667
201	0xbce3d463	-0.027811235
202	0x3c478c67	0.012179471
203	0x3c131070	0.008976087
204	0x3c35d8d3	0.011099058
205	0xbc16dd2f	-0.009208008
206	0xba73cbeb	-0.00093001005
207	0xbb03ad5f	-0.002009235
208	0xbcdacc40	-0.026708722
209	0x3cd77835	0.026302436
210	0x3d253e27	0.040342476
211	0xbc7e535f	-0.015522807
212	0xbc391c3b	-0.011298235
213	0xbb7c00e3	-0.0038452677
214	0x3d1d2148	0.038361818
215	0x3c29a0b2	0.010353254
216	0xbbe84b8a	-0.007089083
217	0x3bde1e50	0.006778516
218	0xbb46db57	-0.003034314
219	0x3cd9862d	0.026553238
220	0x3ce291cd	0.027657414
221	0x3b1888d8	0.0023274925
222	0x3ba04518	0.004891049
223	0xbbf10000	-0.0073547363
224	0x3c83cc50	0.016088635
225	0x3cc4da43	0.024029857
226	0x3d10ec6b	0.035381716
227	0xbc66b4ab	-0.014081161
228	0x3be879f5	0.0070946165
229	0x3c428be7	0.011874176
230	0x3c0a5371	0.008442746
231	0x3b68a76d	0.0035500184
232	0xbcd810e2	-0.026375238
233	0x3c9e465e	0.019320663
234	0x3c8786ff	0.016543863
235	0xbcaf5049	-0.021400588
236	0x3c7aa220	0.015297443
237	0x3b4c3dac	0.003116469
238	0x3c08f92b	0.0083601875
239	0x3c5f204d	0.013618541
240	0x3b7d9068	0.003869081
241	0x3c3214d2	0.010869222
242	0x3b893e55	0.0041883388
243	0xbc4195db	-0.0118155135
244	0xb7551bab	-1.2702231e-05
245	0x3a8c24f3	0.0010692164
246	0xb9a66dd7	-0.00031743824
247	0x3cc982db	0.02459853
248	0x3cbd4f33	0.023109054
249	0xbc29079c	-0.010316756
250	0x3cfcf808	0.03087999
251	0x3c1fd5ab	0.009755532
252	0x3b5fed30	0.0034168474
253	0xbc1830b7	-0.009288958
254	0xbc9fa15e	-0.019486126
255	0x3d1523cf	0.036411103

action_model._continuous_distribution.mu.bias f4 [2]
0	0x00000000	0.0
1	0x00000000	0.0
