results/ZaraImitation2/ZARAimitation/ZARAimitation-3499946.onnx (onnx, 310409 bytes, 13 tensors)

network_body.observation_encoder.processors.0.conv_layers.0.weight f4 [16, 4, 8, 8]
00000000: 1af1 ca3c 7949 943d fda5 f9ba a18c cf3c
00000010: 921b 18bd 391c 78bc d5e4 263d 7944 073c
00000020: f30d f23d 7851 213d 0010 273c c760 d3bc
00000030: ae25 8f3c b1db 0c3d b3a9 d53c cbbe 873d
00000040: 2537 af3d fefe 533d 2b46 98bc 61cd 963d
00000050: dbdd 993d 6b87 d3bc 4ae2 a1bc 39f2 71bd
00000060: 0509 fcbb 139e 6abc 67fb a03c c0d5 d3bc
00000070: 136d 86bc 12c4 22bd d0f8 4dbc 5d6f 973d
00000080: 9383 b8bd 34a6 03be 2925 8dbd 9665 9d3c
00000090: 6598 6fbd 2957 743d 4a89 78bd c885 37bd
000000a0: 25d8 423d 0ae8 4c3a c1ae 493c 4e5a 59bd
000000b0: 48d9 3bbd b083 66bd 6e60 72bb 4aa9 e43d
000000c0: 3445 db3b daaa 1a3d 6fa6 8b3d da8d b03c
000000d0: 5bd8 21bd 32f5 45bd 06b5 3bbd 2404 60bd
000000e0: 22b9 4e3d 7325 313d 9a48 7f3d 3b73 4ebc
000000f0: 64b3 7c3c db16 42bd f71b 81bc 7d11 02bc
00000100: 5d3c 293d 9a3a 763d 0c8b 18bd 5d53 c93c
00000110: 4ff5 7bbd 6238 28bd 4096 d2bc d790 a4bc
00000120: 6725 733d 11d7 9ebc 8191 2d3c cfa1 263c
00000130: 199a 9b3d 2f58 183c 7799 32bd e453 333d
00000140: 624b 46bd a4c8 c8bc 69f4 6a3c dbd2 3a3d
00000150: 7240 d83c 264c acbc d1b9 adbc 04b2 bd3d
00000160: 9fa3 a0bb 7789 87bd 16ed 35bc b31b 21bd
00000170: 9924 62bd 27a4 dd3c 94ac 823c eec1 3ebb
00000180: b1f8 1cbd 9b28 61bc 3119 9bbb 6f8b c53c
00000190: ddd2 7fbd 79e1 4d3c 1b24 ab3d b578 39bc
000001a0: e500 7dbc 9b7f ee3c a41f f63c f001 98bd
000001b0: 3a76 573d 9664 34bc eabc 9c3d e497 283d
000001c0: 2e46 4d3d b11b 2a3d 6fa3 753c e0b4 823d
000001d0: 913d ba3d 8af1 25bc 1a98 d23d 119f e73d
000001e0: 10cd 643c 6665 d63c 94e8 22bb 053e e8ba
000001f0: 7a1b cd3d 5779 023e fb45 053e c28a e63d
00000200: 0853 c23d 2164 3a3d 2b26 f7ba bb63 a53d
00000210: dcb0 95bb 7dd7 c83c 4fb9 02bd 49a5 77bd
00000220: 6664 803d df09 913d abb8 853d d7a0 7e3d
00000230: f94d 363c 0a94 083c dc69 183c dc03 72bd
00000240: 2f77 2f3d 9eb1 63bd faa7 963d 6504 7f3d
00000250: 39cb d53c 2771 993c f3cb d3bc f2d5 d13b
00000260: d608 3bbc d41f 6e3d 65e4 e63d fd5d af3d
00000270: 6ca9 893d 0219 9d3d 279d e53c 4699 8e3c
00000280: 26fe 83ba db71 6e3d 2088 e63d 40d7 923d
00000290: 52e0 9b3d a97e f33d af6f c5bc 1199 0fbc
000002a0: bbd5 723c 580d 933d 91bf a73d de81 a43d
000002b0: e7db 133d 96e4 9e3c c5d1 50bd 4185 aa3d
000002c0: 3ab6 a33d 8d3a 2abd a056 c33c 1deb 4b3d
000002d0: 42c1 9c3d 7e52 793c 81f9 5d3d 80b9 563b
000002e0: 22aa 243d 231b 523d 0328 0bbc b1df a23d
000002f0: c99b f33d 3639 a03b 18c0 303d 9c0b 3dbd
00000300: de20 4d3d 071e 2ebd 4f27 c6bc 64aa 703b
00000310: a7ca 173c 5e83 cb3d 2231 083d 6ce0 c03d
00000320: de4c 18bd 0c95 5b3d 742a eb3a 8e9f 55bd
00000330: 9611 8fbc 1dfb 533c e967 973d c6d8 f03d
00000340: e749 d63c 0197 b13c fc3d 83bc 4946 b2ba
00000350: 7723 943d a639 f23c 5040 013e 2fd3 ef3d
00000360: cf4a 233c d5b6 74bb 80b2 6f3d 767f 88bc
00000370: f8c9 f4bb 99e5 1d3d 7ae5 133e c569 e53d
00000380: 21ce 99bd afed 77bd 542a ba3c 6112 953d
00000390: dca7 813c b844 1c3d 889a cd3d 54bc f13d
000003a0: df62 acbc 4416 103d 262d ea3b 66ea 563d
000003b0: eb39 c0bc 2181 083c f214 d43d 62db 713d
000003c0: 48a9 dcbc 7baa 75bd 42da c8bc 8cf6 843d
000003d0: 2263 863d 18eb 693c faf9 ae3a c13d a03c
000003e0: 08a3 03bc e6aa 5abd c320 4dbd 31b0 c13d
000003f0: e4d0 de3c f8c4 493c 1349 733d c6f2 b83d
0.02477317 0.07240576 -0.0019046661 0.025335612 -0.037135668 -0.015143448 0.040745575 0.008256071
0.11819067 0.039384335 0.010196686 -0.025802983 0.017474022 0.0343892 0.026081895 0.06628188
0.0855544 0.05175685 -0.018588146 0.07363392 0.07513019 -0.025821408 -0.019761223 -0.059068892
-0.007691505 -0.014319914 0.019651128 -0.02585876 -0.016409433 -0.03973777 -0.012571529 0.07394288
-0.09009471 -0.1285637 -0.06891853 0.019213479 -0.058494944 0.059653435 -0.060677804 -0.044805318
0.047569413 0.0007816559 0.012309731 -0.053064637 -0.045861512 -0.05627793 -0.0036983746 0.11165102
0.0066915993 0.037760593 0.06818854 0.021552015 -0.039512973 -0.04832954 -0.045826934 -0.05469145
0.050469525 0.043248605 0.062325098 -0.012600715 0.015423629 -0.047385078 -0.015760405 -0.00793874
0.041317333 0.06011448 -0.03724198 0.024575884 -0.06151324 -0.041069396 -0.02570641 -0.020088596
0.05936184 -0.019389661 0.010593773 0.010170414 0.07597751 0.009298368 -0.043603387 0.043781176
-0.048411734 -0.024509735 0.0143404985 0.045611244 0.026397917 -0.021032404 -0.021206768 0.092624694
-0.0049023177 -0.06618016 -0.011103889 -0.039333057 -0.055210683 0.027055813 0.015951432 -0.002910729
-0.038323108 -0.013742591 -0.0047332277 0.024114339 -0.062456954 0.012565964 0.08356496 -0.011320283
-0.015442108 0.029113581 0.030044384 -0.074222445 0.052602984 -0.01101031 0.0765322 0.04116048
0.050115757 0.041530315 0.014992579 0.063821554 0.09093774 -0.010128388 0.10282917 0.113096364
0.013964906 0.026171397 -0.0024857866 -0.0017718679 0.10015006 0.127416 0.13014977 0.11256935
0.09488493 0.045505647 -0.001885598 0.08075663 -0.0045682024 0.024516815 -0.031915005 -0.060460363
0.062691495 0.07081961 0.06529363 0.062165108 0.011126989 0.0083360765 0.009302583 -0.05908571
0.04283827 -0.05558931 0.07356258 0.06226005 0.02609788 0.018730713 -0.025854087 0.006403678
-0.011415681 0.058135822 0.112740315 0.08562849 0.06721768 0.076707855 0.028029038 0.01740707
-0.0010070249 0.05821405 0.112564325 0.07169962 0.07611145 0.11889393 -0.024101106 -0.008764521
0.014821465 0.071802795 0.08190835 0.08032583 0.036098387 0.019396108 -0.0509813 0.083261974
0.07993741 -0.041559745 0.023845017 0.04978477 0.076540485 0.015217422 0.054193024 0.0032764375
0.040201314 0.05129541 -0.008493426 0.07952822 0.11894948 0.0048896326 0.043151945 -0.04615365
0.050080173 -0.042509105 -0.024188666 0.0036722654 0.009264625 0.09937166 0.03324998 0.09417805
-0.03718268 0.05360894 0.0017941729 -0.052154116 -0.01746444 0.012938288 0.07392866 0.11760096
0.026158286 0.02167845 -0.016020767 -0.0013601269 0.07233327 0.029568505 0.1262219 0.11710202
0.009966566 -0.0037340422 0.05851984 -0.01666234 -0.0074703656 0.03854904 0.14443007 0.112018146
-0.07510019 -0.060529407 0.022725262 0.07278896 0.015827112 0.038151473 0.1003924 0.11803499
-0.02104324 0.035177484 0.0071464954 0.052469634 -0.023465117 0.008331568 0.103555575 0.05904711
-0.026936188 -0.059977036 -0.024518136 0.064923376 0.06561877 0.014277242 0.0013349645 0.019560697
-0.008034475 -0.053385638 -0.050080072 0.09457434 0.027199216 0.012315027 0.05939586 0.0903068

network_body.observation_encoder.processors.0.conv_layers.0.bias f4 [16]
00000000: 80e4 2dbc 8516 abbc 5a42 323d 90f2 6c3c
00000010: e19a b43d cddb f73c d14e 25bc d2e2 17bd
00000020: a084 0abc b6d8 aebb f4d7 913d 19cd 723d
00000030: 8ed1 9bbc 1d6d 7c3c 3945 453d 7949 5dbc
-0.010613561 -0.020884762 0.04352031 0.014462128 0.08818603 0.030256176 -0.010089592 -0.037081547
-0.008454472 -0.0053358926 0.07121268 0.059277628 -0.019020822 0.015406874 0.04816172 -0.013506287

network_body.observation_encoder.processors.0.conv_layers.2.weight f4 [32, 16, 4, 4]
00000000: 151d f43c eebb 43bd 3659 9e3c c505 633d
00000010: e74c aa3c 9e3e eb3b d39c bdbc 97cb 63bc
00000020: 59d9 d5bc 595e ffbc 0ef1 21bd 4a17 c5bb
00000030: c58c dfba 8dfc 783d c255 993b 2ffd 19bd
00000040: 5e5d 52bd e76d 723d 0ba0 cc3b b1b0 3d3d
00000050: e8b7 403c 7480 d73c 966e 083c 92a1 acbc
00000060: 2826 da3c 7371 3dbc b532 dd3c 5314 c13a
00000070: e745 51bc c1f7 303c 4be3 47bc cd83 a6bd
00000080: f1fd d7bd 47be 16bd 91c9 7ebd 7c21 66bd
00000090: 5537 8a3d d3ca dabb 2790 82bd a5e1 05bd
000000a0: cb84 cf3c bc01 2bbd c676 9bbd ce85 38bd
000000b0: 9335 3e3d d052 b1bb 953c 15bc 243e 6cbd
000000c0: 6288 203d 787e 983d ce3f c73b fd88 723d
000000d0: 28d2 943d edf6 f7bc 9a9d 9b3d 702e 383c
000000e0: ddb1 a93c 55d1 163d bda1 cebc 2387 0bbd
000000f0: 3581 6d3b 6696 5a3d 914c 8a3d 6ca3 71bc
00000100: 313a a93c bbc9 ef3c 6649 97bc a2f5 1fbd
00000110: 4cbe 62bd d2dc 593d cc3a 5b3c 1ae2 963d
00000120: df5d b1bb f102 3a3d 0c9e ffbb 9373 cf3b
00000130: 837d 2cbd 8b43 95bd 05c3 04bc 4895 88bd
00000140: 21c8 463d c6b3 953b c52a 723d ad31 a3bd
00000150: dbac 123a 200d 963c b7c7 40bb aca0 7e3c
00000160: 47cd 003d 9e9d 043d ce24 4f3d c45d 74bd
00000170: 9934 ce3d bd48 46bd 5f35 20bd 80af 9cbb
00000180: 6f8e ba3b c71c af3d e786 2d3d 6d7c 993d
00000190: 02d5 8e3d b123 8e3c f238 c83c dff7 46bd
000001a0: 9672 4f3b 884a d9bc e5f2 143d 74a0 d7bc
000001b0: 089c 0e3e 687b 573b 9d28 8ebd 7c6e 6e3d
000001c0: df94 b1bc fc8c 41bb 0e12 a9bd 4b1c e43b
000001d0: d4c3 b83a 40a7 41bd 6df8 69bd 75ca 9d3b
000001e0: 1afd 1bbb 3d49 233d ed01 02bd 614f 7dbc
000001f0: 6a11 0f3d b757 8b3d 31f5 613d a9b7 633c
00000200: 32da bcbc a983 023d 5908 5bbd 0300 e23d
00000210: 1714 a03d 89eb 843c 0e70 173d de02 1abd
00000220: dc31 b5bc 8349 313d c6ae b6ba 36f9 d7bd
00000230: 216f 36ba 7449 50bd 20b2 fcbc 20cf 713d
00000240: c75a 92bd 354b 8e3d fdf5 3b3c 78e7 61bd
00000250: 7df6 733d f9e1 82bc b8d5 79bd c0ef abbd
00000260: 8cbb 63b8 0f76 01bd 1860 2ebd adc5 58bd
00000270: 1308 6b3d 3dcc 26bc fb22 77bd a9db 223d
00000280: 3e76 833d f0e8 3f3d ae06 8e3d e645 893c
00000290: 6fba 5b3d b8e2 7e3d cfa0 cab9 84ba e23c
000002a0: 2839 713d 73df a1bc 36bf a5bc b6bd db3a
000002b0: af16 6f3c 39b4 043c ac7f f3bb 47fc b13c
000002c0: 6de1 bd3d 2dca d83c a620 10bd 9f6d 9f3d
000002d0: 78ee 85bb 1e07 3ebc 807d b63d 75e9 a8bd
000002e0: 81c8 4ebd b173 f33c c6cf 3dbd 2767 9b3d
000002f0: b258 923d 8e04 dc3c 1051 11bd 8f78 4bbd
00000300: 5384 ccbb df2d 9e3b 9dc8 ae3d 7f87 2d3d
00000310: 2384 343d c16d f63c 0cdd 49bd 9753 28bc
00000320: f65a 823d 2f03 653d e1d7 e03b 527d d3bc
00000330: 2919 b43d 691e d4bc 1fe4 a13c 40c8 06bd
00000340: 72e5 88bc fb18 1ebd 01c2 c33d 8420 37bc
00000350: 8cba b23c 8d5f 53bb b1f1 89bc 271b a43d
00000360: a45b 3b3c b2b2 9b3d 0bda e73c 1512 913d
00000370: fa15 23bd b9df dd3c 8dad 48bd d092 893b
00000380: 4db5 c3bc d3cb 333d 56cf ce3d 330e 6dbd
00000390: d45f b43c fa71 e93b 31f8 bb3c 5427 0a3c
000003a0: ea03 bd3c 7805 97bc 2060 c43c 0cda dc3c
000003b0: 4c81 7d3c d46e a33d 11ef 763c 9c8e 8cbc
000003c0: 1098 0bbc bc28 7d3d 54d1 053d 95b6 2b3c
000003d0: e41c 8cbd b28c 183d 6e3c 9e3d 4ad0 1f3c
000003e0: dc93 793d a6e3 8b3d b23d 0cbd b436 b63b
000003f0: d11b d43d c83b 2e3a c6a3 123b bae7 c13b
0.029799024 -0.047786646 0.019329648 0.055425424 0.020788623 0.0071790954 -0.023146069 -0.01390352
-0.026104616 -0.031172918 -0.03953653 -0.006014739 -0.0017055502 0.060787726 0.0046794126 -0.03759497
-0.051358573 0.059186842 0.0062446645 0.046311084 0.011762597 0.026306368 0.008327147 -0.021073136
0.026629522 -0.011562693 0.027001718 0.0014730789 -0.012773014 0.010801257 -0.012200187 -0.08130608
-0.10546482 -0.036802556 -0.062203947 -0.056184277 0.06748835 -0.0066770106 -0.06375151 -0.032685895
0.025331875 -0.0417497 -0.075910136 -0.04504948 0.04643781 -0.0054114833 -0.009108682 -0.05767645
0.039192565 0.07445997 0.006080604 0.059212673 0.072666466 -0.03026911 0.075984195 0.01124154
0.020714695 0.03682073 -0.025223607 -0.034064423 0.0036240343 0.053366087 0.06752885 -0.0147484355
0.02065763 0.029270997 -0.018467616 -0.039052613 -0.055357262 0.053189106 0.0133807175 0.07367344
-0.0054128016 0.04541296 -0.007800823 0.006330916 -0.042111885 -0.072882734 -0.008103137 -0.06669098
0.0485307 0.00456855 0.05912282 -0.07968459 0.00055952155 0.018316805 -0.0029415914 0.015541237
0.031445768 0.032376878 0.05057221 -0.059659734 0.10068626 -0.048409212 -0.0391134 -0.0047816634
0.005693249 0.08550411 0.04236498 0.074944355 0.06974222 0.017351003 0.024441216 -0.048576232
0.0031653992 -0.026524797 0.036364455 -0.026321627 0.13926709 0.0032879952 -0.0694134 0.058210835
-0.021677433 -0.0029533496 -0.08255397 0.0069613806 0.0014096447 -0.047278643 -0.057121683 0.0048153945
-0.0023801983 0.039864767 -0.031740118 -0.01546082 0.034928717 0.0680384 0.055165473 0.013898768
-0.023053262 0.031863842 -0.053474758 0.110351585 0.07816332 0.016225593 0.036972098 -0.03760039
-0.022118501 0.043282997 -0.0013937585 -0.1054558 -0.00069593085 -0.0508513 -0.030846655 0.05903542
-0.07146221 0.06947938 0.011472222 -0.055152386 0.05956124 -0.015976893 -0.060994834 -0.08395338
-5.4295684e-05 -0.03160673 -0.04257211 -0.052922893 0.057380747 -0.01018053 -0.060336094 0.039760265
0.06419037 0.046853006 0.06934868 0.016756963 0.053644594 0.062227935 -0.00038648254 0.027676828
0.0588924 -0.01975987 -0.020232778 0.0016764912 0.0145928105 0.008099609 -0.007430991 0.02172674
0.09271512 0.026463592 -0.035187386 0.077845804 -0.0040872656 -0.011598377 0.08910656 -0.082476534
-0.050484184 0.029718252 -0.046340726 0.07588034 0.071458235 0.02685764 -0.035477698 -0.04967552
-0.00624136 0.0048272456 0.08534358 0.042365547 0.044071328 0.030081632 -0.049283072 -0.010273836
0.06365006 0.05591124 0.0068616723 -0.025816593 0.087938614 -0.025893407 0.019762097 -0.032905817
-0.01671097 -0.038598042 0.09558488 -0.011177186 0.021817468 -0.0032252998 -0.01683888 0.080129914
0.011435423 0.07602443 0.028302213 0.07083527 -0.03981588 0.027084218 -0.048993636 0.0041984096
-0.023890162 0.043895554 0.1009814 -0.05787487 0.02201835 0.007124183 0.022945495 0.008432228
0.023073155 -0.018435225 0.023971617 0.026959442 0.015472721 0.07980123 0.015071646 -0.017157845
-0.008520141 0.061806425 0.032670334 0.010480543 -0.06841448 0.037243553 0.0772637 0.00975425
0.060932025 0.0683053 -0.034238525 0.0055607203 0.10356868 0.00066464813 0.0022375449 0.0059175165

network_body.observation_encoder.processors.0.conv_layers.2.bias f4 [32]
00000000: 82ec e8bb 39ad 483c bd3b 02bc b4d0 8fbb
00000010: 9262 ea3c 30aa 85bc dadd d3bb 57b0 153d
00000020: 40a2 f4bc f9fc e53c 8228 603c dbda 8f3d
00000030: 3ab0 a93b 78a0 82bc eb74 1b3d db4d 16bd
00000040: 3470 c2bc de17 7e3d a83b 85bd a50a 323d
00000050: e743 6e3b 865f 3b3d 8572 c93c 3e98 26bb
00000060: f09c 81bb 5f8c bd3c 0530 283b 5d2f 6fbd
00000070: 6ca6 1abd 0578 a7bc 7ba8 dc3c c70c faba
-0.007108272 0.012248331 -0.007948813 -0.004388893 0.028611455 -0.016316503 -0.0064656558 0.036545124
-0.029862523 0.028074728 0.013681533 0.07024165 0.0051784785 -0.015945658 0.0379533 -0.036695343
-0.023735143 0.06203448 -0.06505519 0.043467183 0.003635639 0.045745395 0.02459074 -0.0025420333
-0.003955476 0.023138223 0.0025663387 -0.05839478 -0.03775637 -0.020442972 0.026935806 -0.0019077294

network_body.observation_encoder.processors.0.dense.0.weight f4 [128, 32]
00000000: df31 893e a9a0 0a3c f96b 87be 46b9 483e
00000010: 46c3 8b3e c819 88bd 7e75 a23d 7561 1ebe
00000020: 7c54 b8be 2f41 6dbd 8fe8 e5bd c85a 58be
00000030: 5ddb 5d3e 85ba 203d 253d d9bc 270c 5a3c
00000040: dcc9 dbbe 2d6c 91bd 6012 b93e b106 38be
00000050: 47ea 5cbe aeba 52be 63a8 593e 104f c0be
00000060: abac 0e3e 58f1 fe3d a2f9 1bbc acf3 9b3e
00000070: 5106 e83e 5c14 193e 5c25 c23e 9575 ff3d
00000080: caad 273f 633c 2e3e 6b9c 1a3e 4386 173e
00000090: 3cf4 013e fc1b b2bd 8ca4 21be 03c6 c63e
000000a0: a21f b43d b620 4f3e d313 2fbd c19d cebc
000000b0: 2894 dabe 2650 5cbe 9044 f4bd 78f3 ed3d
000000c0: 5a20 963e 3f27 0b3e a095 853a 50ee 173d
000000d0: 10de 4b3d 38c3 94bd 635c 88be c196 24be
000000e0: 6acf afbe fe45 cf3e 4933 59be d972 a0bd
000000f0: 950c f0be add2 9fbe 88df 783e 4c1c 413e
00000100: 622b 5e3e efde 733e 0aba 343e bd3a c23e
00000110: 7cb8 54be 4678 103e 639e d73d a812 f4bd
00000120: 2bda 403e e38b bb3e 224c bdbd befb 733d
00000130: 8af3 9a3e ec9a 86be e77a 3bbe ba98 e5bc
00000140: 60ce a2be f599 3f3e 6bc1 903e ccdb 8abe
00000150: d677 bebe 2880 c53e b94c 3dbd 4597 853e
00000160: 0786 d1bd 9d8d d4bd 03c9 dcbc e7d4 abbe
00000170: 7cae 173e 974d 323e 384e 053e 0752 d1bb
00000180: d632 f03e b886 803e 07de b8bd b0d4 66bd
00000190: cbfa a5be 6a0f 80be b9b0 23bd 6e2e 29bd
000001a0: 8a32 0c3f 0838 403e d5c5 6fbe 019a 0b3f
000001b0: 0773 113e 94eb 273e fbc5 023f 5b4b 733d
000001c0: 23ad 69be d8e6 87be e113 1ebe ae11 cf3d
000001d0: 1c5e 5fbe bf43 d13d e51b 603d c5d5 e5be
000001e0: f492 eb3c bbdb f13d ee14 3cbe 863c 2abf
000001f0: 7da6 073f ce0c a5be f066 473e 4582 e73c
00000200: dcd7 993e eae5 b43e f88a 993e ead8 c83e
00000210: dc8c 0f3e 6efa e63e a67d 4bbe 1d97 70be
00000220: 160c dfbd 7f9a fd3d fd25 b23e c1d6 21be
00000230: aac0 5b3c dacb 63be 23b9 383c 5309 d73c
00000240: b34f 0abf 243e 193d 9085 18bf c8bd af3e
00000250: 4323 173e 2ea7 363e 705a 42be 6f2e 223d
00000260: beeb ea3e 83d1 2bbe 0246 18bd b9d7 93be
00000270: 5ad7 003f f8bd 77be 6299 363e 6a14 8dbe
00000280: cc3b 28bd da57 713e 75ad e0be c4b0 123f
00000290: dcf4 683e 55dd 333e 06e0 4dbd ca50 6e3e
000002a0: e697 d5bd e31f 6e3d 7384 f53d afe0 f8be
000002b0: d0fc 91bd 7b4f 0dbe 8b06 90bd 583a 19be
000002c0: 3b44 553e 2007 6cbc 2e47 0c3b 437a 25bd
000002d0: ae37 a73e 0316 103e 5eb7 023d 26d4 f63d
000002e0: b031 113f 85bd c13e 3593 34bd c6d3 89bc
000002f0: 4f0b a93e e9bd 483e d85c 79be ba9b 543e
00000300: 4150 d0bd e366 a2bd f987 d73d 9b3d f13d
00000310: cc54 53be fc81 aebb fb87 9dbd 757d b8be
00000320: cf13 dbbe a4cc 8ebe 6e7a 983d 47bc b33c
00000330: 7ff1 823d 5a7a 3ebd bda9 c3bd b1cd 633d
00000340: 2579 b63b 8ee4 963e de60 4fbc 4da1 a83d
00000350: 771a f0bd c6fc 5dbe b976 653e 9e20 213e
00000360: 0f30 8fbd 41ad ce3c f6c5 71be ff80 05bd
00000370: ca41 713d 51a2 e0bd aab1 fd3e 7550 21be
00000380: 2b7e e9bb 89f5 25bf 5db8 243d c430 09bf
00000390: f5a9 93be 0c69 8fbe b12c 6e3d c90d b6be
000003a0: f111 023f 759a 943e 7ce1 39be 1c5f 343e
000003b0: 2978 8bbb 2407 be3a eb4b c7be 237b c63d
000003c0: 5096 0cbf a8cd 9c3e edfc 19bc 23e8 b03e
000003d0: 710a 05be b001 58be 7ba3 1d3f 5374 b63e
000003e0: 5158 2cbe 8797 ba3c 8da6 6d3d 3829 d03d
000003f0: 1abe 8bbe 6059 713e fcc1 d83d c131 3f3e
0.2679586 0.008461156 -0.26449564 0.19601926 0.2729742 -0.066455424 0.07932566 -0.15466864
-0.36001956 -0.057923492 -0.11225998 -0.2112838 0.21665712 0.03924038 -0.026518414 0.013308561
-0.42927444 -0.07100711 0.36146832 -0.17971303 -0.21573745 -0.20579025 0.2125564 -0.3756032
0.13933055 0.124483764 -0.009519966 0.30459344 0.4531732 0.14949173 0.37919128 0.12473599
0.65499556 0.17015223 0.15098731 0.1479731 0.12690824 -0.08696744 -0.15785426 0.38822946
0.08795096 0.20227322 -0.042743515 -0.025221707 -0.4269116 -0.21514949 -0.1192714 0.116187036
0.29321557 0.1358919 0.0010191686 0.037092507 0.049772322 -0.072637975 -0.26632985 -0.16073133
-0.34337932 0.40483087 -0.2121097 -0.078344055 -0.468846 -0.3121542 0.2430402 0.1885845
0.21696237 0.23815511 0.17649093 0.3793544 -0.207735 0.1410838 0.10528257 -0.11917621
0.18833224 0.36630163 -0.09243037 0.059566252 0.3026393 -0.2629007 -0.18308602 -0.028026927
-0.31798077 0.18711074 0.28272566 -0.27120817 -0.37200803 0.38574338 -0.046215747 0.26091972
-0.10230642 -0.10378573 -0.026951319 -0.3356087 0.14812654 0.1741241 0.1301812 -0.0063879522
0.46913785 0.25102782 -0.09026723 -0.05635518 -0.32417902 -0.2501176 -0.039963458 -0.041304044
0.54764616 0.18771374 -0.2341531 0.54531866 0.14204036 0.1639846 0.51083344 0.059398036
-0.22819953 -0.26543307 -0.1543727 0.10110794 -0.21813244 0.10218 0.054714102 -0.44889656
0.028756596 0.118094884 -0.18367359 -0.664986 0.52988416 -0.32236332 0.19472861 0.02826036
0.300475 0.3533166 0.29988837 0.39227992 0.14018577 0.45112938 -0.1987215 -0.23495145
-0.10890977 0.123829834 0.34794608 -0.15804578 0.013412634 -0.22245732 0.011274609 0.026249563
-0.5402786 0.037412778 -0.595788 0.3432448 0.14759545 0.17837211 -0.18979812 0.039595064
0.45882982 -0.16779141 -0.03717614 -0.2887552 0.503286 -0.24193561 0.17831948 -0.27554637
-0.04107265 0.23568669 -0.43882337 0.5730097 0.22749656 0.175649 -0.050262474 0.23273006
-0.10429363 0.05813588 0.11988153 -0.4860892 -0.07128298 -0.1379985 -0.07032498 -0.14963663
0.20826809 -0.014405996 0.002140473 -0.0403998 0.32659668 0.14070897 0.031913154 0.12052183
0.5671644 0.37839904 -0.0440857 -0.016824614 0.3301644 0.19603695 -0.24351823 0.2076253
-0.10171557 -0.0792978 0.105239816 0.117793284 -0.20637816 -0.005325554 -0.07691952 -0.36033216
-0.4278855 -0.27890503 0.074452266 0.021940364 0.06393718 -0.046503402 -0.095538594 0.055616084
0.005568641 0.29471248 -0.012657372 0.08233891 -0.11723798 -0.21678457 0.2240857 0.15735099
-0.06991588 0.025229098 -0.23610672 -0.032593723 0.058900632 -0.109684594 0.4954961 -0.15753348
-0.007125636 -0.6482778 0.040214885 -0.53590035 -0.28840604 -0.28009832 0.05814809 -0.35557392
0.50808626 0.2902409 -0.18152422 0.17614406 -0.0042562676 0.0014497978 -0.38925108 0.09691455
-0.5491686 0.30625653 -0.009398681 0.34552106 -0.12992264 -0.21094394 0.61577576 0.35635623
-0.16830565 0.022777332 0.058020163 0.10164112 -0.27293473 0.2356925 0.105838746 0.18671323

network_body.observation_encoder.processors.0.dense.0.bias f4 [128]
00000000: 88d4 b73c 2b0d 70bc 0736 b5bb ebf9 b539
00000010: 7911 79bb 57dc f53c 9209 2c3c c46a ec3c
00000020: af1d 14bc fafe 633d a473 c43b acdd 5cbc
00000030: 5e56 0f3d d8a9 363d 3961 2a3c 8ac0 153d
00000040: 4cce 93bc c531 6b3d 26dd 193d 0701 02bd
00000050: 6e8a 6f3d ac5b 6abc 8587 323d 0e42 ef3c
00000060: d194 223d 2aa9 123c 976c 1cbd a90c e63c
00000070: 9ae4 583d 8b96 e43b c8e9 263d 6e07 683d
00000080: 3277 883c 11a0 c83c c494 813c 9b76 5f3d
00000090: 2328 18bc fe04 c1bc 5980 883c 7637 8d3c
000000a0: b464 b63b a44a 853c 4c73 393d 377a 5fbc
000000b0: f9ec 033c 7ffe 263d cd07 e43c c7f0 92bc
000000c0: 298c 49bc b41e 8f3c 655b 5c3d 4662 3b3c
000000d0: 57c9 183d d737 57bb 6836 ba3b 1c2c 1e3d
000000e0: 1512 9b3c ff29 ff3b 34fd c0bc 45cd 643d
000000f0: f21f 26bb 9eb7 9d3b 943b 183d da8d 723d
00000100: c22c c13c b633 f03c 5905 8e3b c29b 563c
00000110: fbce 943d d101 813d 4599 c3bc 6890 8b3b
00000120: e5f6 d8ba de8d f639 ee8a 1a3c 14ee cb3d
00000130: 48ed 4b3d 817c 463c 3a85 7d3c 0867 c13b
00000140: 8af7 74bc 1e86 8b3c 146f f33b 2568 a23a
00000150: d582 8cbc 62cd c03c 485b c33c 6e36 c53c
00000160: 50fa a63a 3f0d 603c b6fe 9b3c d2c4 933b
00000170: a15c 7abb 77ba e0bb 2127 b0bc ddfe 8fbb
00000180: eaaa 493d a38f 05bc 0166 9f3b c40f 0f3d
00000190: 5c71 c9ba e04e 3bbc eb8f bebc a92f 7fbb
000001a0: 8c43 a73c 5897 b73c 9163 0abd b674 d9bb
000001b0: e73f 4f3d 877d 173d 49fd 573d d2c7 2b3d
000001c0: 6a46 27bc 22e5 0f3d ae86 733d 5a9d 373d
000001d0: 4eeb 943d 4013 b93b 94f8 113d af9f bdb9
000001e0: 1892 cd3c 86b3 b4ba 3305 893c 3faa 4a3c
000001f0: ebd5 8c3d 3ea9 bd3c b555 d73d 888b 603b
0.02244021 -0.014651577 -0.005530122 0.00034709214 -0.00380048 0.030012293 0.010500329 0.028859504
-0.00904028 0.055663086 0.0059952307 -0.013480585 0.034994476 0.04459557 0.010399156 0.036560573
-0.018042706 0.05742051 0.03756442 -0.03173926 0.058481626 -0.014304083 0.043586273 0.029206302
0.039692704 0.008951465 -0.038189497 0.028082209 0.052952386 0.006975954 0.040750295 0.05664771
0.0166584 0.024490388 0.015818007 0.05455647 -0.009286913 -0.02356195 0.016662763 0.01723836
0.005566204 0.016270943 0.04527597 -0.013639978 0.008052104 0.04077005 0.027835751 -0.017937077
-0.012301483 0.017470695 0.053798098 0.011437004 0.037301388 -0.003283968 0.0056827553 0.038616285
0.01892952 0.0077869887 -0.023558237 0.055859823 -0.002534863 0.0048131486 0.037166193 0.05921731
0.023580913 0.029321533 0.0043341336 0.013098659 0.07266041 0.062991746 -0.023876796 0.004259158
-0.0016553072 0.00047026476 0.0094325375 0.09957519 0.049786836 0.012114645 0.015473658 0.005902175
-0.014951596 0.017031725 0.007429013 0.0012390657 -0.01715223 0.023535434 0.023847237 0.024073806
0.0012739394 0.013675033 0.019042354 0.004509547 -0.0038202184 -0.006858166 -0.021503033 -0.0043943957
0.049235262 -0.008151921 0.0048644547 0.034927145 -0.0015368867 -0.0114323795 -0.023261985 -0.003893832
0.020417951 0.022411034 -0.03378636 -0.0066362275 0.05059805 0.036984947 0.052731786 0.04193861
-0.010209659 0.035130627 0.059454612 0.044827797 0.07271443 0.0056480467 0.035637453 -0.00036167863
0.025094077 -0.0013786412 0.016726112 0.012369691 0.06876739 0.02315199 0.10514394 0.0034262855

network_body._body_endoder.seq_layers.0.weight f4 [128, 338]
00000000: cd46 c0bd aaeb 253c 09cc 273e 859d cdba
00000010: ba1d 34bd 7be2 39bd 85ac 9bbd a481 9e3c
00000020: a098 823d f82b c83d b6f8 373d 916c e4bd
00000030: 23b6 3c3c cbfa 303d 4f94 013e fcc7 b73c
00000040: ff6a 2b3c 194d ea3c dc08 603d 86dd 923d
00000050: 8393 89bd 387d 56bd 0180 9b3d 195e ec3c
00000060: 25f2 5bbb e5cc 18be f466 a5bc bab4 863c
00000070: eaff 663d b1ee a1bd 7fb9 25bc 23a3 8b3c
00000080: cc6e 883c f6f2 e63d 2235 763d 2acc 253e
00000090: c701 4f3d df6e 1c3e 2c9b 473e 8341 e73a
000000a0: 6093 7abd f71e b7bc 5c32 55bd 38ce 803d
000000b0: dbff 22be ed22 0ebd 360f e73d c934 e33b
000000c0: 697b 87bd 2a50 a5bc f2f0 a23d d477 4ebd
000000d0: 6cce 493d a695 2b3d 1366 f8bd 731e 433d
000000e0: 4064 b03d 82c9 f33c 2f88 a2bd 8650 b63d
000000f0: 00ff 0a3d b7bf b1bd 4f0f 61bc 472e 053e
00000100: 822b b8bd 5838 53bd 2219 623d 4aac 9f3b
00000110: 8d89 193e ae21 c9bd f4ae 54ba 4ad4 583a
00000120: fd37 703d 215c 1f3d f621 9e3d 8408 6c3c
00000130: 5d02 aa3d a180 14bd 3de9 52bd 3b41 a5bc
00000140: 30b9 603d af22 0c3e 01e1 883d 358b 33bd
00000150: b217 bebc f51d f23c 9abf 4f3d 3aaa a53c
00000160: b1bb e73c 31f5 bbbd 18db c5bd 0efb f63d
00000170: 1c53 ff3c e998 6ebc 4d38 ad3c cf73 86bd
00000180: c887 acbd 1106 82bd ba47 0d3d 8d85 893d
00000190: 7d1f c33c e79d 513d 19d1 e73c 2c94 863c
000001a0: 4d02 b93d 719a 583d 4398 c0bd c1d6 573c
000001b0: eb8c ca3d 7b7e afbc 589b bd3d e778 1f3e
000001c0: e067 92bd 2e67 cc3d 0374 e13d 2e8f 82bd
000001d0: 397c 423e 5543 da3d 0a36 6e3c 05a6 ac3c
000001e0: 912c 9d3d 1c71 c23d 3fe3 3f3d 3726 55bd
000001f0: f2b5 c63d 8bf1 f43c 5a8b af3c da52 853b
00000200: 4550 cdbc aad0 1c3d daa6 9dbd 5655 94bd
00000210: c8ab cf3b 8142 57bc a4a2 7d3d 8587 ee3d
00000220: 38d5 533d 46fe 5bbd 04f0 b9bd 05fc 08be
00000230: 4f64 92bb 617c d53d 61bf 973d 4119 063b
00000240: 93d1 ddbb d212 bb3c 3d97 8b3d f016 ba3d
00000250: 5fb9 4d3d 8847 f53d 5f23 1b3d 5892 ef3a
00000260: f2ca 213e 9573 933c 11d8 253d 7c70 e939
00000270: 3f2c 05ba 6875 5ebc a696 fb3d 068f e93d
00000280: acff a53d d428 123d 1aec 07be 9a43 01bc
00000290: ba80 74bc a92b 82bd f294 69bc 80da 7fbd
000002a0: 140a b03c 737f 333d df60 a93c 7f64 fd3d
000002b0: 2948 833d 27a2 e6bc 9874 f3bc 416f cfbd
000002c0: 1945 233d 612c 50bc 13ff e4bd 3a5a 7f3d
000002d0: c37c 473d 27bc ef3d 5560 89bd 9155 853d
000002e0: f373 e13d 69a2 973c fe82 eebd 295a afbd
000002f0: e9f5 1ebd 3e4f 893d 14ad c4bd 835c 023d
00000300: 9ff9 a93c 5e88 4d3d 0218 0fbe c5b8 c63d
00000310: 7202 233d 28cb c5bc f82d dcbd 3040 ad3d
00000320: faee bbbc c8b5 ab3c e2c0 80bd 38c7 3bbd
00000330: ef8c 9dbd 83bd 143d b7ea 5b3d 0bf9 cdbb
00000340: 30aa 27bd 9c32 773d ba91 02be 3c73 c6bc
00000350: f7dd 5cbd b20a 7fbd b490 80bd d82b 903c
00000360: b20a 8d3c 2fbd 703d 777c f8bc 05ca 593d
00000370: 9884 50bc a717 4dbd 8f6b 2fbd 3074 50bd
00000380: 7fcb 0a3e d034 923d d40c e43c 0d18 50bd
00000390: c612 e1bd a171 043d af2d 92bd 2094 973d
000003a0: 52bd 053d 357f 98bd 869a 09bd 55ec c6bd
000003b0: 31b1 693c 3921 4b3d 2ea3 713d 9355 80bc
000003c0: 8422 df3d 639e f93c 896d cfbd 1611 133c
000003d0: bbaa 50bc cac2 e03c 40f6 013b 1518 513b
000003e0: 6a77 cb3c ee8e 013d d878 8b3c 03d8 f2bd
000003f0: 904b f83c 82ef 073d 5f80 edbd 6690 0d3d
-0.09388504 0.0101269875 0.16386427 -0.0015687203 -0.043973662 -0.045382004 -0.07601265 0.019348927
0.06376767 0.097740114 0.044914924 -0.1115352 0.011518034 0.043207925 0.12654231 0.022434227
0.010462522 0.028601216 0.05469595 0.071711585 -0.06717589 -0.05236551 0.07592774 0.028853463
-0.0033561077 -0.14921911 -0.020190693 0.016443599 0.056396402 -0.07906855 -0.0101150265 0.017045563
0.016654395 0.1127681 0.060109265 0.16191164 0.050538804 0.15276669 0.19492787 0.0017643425
-0.061175704 -0.022353632 -0.05204998 0.06289333 -0.15917914 -0.034701277 0.11282198 0.0069337827
-0.066153355 -0.020179827 0.07956113 -0.050407246 0.049269125 0.041890763 -0.12128844 0.04763646
0.08612871 0.029759172 -0.07936131 0.089020774 0.033934593 -0.08679145 -0.01373656 0.13005935
-0.089926735 -0.051567405 0.05519975 0.0048728334 0.14993878 -0.09820877 -0.0008113228 0.00082713796
0.058647145 0.03890622 0.07721321 0.014406327 0.08301232 -0.036255483 -0.051491965 -0.020172706
0.05486411 0.13685106 0.06683541 -0.04383393 -0.023204658 0.0295553 0.050719835 0.020222772
0.02828774 -0.09177626 -0.096609294 0.12059604 0.03116756 -0.014562824 0.02114501 -0.065650575
-0.08424336 -0.06348813 0.034492232 0.06714926 0.023818726 0.051175978 0.028297948 0.016428076
0.09033642 0.05288166 -0.094040416 0.01317376 0.09890159 -0.021422615 0.09258145 0.15573464
-0.07148719 0.099806175 0.110084556 -0.063749656 0.189927 0.10657374 0.014539251 0.021075258
0.07674516 0.0949423 0.04684758 -0.052038398 0.09702672 0.029900333 0.021428753 0.0040687146
-0.02506269 0.038284935 -0.0769784 -0.07242839 0.0063376166 -0.013138414 0.061922684 0.11646942
0.051717013 -0.05370929 -0.090789825 -0.13377388 -0.004467524 0.10424114 0.074095495 0.002046183
-0.006769368 0.022836123 0.06815956 0.09086406 0.05022561 0.11976534 0.03787553 0.0018277867
0.15800074 0.01799945 0.04048926 0.0004452503 -0.00050801405 -0.0135777965 0.12284593 0.11404233
0.08105406 0.035683468 -0.1327366 -0.007889653 -0.014923269 -0.06355984 -0.014256703 -0.062464237
0.02148918 0.043822717 0.020676075 0.12372684 0.06410248 -0.028153492 -0.029718682 -0.10128642
0.03986082 -0.012705893 -0.11181464 0.062341906 0.048702966 0.11705809 -0.06707827 0.06510461
0.11008444 0.01851006 -0.116460785 -0.085621186 -0.038808737 0.067045674 -0.096033245 0.031826507
0.020748911 0.050178878 -0.13974002 0.09703211 0.039797254 -0.024144724 -0.10750955 0.084595084
-0.022941101 0.020960703 -0.062867895 -0.045844287 -0.076928966 0.036313545 0.05369064 -0.0062857918
-0.040933788 0.060351 -0.12750903 -0.02422487 -0.05392262 -0.06226606 -0.062776 0.017599031
0.017217014 0.05877417 -0.030332787 0.053171176 -0.012726925 -0.050071385 -0.042827185 -0.050892055
0.1355419 0.071389794 0.027838148 -0.050804187 -0.10989909 0.032334927 -0.0713762 0.074012995
0.032651253 -0.07446138 -0.03359463 -0.097130455 0.014263437 0.04959223 0.05899351 -0.015665805
0.10895255 0.030471032 -0.10128314 0.008976242 -0.012736018 0.027436633 0.0019830614 0.0031905223
0.024837214 0.03163045 0.017025396 -0.11857607 0.030309469 0.033187397 -0.115967505 0.034561537

network_body._body_endoder.seq_layers.0.bias f4 [128]
00000000: 30d8 ef3c b5d2 983b 3273 6cbc c347 4c3b
00000010: 38f3 7b3c c80f 803c ef8d 30bc c254 8b3b
00000020: 8567 af3c 106f 4dbb b317 cb3b f8a2 34bc
00000030: ad81 13bb 1116 e0bb 9634 aabb d354 81bc
00000040: 7292 65bb 2639 8abc da03 ac3c 19f3 093c
00000050: c3b8 4d3c dee8 a33c 2c3f 86bb eadd fabb
00000060: e0cf 0d3c e09e 093c a13d 2e3c ffcb 0e3d
00000070: 79ab 17bc 253a 2c3c 7b6b 5bbb 0b6d 00bb
00000080: 141f bc3a 9d2b a23c 0511 683b 0fdc 98bc
00000090: 1d00 d63c 87e6 a33c 16a5 d53b 187b 36bb
000000a0: 03d3 993b 7e78 c03c a499 fe3b 0a4f 623c
000000b0: 15d4 f63b c96b 2fbc 2cec 3abc 4f96 e2bc
000000c0: d888 e7bb cf7f 57bc 42cf 783b 2c4d 033c
000000d0: e542 09bc 50a3 413b 3ca5 debc a95a b53b
000000e0: 5813 1cbc c970 e8ba 527b dcba bf35 7cbc
000000f0: 275e 443b 3a2e e33b 49e8 ddba 7285 e13b
00000100: 2fd8 c33b 06c6 a53c ab0c c7bb 4428 153b
00000110: 7813 fa3b d9b3 85bb 0e00 263c f92a 1bbb
00000120: 03b5 6839 cc2f 073d c9a4 c23b 842f ec3b
00000130: 2aaf 7a3c 01e8 bdbc 95ba 0f3c bd07 6a3b
00000140: 766e e53c 37e6 293c 39a3 813c fe30 073d
00000150: 554d 843b e4e6 4d3c 11b9 13bb 7f4f bb3c
00000160: 2f2d 253b 796a bfbb 0487 fabb 8cae 91bc
00000170: c33c c2bb e6f7 8ebc fe95 cf3c f0ed 733c
00000180: 7a2d 17bb 4d33 cfbc 7987 043b 01cb ef3b
00000190: b3a1 c7bc 7d80 be3c c705 6e3c 5305 b93b
000001a0: b8da 0cba e08f acbc 62dd 7b3c 9bd0 c53b
000001b0: 7c59 e1bb 813d 313c bc1f e1bb b96b be3c
000001c0: 1ff8 963c dc07 9cbb f756 7fbb e19c ef3c
000001d0: 1ed0 0c3c 5b26 253c 4856 97bc cdc8 be3b
000001e0: 938f a0bb b8b6 fcbb 585c 893a 4564 ed3a
000001f0: 26aa 9dbc 6336 bdbc 8871 78bc 5f91 113b
0.02927789 0.00466379 -0.014431762 0.0031170703 0.015377812 0.015632525 -0.010776027 0.0042520473
0.021411667 -0.0031346716 0.0061978935 -0.011025183 -0.0022507713 -0.006838568 -0.005194257 -0.015787518
-0.0035029915 -0.016872954 0.02099793 0.008419775 0.012556258 0.0200085 -0.004096886 -0.0076558487
0.008655518 0.008399695 0.010634811 0.034862515 -0.009257191 0.01051191 -0.0033480811 -0.0019596245
0.0014352524 0.019796187 0.0035410535 -0.01865962 0.0261231 0.020007385 0.006519924 -0.0027844366
0.004694344 0.023494955 0.0077697802 0.01381279 0.0075326064 -0.01070685 -0.011408847 -0.027659563
-0.0070658736 -0.013153031 0.0037965332 0.008014005 -0.008377765 0.0029546805 -0.0271784 0.005534489
-0.009526096 -0.0017733808 -0.001682142 -0.015393673 0.0029963346 0.006933001 -0.0016930188 0.006882363
0.005976699 0.020236026 -0.006074508 0.0022759596 0.0076317154 -0.0040802774 0.010131849 -0.0023676737
0.00022192676 0.033004567 0.005940054 0.0072078127 0.015300551 -0.023181917 0.008772512 0.0035710179
0.028006773 0.010369829 0.015824901 0.033005707 0.004037539 0.012567256 -0.0022540728 0.022865055
0.0025203933 -0.00584155 -0.0076454896 -0.017783426 -0.0059276535 -0.017452192 0.025340077 0.014888272
-0.0023067878 -0.025293017 0.002022235 0.007317901 -0.024369096 0.023254627 0.014527745 0.0056463866
-0.0005373168 -0.021064699 0.015372606 0.0060368306 -0.0068771224 0.010817886 -0.006870238 0.023244726
0.01842886 -0.004761679 -0.0038961747 0.02924961 0.008594541 0.010079945 -0.01847376 0.005822277
-0.004899928 -0.0077122115 0.0010479791 0.0018111548 -0.019246172 -0.023097223 -0.015163787 0.0022211892

network_body._body_endoder.seq_layers.2.weight f4 [128, 128]
00000000: 2584 253c 71d1 173e 01a0 7dbd 8d45 5b3c
00000010: 6fdc 42bd 8d1d c4bd ecea e9bc ba79 afbd
00000020: eae2 66bd 1e1a 493e 7c1d 5f3c 5703 d6bd
00000030: 3531 803b d5af 82bc 4322 ab3d 84bc cebc
00000040: 215a c4bd 9bb6 b63d da42 c7bd 0263 a5bd
00000050: aade da3d 636d 17be 2302 cabb 45fb 883e
00000060: bd35 2cbd 6265 50be db20 3bbd fb49 f3bd
00000070: 30fc 9abc e79f fd3d 6657 1c3e c091 01be
00000080: 4537 4abe b961 023e c11a 13be ba93 203d
00000090: 4a63 7d3d 1267 833d ca42 2a3d 5114 b2bc
000000a0: 35d5 a13d dcac 24bc d9c3 4fbd a0a3 c7bd
000000b0: 6478 14be 1c06 563d f98a aabd 4c8f 6b3d
000000c0: 1fad f13d 882c bf3d ea8a b7bd 5f11 813d
000000d0: cc64 20be 3442 3cbd 156e b5bc 464d 7abc
000000e0: 2128 f73c 680e 90bd 9e62 03be c6de 8d3c
000000f0: 08e3 8b3d a9c0 593e 5ae1 b4bd 45f5 9d3d
00000100: dcd4 9bbc 970d ec3d 5fde 0fbe 53d2 d0bd
00000110: 72c1 f83c 8d1b 0b3e bcdf 873b 5d42 ebbd
00000120: e5a6 c93c d50e c0bd 57c5 81bd 77a1 9abc
00000130: 8302 aabd cbbe 6f3d 36a2 afbd 57d8 f03c
00000140: bf37 493d 900b 9abd 1d65 9a3d d550 303d
00000150: 3e68 fd3d 582e ed3b 2552 a73b 7dae e33d
00000160: 984b 36be 007c 2a3e 7463 4f3d 6829 ae3d
00000170: e544 603d ad02 b33d 727c 063e 389d 1a3e
00000180: a863 84bb 3325 3cbd e50d 5cbe a026 193e
00000190: e5fd 2fbd 92c6 ae3d 06ee 4c3d b8fe e2bc
000001a0: 265a de3c d419 75bd ffe7 08be 8275 6abd
000001b0: 1779 233e 5b67 e1bc 647a cabb de98 2abd
000001c0: fcc9 64bc 034b adbd 44cd 33bc 4af1 fbbc
000001d0: afa3 593c c09e eb3d bf91 473d c99a 20bd
000001e0: da19 95bd f3d5 873d a42e 9d3d bc08 3b3c
000001f0: aa75 703d 20ee 8ebd 410a 33be 8411 0cbd
00000200: a796 87bd 3285 58bd ffb0 1b3c 8fae ed3d
00000210: a777 a9bd 7c78 93bd 72b4 1abc 7336 de3d
00000220: e864 923d 782f 3c3d 67ae 12bc c3a4 c63d
00000230: cb45 d3bd b46c 1d3c 5727 243c 489c 4f3d
00000240: 1a8c a83c 5348 bdb8 42b9 a73d 6875 d9bd
00000250: 0783 b33c 0cd7 22be cc7d d4bd 70e7 233b
00000260: b71b 2abe 827e 8d3a 0dd3 ddbc b8a1 c6bd
00000270: dec1 203d c580 2cbe bc2c 8bbd 85c7 d13d
00000280: ac51 d93c 1641 9b3d bda9 1c3d 94e7 943d
00000290: 4cf0 1e3e 6fa4 57bc 0a30 743e cb36 b2bd
000002a0: 790c 9d3d c9a9 563d ae57 3d3e 2fc9 c8bc
000002b0: 2ab1 573e 5c1f b7bd 41dd 88bd ba46 a5bd
000002c0: 1648 2c3d b81d fc3d f670 1a3c 30f1 2fbd
000002d0: 5653 61bd a5f0 9e3d 6b08 81bd 93cc 063e
000002e0: 862d c2b8 476d 2cbd a3ea 26be 6b30 423d
000002f0: 620f f13c 32e8 143e 2ef6 913d b3d6 76be
00000300: 6556 00be 4cc7 4dbd 14d6 1f3d cdf3 69bd
00000310: be85 c93d 971e 16be 640c ca3d 129e 6bbb
00000320: ee2a aa3c b076 c4bd 6c76 ac3c 022b 9c3d
00000330: 2b18 e3bc 99a8 06be 65a5 d43d 75fd f4bd
00000340: 8aa7 a8bd 4b70 19be b594 0abd 641b 583d
00000350: e2de 01be cba9 99bd f22e 06bd e5b4 ea3d
00000360: c5f0 ebbd 6bbb bd3c 3f11 f13d 0473 0b3d
00000370: b569 0ebc 3221 983e 3bec 87bc 1279 353e
00000380: f2b5 b03d 5295 babd 947d 97bd 61e3 733d
00000390: 0b02 0abe df54 ebbd c1fe ecbc a5f8 49bd
000003a0: 6564 80bd 6f39 04bc 1fa9 a2bd 21fe bdbd
000003b0: 23df 113e ae4b 17bc 95f6 95bc 8e0a 0abe
000003c0: d0af 5bbd 9bc8 0fbe 1a93 4abe 20af 153d
000003d0: fa73 e3bd 67c5 df3d d821 093e f810 76bd
000003e0: 1ae4 3bbe da59 2cbd de53 06be 5788 843d
000003f0: 3211 44bc 3283 74bd 59dd df3d 02b7 533d
0.0101023065 0.1482599 -0.06192017 0.013383281 -0.047573503 -0.09575949 -0.028554402 -0.085681394
-0.056368746 0.19638869 0.0136178695 -0.10449856 0.003912116 -0.015952984 0.08356144 -0.025236376
-0.09587503 0.08921548 -0.09729548 -0.08075525 0.10687001 -0.14787821 -0.0061648055 0.26754203
-0.042043436 -0.20351174 -0.04568563 -0.11879345 -0.01891908 0.123840146 0.15267715 -0.12653255
-0.19747646 0.1273259 -0.14365675 0.039203383 0.061862268 0.064161435 0.0415676 -0.021738203
0.07901994 -0.0100509785 -0.050723884 -0.09748006 -0.1449905 0.05225192 -0.08327288 0.057509705
0.11800598 0.093346655 -0.08962043 0.063021414 -0.15663451 -0.045961574 -0.022147218 -0.0152772125
0.030170502 -0.07033998 -0.12830588 0.01731814 0.06830412 0.212649 -0.08832045 0.07712797
-0.019022398 0.115260296 -0.14049672 -0.10196366 0.03036568 0.13584729 0.0041465443 -0.11487267
0.024615714 -0.09377829 -0.06336468 -0.01887582 -0.0830126 0.058531564 -0.08575861 0.029400034
0.04912543 -0.075217366 0.07538817 0.043045837 0.12373398 0.0072381906 0.005106228 0.111172654
-0.17802274 0.16648865 0.050631955 0.08503991 0.054753203 0.08740745 0.1313341 0.15099037
-0.0040402003 -0.045933913 -0.21489675 0.1495614 -0.042966742 0.08533968 0.050031684 -0.02770935
0.027142595 -0.059839085 -0.1336975 -0.05724097 0.15964161 -0.027515104 -0.006179141 -0.04164969
-0.013964172 -0.08461573 -0.010974232 -0.030754704 0.013283654 0.115048885 0.04872298 -0.039210115
-0.072803214 0.066326044 0.076749116 0.011415657 0.058705963 -0.069790125 -0.1748438 -0.03419639
-0.066205315 -0.0528614 0.009502648 0.1160556 -0.08274775 -0.07200715 -0.009442436 0.10850229
0.071481526 0.045943707 -0.008952714 0.096993946 -0.10316046 0.009608436 0.010019145 0.05068615
0.020574618 -9.025694e-05 0.08189632 -0.106180966 0.021913065 -0.15902346 -0.10375556 0.0025009774
-0.16612135 0.0010795149 -0.027078176 -0.09698814 0.039247386 -0.16845997 -0.06795642 0.102431335
0.026528202 0.075807735 0.038247813 0.072707325 0.15521353 -0.013161763 0.2384645 -0.08701857
0.076683946 0.052408013 0.18490478 -0.024509994 0.21063676 -0.08941528 -0.06682826 -0.08070131
0.042060934 0.12310356 0.009426346 -0.042954624 -0.055011116 0.07760743 -0.06300434 0.13163976
-9.25912e-05 -0.042096402 -0.16300444 0.047409456 0.02942628 0.145417 0.07127033 -0.24105339
-0.12532957 -0.050238892 0.03902252 -0.057117272 0.098399624 -0.14660107 0.098656446 -0.0035952372
0.020772424 -0.0959295 0.021052562 0.076253906 -0.027721485 -0.13150252 0.10383109 -0.119624056
-0.082350805 -0.14984243 -0.033833224 0.052760497 -0.1268268 -0.075030886 -0.032759614 0.11460284
-0.115205325 0.023160657 0.117708676 0.034045234 -0.008692195 0.29712826 -0.016592136 0.17721966
0.08628453 -0.09110512 -0.07396999 0.059543017 -0.13477342 -0.11490797 -0.02893007 -0.04930939
-0.06269149 -0.008070334 -0.079424135 -0.09276987 0.14245276 -0.009234352 -0.018306056 -0.13480589
-0.053634465 -0.14041369 -0.19782677 0.036543965 -0.11106105 0.109263234 0.13391817 -0.060074776
-0.18348733 -0.042077877 -0.1311793 0.06471317 -0.01196699 -0.05969543 0.109308906 0.0516882

network_body._body_endoder.seq_layers.2.bias f4 [128]
00000000: 8e77 7bbc 9efe 023c bdd4 3b3c d15c c0ba
00000010: 9cb5 9f3c 9a94 4d3b 39c6 513b 2397 acbb
00000020: aaf6 9fba fd27 293c 96de 8b3a a39c 7bbb
00000030: 8c06 043c c426 fb3c 4042 adbc 9d1a d6bb
00000040: 6716 b6bb f0f6 853c a1ee c2bb e13c a1ba
00000050: bcc0 6e3c b365 8a3c d4ad edbb 4a2a ac3c
00000060: b1b3 503c fefe 4b3b 130a a13c c455 293c
00000070: 26f7 04ba 975c abbb a191 26bc b6cb 28bc
00000080: 15f5 9c3c db3e 36bc 0838 25ba ced3 493b
00000090: d181 c1bc 49e5 653b 688a b1bc 74d2 90bc
000000a0: a8dd c53c 0862 fc3c 98d7 733c b3fc 4b3c
000000b0: 0d6b 46b9 cfe0 a8bc 845a 07bc e065 4bbc
000000c0: c8d5 adba c5db c93c 0231 6bbc 830c f93a
000000d0: ab1b 9ebb 87f7 68bc f2ae 033d 4af3 55bc
000000e0: cca7 583c 6b45 f5ba 05bc 94bc 2c22 7b3c
000000f0: eee6 98bc 5710 ad3c b9d3 ee3b df50 323d
00000100: db7b bd3b a49e d73b 2f11 893c 0065 ddbb
00000110: 6587 1ebc 950e a2ba fc48 84bc b0b2 d53b
00000120: fc85 f63b 9156 07bd 44cc d3bb d588 f4bb
00000130: 6cd7 a2bc c873 2f3b fa6a 8c3c 4a26 cdbb
00000140: 7d5e f7bc 720d 94bc b1bf b23b c4cf 46bc
00000150: 33dc f93b f43f 213b 4ae4 b83c f348 833a
00000160: bae3 ac3b 1c6a 933b 5bd5 af3c a10a 0d3c
00000170: 5041 6a3c bd44 4fbc 1b42 bebc 8fe0 4f3c
00000180: 2226 74bb 62e3 b6bc e2c1 b83c b37e d2bb
00000190: 25d1 afbb d197 14bc 3e67 0c3b 6d1f d93b
000001a0: c5fc 13bc 1599 b03b d485 993c de2d e7bb
000001b0: 9797 28bd 6710 5dbc e844 c63c 9904 ea3c
000001c0: ff81 9b3c 2044 03bd 81b1 a7bc 7bb8 e63b
000001d0: d904 85ba bc47 c73c 8a7e bd3b 272a 71bb
000001e0: 5e73 7c3c ee4a 87bc 56b8 b63b 438f 7abc
000001f0: 640c 60bc 9fc6 9abb 5d62 fc3b e7c9 613b
-0.015348328 0.007995276 0.011464295 -0.0014676099 0.019495778 0.003136909 0.003200902 -0.0052670403
-0.0012204249 0.010324475 0.0010671194 -0.0038392923 0.0080582015 0.030658133 -0.021149755 -0.0065339343
-0.00555687 0.0163531 -0.005948857 -0.0012301469 0.014572319 0.016894197 -0.007253388 0.021016259
0.012738154 0.003112733 0.019658124 0.0103353895 -0.00050722284 -0.0052295434 -0.010166557 -0.010302475
0.019159833 -0.011123384 -0.00063026 0.0030796411 -0.023621472 0.0035079292 -0.021672443 -0.017678477
0.024153545 0.030808464 0.0148829445 0.012450385 -0.00018922631 -0.02061501 -0.008261327 -0.012414426
-0.0013262564 0.024640927 -0.014354946 0.0019000921 -0.0048250756 -0.014219171 0.032149263 -0.013058493
0.0132236 -0.0018712705 -0.018156061 0.015327971 -0.018664803 0.021125956 0.007288423 0.043534156
0.005782587 0.0065801907 0.016731827 -0.006756425 -0.009675835 -0.0012363965 -0.016148083 0.0065215454
0.0075232964 -0.03304154 -0.0064635593 -0.0074626007 -0.019878112 0.0026771892 0.017140854 -0.006260668
-0.030196423 -0.018072817 0.0054549803 -0.012134496 0.0076251267 0.002460477 0.022569794 0.0010016247
0.0052761706 0.004498733 0.02146404 0.008608491 0.014297798 -0.012650666 -0.02322488 0.012687816
-0.0037254174 -0.022325221 0.022553388 -0.006423795 -0.005365508 -0.009069399 0.0021423842 0.0066260607
-0.009032433 0.0053893426 0.018740572 -0.0070550283 -0.041160192 -0.01349268 0.024202779 0.028566645
0.018982885 -0.03204739 -0.020470383 0.0070410348 -0.001014854 0.024326198 0.005782907 -0.0036798806
0.015408365 -0.016515221 0.005576174 -0.015292945 -0.013674829 -0.0047233845 0.0077021555 0.0034452619

action_model._continuous_distribution.log_sigma f4 [1, 2]
00000000: 7688 a6be 1870 e8be
-0.32525986 -0.4539802

action_model._continuous_distribution.mu.weight f4 [2, 128]
00000000: 7e09 8d3c 9efb c6bc ed2f e9bb 6431 b33c
00000010: c0cd d1bd 87c5 2b3d 0de3 f83c 22c7 213d
00000020: 5e63 50bd 239b 273d def0 70bd 9043 4bbc
00000030: c26c 8d3c d1c1 73ba ca8f c63c e425 e5bb
00000040: 0dbd 62bc aabd e33c 63cc 6fbd 932e 2d3d
00000050: 7380 76bd 672e d5bc 1fd6 e43b 8594 57bc
00000060: b0fd ab3c f8f7 bbbc bcf3 b23c d474 473d
00000070: e1be 123d 41c3 93bb fe4f bb3c 1d65 a639
00000080: e412 7abd 1145 1c3d 9d30 bd3a a554 40bd
00000090: 63e4 123c ccb7 353c 2db1 133d a12e 613c
000000a0: 64ac ecbc b6dd 09bd 0cba d3bc d025 713a
000000b0: c223 31bc 57d3 3fbc 0ce9 9bbc 7f8e 713d
000000c0: 28d1 273d 7f72 cebc a289 dc3b 3cd4 063d
000000d0: 529f da3c 5861 b43c b6ed 9b39 d99b e7bc
000000e0: 0362 513c e204 113d f204 1d3d 4da8 52bd
000000f0: 4ccd 163a 2415 823c dc31 61bd 16c0 aebd
00000100: 3344 af3c de00 90bc 4fd7 abbd 5e99 9d3c
00000110: 6d93 bd3c d4df 07ba 22a5 b63b 20a9 e73c
00000120: ed09 8e3b cd4a ab3b 8bcd 623c 6919 153d
00000130: 4679 f8bc 88df afbc 391f 8a3d db44 5ebd
00000140: b58b 2a3c a374 d23c ebc2 16bd c2c2 e1bb
00000150: 7668 bb3c fcbe 4fbd cdc5 1bb9 217e 853c
00000160: 75f4 21bd b215 923c 45dd 4cbd 634b 40bb
00000170: 67ba 89bd d239 853c daa5 66bc 3dc7 82bc
00000180: e423 1abb dc12 9dbc 6be0 d7bb 7089 04bd
00000190: 1b71 be3a ef03 c83c 55be f7bc 27b7 583c
000001a0: 4240 9c3c bf2d 963d a0c9 4c3d 14de bbbb
000001b0: c5a7 cc3a d051 a33c 5ff2 65bc 824e 76bd
000001c0: 62fa afbd 248c b6ba 6d91 d53c 4ae3 64bb
000001d0: 5c5d 1c3d 7923 bb3c 5b06 15bd bcb8 283d
000001e0: 393f 3fbd da35 8ebb 47f6 10bc e67b 17bc
000001f0: 440f 853b 7bc6 d2bc 44e4 293d 8c57 8cbc
00000200: d97b c33c 9d1c 4bbc ca7c 92bc 6944 6a3d
00000210: acf6 a03c 88ee 273d 1072 023d daf2 8dba
00000220: d52f 5d3c c9fe 9dbc fdc1 bebb bd4c 8d3d
00000230: 170f d8bc 8bcc 28bd 2dcf d83b 4d06 afbc
00000240: f54b 2dbc 88af d23c 2a06 fe3c 4454 e13c
00000250: 9a07 763c e24b 80bc 1969 44bb c5a7 cf3c
00000260: 0ae5 62bd 81a8 2a3d 8a48 52bd 1ed9 d0bc
00000270: 189e 08ba d1d9 2abc a492 c0bb fa2d cebc
00000280: 3564 41bd 61b7 633c 025d 473d 6c07 5f3c
00000290: fabc 83bb c097 203d 0e1f e43c f921 9d3b
000002a0: f164 09bd 1674 73bd f9ea 2a3d 15d4 7cbd
000002b0: 08ff 433d ca02 703a 6f4e a93b e1c7 dd39
000002c0: 6dcd 993a 6925 303d c144 10bb eb5f af3c
000002d0: 7cd0 633b 6585 fa3c b9ec 683d 5e75 7f3b
000002e0: 7555 72bc ba0c 1abd 8a92 ce39 6963 493d
000002f0: 8ed1 94ba 658b 123d 59f4 0a39 36da c8bc
00000300: 9bc7 98bc a630 9cbc 78d6 53bc 1367 5bbc
00000310: f16a 173c 3cae a33c 6857 db3b 0709 4a3d
00000320: a7e8 883d 0aa2 9e3c 8750 3c3c 24d3 713c
00000330: 189b 853c 43d9 033c 300e 243c 5d37 06bc
00000340: 8d68 a53c 534c ba3c 9575 cb3c 8ba7 d23c
00000350: 1aaf a3bc fa5e 5e3b 8c02 3dbd 164b 8ebc
00000360: 9121 f0bb f398 63bc 3397 2bbd 6eb0 6abd
00000370: 35e9 5cbc c9cf 573c 149d 75ba 2574 fcbc
00000380: 1665 ee3c d909 4e3b 19a2 293d 80ff eabb
00000390: 45fa 243d 94e8 623d 9b65 013d eebf d5bc
000003a0: 5598 483c 1f50 8cbc 9366 57bc a4c5 0f3c
000003b0: ffdc 243c b35b 6d3c 44ab c3bc b14e a1bc
000003c0: 06ba 943b 7405 c13b 854b 733c 3b2a 7c3d
000003d0: 9529 e2bc 0272 1bbd 2909 ae3b cff7 3a3c
000003e0: 8706 30bb 91f4 593a b2a0 13bd 9065 4238
000003f0: 0f39 833d 80f0 5fbc 6037 82bc 230d 2fbc
0.01721644 -0.024289902 -0.007116309 0.021874137 -0.10244322 0.041936424 0.030381704 0.03949655
-0.050876014 0.040919434 -0.05882346 -0.012406245 0.017263774 -0.0009298595 0.024238486 -0.0069930423
-0.0138390185 0.0278004 -0.058544528 0.042280745 -0.060181092 -0.026023103 0.006983533 -0.013157968
0.020994991 -0.02294539 0.021844737 0.0486954 0.035826568 -0.00450936 0.022865292 0.00031737323
-0.06105317 0.038151804 0.0014434044 -0.046955723 0.008965584 0.011091184 0.03605764 0.013744027
-0.028890796 -0.033658706 -0.02584555 0.0009199055 -0.010811748 -0.011708102 -0.019032024 0.058973785
0.04097095 -0.02520108 0.0067302743 0.032917246 0.026687298 0.022019073 0.00029741012 -0.028272556
0.0127797155 0.035405047 0.038334794 -0.051430035 0.00057526375 0.015879221 -0.05497919 -0.08532731
0.021394825 -0.017578539 -0.08390676 0.01923817 0.023141587 -0.00051831943 0.0055738846 0.028278887
0.0043346793 0.005227423 0.013842951 0.036401186 -0.030331265 -0.021468893 0.067442365 -0.054264884
0.010409285 0.025690382 -0.036806982 -0.006889672 0.02287696 -0.050719246 -0.00014855638 0.016295495
-0.039539773 0.01783261 -0.050015707 -0.002934181 -0.067250066 0.016262922 -0.014077628 -0.015964145
-0.0023519928 -0.019174032 -0.006588032 -0.032357633 0.0014529558 0.024415938 -0.030242125 0.013227261
0.01907361 0.07332944 0.049996972 -0.005733261 0.0015613964 0.019936472 -0.014034837 -0.060133465
-0.085926786 -0.0013927263 0.026070321 -0.0034925514 0.038174972 0.022844063 -0.036383014 0.0411918
-0.046691153 -0.0043399157 -0.00884778 -0.009245848 0.0040606577 -0.025729408 0.041477457 -0.01713159
0.023862766 -0.012396959 -0.01788177 0.057194147 0.019648872 0.040998966 0.03184706 -0.0010829822
0.013500174 -0.01928653 -0.005821465 0.06899402 -0.026374383 -0.041210692 0.006616494 -0.02136531
-0.010577192 0.025718465 0.031008799 0.027506001 0.015016461 -0.015661184 -0.002996987 0.025348553
-0.05539421 0.041664604 -0.05133871 -0.025494155 -0.0005211546 -0.010427908 -0.005876856 -0.025168408
-0.047214705 0.013898701 0.048672684 0.013612609 -0.0040203305 0.03920722 0.02784684 0.0047953096
-0.03354353 -0.05943688 0.041727994 -0.061725695 0.04785064 0.0009155689 0.0051668207 0.00042301326
0.0011734195 0.043004427 -0.0022013637 0.021408042 0.0034761718 0.030581186 0.05686638 0.0038979868
-0.014790882 -0.037609793 0.00039400562 0.04916707 -0.0011353956 0.03577747 0.00013251732 -0.024518114
-0.018649867 -0.019066166 -0.012929551 -0.013391274 0.009241805 0.019980542 0.0066937692 0.049325015
0.06685 0.019364376 0.011493809 0.0147598125 0.016309306 0.008047405 0.010013148 -0.008191911
0.020191455 0.022741472 0.02483634 0.025714656 -0.019980956 0.0033931122 -0.046145007 -0.017369788
-0.00732822 -0.013891446 -0.04189224 -0.057297163 -0.013483335 0.013172098 -0.0009369415 -0.0308171
0.029100936 0.0031438975 0.041414354 -0.0071715713 0.040277738 0.055397585 0.03159104 -0.026092496
0.01224335 -0.017128048 -0.013147014 0.008775149 0.010062455 0.014487195 -0.023885377 -0.019690843
0.0045387773 0.0058905426 0.014849548 0.06156371 -0.027607718 -0.037950523 0.0053111506 0.011411621
-0.002685936 0.00083143363 -0.036041923 4.634779e-05 0.064073674 -0.0136681795 -0.015895545 -0.010684284

action_model._continuous_distribution.mu.bias f4 [2]
00000000: e8cb 2fbb 074e 39bc
-0.0026824418 -0.011310107
