results/ZaraImitation2/ZARAimitation/ZARAimitation-403453.pt (torch, 830217 bytes, 42 tensors)

network_body._body_endoder.seq_layers.0.weight f4 [128, 132]
0	0x3b3f4675	0.0029186283
1	0x3e6e9280	0.23298073
2	0xbdf54c3b	-0.119774304
3	0xbdf1a7a4	-0.11799553
4	0x3da94796	0.08265607
5	0xbd2204eb	-0.03955547
6	0xbd82bbf6	-0.06383507
7	0x3c94545a	0.018106628
8	0xbd98d1c5	-0.07461885
9	0xbe033c34	-0.12815934
10	0x3d5e3d48	0.05425766
11	0x3c846b98	0.016164586
12	0xbb0b0ca7	-0.0021217258
13	0xbc7ec4d8	-0.015549861
14	0xbdacfdea	-0.08446868
15	0x3dbe59bb	0.092944585
16	0x3c17010d	0.009216559
17	0x3e0c011f	0.13672303
18	0x3e0cf20c	0.13764209
19	0x3e37a37a	0.17933455
20	0x3d27bf75	0.040954072
21	0xbde79472	-0.113076106
22	0xbdef5e96	-0.11687963
23	0xbcaf53b9	-0.021402227
24	0x3db31fad	0.08746276
25	0xbd6297ca	-0.05532054
26	0xbb930bab	-0.004487475
27	0xbde791a7	-0.11307078
28	0xbd224281	-0.039614204
29	0xbd75530f	-0.059893664
30	0xbcfec505	-0.031099806
31	0x3cc3f05e	0.023918327
32	0x39c8dd5b	0.00038311895
33	0xbcaf3efd	-0.02139234
34	0xbcf74caf	-0.030187933
35	0xbda11ea2	-0.07867171
36	0x3e48b26a	0.1959931
37	0xbdeef24a	-0.11667307
38	0x3dcd8e6a	0.10036929
39	0xbd0c7580	-0.034291744
40	0x3cc15821	0.023601593
41	0xbd4e8340	-0.05041814
42	0xbe16d884	-0.14731032
43	0xbde1e971	-0.110308535
44	0x3dc08e38	0.09402126
45	0x3d685b6c	0.05672781
46	0x3ca69a35	0.020337204
47	0xbcad044c	-0.021120213
48	0xbbc64b37	-0.006051447
49	0xbd7d9eee	-0.061919145
50	0xbe37fe3d	-0.17968078
51	0x3c87d12f	0.016579239
52	0xbda3cd4b	-0.07998141
53	0xbe054720	-0.13015413
54	0xbdc482b4	-0.09595242
55	0x3d1ae2f0	0.03781408
56	0x3d039dfd	0.03213309
57	0xbbcfe729	-0.006344695
58	0x3e13801d	0.1440434
59	0xbd20530e	-0.039141707
60	0x3cf865d5	0.030321995
61	0x3c7824a3	0.015145454
62	0xbddaf405	-0.10691074
63	0x3d67f26f	0.056627687
64	0xbe1b8376	-0.15186867
65	0x3c70bee8	0.014693953
66	0x3e14ab5e	0.14518496
67	0x3da769f8	0.08174509
68	0x3ce03cd7	0.02737276
69	0x3d469ad5	0.048487503
70	0xbd8f8f6e	-0.07009779
71	0x3d4b86c7	0.04968908
72	0xbdef613c	-0.11688468
73	0xbdd39dc2	-0.10332824
74	0x3e0acd3e	0.13554856
75	0x3d9be30e	0.076116666
76	0xbca28af0	-0.019841641
77	0xbd9921aa	-0.07477124
78	0xbda4fbf1	-0.080558665
79	0xbdec469d	-0.11536906
80	0xbd94502a	-0.072418526
81	0xbcc83dbf	-0.024443505
82	0x3de08f2b	0.10964807
83	0x3e11cf73	0.14239292
84	0x3df2e6f0	0.11860454
85	0xbdc3880b	-0.095474325
86	0x3b36aa47	0.002787249
87	0x3ab3b8ea	0.0013711725
88	0x3c845dbb	0.016157975
89	0x3c7673b7	0.015042237
90	0x3be9a943	0.0071307733
91	0x3c339697	0.010961196
92	0xbc9f9705	-0.019481191
93	0x3d62debd	0.0553882
94	0x3e1425f3	0.14467601
95	0xbd2b2228	-0.04178062
96	0x3d0d1385	0.034442443
97	0x3d90671b	0.07050916
98	0x3da98a24	0.08278301
99	0xbd2de050	-0.04245025
100	0xbd8a58d5	-0.067552246
101	0x3d423ef0	0.047423303
102	0x3dd0a95c	0.10188553
103	0xbd89c7af	-0.0672754
104	0xbd30a571	-0.043126527
105	0xbdcd9e91	-0.1004001
106	0x3bed31a9	0.007238586
107	0x3c9da1ce	0.019242194
108	0xbcbe9a20	-0.023266852
109	0x3e2a0238	0.16602409
110	0x3d0c10c6	0.034195684
111	0xbd962685	-0.07331566
112	0x3912a8b7	0.00013986496
113	0xbc8b9d59	-0.017042803
114	0x3c9e8349	0.019349711
115	0xbd747cc0	-0.059689283
116	0x3dbbcb1d	0.091696
117	0xbe9b3006	-0.30310076
118	0x3ca363f3	0.01994512
119	0xbe263761	-0.16232063
120	0xbc31c369	-0.010849812
121	0x3e42bc11	0.19017054
122	0xbd578fd8	-0.052627414
123	0xbe25578f	-0.16146682
124	0x3c59779a	0.013273144
125	0xbb842c0d	-0.0040335716
126	0xbc806f8c	-0.01567819
127	0x3e3a276a	0.18179098
128	0x3d56edb3	0.05247278
129	0x3d98fa38	0.074696004
130	0xbe2c77f5	-0.16842635
131	0x3e098bfe	0.13432309
132	0xbc08e602	-0.008355619
133	0x3d764c82	0.060131557
134	0xbde5d5f7	-0.11222451
135	0x3a21642e	0.00061565905
136	0x3d984fde	0.074371085
137	0x3d992f9e	0.074797854
138	0x3d253b71	0.04033989
139	0xbe2bba32	-0.16770247
140	0x3dce8385	0.10083679
141	0xbd957cd3	-0.07299199
142	0xbd236493	-0.039890837
143	0x3de30747	0.110853724
144	0xbdd24086	-0.10266213
145	0x3d7adc3a	0.06124518
146	0x3d2b756b	0.041860025
147	0x3d35e5b3	0.04440851
148	0x3ca209ab	0.01978
149	0x3dda3386	0.106543586
150	0xbdd58d8e	-0.1042739
151	0x3d275c05	0.04085924
152	0x3d0ce3f5	0.034397084
153	0xbd8f19f0	-0.06987369
154	0x3de0b8d4	0.10972753
155	0x3e051269	0.12995304
156	0xbdfd8f2f	-0.12380826
157	0x3d52695a	0.051370002
158	0xbdc589ad	-0.096454
159	0xbc7bf2c9	-0.015377709
160	0xbdf25933	-0.1183342
161	0xbdb960da	-0.09051676
162	0x3e597a4b	0.21238057
163	0x3d5dbc81	0.05413485
164	0x3d93a2d2	0.0720879
165	0xbd5fe0cb	-0.05465774
166	0xbc0cb566	-0.008588171
167	0xbc7c110c	-0.015384924
168	0x3dc5cee4	0.09658602
169	0xbd9d0482	-0.076668754
170	0xbe147775	-0.14498694
171	0xbd82de8a	-0.06390102
172	0xbd95c1cd	-0.07312355
173	0x3c977298	0.01848726
174	0x3d11b108	0.03556922
175	0x3d9e621d	0.077335574
176	0x3cc2e07d	0.023788685
177	0xbd514253	-0.051088642
178	0x3d8c5961	0.06852985
179	0xbc80f379	-0.015741097
180	0x3d9680c8	0.07348782
181	0xbdd34c47	-0.10317283
182	0xbd857809	-0.065170355
183	0xbe471e86	-0.19445238
184	0x3d3e22c1	0.046419863
185	0x3d8d41fe	0.06897353
186	0xbdc8e7ac	-0.09809813
187	0x3e1ef421	0.15522815
188	0x3d8bdef6	0.06829636
189	0xbdaef4ef	-0.08542811
190	0x3d83fc5f	0.0644462
191	0xbd45731f	-0.04820549
192	0xbd5d4265	-0.054018397
193	0x3d180be1	0.037120704
194	0xbdbbbe51	-0.09167159
195	0x3df0a312	0.11749853
196	0x3d92ef49	0.07174546
197	0x3d8f705f	0.07003855
198	0xbc89fc5e	-0.01684397
199	0x3ce8241a	0.028337527
200	0xbdc47a38	-0.09593624
201	0xbddb0749	-0.10694749
202	0xbd7eea61	-0.06223524
203	0x3d2911f4	0.041276887
204	0x3d17aa84	0.03702785
205	0xbc3e164a	-0.011601994
206	0xbdd5f088	-0.10446268
207	0x3dc1a3a9	0.09455044
208	0xbd62b9de	-0.055353038
209	0x3dca2f94	0.09872356
210	0xbc273e6a	-0.010207752
211	0x3cfb6b12	0.030690704
212	0xbc38a094	-0.011268754
213	0x3dd0ae49	0.10189492
214	0xbddbb0f9	-0.10727114
215	0x3e357b7c	0.17722887
216	0xbaa247b4	-0.0012380988
217	0x3d4fe33e	0.050753824
218	0x3d54574d	0.05184107
219	0xbcc77e49	-0.02435221
220	0x3c0df170	0.00866352
221	0x3ca5b2a1	0.020226778
222	0x3db00c47	0.08596092
223	0xbd71a333	-0.05899353
224	0x3dbceb30	0.09224546
225	0x3dac0cba	0.08400865
226	0xba191e7d	-0.000584103
227	0x3dc0923c	0.09402892
228	0x3dad4641	0.084606655
229	0xbc341e70	-0.010993585
230	0xbda83b38	-0.0821442
231	0x3da58c14	0.080833584
232	0x3bebbb4e	0.0071939593
233	0xbd54c24e	-0.051943116
234	0x3ceec5c8	0.029147044
235	0xbc5aeae0	-0.013361663
236	0xbdfb8bee	-0.12282549
237	0x3c21c1e1	0.0098728845
238	0x3dce9575	0.100871004
239	0xbda532c4	-0.080663234
240	0x3d1cf56d	0.038319994
241	0xbdbaeb57	-0.09126919
242	0x3d0e510e	0.03474527
243	0x3ad94e0b	0.0016579045
244	0xbe04ef12	-0.12981823
245	0x3c23310b	0.009960423
246	0x3c566e96	0.013087889
247	0xbdcbad47	-0.099451594
248	0x3cd9c84d	0.026584769
249	0x3d5cb881	0.053886894
250	0x3d8e06e9	0.06934912
251	0x3c301869	0.010748007
252	0xbda5d62b	-0.0809749
253	0xbd806060	-0.06268382
254	0x3c71c80e	0.014757169
255	0x3e416ca5	0.18889101

network_body._body_endoder.seq_layers.0.bias f4 [128]
0	0xbc0c0167	-0.008545256
1	0xba2f6cba	-0.0006691922
2	0x3ca33a53	0.019925272
3	0xbc732b22	-0.014841827
4	0x3b0d470f	0.0021557247
5	0x3b38db74	0.0028206976
6	0x3c49cb24	0.012316499
7	0x3c5cf031	0.0134850005
8	0x3c939d0b	0.01801922
9	0x3c8fb888	0.017544046
10	0x3cba431c	0.022737078
11	0x3c135113	0.008991498
12	0x3c5534ab	0.013013045
13	0x3c91b0c7	0.01778449
14	0xbb9b1f51	-0.004733958
15	0x3bae07ce	0.005310989
16	0x3c45a0db	0.012062277
17	0x3c1da975	0.009622921
18	0x3d0eee61	0.034895305
19	0x3c622320	0.01380232
20	0xbcb91925	-0.022594998
21	0xbc15e7e6	-0.009149527
22	0xbcb6ad40	-0.022299409
23	0x3ba6c9ed	0.0050899894
24	0x3ca59634	0.020213224
25	0x3bc47ab1	0.0059960713
26	0x3cddf684	0.027095087
27	0xba17a387	-0.00057845603
28	0xbc9d1a83	-0.01917768
29	0xbc3ad1f8	-0.0114025995
30	0x3c3edb8c	0.011649024
31	0x3cc84d0b	0.0244508
32	0xbbc93113	-0.0061398833
33	0xbc053569	-0.00813041
34	0x3ca4ec2b	0.020132145
35	0x3ae8c47a	0.001775875
36	0x3c32f72f	0.010923191
37	0x3cafb005	0.021446237
38	0x3c72cb73	0.014819014
39	0x3c83a513	0.016069924
40	0x3c0f364a	0.008740971
41	0xbc99b4b3	-0.018762922
42	0x3c3512c6	0.011051839
43	0xbc7fcf20	-0.015613347
44	0x3c9fe6ac	0.019519173
45	0xbc466cd5	-0.0121109085
46	0xbb013806	-0.001971723
47	0x36bfc8b5	5.715609e-06
48	0xbbf5ef4d	-0.0075053335
49	0x3c832b8d	0.016011978
50	0x3cb9a94e	0.022663739
51	0x3c95e693	0.018298423
52	0x3b26b183	0.0025435395
53	0x3c9d3a1e	0.019192751
54	0xbc59cf13	-0.013293999
55	0xbc05e00f	-0.0081710955
56	0x3af77e94	0.0018882328
57	0x3cc3b516	0.02389006
58	0xbab1efa6	-0.0013575449
59	0x3b0c3406	0.0021393313
60	0x3aba9c41	0.0014237241
61	0x3cef8cdd	0.029241974
62	0x3c6db71b	0.014508988
63	0x3cc9a993	0.024616992
64	0x3cac8edc	0.021064214
65	0x3c6b56cf	0.0143639585
66	0xbc196bb4	-0.009364057
67	0xbc2d0dbe	-0.010562358
68	0x3c80cc8b	0.015722534
69	0x3d202aff	0.039103504
70	0xbc256065	-0.010093783
71	0x3c49d162	0.012317987
72	0x3cc703a1	0.024293723
73	0x3cf7e603	0.030261045
74	0xbbe40fa1	-0.006959871
75	0x3ac9ae4a	0.0015387025
76	0x3c84b48f	0.016199378
77	0x3c60d2b3	0.01372211
78	0x3c9cd083	0.019142395
79	0x3c213793	0.00983991
80	0x3ce2c201	0.027680399
81	0xbaa5cdd0	-0.0012649838
82	0x3b594e1d	0.0033158131
83	0x3c07a551	0.008279161
84	0x3b6d1861	0.003617786
85	0x3ca81c52	0.020521317
86	0x3c18c013	0.009323138
87	0x3c529902	0.012853863
88	0xbbc81bfe	-0.0061068526
89	0x3cbae554	0.02281443
90	0x3cd23a49	0.025662558
91	0x3b584550	0.0033000298
92	0x3bb56ee3	0.0055369004
93	0x3c93aff2	0.018028233
94	0xbc36cf72	-0.011157857
95	0xbc5cc95d	-0.013475743
96	0x3c149873	0.00906955
97	0x3cb92cae	0.022604313
98	0xbbc32a9c	-0.005956007
99	0x3c8baa42	0.017048959
100	0x3c7d486e	0.015459163
101	0xbceebc93	-0.029142654
102	0xbca817d3	-0.020519173
103	0x3cbd3d90	0.023100644
104	0x3a80b599	0.0009819745
105	0xbbba2010	-0.0056800917
106	0x3bef66d5	0.0073059597
107	0x3caac06c	0.020843707
108	0x3cb8ba91	0.0225499
109	0x3c3c0292	0.011475222
110	0x3d627362	0.05528582
111	0x3c9978ce	0.018734362
112	0x3c4c6ba3	0.0124768345
113	0x3c91e3c5	0.017808804
114	0x3ca1a8b9	0.019733774
115	0x3caf6fcd	0.021415615
116	0x3c651f40	0.013984501
117	0xbb948597	-0.0045325267
118	0x3c210b50	0.009829357
119	0xbc5595f7	-0.013036243
120	0xbc0decd3	-0.00866242
121	0xbb301620	-0.0026868656
122	0x3d0ddc22	0.034633763
123	0xbc261d6b	-0.01013885
124	0x3cc0e303	0.023545748
125	0xbbf33a6f	-0.0074227373
126	0xbcc42735	-0.023944477
127	0xbc14c4d4	-0.009080131

network_body._body_endoder.seq_layers.2.weight f4 [128, 128]
0	0xbcfbbec7	-0.030730618
1	0xbdb81a1a	-0.089893535
2	0x3d35e8b2	0.04441137
3	0xbd2a78bb	-0.041619044
4	0x3d1f68d3	0.038918328
5	0x3caa90bd	0.02082097
6	0xbd8a9ce5	-0.067682065
7	0xbc87e7da	-0.016590048
8	0x3d147e28	0.036253124
9	0x3d9f3151	0.07773078
10	0x3d9fc117	0.07800501
11	0xbdcbc518	-0.09949702
12	0x3dd08cf1	0.101831324
13	0xbd18af3c	-0.03727649
14	0xbb5d176d	-0.0033735887
15	0x3d839ec4	0.064267665
16	0xbd0387c5	-0.0321119
17	0x3e306115	0.17224534
18	0xbe5c56ea	-0.2151753
19	0x3c907bec	0.017637216
20	0xbd03965b	-0.032125812
21	0xbe07e5e7	-0.13271295
22	0x3d37a45b	0.044834476
23	0xbdfff125	-0.124971665
24	0xbe63a063	-0.22229151
25	0xbde5d6b1	-0.1122259
26	0x3e8fb401	0.2806702
27	0x3c7d74aa	0.015469709
28	0xbe1b66f4	-0.15175992
29	0x3d8edb66	0.06975441
30	0x3d92c1e7	0.0716589
31	0x3b525e97	0.0032099837
32	0x3e379f0c	0.17931765
33	0x3da0f30e	0.07858859
34	0x3d18e319	0.037325952
35	0xbd93ab8a	-0.07210453
36	0x3be0097c	0.006837068
37	0x3e5d2230	0.21595073
38	0x3e037136	0.12836155
39	0xbe836637	-0.2566392
40	0xbbd008c4	-0.006348701
41	0x3e0c5b8d	0.13706799
42	0xbcb2ba7c	-0.021817438
43	0x3d5dc74d	0.054145146
44	0xbe45b367	-0.19306718
45	0x3e08a8e3	0.13345675
46	0xbd1870c6	-0.037216924
47	0x3dc303bd	0.095221974
48	0xbe137388	-0.1439954
49	0x3dcf79c9	0.101306506
50	0x3dc4469e	0.09583782
51	0xbc89dcb1	-0.016828867
52	0xbe0092f6	-0.12556061
53	0xbd491157	-0.049088802
54	0xbd47abcf	-0.048747834
55	0x3ba27fcc	0.004959082
56	0xbc87e06a	-0.016586501
57	0xbc526025	-0.012840305
58	0xbdc70079	-0.09716887
59	0xbd87d9f2	-0.06633367
60	0xbdadffb1	-0.08496035
61	0x3d40771b	0.046988588
62	0xbd801604	-0.06254199
63	0x39d7e098	0.0004117533
64	0xbe402e6b	-0.18767707
65	0xbdfd7fde	-0.12377904
66	0xbdb45b5c	-0.08806488
67	0x3e1dbea3	0.15404753
68	0x3d15f1b9	0.036607478
69	0xbbfc4748	-0.007698927
70	0xbd96fba4	-0.073722154
71	0xbdc30f31	-0.09524382
72	0x3e056b12	0.13029125
73	0xbd58a898	-0.05289516
74	0xbe13705c	-0.1439833
75	0x3da893ac	0.08231291
76	0xbda143d3	-0.078742646
77	0xbd4882fd	-0.048953045
78	0x3d9c63c2	0.07636215
79	0x3de58c90	0.11208451
80	0x3d1b41b4	0.037904456
81	0xbcfa4a8b	-0.030553123
82	0xbc2ecdfa	-0.010669226
83	0xbddf04bf	-0.10889577
84	0x3cdd0063	0.026977723
85	0xbd7908ff	-0.060799595
86	0x3d5c157d	0.05373143
87	0x3d97fbfd	0.0742111
88	0xbd982cac	-0.074303955
89	0x3bf3cbb7	0.007440056
90	0xbbb18e81	-0.005418599
91	0xbdf25698	-0.11832923
92	0xbbeb77fe	-0.007185935
93	0xbd51789e	-0.05114042
94	0xbdb10429	-0.086433716
95	0xbe2aff72	-0.16699007
96	0xbd86d6b4	-0.0658392
97	0xbdc8cbef	-0.09804522
98	0xbd5a2b05	-0.053263683
99	0x3e18dec7	0.14928733
100	0xbde1e62f	-0.11030232
101	0xbc1afad1	-0.009459213
102	0xbdec8953	-0.1154963
103	0x3c90fd19	0.017698811
104	0x3db06f27	0.086149506
105	0x3d11d9d7	0.03560814
106	0xbc9b5f39	-0.018966304
107	0x3e6e4c4d	0.23271294
108	0x3e2a71a6	0.16644916
109	0x3d8d0be2	0.06887032
110	0x3d0f202f	0.034942802
111	0x3d689511	0.056782786
112	0x3e8c19b6	0.27363366
113	0xbe34a267	-0.17640077
114	0x3d814ace	0.06313096
115	0x3dd664e9	0.10468466
116	0x3d83a89b	0.06428643
117	0xbdb3e7bb	-0.087844335
118	0xbdad1d28	-0.08452827
119	0x3cb4d40b	0.022073766
120	0xbdc2d99a	-0.095141605
121	0xbcf9b899	-0.03048353
122	0x3e2e9a36	0.17051014
123	0x3d33f734	0.043936923
124	0xbe3207f2	-0.17385843
125	0xbd08ec85	-0.033428688
126	0x3dae5402	0.08512117
127	0xbe283e75	-0.16430075
128	0x3bfb18c0	0.0076628625
129	0xbced948e	-0.0290015
130	0x3d4804d2	0.048832722
131	0x3d1a4daa	0.037671722
132	0x3e1a503c	0.1506967
133	0x3d86ed74	0.06588259
134	0x3ce44f80	0.02786994
135	0xbc9bc861	-0.019016447
136	0xbd95e321	-0.07318712
137	0x3dd198ff	0.1023426
138	0xbdaf77d4	-0.08567777
139	0xbd6384b4	-0.055546477
140	0xbe498a01	-0.1968155
141	0xbc297a8f	-0.010344162
142	0xbda91523	-0.08255985
143	0x3dece120	0.11566377
144	0xbdde3485	-0.10849861
145	0xbd0e27a4	-0.034705773
146	0x3e1b1ff8	0.15148914
147	0xbda6cfda	-0.08145113
148	0x3daec57a	0.085337594
149	0xbce830db	-0.028343609
150	0x3db7e849	0.08979852
151	0x3c58af97	0.013225458
152	0x3d591bc7	0.053005006
153	0xbd8f6ddd	-0.07003377
154	0x3cdb5292	0.026772771
155	0x3e218562	0.15773538
156	0xbd475644	-0.048666254
157	0xbe05227d	-0.13001437
158	0xbc7b0423	-0.0153208105
159	0xbe2280ce	-0.15869448
160	0x3d058054	0.032593086
161	0x3de91106	0.113802
162	0x3d8bfe82	0.06835653
163	0xbdb26358	-0.087103546
164	0x3c988b93	0.018621242
165	0xbd9147de	-0.07093786
166	0x3ca584b1	0.020204874
167	0xbdf67dd4	-0.120357186
168	0x3d681d48	0.05666855
169	0x3d426c36	0.04746648
170	0x3b442fe9	0.0029935783
171	0x3dd3c4ab	0.10340246
172	0x3d86a507	0.06574445
173	0x3dd7dd9a	0.10540314
174	0xbd330e6d	-0.04371493
175	0xbd65f146	-0.0561383
176	0x3dcbb756	0.09947078
177	0x3ca01bee	0.019544568
178	0xbc2b2003	-0.010444644
179	0xbddacb94	-0.10683361
180	0xbd73dbb3	-0.059535693
181	0x3df92794	0.12165752
182	0x3cfc844d	0.030824805
183	0xbd768f59	-0.0601953
184	0x3d05f241	0.032701734
185	0xbe38bb1b	-0.18040125
186	0x3cc8ac16	0.02449612
187	0x3e419bbe	0.18907067
188	0x3d8b002d	0.06787143
189	0x3e1d5877	0.15365778
190	0xbdba456d	-0.09095273
191	0xbe00e71f	-0.12588166
192	0x3d92d4e2	0.071695104
193	0xbdae0b74	-0.08498278
194	0x3dc63ed3	0.096799515
195	0x3d7ca783	0.06168319
196	0x3d0c6b76	0.03428217
197	0x3b151893	0.0022750243
198	0x3d48b1c6	0.048997663
199	0x3dd61e7a	0.10455032
200	0x3d2c3efb	0.04205225
201	0xbda19037	-0.07888835
202	0xbd6ab52f	-0.057301696
203	0xbda9775d	-0.0827472
204	0xbd83c42f	-0.064339034
205	0xbd56beb9	-0.05242798
206	0x3e4affe1	0.19824173
207	0x3d1dd393	0.03853185
208	0x3d8819ae	0.06645523
209	0xbd8e2714	-0.06941047
210	0xbdaf0247	-0.08545356
211	0x3b147c45	0.0022657078
212	0x3e417c59	0.18895091
213	0xbc1f2c1e	-0.009715108
214	0x3d062da9	0.03275839
215	0x3d7aca08	0.06122783
216	0xbde38aac	-0.11110434
217	0xbd9e8fba	-0.077422574
218	0x3b16a9a3	0.0022989295
219	0xbd62dce4	-0.05538644
220	0x3a941f06	0.001130075
221	0x3b4a64d5	0.0030882854
222	0x3ddf3a35	0.10899774
223	0xbdcc4cc2	-0.09975578
224	0xbe0427a0	-0.1290574
225	0x3e2add62	0.16686013
226	0xbdd5cf83	-0.1043997
227	0xbc82bdd3	-0.015959656
228	0xbc8d8d5e	-0.017279323
229	0xbdb66af0	-0.089071155
230	0xbd1dcb9f	-0.038524266
231	0x3ccc5f2c	0.024947725
232	0x3ba008ce	0.004883862
233	0xbb91d542	-0.004450471
234	0xbd501c8b	-0.05080847
235	0xbd10ae8f	-0.035322722
236	0xbbda3a80	-0.006659806
237	0x3e24bc96	0.16087565
238	0xbc9b5602	-0.01896191
239	0x3c3eb770	0.011640415
240	0xbd2ebd44	-0.042660967
241	0x3d645aa0	0.05575049
242	0xbca4311f	-0.020042954
243	0x3a87b6b8	0.0010354137
244	0x3d2ef036	0.04270955
245	0x3db6da01	0.089283
246	0xbd57bf1b	-0.052672487
247	0xbd87d481	-0.06632329
248	0xbca5688e	-0.020191457
249	0x3bd397ba	0.006457296
250	0x3db25738	0.08708042
251	0xbe25c012	-0.1618655
252	0x3daf3777	0.08555501
253	0x3b8da45d	0.004322572
254	0x3d95a885	0.07307533
255	0x3c6409de	0.013918368

network_body._body_endoder.seq_layers.2.bias f4 [128]
0	0x3c9fe792	0.019519601
1	0xbb88580f	-0.004160888
2	0x3cb8d5fc	0.022562973
3	0xbb9f071c	-0.0048531424
4	0xbc1d0c08	-0.009585388
5	0xbacfe9e7	-0.0015862555
6	0x3b6c905b	0.0036096785
7	0x3b480a24	0.0030523622
8	0xbc29c4ef	-0.010361894
9	0xbba5a090	-0.005054541
10	0xba188b2c	-0.0005819078
11	0xbc85dc6b	-0.016340455
12	0x3c8d5ab4	0.017255165
13	0x3c4c17c8	0.012456842
14	0xbad49a10	-0.0016220231
15	0x39847f69	0.0002527193
16	0xbc50a69a	-0.012735033
17	0x3b4b29ae	0.0031000185
18	0x3ce22ec4	0.02761019
19	0x3c76ef81	0.015071751
20	0x3a63489c	0.00086701824
21	0x3cd559d5	0.026043812
22	0xbc9a10da	-0.018806864
23	0x3b9f49b1	0.0048610796
24	0x3c87c586	0.016573679
25	0x3c934ee5	0.017981956
26	0xbc04a8cf	-0.008096888
27	0x3d0a9e6d	0.033842493
28	0xbc28a9d9	-0.010294401
29	0xbc04b5cc	-0.008099984
30	0x3ade7fd5	0.0016975353
31	0x3c0b9ed3	0.008521753
32	0x3c5ef732	0.013608741
33	0x3c8f29d7	0.017476005
34	0x3c127b8c	0.008940589
35	0x3c83f9e4	0.016110368
36	0x3c3eec83	0.0116530685
37	0x3c92d5ae	0.017924156
38	0x3c6475b6	0.01394408
39	0xba1fa34d	-0.00060897024
40	0x3c583a51	0.013197497
41	0x3aeda163	0.0018129762
42	0x3caac77a	0.020847071
43	0xbbf79ea3	-0.007556753
44	0x3cb67167	0.022270871
45	0x3c43704a	0.011928627
46	0xbbccea87	-0.006253544
47	0xbc2f8404	-0.010712627
48	0x3c9238c6	0.017849337
49	0x3c573824	0.013135944
50	0xbc87bcea	-0.016569573
51	0x3cdec948	0.027195588
52	0x3cab0895	0.020878116
53	0x3bfba6a8	0.007679779
54	0xbc962eaf	-0.018332807
55	0xbbf122cf	-0.007358886
56	0x3c55bf40	0.013046086
57	0x3c810eb3	0.01575408
58	0x3abb6c16	0.001429918
59	0x3c3c24d0	0.011483386
60	0x3c439a09	0.01193858
61	0xbbc8afb9	-0.0061244634
62	0x3c30c055	0.010788043
63	0x3bd5dca3	0.006526546
64	0x3ac8e062	0.001532566
65	0x3c9ed495	0.019388476
66	0x3bd345d9	0.0064475355
67	0x3c1cc073	0.009567368
68	0xba6690f7	-0.0008795405
69	0x3c269822	0.010168107
70	0x3c21c2bf	0.009873091
71	0x3c14b114	0.009075422
72	0xb9ff75b8	-0.00048725097
73	0x3c1570d8	0.009121142
74	0xbc242bf6	-0.010020247
75	0xbb9101de	-0.0044252714
76	0x3ba95668	0.005167771
77	0x3c7cca3c	0.015429076
78	0x3c09103f	0.00836569
79	0xbc265176	-0.010151258
80	0x3ca38986	0.019963037
81	0x3ce59c8f	0.028028755
82	0xbad27f9c	-0.0016059759
83	0x3c8066f4	0.015674092
84	0x3bfb7660	0.0076740235
85	0xbb22347f	-0.0024750528
86	0xba8b1f41	-0.0010614173
87	0x3a9a06d4	0.0011751303
88	0xbbec7b2f	-0.007216833
89	0xbbacd75a	-0.0052746953
90	0xbb4fdba5	-0.0031716612
91	0xbc7773b5	-0.01510327
92	0x3bf9813e	0.007614284
93	0xbc01de6e	-0.0079265665
94	0xbc46fa89	-0.012144693
95	0xbc1cb3c2	-0.009564342
96	0x3b237700	0.0024942756
97	0x3bf80b37	0.0075696963
98	0x3c9fca33	0.019505596
99	0x3c7acd90	0.015307799
100	0x3cba2a9b	0.022725394
101	0xbb26064e	-0.0025333348
102	0x3c93a981	0.018025162
103	0x3bc2f920	0.005950108
104	0x3a50efa9	0.00079702825
105	0x3c45083f	0.012025892
106	0x3be3a27e	0.006946861
107	0x3b910bc1	0.00442645
108	0x3c56185e	0.013067333
109	0x3c7d6c83	0.015467766
110	0x3cd70e77	0.026252015
111	0x3cc824b6	0.024431568
112	0x3cc4843a	0.023988832
113	0x3c99a83e	0.018756982
114	0x3c5943d5	0.013260801
115	0x3ce72b7d	0.028218979
116	0x3ccc4365	0.02493448
117	0x3cbf4697	0.02334909
118	0x3c43ee30	0.011958644
119	0x3be01d16	0.006839405
120	0xbb0c6fd1	-0.0021428952
121	0x3bb94f9b	0.0056552417
122	0x3c99c436	0.018770318
123	0x3a78650f	0.0009475508
124	0x3c3f9107	0.011692292
125	0x3c737a48	0.014860697
126	0x3bd0c2c8	0.006370876
127	0xbb7089a4	-0.0036703134

action_model._continuous_distribution.log_sigma f4 [1, 2]
0	0x3b9397f2	0.0045041973
1	0xbd60121f	-0.05470478

action_model._continuous_distribution.mu.weight f4 [2, 128]
0	0x3b355fd7	0.0027675533
1	0xbcf2e8d4	-0.029652037
2	0x3b588c09	0.0033042452
3	0x3ca67828	0.020320967
4	0xbc778e16	-0.0151095595
5	0xbd625fe6	-0.055267237
6	0x3cb7e229	0.022446709
7	0xbd088f28	-0.03333965
8	0x3b6ed907	0.0036445276
9	0xbd177b3c	-0.03698276
10	0x3b0d6c90	0.00215796
11	0x3bac730d	0.0052627386
12	0x3cbe2285	0.02320982
13	0x3c77221d	0.015083817
14	0xbc31a5ec	-0.0108427815
15	0xbc360edf	-0.011111944
16	0xbc0db243	-0.008648458
17	0x3cec6b6d	0.028859818
18	0x3cf19ac7	0.029492749
19	0x3d16e7de	0.03684222
20	0xbcd2a2c1	-0.025712373
21	0x3c54331f	0.012951641
22	0x3cdd90f3	0.027046656
23	0xbd3f0d1a	-0.046643354
24	0xbb58e75d	-0.0033096888
25	0xbbe7253b	-0.0070539988
26	0xbc6e0d25	-0.014529501
27	0x3c44eda7	0.012019551
28	0xbc5dbe4e	-0.013534142
29	0x3ba5d564	0.0050608385
30	0xbb719d5b	-0.0036867473
31	0x3c73da76	0.014883628
32	0x3c929ebd	0.017897958
33	0x3d0d8c39	0.034557555
34	0x3b4b18f3	0.0030990213
35	0x3cf9d84c	0.030498646
36	0x3b555052	0.0032549095
37	0x3d192636	0.037389956
38	0x3d03502d	0.032058883
39	0xbbaea27e	-0.005329429
40	0x3cab641f	0.020921765
41	0xbc85c512	-0.016329322
42	0xbc40a7ab	-0.011758725
43	0xbc3777e5	-0.011198019
44	0x3cb502b5	0.022096017
45	0xbc7f3913	-0.015577572
46	0xbc2125a2	-0.0098356325
47	0x3c11456f	0.008866652
48	0x3b68a5e9	0.003549928
49	0x3bd46376	0.006481583
50	0x3c11343a	0.008862549
51	0xbc821097	-0.015877051
52	0xbb9534c5	-0.0045534098
53	0xbb80d35f	-0.0039314474
54	0x3abae2f3	0.001425831
55	0xbba671bc	-0.005079476
56	0xbc846f73	-0.016166424
57	0x3c08bb50	0.00834544
58	0x3c671cf8	0.014106028
59	0x3c590d17	0.01324775
60	0xbc1682b3	-0.009186435
61	0xbc4c636b	-0.012474875
62	0x3b4ee804	0.0031571398
63	0xbc7fef93	-0.015621084
64	0x3c0b5369	0.008503773
65	0xba93a706	-0.0011264987
66	0xbcb0dc0f	-0.021589307
67	0xbc1ecc00	-0.009692192
68	0xbbd931ea	-0.0066282647
69	0x3adf3a94	0.0017031007
70	0xbb95efd5	-0.0045757093
71	0xbc2f173e	-0.010686694
72	0x3acc6340	0.0015593544
73	0xbcfb3934	-0.030666925
74	0xbcd2bf68	-0.025726035
75	0xbcd0a4ab	-0.025469145
76	0xbc8ef856	-0.0174524
77	0x3bb81000	0.0056171417
78	0x3cb5582a	0.022136766
79	0xbd18ceab	-0.03730647
80	0xbc071c9c	-0.008246567
81	0x3a104e80	0.00055048615
82	0xbbebf499	-0.007200789
83	0x3b0065f5	0.001959202
84	0xbc42ef36	-0.011897853
85	0xbc88a6a6	-0.016681027
86	0xbd0f001a	-0.034912206
87	0xbbc09536	-0.0058771623
88	0x3c3bc728	0.011461057
89	0x3bf9205c	0.0076027345
90	0x3a12c7ae	0.00055992126
91	0xbbe654fb	-0.0070291734
92	0xbc5a8068	-0.0133362785
93	0x3b563f70	0.003269162
94	0xbbb3e392	-0.005489775
95	0xbbda52cd	-0.0066627027
96	0xbc35effe	-0.011104582
97	0xbbd5a119	-0.0065194485
98	0xba428456	-0.0007420232
99	0x3ccd3ed7	0.025054378
100	0x3b91e8ea	0.0044528143
101	0x3cffbd21	0.031218113
102	0x3ba1d25e	0.004938408
103	0x3ce703a1	0.028199973
104	0xbb9883e3	-0.004654394
105	0xbc2973ac	-0.01034252
106	0xbca66a12	-0.02031425
107	0x3d094515	0.033513147
108	0x3b9f4216	0.004860173
109	0x3caabe69	0.020842748
110	0x3c7eef03	0.0155599145
111	0xb9706c08	-0.00022928428
112	0xbc2eabfe	-0.010661123
113	0xbbe63e47	-0.007026467
114	0x3aa922ec	0.0012904084
115	0x3d038c00	0.032115936
116	0x3c73c100	0.014877558
117	0x3cfddda3	0.030989474
118	0xba5e660b	-0.00084838335
119	0x3d21e17d	0.039521683
120	0x3c9b0c49	0.018926756
121	0xbb50e512	-0.0031874818
122	0x3c18a6cf	0.009317114
123	0xbb622256	-0.003450533
124	0xb9d3eae0	-0.00040420052
125	0xba1f0e42	-0.0006067493
126	0xbc2023b1	-0.0097741345
127	0x3c7df293	0.015499729
128	0x3ca99089	0.020698803
129	0xbbc66ed5	-0.0060556927
130	0x3cdc89d0	0.026921183
131	0xbd9a59e1	-0.07536674
132	0xbce6b9e3	-0.02816481
133	0xbab2227c	-0.0013590599
134	0x3b9058bd	0.0044051097
135	0xbb21988a	-0.002465757
136	0xbce942d3	-0.028474247
137	0x3c3f1b8f	0.011664285
138	0xbcdb0768	-0.02673693
139	0xbd3dca4c	-0.046335503
140	0x3c9894ba	0.018625606
141	0x3bf8b251	0.0075896163
142	0xbd95c6bb	-0.073132955
143	0xbd0fe583	-0.03513099
144	0xbcc8a4db	-0.024492672
145	0x3c00a461	0.007851691
146	0x3ce0198f	0.027355937
147	0xbc2ab811	-0.010419861
148	0xbd55539c	-0.05208169
149	0x3d188a93	0.03724153
150	0xbc79cd67	-0.015246726
151	0xbd88b49d	-0.06675074
152	0x3cac8777	0.021060688
153	0x3c8e0984	0.017338522
154	0xbcbeb8fd	-0.023281569
155	0x3c2b3203	0.010448935
156	0xbd1db84d	-0.03850584
157	0xbbc4845b	-0.0059972233
158	0x3b811bbd	0.0039400742
159	0x3c1444a3	0.009049567
160	0x3cb4f008	0.022087112
161	0xbc815eba	-0.01579224
162	0xbce4cb8a	-0.027929086
163	0xbaa6fa98	-0.0012739478
164	0x3c9396fd	0.018016333
165	0x3ce5e34e	0.028062489
166	0x3c65555c	0.013997402
167	0xbd5dcc50	-0.054149926
168	0xbd3d11a1	-0.04615939
169	0xbc8dd2c5	-0.017312417
170	0xbd45166a	-0.04811708
171	0xbc1491ed	-0.009067995
172	0x3d0eed10	0.03489405
173	0x3cf2b3c4	0.029626735
174	0xbcfb4ceb	-0.030676326
175	0xbd0493cd	-0.032367516
176	0x3c89edf2	0.016837094
177	0x3c8269c2	0.01591957
178	0xba98a6fe	-0.0011646447
179	0x3b918a13	0.0044415086
180	0x3d1c7f05	0.038207073
181	0x3c1c11e8	0.009525754
182	0xbc98ddae	-0.018660393
183	0xbd030ec6	-0.03199651
184	0x3d635218	0.055498213
185	0x3bb4a034	0.0055122618
186	0xbc79bf55	-0.015243371
187	0x3c866270	0.01640436
188	0x3c958f2e	0.01825675
189	0xbd4c2ac7	-0.049845483
190	0x39deacf4	0.00042472
191	0xbbf0e9f3	-0.0073521077
192	0x3c012e47	0.007884569
193	0x3d159f69	0.03652898
194	0x3cb7ecfa	0.022451866
195	0x3c946b40	0.018117547
196	0xbc40b236	-0.011761239
197	0x3c53df78	0.012931697
198	0x3ca74b64	0.020421691
199	0xbd60f422	-0.054920323
200	0xbd435b49	-0.04769448
201	0x3cb8d672	0.022563193
202	0xbbbcef68	-0.005765844
203	0xba498949	-0.00076879986
204	0x3c601d32	0.013678836
205	0x3c5087eb	0.012727718
206	0x3bfa5915	0.007640014
207	0xbcca936f	-0.024728505
208	0x3d5f8902	0.05457402
209	0x3c189579	0.009312981
210	0xbb814460	-0.0039449185
211	0x3cc7b9ed	0.024380649
212	0xbd482055	-0.04885896
213	0xbd92c508	-0.07166487
214	0xbd0870bc	-0.033310637
215	0x3c5434d9	0.012952053
216	0xbcdff5b8	-0.027338848
217	0xbccb310d	-0.024803663
218	0xbcfd6fb1	-0.030937048
219	0xbd0ff896	-0.03514918
220	0x3c27f7dc	0.010251965
221	0xbd3ac634	-0.045599177
222	0xbccc8ca1	-0.0249694
223	0xbd355185	-0.044267196
224	0x3ca171a0	0.019707501
225	0x3c218a76	0.009859672
226	0x3cc528fd	0.024067396
227	0x3cbe89eb	0.023259124
228	0x3d041e7f	0.032255646
229	0xbd5f0029	-0.054443512
230	0x3ce2b675	0.027674893
231	0xbcef3156	-0.02919833
232	0x3b88c8f0	0.0041743442
233	0xbd39b6b1	-0.045340244
234	0x3c55a38e	0.013039483
235	0xbc5113ca	-0.012761066
236	0x3c4d21b2	0.012520241
237	0x3c76b9b7	0.015058926
238	0xbd41e8d6	-0.04734119
239	0xbd3f3ab0	-0.046686828
240	0x3c5d6d20	0.013514787
241	0xbd3e9d6e	-0.046536855
242	0x3ca4b947	0.020107878
243	0x3d520165	0.05127086
244	0x3d633ee0	0.055479884
245	0x3d17b436	0.037037097
246	0xbd8cab1f	-0.06868576
247	0x3b1ae818	0.0023636874
248	0xbb9c7d3b	-0.004775671
249	0x3cba5cb3	0.02274928
250	0x3d50fa9a	0.051020242
251	0xbd164187	-0.036683585
252	0x3caf72b0	0.021416992
253	0x3cf5a17a	0.029984225
254	0xbbf8c034	-0.007591272
255	0xbc96985e	-0.018383201

action_model._continuous_distribution.mu.bias f4 [2]
0	0x3b9068f7	0.004407044
1	0x3c9d7edb	0.019225528

action_model._discrete_distribution.branches.0.weight f4 [2, 128]
0	0x3d0d0021	0.03442395
1	0xbbe094d0	-0.0068536773
2	0xbc8e0c65	-0.017339895
3	0xbc37a716	-0.01120927
4	0x3bbc7ead	0.0057524056
5	0xba450306	-0.0007515404
6	0xbaf7fef4	-0.0018920586
7	0xbce66a23	-0.028126782
8	0xbcba6959	-0.022755312
9	0x3c5a1e80	0.013312936
10	0x3a85b317	0.0010200468
11	0xbd128ff4	-0.035781816
12	0x3c0be9c6	0.008539623
13	0xbcd18484	-0.025575884
14	0x3c122d9d	0.008922008
15	0xbd500633	-0.050787162
16	0x3b3f9b1d	0.0029236742
17	0xbc6879f2	-0.01418923
18	0xbd72f01e	-0.059311025
19	0xbd9e4cd1	-0.07729495
20	0x3c47428f	0.012161865
21	0x3c56ace4	0.013102744
22	0x39bf7bdf	0.0003652265
23	0x3abdaabe	0.0014470441
24	0xbd3f10ed	-0.046647
25	0x3cf1f5d7	0.02953617
26	0x3be643ba	0.0070271166
27	0x3cd50bf6	0.02600668
28	0xbd020406	-0.03174212
29	0xbaddb1f6	-0.0016913998
30	0xbc3050bb	-0.010761435
31	0x3cf0650f	0.029345063
32	0x3c2f8dcb	0.010714958
33	0x3c974eb5	0.018470148
34	0x3c538790	0.012910739
35	0xbd63d8c3	-0.055626642
36	0x3ccda23f	0.025101779
37	0xbc2984bf	-0.010346591
38	0x3c882956	0.016621273
39	0x3c1aa66f	0.009439095
40	0xbd32c2d0	-0.04364282
41	0x3cdab88a	0.026699323
42	0x3c6315a5	0.013860141
43	0xbcf6ee39	-0.03014289
44	0xbc55b158	-0.01304277
45	0x3d4098a1	0.04702056
46	0x3cab8586	0.020937692
47	0xbbcfb52d	-0.0063387365
48	0x3b9d5ad1	0.004802086
49	0x3bd1458f	0.006386466
50	0xb956f43d	-0.00020499616
51	0x3d00880d	0.031379748
52	0x3c64fe77	0.013976685
53	0x3d362a78	0.044474095
54	0xbbb4c445	-0.005516561
55	0x3c9a6577	0.01884721
56	0xbc9710a6	-0.018440556
57	0x3d4f3ecd	0.050597
58	0x3d820505	0.06348614
59	0xbd008bec	-0.03138344
60	0x3c873e5e	0.016509231
61	0x3b4a9a0c	0.0030914573
62	0xbc3be480	-0.011468053
63	0xbc82959c	-0.01594048
64	0xbb5444c7	-0.0032389627
65	0x3bc92aad	0.0061391206
66	0x3c50f21e	0.012753038
67	0xbc5e0a50	-0.013552263
68	0xbcadb3f5	-0.021203974
69	0xbd03beba	-0.032164313
70	0x3cde53c2	0.027139548
71	0x3d06a7c1	0.032874826
72	0x3cc76f7f	0.024345158
73	0x3d0e220f	0.03470045
74	0xbc81fba8	-0.01586707
75	0x3cfe53da	0.031045843
76	0x3b96a57a	0.004597363
77	0x3c9e631e	0.019334372
78	0xbc1914c8	-0.009343334
79	0x39853944	0.00025410403
80	0xbc1d8f03	-0.009616616
81	0xbd2a487b	-0.04157303
82	0x3cd05135	0.025429348
83	0x3c1beb5e	0.009516565
84	0xb91184f6	-0.0001387781
85	0x3c34290c	0.010996114
86	0x3ccafeeb	0.024779757
87	0x3c8d77b2	0.01726899
88	0x3bdb30a9	0.0066891504
89	0x3cc5cbb1	0.02414498
90	0xba9184cd	-0.00111022
91	0x3a774c9e	0.0009433719
92	0x3c6f1942	0.014593424
93	0xbd15fefc	-0.036620125
94	0xbbf5cc74	-0.0075011794
95	0xbc89dd6f	-0.01682922
96	0x3be8b6c8	0.0071018673
97	0xbc083d74	-0.008315433
98	0xbc91c32e	-0.017793264
99	0x3d0df147	0.034653928
100	0x3c1961a2	0.009361656
101	0xbbe7ba98	-0.0070718043
102	0x3c300744	0.01074392
103	0xbcfc2b05	-0.030782232
104	0x3cd325a0	0.025774777
105	0x3b911fd0	0.004428841
106	0xbc4a0dc8	-0.012332387
107	0xbc964b61	-0.01834649
108	0x3d4de7b9	0.050269816
109	0xbcdc03a8	-0.026857212
110	0x3d1470e2	0.036240466
111	0xba99b626	-0.0011727258
112	0xbd3024c4	-0.043003812
113	0x3c8f0ded	0.017462695
114	0xbb605be4	-0.0034234459
115	0xbc7a3bee	-0.015273077
116	0x3cb4b6b9	0.022059785
117	0xbd1539c6	-0.03643205
118	0x3d1855a8	0.037191063
119	0xbcd325a6	-0.025774788
120	0x3c0acb9f	0.008471399
121	0x3cef3ad9	0.029202865
122	0x3d1b01f9	0.03784368
123	0xbc8731f8	-0.01650332
124	0xbc1486ae	-0.009065313
125	0xbd1e6e83	-0.03867961
126	0xbce7dbc1	-0.028303029
127	0xbc19c342	-0.009384932
128	0xbd2963e8	-0.041355044
129	0x3c9f2943	0.019428855
130	0x3c2f76d8	0.010709487
131	0x3c7495e5	0.014928316
132	0xbbc58d83	-0.0060288324
133	0x3cb06573	0.02153275
134	0xb82c9ce3	-4.1154108e-05
135	0x3ca2ae26	0.019858431
136	0x3cf31aea	0.02967592
137	0xbc7672a9	-0.015041986
138	0xbc455d47	-0.012046165
139	0x3b018e26	0.0019768565
140	0xbbc0b74c	-0.0058812257
141	0x3caed9eb	0.021344146
142	0xbc0c98f0	-0.008581385
143	0x3d7d1523	0.061787736
144	0xbc85d02b	-0.016334614
145	0x3bf19901	0.007372976
146	0x3d32612f	0.043549713
147	0x3db08d24	0.086206704
148	0xbc93d116	-0.018044036
149	0x3b1f36a3	0.002429404
150	0x3a858987	0.0010188081
151	0x3b2d8a3c	0.00264801
152	0x3cc6804a	0.024231095
153	0xbd04ce3c	-0.032423243
154	0x3ca50eec	0.020148717
155	0xbd2c7bfa	-0.04211042
156	0x3d2ea316	0.042636
157	0x3c6e5ab1	0.01454799
158	0xbbb31cc4	-0.0054660756
159	0xbd20429b	-0.03912602
160	0xbbe3f4b6	-0.006956662
161	0xbd1b6fc5	-0.03794839
162	0xbcd7fcfe	-0.026365753
163	0x3d38bab4	0.04509993
164	0xbce96521	-0.028490605
165	0x3cf1e4d9	0.029528068
166	0xbd36dbfd	-0.04464339
167	0xbbe31e35	-0.006931091
168	0x3d22314e	0.039597802
169	0xbc147fd2	-0.009063678
170	0xbcdffb52	-0.027341519
171	0x3ced44c3	0.028963452
172	0xba6568f0	-0.00087512936
173	0xbd131c3e	-0.035915606
174	0x3a46deb4	0.0007586286
175	0x3be06473	0.006847912
176	0xbd42f892	-0.047600336
177	0xbbaa892e	-0.0052043414
178	0xbb9e6c49	-0.004834686
179	0xbd109187	-0.035295036
180	0xbb1ce5a5	-0.002394059
181	0xbd18d666	-0.03731384
182	0xbb18415a	-0.0023232312
183	0xbb4e8d29	-0.0031517243
184	0x3c1472bd	0.009060559
185	0xbd6135d5	-0.05498298
186	0xbd83006a	-0.06396563
187	0x3d024ac2	0.031809576
188	0xbcfd2724	-0.030902453
189	0x3be38cf1	0.0069442918
190	0x3cabb231	0.020958992
191	0x3d11e904	0.03562261
192	0x3b27ee71	0.00256243
193	0xbbb8ae0d	-0.005635983
194	0xbc9becba	-0.019033778
195	0x3b47d4d3	0.0030491843
196	0x3c447bf5	0.011992444
197	0x3d3efbfa	0.046627022
198	0xbcdcea4f	-0.026967196
199	0xbd0a505f	-0.033768054
200	0xbc4861f9	-0.01223039
201	0xbc9ca724	-0.019122668
202	0x3aa382de	0.0012474915
203	0xbce2a925	-0.027668545
204	0xbcfb9f4f	-0.030715613
205	0xbcdb2acf	-0.026753811
206	0x3cca9822	0.024730746
207	0xbbc2c7e2	-0.005944238
208	0xbc0beb30	-0.00853996
209	0x3d3b6678	0.04575202
210	0xbc69bd3d	-0.014266309
211	0xbaf36b77	-0.0018571456
212	0xbc98cf91	-0.018653663
213	0xbbdca9a8	-0.006734092
214	0x3ae5c1fd	0.0017529126
215	0x3bb05ef6	0.005382414
216	0x3bfe6197	0.0077630985
217	0xbb613094	-0.003436123
218	0x3c8ddd8e	0.01731756
219	0xbabb314e	-0.0014281662
220	0x3c10e494	0.00884356
221	0x3ce28f5a	0.027656246
222	0x3b8f7f88	0.0043792166
223	0xbbf37f7c	-0.007430969
224	0xbc8c94a5	-0.017160723
225	0x3ce7ac2c	0.02828034
226	0x3c9d63c0	0.019212604
227	0xbcfe2c31	-0.031026931
228	0x3beef45b	0.007292313
229	0xbac889ae	-0.0015299821
230	0x3b92ef89	0.004484121
231	0x3c70c7ca	0.014696071
232	0xbcc0d827	-0.02354057
233	0x3bacbd3e	0.005271583
234	0x3be23110	0.0069028214
235	0x3d0bab5d	0.03409897
236	0xbd05bfb0	-0.03265351
237	0x3ce29551	0.02765909
238	0xbc5a789d	-0.0133344205
239	0x3c2e75cc	0.010648202
240	0x3d377af2	0.044794984
241	0xbcc8059c	-0.024416737
242	0xbc31b1cb	-0.010845612
243	0x3c2b7d00	0.010466814
244	0xbd309677	-0.043112244
245	0x3d4d5286	0.05012753
246	0xbb342dfb	-0.0027493227
247	0x3cef11a8	0.029183224
248	0x3c322a71	0.010874377
249	0xbd29b710	-0.041434348
250	0xbc5311dd	-0.012882677
251	0xbc01581f	-0.007894545
252	0x3c12b88f	0.008955135
253	0x3cfd7853	0.030941164
254	0x3cedd9c5	0.029034505
255	0x3b5105ed	0.0031894401

action_model._discrete_distribution.branches.0.bias f4 [2]
0	0x3b31336c	0.0027038706
1	0xbb313365	-0.002703869

exp_avg f4 [128, 132]
0	0x36b7ea9f	5.4811385e-06
1	0x3665ad10	3.4224395e-06
2	0x379afa6b	1.847484e-05
3	0x37053fb6	7.942252e-06
4	0x379701cf	1.8001445e-05
5	0xb78fa20e	-1.7122391e-05
6	0x34aba3c9	3.1970401e-07
7	0x38318e46	4.233259e-05
8	0x37244302	9.790763e-06
9	0x37b79c3a	2.1888049e-05
10	0x37397cbb	1.10559e-05
11	0x364651a1	2.9551813e-06
12	0x37abed4b	2.0495287e-05
13	0x355a95a2	8.1429073e-07
14	0x378f9399	1.7115659e-05
15	0x36dc36ad	6.562876e-06
16	0x359ed045	1.1832532e-06
17	0x37c6d8d4	2.3704408e-05
18	0x3681dc28	3.870129e-06
19	0x372d7b8a	1.0340367e-05
20	0x358dab7b	1.0555226e-06
21	0x3723f220	9.771931e-06
22	0x37bb05ac	2.2294778e-05
23	0x361388a3	2.198424e-06
24	0x37a1130e	1.9201569e-05
25	0xb5a45f36	-1.2246662e-06
26	0xb50179ca	-4.823347e-07
27	0x380e5bc9	3.394092e-05
28	0x364f25e3	3.0867457e-06
29	0x375a5186	1.3012794e-05
30	0x3681c44e	3.8673525e-06
31	0x3753f5c4	1.2633802e-05
32	0x37b81353	2.1943508e-05
33	0xb651a5e3	-3.1239986e-06
34	0x3792dcff	1.7507466e-05
35	0x37759cbc	1.46396305e-05
36	0xb51aa8d1	-5.761513e-07
37	0x379dc3cb	1.8807032e-05
38	0x36246d6f	2.4501603e-06
39	0x36e40460	6.795439e-06
40	0x3787505e	1.6130678e-05
41	0x37443567	1.1694944e-05
42	0x37099584	8.200648e-06
43	0xb53d68e0	-7.05606e-07
44	0x379cbad4	1.8683648e-05
45	0x3754d0a3	1.2684762e-05
46	0x327def9f	1.4781022e-08
47	0x37d07d7e	2.4853969e-05
48	0xb615d7f5	-2.2328434e-06
49	0x36fe4c61	7.5786816e-06
50	0x367f8927	3.8077794e-06
51	0x3737db13	1.0958657e-05
52	0x37befccd	2.2767485e-05
53	0xb6148764	-2.2132526e-06
54	0x37b99e69	2.2127484e-05
55	0x37da1941	2.5999385e-05
56	0x31e93325	6.787007e-09
57	0x37c9421c	2.3991852e-05
58	0xb7763ec5	-1.4677357e-05
59	0x3577fe3c	9.238463e-07
60	0x362754ed	2.4934373e-06
61	0x37cb7131	2.4252195e-05
62	0x371a4217	9.194503e-06
63	0xb52649f8	-6.194746e-07
64	0x37b8b1a3	2.2017228e-05
65	0x37cbdb82	2.4301702e-05
66	0x35da166b	1.624879e-06
67	0x374d35c7	1.2231473e-05
68	0xb63e6a04	-2.8373915e-06
69	0x34a72bd4	3.1138063e-07
70	0x3612c913	2.1872736e-06
71	0x37cc4204	2.4349436e-05
72	0x3709e406	8.218927e-06
73	0x3517abf1	5.650209e-07
74	0x37ba8fb6	2.2239848e-05
75	0x379523b2	1.7778806e-05
76	0x35019219	4.8268845e-07
77	0x37425d86	1.1585076e-05
78	0x36b7ae1f	5.4740954e-06
79	0x369fd8a7	4.763791e-06
80	0x36328748	2.660281e-06
81	0x3781cd86	1.5473703e-05
82	0x37623860	1.3483776e-05
83	0x36787f5e	3.7029017e-06
84	0x37cb8986	2.4263525e-05
85	0x36a5d228	4.9418486e-06
86	0x352bffb5	6.4074567e-07
87	0x3793384e	1.7549984e-05
88	0x374c7b70	1.2188088e-05
89	0x373aa0f2	1.1123937e-05
90	0x360644b6	2.000755e-06
91	0x3780f306	1.5371956e-05
92	0x3758994d	1.2910296e-05
93	0x36a90923	5.037656e-06
94	0x37d2fd4e	2.5151905e-05
95	0x36f08012	7.1674667e-06
96	0x36398bb8	2.7648475e-06
97	0x37974d79	1.8036679e-05
98	0x36f6ae59	7.351668e-06
99	0x37440fcf	1.1686191e-05
100	0x3690a6d1	4.3109544e-06
101	0x3750edf9	1.2453173e-05
102	0x36bbcade	5.596651e-06
103	0x37596e48	1.2959885e-05
104	0x37d08079	2.4855357e-05
105	0x3700b1ed	7.670821e-06
106	0xb582e53f	-9.752474e-07
107	0x37ca69ba	2.412951e-05
108	0x3696d8ca	4.495586e-06
109	0x377c7c24	1.5049274e-05
110	0x36b7c1e3	5.4763964e-06
111	0x377bf393	1.5017477e-05
112	0x35f339c3	1.8121722e-06
113	0x375a595c	1.3014618e-05
114	0x37ca42ce	2.4111385e-05
115	0xb7191707	-9.124872e-06
116	0xb4c028e2	-3.5792533e-07
117	0x37e187f0	2.6885391e-05
118	0x37964ec5	1.7918073e-05
119	0x37cf9311	2.4744806e-05
120	0x37556276	1.2718714e-05
121	0x3737d87b	1.0958053e-05
122	0x377b6478	1.4984158e-05
123	0xb660292f	-3.3402573e-06
124	0x37b57019	2.1629081e-05
125	0xb665df68	-3.4253699e-06
126	0x00000000	0.0
127	0x39bba873	0.00035792924
128	0x3714969e	8.856556e-06
129	0x00000000	0.0
130	0x39cd92ce	0.00039210025
131	0x352fb1d3	6.545135e-07
132	0x3873a76c	5.809164e-05
133	0x379f1b66	1.8967035e-05
134	0x378c925a	1.675745e-05
135	0xb838148c	-4.3888154e-05
136	0xb8142e34	-3.532898e-05
137	0x38155a70	3.5608595e-05
138	0x36dccf86	6.58067e-06
139	0xb758d471	-1.2924066e-05
140	0x37ad54fd	2.0662783e-05
141	0x369f0526	4.7391686e-06
142	0x385201d2	5.0069597e-05
143	0x370f5402	8.543024e-06
144	0x3571a62d	9.0021314e-07
145	0xb720ceac	-9.584863e-06
146	0x35b2f658	1.3333729e-06
147	0xb7286cef	-1.0038943e-05
148	0xb701ab95	-7.728949e-06
149	0x37d77f9f	2.5689425e-05
150	0x3830300d	4.200642e-05
151	0x382b073a	4.0776307e-05
152	0x389bc837	7.428269e-05
153	0xb620d021	-2.3963005e-06
154	0x3751e352	1.2510298e-05
155	0xb8109280	-3.4468714e-05
156	0xb7887d66	-1.6270857e-05
157	0xb78cb1da	-1.677212e-05
158	0xb6ebb32a	-7.024403e-06
159	0x3825b44b	3.9506976e-05
160	0x380f84c2	3.4217497e-05
161	0x38289c04	4.0199622e-05
162	0x37dc485c	2.6259739e-05
163	0x37cd9089	2.4505209e-05
164	0x3560b711	8.37129e-07
165	0xb5e0b190	-1.6740978e-06
166	0x3692b588	4.372272e-06
167	0xb7b28e82	-2.1285614e-05
168	0xb77efcc3	-1.519843e-05
169	0x384dadf9	4.9037833e-05
170	0x381cc235	3.7374168e-05
171	0x38834c0d	6.260732e-05
172	0x36162c5e	2.2377567e-06
173	0x37697bdd	1.3916721e-05
174	0x370f987e	8.558969e-06
175	0x37d383c4	2.5214518e-05
176	0x37a41454	1.955979e-05
177	0xb712c554	-8.748222e-06
178	0xb815c890	-3.5711157e-05
179	0x37d119d9	2.4926778e-05
180	0x3891ab5d	6.946058e-05
181	0x38982d0b	7.256315e-05
182	0x37540492	1.2637249e-05
183	0x377e7687	1.5167177e-05
184	0xb6f864b7	-7.4027007e-06
185	0x37f7af1e	2.952624e-05
186	0x37fc64a5	3.0087607e-05
187	0xb8271086	-3.983129e-05
188	0xb7a1c1cd	-1.9282941e-05
189	0x37f89031	2.9631048e-05
190	0x38a68987	7.941113e-05
191	0x38e26b2b	0.000107964814
192	0x371761ac	9.023042e-06
193	0x36b9282f	5.5181076e-06
194	0x37914a8e	1.7320064e-05
195	0x37978e0d	1.806675e-05
196	0x37897def	1.6390315e-05
197	0xb7b083be	-2.1042182e-05
198	0xb7afde94	-2.0965272e-05
199	0x38bdf15a	9.0571775e-05
200	0x35b70687	1.3636462e-06
201	0x389911c3	7.298917e-05
202	0x37913c5d	1.7313456e-05
203	0x37cce39d	2.4424686e-05
204	0xb741bf21	-1.1548197e-05
205	0x37a59311	1.9738016e-05
206	0x371cd1a0	9.347132e-06
207	0xb80f7625	-3.4203887e-05
208	0xb6be6d0f	-5.6751373e-06
209	0x3844fc13	4.6964804e-05
210	0x3833b176	4.28422e-05
211	0x38bc3e4d	8.976143e-05
212	0x37d9d208	2.596622e-05
213	0x37f7ea7d	2.9553887e-05
214	0xb82a3a22	-4.05853e-05
215	0x3812c59b	3.4993147e-05
216	0x376b7688	1.4034689e-05
217	0xb8594872	-5.18043e-05
218	0xb7b92989	-2.207306e-05
219	0x382b1d93	4.079712e-05
220	0x38ae14b2	8.300821e-05
221	0x38c64d09	9.455725e-05
222	0x37b16034	2.1144842e-05
223	0xb7c21840	-2.3137894e-05
224	0xb8371adb	-4.365561e-05
225	0x38c87051	9.557664e-05
226	0x3809fb70	3.2897515e-05
227	0xb8827dd7	-6.2223226e-05
228	0xb75c574a	-1.3133345e-05
229	0x3896bd7e	7.187853e-05
230	0x38600047	5.340602e-05
231	0x38b54ade	8.644698e-05
232	0xb7cb385d	-2.4225732e-05
233	0x37325179	1.0628596e-05
234	0xb78af260	-1.6563747e-05
235	0x38a7f560	8.008885e-05
236	0x387281ce	5.7818186e-05
237	0xb7cba0fd	-2.4274452e-05
238	0xb58a9d8e	-1.0327656e-06
239	0x3784e804	1.5843667e-05
240	0x38791b29	5.939152e-05
241	0x386af926	5.6021985e-05
242	0xb7efb605	-2.857578e-05
243	0xb704a9b0	-7.907322e-06
244	0xb68a8d4c	-4.1291696e-06
245	0x38bde06d	9.054025e-05
246	0x387b5a58	5.9927203e-05
247	0xb75446e4	-1.265269e-05
248	0x378080db	1.5318792e-05
249	0x38022490	3.1028467e-05
250	0x37882cf7	1.6233402e-05
251	0x38526b70	5.016796e-05
252	0xb7c3654c	-2.3292981e-05
253	0xb6bed4bb	-5.6872063e-06
254	0xb7dc42b0	-2.6257097e-05
255	0x38dc8c29	0.00010516524

exp_avg_sq f4 [128, 132]
0	0x305daf0f	8.0648105e-10
1	0x2fc76c5d	3.6274886e-10
2	0x322b6c8b	9.97819e-09
3	0x2faae2c7	3.1083955e-10
4	0x3117fe81	2.211806e-09
5	0x305ae4c5	7.963304e-10
6	0x2f90e93c	2.635917e-10
7	0x322d69cb	1.009398e-08
8	0x2ffd8d08	4.612064e-10
9	0x31243d6e	2.390006e-09
10	0x3056e111	7.8172585e-10
11	0x300834f1	4.9551746e-10
12	0x322a8c36	9.927183e-09
13	0x2f87f38b	2.4729405e-10
14	0x31131236	2.1401667e-09
15	0x3041ed84	7.055052e-10
16	0x2f2def56	1.5819288e-10
17	0x322ed058	1.0175505e-08
18	0x303484cf	6.567235e-10
19	0x31338af4	2.6126914e-09
20	0x30568eb6	7.805555e-10
21	0x302e3b93	6.338549e-10
22	0x322196f7	9.405759e-09
23	0x2f972637	2.7493893e-10
24	0x310f26f1	2.0831374e-09
25	0x307f8a07	9.296461e-10
26	0x2ee63776	1.0469041e-10
27	0x3226ff26	9.720486e-09
28	0x3079fb90	9.0943164e-10
29	0x3144878a	2.8598799e-09
30	0x3053b946	7.702464e-10
31	0x308e6aef	1.0362252e-09
32	0x3215e44a	8.724848e-09
33	0x300a62bb	5.034441e-10
34	0x311ba47c	2.2648967e-09
35	0x308c90b1	1.0227464e-09
36	0x2ec278f6	8.8435856e-11
37	0x32251f8a	9.611435e-09
38	0x30b3ec11	1.3091058e-09
39	0x31605cec	3.264911e-09
40	0x3049a0d2	7.3351913e-10
41	0x30c00802	1.3972115e-09
42	0x320b4363	8.106187e-09
43	0x303c4672	6.849411e-10
44	0x312aaacd	2.4835345e-09
45	0x308574ce	9.710222e-10
46	0x2ec9fcd4	9.185333e-11
47	0x321d91a2	9.171716e-09
48	0x30cdec87	1.4982938e-09
49	0x317a1ca7	3.6396075e-09
50	0x305a419c	7.9401175e-10
51	0x30e72997	1.6819283e-09
52	0x3200c7ee	7.496039e-09
53	0x3089325d	9.982376e-10
54	0x313cd9d3	2.748142e-09
55	0x30811b90	9.393819e-10
56	0x2ed26b1a	9.5687194e-11
57	0x32147fcb	8.643791e-09
58	0x30f42cab	1.7766032e-09
59	0x318a07ec	4.017229e-09
60	0x306f8d48	8.7148466e-10
61	0x310a98bd	2.0168465e-09
62	0x31f05e44	6.995636e-09
63	0x309d900e	1.1464196e-09
64	0x31544fb6	3.089537e-09
65	0x3050c8c5	7.595527e-10
66	0x2ef1400c	1.0970788e-10
67	0x3212caa1	8.544391e-09
68	0x311192d9	2.118375e-09
69	0x319c4a5b	4.548651e-09
70	0x3049cc7d	7.341397e-10
71	0x3134a038	2.6284521e-09
72	0x31cd99c0	5.9837646e-09
73	0x30b007fc	1.2807955e-09
74	0x316a2f6f	3.4078445e-09
75	0x30631c58	8.26224e-10
76	0x2f28894b	1.5328287e-10
77	0x32078a3f	7.889468e-09
78	0x312c62d0	2.5085463e-09
79	0x31ab272f	4.9812097e-09
80	0x301efd3c	5.7839933e-10
81	0x313e26c1	2.7670668e-09
82	0x31c1c3d6	5.6393032e-09
83	0x30e82e47	1.6893374e-09
84	0x318326ce	3.8170134e-09
85	0x303c4c35	6.85023e-10
86	0x2f86aafe	2.4495955e-10
87	0x320050d8	7.468962e-09
88	0x314cb9b0	2.9791458e-09
89	0x31ba7483	5.4265583e-09
90	0x30181292	5.532367e-10
91	0x314362a1	2.8432299e-09
92	0x31aaf4de	4.9754894e-09
93	0x311b1884	2.2569404e-09
94	0x3193947b	4.2951434e-09
95	0x3029adda	6.17289e-10
96	0x2f9495f9	2.7027605e-10
97	0x31ebb311	6.8597577e-09
98	0x317bf4e0	3.6664503e-09
99	0x31ce25a9	5.9996705e-09
100	0x30393945	6.7383993e-10
101	0x3141e342	2.8214378e-09
102	0x319e0e15	4.600006e-09
103	0x31280795	2.4451527e-09
104	0x31a03600	4.662752e-09
105	0x3027b8fb	6.101712e-10
106	0x2fa1c709	2.9427152e-10
107	0x31d796cf	6.2744685e-09
108	0x31873a23	3.9356265e-09
109	0x31e45046	6.6447994e-09
110	0x3022ba25	5.9199784e-10
111	0x3150ef27	3.0403926e-09
112	0x31883f62	3.9653267e-09
113	0x314d52a6	2.9878406e-09
114	0x31b2d5ac	5.2047735e-09
115	0x3048dcf8	7.307359e-10
116	0x2fa449de	2.9883912e-10
117	0x31b872e2	5.3681655e-09
118	0x319b721b	4.524066e-09
119	0x31f9a3b8	7.2654665e-09
120	0x30629e14	8.2442964e-10
121	0x314eae9d	3.0076202e-09
122	0x31636b8f	3.3093988e-09
123	0x317ea712	3.7056833e-09
124	0x31c4455c	5.712236e-09
125	0x2f159dec	1.3607576e-10
126	0x00000000	0.0
127	0x35952073	1.1110809e-06
128	0x33a80f32	7.8258736e-08
129	0x00000000	0.0
130	0x34dbf2c7	4.0968573e-07
131	0x305188db	7.622824e-10
132	0x3251ed94	1.221942e-08
133	0x317fcd28	3.7224002e-09
134	0x331205d8	3.399859e-08
135	0x3299234d	1.7827597e-08
136	0x332561a2	3.8505853e-08
137	0x323d1e7e	1.1008181e-08
138	0x3132b958	2.6007765e-09
139	0x3316cc57	3.5110443e-08
140	0x32b78b38	2.1367313e-08
141	0x332c5723	4.012612e-08
142	0x3235a0f7	1.0572186e-08
143	0x31c67117	5.7754153e-09
144	0x33135f0a	3.4312542e-08
145	0x3283778a	1.5304767e-08
146	0x331d4d1b	3.6624538e-08
147	0x3211a542	8.477686e-09
148	0x310109be	1.8777508e-09
149	0x33140a6f	3.4468425e-08
150	0x32c059a0	2.2392499e-08
151	0x332ede7c	4.071488e-08
152	0x32213819	9.3841885e-09
153	0x3215d2c7	8.720867e-09
154	0x331a6186	3.5944616e-08
155	0x32726119	1.4108331e-08
156	0x331cec56	3.6536527e-08
157	0x320b7f28	8.119777e-09
158	0x30ede5a5	1.7309288e-09
159	0x33123cab	3.404845e-08
160	0x32b854dd	2.145901e-08
161	0x3329f653	3.957241e-08
162	0x320934b3	7.986432e-09
163	0x322d5b5e	1.00907e-08
164	0x33192951	3.5660666e-08
165	0x327505b1	1.4262171e-08
166	0x33193b50	3.5677033e-08
167	0x31dbe935	6.4002514e-09
168	0x3109980a	2.0022548e-09
169	0x331104e9	3.376491e-08
170	0x32bd69c1	2.2050587e-08
171	0x33314568	4.127415e-08
172	0x31e0de6b	6.544544e-09
173	0x323ec6b4	1.1104635e-08
174	0x3312eb16	3.4207083e-08
175	0x326c1827	1.37425e-08
176	0x33103477	3.357533e-08
177	0x31d001cc	6.053801e-09
178	0x312eca87	2.5435456e-09
179	0x330b1eb7	3.2391394e-08
180	0x32c9e64a	2.3504203e-08
181	0x33367eb9	4.249043e-08
182	0x31a89daf	4.90737e-09
183	0x3261ee92	1.3150968e-08
184	0x330d2bb4	3.286887e-08
185	0x326dd0a4	1.3842655e-08
186	0x330ee1fe	3.326749e-08
187	0x31debd01	6.4825376e-09
188	0x3148fe85	2.9248508e-09
189	0x32fb42ae	2.9250568e-08
190	0x32df6793	2.6007717e-08
191	0x33357dae	4.225665e-08
192	0x31c58383	5.7484058e-09
193	0x328c3df0	1.6326311e-08
194	0x32f835a4	2.8895393e-08
195	0x327a3faf	1.4566395e-08
196	0x330eb715	3.3228464e-08
197	0x31cb371a	5.914342e-09
198	0x3171e510	3.5200323e-09
199	0x32fb9c90	2.9291442e-08
200	0x32dfc3a7	2.604959e-08
201	0x33323457	4.1491457e-08
202	0x319688e7	4.3811386e-09
203	0x3292115c	1.7004531e-08
204	0x32ef4a86	2.7857151e-08
205	0x32867f15	1.5657443e-08
206	0x331062f8	3.3617624e-08
207	0x31c526f1	5.7378817e-09
208	0x318cd384	4.098583e-09
209	0x32f16ec2	2.810646e-08
210	0x32e05077	2.6113623e-08
211	0x3330c219	4.1154724e-08
212	0x31b580a2	5.282417e-09
213	0x3292f6d1	1.7108876e-08
214	0x32e03d72	2.6104974e-08
215	0x328bf220	1.6291835e-08
216	0x33128077	3.4110112e-08
217	0x31b5ee3f	5.2948788e-09
218	0x31a5ba6d	4.823326e-09
219	0x32dcb68a	2.569438e-08
220	0x32f160c9	2.8100105e-08
221	0x3333aaef	4.183215e-08
222	0x31c76e20	5.804182e-09
223	0x3286ac14	1.5677905e-08
224	0x32d3f802	2.4676414e-08
225	0x329c6e5f	1.8210981e-08
226	0x33154a31	3.4759243e-08
227	0x31b50dcc	5.269362e-09
228	0x31c73ed8	5.7988068e-09
229	0x32dfd481	2.6057252e-08
230	0x32e901c8	2.712558e-08
231	0x3332856b	4.1565198e-08
232	0x31b84892	5.363355e-09
233	0x3283a423	1.5325048e-08
234	0x32d352d5	2.46013e-08
235	0x32ae2373	2.0272386e-08
236	0x331aa019	3.6001527e-08
237	0x31a8b7f2	4.9103557e-09
238	0x31e3bfe7	6.6283863e-09
239	0x32d974ee	2.5315298e-08
240	0x32e6fb28	2.6889737e-08
241	0x3334d5ea	4.210407e-08
242	0x31950c4e	4.3378696e-09
243	0x32691c9e	1.3568892e-08
244	0x32cddb9d	2.396501e-08
245	0x32cae4ff	2.362003e-08
246	0x3324e675	3.8393825e-08
247	0x319f8be8	4.6434145e-09
248	0x320191e2	7.541958e-09
249	0x32d66a61	2.4961254e-08
250	0x32e10e0b	2.6199833e-08
251	0x33353dfe	4.2198728e-08
252	0x316b76d9	3.4264558e-09
253	0x32527566	1.2250302e-08
254	0x32c2cb13	2.267692e-08
255	0x32e41b74	2.6555178e-08
