results/ZaraImitation2/ZARAimitation/ZARAimitation-2999938.onnx (onnx, 310409 bytes, 13 tensors)

network_body.observation_encoder.processors.0.conv_layers.0.weight f4 [16, 4, 8, 8]
0	0x3c9fa97f	0.019490002
1	0x3d8d96d0	0.06913531
2	0xbba740f1	-0.005104177
3	0x3cc27098	0.02373533
4	0xbcfd8e90	-0.030951768
5	0xbbbae8ce	-0.005704022
6	0x3d522149	0.051301274
7	0x3c846144	0.016159661
8	0x3de3809b	0.11108514
9	0x3d0916d2	0.03346903
10	0x3bcb9501	0.006212831
11	0xbcdc558c	-0.02689626
12	0x3cd52cf1	0.026022406
13	0x3d38a51d	0.04507934
14	0x3d01e67c	0.031713948
15	0x3d8996c3	0.06718209
16	0x3da4db5e	0.080496535
17	0x3d430fbc	0.047622427
18	0xbcb32f1d	-0.021873051
19	0x3d961a78	0.07329267
20	0x3db0e990	0.086382985
21	0xbc9c7782	-0.019099955
22	0xbc85e00b	-0.016342184
23	0xbd72ac07	-0.05924609
24	0xbc1b80f6	-0.009491196
25	0xbc8e474c	-0.017367981
26	0x3c917700	0.017756939
27	0xbce7154e	-0.028208401
28	0xbc0b5e29	-0.008506336
29	0xbd0f349e	-0.03496229
30	0xbc1a5427	-0.009419478
31	0x3d91887b	0.0710611
32	0xbdaeb98a	-0.085314825
33	0xbdff8e4c	-0.12478313
34	0xbd8e72ca	-0.06955488
35	0x3ce078c8	0.027401343
36	0xbd536fc9	-0.05162028
37	0x3d8041ef	0.06262576
38	0xbd7075fc	-0.05870627
39	0xbd346ca7	-0.04404893
40	0x3d45fefe	0.048338883
41	0xbadd5160	-0.0016885214
42	0x3b808eba	0.0039232643
43	0xbd6058b5	-0.054772098
44	0xbd4a22aa	-0.049349464
45	0xbd7915ef	-0.060811933
46	0xbb55c31b	-0.0032617513
47	0x3de52866	0.11189346
48	0xbb857b18	-0.004073512
49	0x3d0649df	0.032785293
50	0x3d6c57c2	0.05770088
51	0x3c949c1f	0.01814085
52	0xbd2f1f14	-0.042754248
53	0xbd540a25	-0.051767487
54	0xbd5aeba3	-0.053447377
55	0xbd65e3f6	-0.056125604
56	0x3d30097d	0.0429778
57	0x3d32b956	0.04363378
58	0x3d737dd0	0.059446156
59	0xbb7981d9	-0.003807178
60	0x3c9f56c3	0.01945055
61	0xbd2569de	-0.040384166
62	0xbc7aa649	-0.0152984345
63	0xbbcfa147	-0.0063363644
64	0x3d55945c	0.05214344
65	0x3d8ea484	0.069649726
66	0xbd05eb48	-0.032695085
67	0x3cce918f	0.025215892
68	0xbd7f9b06	-0.0624037
69	0xbd2ebe2b	-0.042661827
70	0xbcf4c1e0	-0.029877603
71	0xbcb41388	-0.02198197
72	0x3d8533cd	0.06504021
73	0xbc87cef2	-0.016578171
74	0x3c5b70f5	0.01339363
75	0x3c12b85f	0.00895509
76	0x3d9b9683	0.07597067
77	0x3c08a388	0.00833977
78	0xbd3b3a82	-0.045710094
79	0x3d2be568	0.041966826
80	0xbd2ecda9	-0.0426766
81	0xbc9e7230	-0.019341558
82	0x3c9577dd	0.018245632
83	0x3d463545	0.048390646
84	0x3cea98a4	0.028637238
85	0xbc9019ac	-0.017590366
86	0xbcacb132	-0.021080587
87	0x3dc1bd10	0.09459889
88	0xbb0e6a32	-0.0021730778
89	0xbd6fe02e	-0.058563404
90	0xbb65c782	-0.0035061543
91	0xbd004dc9	-0.03132418
92	0xbd4113d2	-0.047138043
93	0x3d05fda9	0.032712612
94	0x3ca55ac8	0.02018489
95	0x397b9b2e	0.00023995034
96	0xbd040095	-0.032227118
97	0xbb85ddb8	-0.004085269
98	0x3b7f5f36	0.0038966662
99	0x3d01a835	0.031654555
100	0xbd6a555c	-0.05721031
101	0x3ca0a355	0.019609133
102	0x3db32c05	0.087486304
103	0xbbd6b409	-0.0065522236
104	0xbc09cec3	-0.008411112
105	0x3d0bacc0	0.034100294
106	0x3d19add9	0.03751931
107	0xbd8c392a	-0.06846841
108	0x3d6af0d6	0.057358585
109	0xbc00e66a	-0.007867435
110	0x3d9ee11d	0.07757781
111	0x3d28e922	0.041237958
112	0x3d685800	0.05672455
113	0x3d456952	0.048196144
114	0x3cb538d1	0.022121819
115	0x3d96b66c	0.07359013
116	0x3dc1b9a6	0.09459238
117	0xbba0f150	-0.004911579
118	0x3dd25fff	0.10272216
119	0x3de7782c	0.11302218
120	0x3cd6c69b	0.02621775
121	0x3d19e014	0.037567213
122	0x3c2914a5	0.010319863
123	0x3b93255e	0.0044905385
124	0x3dded625	0.108806886
125	0x3e09994e	0.13437387
126	0x3e07c620	0.13259172
127	0x3dea79e2	0.114490286
128	0x3dc5fae3	0.096669935
129	0x3d328846	0.04358699
130	0xbb832e7e	-0.004003345
131	0x3da62334	0.08112183
132	0xbba15ac5	-0.0049241506
133	0x3cc1292d	0.023579204
134	0xbd0c2fd3	-0.034225296
135	0xbd80c3b4	-0.062873274
136	0x3d81890e	0.06324969
137	0x3d95fb27	0.07323294
138	0x3d84cc24	0.06484249
139	0x3d83b7a5	0.06431512
140	0x3c52ee16	0.012874147
141	0x3c21ea67	0.009882546
142	0x3c151b2d	0.0091007175
143	0xbd77dbfb	-0.060512524
144	0x3d3dec3f	0.04636788
145	0xbd587254	-0.052843407
146	0x3d99ecf2	0.07515897
147	0x3d81b28f	0.063328855
148	0x3cd42cde	0.0259003
149	0x3c9c406a	0.019073684
150	0xbcc1f757	-0.023677511
151	0x3be632f9	0.0070251194
152	0xbc29b21c	-0.010357406
153	0x3d72f855	0.05931886
154	0x3de9ef3f	0.11422586
155	0x3db21419	0.086952396
156	0x3d89a06c	0.06720051
157	0x3d9d8060	0.07690501
158	0x3ceaa97b	0.028645268
159	0x3c9c5b35	0.01908646
160	0x3a7d3040	0.0009658374
161	0x3d6a5a40	0.057214975
162	0x3deae24d	0.11468945
163	0x3d9646c5	0.07337717
164	0x3d99f9b9	0.07518334
165	0x3df02db8	0.1172747
166	0xbccf2b4e	-0.025289204
167	0xbc010f01	-0.007877112
168	0x3c6e26da	0.01453563
169	0x3d928450	0.07154143
170	0x3dacceab	0.08437856
171	0x3da4fbd4	0.08055845
172	0x3d16a373	0.03677697
173	0x3cb40a31	0.021977516
174	0xbd63d221	-0.055620316
175	0x3da276d5	0.07932822
176	0x3dabc58b	0.08387288
177	0xbd35ad65	-0.044354815
178	0x3ccbe044	0.024887212
179	0x3d465e39	0.0484297
180	0x3d9cf5d4	0.076640755
181	0x3c488bad	0.012240333
182	0x3d4a5a11	0.0494023
183	0xba6c76fc	-0.00090204156
184	0x3d3a6698	0.045507997
185	0x3d5a469d	0.05329
186	0xbb96ca5f	-0.0046017612
187	0x3da28839	0.07936139
188	0x3dee0351	0.11621726
189	0x3b4c55c5	0.0031179052
190	0x3d198ad3	0.03748591
191	0xbd551bad	-0.052028347
192	0x3d62c410	0.05536276
193	0xbd17045a	-0.036869384
194	0xbca3d85b	-0.020000627
195	0x3b2a6134	0.002599788
196	0x3ba0891b	0.0048991567
197	0x3dc6da44	0.097095996
198	0x3d02b19b	0.03190766
199	0x3db9ce87	0.09072595
200	0xbd19a7f6	-0.037513696
201	0x3d6459b8	0.055749625
202	0x3b9d8e61	0.0048082327
203	0xbd557f14	-0.052123144
204	0xbca12476	-0.019670706
205	0x3c30e9dc	0.010797944
206	0x3d98604a	0.07440241
207	0x3decedfe	0.11568831
208	0x3cf636a0	0.030055344
209	0x3cc9fad3	0.024655735
210	0xbc539e7e	-0.012916205
211	0xbaac5634	-0.0013148249
212	0x3d8f5256	0.06998126
213	0x3cf14b74	0.029454924
214	0x3e00922a	0.12555757
215	0x3dec317e	0.115328774
216	0x3c440072	0.011962997
217	0x3add6699	0.0016891538
218	0x3d7ac780	0.061225414
219	0xbc83e723	-0.016101426
220	0xbc0a3b69	-0.008437016
221	0x3d2864ff	0.041111942
222	0x3e11e55d	0.14247651
223	0x3ddd0b26	0.10793142
224	0xbd9dcd62	-0.07705189
225	0xbd6e8405	-0.058231372
226	0x3ccbb1e0	0.02486509
227	0x3d9f8fea	0.07791121
228	0x3c8c18d7	0.017101688
229	0x3d25dcf7	0.04049393
230	0x3dc7a859	0.09748907
231	0x3de8c40f	0.1136552
232	0xbcd634cd	-0.026148224
233	0x3d06ec1d	0.03294002
234	0x3bdd2a6d	0.0067494423
235	0x3d64441b	0.055729013
236	0xbcb072db	-0.021539142
237	0x3c243d74	0.010024417
238	0x3dd12a31	0.102131255
239	0x3d613ae7	0.054987814
240	0xbd0381ea	-0.032106318
241	0xbd7422cc	-0.059603497
242	0xbcce090c	-0.025150798
243	0x3d882214	0.06647125
244	0x3d8a8061	0.067627676
245	0x3c9f9e32	0.019484613
246	0xbb0df377	-0.002166001
247	0x3c65b6bf	0.014020621
248	0xbc7172a1	-0.014736802
249	0xbd52f57d	-0.051503647
250	0xbd3fc658	-0.046820015
251	0x3dc43e25	0.09582166
252	0x3cbf59b3	0.023358202
253	0x3c8461a9	0.01615985
254	0x3d6fce21	0.05854619
255	0x3db0ce7d	0.086331345

network_body.observation_encoder.processors.0.conv_layers.0.bias f4 [16]
0	0xbc18d933	-0.009329128
1	0xbce9e450	-0.02855125
2	0x3d174f14	0.03694065
3	0x3c060a77	0.008181206
4	0x3db117b1	0.08647097
5	0x3cddabea	0.027059514
6	0xbbfc6dc6	-0.0077035157
7	0xbd268c76	-0.040661298
8	0xbc24f0fc	-0.010067221
9	0xbc04fec4	-0.0081173815
10	0x3d8677c3	0.065658115
11	0x3d62fdee	0.055417947
12	0xbc619549	-0.0137685025
13	0x3c87ba0d	0.016568208
14	0x3d2f867b	0.04285286
15	0xbc3f09e8	-0.011660077

network_body.observation_encoder.processors.0.conv_layers.2.weight f4 [32, 16, 4, 4]
0	0x3cf2a779	0.029620873
1	0xbd467f99	-0.04846153
2	0x3c99f57b	0.018793812
3	0x3d5a44bd	0.05328821
4	0x3c9ff2cf	0.01952496
5	0x3bf325fa	0.0074202986
6	0xbc9d8430	-0.019228071
7	0xbcb5b30e	-0.022180106
8	0xbcdefb20	-0.027219355
9	0xbce94275	-0.028474072
10	0xbd10aba6	-0.035319947
11	0xbc4bc1d3	-0.012436348
12	0x3a65fc97	0.00087732956
13	0x3d85f51e	0.06540893
14	0x3c0a9fc8	0.008460946
15	0xbd1e6d49	-0.03867844
16	0xbd4d669c	-0.050146684
17	0x3d76443b	0.060123663
18	0x3b74ca8f	0.003735218
19	0x3d40ccd0	0.047070324
20	0x3c55a20f	0.013039126
21	0x3cddee2a	0.027091105
22	0x3c0b6da5	0.008510028
23	0xbcbbfdfe	-0.022948261
24	0x3d137a11	0.036005083
25	0xbbf8dba6	-0.0075945435
26	0x3ce069fa	0.027394284
27	0x3ae045d3	0.0017110653
28	0xbc2d3422	-0.010571511
29	0x3c86ff7d	0.016479248
30	0xbc3ba7a1	-0.01145354
31	0xbd99257e	-0.07477854
32	0xbddbd87a	-0.10734649
33	0xbd25465e	-0.04035031
34	0xbd72febb	-0.05932496
35	0xbd83edf4	-0.0644187
36	0x3d781791	0.06056935
37	0xbc1128ee	-0.008859856
38	0xbd8103cd	-0.06299553
39	0xbd09dcee	-0.03365796
40	0x3ca79ccf	0.020460514
41	0xbd2db8ed	-0.042412687
42	0xbd89ca67	-0.06728058
43	0xbd5379a9	-0.051629696
44	0x3d50c507	0.05096915
45	0xbaebe1ac	-0.0017996333
46	0xbbde830a	-0.0067905234
47	0xbd6255a5	-0.05525746
48	0x3d2557c4	0.040366903
49	0x3d957ef5	0.07299606
50	0x3bd6b3cc	0.006552195
51	0x3d53088c	0.051521823
52	0x3d8d3ac5	0.06895975
53	0xbcdc26f4	-0.026874043
54	0x3d91eb2e	0.07124935
55	0x3bae1639	0.0053127077
56	0x3c6fc7d4	0.014635045
57	0x3d1cc623	0.038274895
58	0xbc9c5b0f	-0.019086389
59	0xbd26430f	-0.040591296
60	0x3b114a85	0.0022169661
61	0x3d65ccda	0.056103565
62	0x3d95445e	0.07288431
63	0xbc198a1b	-0.009371306
64	0x3ca543db	0.020173958
65	0x3ce1a93e	0.027546521
66	0xbc97d032	-0.018531892
67	0xbd1e3981	-0.03862906
68	0xbd605493	-0.054768156
69	0x3d4a8a9f	0.049448606
70	0x3c85e502	0.016344551
71	0x3d8f0842	0.06983997
72	0xbbc7e2d1	-0.0061000367
73	0x3d3a857e	0.045537464
74	0xbba40cac	-0.0050063934
75	0x3ae634d6	0.0017563354
76	0xbd20ea27	-0.039285805
77	0xbd8e6d9e	-0.069545016
78	0xbc1f6205	-0.0097279595
79	0xbd88108e	-0.066437826
80	0x3d3d7fb8	0.04626438
81	0x3b1b541b	0.0023701254
82	0x3d75577c	0.059897885
83	0xbda72faa	-0.08163388
84	0xbad4c1a3	-0.0016232025
85	0x3c9e47c4	0.01932133
86	0xbb3e00f0	-0.0028992258
87	0x3bcaf1c7	0.006193373
88	0x3d010989	0.031503234
89	0x3d103f09	0.035216365
90	0x3d4fa4bf	0.050694223
91	0xbd86b62c	-0.06577715
92	0x3dd31851	0.10307372
93	0xbd31a736	-0.043372355
94	0xbd23bc76	-0.039974652
95	0xbc0245e2	-0.007951232
96	0x3bb8e743	0.005642803
97	0x3dac745c	0.08420631
98	0x3d39dcab	0.04537646
99	0x3d9c3060	0.07626414
100	0x3d85ee04	0.065395385
101	0x3c7cfbb5	0.015440871
102	0x3cb19c2c	0.021680914
103	0xbd5939ff	-0.053033825
104	0x3b312608	0.0027030725
105	0xbcc9d806	-0.02463914
106	0x3d297c13	0.041378092
107	0xbd05041a	-0.032474615
108	0x3e12382b	0.14279239
109	0x3be49eca	0.006976937
110	0xbd920392	-0.07129587
111	0x3d56c385	0.052432556
112	0xbcb77f41	-0.022399547
113	0x3a28887e	0.00064290303
114	0xbda6f588	-0.081523
115	0x3ab2e763	0.0013649281
116	0x3b964fbb	0.0045871413
117	0xbd422534	-0.04739876
118	0xbd6135de	-0.054983012
119	0xb99d81d5	-0.00030042106
120	0x39bac518	0.0003562353
121	0x3d1267c3	0.035743486
122	0xbcca5cd3	-0.024702465
123	0xbcd53fb6	-0.026031356
124	0x3d3b76ba	0.045767523
125	0x3d906ccd	0.07052002
126	0x3d62ea5a	0.055399276
127	0x3c46e1ed	0.012138826
128	0xbcaa59c5	-0.020794759
129	0x3cedbd6d	0.02902099
130	0xbd3e819a	-0.046510316
131	0x3dd5f17e	0.104464516
132	0x3da736e1	0.08164764
133	0x3c9d6294	0.019212045
134	0x3d2f6561	0.04282129
135	0xbd26e044	-0.04074122
136	0xbcb48313	-0.022035157
137	0x3d51049c	0.051029786
138	0xbb1d82ab	-0.0024034183
139	0xbdcbbd95	-0.09948269
140	0x3bab83eb	0.0052342317
141	0xbd2b2271	-0.041780893
142	0xbcf14c93	-0.029455459
143	0x3d7e2ca9	0.06205431
144	0xbd8bd587	-0.068278365
145	0x3d8fd05c	0.07022163
146	0x3bf879c5	0.0075828754
147	0xbd8136ec	-0.06309304
148	0x3d7b3832	0.06133289
149	0xbc593a22	-0.013258489
150	0xbd877e42	-0.06615879
151	0xbda8d979	-0.082446046
152	0xbb1a5fcd	-0.0023555637
153	0xbd10ee11	-0.035383288
154	0xbd1de61d	-0.03854953
155	0xbd4640fe	-0.048401825
156	0x3d66c4a5	0.05633988
157	0x38fcebff	0.00012060254
158	0xbd80cdad	-0.062892295
159	0x3d4fd81f	0.05074322
160	0x3d871692	0.06596102
161	0x3d49a5e7	0.049230482
162	0x3d915648	0.07096535
163	0x3c9d2b73	0.019185757
164	0x3d5e7524	0.054310933
165	0x3d792eb8	0.06083557
166	0x3ae45aef	0.001742212
167	0x3cb51b06	0.022107612
168	0x3d768a50	0.0601905
169	0xbc4fbe98	-0.012679718
170	0xbcaf3233	-0.021386242
171	0xbb93069e	-0.004486873
172	0x3c956565	0.018236825
173	0x3be05d05	0.0068470263
174	0xbb9848d2	-0.0046473527
175	0x3cb9c598	0.022677228
176	0x3db5bdda	0.08874102
177	0x3cbff64d	0.023432875
178	0xbcfa45b8	-0.030550823
179	0x3d9d2305	0.07672695
180	0xbbc8fab3	-0.0061334013
181	0xbc43bd59	-0.0119469995
182	0x3db41de5	0.087947644
183	0xbd9bc4c7	-0.07605892
184	0xbd49c7f8	-0.04926297
185	0x3cea7a09	0.028622644
186	0xbd255702	-0.04036618
187	0x3d907118	0.07052821
188	0x3d9d20f8	0.07672304
189	0x3cae5424	0.021280356
190	0xbcec724b	-0.028863093
191	0xbd4de975	-0.05027147
192	0xbb6d5a1f	-0.0036217046
193	0x3be89f52	0.0070990706
194	0x3da6d938	0.081469
195	0x3d1fc224	0.039003506
196	0x3d3e7032	0.046493717
197	0x3d075868	0.033043295
198	0xbd4d74a4	-0.050160065
199	0xbc478e6e	-0.012179954
200	0x3d8bdef8	0.06829637
201	0x3d6f7607	0.05846217
202	0x3c07ae45	0.008281295
203	0xbcd2f3ab	-0.025750956
204	0x3dbeabce	0.09310113
205	0xbc9b8296	-0.018983167
206	0x3c89c904	0.016819485
207	0xbca8575f	-0.020549474
208	0xbcac9e65	-0.021071622
209	0xbd0fe1f0	-0.03512758
210	0x3dc2471c	0.09486219
211	0xbc093141	-0.008373559
212	0x3c9d8bb7	0.01923166
213	0xbc13672b	-0.008996765
214	0xbc85b9c9	-0.01632394
215	0x3d909f26	0.07061605
216	0x3c8fdc19	0.017561005
217	0x3d952714	0.07282844
218	0x3d03c671	0.03217167
219	0x3d7a87bb	0.0611646
220	0xbcfff7ba	-0.031246055
221	0x3cf24b34	0.029576875
222	0xbd3aef6e	-0.045638494
223	0xba02d014	-0.00049901125
224	0xbca5caf9	-0.020238386
225	0x3d2a8046	0.041626237
226	0x3dc9b0f2	0.09848203
227	0xbd872e89	-0.06600673
228	0x3cc2d09e	0.023781117
229	0x3c122500	0.008919954
230	0x3c9d6649	0.019213812
231	0xbb40fae9	-0.002944643
232	0x3ce48e71	0.027899953
233	0xbc7454a3	-0.014912757
234	0x3ca51871	0.020153256
235	0x3cddb4ec	0.02706381
236	0x3c963374	0.018335082
237	0x3da72ded	0.081630565
238	0x3c73bf98	0.0148772225
239	0xbc8c2920	-0.017109454
240	0xbbd511c0	-0.00650236
241	0x3d843a9f	0.064564936
242	0x3d071679	0.032980416
243	0x3bfddf8b	0.0077475957
244	0xbd8a8c21	-0.06765009
245	0x3d199a6d	0.037500788
246	0x3d9d2693	0.07673373
247	0x3ad5255a	0.0016261742
248	0x3d802d18	0.06258601
249	0x3d94e78a	0.07270725
250	0xbd1a114b	-0.037614148
251	0xbb7722c1	-0.0037709924
252	0x3de18079	0.11010832
253	0x3b1c31b1	0.002383333
254	0x3c055a6a	0.008139232
255	0x3b266635	0.002539051

network_body.observation_encoder.processors.0.conv_layers.2.bias f4 [32]
0	0xbbe38f4e	-0.0069445735
1	0x3c0ebb4c	0.008711647
2	0xbc518668	-0.012788393
3	0xba4c4c65	-0.0007793366
4	0x3ce275d6	0.02764408
5	0xbc9c7928	-0.01910074
6	0xbc0a0d45	-0.008426015
7	0x3d0e0565	0.034673113
8	0xbd0e3bbc	-0.034724936
9	0x3cb47a59	0.022030996
10	0x3c32206e	0.01087199
11	0x3d8a7d4d	0.067621805
12	0xbb7c5cf7	-0.003850756
13	0xbcc994db	-0.024607113
14	0x3d356adf	0.044291373
15	0xbd076dfb	-0.03306387
16	0xbd044aed	-0.032298017
17	0x3d80ac99	0.062829204
18	0xbd7e3a48	-0.0620673
19	0x3d2ff6fa	0.042960145
20	0xba9139d1	-0.0011079853
21	0x3d2c3b4d	0.04204874
22	0x3c8da6ae	0.017291393
23	0xbbf4f1ca	-0.0074751126
24	0x3b166587	0.0022948699
25	0x3cb7eb26	0.022450995
26	0x3c211f62	0.009834142
27	0xbd748aa8	-0.059702545
28	0xbd0da420	-0.03458035
29	0xbcad175d	-0.021129305
30	0x3cc677d8	0.024227068
31	0xbaca751e	-0.0015446281

network_body.observation_encoder.processors.0.dense.0.weight f4 [128, 32]
0	0x3e89abe8	0.26888967
1	0x3bd364c4	0.006451221
2	0xbe85a8a7	-0.26105234
3	0x3e4921df	0.19641827
4	0x3e8c43f1	0.27395585
5	0xbd813460	-0.06308818
6	0x3da6d803	0.0814667
7	0xbe2557ba	-0.16146746
8	0xbeb72a5b	-0.35774502
9	0xbd533fe3	-0.0515746
10	0xbde9ac05	-0.11409763
11	0xbe5326d4	-0.2062028
12	0x3e5f6003	0.2181397
13	0x3d2d77d4	0.042350605
14	0xbcd9b112	-0.026573692
15	0x3c60326c	0.0136838965
16	0xbede9ebe	-0.43480486
17	0xbd94a95f	-0.072588675
18	0x3eba1ba1	0.36349204
19	0xbe397d55	-0.18114217
20	0xbe5b3672	-0.21407488
21	0xbe51c280	-0.20484352
22	0x3e5b7982	0.2143307
23	0xbebfd3fa	-0.37466413
24	0x3e0c4378	0.13697612
25	0x3dfe6c87	0.12423044
26	0xbc320009	-0.010864266
27	0x3e9ae51f	0.3025293
28	0x3ee7950a	0.45230895
29	0x3e11c339	0.14234628
30	0x3ec23514	0.3793112
31	0x3def1fb8	0.11675972
32	0x3f282eac	0.65696216
33	0x3e333117	0.17499195
34	0x3e1954ec	0.14973801
35	0x3e17b869	0.1481644
36	0x3e072227	0.13196622
37	0xbdb08f93	-0.086211346
38	0xbe20ef75	-0.15716346
39	0x3eca1586	0.39469546
40	0x3db0e8ca	0.08638151
41	0x3e4f32ee	0.20234272
42	0xbd208b05	-0.03919508
43	0xbccd5987	-0.025067104
44	0xbedbb4ba	-0.4291132
45	0xbe5d7f66	-0.2163063
46	0xbded5f5b	-0.11590453
47	0x3ded3eb7	0.115842275
48	0x3e9cbcd0	0.30612803
49	0x3e0dba06	0.13840494
50	0x3ab83b76	0.0014055807
51	0x3d187139	0.037217353
52	0x3d521eb1	0.0512988
53	0xbd91e620	-0.07123971
54	0xbe882d90	-0.2659726
55	0xbe218058	-0.15771616
56	0xbeaf4649	-0.3423331
57	0x3ed0155a	0.4064129
58	0xbe55ae85	-0.20867355
59	0xbd982410	-0.074287534
60	0xbeefc9b9	-0.4683359
61	0xbe9c133e	-0.3048343
62	0x3e7a1b3f	0.24424456
63	0x3e48365f	0.19551991
64	0x3e5e518c	0.21710795
65	0x3e76130f	0.24030708
66	0x3e314e84	0.17315108
67	0x3ec3df7e	0.38256449
68	0xbe546fde	-0.20745799
69	0x3e0ec7c7	0.13943397
70	0x3dd0cff9	0.10195918
71	0xbde67619	-0.11252994
72	0x3e40ddc8	0.18834603
73	0x3eb89b98	0.3605621
74	0xbdb4d5ab	-0.088298164
75	0x3d5bd5ac	0.05367057
76	0x3e977540	0.29581642
77	0xbe873c61	-0.26413253
78	0xbe368397	-0.17823635
79	0xbcce0b94	-0.025152005
80	0xbe9d6313	-0.3073965
81	0x3e40f3fa	0.1884307
82	0x3e911b9d	0.2834138
83	0xbe89778b	-0.26849017
84	0xbec00fce	-0.37512058
85	0x3ec3bb51	0.3822885
86	0xbd539b14	-0.051661566
87	0x3e860abb	0.26180062
88	0xbdc8865f	-0.09791254
89	0xbdd126e0	-0.10212493
90	0xbccfe7aa	-0.02537902
91	0xbea94477	-0.33060047
92	0x3e17980e	0.14804098
93	0x3e3b66ef	0.18300985
94	0x3e0668f5	0.13125975
95	0x3b0e7d86	0.0021742298
96	0x3eeff5f1	0.46867326
97	0x3e8129af	0.25227115
98	0xbdc1b55b	-0.09458419
99	0xbd6abcf5	-0.05730911
100	0xbea77fdd	-0.3271474
101	0xbe81147e	-0.25210947
102	0xbd3614aa	-0.0444533
103	0xbd0c0372	-0.034182973
104	0x3f0b17ae	0.5433301
105	0x3e3bebb1	0.18351628
106	0xbe712f6b	-0.23553245
107	0x3f0a6571	0.5406104
108	0x3e0aaf3c	0.13543409
109	0x3e26829d	0.16260763
110	0x3f02e350	0.511281
111	0x3d72069e	0.059088342
112	0xbe65416a	-0.22388235
113	0xbe86bba1	-0.26315024
114	0xbe1f8d26	-0.15581188
115	0x3dcf91e8	0.10135251
116	0xbe620d1f	-0.22075318
117	0x3dcc059d	0.09962008
118	0x3d4e3517	0.0503436
119	0xbee6dd10	-0.45090532
120	0x3cfdead8	0.030995771
121	0x3df043e9	0.11731703
122	0xbe3a7d03	-0.1821175
123	0xbf296eff	-0.6618499
124	0x3f06d399	0.5266662
125	0xbea0b995	-0.31391588
126	0x3e43fcd5	0.19139417
127	0x3d0f950b	0.035054248
128	0x3e985971	0.29755738
129	0x3eb5762c	0.3544172
130	0x3e97ea2e	0.29670852
131	0x3ec9bfaa	0.3940404
132	0x3e0ada5e	0.13559863
133	0x3ee5eb80	0.44906235
134	0xbe4cf0ad	-0.20013686
135	0xbe730f04	-0.23736197
136	0xbddd03b9	-0.10791726
137	0x3dfb28da	0.12263651
138	0x3eb08e24	0.34483445
139	0xbe222ce6	-0.1583744
140	0x3c9a5e2d	0.018843735
141	0xbe62bfe9	-0.2214352
142	0x3c277ab4	0.010222126
143	0x3ce55661	0.02799529
144	0xbf0cdd3e	-0.5502509
145	0x3d1d2b83	0.038371574
146	0xbf189d99	-0.59615475
147	0x3eaf77da	0.34271127
148	0x3e15f73e	0.14645097
149	0x3e345b93	0.17613058
150	0xbe486061	-0.19568016
151	0x3d1a362f	0.03764933
152	0x3eeb199e	0.45917982
153	0xbe2f6e22	-0.17131856
154	0xbd1e3ca2	-0.038632043
155	0xbe920c34	-0.28524935
156	0x3f013c30	0.50482464
157	0xbe78a7ec	-0.24282807
158	0x3e35207a	0.1768817
159	0xbe8d8981	-0.2764397
160	0xbd2c9501	-0.04213429
161	0x3e6c26b2	0.23061636
162	0xbee0c9da	-0.43904
163	0x3f128789	0.5723806
164	0x3e685cc3	0.22691636
165	0x3e351276	0.17682824
166	0xbd506a3b	-0.05088256
167	0x3e6499e7	0.22324334
168	0xbdd4ba4f	-0.10387098
169	0x3d769025	0.06019606
170	0x3df05805	0.117355384
171	0xbef8170b	-0.4845508
172	0xbd8d4d36	-0.068994924
173	0xbe0d300b	-0.13787858
174	0xbd94ad31	-0.07259596
175	0xbe195d09	-0.14976896
176	0x3e4d3bde	0.20042369
177	0xbc969c8b	-0.018385192
178	0x3b728d9d	0.0037010678
179	0xbd2d12e5	-0.042254347
180	0x3ea6411e	0.32471555
181	0x3e13c445	0.1443034
182	0x3d00fbbf	0.031490084
183	0x3df0e118	0.11761683
184	0x3f10a32c	0.5649898
185	0x3ec00843	0.37506303
186	0xbd42a789	-0.047523055
187	0xbca5fde8	-0.020262673
188	0x3ea951be	0.33070177
189	0x3e40b8c7	0.18820487
190	0xbe7c0f74	-0.2461527
191	0x3e4a8654	0.19777805
192	0xbdccb963	-0.09996297
193	0xbda4288d	-0.08015547
194	0x3dd11088	0.10208231
195	0x3df1f190	0.118136525
196	0xbe504106	-0.20337304
197	0xbbb8040f	-0.005615718
198	0xbdaddf10	-0.084898114
199	0xbeb644b9	-0.35599306
200	0xbede56f0	-0.43425703
201	0xbe917cd0	-0.28415537
202	0x3d90b19a	0.07065125
203	0x3c81c190	0.015839368
204	0x3d745899	0.059654806
205	0xbd412fc0	-0.04716468
206	0xbdc03abb	-0.09386202
207	0x3d69e92a	0.05710713
208	0x3c457231	0.012051151
209	0x3e978291	0.29591802
210	0xbc2e326f	-0.0106321415
211	0x3da0423d	0.07825134
212	0xbdfa2683	-0.12214377
213	0xbe591cd4	-0.21202403
214	0x3e5c175d	0.21493287
215	0x3e1d3dc0	0.15355587
216	0xbd930860	-0.07179332
217	0x3cb32987	0.021870388
218	0xbe71ecc6	-0.23625478
219	0xbce937a1	-0.028468909
220	0x3d67e822	0.056617863
221	0xbdd5aa3b	-0.104328595
222	0x3efb79d9	0.491164
223	0xbe1f18f8	-0.15536869
224	0xbbe546d5	-0.006996969
225	0xbf259ca4	-0.6469214
226	0x3d2e44b6	0.042545997
227	0xbf0867bc	-0.53283286
228	0xbe91e725	-0.28496662
229	0xbe8f5475	-0.27994123
230	0x3d772ab5	0.060343463
231	0xbeb4492f	-0.35212085
232	0x3f01b66e	0.5066899
233	0x3e954b5e	0.29159063
234	0xbe39241c	-0.18080181
235	0x3e355bc8	0.17710793
236	0xbaf74744	-0.0018865843
237	0x3a0c40d7	0.0005350238
238	0xbec4a618	-0.3840797
239	0x3dcb0e52	0.09914841
240	0xbf08afe6	-0.533934
241	0x3e9cd22b	0.30629095
242	0xbbbae4be	-0.0057035377
243	0x3eaf01be	0.34181017
244	0xbe03d027	-0.12872373
245	0xbe531714	-0.20614272
246	0x3f1cb6ad	0.6121624
247	0x3eb7a94c	0.3587135
248	0xbe31b134	-0.17352754
249	0x3cb14f08	0.02164413
250	0x3d704c07	0.058666255
251	0x3dd8d8dd	0.105882384
252	0xbe8c6d01	-0.27426913
253	0x3e74a5ff	0.23891447
254	0x3dd9b900	0.10630989
255	0x3e410ded	0.18852969

network_body.observation_encoder.processors.0.dense.0.bias f4 [128]
0	0x3cbe8de4	0.023261018
1	0xbc3e876b	-0.011628966
2	0xbbe82684	-0.0070846695
3	0xba678a30	-0.0008832542
4	0xbb8233db	-0.003973467
5	0x3ce78641	0.02826226
6	0x3bb27af9	0.0054467884
7	0x3ce62c3a	0.02809726
8	0xbc323f27	-0.0108793145
9	0x3d4e51eb	0.05037109
10	0x3bf57803	0.007491113
11	0xbc585924	-0.0132048465
12	0x3d019b82	0.031642444
13	0x3d260407	0.040531185
14	0x3c2605be	0.010133205
15	0x3cf064a7	0.02934487
16	0xbc90fc4f	-0.017698435
17	0x3d4a723b	0.049425345
18	0x3d142a51	0.03617317
19	0xbcf622bc	-0.03004586
20	0x3d429daf	0.04751366
21	0xbc59a4ca	-0.013283918
22	0x3d31c069	0.043396387
23	0x3cee8bea	0.02911945
24	0x3d21888b	0.03943686
25	0x3bd8e121	0.0066186343
26	0xbd1cc2fc	-0.03827189
27	0x3cd299ae	0.025708046
28	0x3d5ae5a9	0.053441677
29	0x3bbdfb83	0.005797805
30	0x3d1ad219	0.03779802
31	0x3d35da82	0.04439784
32	0x3c6ac226	0.014328515
33	0x3cada181	0.021195175
34	0x3c1e7fbe	0.009674011
35	0x3d324861	0.043526057
36	0xbc2bcd24	-0.010485921
37	0xbccfd065	-0.025367925
38	0x3c5f86bb	0.013642962
39	0x3c3bc567	0.011460639
40	0x3bd85022	0.0066013495
41	0x3c97d614	0.018534698
42	0x3d40cd45	0.04707076
43	0xbc518314	-0.012787599
44	0x3be01a5c	0.00683908
45	0x3d15ec1f	0.036602136
46	0x3cc96600	0.02458477
47	0xbca67ae2	-0.020322267
48	0xbc5edb87	-0.013602144
49	0x3c27f657	0.010251603
50	0x3d4e7766	0.050406836
51	0x3c152043	0.00910193
52	0x3d09058b	0.03345255
53	0xbb264888	-0.0025372822
54	0x3bcad3a9	0.0061897826
55	0x3d1c61e1	0.038179282
56	0x3c949b6f	0.018140523
57	0x3c21ab41	0.00986749
58	0xbcb4168a	-0.021983404
59	0x3d4998db	0.04921804
60	0xbb50ce99	-0.0031861423
61	0x3b579fdc	0.003290168
62	0x3d1d01bd	0.038331736
63	0x3d62a358	0.055331558
64	0x3c9c1d86	0.019057047
65	0x3cd6a03d	0.026199454
66	0x3b2136ea	0.0024599382
67	0x3c953ec5	0.018218407
68	0x3d8cde00	0.06878281
69	0x3d78610f	0.060639437
70	0xbcc71342	-0.024301175
71	0xbb3fb1d7	-0.0029250288
72	0x39836e5f	0.000250685
73	0xbb5d0dfb	-0.0033730257
74	0x3c06ffd8	0.008239709
75	0x3db5e65b	0.088818274
76	0x3d209738	0.039206713
77	0x3c1bf27b	0.009518261
78	0x3c140a96	0.009035727
79	0x3c036042	0.008018555
80	0xbc52c8b5	-0.012865235
81	0x3c31c7f2	0.010850893
82	0x3b48c4a6	0.003063479
83	0x3b7f0ed5	0.0038918753
84	0xbc924f62	-0.017860118
85	0x3cbbce9a	0.022925664
86	0x3ccd39a4	0.0250519
87	0x3ccb3f85	0.024810562
88	0x3b18745e	0.002326272
89	0x3c7b0911	0.015321986
90	0x3cb03c7f	0.021513222
91	0x39c4bdb1	0.00037525364
92	0xbbd769eb	-0.0065739057
93	0xbc23ed20	-0.0100052655
94	0xbcba5026	-0.022743296
95	0xbbaa2489	-0.0051923436
96	0x3d35e289	0.044405494
97	0xbc378b5e	-0.011202661
98	0x3bbff6f4	0.0058582965
99	0x3cf63237	0.030053241
100	0xbb81814b	-0.0039521805
101	0xbc511c52	-0.0127631
102	0xbca779d9	-0.020443844
103	0x3a427540	0.00074179843
104	0x3c9ed872	0.019390319
105	0x3cc5053c	0.024050348
106	0xbd17a3b5	-0.037021358
107	0xbc0c3ab6	-0.00855892
108	0x3d4745f1	0.048650686
109	0x3d08f4f8	0.033436745
110	0x3d49bf00	0.049254417
111	0x3d1c7a4a	0.03820256
112	0xbc3643ed	-0.011124593
113	0x3d05fd61	0.032712344
114	0x3d7e80aa	0.062134422
115	0x3d2e88cd	0.042610932
116	0x3d896442	0.06708576
117	0x3b4ce79a	0.0031265975
118	0x3d051f24	0.0325004
119	0x3b62ac7d	0.0034587674
120	0x3ca9473f	0.020663856
121	0x3b4a3bd7	0.0030858421
122	0x3c44690b	0.011987935
123	0x3c30e1ea	0.01079605
124	0x3d83015d	0.063967444
125	0x3cb5f599	0.022211837
126	0x3dbe1de5	0.09283046
127	0xba1fd6a3	-0.0006097352

network_body._body_endoder.seq_layers.0.weight f4 [128, 338]
0	0xbdb5b9e4	-0.088733464
1	0x3c3764e0	0.011193484
2	0x3e26f57b	0.16304581
3	0xbbc6b01a	-0.0060634734
4	0xbd2f2c3e	-0.042766802
5	0xbd1d6b9d	-0.038432706
6	0xbd9d58be	-0.07682942
7	0x3c759ece	0.014991475
8	0x3d81e7ce	0.06343041
9	0x3dca9d5a	0.09893294
10	0x3d2b715e	0.041856162
11	0xbdd722a3	-0.10504653
12	0x3c90f397	0.017694278
13	0x3d41147b	0.047138672
14	0x3dfda9e6	0.12385921
15	0x3c7cfa28	0.015440501
16	0x3c487518	0.012234949
17	0x3d2130b7	0.0393531
18	0x3d6fd3cc	0.058551595
19	0x3d991de9	0.07476408
20	0xbd5b70dd	-0.05357443
21	0xbd47de28	-0.04879585
22	0x3d97997f	0.07402324
23	0x3d05f5e3	0.0327052
24	0xbbe0c682	-0.0068596015
25	0xbe15f1d0	-0.14643025
26	0xbc9ed7ca	-0.019390006
27	0x3ccdb46c	0.025110446
28	0x3d5d4079	0.054016564
29	0xbd979ec6	-0.074033305
30	0xbc119987	-0.008886701
31	0x3cc097d1	0.023509892
32	0x3c92c3d8	0.017915651
33	0x3de2cc31	0.11074103
34	0x3d811a24	0.06303814
35	0x3e1f80f8	0.15576541
36	0x3d3f069b	0.04663716
37	0x3e1e7ef1	0.15478112
38	0x3e433f40	0.19067097
39	0x3b9d67a2	0.0048036138
40	0xbd74b2d5	-0.05974086
41	0xbc815e8b	-0.015792152
42	0xbd434288	-0.04767087
43	0x3d8e79f9	0.06956858
44	0xbe2922a3	-0.16517119
45	0xbd0e1bdf	-0.03469455
46	0x3de73fdc	0.11291477
47	0xbacfb3b6	-0.0015846405
48	0xbd88ae4c	-0.066738695
49	0xbcb5c46f	-0.022188393
50	0x3d9d12de	0.07669614
51	0xbd3a7a96	-0.045527063
52	0x3d55ef16	0.052229963
53	0x3d31cb46	0.043406747
54	0xbdec15a9	-0.11527569
55	0x3d588c6c	0.05286829
56	0x3db542fc	0.08850667
57	0x3cfb0a89	0.030644672
58	0xbd9dcb46	-0.07704787
59	0x3daf5cea	0.08562644
60	0x3d0c819c	0.034303293
61	0xbdb571ac	-0.08859572
62	0xbc1c385b	-0.009534921
63	0x3dfad26f	0.12247168
64	0xbdbf7e1e	-0.09350227
65	0xbd566739	-0.052344535
66	0x3d5278d1	0.05138475
67	0x3a88122b	0.0010381391
68	0x3e178802	0.14797977
69	0xbdcecd58	-0.1009776
70	0x381c0c4d	3.7204754e-05
71	0xbaddd4c5	-0.0016924372
72	0x3d83fd90	0.064448476
73	0x3d121089	0.0356603
74	0x3da1f462	0.079079404
75	0x3b9138d0	0.0044318214
76	0x3da1b731	0.07896269
77	0xbd0d75a3	-0.034536015
78	0xbd5c4288	-0.053774387
79	0xbca04df2	-0.019568417
80	0x3d723289	0.059130225
81	0x3e153776	0.14571938
82	0x3d5e7e3d	0.05431961
83	0xbd33e38f	-0.04391819
84	0xbcf3e94b	-0.029774329
85	0x3d05e595	0.03268965
86	0x3d4a157c	0.049336895
87	0x3cb9ed88	0.022696272
88	0x3cfdb4a3	0.030969923
89	0xbdba9aa1	-0.091115244
90	0xbdbcab4d	-0.092123605
91	0x3df4bde5	0.11950282
92	0x3cdebcfe	0.027189728
93	0xbc89d4b7	-0.016825063
94	0x3c9bd42c	0.01902207
95	0xbd882869	-0.066483326
96	0xbd9cb10c	-0.076509565
97	0xbd7be9a9	-0.061502133
98	0x3d07104d	0.03297453
99	0x3d8eff72	0.06982316
100	0x3cc38d05	0.023870954
101	0x3d5aae8d	0.05338912
102	0x3ce5f877	0.028072579
103	0x3cb77ff1	0.022399874
104	0x3db4e536	0.08832781
105	0x3d6d2998	0.057900995
106	0xbdb2a131	-0.08722151
107	0x3c6bfb85	0.014403229
108	0x3dd89db6	0.10576956
109	0xbc9a792e	-0.018856611
110	0x3db7154d	0.0893961
111	0x3e1f97f1	0.15585305
112	0xbd8761ad	-0.06610427
113	0x3dd2beb4	0.1029028
114	0x3de078c0	0.10960531
115	0xbd866dec	-0.06563935
116	0x3e3f7100	0.1869545
117	0x3dde2343	0.108465694
118	0x3c660b12	0.014040725
119	0x3cce5f4a	0.025191922
120	0x3d99873d	0.07496498
121	0x3dbc65ef	0.0919913
122	0x3d3d6e46	0.046247743
123	0xbd3a566d	-0.04549258
124	0x3dc7aaed	0.097493984
125	0x3cc3e581	0.023913147
126	0x3d09cc3f	0.03364205
127	0xbb080a13	-0.0020757958
128	0xbcab2993	-0.020893848
129	0x3d2fe955	0.042947132
130	0xbd9fc62d	-0.07801471
131	0xbd945556	-0.07242839
132	0x3a9b4a92	0.0011847785
133	0xbc774c8b	-0.015093933
134	0x3d6d3fcf	0.05792218
135	0x3deab7ff	0.11460876
136	0x3d537968	0.051629454
137	0xbd5bfe46	-0.05370929
138	0xbdb7c4b4	-0.08973065
139	0xbe09a26b	-0.13440864
140	0xbbc5f50f	-0.006041176
141	0x3dddbb5f	0.10826754
142	0x3d9e177d	0.07719324
143	0x3b061941	0.002046183
144	0xbc22b823	-0.009931597
145	0x3cad74a6	0.021173786
146	0x3d71bfdb	0.05902086
147	0x3dbe4f89	0.09292514
148	0x3d5b496d	0.05353682
149	0x3df54788	0.11976534
150	0x3d1f6e69	0.038923655
151	0x3b2324ba	0.0024893717
152	0x3e1e6778	0.15469158
153	0x3cbdbbf8	0.02316092
154	0x3d34d6a0	0.044149995
155	0x39e9707c	0.0004452503
156	0xbb5d4779	-0.0033764525
157	0xbc73d79a	-0.014882946
158	0x3df0f8b2	0.11766185
159	0x3de5744c	0.112038225
160	0x3dabdeb8	0.083920896
161	0x3d1228d4	0.035683468
162	0xbe07d410	-0.13264489
163	0xbc1733d7	-0.009228668
164	0xbc178a35	-0.00924926
165	0xbd710c30	-0.058849514
166	0xbc452e28	-0.01203493
167	0xbd7fda80	-0.062464237
168	0x3c65515b	0.013996447
169	0x3d2a4ca3	0.041576993
170	0x3ca68b48	0.020330086
171	0x3dfca97d	0.12337015
172	0x3d837963	0.06419637
173	0xbce6a227	-0.028153492
174	0xbd0184e5	-0.03162088
175	0xbdd6388a	-0.10460003
176	0x3d31ca0e	0.043405585
177	0xbc401c96	-0.011725565
178	0xbdde7bd9	-0.10863466
179	0x3d7f5a3a	0.062341906
180	0x3d2d9ba7	0.04238477
181	0x3de93732	0.11387481
182	0xbd524527	-0.05133548
183	0x3d87f107	0.06637769
184	0x3dc93804	0.09825137
185	0x3c97a269	0.01851006
186	0xbdf61f78	-0.12017721
187	0xbdbbbb50	-0.091665864
188	0xbd0a5f6d	-0.03378241
189	0x3d87584c	0.06608638
190	0xbdbfc550	-0.09363806
191	0x3d025c83	0.031826507
192	0x3c70347d	0.014660952
193	0x3d3d1043	0.046158087
194	0xbe096780	-0.13418388
195	0x3dd2f652	0.10300888
196	0x3cf4cc65	0.02988262
197	0xbcc5cb28	-0.024144724
198	0xbde1304f	-0.10995542
199	0x3da48599	0.08033294
200	0xbcce5091	-0.025184901
201	0x3ca0746d	0.019586766
202	0xbd731e08	-0.059354812
203	0xbd3bc738	-0.045844287
204	0xbda32c2c	-0.079674095
205	0x3d0d4e80	0.03449869
206	0x3d4f3f9d	0.050597776
207	0xbbb0c2d3	-0.0053943186
208	0xbd438631	-0.047735397
209	0x3d77329c	0.060351
210	0xbdf840be	-0.121217236
211	0xbcca0624	-0.024661131
212	0xbd729414	-0.05922325
213	0xbd857097	-0.065156154
214	0xbd5af184	-0.053452983
215	0x3c902bd8	0.017599031
216	0x3c4d3dc8	0.012526937
217	0x3d6ccfd1	0.057815377
218	0xbd1064f4	-0.035252526
219	0x3d63b489	0.055592094
220	0xbc744ce2	-0.014910908
221	0xbd4d17a7	-0.050071385
222	0xbd2ba2ce	-0.04190331
223	0xbd560f53	-0.052260708
224	0x3e061907	0.13095485
225	0x3d8b973c	0.06815955
226	0x3d2122ed	0.03933995
227	0xbd50180d	-0.050804187
228	0xbdf065cc	-0.11738166
229	0x3cf08e48	0.02936472
230	0xbd89b65d	-0.06724236
231	0x3da545ef	0.080699794
232	0x3ce38e47	0.027777804
233	0xbd987f35	-0.07446138
234	0xbd2f8e6f	-0.042860445
235	0xbdcddf4a	-0.10052355
236	0x3cc10af2	0.02356479
237	0x3d2bdb47	0.041957166
238	0x3d82bbf4	0.063835055
239	0xbc805593	-0.015665805
240	0x3dcb2f22	0.09921099
241	0x3cc9471a	0.024570037
242	0xbdc1b0d0	-0.094575524
243	0x3c41e766	0.011834955
244	0xbcad457f	-0.021151302
245	0x3ce0c2ca	0.027436633
246	0x3b02d9d7	0.0019966268
247	0x39713293	0.00023002391
248	0x3d11bb17	0.035578813
249	0x3cafd6d4	0.021464743
250	0x3ca24baa	0.01981147
251	0xbdf2d803	-0.11857607
252	0x3cc389fe	0.02386951
253	0x3ce560fd	0.02800035
254	0xbde9ed2b	-0.11422189
255	0x3d15f437	0.036609855

network_body._body_endoder.seq_layers.0.bias f4 [128]
0	0x3ce463ed	0.02787968
1	0x3bba42ff	0.005684256
2	0xbc6bad42	-0.01438457
3	0x3b2afe6f	0.0026091596
4	0x3c833512	0.016016517
5	0x3c7d4217	0.015457652
6	0xbbe3100e	-0.006929404
7	0x3b42837c	0.0029680422
8	0x3ca171ca	0.01970758
9	0x3b2aab00	0.0026041865
10	0x3bc18b7f	0.005906522
11	0xbc3ff2ed	-0.011715633
12	0xbaacc6d3	-0.0013181813
13	0xbbf5e6d7	-0.007504325
14	0xbb94e434	-0.0045438055
15	0xbc817a8b	-0.015805503
16	0xba2dfdae	-0.00066372275
17	0xbc79c02a	-0.015243569
18	0x3c9e2481	0.019304516
19	0x3c03bc06	0.008040434
20	0x3c5eaf1d	0.013591555
21	0x3cac0646	0.020999085
22	0xbb557ec3	-0.0032576777
23	0xbb6357c2	-0.003468976
24	0x3c2acc36	0.010424664
25	0x3c04fccb	0.008116911
26	0x3c0cbc76	0.008589854
27	0x3d1ccf76	0.038283788
28	0xbc0fa9c3	-0.008768502
29	0x3c5e28c7	0.013559527
30	0xbb552aa2	-0.0032526632
31	0xbabf32df	-0.0014587304
32	0x3a36bae0	0.00069705956
33	0x3ca03aa1	0.019559206
34	0x3b7bf0b7	0.0038443038
35	0xbc8cd820	-0.0171929
36	0x3cd8b2e0	0.026452482
37	0x3c86bb6a	0.016446788
38	0x3b1e56d6	0.0024160645
39	0xbbd66d8d	-0.006543821
40	0x3ba2481e	0.0049524447
41	0x3cad0937	0.021122558
42	0x3ba20320	0.00494422
43	0x3c5d69d9	0.013514006
44	0x3bda929d	0.0066703097
45	0xbc2fbc74	-0.010726083
46	0xbc005396	-0.007832428
47	0xbcf261cf	-0.029587654
48	0xbba59cce	-0.005054093
49	0xbc2efe89	-0.010680803
50	0x3bba231d	0.0056804554
51	0x3bf209d0	0.0073864236
52	0xbc195404	-0.00935841
53	0x39d039aa	0.00039715815
54	0xbcd1ee7d	-0.025626415
55	0x3bb2809f	0.0054474617
56	0xbc27720e	-0.010220064
57	0xbaa56512	-0.0012618622
58	0xbb1037a2	-0.0022005816
59	0xbc707216	-0.014675638
60	0x3bbe53b8	0.00580832
61	0x3c03dc95	0.008048196
62	0xbb4117ea	-0.0029463717
63	0x3b38aeb0	0.0028180294
64	0x3b8a4a25	0.0042202645
65	0x3ca10e8c	0.019660257
66	0xbc5c026c	-0.013428312
67	0x3b91480d	0.004433638
68	0x3c0f9691	0.008763925
69	0xbb84d624	-0.004053848
70	0x3c711d87	0.0147165125
71	0xbbd56314	-0.006512055
72	0xb410272d	-1.3425297e-07
73	0x3cf3936a	0.029733378
74	0x3bd9bf95	0.006645153
75	0x3ba5214d	0.00503937
76	0x3c978614	0.01849655
77	0xbccbea32	-0.024891946
78	0x3c2f7711	0.01070954
79	0x3bb8ac81	0.0056357984
80	0x3d067d3d	0.03283428
81	0x3c2c842b	0.010529558
82	0x3c8bbcbe	0.017057773
83	0x3d0302f3	0.031985234
84	0xb915f602	-0.00014301392
85	0x3c97bdfd	0.01852321
86	0xbadd36c8	-0.0016877288
87	0x3cbf01cf	0.023316292
88	0xbb27fc66	-0.002563262
89	0xbbbc2943	-0.0057422235
90	0xbbf993e2	-0.007616506
91	0xbc8f2727	-0.017474724
92	0xbbe5f4a4	-0.007017689
93	0xbc8c1a1f	-0.0171023
94	0x3ccdff1b	0.025146058
95	0x3c89709a	0.016777325
96	0xbbc05404	-0.0058693904
97	0xbcc88484	-0.02447725
98	0x3a83975e	0.0010039618
99	0x3ab7f953	0.0014036096
100	0xbcbdfe77	-0.023192627
101	0x3ca6bf45	0.020354876
102	0x3c5365c9	0.012902685
103	0x3c065bec	0.008200627
104	0x397de2a7	0.00024212395
105	0xbca972eb	-0.02068468
106	0x3c66b706	0.014081722
107	0x3ba9b802	0.005179406
108	0xbc210e06	-0.009830004
109	0x3c4e0f6c	0.012576919
110	0xbae60a5e	-0.0017550697
111	0x3caf209c	0.021377854
112	0x3c8a75ba	0.01690184
113	0xbb42ab75	-0.0029704247
114	0xbb9c434d	-0.004768765
115	0x3cc84b6b	0.024450025
116	0x3bf25bab	0.0073961816
117	0x3c07c402	0.008286478
118	0xbc95453c	-0.01822149
119	0x3b133201	0.0022460225
120	0xbbc18c40	-0.0059066117
121	0xbb839da4	-0.004016595
122	0x39425d9c	0.00018536154
123	0xb7b16c87	-2.1150581e-05
124	0xbc7eb41c	-0.015545871
125	0xbcbbcb43	-0.022924071
126	0xbc34ddc0	-0.011039197
127	0x3aefadf7	0.0018286098

network_body._body_endoder.seq_layers.2.weight f4 [128, 128]
0	0x3c5162eb	0.012779932
1	0x3e108e26	0.14116725
2	0xbd8873d7	-0.0666272
3	0x3c663588	0.014050849
4	0xbd41f736	-0.0473549
5	0xbdc1e473	-0.09467401
6	0xbcfb5005	-0.030677805
7	0xbda43968	-0.08018762
8	0xbd39fb11	-0.04540545
9	0x3e47d685	0.19515426
10	0x3cb8d294	0.022561349
11	0xbde933c8	-0.113868296
12	0x3b8e0d3c	0.0043350738
13	0xbc802623	-0.015643185
14	0x3da98922	0.08278109
15	0xbcd1b817	-0.025600476
16	0xbdc354ee	-0.095376834
17	0x3db0af09	0.08627135
18	0xbdc16bde	-0.09444402
19	0xbdaf2c84	-0.085534126
20	0x3ddffab8	0.10936493
21	0xbe171a6c	-0.14756173
22	0xbc161ec0	-0.009162605
23	0x3e88d09b	0.26721653
24	0xbd3dd7ae	-0.046348266
25	0xbe4f82a2	-0.20264676
26	0xbd2f23ef	-0.04275888
27	0xbdf06233	-0.1173748
28	0xbc911b3f	-0.017713187
29	0x3dfb8990	0.12282097
30	0x3e1dc01a	0.15405312
31	0xbe03e777	-0.12881266
32	0xbe49c166	-0.19702682
33	0x3e05c3d2	0.13062981
34	0xbe11087b	-0.14163391
35	0x3d1bf894	0.03807886
36	0x3d7eb213	0.062181544
37	0x3d8f85cf	0.07007944
38	0x3d412b6f	0.047160562
39	0xbcb70d47	-0.022345198
40	0x3da04569	0.07825739
41	0xbbf529bd	-0.007481782
42	0xbd4625d1	-0.04837591
43	0xbdc60086	-0.096680686
44	0xbe11925c	-0.14215988
45	0x3d552e77	0.052046265
46	0xbdb586d6	-0.088636085
47	0x3d4f7e75	0.05065771
48	0x3df00177	0.117190294
49	0x3db7c150	0.08972418
50	0xbdaaa8ee	-0.08333002
51	0x3d84ff5b	0.06494018
52	0xbe207d1b	-0.15672724
53	0xbd1d64e5	-0.0384263
54	0xbce87423	-0.02837569
55	0xbc4fb349	-0.012677022
56	0x3cfff7a7	0.03124602
57	0xbd94891e	-0.072527155
58	0xbdfad19b	-0.1224701
59	0x3c894d81	0.01676059
60	0x3d8e0ac6	0.069356486
61	0x3e5afa55	0.21384557
62	0xbdb4ffc0	-0.08837843
63	0x3d9150df	0.07095503
64	0xbcbcc10f	-0.023041276
65	0x3def446e	0.11682974
66	0xbe15e640	-0.14638615
67	0xbdd8baf8	-0.105825365
68	0x3cf995f2	0.030467007
69	0x3e1305ad	0.14357634
70	0x3b87e2e1	0.004146919
71	0xbdecc369	-0.11560709
72	0x3cd19186	0.025582086
73	0xbdb8318a	-0.08993824
74	0xbd70b0c1	-0.058762316
75	0xbc839462	-0.016061965
76	0xbda8ee75	-0.08248607
77	0x3d609b1f	0.054835435
78	0xbda7c4fd	-0.081918694
79	0x3cf2fcdb	0.029661587
80	0x3d5125c9	0.051061425
81	0xbd99c9a8	-0.07509166
82	0x3d9f836f	0.07788741
83	0x3d424c4b	0.04743604
84	0x3e01fcc7	0.12694083
85	0x3b7e2013	0.0038776442
86	0x3b5d56d2	0.0033773673
87	0x3decd018	0.11563128
88	0xbe2fc49b	-0.17164843
89	0x3e2e17b6	0.17001233
90	0x3d544156	0.05182012
91	0x3da5759a	0.08079071
92	0x3d6b2862	0.05741156
93	0x3db4b9ad	0.08824477
94	0x3e0898e9	0.1333958
95	0x3e1c8608	0.15285504
96	0x3aba8f27	0.0014233337
97	0xbd3bebb1	-0.04587907
98	0xbe5a1360	-0.21296453
99	0x3e1dab56	0.1539739
100	0xbd363ada	-0.04448972
101	0x3db466ca	0.08808668
102	0x3d539fcd	0.05166607
103	0xbccda9aa	-0.025105316
104	0x3ce6b8d5	0.028164307
105	0xbd6f9b60	-0.058497787
106	0xbe026691	-0.12734438
107	0xbd6eb4d3	-0.058277916
108	0x3e28bf4e	0.16479227
109	0xbcdf4e93	-0.027259147
110	0xbc14c148	-0.009079285
111	0xbd1a5469	-0.037678156
112	0xbc6b5393	-0.014363187
113	0xbdaa9013	-0.08328261
114	0xba65a369	-0.0008760007
115	0xbc7afe83	-0.015319469
116	0x3c902c52	0.017599259
117	0x3dedcc3d	0.11611221
118	0x3d4355c1	0.047689203
119	0xbd160c84	-0.03663303
120	0xbd944511	-0.07239736
121	0x3d8ab75a	0.06773253
122	0x3d95489f	0.07289242
123	0xbabc0c48	-0.0014346922
124	0x3d5c8b01	0.053843502
125	0xbd8649c4	-0.065570384
126	0xbe32c9cf	-0.17459796
127	0xbce6c4d2	-0.028170023
128	0xbd888852	-0.06666626
129	0xbd432606	-0.047643684
130	0x3c02de45	0.0079875635
131	0x3dee1665	0.11625365
132	0xbda650ac	-0.08120856
133	0xbd8eb067	-0.0696724
134	0xbbb447e3	-0.0055017336
135	0x3dde4ec4	0.10854867
136	0x3da889e4	0.082294255
137	0x3d2721d8	0.04080376
138	0xbbd4463f	-0.0064781005
139	0x3dce6dfc	0.100795716
140	0xbdd1a49f	-0.10236477
141	0x3c21c131	0.009872721
142	0x3c101ab5	0.00879543
143	0x3d50e7bf	0.05100226
144	0x3c9b4338	0.01895295
145	0xbb641c25	-0.0034806815
146	0x3da7a20b	0.08185204
147	0xbdceedf5	-0.101039805
148	0x3cb7cde1	0.022437038
149	0xbe1f8059	-0.15576304
150	0xbdd622f6	-0.10455887
151	0x3ba0812c	0.004898211
152	0xbe22b8c9	-0.15890802
153	0x3b1387c7	0.002251135
154	0xbce352b1	-0.027749391
155	0xbdc18b7c	-0.09450433
156	0x3d252074	0.040314153
157	0xbe2d60fb	-0.16931526
158	0xbd8b7d94	-0.068110615
159	0x3dcefab7	0.10106414
160	0x3cdf8f3e	0.027289983
161	0x3da009c5	0.078143634
162	0x3d2710fa	0.040787674
163	0x3d900e70	0.07034004
164	0x3e22e2bb	0.15906803
165	0xbc83538c	-0.01603105
166	0x3e7418f8	0.2383765
167	0xbdb83782	-0.08994962
168	0x3d99445e	0.07483743
169	0x3d55da12	0.05220992
170	0x3e3b2265	0.18274839
171	0xbcbf28f8	-0.023334965
172	0x3e574d17	0.21025501
173	0xbdb43011	-0.087982304
174	0xbd8fe424	-0.07025936
175	0xbda74619	-0.08167667
176	0x3d28d38c	0.04121737
177	0x3dfb8c4f	0.12282621
178	0x3bde4494	0.0067830775
179	0xbd2f216f	-0.042756494
180	0xbd649ccf	-0.055813607
181	0x3d9c23fe	0.076240525
182	0xbd83c472	-0.06433953
183	0x3e09a485	0.13441665
184	0x3aab27a6	0.0013058081
185	0xbd1d406c	-0.038391516
186	0xbe223b83	-0.15843014
187	0x3d427bbe	0.04748129
188	0x3cd1413d	0.025543803
189	0x3e127d9e	0.14305732
190	0x3d93b8b5	0.072129644
191	0xbe795bc4	-0.24351412
192	0xbdff9d39	-0.1248116
193	0xbd603a22	-0.05474294
194	0x3d22aae9	0.039713774
195	0xbd62a229	-0.05533043
196	0x3dcc01fc	0.09961316
197	0xbe196105	-0.14978416
198	0x3dc16d4e	0.09444676
199	0xbbc4950c	-0.005999213
200	0x3caef528	0.021357134
201	0xbdc37ca5	-0.095452584
202	0x3cbfe489	0.023424404
203	0x3d8e8144	0.06958249
204	0xbce2a126	-0.027664732
205	0xbe076bd3	-0.13224725
206	0x3ddabc8e	0.10680495
207	0xbdff0ef3	-0.12454023
208	0xbda146e4	-0.078748494
209	0xbe10b812	-0.14132717
210	0xbcf3f6d2	-0.029780779
211	0x3d5b757a	0.05357883
212	0xbdfefa17	-0.124500446
213	0xbda0d226	-0.07852583
214	0xbd0285e8	-0.031865984
215	0x3defb51c	0.11704466
216	0xbde88676	-0.113537714
217	0x3cbafec9	0.02282657
218	0x3debc803	0.115127586
219	0x3d0661ec	0.03280823
220	0xbc21c6c0	-0.009874046
221	0x3e982563	0.29716024
222	0xbc50dbf6	-0.012747755
223	0x3e30ae53	0.17254
224	0x3dbdac57	0.09261387
225	0xbdb9f88a	-0.09080608
226	0xbd974546	-0.0738626
227	0x3d727f72	0.059203573
228	0xbe08a49b	-0.13344042
229	0xbde512a7	-0.11185198
230	0xbce4bd95	-0.027922431
231	0xbd464fc3	-0.04841591
232	0xbd7f6ab2	-0.062357612
233	0xbc074b91	-0.0082577625
234	0xbd9b6e0c	-0.07589349
235	0xbdbe4028	-0.092895806
236	0x3e0b89f6	0.13626847
237	0xbc004bfe	-0.007830618
238	0xbc9dc8b8	-0.01926075
239	0xbe092161	-0.1339164
240	0xbd5a9dd3	-0.05337317
241	0xbe119e70	-0.14220595
242	0xbe45c32c	-0.19312733
243	0x3d3ef627	0.046621468
244	0xbde40b90	-0.11135018
245	0x3de1839b	0.1101143
246	0x3e096bc5	0.13420017
247	0xbd765e45	-0.060148496
248	0xbe3454b9	-0.17610444
249	0xbd2165c4	-0.039403692
250	0xbdfdc14c	-0.12390384
251	0x3d8ac050	0.06774962
252	0xbc20ee98	-0.00982251
253	0xbd69ac6c	-0.0570492
254	0x3de29a88	0.11064631
255	0x3d560eeb	0.05226032

network_body._body_endoder.seq_layers.2.bias f4 [128]
0	0xbc40ce89	-0.011767992
1	0x3c0d8131	0.008636759
2	0x3c21caf5	0.009875049
3	0xb86d99cf	-5.664845e-05
4	0x3c97065e	0.018435653
5	0x3c135780	0.00899303
6	0x3bafde2d	0.0053670616
7	0xbb232361	-0.0024892914
8	0xbba18ed9	-0.004930359
9	0x3c2e324c	0.010632109
10	0xba857c92	-0.001018422
11	0xbc0c1d84	-0.008551959
12	0x3b73f39a	0.0037224055
13	0x3ce60772	0.028079722
14	0xbc82a800	-0.01594925
15	0xbbdccd1c	-0.006738318
16	0xbbbda62b	-0.005787631
17	0x3ca73e62	0.020415489
18	0xbb916222	-0.004436747
19	0x3a4d591c	0.0007833408
20	0x3c4495c1	0.011998595
21	0x3c43990a	0.011938343
22	0xbbfcabc1	-0.0077109043
23	0x3c6f9523	0.014622959
24	0x3c78b8fd	0.015180823
25	0xbae13baf	-0.0017183925
26	0x3c997bb9	0.018735753
27	0x3c21448d	0.009843004
28	0x3b84821a	0.0040438296
29	0xbba99e5f	-0.00517635
30	0xbc588fc8	-0.013217874
31	0xbc40b01d	-0.011760739
32	0x3c8df61b	0.017329266
33	0xbc07642e	-0.008263631
34	0xbafc8994	-0.0019267076
35	0xb7f0c11c	-2.8700153e-05
36	0xbcb28a9a	-0.021794606
37	0x3bb181e6	0.0054170964
38	0xbca804a8	-0.020510033
39	0xbc86bc63	-0.016447252
40	0x3cbcff8a	0.02307107
41	0x3ce7f03a	0.028312791
42	0x3c40778c	0.011747252
43	0x3c6d3ccc	0.014479827
44	0x3b0a260a	0.0021079802
45	0xbc971709	-0.018443601
46	0xbc353cfc	-0.011061903
47	0xbc98034c	-0.01855626
48	0xba34a61b	-0.0006891207
49	0x3cc631e9	0.02419372
50	0xbc407fb3	-0.011749196
51	0x3993fd9a	0.00028226973
52	0xbb10ab06	-0.0022074594
53	0xbc72790b	-0.014799367
54	0x3d0af35c	0.03392349
55	0xbc72f967	-0.01482997
56	0x3c5fcf88	0.013660319
57	0x3af41c8b	0.0018624229
58	0xbc6dcf39	-0.014514738
59	0x3c571278	0.013126962
60	0xbc8ca351	-0.01716772
61	0x3ce243c7	0.02762021
62	0x3be86334	0.007091904
63	0x3d27067b	0.040777665
64	0x3bbb9113	0.0057240813
65	0x3b9f0794	0.0048531983
66	0x3c7b46f4	0.015336741
67	0xbb8fe9a7	-0.004391867
68	0xbb6c85ea	-0.0036090561
69	0x39ccb5f6	0.00039045484
70	0xbc7b2c0f	-0.015330329
71	0x3c15dc9c	0.009146836
72	0x3c3a4d7e	0.011371015
73	0xbd0c20db	-0.03421102
74	0xbbb42545	-0.005497607
75	0xbbd97917	-0.0066367495
76	0xbcab26aa	-0.02089246
77	0xb9f51f7b	-0.00046753496
78	0x3c8c27e2	0.017108861
79	0xbbfae71e	-0.007656946
80	0xbd02b0b6	-0.031906806
81	0xbc3384d4	-0.010956962
82	0x3a29565a	0.0006459706
83	0xbc9f2d05	-0.019430647
84	0x3bc90540	0.006134659
85	0x3a3e8995	0.0007268426
86	0x3cb46490	0.022020608
87	0x39f16719	0.00046043916
88	0x3bc20dd6	0.0059220595
89	0x3b7451e8	0.0037280265
90	0x3ca36ee2	0.019950334
91	0x3c0d5f50	0.008628681
92	0x3c2c5bc4	0.0105199255
93	0xbc109c8e	-0.008826388
94	0xbcc75911	-0.024334462
95	0x3c464a2f	0.012102648
96	0xbbc2e2be	-0.00594744
97	0xbcca631c	-0.024705462
98	0x3cbe1b96	0.023206513
99	0xbbd6e958	-0.0065585785
100	0xbb7e376e	-0.0038790363
101	0xbbb04921	-0.0053798114
102	0xbb8b5d6a	-0.004253079
103	0x3be140af	0.006874166
104	0xbbf0dff2	-0.007350915
105	0x3c075b66	0.008261537
106	0x3c7f6387	0.015587694
107	0xbbfbfaf7	-0.0076898295
108	0xbd14d61f	-0.036337014
109	0xbc8cb677	-0.01717685
110	0x3cbfb9d9	0.023404049
111	0x3cebd20c	0.028786682
112	0x3c8eb123	0.01741845
113	0xbce3d86a	-0.027813155
114	0xbc8304d9	-0.015993522
115	0x3baf4b8c	0.005349582
116	0x3a5e6090	0.0008483017
117	0x3cc3fcf6	0.023924332
118	0x3b8b18b3	0.0042448877
119	0x3a229c77	0.00062031246
120	0x3c89383a	0.016750444
121	0xbcb87c1f	-0.022520123
122	0x3b9f8d98	0.004869174
123	0xbc852825	-0.016254494
124	0xbc5bdcc2	-0.013419332
125	0xbb875ce5	-0.004130947
126	0x3c0b9afa	0.008520836
127	0x3b81c5c9	0.0039603454

action_model._continuous_distribution.log_sigma f4 [1, 2]
0	0xbea3a06f	-0.3195834
1	0xbeeadb37	-0.45870373
