results/reinRayLong3/ZARAgoal/ZARAgoal-2699962.onnx (onnx, 309348 bytes, 15 tensors)

discrete_act_size_vector f4 [1, 2]
00000000: 0000 0040 0000 4040
2.0 3.0

network_body.observation_encoder.processors.0.conv_layers.0.weight f4 [16, 5, 8, 8]
00000000: e95f d03d eb2e 703d ec70 643d 9140 da3c
00000010: 93e0 853d f619 21bc 3f33 e1bc 20c4 26bd
00000020: d5be 2b3d fdc3 36bd d8cc 963b 3b84 223d
00000030: 3b4d 883d 4149 9cbc 0abb 6b3d d20d 34bc
00000040: 2034 523d 2953 493d 93aa b2bc e3cd ec3c
00000050: dbfc 013d a323 81bc a13f e83d 704c 423d
00000060: 7dd6 6d3d 459b 893d 748c 98bb 4d19 1f3c
00000070: 5fc6 023c 2f11 b13d 4af5 4c3a 2780 52bd
00000080: 892d 643d 8202 5a3d 9bab febb 56d6 1a3d
00000090: f4f4 943d ff15 ff3c 92d6 c83d 782e c03b
000000a0: 9837 893c 5874 983c bc66 373d eabc 9d3d
000000b0: 8ab8 bc3d 8f98 343d 36eb fc3c 515d 333d
000000c0: 324c 833d 6d83 e1bb e95d 3b3c e5ac 723d
000000d0: 6d28 b23d 7aec ac3c c46f 173d 66c5 803d
000000e0: 6632 323d bb56 183b c65a 823c 2bcc 18bd
000000f0: 33e8 833d 3c77 953d 6420 953d ce03 c8bc
00000100: 6155 1bbd b144 60bd 9f0f 48bd f631 e8bb
00000110: 3734 9dbd b023 1ebc c2b6 8b3c aa00 abbc
00000120: 61fb 37bd 4279 793c a710 873d e6c8 82bc
00000130: 22d8 063b fc67 46bd ca7f 6cbd 3c3a 52bd
00000140: bca7 f1bb 78f7 c53c 9de7 663c 9ba9 e8bc
00000150: adc4 b73c 8c4a 92bb 8ff3 923c af67 bfbb
00000160: 5414 3e3c 66ad a73d 90d5 5cbc 3ac1 183d
00000170: 3129 6839 51c7 3fbd 790a 423d ab15 3739
00000180: 14e9 61bd f409 1ebd ba52 033d 4dca 103c
00000190: c8a1 4a3d bde3 373d f511 603c 1c09 bbbc
000001a0: e9df db3c 8c96 713d d971 4abc 5ee9 b6bc
000001b0: ef0e 60bb ba0e 29bc 13ca 063c 2e14 7739
000001c0: 57a2 a43d defd c3bc 9417 1b3b 47a6 e9bc
000001d0: b597 9abc 061e a53c ba60 64bc c42c 553d
000001e0: 3e2b 76b9 be78 d93c c4a0 09bd dbd7 b9bc
000001f0: 7add 12bd 046e 02bd 3dba a4bb 4310 9abc
00000200: cd07 ddbd 1101 15bd ca1d 7cbd 66e2 8c3c
00000210: 0b54 a5bd 9288 9a3c 6068 463d bf9e 033d
00000220: bf29 bd3c 2fe6 ba3a 9e6b b9bc 6f8a a3bb
00000230: 7952 10bd 3069 85bd a96c e8ba 03bf d5b8
00000240: 6482 663c de80 263d c618 ff37 17da ae3c
00000250: 3183 b6bc 0c55 033b 2b32 393c a6fb 9a3c
00000260: f388 df3b dc69 f13c 3525 073d 49c3 4fbc
00000270: 2fa6 70bc 9d03 6cbd a706 99bc 1ce5 323d
00000280: 404e 1b3d 7f2a ce3c 1f95 fdbc 7d1b 57bd
00000290: 0d42 01bd 4e36 54bb 628a 953d 4fb6 2f3d
000002a0: 7a3e 533d 7c3c 1ebd bbd0 b03c d240 d03c
000002b0: 04a7 0cbd 2f01 b63c 9222 3dbc bf05 66bd
000002c0: 4989 6cbc d48d 0cbc 8373 40bd 2b94 32bb
000002d0: 6f4e 68bb 6434 363d a8f1 16bd 55b2 733d
000002e0: f04d 9bba 5b2a 713d fc70 593d 8a35 293d
000002f0: f171 953c cff4 1a3d 6ca3 c03c 52b8 ce3c
00000300: b6f7 e33d c7fc ae3d 982c 3cbc 171b 873c
00000310: 0a23 b93d e86c 353d 13c8 9bbb 9f55 c53c
00000320: 702a 743d db76 7e3d 15ef 843d d483 a03d
00000330: ae96 ed3c a00e 6dbc a698 9f3c 68c0 b53d
00000340: c4a3 9b3d e059 9e3d a808 ae3d 2fc0 9fbc
00000350: b551 663d fa73 883d a506 903d ea42 9bbb
00000360: 48d0 3b3c 4a42 c83d a41a c93d 719b 703d
00000370: 351d e53c 7b6f f9bc 270f 603c 89f5 c33c
00000380: 8563 773d 8931 6a3c 37a5 5cbb 933c 47bc
00000390: 91eb fb3c b6fd 46bd c45c 9b3c b9d1 a0bd
000003a0: 8579 893d 3961 8e3d 3c13 053d 16f1 66bd
000003b0: 6ddb 61bd a333 e43c 914b f7bc 92b6 9fbb
000003c0: 352f 46bc 6294 4e3d c581 a8bc 5437 8ebd
000003d0: d025 6bbd b636 b6bc cab9 893b aae6 1bbd
000003e0: bb24 02bd 8cf1 713c 0f33 72bc aaec f3bc
000003f0: 9b31 7cbd c6fb 43bc d559 87bd 3a62 b5ba
0.101745434 0.058638494 0.055771753 0.026642116 0.06536975 -0.00983285 -0.027490256 -0.040714383
0.04193004 -0.044620503 0.004602056 0.039676886 0.066553555 -0.019077899 0.05755142 -0.010989623
0.05131924 0.049151573 -0.021809852 0.028906768 0.031735282 -0.015764063 0.11340261 0.047436178
0.05806588 0.067190684 -0.004655415 0.009710622 0.007981866 0.08645856 0.00078185333 -0.051391747
0.05570749 0.053225048 -0.007771922 0.037802063 0.072732836 0.031138418 0.09806551 0.0058649145
0.016750142 0.018610165 0.04477571 0.07702048 0.092148855 0.044090804 0.030873876 0.043790165
0.064110175 -0.0068821223 0.011435964 0.059246916 0.08699117 0.021108855 0.036971822 0.06287651
0.043505095 0.0023245055 0.015912425 -0.037304085 0.06440773 0.07298133 0.07281569 -0.024415877
-0.03792322 -0.05475301 -0.048843022 -0.007086034 -0.07675975 -0.009652063 0.01705492 -0.02087434
-0.044917468 0.015226664 0.06594973 -0.015964936 0.0020575603 -0.04843901 -0.057739057 -0.051325068
-0.007374732 0.024165854 0.014093307 -0.028401187 0.02243265 -0.004464453 0.017938403 -0.0058412175
0.011601526 0.0818737 -0.013478652 0.03729365 0.00022140589 -0.046820942 0.04737327 0.00017460312
-0.05515392 -0.03858371 0.032061316 0.008837295 0.049470693 0.044894923 0.013676156 -0.022831492
0.026840167 0.058981463 -0.012356245 -0.022328075 -0.0034188589 -0.0103184525 0.008226889 0.00023563273
0.08038776 -0.023924764 0.0023665177 -0.02852167 -0.018871168 0.020155918 -0.013939077 0.052044645
-0.00023476497 0.026546832 -0.033600584 -0.022685936 -0.035855748 -0.0318432 -0.005027084 -0.018806582
-0.107925035 -0.03637797 -0.061551847 0.017197799 -0.080726705 0.01886395 0.048439384 0.032133814
0.023091195 0.0014259274 -0.022634324 -0.004990868 -0.035234902 -0.065142035 -0.0017732579 -0.0001019221
0.0140691735 0.04065024 3.0409905e-05 0.021344228 -0.022279354 0.0020039706 0.011303465 0.018918823
0.0068217455 0.029469423 0.032994468 -0.012680837 -0.014688059 -0.057620633 -0.01867993 0.043675527
0.037916422 0.025166748 -0.030954896 -0.05251645 -0.03155713 -0.0032381 0.07301785 0.042898472
0.051573254 -0.0386319 0.021583905 0.025421534 -0.034338966 0.022217361 -0.011543887 -0.056157824
-0.014437028 -0.008578736 -0.04698516 -0.002724896 -0.003544714 0.044483557 -0.036851555 0.059496243
-0.0011848789 0.058878284 0.053086266 0.041310824 0.018242808 0.037831124 0.023515426 0.025234375
0.111312315 0.08544307 -0.011485241 0.01649241 0.09039886 0.044293314 -0.0047540753 0.024088679
0.059610784 0.06212507 0.06490914 0.07837644 0.029002514 -0.014468819 0.019481968 0.08874589
0.07599595 0.07731986 0.08497745 -0.01950082 0.056230266 0.06662746 0.07032517 -0.0047382014
0.011463232 0.09778269 0.098195344 0.05874199 0.027968029 -0.030448666 0.013675488 0.023920791
0.060397644 0.014294037 -0.0033667812 -0.012160438 0.030751975 -0.0485818 0.018965133 -0.078525014
0.06712631 0.069521375 0.032489046 -0.05638226 -0.0551409 0.027856654 -0.0301874 -0.004874059
-0.012096216 0.050434478 -0.020569691 -0.06944147 -0.057409108 -0.022242885 0.004203056 -0.038061775
-0.03177331 0.014767062 -0.014782681 -0.029775936 -0.061570745 -0.011961883 -0.06608931 -0.0013838478

network_body.observation_encoder.processors.0.conv_layers.0.bias f4 [16]
00000000: 4802 85bd f3d7 76bc a6b6 813b d120 27bd
00000010: 680d f43c 3996 86bd 2a79 01bd b837 143c
00000020: b13f d9bc 869d 6a3d 7dee 5f3c ad71 2ebd
00000030: be96 7fbc 8f49 7dbd e829 b13c d833 d1bc
-0.06494576 -0.015066135 0.003958541 -0.04080278 0.029791549 -0.065716214 -0.03160969 0.0090464875
-0.026519628 0.057279132 0.0136677 -0.04258888 -0.015599905 -0.06183773 0.021626428 -0.025537416

network_body.observation_encoder.processors.0.conv_layers.2.weight f4 [32, 16, 4, 4]
00000000: cb60 12bd 152f bdbc e638 083b 7eb7 803d
00000010: c193 c83c affe 8a3c 4626 16bc e4a0 8e3d
00000020: 3657 e13c 9d80 9c3d 4f12 8cbc 10df 273c
00000030: 475d 4fbd 22a5 30bd 39a1 21bd 2b96 ff3c
00000040: dccb c63c ddd6 f53c 8c5d 3d3b 897a 5f3b
00000050: f444 9cbc 38da 0bbd fb0e 713b 431e 653d
00000060: 368c 423d 3e03 843c 0d93 15bd 1104 a53c
00000070: 1dd5 85bd 0729 d1bc a1ed 01bd b2f7 7a3d
00000080: df67 a0bc 0346 b73d 57ff 3dbc 98c5 bc3d
00000090: 712f 08bd 8df7 4f3d 8acb 2b3c ae77 5b3c
000000a0: 86e8 9fbc 3b97 41bd 214c 5d3d 3f2d c53d
000000b0: 542d 78bd db34 d2bd b28c 2bbd 8bfd 49bd
000000c0: 4ecc 653c 163e 0fbc 52bf 55bd 4333 233d
000000d0: 0299 aebd f0f8 b33c 16d3 64bd 8866 383d
000000e0: 64a0 093d 37f2 44bc e58d 873c 0348 dc3d
000000f0: 3d7a 9fbc 70d9 cc3d 0ddd 2d3d 7343 2abd
00000100: 6bd5 acbc aba4 25bc 1ded f03d d74c d23d
00000110: abef 403c 48b8 823d b7d3 0ebd 7c74 f63d
00000120: 4e89 993b e72b aebd b9ae 023d e0f0 553d
00000130: 2cc4 0b3d ed0e 85bd 5d0c 9a3c 78eb 5dbd
00000140: 3b4c 84bb 4f80 803d d9e7 ab3d ed10 9c3d
00000150: d9f5 08bd 81d2 61bc 227f a33d 3bca 923c
00000160: 640d 29bd b9f8 73bd 0c38 953d c989 a13d
00000170: a13e 52bd ea3b 11bd f284 ccbc c70f 72bd
00000180: 9e13 92bd b8fa 75bc 9b10 7abd 433a 47bc
00000190: e25f 14bd 3e41 103c e0d7 23bd f1ac 8d3d
000001a0: c74a ecbc 3587 0d3d 2c70 0cbd 00c9 343d
000001b0: 8c17 8cba fcde 303d 6f12 a23c 5aa3 4a3d
000001c0: 44f2 7cbd 31d8 9cbd 009a 3bbc 72b4 b83c
000001d0: 03a4 c03d f9bf 823d 66f6 b4bd 6222 d2bd
000001e0: 7876 373d 713a eabd 457f 18bc df82 e4bc
000001f0: ffa2 483d edaa 23bd ceeb 183c af61 f0bc
00000200: a915 473c e01b aebd 673c 21bd 03c1 ba3d
00000210: d536 8abc 7fef ccbc b5b5 613d 5d73 623d
00000220: 2a15 023d a922 6f3d b3f9 6a3d a369 113c
00000230: 50fa f13c 81cc b33d 553a b1bc 6352 3ebd
00000240: 7984 653d 2e55 b53b dc12 2dbd bf56 873d
00000250: 793b 75bd 1a7e 573d cdc6 c4bc 534a 843b
00000260: dcd9 2dbd 60aa 32bd 3425 063d da72 c93d
00000270: 50e6 7e3d ce1d 3e3c d268 493d ae08 37bd
00000280: 9f4c 29bc 03fa d8bd 985b 0f3d 3182 853c
00000290: ceef b6bd 345a b93c 9eec d739 58af fdbc
000002a0: 07f1 41bd 8c62 2e3d 0d91 0abb 16af 92bc
000002b0: 6624 863d 212e b53d 55e8 1dbd 1219 77bd
000002c0: 16f6 a13d 57f8 283d c564 bb3d a651 053e
000002d0: 135d 703b 59ac e83c 4773 da3c a271 7a3d
000002e0: a9c0 af3a 62de 04be d3c5 093d c0ea 18bc
000002f0: 43b5 d3bd f7e9 0abd 692a 93bd 2073 cfbc
00000300: d40c 8ebd 84ea 193d d6cd 7d3d fde3 04bd
00000310: 62c0 0fbd 5872 19bd bc25 e43c 0ebf 803d
00000320: e6cc 5d3d c120 33bc 666c 07bd e3b1 66bc
00000330: 8ff1 803d ca21 f5bc d517 9a3d 8427 523d
00000340: 58fa 5bbc 46fb 08bd d6fc 873d a61f e13d
00000350: 20e8 49bb d358 70bc 3162 613d 935c d53d
00000360: 8ddb 403d dc8f eebc 8a9f 903d 6ec2 c53c
00000370: 9b7f 303d f058 e83c fe06 84bc c97b 9abb
00000380: d63f 2a3c 20ba 963b 00d3 a5ba 8bfc 823d
00000390: 8650 163d 2b1b a5bd 2735 d6bc 1ef4 893d
000003a0: 3a5c acbc 4263 8bbd b829 dabb 69ea 6fbb
000003b0: 6b19 ffbc 6ab1 a3bd 805c 10bd 8805 183c
000003c0: 3f6c afbd 281e acbd 6e7a 8bbc 46f1 dbbc
000003d0: f443 16bd 2c50 b8bd 8c8b d53c 1757 ca3c
000003e0: b112 5dbc a4ed 553d fb4f 003a d864 6f3d
000003f0: 1eb5 c83c 37a7 abbb e09e 6d3d 6239 963b
-0.03573684 -0.02309374 0.0020785867 0.06284998 0.024484517 0.016967146 -0.009164399 0.06964281
0.027507406 0.076417185 -0.017098574 0.010246053 -0.050626066 -0.043126233 -0.039460395 0.031199535
0.02426713 0.030009681 0.002889487 0.0034100136 -0.019075848 -0.034143656 0.003678261 0.055937063
0.047496997 0.016114827 -0.03651719 0.02014354 -0.06534789 -0.025532259 -0.03172076 0.061271377
-0.01958078 0.089489006 -0.011596522 0.092173755 -0.03324837 0.050773192 0.010485539 0.013395233
-0.019520056 -0.047263365 0.05402768 0.09627771 -0.060590103 -0.10263988 -0.041882224 -0.049314063
0.014025761 -0.00874283 -0.05218441 0.03984381 -0.08525278 0.021969289 -0.05586537 0.045019656
0.033600226 -0.012020639 0.016547153 0.10755923 -0.019467467 0.100024104 0.04244714 -0.04156823
-0.02109786 -0.010110061 0.11763976 0.10268562 0.011775891 0.06382805 -0.034869876 0.120339364
0.0046855574 -0.085044675 0.03190491 0.05223167 0.03412263 -0.064969875 0.018804723 -0.05417964
-0.0040374077 0.06274473 0.08393831 0.07620416 -0.033437584 -0.013783098 0.07983233 0.017918697
-0.041272536 -0.059563372 0.07286081 0.078876086 -0.05132926 -0.03545753 -0.024965737 -0.059097078
-0.07132648 -0.015013389 -0.061050992 -0.012159887 -0.036224253 0.008804617 -0.040000796 0.069177516
-0.02884425 0.03455277 -0.034286663 0.044137 -0.001068817 0.043181404 0.01978418 0.04947219
-0.06175448 -0.07658423 -0.011450291 0.02254698 0.09406283 0.06384272 -0.08836059 -0.10260464
0.044790715 -0.11436928 -0.009307687 -0.027894435 0.04898357 -0.03995793 0.009333564 -0.029343454
0.01215116 -0.085014105 -0.039364245 0.09118845 -0.01687185 -0.025016544 0.05510493 0.0552858
0.031758465 0.058382664 0.057367038 0.008875283 0.029538304 0.087792404 -0.02163426 -0.04646529
0.05603454 0.005533836 -0.042254314 0.066083424 -0.05987117 0.052610494 -0.024020577 0.0040371804
-0.042444095 -0.043619514 0.032750323 0.09836359 0.062231362 0.011603786 0.04917223 -0.044686012
-0.010333209 -0.10594561 0.03499946 0.016297432 -0.08932458 0.02262602 0.0004118429 -0.0309674
-0.047349002 0.04257445 -0.0021143586 -0.017905753 0.06549911 0.08846689 -0.038551647 -0.060326643
0.07908265 0.04125246 0.0915008 0.13019428 0.003667657 0.028402494 0.026666297 0.061143525
0.0013408858 -0.12975457 0.033635926 -0.0093333125 -0.10337307 -0.033914533 -0.071858235 -0.02532345
-0.069360405 0.037577167 0.06196388 -0.03244399 -0.03509558 -0.037462562 0.027850024 0.06286441
0.054150485 -0.010933102 -0.03306236 -0.014080497 0.06296074 -0.029923338 0.07524077 0.051307216
-0.013426386 -0.033442758 0.066400215 0.109923646 -0.0030808523 -0.014669615 0.055025283 0.10418048
0.04708438 -0.029121332 0.0706168 0.024140563 0.043090444 0.028362721 -0.016116615 -0.0047144634
0.010391196 0.0045998245 -0.0012651384 0.06395825 0.036697887 -0.080618225 -0.026148392 0.06736015
-0.02104007 -0.06806041 -0.0066578053 -0.0036608225 -0.03114005 -0.079928234 -0.035244465 0.0092786625
-0.08565568 -0.08404189 -0.017026152 -0.026848447 -0.0366859 -0.089996666 0.026067518 0.02469973
-0.013493226 0.052228585 0.00048947305 0.05844578 0.024500426 -0.0052384394 0.058012843 0.0045844773

network_body.observation_encoder.processors.0.conv_layers.2.bias f4 [32]
00000000: 4ff5 6e3b 303f 1ebd 0d28 e93b 225a 75bc
00000010: a745 8f3c 216e bd3b 8867 d4ba f41f 22bd
00000020: 9347 8cbc 29af 133d ea86 8b3d f686 d13b
00000030: 33a5 343d a3e5 2a3d eccc 503d 6f91 0bbd
00000040: 82dd 6abc 7e13 c8bc 1f74 903c b84a 513d
00000050: 40c3 973d 6a77 943d 2ac8 6c3d 252d 923d
00000060: ccbc 78bd bf53 923c 11e4 34bd 46d6 bfbc
00000070: d9fa 6c3c 46ea 4b3d 2033 cebc 8053 99bd
0.0036462133 -0.03863448 0.00711537 -0.014975103 0.017489268 0.0057809507 -0.0016205171 -0.039581254
-0.017123973 0.036055718 0.06812842 0.0063942624 0.04410286 0.041722905 0.05097668 -0.034074243
-0.014335038 -0.024423357 0.017633496 0.051096648 0.07410288 0.07249339 0.05780808 0.07137517
-0.060726926 0.017862199 -0.044162814 -0.023417603 0.014464104 0.049783967 -0.025170863 -0.074866295

network_body.observation_encoder.processors.0.dense.0.weight f4 [128, 32]
00000000: 72fe 3bbe fb13 86be 0eac ec3e 9a0b 913e
00000010: 7714 d9bc f1e8 37be 3e64 20bd a1ad d5bd
00000020: 2cd8 473e cffc 78be 47a9 bb3e 562c 05be
00000030: 34b8 aabd 6054 5b3e fd96 e83e d3bf a6be
00000040: 545e 0fbe ff67 f7be 5faa 72be 484b f93e
00000050: 84ef 55be 7d6d be3e 7eeb 9cbe d43e 7dbc
00000060: 6eef 003e f9e1 bdbc 9629 a8bd 47fa 45be
00000070: 15ff 4bbd 30cd a33d 0d1b 24bd 5f4c cd3e
00000080: 2d12 63bd 2147 47bd 96cd e23d c3fd fb3d
00000090: 5c52 b8be 16d4 a4be 8351 173d 9072 aabe
000000a0: 35d8 3cbe bab8 a73e c1d6 6ebe 014c f73d
000000b0: aabf f13e 3dfb 57bc e914 8d3e ddc5 653e
000000c0: f37f b93e 2924 313d 11f2 84be 758f e43d
000000d0: d4b4 37be 03ba aabe 95f1 1cbf 1c02 9c3b
000000e0: 8257 1e3e 5543 80be 5fa1 943d 455c 2f3e
000000f0: bfad 773c 913d a03d 69e2 39bd 53ad 793e
00000100: e23d 68bc d802 fabe 5b1a 0abe e958 963d
00000110: e340 1b3e afbe 2fbf 9a89 113e 4c4f 403d
00000120: 2f1d c53e 6a68 de3e 7ffb d23d e00e fa3b
00000130: b1d0 833e 80e4 683d 0ff1 54bd 306d 7bbe
00000140: d424 e9be 8892 4d3e f08b 783d 9304 07be
00000150: a371 59be 3795 5d3d f5a8 1e3f d7ef 8b3d
00000160: 454a 97be fc23 bb3e 0e44 acbe fab5 273e
00000170: a151 bb3e 5e9a 28bf 7aa7 203d fb3c 99be
00000180: 09f4 203e d1d5 8fbe ca87 dfbd 2852 a9be
00000190: 16cf 153e 5cff d4be f29b 223e 72b4 083d
000001a0: ec9f 9fbe 7cb0 eb3d 6ee9 323d 0846 eb3d
000001b0: 4556 7abe 2c14 0f3e f00d 31be 86ec 213d
000001c0: 5993 963d 3dc7 8d3e 5c10 93be f0a0 eb3c
000001d0: 7a9f 873e 32ff 1cbe c853 5d3d 4e55 6bbe
000001e0: c248 953d 5138 b1bd 9318 fabc 23b9 d23d
000001f0: 007e ba3b c02d cf3e ff1e 5c3e 5f5a 3ebd
00000200: f093 16bc 4b8e de3d 7b6d 2a3e 2c39 c83e
00000210: 6ab3 8c3e c4dc f73d f2cc 6dbc 65c3 bb3e
00000220: ae68 8dbe cd75 d2be 864f 7f3e 856a 273f
00000230: db96 213b 1f59 043d 9dc1 ab3e 11a0 eebd
00000240: b4d1 5b3e 5233 2b3e 8087 b8be 7238 c73d
00000250: 84d1 053d 8f52 04be 45ca 97be 29eb 2fbe
00000260: 6156 fa3e d7ae 893e 2958 883e e430 a9bd
00000270: 978c 4b3e 991f 423e dd22 5bbe c05c e4be
00000280: 3303 a03d c0ef 2cbd b24c 05be f1a7 b6be
00000290: 423d 02be 78fe 90be fb90 833e 624a f63e
000002a0: 94aa 263e aaac b2bd 6eb1 653e 049e 41bd
000002b0: c376 dc3e f185 da3d 23d9 ec3c 191b 053e
000002c0: b0d9 15be 8d5a ba3e 7c80 03be 78f6 513e
000002d0: c3d7 353d ca4d 013e 0cbb bc3e afc0 bcbd
000002e0: 0ad7 6a3c ebbd a4be 1547 45bb c2ae 48be
000002f0: f88b b33e 9328 753e e6f1 b13d 5673 cf3d
00000300: 3b68 e03e 4e14 96bc fcef 703e 85f2 eebd
00000310: f6bb 943e 2a1f 9fbe 93c9 35bd 0971 67bd
00000320: 399e 0bbe 730a 47be cbe7 a3be 390c 7bbd
00000330: f5a2 933e b12c 643e ce7f 813d 3fe1 1abe
00000340: 6eb3 8e3d 5f94 cc3d fe8a 283e 5a86 36bc
00000350: 438f 8f3e c14b db3d 935f d4bd cf28 a2be
00000360: c782 aebd f2aa 48be 023c 9e3e 09cb d1be
00000370: 7a3e 4c3e 5c4e 5f3e 943a 7c3e 3101 02be
00000380: de6b 813e 013f 86be 3cb8 043e 1d84 14be
00000390: e729 d53e 803a f3bc fd83 33be 6a82 583e
000003a0: 0da1 8fbe 7a86 083f 17f4 06bf c268 f3bd
000003b0: bb32 1c3f c7ff 413e 5de9 c0be a090 9b3e
000003c0: d718 92be d05b 21be 84b9 14be 3c3a 7b3d
000003d0: 505e 8bbe d6ca 8abe 90b0 423e 81a9 87be
000003e0: 5dda 173e 18b9 523e c9a6 0bbe 2883 043e
000003f0: fb03 bdbd 15c8 903e 6b36 9a3e 9b46 0f3f
-0.18358782 -0.2618712 0.46225017 0.28329164 -0.026499016 -0.17959954 -0.0391581 -0.10433508
0.19516057 -0.24315189 0.36652586 -0.13005194 -0.08335915 0.21418905 0.45427695 -0.32568225
-0.14000827 -0.4832153 -0.23697804 0.48690248 -0.20892149 0.37192908 -0.30648416 -0.015456874
0.12591335 -0.023179041 -0.08211057 -0.19333754 -0.049803812 0.07998121 -0.04006486 0.4009733
-0.055437256 -0.04865182 0.11074369 0.123042606 -0.36000335 -0.3219306 0.03694297 -0.3329053
-0.18441851 0.32758123 -0.2332411 0.120750435 0.4721654 -0.0131824585 0.27555016 0.2243876
0.3623043 0.043247376 -0.25965932 0.11160175 -0.17940074 -0.3334504 -0.61306125 0.0047609936
0.15463069 -0.2505137 0.072573416 0.17125042 0.015117108 0.07824243 -0.045381937 0.24382524
-0.01417491 -0.48830295 -0.13486616 0.07341177 0.15161471 -0.68650335 0.14212647 0.046950623
0.38498828 0.43439037 0.10301875 0.007631168 0.25745156 0.05685854 -0.051987704 -0.2455337
-0.4553591 0.20075428 0.06068033 -0.13185339 -0.21234755 0.05409738 0.6197656 0.06832855
-0.2954885 0.3655089 -0.33645672 0.16378012 0.36585715 -0.65860546 0.039222218 -0.29929337
0.15718092 -0.28092816 -0.109145716 -0.33070493 0.14629778 -0.41601074 0.15879801 0.03337521
-0.31176698 0.11508271 0.043679647 0.11487967 -0.24446972 0.13972539 -0.17290473 0.039532207
0.07352323 0.2769107 -0.2872342 0.028763264 0.26488858 -0.15331724 0.05403498 -0.2298176
0.07289268 -0.086533196 -0.030529296 0.10289218 0.00569129 0.40464592 0.21496199 -0.046472903
-0.0091905445 0.10866984 0.16643326 0.3910612 0.27480632 0.121026546 -0.014514195 0.36672512
-0.27618927 -0.411055 0.2493268 0.6539691 0.0024656567 0.032311555 0.33546153 -0.11651624
0.21466714 0.16718796 -0.36040878 0.09727563 0.032670513 -0.12922119 -0.29646507 -0.1717955
0.48894027 0.26891205 0.2662976 -0.08261278 0.1987785 0.18957366 -0.21400018 -0.44602013
0.0781311 -0.04222083 -0.13017538 -0.35675004 -0.1271868 -0.28319144 0.2569655 0.48103625
0.16276008 -0.08724339 0.22430965 -0.047269836 0.43059358 0.106700785 0.028912133 0.12998618
-0.14633822 0.3639721 -0.12841982 0.20504177 0.04439522 0.1262733 0.36861455 -0.09216439
0.014333496 -0.32176146 -0.0030102183 -0.19597915 0.35067725 0.23941259 0.086887166 0.101294205
0.43829522 -0.018320229 0.23529047 -0.11667351 0.29049653 -0.31078464 -0.04438169 -0.056504283
-0.13634576 -0.1943758 -0.32012782 -0.061290953 0.28835264 0.22282673 0.06323205 -0.15124987
0.06967817 0.09989237 0.16459271 -0.01114043 0.28038988 0.10707808 -0.10369792 -0.3167176
-0.085210375 -0.1959646 0.30905157 -0.40975216 0.19945708 0.21807235 0.24631721 -0.12695767
0.2527761 -0.26219943 0.12960905 -0.14503522 0.4163353 -0.02969098 -0.17530818 0.21143499
-0.2805256 0.53330195 -0.527162 -0.11885215 0.6101491 0.18945228 -0.37678042 0.30383778
-0.28534576 -0.1575768 -0.14523894 0.061334834 -0.27220392 -0.27107877 0.19012666 -0.2649651
0.14829393 0.2057842 -0.13637842 0.12940657 -0.09229275 0.2827765 0.30119643 0.5596711

network_body.observation_encoder.processors.0.dense.0.bias f4 [128]
00000000: 9e37 35bd ba53 40bc ba20 833d 7578 8bbc
00000010: b4fc 9dbc 9b44 883c 4147 a73b 820c 06bd
00000020: 86d5 293c 0c9e 093d 2514 b23a 9130 6abd
00000030: 73c4 253c 2b5c 1e3c c952 33bb b8ab 43bc
00000040: 9146 483d f17c 4e3d d025 28bd 34f8 c8bc
00000050: 434e b13c 14c2 333d d9c6 94bc aaa3 183d
00000060: 1cd5 083d 7eff 8fbd 2b20 12bd 71b3 5c3b
00000070: 1fdf 593d 0c41 d1bc 6e52 fe39 0254 4abc
00000080: 0141 d63c bf6c 483b aa41 62bc 1b1f 09bc
00000090: 3a4b 16bd 7177 50bc b702 dbbc 9963 97bb
000000a0: 76a6 133c a4d6 633c cfb5 b63a db3b d4bc
000000b0: 30bc 783b 1bc3 49bc 9d18 dc3b 1bab 0e3d
000000c0: 48de 583b ca67 50bd 6957 1a3d 8390 b1bc
000000d0: 91c0 b13c eed9 2d3a 8911 5e39 0e7b 123c
000000e0: 5ea9 9c3c ad15 013d 3a8f 0a3d 73a0 a3ba
000000f0: ad04 94bd 92f2 61bd 9d15 11bc e45c 873c
00000100: a0c3 d83c 9bff e7bb 7177 2cba b907 f6bc
00000110: 3c95 083c 4ebb 5ab8 9e7c 223c 1e0d 4d3c
00000120: b21d 43bd b9dc dc3c fee0 c93c f1f7 21bd
00000130: f380 533c e981 9cbc 53a3 823c 1540 8c3c
00000140: 81ae a5bc 1540 1cbc be9b 25bc 85d5 f1bb
00000150: b4eb b73a b2d8 0fbd 89a4 893c 9cec 753c
00000160: a265 8339 cdd3 2f3d c8f8 83bc f021 3fbd
00000170: a174 b6bd 0ce3 a63c a962 983b 8751 53bc
00000180: a8d8 78bb d26d 603c ca9d 843c 3172 273c
00000190: d4d4 31bc b6f9 623b ff14 62bd dda7 8fbc
000001a0: e0b2 e0bb 9e53 a7bc ad5d e0bb 26c6 363b
000001b0: 177b d8bc 10d9 6abd fb34 95bc 6957 273d
000001c0: 8f8f ab3c d89d 6c3d eb55 10bc 4645 20bc
000001d0: 229c 54bc 432d d0bd e94f 913c 423d 7abb
000001e0: f710 96bc 9eab 983d c8e2 76bb c60c 863c
000001f0: 86e9 71bc 360b 6e3c 4387 2a3c cdf0 2d3d
-0.044242494 -0.011738712 0.064027265 -0.017025212 -0.019285537 0.016634276 0.0051049297 -0.032726772
0.010365849 0.03359799 0.0013586326 -0.057175223 0.010117638 0.009665529 -0.0027362576 -0.011942796
0.048895422 0.050412122 -0.041051686 -0.024532415 0.021643763 0.04388626 -0.018161224 0.037265457
0.033406362 -0.07031153 -0.03567521 0.0033676291 0.0531913 -0.025543712 0.0004850807 -0.012349131
0.026154043 0.0030582396 -0.013809601 -0.0083692325 -0.036692835 -0.01272379 -0.026734693 -0.0046200273
0.009011855 0.013906155 0.0013939681 -0.025907448 0.0037953965 -0.012314583 0.0067168013 0.034831148
0.0033091474 -0.05088023 0.037681017 -0.021675354 0.021698268 0.00066319003 0.00021178102 0.008940471
0.01912373 0.031514812 0.033827998 -0.0012483731 -0.07227454 -0.055162974 -0.008855251 0.016523786
0.026460469 -0.007080031 -0.00065790775 -0.03003298 0.0083363615 -5.214969e-05 0.009917406 0.012515334
-0.04763574 0.026960718 0.024643417 -0.039543096 0.012909162 -0.019104915 0.01594702 0.0171204
-0.020224812 -0.009536763 -0.010107933 -0.00738019 0.0014032037 -0.035118766 0.01680209 0.015010025
0.0002506199 0.0429266 -0.01610984 -0.046663225 -0.08908964 0.020371936 0.004650433 -0.012897856
-0.0037970934 0.013698058 0.016188521 0.010220096 -0.010853965 0.0034633703 -0.055195805 -0.017536098
-0.006857261 -0.020425614 -0.0068471045 0.0027889102 -0.026425881 -0.057335913 -0.01821374 0.040854845
0.020942478 0.05776772 -0.008809547 -0.009782141 -0.012976678 -0.10164883 0.0177383 -0.0038183485
-0.018318636 0.074546084 -0.0037671793 0.016363513 -0.014765149 0.01452904 0.0104082255 0.042465974

network_body._body_endoder.seq_layers.0.weight f4 [128, 323]
00000000: 2be7 e23c 8443 6dbd 01aa b9bc 28e4 3ebc
00000010: 66b2 633d ba2d 6a3d 514a d1bd c177 ddbb
00000020: 8bb9 533d 5f4b bb3d d83d a43c 564b 1fbd
00000030: 2665 483d cd7f 92bd 536a 503c 6c9c e1bc
00000040: 9d53 983d a8ad 9d3c 888b 6ebd 51c3 f23c
00000050: 5f03 46bd 6273 dc3c dc13 a2ba ed11 0cbc
00000060: 647d 7b3d b8fd bbbd 60c0 53bd 9046 51be
00000070: 1cf7 c53d 64ed ecbd 7ea9 5b3d c04a c3bb
00000080: 61d0 c03c eee7 44bb c587 ebbd 5f8d 7b3b
00000090: 4c74 a23d 66c8 003b aad6 3cbc 8ba9 b93a
000000a0: 394b f53b 7a08 d3bd 84fa cb3b 63eb 8d3d
000000b0: 2e16 d53a 321d f1bb 1d38 67bd bcb1 10bc
000000c0: 5c25 55bc 1a5e 1d3b 184a 18be e55f 483d
000000d0: 6fe5 5cbc b7da 2c3c 0f0d ac3d 0800 9a3c
000000e0: 93db aabb 0a68 e8bd 5616 e53c 28ec c3bd
000000f0: ba44 5c3c 6911 40bd 2d9e 543d 0238 e73d
00000100: 45f7 a43d aea7 ab3d ed70 fd3c 0229 3bbd
00000110: 5cf8 acbd b2a0 4ebe f303 c03d d07d c3bd
00000120: 86fa 71bc 5d40 b73c c288 cbbd 7a50 253c
00000130: eda5 db3d 01b6 bdbd 0b56 34bd 60c6 6f3c
00000140: 45cc a33d 9f81 e93c 3708 fdbd 9184 e1bc
00000150: d9c9 8abd e662 6aba dd75 ab3d 6fb4 a3bb
00000160: 9b00 0cbe 7b81 963d 6dde b33c 4026 68bd
00000170: 55d8 2f3d a7df 2fbd 9ffd d23c 1e5c e7bb
00000180: 4f9c b1bc 7fa9 a3bc fd64 113e 6bde 5d3d
00000190: 45c7 b4bc 6c79 1fbe 559d b8bd f780 dfbc
000001a0: efa0 833c 720a 83b9 7e8f 1e3c 8534 b3bd
000001b0: 2d62 133d 64b5 963d 5d5d 2fbc f542 3f3e
000001c0: 1475 6c3d 90a8 5b3d 1190 d0bd 5ca1 c63d
000001d0: e2b7 963c 66c5 cb3d a8ad 333d ee95 48bd
000001e0: 20c6 be3c 7557 583d 5dee a33d 2bcd b0bd
000001f0: a611 c23c 31a9 e0bc bf1f bebc 2666 a13d
00000200: b084 cab9 52f7 af3d 608f a0bc 6e70 843d
00000210: 156d 57bb dd2d 2ebd f2a4 2a3c eca0 ab3d
00000220: 71f9 efbc c0c0 adbd 7b08 983d 7c07 563d
00000230: 816e ed3d 4d43 703d 38b9 bebd 7dc9 7f3d
00000240: 0b39 bd3c 982a b1bd 9df5 1abd 801f e0bc
00000250: 2527 52bd 3167 2bbd 5b65 573c 07cb ea3d
00000260: e8ab 9b3d 756b 6c3c 246c 213e d351 f23c
00000270: 3459 80bc 1d62 533d 7196 8cbd df18 3b3d
00000280: 5e71 8dbd da71 9ebc 29cc 90bd 91de 843d
00000290: 1637 113e a931 233e 382a aa3c 8aed 1b3d
000002a0: d2e3 e03c 9a57 b2bc e999 53bc 3acd 3c3d
000002b0: a3b3 9ebd 6e05 48be 17b6 3dbd 788d 8abd
000002c0: 1967 343e 8bf7 043e 214d efbc deb4 b63c
000002d0: 6714 82bd 1f40 5dbc de72 733d 0457 a03c
000002e0: 046a 213d 40ec 5c3c d892 043d 5a8d 8bbd
000002f0: 3d42 833d e160 c7bb 13f4 513d 9f79 023d
00000300: cd09 643d 564f 12bd 6d16 793d 936c ad3d
00000310: 825e 6abd 4bee 36bd 176f a9bc 3ff3 663d
00000320: 3239 f23c de10 b63d 440b fbbc 7bc8 853d
00000330: d8cb 48bd 09e6 a4bc efb5 b03d 05af d23d
00000340: 7a6b 7d3c 7c3a d43c cc2e adbd 8643 abbd
00000350: 3c37 863d 87ae 08bc fc02 a33d 0c54 78bd
00000360: babf 683d bba8 aebd 8f40 783d 0be6 e13c
00000370: e8f7 b9bd 9521 373e 3ad2 023d 257a 893c
00000380: d3f0 043e 0314 27bd 8a5e 06be 5ca7 51bd
00000390: ea59 37bd c397 983d b0bb 8ebd 2321 bcbc
000003a0: 23b1 adbd a492 9ebd a8dc 3a3c 038c f73c
000003b0: 4a13 88bd 41db d63d 5152 babd d11c 9cbc
000003c0: c32d 9c3d d3ae 9abc aae9 79bd 146a dabc
000003d0: 896a f6bc 3091 8a3d dc20 2fbd 8c6d 593d
000003e0: 6ee1 56bd 9df8 e53d 475f 89bc bd68 50bd
000003f0: 7ebb f53c 3a33 0b3d cb35 7cbd 1ba9 bbbc
0.02769812 -0.057925716 -0.022664072 -0.011651076 0.055590056 0.057172514 -0.10219253 -0.0067586605
0.05169062 0.09145235 0.02004902 -0.038890205 0.048924588 -0.07153282 0.012720662 -0.027540408
0.07437823 0.019247845 -0.058238536 0.02963415 -0.04834306 0.026910488 -0.0012365538 -0.008549196
0.06139888 -0.091792524 -0.051697135 -0.20437074 0.09666273 -0.11568716 0.053628437 -0.0059598386
0.023536863 -0.0030045467 -0.11500505 0.0038383824 0.07932338 0.0019650697 -0.011525789 0.0014164908
0.007485774 -0.10304351 0.006224932 0.06929662 0.001625722 -0.0073582167 -0.05645 -0.008831438
-0.013009395 0.0024012388 -0.14872015 0.048919577 -0.013482436 0.010550193 0.08400928 0.018798843
-0.0052141636 -0.11347969 0.027964752 -0.095665276 0.01344412 -0.046891604 0.05190866 0.112899795
0.080549754 0.08381592 0.030937636 -0.045693405 -0.08445808 -0.20178488 0.09375753 -0.09545481
-0.014769202 0.022369558 -0.09938194 0.010089988 0.10725007 -0.0926323 -0.04402737 0.014634699
0.07997946 0.028504191 -0.123550825 -0.027529033 -0.06776781 -0.00089411286 0.0837209 -0.0049958746
-0.13672106 0.07348915 0.021956647 -0.056677103 0.04293092 -0.0429379 0.025755702 -0.007060542
-0.021680979 -0.019978283 0.1419868 0.054167192 -0.022067675 -0.15573663 -0.09014384 -0.027283175
0.01606795 -0.0002499405 0.009677766 -0.08750252 0.0359823 0.07358816 -0.010703412 0.18677886
0.057728842 0.05362755 -0.101837285 0.096987456 0.018398229 0.0994976 0.043866783 -0.04897111
0.023287833 0.05281778 0.080044486 -0.08632883 0.023690056 -0.027424427 -0.023208497 0.078808114
-0.00038627302 0.085920945 -0.019599617 0.06466757 -0.0032871414 -0.042524207 0.010415303 0.08380303
-0.029293748 -0.0848403 0.074234925 0.05225323 0.115933426 0.058657933 -0.093126714 0.062448014
0.02309849 -0.08650702 -0.03783189 -0.02735877 -0.051306862 -0.041846458 0.013146724 0.11464506
0.07601148 0.014429917 0.15763909 0.029580032 -0.015667535 0.05160724 -0.06864632 0.045678016
-0.06906389 -0.019341398 -0.070701905 0.06487764 0.1418117 0.15936913 0.020772085 0.03806833
0.027452383 -0.021770287 -0.012915113 0.046094157 -0.07749107 -0.19533321 -0.046316233 -0.06765264
0.17617454 0.12985055 -0.029211583 0.022303041 -0.06351548 -0.013504057 0.059435718 0.019572742
0.039407745 0.013484061 0.032366604 -0.0681407 0.06409118 -0.006084547 0.051258158 0.03185427
0.05567341 -0.035720192 0.060812403 0.084679745 -0.057219036 -0.044660848 -0.020682855 0.05638432
0.029568288 0.08889936 -0.03064502 0.06532379 -0.049022526 -0.02012922 0.08628451 0.102872886
0.015467519 0.025906794 -0.084561914 -0.083624884 0.06553504 -0.008342392 0.079595536 -0.06062703
0.05682347 -0.085282765 0.060608443 0.027575513 -0.090804875 0.17883904 0.03193877 0.016781876
0.12982492 -0.04079057 -0.13122001 -0.051184997 -0.044763483 0.07450821 -0.06969392 -0.02296502
-0.08481052 -0.07742813 0.011405148 0.03021813 -0.06644304 0.10491038 -0.09097732 -0.01905671
0.07625916 -0.01888219 -0.061013855 -0.02666191 -0.030080097 0.067659736 -0.042755947 0.053082988
-0.05246108 0.1122906 -0.016769065 -0.050881136 0.02999663 0.0339844 -0.06157474 -0.022907784

network_body._body_endoder.seq_layers.0.bias f4 [128]
00000000: 98c6 2a3b 4efb 09bc 7467 7bbb 638f 793c
00000010: e247 9eba 5778 633d 6551 913c d930 593d
00000020: 4293 c83b e4ee 123d ae3b 6e3b 0a21 23bc
00000030: 98cc d13c 953e 0d3d 4eea e8bc c3b2 a7bc
00000040: d8ea 1c3d 1992 e73c 91c5 bfbb 36b6 69bb
00000050: b97a 493c c13d 82bc 62fc d1bc 80cb 7fbc
00000060: d8c4 473c fc64 ce3c db14 323d 1184 dc3b
00000070: 83b7 85bc 037a 9fbc 9c15 813c 152b bc3c
00000080: 8130 b2bc e29a 99bc 1b06 e2bb 80b7 bcbb
00000090: f35a 743d fe4a 44bc fa70 4cbc a1e7 8cbc
000000a0: 642b 04bd f744 763b 26ce 20bc 386a 3c3d
000000b0: 9a55 a83b 4a34 bc3c 9ef2 e33c 5909 90bc
000000c0: 5e4e 93bc 3284 e8bb d668 aebb 1462 36bc
000000d0: 03cc 513d 441b 163d 18b5 4e3d 991e dc3c
000000e0: 4d49 babc 571c 4a3b e72e b63c aaf5 1b3d
000000f0: 594d d4bb bf4f 433d 10e6 8a3c 0039 83bb
00000100: c7ec 71bc a4ca 033d de42 44bc e273 733b
00000110: 5b08 9abc 3df0 71bb e536 533d 7012 d7bc
00000120: 0c42 193c f801 f9bb 726a a6bb 4ec2 a13c
00000130: ff83 b5bc ead9 82b9 aa7b 1c3b de22 343c
00000140: f646 4e3d 5a32 1c3d 10c8 e1bb 6a53 013c
00000150: b37b 60bc 0a29 11bc e67e 79bc 27c2 a4bb
00000160: 4fc3 d43c 143a d2bb 0140 00bc 1151 2c3d
00000170: b820 553c 9e8c 98bb 7c51 5f3c a8e9 813a
00000180: 97f1 d9bc b9bd 003d 5862 2d3a 4913 0dbc
00000190: a86d 163d 07f7 443c a787 9e3c feb4 39bb
000001a0: c0e5 d43b 7ae4 293c bfe1 8cbc f6ad 72ba
000001b0: 5421 8abb 7d48 ce3b 5235 9fbc b155 3fbc
000001c0: 8be6 d03b a4b9 f0bb 37ee ac3c a609 bcbb
000001d0: 9784 573d d2ad abbc f382 dc3b 13f8 bcba
000001e0: a67c a1bb 2e41 eebb 4fea cdbc 7d90 03bc
000001f0: 11e4 753d 5f32 d83a d469 a3bb 3716 1c3d
0.0026058313 -0.008421732 -0.0038361223 0.01523194 -0.0012075866 0.055534687 0.017739007 0.0530251
0.00612107 0.035872355 0.003635149 -0.009956608 0.025610253 0.03448351 -0.028432038 -0.020470982
0.038309902 0.028267907 -0.005852409 -0.0035661585 0.012297326 -0.015898587 -0.02563304 -0.015612483
0.012192927 0.025194637 0.04347692 0.0067296107 -0.016322857 -0.01946736 0.015757374 0.022969762
-0.021751644 -0.018750612 -0.0068977005 -0.0057591796 0.05965705 -0.01198077 -0.012478108 -0.017200293
-0.032267943 0.0037577727 -0.009814775 0.045999736 0.0051371576 0.022974152 0.02782565 -0.017582582
-0.017981704 -0.007095837 -0.005322556 -0.011131782 0.05121995 0.036647096 0.050465673 0.026870059
-0.02274003 0.0030839646 0.022239162 0.03807608 -0.006478947 0.047683474 0.016955405 -0.0040045977
-0.014765925 0.032175675 -0.011978833 0.003714793 -0.018802812 -0.0036916875 0.051566023 -0.026253909
0.009354126 -0.0075991116 -0.0050786072 0.019745972 -0.022157667 -0.0002495789 0.002387742 0.010994641
0.050360642 0.038133956 -0.0068903044 0.007893423 -0.013701367 -0.008859882 -0.015228009 -0.0050280276
0.025972037 -0.006415615 -0.00782776 0.0420695 0.013008289 -0.0046554348 0.013630267 0.0009911554
-0.026604457 0.031430934 0.00066140806 -0.008610555 0.03672567 0.0120217865 0.019351793 -0.002833664
0.006497115 0.010369414 -0.017197488 -0.00092574896 -0.004215399 0.0062952624 -0.019434605 -0.011678145
0.006375139 -0.007346349 0.021109683 -0.005738455 0.052616682 -0.020956907 0.0067294776 -0.0014417194
-0.0049281893 -0.0072709536 -0.025136141 -0.008030054 0.060031954 0.0016494504 -0.004986981 0.038107123

network_body._body_endoder.seq_layers.2.weight f4 [128, 128]
00000000: a7d2 763d 8662 babb 56e6 833d 90e6 2abd
00000010: 50bd 02bd fe5b 6d3c 0323 56be 37fa bf3b
00000020: e269 913d f1c2 fcbd b576 c4bd daeb ff3b
00000030: 758d ecbd dbb4 fcbc 4b5c 42bc 125d 87bd
00000040: 953e 54bc a26d af3d 26ed 9cbb d717 f7bc
00000050: 3101 6e3d 6114 98bc da92 40be b815 a83c
00000060: 32e7 483d 2e01 d8bd 25e9 983d a8e0 0d3e
00000070: e7e7 813e ac82 9e3c d0f1 e53d 1028 61be
00000080: a702 213e 2e35 063e 8f07 49bd 471d c7bd
00000090: 115b 983b b2c0 623d 63b4 ab3d 80e0 cd3d
000000a0: da3c f7bd 2206 173e 2cb5 2bbe 6189 cb3b
000000b0: 285e 45be e573 683d e3b0 01be 041a 853c
000000c0: ee20 6dbd 7a22 233d 83dc 2ebc 0b20 473d
000000d0: 89f2 2ebe 857e 1d3c fead 90bc 616e 0a3e
000000e0: 8589 933d 880e 3e3d 3310 3b3e 1435 b53d
000000f0: e8a9 45bd 7c88 ad3d 1ffc b7bd e128 bbbd
00000100: 2d95 30bb 6823 93bd ca5a fd3d 015f 0e3d
00000110: 5cb2 cb3c 5e34 bfbd d855 4cbc 93a3 e63d
00000120: 07d3 8fbd 7a22 703d 22bb f93d a21c 9a3e
00000130: b860 7dbc 31de 9a3c 263a e13d 7a88 e13d
00000140: 3287 f83c 56d2 97be abd4 6cbd 8eaa 7abd
00000150: 6d79 5e3d 66de 183c d470 2b3e 28dd 44bd
00000160: 04c9 003d 8923 c13d 1bf7 a7bd b440 693e
00000170: cbd7 14be 8e13 1f3e 9d05 ddbd f756 d6bd
00000180: cf05 853d 7249 babc d79a 6e3c 6b29 953d
00000190: c3f4 273e 9603 cdbd 883c 06bc 31b2 ffbd
000001a0: 3105 9c3d 218a 65bd ea21 653d 19a8 25be
000001b0: 8640 353e 4b9d 80bd acea 85bd 0356 3f3d
000001c0: a83f 203e d8a7 7bbd 68f0 4fbb 796d bd3d
000001d0: d78b ff3d 2fb8 8abc 1acb 0a3e b9ab 24bd
000001e0: 7b71 00be cf81 a4bd e3db 89bd fb0d 543e
000001f0: aedb 6b3d d583 13be 4cdb 14bc 69cc 213e
00000200: 5191 3b3e 9c8a e93d 26d7 853d 4bb0 8cbd
00000210: 34c2 993d 7e14 18be e765 e93d 8dfc 83bc
00000220: d0c8 c63d 6c90 113d 2b15 433d 063d bc3d
00000230: 25fc e0bd 12eb 0d3d 6897 44bd a803 f4bd
00000240: c869 b7bc f738 f33d fb39 fc3d d8ce cd3d
00000250: 9edf 43be b5a8 f3bc 5d6a b53c 12e9 05be
00000260: b128 0abe 5da3 80bd e066 73bd cce6 a93d
00000270: f866 d63d e7ed af3d 5393 cdbd da0b 683d
00000280: e603 e43c d352 623e cf3e 953d c7da 593d
00000290: 3939 2bbe 9db8 8c3c 9746 713e e6e5 57bc
000002a0: be35 5e3d 4ae6 143e b9cd a2bd cdf2 abbc
000002b0: 03f8 493d c27c bbbd 492a 003e 21ec a3b8
000002c0: 9535 9ebc 7ba7 e03d 9296 bcbd e2aa 4d3e
000002d0: c086 a9bd 6b9a aa3d b0b2 7b3c 9012 81be
000002e0: ecd6 86bd 25cd 03bc 070f 4fbc 5986 813d
000002f0: 28ae f13d a370 1ebd 7239 22be 5ee5 f83d
00000300: 1506 103e 2919 693c 4eee 0e3e aa45 9c3d
00000310: d2db 56bb 3e33 8c3d d35a 31be 4a8a 6d3c
00000320: 18f8 20bd 99c7 a23d a32c 413d 3606 fcbd
00000330: c516 0e3e 1981 b0bd d663 22bc 6bd5 773d
00000340: 3230 41bc 57b3 62bd 1720 253d f31c a73d
00000350: ed89 683e 100a 18be 5c7c 4a3d f596 46bc
00000360: ede2 0fbe a650 9b3d 6da0 023e 1ff1 14bd
00000370: 6d52 99bd 43be 463e 422a f93d 71a6 ce3d
00000380: 97b4 35be 02df 3c3d 983e 2a3e 709d 383e
00000390: a6ab aa3d 2623 dc3c 6df9 5e3e 4178 6bbd
000003a0: 7894 5cbb 5af4 36bd 3371 603e 1160 c3bc
000003b0: af9e 713d 7a62 aa3e 9088 97bd 4323 063e
000003c0: a498 093e 5ce5 293e dc0b 52be b48a f53c
000003d0: 6404 efbd 9d81 b43d 9134 78bd cfb1 aa3c
000003e0: 8941 bfbc 18c6 20be 45ca 523d 0611 eabd
000003f0: 4a7f c2bd bcc9 c33c b051 e43c 4805 c33c
0.060259487 -0.0056880144 0.064404175 -0.041723788 -0.031918824 0.014487265 -0.20911793 0.0058586854
0.07100274 -0.123418696 -0.09592954 0.007810098 -0.11550418 -0.030847957 -0.011862825 -0.06609549
-0.012954374 0.08565833 -0.0047890125 -0.030162735 0.058106605 -0.018564405 -0.1880602 0.020518169
0.04904861 -0.105471 0.07466344 0.13855231 0.2537224 0.019349419 0.11227763 -0.21987939
0.15723668 0.13106224 -0.049079474 -0.09722381 0.004649528 0.05535955 0.083840154 0.100525856
-0.120721534 0.14748433 -0.1676833 0.006211445 -0.19274199 0.05675115 -0.12665133 0.016247757
-0.057892732 0.0398278 -0.010672691 0.048614543 -0.17084707 0.009612684 -0.017661091 0.13518669
0.07203964 0.046400577 0.18267898 0.088480145 -0.04825774 0.08473298 -0.08983635 -0.091386564
-0.0026944384 -0.071844876 0.12370832 0.03475857 0.024865322 -0.0933616 -0.012471639 0.11261668
-0.07022672 0.05862663 0.12193896 0.3009997 -0.015464954 0.018904777 0.10997419 0.11012359
0.030337904 -0.2965266 -0.057820003 -0.06119781 0.05431502 0.009330368 0.1674226 -0.048062474
0.031441703 0.09430606 -0.082014285 0.22778589 -0.14535443 0.15534803 -0.10792086 -0.10465806
0.064952485 -0.0227401 0.014563284 0.072832905 0.16401963 -0.100104496 -0.008193143 -0.12485159
0.07618178 -0.056039933 0.055940546 -0.16177405 0.17700395 -0.06280001 -0.06538901 0.046712887
0.15649283 -0.061439365 -0.0031728987 0.09249396 0.12477844 -0.016933529 0.1355404 -0.04020283
-0.1254329 -0.080325715 -0.06731393 0.20708458 0.05758255 -0.14405759 -0.009085488 0.15800633
0.18317153 0.11403391 0.06535177 -0.06869563 0.075077444 -0.14851567 0.113963895 -0.016111637
0.09706271 0.035538122 0.04762761 0.09191327 -0.10985593 0.03464801 -0.047995955 -0.1191476
-0.022389308 0.118760996 0.123157464 0.10049218 -0.19128272 -0.029743532 0.022145445 -0.1307719
-0.13492085 -0.06281159 -0.05942428 0.08295974 0.104688585 0.08590298 -0.100378655 0.056651928
0.02783389 0.22101907 0.072873704 0.053187158 -0.16721047 0.017177874 0.23562084 -0.013177371
0.05425047 0.14540973 -0.07949395 -0.0209898 0.049308788 -0.09154655 0.1251613 -7.816428e-05
-0.01931266 0.10969444 -0.092084065 0.20084718 -0.08277655 0.08330234 0.015362427 -0.25209475
-0.06583962 -0.008044516 -0.01263786 0.06324453 0.11800796 -0.038681637 -0.15842226 0.12153123
0.1406482 0.01422719 0.13958094 0.07630475 -0.0032784832 0.06845711 -0.17319803 0.014498303
-0.0392991 0.079482265 0.04716171 -0.12305872 0.13875873 -0.086183734 -0.009911498 0.060506266
-0.011791276 -0.055346813 0.040313806 0.081598185 0.22708865 -0.14847589 0.049435005 -0.012120952
-0.14051409 0.07583742 0.1275651 -0.036362763 -0.074864246 0.19408517 0.12166263 0.1009034
-0.17744671 0.046111114 0.1662544 0.18028808 0.083335206 0.026872229 0.21774836 -0.05748773
-0.003365783 -0.044666626 0.21918182 -0.023849519 0.058989223 0.33278257 -0.07399094 0.13099389
0.13437134 0.165914 -0.20512336 0.029973365 -0.11670759 0.08813784 -0.060597006 0.020836739
-0.02334668 -0.15700567 0.05146243 -0.11429028 -0.09496935 0.023899905 0.027870983 0.02380623

network_body._body_endoder.seq_layers.2.bias f4 [128]
00000000: 433e 30bb 9083 293b c1d2 e2bb 1d2f adbb
00000010: 472f 133d 20f3 88bc 548c a3bc ecae cbba
00000020: 4b7a 243d a3da 283d 909a 62bb deac c4bb
00000030: daa6 03bc 8946 c83a 2404 b93c 3c41 f9bb
00000040: f3a9 fcbc d8fd 633d bd85 0cbb b33d 97bc
00000050: ac98 dd3c c803 eb3b 498b 893a a034 153c
00000060: 8727 853c 8b0c a5bb 6dbe 84bb e6f4 aa3c
00000070: 7b27 7a3d 2c03 febb 0391 693d cb6a 6d3c
00000080: 1865 2f3d b253 b6bb 7a81 31bc fe92 bfba
00000090: da40 793c ea28 7dbc f20b 103c 6716 82bc
000000a0: 5630 9d3c 330e e7b9 c0be 3e3d 519a 803d
000000b0: 0e7d 09bc da16 4e3d 5e69 c63b a549 4abc
000000c0: 2ccf bb3c d01f d13c 9506 e73b 7811 993d
000000d0: 4a5a ec3c 2ec9 573d 8082 0e3c 59c6 393d
000000e0: eaf9 743c 49ff 353d 9b37 9e3c bd21 84bc
000000f0: 3c6b 543c 01f1 003d 8fdc bd3c de70 9eb9
00000100: 36ba a83b 9369 7e3b 1c20 6f3a d424 8e3d
00000110: fad3 c13c db02 9f3b 75df 7abb dc7e 193d
00000120: 4b96 013d 2328 3a3d 495a 3b3d 91e9 483d
00000130: f398 6aba bdcd 14bd 5df0 133d 0cab f73c
00000140: 9a9a 1f3d b4c3 b8bc 7139 4b3c e563 4bbb
00000150: de12 853d abe3 123d 3480 8c3c b9e6 843d
00000160: 132a d0bc c3c3 f33b 0455 c2bc 9c04 973b
00000170: 0f45 903c 564c e43b 6672 803d 6d48 6ebb
00000180: 7340 d73c a723 d1bc f2a9 d53c c9df 33bc
00000190: 9fb9 b63c 7498 1a3c 4208 853c 6348 9b3c
000001a0: 6fc8 353c c4e0 79bb c930 3e3d 5a47 65bb
000001b0: 9b95 953b 40ed 4e3d b15f 38bb eacd bbbc
000001c0: 1dc9 883c 80ab 2cbc b46b 043b 11f6 613b
000001d0: c027 083d 385c 2e3c 54aa 4ebc beef a2bc
000001e0: 80f3 32bb 7670 d6ba e294 373d c6fd f13c
000001f0: ed27 5f3d 9a6e 063d eb6b e83c 5e02 a1bb
-0.002689258 0.002586577 -0.0069220965 -0.0052851574 0.03593376 -0.016717494 -0.019964375 -0.0015539802
0.04015569 0.041224133 -0.003457699 -0.0060020527 -0.008035386 0.001527981 0.022584982 -0.0076066535
-0.030842757 0.055662006 -0.002144202 -0.018462038 0.027050339 0.0071720816 0.0010493781 0.009106785
0.0162542 -0.0050368956 -0.004051021 0.02086873 0.061072808 -0.007751843 0.05702306 0.014490793
0.04282102 -0.0055641765 -0.010834092 -0.0014615951 0.015213216 -0.015451649 0.0087919105 -0.015879823
0.019188087 -0.00044070333 0.046568632 0.062794335 -0.008391632 0.05031476 0.006055041 -0.01234666
0.022925936 0.025527865 0.007050345 0.07474035 0.028851647 0.052682094 0.008698106 0.045355175
0.014952162 0.044432912 0.019313624 -0.016129369 0.01296502 0.03147984 0.02317646 -0.000302202
0.005149151 0.0038820251 0.0009121911 0.06940618 0.023660649 0.0048526353 -0.0038280163 0.0374745
0.03163747 0.045448434 0.0457404 0.04905087 -0.0008949183 -0.03632902 0.0361179 0.030232929
0.0389658 -0.022554256 0.012403832 -0.0031034884 0.06497739 0.035861652 0.017150976 0.06489319
-0.025410688 0.007439108 -0.02372218 0.004608704 0.017611055 0.0069671078 0.0627182 -0.0036359087
0.026275849 -0.025529696 0.026082013 -0.0109786475 0.022305308 0.009435762 0.01623929 0.018955415
0.01109515 -0.0038128356 0.046433244 -0.0034985156 0.0045649535 0.050519228 -0.0028133208 -0.022925336
0.01669746 -0.010538936 0.0020205798 0.0034478942 0.033241034 0.010642104 -0.012613852 -0.019889709
-0.0027305782 -0.001636042 0.04481972 0.029539954 0.054481436 0.03282032 0.028371772 -0.0049136123

action_model._discrete_distribution.branches.0.weight f4 [2, 128]
00000000: 2dee 913d 1f41 d7bb 363e 003d a2fb 07bd
00000010: b96d f53c 4f6f febc 2922 1cba d676 e93c
00000020: 1528 38bd aef6 b1bd 01bf 623d 5a18 d83b
00000030: c561 4fbc 2971 debc 2fd3 ef3d 3260 1aba
00000040: 79bd 03bc 8320 70bc 3ae0 85b9 b68f 683b
00000050: 0867 87bd 9e41 023d 8e71 733d 7644 343c
00000060: 12f7 ac3b dbda 8c3d 5612 793c 737a 22bd
00000070: 23e5 383c c94e 0a3c 35b9 243d 4587 55bd
00000080: ff50 97bd 0f21 1fbc aabf 72bb 6861 b83b
00000090: aa3f 1cbd 0d85 3ebc 393a 0e3b e80b 71bc
000000a0: 9d41 973d 925a c3bc ab05 9d3b 690a a5bc
000000b0: 734b f3ba b377 28bd bf7b 833c 04a8 9b3c
000000c0: ffe8 d93d cb67 7dbc 92fb bdbc f66f d33c
000000d0: 2262 95bd e03e 263d e8b3 3e3d 3d33 483a
000000e0: 1754 efbc 6978 4ebd 96c1 94bb 5f16 de3b
000000f0: 5b75 393d a889 00bc d7d3 83bd 1130 e8bc
00000100: e620 373d b1de c3bc 0dfa fbb9 7e92 993c
00000110: 2cec af3d 7e68 393c bd02 35bd 4264 8dbd
00000120: 693f 80bd 02db 423d ab25 acbc a8bd 0cbd
00000130: 6958 563b 30b4 d63c ef13 753c dc02 89bc
00000140: 7794 e2ba e414 0db9 efc9 0ebb a31d 83bc
00000150: d483 073c fe1f 98bd 46fa 1fbd d784 d4bb
00000160: 55de ae3b 978b 1bbd abd9 ef3b d463 cabc
00000170: 0779 463d 2684 22bd 1f15 9cbc c9ac b4bb
00000180: e83b 8abd ffd4 b1bc cc9d 393c b362 903b
00000190: 366e d1bc 8951 d4ba ae1c e23d 5447 d43b
000001a0: daf3 a9bd b89a cf3c 35e6 c1bc a244 4a3c
000001b0: a27a c13d a3a4 f7bc bb6e a3bc 1805 aebb
000001c0: 61ad 37bd 9543 9c3c c523 383b cecb 2ebd
000001d0: fe17 193d 67b0 703c 0860 2c3d d3e3 933c
000001e0: cd53 67bd 9df2 79bd 134b 1ebc a34d 9bbc
000001f0: aad8 6bba 57f2 8e3d dc65 aabd 9e14 d73c
00000200: 5553 84bd 90f0 4a3c 55bb 70bc 0c38 ee3c
00000210: 9e61 8fbc a57d c63c 0daa 7c3c d255 0abd
00000220: a5c7 4d3d 6410 933d daee cfbc 2e02 f6bc
00000230: 3542 a33b c7d3 103d a9f8 e3bd 5704 ff3b
00000240: b5c3 203c 1a6b fd3c ee65 513b 6f40 9b3b
00000250: c283 893d c5dd 9ebc 24c6 adbd 8668 043c
00000260: 3b8f a0bc 64bc 88bd d93b 81bc 3574 253d
00000270: a9a8 54ba da0f d5bc b3a7 1ebd dbc0 813d
00000280: 829a 553d 0545 49bc 1b5d d9bc 22bc d4bb
00000290: 9ade 3a3d 9555 593c 0fce 0d3b 236d 6a3b
000002a0: fd08 90bd a2a9 853c 4c60 0038 786d 003d
000002b0: 918b 443b 1788 0f3d c778 d8bb fbaf 32bc
000002c0: e133 b1bd ebae c23c 2666 943c 9d91 b5bc
000002d0: a3df 913d ab13 37bd dbe1 19bd a0a0 d23b
000002e0: f3d5 2b3d da14 3d3d 8e4f 34bc 772e aebc
000002f0: 08d4 81bd 57f7 d4ba fd15 8f3d 0726 ae3c
00000300: bf49 73bd 3dbd 4a3c fbaf 08bc 2e14 8dbc
00000310: 6304 8bbd b639 8f3b 92ee 5d3d 8e58 7b3d
00000320: b766 4d3d b6cb 73bd 9a82 d33c f02d 153d
00000330: b8ab b3bc 6cce adbb 5cd3 7bbc dd66 e4ba
00000340: cc7b b33c 5168 913c 6c3c 7ebc be61 19bb
00000350: ba33 b53b ef20 853d 38c8 433d f659 9bba
00000360: c75a 8fbb f29e 673c e118 013c 3a76 383c
00000370: 823f 2dbd 684f 573d 120d cc3c 9e3b ad3c
00000380: f142 243d 5080 c63b 331e 30bb d261 78bc
00000390: f3a4 103d b265 cb3b ba53 e5bd 9e68 b5bc
000003a0: f00b 683d cd74 a6bc 9756 493c 2e78 96bc
000003b0: e1d2 97bd b798 f33c 43e3 1c3c 28cc 463c
000003c0: fed2 7b3c f98a 74bc c8f0 983b ec98 d63c
000003d0: 8a5c 66bd 9564 223a ad7d f6bc 265f 7ab9
000003e0: 8e01 623d 05f9 653d b899 6dbb 9551 8b3c
000003f0: 5f72 47bb fde1 adbd 059f c53d 88cb b7bc
0.071255066 -0.0065690423 0.03130933 -0.03319896 0.029959546 -0.031058935 -0.0005956018 0.028499048
-0.0449601 -0.086896285 0.055357937 0.0065947 -0.012657587 -0.027153568 0.11710202 -0.0005888968
-0.008040779 -0.014656189 -0.000255348 0.003548605 -0.066114485 0.03180086 0.059434466 0.0110026505
0.0052784765 0.06877681 0.015202126 -0.039667558 0.011285099 0.008441635 0.04021569 -0.052130956
-0.07388496 -0.009712472 -0.003704051 0.005626846 -0.038146652 -0.0116284015 0.0021702184 -0.014712311
0.073855616 -0.023846898 0.0047919354 -0.020146566 -0.0018561914 -0.04112978 0.016050218 0.019001015
0.106401436 -0.015466641 -0.023191247 0.025810223 -0.07294108 0.040587306 0.04655829 0.00076370296
-0.029214902 -0.0504078 -0.004539679 0.006777569 0.045277935 -0.00784532 -0.064368896 -0.028343232
0.04470911 -0.023909898 -0.00048060753 0.01874661 0.08589968 0.011316417 -0.044192065 -0.06903888
-0.062620945 0.047572143 -0.021014055 -0.034360558 0.0032706505 0.026208967 0.014958366 -0.016724996
-0.0017286678 -0.0001345459 -0.0021787842 -0.016005343 0.008271176 -0.07427977 -0.03905704 -0.0064855623
0.0053365626 -0.03797492 0.007319649 -0.024705805 0.048455264 -0.039676808 -0.01905304 -0.0055137617
-0.067497075 -0.02170801 0.011329126 0.004406297 -0.025565248 -0.0016198616 0.110406265 0.0064782295
-0.08298464 0.02534233 -0.023669342 0.012345465 0.094472185 -0.030229872 -0.019950261 -0.005310666
-0.04484308 0.019075194 0.0028097492 -0.042674832 0.037376396 0.014690495 0.04208377 0.018052971
-0.056476403 -0.06102239 -0.009661454 -0.018957919 -0.0008996824 0.069798164 -0.083202094 0.026254948
-0.06461207 0.012386456 -0.014693101 0.02907946 -0.017502602 0.024229834 0.015421403 -0.03377325
0.050239224 0.07180861 -0.025382448 -0.030030336 0.0049822577 0.035358217 -0.111314125 0.0077825
0.009812285 0.030934859 0.0031951624 0.0047379057 0.06714584 -0.019392857 -0.08485058 0.008081561
-0.019599548 -0.06676558 -0.015775608 0.040394027 -0.00081122905 -0.026008535 -0.03873415 0.063356124
0.052149303 -0.012284522 -0.026533654 -0.0064921537 0.045622446 0.013265033 0.0021637713 0.0035770617
-0.070329644 0.016316239 3.060726e-05 0.031354398 0.0029990415 0.035041895 -0.0066061947 -0.010906215
-0.08652473 0.023765048 0.018115114 -0.02216416 0.071227334 -0.04469649 -0.03756891 0.0064278394
0.041952085 0.046162464 -0.011005295 -0.02126239 -0.0633927 -0.001624803 0.06986616 0.021258367
-0.0593965 0.0123742195 -0.008342738 -0.017221536 -0.06787946 0.0043708934 0.054182597 0.06136375
0.050146785 -0.059520446 0.025819112 0.036420763 -0.021932468 -0.0053041484 -0.015370216 -0.0017425675
0.021909617 0.017749937 -0.015517335 -0.0023404206 0.005529848 0.06500422 0.047798365 -0.0011852372
-0.004374835 0.014137017 0.007879467 0.011258656 -0.042296894 0.052565962 0.024908576 0.021146592
0.040102903 0.0060577765 -0.002687347 -0.015160041 0.035313558 0.0062071914 -0.1119761 -0.022144612
0.05665201 -0.020319367 0.012288711 -0.018367853 -0.07413269 0.029735906 0.009575668 0.012133636
0.015370129 -0.014925712 0.0046673752 0.026195966 -0.056240596 0.00061947975 -0.030089224 -0.00023877303
0.055177264 0.056145687 -0.0036254954 0.017006675 -0.003043316 -0.084903695 0.09649471 -0.022435918

action_model._discrete_distribution.branches.0.bias f4 [2]
00000000: b471 8fba 7d78 8f3a
-0.001094392 0.0010945942
