results/reinRayLong3/ZARAgoal/ZARAgoal-2899964.onnx (onnx, 309348 bytes, 15 tensors)

discrete_act_size_vector f4 [1, 2]
0	0x40000000	2.0
1	0x40400000	3.0

network_body.observation_encoder.processors.0.conv_layers.0.weight f4 [16, 5, 8, 8]
0	0x3dd847a0	0.105605364
1	0x3d7e2823	0.062049996
2	0x3d6d4281	0.05792475
3	0x3ce5f303	0.028069979
4	0x3d87c9a9	0.066302605
5	0xbc1e7a0c	-0.009672653
6	0xbcd1a62c	-0.025591932
7	0xbd241112	-0.040055342
8	0x3d38afef	0.04508966
9	0xbd2d11df	-0.04225337
10	0x3be46b09	0.0069707674
11	0x3d2a40b1	0.0415656
12	0x3d8ab9b8	0.06773704
13	0xbc97975c	-0.018504791
14	0x3d6efc23	0.058345925
15	0xbc182604	-0.009286407
16	0x3d5e209c	0.054230317
17	0x3d50ec46	0.051006578
18	0xbc9d0368	-0.019166663
19	0x3cfd68e0	0.030933797
20	0x3d0461de	0.032319896
21	0xbc7ab9be	-0.015303073
22	0x3de98926	0.11403112
23	0x3d493057	0.049118366
24	0x3d75bb3c	0.059993014
25	0x3d8b30f8	0.067964494
26	0xbb65da54	-0.003507276
27	0x3c3221b2	0.010872291
28	0x3c07fb99	0.008299732
29	0x3db267ce	0.087112054
30	0x3add37ca	0.0016877588
31	0xbd483014	-0.048873976
32	0x3d6c8898	0.057747453
33	0x3d6307b6	0.055427276
34	0xbb7fd2b0	-0.0039035492
35	0x3d1f95ed	0.03896134
36	0x3d94c6b0	0.07264459
37	0x3cffcb33	0.031224823
38	0x3dcadfb8	0.09905952
39	0x3bdbcb3c	0.006707577
40	0x3ca17b6e	0.019712176
41	0x3cb39007	0.021919264
42	0x3d429c7e	0.047512524
43	0x3da065ab	0.078318916
44	0x3dbdb51b	0.09263059
45	0x3d335b75	0.043788392
46	0x3cfc45cc	0.030795
47	0x3d35af70	0.044356763
48	0x3d886702	0.06660272
49	0xbb8fc991	-0.0043880423
50	0x3c689a15	0.014196892
51	0x3d769176	0.060197316
52	0x3db1aa37	0.08675044
53	0x3ca6019b	0.020264437
54	0x3d18f635	0.037344176
55	0x3d811491	0.06302751
56	0x3d3c3742	0.045951135
57	0x3b9283af	0.0044712643
58	0x3c92354a	0.017847676
59	0xbd1413db	-0.03615175
60	0x3d84d708	0.064863265
61	0x3d974a80	0.073872566
62	0x3d967583	0.07346632
63	0xbcc14821	-0.023593964
64	0xbd157c86	-0.036495708
65	0xbd5d10a7	-0.05397096
66	0xbd44475b	-0.047919612
67	0xbba0bc40	-0.0049052536
68	0xbd9ae1b5	-0.075625814
69	0xbbf7cc1a	-0.0075621726
70	0x3ca3ec8e	0.020010259
71	0xbca4c6a7	-0.020114256
72	0xbd2fc1c9	-0.042909417
73	0x3c8a673d	0.016894931
74	0x3d8b4244	0.067997485
75	0xbc51fd34	-0.012816716
76	0x3b56b8e2	0.0032764007
77	0xbd403212	-0.04692275
78	0xbd62995e	-0.055322044
79	0xbd4c09fa	-0.049814202
80	0xbbece6ce	-0.0072296625
81	0x3ccd78f9	0.025082098
82	0x3c854974	0.016270377
83	0xbccd4316	-0.025056403
84	0x3cc2e2cd	0.023789788
85	0xbb6106ac	-0.0034336252
86	0x3ca27b29	0.019834118
87	0xbb98615d	-0.0046502785
88	0x3c398fcc	0.011325788
89	0x3da80a81	0.082051285
90	0xbc455bc4	-0.012045804
91	0x3d2139f6	0.039361916
92	0x3afa1379	0.001907929
93	0xbd3a06b7	-0.04541656
94	0x3d493655	0.04912408
95	0x3b07a889	0.002069982
96	0xbd628161	-0.055299167
97	0xbd1f85fb	-0.038946133
98	0x3d04a547	0.032384183
99	0x3c36724d	0.01113565
100	0x3d521ff3	0.0513
101	0x3d3bdbd5	0.045863945
102	0x3c798177	0.015228621
103	0xbcac20d2	-0.021011744
104	0x3cddeed1	0.027091416
105	0x3d72af47	0.05924919
106	0xbc451ee7	-0.0120312935
107	0xbcb0f786	-0.021602403
108	0xba9e849a	-0.0012093962
109	0xbc145177	-0.009052626
110	0x3c1be7f7	0.009515754
111	0x3afb3fd6	0.0019168805
112	0x3da5b7cf	0.08091699
113	0xbcc418bd	-0.023937577
114	0x3b2ebdd1	0.0026663432
115	0xbcebd8c2	-0.028789882
116	0xbc918ec4	-0.017768271
117	0x3cb04fa1	0.021522345
118	0xbc4ea496	-0.0126124825
119	0x3d5e1146	0.054215692
120	0x3941bd15	0.00018476353
121	0x3ccde19c	0.025131993
122	0xbd08c63e	-0.033392183
123	0xbcbcd728	-0.023051813
124	0xbd0de299	-0.03463993
125	0xbcfc5fad	-0.03080734
126	0xbb8d405e	-0.0043106517
127	0xbc8f491d	-0.017490918
128	0xbddd8479	-0.10816283
129	0xbd13f15f	-0.03611886
130	0xbd7a6d24	-0.06113924
131	0x3c93db34	0.01804886
132	0xbda66b6b	-0.08125957
133	0x3c9f98fd	0.01948213
134	0x3d47e934	0.048806384
135	0x3d078e09	0.03309444
136	0x3cc1039c	0.023561291
137	0x3a94a1c0	0.0011339709
138	0xbcb9a8b1	-0.022663446
139	0xbba393b9	-0.004991975
140	0xbd12eb21	-0.035868768
141	0xbd850e8f	-0.064969175
142	0xba9823ba	-0.0011607327
143	0x3a79541b	0.0009511129
144	0x3c79e2b8	0.015251808
145	0x3d27747e	0.04088258
146	0x3a22f184	0.0006215798
147	0x3cabf67a	0.020991553
148	0xbcb4ea67	-0.022084428
149	0x3b017c09	0.0019757769
150	0x3c45d2d9	0.012074196
151	0x3ca687ae	0.020328369
152	0x3c1528b3	0.009103942
153	0x3d0015cd	0.03127079
154	0x3d0dd864	0.034630194
155	0xbc431ab3	-0.011908221
156	0xbc6963c8	-0.014244981
157	0xbd672418	-0.056430906
158	0xbc8e6cf7	-0.017385943
159	0x3d36b43a	0.04460547
160	0x3d20687f	0.039162155
161	0x3cd944f4	0.026522137
162	0xbcf55c5a	-0.029951263
163	0xbd558d02	-0.05213643
164	0xbcf6a6e1	-0.030108871
165	0xbac6566d	-0.0015131958
166	0x3d9855ee	0.07438265
167	0x3d3590c9	0.04432753
168	0x3d580b17	0.05274495
169	0xbd19bf28	-0.037535816
170	0x3cba6af8	0.022756085
171	0x3cdb9b1a	0.026807357
172	0xbd08bfe5	-0.03338613
173	0x3cc29c13	0.023756063
174	0xbc1f415f	-0.0097201755
175	0xbd5faeb2	-0.05460996
176	0xbc55b67f	-0.013043999
177	0xbbe8467d	-0.007088481
178	0xbd3d61af	-0.046235736
179	0xbabb670d	-0.0014297679
180	0xbb07627a	-0.0020658062
181	0x3d3d8603	0.04627038
182	0xbd0f1c33	-0.034939002
183	0x3d7cafc2	0.061691053
184	0x3a556305	0.000814006
185	0x3d77d724	0.06050791
186	0x3d5f50c1	0.054520372
187	0x3d2f81fc	0.042848572
188	0x3ca10032	0.019653413
189	0x3d23a403	0.039951336
190	0x3cd9073d	0.02649271
191	0x3cde0554	0.02710215
192	0x3de3a5a2	0.11115576
193	0x3dae09bd	0.08497951
194	0xbc4520cd	-0.012031746
195	0x3c81907c	0.015815966
196	0x3db9a5e4	0.09064844
197	0x3d344ac0	0.0440166
198	0xbba8dc5f	-0.0051532234
199	0x3cc67187	0.024224056
200	0x3d747ca1	0.059689168
201	0x3d7ef9ea	0.062250055
202	0x3d84a305	0.06476406
203	0x3d9f9a31	0.077930816
204	0x3cebc1f1	0.028779002
205	0xbc6db874	-0.014509309
206	0x3ca0d2e5	0.019631812
207	0x3db80b64	0.089865476
208	0x3d9dbdf4	0.07702246
209	0x3d9f7756	0.077864334
210	0x3dae9161	0.085238226
211	0xbc9f79d5	-0.019467274
212	0x3d685034	0.056717113
213	0x3d88db7a	0.06682487
214	0x3d91ac85	0.071129836
215	0xbb71a416	-0.0036871484
216	0x3c432528	0.011910714
217	0x3dc8ee57	0.09811085
218	0x3dc9b932	0.09849776
219	0x3d6f6583	0.05844642
220	0x3ce7125f	0.028207002
221	0xbcf71570	-0.03016159
222	0x3c5a9869	0.0133420015
223	0x3cc18d0d	0.023626829
224	0x3d7bcd99	0.06147537
225	0x3c77028f	0.015076294
226	0xbb6829ce	-0.0035425308
227	0xbc4bfbbb	-0.012450154
228	0x3cfd5b71	0.030927392
229	0xbd47af2c	-0.04875104
230	0x3c91cb79	0.017797219
231	0xbda27722	-0.07932879
232	0x3d8b6847	0.06806999
233	0x3d8f9c2f	0.070122115
234	0x3d06ea92	0.032938547
235	0xbd65ea6f	-0.056131776
236	0xbd617627	-0.05504432
237	0x3ce35ebc	0.027755134
238	0xbcfc513f	-0.03080046
239	0xbbbc2dd5	-0.0057427683
240	0xbc322df4	-0.010875214
241	0x3d533632	0.051565357
242	0xbca0f1fd	-0.019646639
243	0xbd8c8762	-0.0686176
244	0xbd69543a	-0.05696509
245	0xbcb9539e	-0.02262288
246	0x3b80861f	0.0039222385
247	0xbd1ef090	-0.038803637
248	0xbcfce723	-0.030871933
249	0x3c81e70f	0.015857248
250	0xbc6578f6	-0.01400589
251	0xbcf0a5df	-0.029375969
252	0xbd785d7d	-0.060636032
253	0xbc5023a5	-0.012703811
254	0xbd8954da	-0.06705637
255	0xbb22b906	-0.002482952

network_body.observation_encoder.processors.0.conv_layers.0.bias f4 [16]
0	0xbd80645f	-0.06269144
1	0xbc7865f3	-0.015161025
2	0x3b20e004	0.0024547586
3	0xbd237183	-0.039903175
4	0x3ce4d224	0.027932234
5	0xbd852e90	-0.06503022
6	0xbd029815	-0.031883318
7	0x3c269dfa	0.0101695005
8	0xbccd3fa0	-0.025054753
9	0x3d6e1fbd	0.058135737
10	0x3c725996	0.014791867
11	0xbd33ccb4	-0.043896392
12	0xbc799fa2	-0.015235813
13	0xbd7b01d6	-0.061281048
14	0x3ca6cf03	0.020362383
15	0xbcc74830	-0.024326414

network_body.observation_encoder.processors.0.conv_layers.2.weight f4 [32, 16, 4, 4]
0	0xbd1491a9	-0.036271725
1	0xbcc5a54f	-0.024126677
2	0x3a09150e	0.00052292726
3	0x3d765320	0.060137868
4	0x3cc5c593	0.024142062
5	0x3c8284c4	0.015932448
6	0xbc290ea3	-0.010318431
7	0x3d8dc624	0.06922558
8	0x3ced522a	0.028969843
9	0x3d9dfe61	0.077145346
10	0xbc8c110b	-0.01709797
11	0x3c343850	0.010999754
12	0xbd484feb	-0.04890434
13	0xbd30934c	-0.043109223
14	0xbd226350	-0.039645493
15	0x3d01882f	0.031624015
16	0x3cc5e68b	0.024157783
17	0x3cfe82bd	0.0310682
18	0x3ba761ab	0.0051080785
19	0x3bc253a1	0.0059303795
20	0xbc96565a	-0.018351723
21	0xbd03e3d2	-0.03219969
22	0x3b9478e0	0.004531011
23	0x3d6d7b01	0.057978634
24	0x3d41d7d7	0.04732498
25	0x3c83622d	0.016038025
26	0xbd170099	-0.036865804
27	0x3cb3cf30	0.02194938
28	0xbd8640aa	-0.065553024
29	0xbcdfb37b	-0.027307263
30	0xbd0886bb	-0.033331614
31	0x3d7f98cc	0.062401578
32	0xbca2b434	-0.019861318
33	0x3dbea7b6	0.09309332
34	0xbc02fd31	-0.007994936
35	0x3dc175c5	0.09446291
36	0xbd087ec6	-0.033324026
37	0x3d570e93	0.052504133
38	0x3c563029	0.013073006
39	0x3c79189a	0.015203619
40	0xbc97d468	-0.0185339
41	0xbd424438	-0.04742834
42	0x3d621d54	0.05520375
43	0x3dc88ae6	0.09792118
44	0xbd73d4cf	-0.059529122
45	0xbdd46130	-0.103700995
46	0xbd2f31e3	-0.042772185
47	0xbd433d46	-0.047665857
48	0x3c749736	0.01492863
49	0xbbf6445f	-0.0075154747
50	0xbd5dd3bd	-0.054157007
51	0x3d20d147	0.039262082
52	0xbdad67bd	-0.08467052
53	0x3cb009f4	0.021489121
54	0xbd65eaa6	-0.05613198
55	0x3d3d05d0	0.04614812
56	0x3d0fd541	0.035115484
57	0xbc542de6	-0.012950396
58	0x3c821980	0.0158813
59	0x3ddb8488	0.10718638
60	0xbca1d2f9	-0.01975392
61	0x3dd17c28	0.10228759
62	0x3d32fe3c	0.043699488
63	0xbd24f1b9	-0.040269587
64	0xbca0d373	-0.019632077
65	0xbbdb513b	-0.006693033
66	0x3df7c201	0.1209755
67	0x3dd6d4f3	0.104898356
68	0x3c5f55f5	0.013631334
69	0x3d870798	0.06593245
70	0xbd050256	-0.03247293
71	0x3dfa27ca	0.122146204
72	0x3be07e67	0.006851006
73	0xbdaeadaa	-0.085292175
74	0x3d06e65d	0.032934535
75	0x3d5cc734	0.053900912
76	0x3d08228c	0.03323607
77	0xbd8707ad	-0.06593261
78	0x3c90cdf5	0.017676333
79	0xbd58216c	-0.05276625
80	0xbb09171a	-0.002091831
81	0x3d8261bb	0.06366297
82	0x3db28646	0.08717017
83	0x3da160f9	0.07879824
84	0xbd0a7551	-0.033803288
85	0xbc5418b6	-0.012945345
86	0x3da8357b	0.082133256
87	0x3ca16531	0.019701572
88	0xbd28d2ef	-0.041216787
89	0xbd6d86df	-0.05798995
90	0x3d95dbe9	0.07317335
91	0x3da51b22	0.08061816
92	0xbd511b9f	-0.051051732
93	0xbd14dcec	-0.0363435
94	0xbcd89dc5	-0.026442418
95	0xbd6bbc35	-0.057552535
96	0xbd9196e4	-0.07108858
97	0xbc86bf7c	-0.016448729
98	0xbd8247fd	-0.06361387
99	0xbc699c80	-0.014258504
100	0xbd1313f2	-0.035907693
101	0x3bef1c88	0.0072971024
102	0xbd2f6d7e	-0.04282903
103	0x3d8cfcf0	0.068841815
104	0xbce7cb96	-0.02829532
105	0x3d0b804b	0.034057897
106	0xbd0d1508	-0.034443885
107	0x3d3dc74e	0.04633265
108	0xba5b3b5a	-0.0008363031
109	0x3d2d9a6c	0.042383596
110	0x3cac867f	0.021060226
111	0x3d4e14f0	0.050312936
112	0xbd7a2ac3	-0.061075937
113	0xbd9c1467	-0.07621079
114	0xbc50f249	-0.012753078
115	0x3ca95949	0.020672457
116	0x3dc30793	0.09522929
117	0x3d8189e6	0.0632513
118	0xbdb86507	-0.090036444
119	0xbdd3a814	-0.10334793
120	0x3d39f831	0.04540271
121	0xbdebe480	-0.11518192
122	0xbc4bdf13	-0.012443322
123	0xbcd6b9d9	-0.026211666
124	0x3d5684d3	0.052372765
125	0xbd214f02	-0.03938199
126	0x3c141372	0.009037839
127	0xbcd527f4	-0.026020028
128	0x3c46e38e	0.012139214
129	0xbdae1c76	-0.08501522
130	0xbd2705ae	-0.0407769
131	0x3dbb0191	0.09131158
132	0xbc95bdf0	-0.018279046
133	0xbcd149b8	-0.025547847
134	0x3d60d397	0.054889288
135	0x3d5c3a7f	0.053766724
136	0x3d05d301	0.032671932
137	0x3d728be9	0.05921546
138	0x3d6d4952	0.05793125
139	0x3bf2f170	0.0074140355
140	0x3cfe288c	0.031025194
141	0x3db887d0	0.09010279
142	0xbcaefced	-0.021360839
143	0xbd40dcfc	-0.047085747
144	0x3d68b08f	0.056809004
145	0x3bb3dec8	0.005489204
146	0xbd341872	-0.043968625
147	0x3d855a45	0.06511358
148	0xbd75c05e	-0.05999791
149	0x3d57d7cc	0.052696034
150	0xbcd403a3	-0.02588064
151	0x3ae0a82c	0.0017139963
152	0xbd2a8fca	-0.041641034
153	0xbd31c33e	-0.043399088
154	0x3d007c24	0.03136839
155	0x3dc87bad	0.09789214
156	0x3d8290e8	0.06375295
157	0x3c44d6f1	0.012014137
158	0x3d4ba2a7	0.049715664
159	0xbd3968bd	-0.0452659
160	0xbc036471	-0.008019553
161	0xbddc428d	-0.10754881
162	0x3d02fc0a	0.031978644
163	0x3c7a6427	0.015282667
164	0xbdb91da0	-0.09038854
165	0x3ca01113	0.019539392
166	0xbaec096c	-0.0018008179
167	0xbd00c61f	-0.031438943
168	0xbd431887	-0.047630813
169	0x3d25a575	0.040440995
170	0xbb03bf56	-0.0020103059
171	0xbc906212	-0.017624889
172	0x3d861115	0.06546227
173	0x3db4e172	0.08832063
174	0xbd164e2e	-0.03669565
175	0xbd748ecc	-0.059706494
176	0x3da6c7b6	0.081435606
177	0x3d366925	0.044533867
178	0x3dc1157f	0.09427928
179	0x3e07814e	0.1323292
180	0x3bbb8b84	0.0057234187
181	0x3cf76473	0.030199265
182	0x3cea71e7	0.028618766
183	0x3d80bee4	0.062864095
184	0x3b3bcd31	0.002865624
185	0xbe0459a4	-0.1292482
186	0x3d0edab2	0.034876533
187	0xbbf4c44a	-0.0074696885
188	0xbdd31dd2	-0.10308422
189	0xbd0ff399	-0.035144422
190	0xbd94a56f	-0.072581165
191	0xbcc2a897	-0.02376203
192	0xbd91523f	-0.07095765
193	0x3d141bd7	0.036159363
194	0x3d79d9a5	0.060998578
195	0xbd07f9d6	-0.033197246
196	0xbd0b6e1e	-0.034040563
197	0xbd198c28	-0.03748718
198	0x3ce7efa9	0.028312521
199	0x3d7d5e9f	0.061857816
200	0x3d5fdabf	0.054651972
201	0xbc203353	-0.009777862
202	0xbd032e67	-0.032026675
203	0xbc6d0282	-0.01446593
204	0x3d84be61	0.064816244
205	0xbce4ce98	-0.027930543
206	0x3d9c4865	0.07630996
207	0x3d54e2cd	0.051974107
208	0xbc2b5bce	-0.0104589
209	0xbd010c70	-0.031506002
210	0x3d8a35a0	0.067485094
211	0x3de88c91	0.11354936
212	0xbb88cf5a	-0.004175109
213	0xbc61073a	-0.013734633
214	0x3d5c2323	0.053744446
215	0x3dd97076	0.10617153
216	0x3d40c83d	0.047065962
217	0xbcdedf8d	-0.027206207
218	0x3d900bfd	0.070335366
219	0x3ccdcfca	0.025123496
220	0x3d3b21c2	0.04568649
221	0x3cfa7121	0.030571522
222	0xbc87b4c5	-0.01656569
223	0xbb960f53	-0.0045794635
224	0x3c389c69	0.01126776
225	0x3bfcbe35	0.007713104
226	0x3aed1b44	0.0018089791
227	0x3d879251	0.066197045
228	0x3d1b57a5	0.03792538
229	0xbda0886c	-0.078385204
230	0xbcc441eb	-0.023957213
231	0x3d8da1bf	0.06915616
232	0xbca36e3a	-0.019950021
233	0xbd8b1fe0	-0.06793189
234	0xbbc0eedf	-0.0058878507
235	0xbb0af47c	-0.0021202853
236	0xbd069f0c	-0.032866523
237	0xbda61d86	-0.081111
238	0xbd158cf4	-0.036511377
239	0x3c3170c1	0.010830105
240	0xbdb14ace	-0.08656846
241	0xbdacef6e	-0.08444105
242	0xbcad004a	-0.021118302
243	0xbcdc6382	-0.026902918
244	0xbd0d9bdc	-0.034572467
245	0xbdbd2250	-0.0923506
246	0x3cb48b74	0.022039153
247	0x3ccf587b	0.025310745
248	0xbc523b05	-0.012831454
249	0x3d4841ad	0.04889076
250	0xba945b95	-0.0011318797
251	0x3d758e1e	0.059949987
252	0x3cc389a9	0.023869352
253	0xbbe6ce16	-0.0070436103
254	0x3d73b31a	0.059496976
255	0x3bcb9076	0.0062122894

network_body.observation_encoder.processors.0.conv_layers.2.bias f4 [32]
0	0x3b995589	0.004679386
1	0xbd2237d4	-0.039604023
2	0x3c07f46d	0.008298022
3	0xbc6d84de	-0.01449701
4	0x3c9845dc	0.018587999
5	0x3c05e8c8	0.008173175
6	0xbad131c1	-0.0015960262
7	0xbd217a30	-0.039423168
8	0xbc992a50	-0.018696934
9	0x3d14d145	0.036332387
10	0x3d90e9d6	0.07075851
11	0x3b8b1b3b	0.0042451895
12	0x3d346952	0.044045754
13	0x3d2dab2d	0.042399574
14	0x3d483b01	0.048884396
15	0xbd0fced7	-0.035109367
16	0xbc7b9a14	-0.015356559
17	0xbcbdd833	-0.02317438
18	0x3c863326	0.016381811
19	0x3d546d3c	0.051861987
20	0x3d94eace	0.07271348
21	0x3d972a8c	0.07381162
22	0x3d6e9938	0.05825159
23	0x3d958ccd	0.07302246
24	0xbd5a84df	-0.053349372
25	0x3c8b45da	0.017001081
26	0xbd3d1c10	-0.04616934
27	0xbcc08297	-0.02349977
28	0x3c66aa4e	0.01407869
29	0x3d4eaee1	0.050459746
30	0xbcc6db06	-0.02427436
31	0xbd9b202f	-0.07574498

network_body.observation_encoder.processors.0.dense.0.weight f4 [128, 32]
0	0xbe3f0732	-0.18655089
1	0xbe8626da	-0.26201516
2	0x3eebbdfc	0.46043384
3	0x3e8ffb14	0.28121245
4	0xbcd5eb41	-0.026113154
5	0xbe3c260f	-0.18373893
6	0xbd205749	-0.03914574
7	0xbdd72df1	-0.105068095
8	0x3e46fa59	0.19431438
9	0xbe7a98ec	-0.24472398
10	0x3ebbe290	0.3669629
11	0xbe057587	-0.13033114
12	0xbdab04ad	-0.08350501
13	0x3e5b8dc1	0.21440794
14	0x3ee81b6a	0.45333415
15	0xbea6e0b1	-0.325933
16	0xbe0f9681	-0.14022256
17	0xbef72e54	-0.48277533
18	0xbe72b890	-0.23703218
19	0x3efa01f6	0.4882962
20	0xbe561384	-0.20905882
21	0x3ebe58de	0.37177175
22	0xbe9c9214	-0.305802
23	0xbc7b5a03	-0.015341285
24	0x3e025a27	0.12729703
25	0xbcc6c6ec	-0.024264775
26	0xbda7ee37	-0.08199733
27	0xbe47366b	-0.19454353
28	0xbd4f1bcb	-0.050563615
29	0x3da3774f	0.07981741
30	0xbd22c3b4	-0.03973742
31	0x3eccb4fb	0.39981827
32	0xbd5363db	-0.0516089
33	0xbd481d45	-0.04885604
34	0x3dea20e1	0.114320524
35	0x3e00c33a	0.12574473
36	0xbeb84013	-0.35986385
37	0xbea2a49c	-0.31766212
38	0x3d1136d0	0.035452664
39	0xbea94285	-0.33058563
40	0xbe3ae425	-0.18251093
41	0x3ea8e52e	0.3298735
42	0xbe6fb7a6	-0.234099
43	0x3df9c74e	0.121962175
44	0x3ef160bc	0.47144115
45	0xbc710980	-0.014711738
46	0x3e8df632	0.27726895
47	0x3e63b0f5	0.22235473
48	0x3eb8ad92	0.36069924
49	0x3d2c4949	0.042062078
50	0xbe843434	-0.25821078
51	0x3de0a0e3	0.10968187
52	0xbe382609	-0.1798326
53	0xbeaae58d	-0.33378258
54	0xbf1d350d	-0.61409074
55	0x3bb4c16d	0.005516222
56	0x3e1c5f69	0.15270771
57	0xbe7e0c5a	-0.24809399
58	0x3d950526	0.072763726
59	0x3e318b24	0.17338234
60	0x3c885c64	0.016645618
61	0x3da067b0	0.07832277
62	0xbd3ddc2a	-0.046352543
63	0x3e7bbf5a	0.24584714
64	0xbc90b32b	-0.017663559
65	0xbefa3a5b	-0.48872647
66	0xbe0bdd88	-0.13658726
67	0x3d9383e6	0.07202892
68	0x3e1c8cef	0.15288137
69	0xbf309b98	-0.6898742
70	0x3e113f0a	0.14184204
71	0x3d3d1ed6	0.046171986
72	0x3ec4b526	0.38419455
73	0x3edde693	0.43339977
74	0x3dd6975a	0.10478087
75	0x3bf0cb9f	0.0073484923
76	0x3e83bad0	0.25728464
77	0x3d6b1a5b	0.05739818
78	0xbd5724f3	-0.052525472
79	0xbe7a8741	-0.24465658
80	0xbee89aed	-0.454307
81	0x3e4e178a	0.20126167
82	0x3d7c61cf	0.061616715
83	0xbe05fb5b	-0.13084166
84	0xbe5a4cdb	-0.2131838
85	0x3d5f8276	0.054567777
86	0x3f1edf6e	0.62059677
87	0x3d8d68c7	0.0690475
88	0xbe9746b4	-0.2954613
89	0x3ebaa57f	0.36454388
90	0xbeabf5e1	-0.33586028
91	0x3e26b24b	0.16278951
92	0x3ebaf846	0.36517543
93	0xbf287c04	-0.6581423
94	0x3d20fbe7	0.039302733
95	0xbe99c4e3	-0.30033025
96	0x3e1e4bcc	0.15458602
97	0xbe8fb68e	-0.28068966
98	0xbde17c0e	-0.1100999
99	0xbea8acad	-0.3294424
100	0x3e15fb2b	0.14646594
101	0xbed521e0	-0.41627407
102	0x3e21fe5a	0.15819684
103	0x3d0c286a	0.03421823
104	0xbea0002d	-0.31250134
105	0x3dec8e5e	0.11550592
106	0x3d3de548	0.046361238
107	0x3dea712d	0.11447368
108	0xbe7b2523	-0.24525885
109	0x3e0eb869	0.13937534
110	0xbe30774c	-0.17233008
111	0x3d23e220	0.04001057
112	0x3d96896b	0.07350429
113	0x3e8dd2a0	0.27699757
114	0xbe92345c	-0.28555572
115	0x3cec321d	0.02883249
116	0x3e868c79	0.26279047
117	0xbe1d0489	-0.15333761
118	0x3d5c3251	0.053758923
119	0xbe6a9f97	-0.22912441
120	0x3d929811	0.071579106
121	0xbdb2444e	-0.08704434
122	0xbcf47038	-0.029838666
123	0x3dd3062d	0.10303912
124	0x3ba3c3bf	0.0049977
125	0x3ecf368b	0.404713
126	0x3e5b63df	0.21424817
127	0xbd42ff11	-0.04760653
128	0xbc2bfef3	-0.010497796
129	0x3ddbf0a0	0.10739255
130	0x3e2ab45f	0.16670369
131	0x3ec8d546	0.39225215
132	0x3e8d26c5	0.2756864
133	0x3df4625e	0.119328246
134	0xbc3f8288	-0.011688836
135	0x3ebc83d1	0.36819318
136	0xbe8cf90f	-0.27533767
137	0xbed1f352	-0.4100595
138	0x3e815d37	0.2526643
139	0x3f274f1f	0.65355104
140	0x3b9b12f2	0.004732483
141	0x3d09a1e1	0.033601645
142	0x3eab9b58	0.33516955
143	0xbde9d568	-0.11417657
144	0x3e5c7f26	0.21532878
145	0x3e2b00b7	0.16699491
146	0xbeb7ca79	-0.35896662
147	0x3dc8445d	0.09778664
148	0x3d0906de	0.033453815
149	0xbe0296a1	-0.12752773
150	0xbe97d984	-0.2965814
151	0xbe2d0095	-0.16894753
152	0x3efbc35f	0.49172494
153	0x3e89d84e	0.2692284
154	0x3e88cf93	0.26720867
155	0xbda8916a	-0.082308605
156	0x3e4bd8d1	0.19906928
157	0x3e43c9be	0.19119927
158	0xbe5b08ae	-0.2139003
159	0xbee45f7c	-0.446041
160	0x3d9da626	0.07697706
161	0xbd32995a	-0.04360328
162	0xbe0478f0	-0.12936759
163	0xbeb52388	-0.3537867
164	0xbe00a630	-0.12563396
165	0xbe90a594	-0.28251326
166	0x3e83c865	0.25738826
167	0x3ef70542	0.482462
168	0x3e27ef84	0.16399962
169	0xbdae53e9	-0.08512098
170	0x3e696d6e	0.2279565
171	0xbd41cb9d	-0.04731332
172	0x3edcd031	0.43127587
173	0x3ddc676c	0.10761914
174	0x3cfc9ea6	0.030837368
175	0x3e070620	0.1318593
176	0xbe149400	-0.14509583
177	0x3ebac766	0.36480254
178	0xbe005452	-0.12532166
179	0x3e52c1d2	0.20581749
180	0x3d32b15e	0.04362618
181	0x3e02aa42	0.1276026
182	0x3ebd29e2	0.36946017
183	0xbdb76289	-0.08954341
184	0x3c622de0	0.013804883
185	0xbea409ba	-0.3203867
186	0xbaae5553	-0.0013300575
187	0xbe46b1cd	-0.19403763
188	0x3eb3fb63	0.3515273
189	0x3e764d9b	0.24053042
190	0x3db27206	0.087131545
191	0x3dd16f2f	0.10226285
192	0x3edf8b3b	0.43660912
193	0xbc9dbe47	-0.01925577
194	0x3e7008fd	0.23440929
195	0xbdec94da	-0.11551829
196	0x3e94bc7f	0.2905006
197	0xbe9f4ba3	-0.31112394
198	0xbd319691	-0.043356482
199	0xbd617b4f	-0.055049237
200	0xbe0b63cf	-0.13612293
201	0xbe467366	-0.19379959
202	0xbea2bf40	-0.31786537
203	0xbd7c25e4	-0.061559573
204	0x3e93bfc2	0.28857237
205	0x3e647df6	0.22313675
206	0x3d80678d	0.06269751
207	0xbe1a3508	-0.15059292
208	0x3d8df425	0.069313325
209	0x3dcd2ea3	0.10018661
210	0x3e2964ea	0.16542402
211	0xbc3d2b6c	-0.011545997
212	0x3e8efd53	0.27927646
213	0x3ddc2d9b	0.10750886
214	0xbdd454bc	-0.10367724
215	0xbea1ba02	-0.31587225
216	0xbdacbf3a	-0.08434911
217	0xbe493c07	-0.19651805
218	0x3e9dba19	0.30806044
219	0xbed1f206	-0.41004962
220	0x3e4bb5ac	0.19893521
221	0x3e601ed5	0.21886761
222	0x3e7b015f	0.24512242
223	0xbe02f201	-0.1278763
224	0x3e83ba77	0.257282
225	0xbe86f690	-0.26359987
226	0x3e06f8af	0.13180803
227	0xbe12814d	-0.14307137
228	0x3ed4dd35	0.41575018
229	0xbcd629bf	-0.026142953
230	0xbe338c68	-0.1753403
231	0x3e59dfbd	0.21276756
232	0xbe8edac7	-0.2790129
233	0x3f08eabb	0.5348317
234	0xbf07865f	-0.5293941
235	0xbdf19c37	-0.11797374
236	0x3f1c3fef	0.61035055
237	0x3e41cd9d	0.18926091
238	0xbec03ab8	-0.375448
239	0x3e9ae834	0.30255282
240	0xbe92b7a5	-0.28655735
241	0xbe214b53	-0.1575139
242	0xbe157120	-0.14593935
243	0x3d775ab2	0.06038923
244	0xbe8a84d1	-0.27054456
245	0xbe8aed84	-0.27134335
246	0x3e42998c	0.19003886
247	0xbe8808e0	-0.2656927
248	0x3e1704c2	0.14747909
249	0x3e548438	0.20753562
250	0xbe0bf136	-0.13666233
251	0x3e0656dd	0.13119073
252	0xbdba5e37	-0.09100001
253	0x3e908715	0.2822806
254	0x3e9a4f9f	0.3013887
255	0x3f0fc247	0.5615582

network_body.observation_encoder.processors.0.dense.0.bias f4 [128]
0	0xbd38ef2f	-0.04514998
1	0xbc2480d3	-0.01004048
2	0x3d823924	0.06358555
3	0xbc8f5bc2	-0.017499808
4	0xbc9d167f	-0.019175766
5	0x3c942927	0.01808603
6	0x3b97ec86	0.00463635
7	0xbd00d99a	-0.03145752
8	0x3c62af36	0.013835719
9	0x3d048263	0.03235091
10	0x3b0e2fb4	0.0021695914
11	0xbd63069c	-0.055426225
12	0x3c3270af	0.010891124
13	0x3c3316b6	0.010930708
14	0xb9a56716	-0.00031548057
15	0xbc502a70	-0.01270543
16	0x3d486331	0.04892272
17	0x3d5067b7	0.05088016
18	0xbd2bba02	-0.041925438
19	0xbccd32d8	-0.025048658
20	0x3cb2577d	0.021770233
21	0x3d347695	0.0440584
22	0xbc9d0101	-0.019165518
23	0x3d19f3f3	0.037586164
24	0x3d0ac063	0.03387488
25	0xbd928349	-0.07153947
26	0xbd12451d	-0.035710443
27	0x3b80bb6f	0.003928594
28	0x3d655a25	0.05599417
29	0xbcc69b78	-0.024244055
30	0xbaa21870	-0.0012366902
31	0xbc4f061d	-0.012635735
32	0x3cd7f723	0.026362961
33	0x3b67600f	0.0035305058
34	0xbc63cb5c	-0.013903465
35	0xbc0bbc31	-0.008528755
36	0xbd184769	-0.037177477
37	0xbc5915ab	-0.013249795
38	0xbcde02f6	-0.027101021
39	0xbb92f0ab	-0.0044842563
40	0x3c1130b8	0.008861713
41	0x3c533079	0.012889975
42	0x3aa50c97	0.0012592253
43	0xbcd457ab	-0.02592071
44	0x3b830c87	0.003999296
45	0xbc3b0066	-0.011413669
46	0x3bc694b8	0.006060209
47	0x3d0de681	0.034643654
48	0x3b3e4316	0.0029031686
49	0xbd4b1aef	-0.049586233
50	0x3d16c317	0.036807146
51	0xbcb56643	-0.022143489
52	0x3caa9934	0.020825006
53	0xba84b269	-0.0010123971
54	0xb9db6c6c	-0.00041851716
55	0x3c0d77f1	0.008634553
56	0x3c9b668b	0.018969795
57	0x3d02ebb5	0.03196307
58	0x3d0af964	0.033929244
59	0xba67f983	-0.0008849131
60	0xbd90b980	-0.07066631
61	0xbd4b9f13	-0.049712252
62	0xbc2ca1fb	-0.010536666
63	0x3c8f747f	0.017511604
64	0x3cd55590	0.026041776
65	0xbbeee671	-0.0072906544
66	0x38d7f4f4	0.00010297625
67	0xbcfe3e8f	-0.03103569
68	0x3c05fba7	0.008177674
69	0x3b1e487d	0.0024152093
70	0x3c23a5c6	0.009988254
71	0x3c4eb4d0	0.012616351
72	0xbd3e8659	-0.046514843
73	0x3cdb04f6	0.026735764
74	0x3ccb898b	0.024845859
75	0xbd1f01cd	-0.038820077
76	0x3c3768d5	0.0111944275
77	0xbc9e9ca7	-0.019361807
78	0x3c77a45d	0.015114871
79	0x3c7b6c15	0.015345593
80	0xbca5e5a1	-0.020251097
81	0xbc1e62e6	-0.009667134
82	0xbc0e40af	-0.008682414
83	0xbbfb10a6	-0.0076618968
84	0x3addd5b9	0.0016924656
85	0xbd0b6b9e	-0.03403818
86	0x3c784da5	0.015155231
87	0x3c89ac72	0.016805861
88	0xba8d256e	-0.0010768601
89	0x3d301c3d	0.04299568
90	0xbc812187	-0.015763057
91	0xbd3c19f6	-0.045923196
92	0xbdb7ea0d	-0.089801885
93	0x3cb9a376	0.022660952
94	0x3b4b0371	0.0030977393
95	0xbc3ebfca	-0.011642406
96	0xbb649dc4	-0.0034884075
97	0x3c563590	0.013074294
98	0x3c6e03ae	0.0145272445
99	0x3c2274d6	0.009915551
100	0xbc30eb0a	-0.010798225
101	0x3ae1aa80	0.0017216951
102	0xbd6432aa	-0.05571238
103	0xbc7af946	-0.0153182205
104	0xbbea44f6	-0.007149334
105	0xbcac5698	-0.021037385
106	0xbc0098d6	-0.007848939
107	0x3ba33c95	0.004981587
108	0xbcc5f05c	-0.024162464
109	0xbd653300	-0.05595684
110	0xbc93bc71	-0.018034192
111	0x3d275dfb	0.04086111
112	0x3cb97e5a	0.022643257
113	0x3d69eeaf	0.057112392
114	0xbc0f2b40	-0.008738339
115	0xbc2f635f	-0.010704844
116	0xbc5f024c	-0.013611387
117	0xbdd026bb	-0.10163637
118	0x3c8dbdd7	0.017302437
119	0xbb29b135	-0.0025892977
120	0xbc938f6a	-0.018012721
121	0x3d97c4f3	0.07410612
122	0xbb85a6bb	-0.0040787137
123	0x3c8ab94a	0.016934056
124	0xbc82eec6	-0.015982997
125	0x3c792987	0.015207655
126	0x3c4a98c9	0.012365528
127	0x3d2c2d9f	0.042035695

network_body._body_endoder.seq_layers.0.weight f4 [128, 323]
0	0x3ce01ee0	0.027358472
1	0xbd6beee7	-0.057600882
2	0xbcb81e88	-0.022475496
3	0xbc43d7ff	-0.011953353
4	0x3d5c813b	0.05383418
5	0x3d6e4cb6	0.058178626
6	0xbdd462cd	-0.10370407
7	0xbc0fad3e	-0.0087693315
8	0x3d6239f5	0.055231053
9	0x3db7cd44	0.08974698
10	0x3ca81dc8	0.020522013
11	0xbd20689b	-0.03916226
12	0x3d41ba66	0.047296904
13	0xbd931a30	-0.07182729
14	0x3c6a6a3f	0.014307558
15	0xbcf357d3	-0.029704964
16	0x3d988b43	0.07448437
17	0x3cabbfe6	0.020965528
18	0xbd676394	-0.05649145
19	0x3cf1c2cf	0.029511837
20	0xbd415a55	-0.047205288
21	0x3cddaede	0.027060922
22	0xbb8822f2	-0.0041545564
23	0xbbdc0035	-0.006713892
24	0x3d800fa3	0.062529825
25	0xbdbdad65	-0.09261588
26	0xbd4de208	-0.05026439
27	0xbe522a15	-0.20523866
28	0x3dca163e	0.098675236
29	0xbdedc833	-0.116104506
30	0x3d583948	0.052789003
31	0xbbbe4d6f	-0.0058075706
32	0x3ccc1be7	0.024915649
33	0xbafee012	-0.001944544
34	0xbdef229f	-0.11676525
35	0x3bc79930	0.0060912594
36	0x3da1d887	0.079026274
37	0x3af622a5	0.0018778635
38	0xbc3f8b9a	-0.011690998
39	0x3abac7e0	0.0014250241
40	0x3bf2ea0c	0.0074131545
41	0xbdd16c6b	-0.10225757
42	0x3ba52464	0.0050397385
43	0x3d8d8065	0.06909255
44	0x3b1f87f9	0.002434252
45	0xbc0bd0cc	-0.008533668
46	0xbd68558c	-0.05672221
47	0xbc137603	-0.009000304
48	0xbc678300	-0.014130354
49	0xbaab95ea	-0.0013090943
50	0xbe182305	-0.14857109
51	0x3d51aff3	0.05119319
52	0xbc6b83b0	-0.014374658
53	0x3c0f3f5c	0.008743133
54	0x3da77a4d	0.08177624
55	0x3c9cf6ee	0.019160714
56	0xbbaf6cf4	-0.0053535644
57	0xbde45cf2	-0.111505404
58	0x3ce9c6c0	0.028537154
59	0xbdc48002	-0.09594728
60	0x3c41e17a	0.011833543
61	0xbd524da4	-0.051343575
62	0x3d563bd3	0.052303147
63	0x3decf723	0.11570575
64	0x3da530b1	0.08065928
65	0x3da7e28b	0.081975065
66	0x3d072619	0.032995317
67	0xbd3bd7db	-0.045860153
68	0xbdae2c15	-0.08504502
69	0xbe5197cb	-0.2046806
70	0x3dc10b38	0.09425968
71	0xbdc8422a	-0.09778245
72	0xbc9168f1	-0.017750235
73	0x3cac0b2f	0.021001427
74	0xbdcc79ef	-0.099841945
75	0x3c1d1843	0.009588304
76	0x3dda7f01	0.10668755
77	0xbdbe8464	-0.09302595
78	0xbd35db75	-0.044398744
79	0x3c587802	0.013212206
80	0x3da6d121	0.08145357
81	0x3cf50ee3	0.029914325
82	0xbe00304b	-0.12518422
83	0xbcdf177c	-0.027232878
84	0xbd8a7277	-0.06760114
85	0xbb55bae4	-0.0032612616
86	0x3daac168	0.083376706
87	0xbb855e96	-0.0040701134
88	0xbe096a1c	-0.13419384
89	0x3d975631	0.073894866
90	0x3cbe01d5	0.023194233
91	0xbd60d980	-0.054894924
92	0x3d28fda7	0.041257527
93	0xbd3cfcb5	-0.046139438
94	0x3cc3327b	0.023827782
95	0xbc0e1ef0	-0.008674368
96	0xbca73cf7	-0.020414812
97	0xbcaf6ada	-0.021413255
98	0x3e0ff487	0.14058124
99	0x3d6009ef	0.054696973
100	0xbcb3fd06	-0.021971237
101	0xbe20c2fc	-0.1569938
102	0xbdb4ee86	-0.08834557
103	0xbcccef82	-0.02501655
104	0x3c87c852	0.016575012
105	0xbae7db5a	-0.0017689273
106	0x3bee326f	0.0072691957
107	0xbdb6cfb6	-0.089263365
108	0x3d086214	0.03329666
109	0x3d94c349	0.0726381
110	0xbc2d181e	-0.010564832
111	0x3e3fce53	0.1873105
112	0x3d7a6ae3	0.06113709
113	0x3d630691	0.055426184
114	0xbdcd2255	-0.10016314
115	0x3dc940a9	0.09826786
116	0x3c92dbe5	0.01792712
117	0x3dcf0ee8	0.10110265
118	0x3d3097ed	0.043113638
119	0xbd4dd951	-0.050256077
120	0x3ccdcc95	0.025121966
121	0x3d575c48	0.05257824
122	0x3d9f922b	0.07791551
123	0xbdaebd11	-0.08532155
124	0x3cb5e0e4	0.022201963
125	0xbcde8a45	-0.027165541
126	0xbcb1941e	-0.021677073
127	0x3da0ebd4	0.07857481
128	0xbaaf2b94	-0.0013364428
129	0x3dad2e85	0.084561385
130	0xbc910041	-0.017700316
131	0x3d84706e	0.06466757
132	0xbb66e00e	-0.0035228762
133	0xbd2ca413	-0.04214866
134	0x3c22c757	0.009935222
135	0x3da6c9f3	0.081439875
136	0xbce5f2bd	-0.028069848
137	0xbdadc0c0	-0.0848403
138	0x3d97e38d	0.07416449
139	0x3d57977c	0.0526347
140	0x3dec175a	0.115278915
141	0x3d6b4d30	0.05744666
142	0xbdbaf01e	-0.0912783
143	0x3d7fc97d	0.062448014
144	0x3cbacbfe	0.02280235
145	0xbdb0be17	-0.08630007
146	0xbd19bb70	-0.03753227
147	0xbcfa704e	-0.03057113
148	0xbd5085a5	-0.050908703
149	0xbd2b6731	-0.041846458
150	0x3c5b35bc	0.0133795105
151	0x3deb2c48	0.11483055
152	0x3d981191	0.074252255
153	0x3c655a0e	0.0139985215
154	0x3e2313db	0.15925543
155	0x3cf251d3	0.029580032
156	0xbc7ef434	-0.015561152
157	0x3d54bcb4	0.051937774
158	0xbd8bbd71	-0.068232425
159	0x3d2aaf75	0.041671235
160	0xbd8baa3c	-0.06819579
161	0xbc9e71da	-0.019341398
162	0xbd9057f7	-0.07048028
163	0x3d8566bb	0.06513735
164	0x3e118fdd	0.14215036
165	0x3e22b292	0.15888432
166	0x3cb30211	0.021851571
167	0x3d1bed8a	0.03806833
168	0x3cdcb580	0.026942015
169	0xbcb210b0	-0.021736473
170	0xbc534b36	-0.01289635
171	0x3d2d10b5	0.04225226
172	0xbd9c7a6d	-0.07640538
173	0xbe48056e	-0.19533321
174	0xbd3c8c3c	-0.046032175
175	0xbd89a673	-0.06721201
176	0x3e35a074	0.1773699
177	0x3e052e54	0.13005954
178	0xbce8ee96	-0.02843408
179	0x3cb6b4de	0.022303041
180	0xbd83b3de	-0.06430791
181	0xbc60031d	-0.013672617
182	0x3d739d58	0.059476227
183	0x3c7f5e33	0.015586424
184	0x3d2566db	0.040381294
185	0x3c5cec40	0.013484061
186	0x3d060e84	0.032728687
187	0xbd8a49a2	-0.067523256
188	0x3d81d74a	0.06339891
189	0xbbae53ed	-0.0053200633
190	0x3d52dec3	0.051481973
191	0x3d02799f	0.03185427
192	0x3d65440e	0.055973105
193	0xbd12addd	-0.03581034
194	0x3d7da269	0.061922465
195	0x3da7421a	0.08166905
196	0xbd67f147	-0.056626584
197	0xbd36ee4b	-0.044660848
198	0xbca8e4e8	-0.020616964
199	0x3d680798	0.056647867
200	0x3cf5bedb	0.029998234
201	0x3db56854	0.0885779
202	0xbcfd9768	-0.030955985
203	0x3d85c87b	0.06532379
204	0xbd48e645	-0.049047727
205	0xbca5b488	-0.020227686
206	0x3dafbb19	0.08580608
207	0x3dccd4d2	0.1000153
208	0x3c85c249	0.016327994
209	0x3cd43a7c	0.025906794
210	0xbdac14f3	-0.08402433
211	0xbdaa2d4b	-0.0830942
212	0x3d8724d4	0.06598821
213	0xbc0c94bd	-0.008580384
214	0x3d9f42ec	0.07776436
215	0xbd78540c	-0.06062703
216	0x3d6a7e62	0.057249434
217	0xbdaeb882	-0.08531286
218	0x3d747352	0.05968029
219	0x3cd05177	0.02542947
220	0xbdb80893	-0.089860104
221	0x3e372195	0.17883904
222	0x3d047d92	0.032346316
223	0x3c8ee258	0.017441913
224	0x3e04f547	0.12984191
225	0xbd273531	-0.04082221
226	0xbe08de67	-0.1336609
227	0xbd51a75c	-0.051184997
228	0xbd3417ec	-0.043968126
229	0x3d98bfdc	0.07458469
230	0xbd8f2c89	-0.06990916
231	0xbccea0ce	-0.025223162
232	0xbdabb68d	-0.08384428
233	0xbd9e92a4	-0.07742813
234	0x3c3dbd87	0.011580831
235	0x3cfb0a79	0.030644642
236	0xbd85348e	-0.06504165
237	0x3dd99f5c	0.106260985
238	0xbdbf45bd	-0.093394734
239	0xbc9c1cd1	-0.01905671
240	0x3d9c58ac	0.076341
241	0xbc9ad840	-0.018901944
242	0xbd825ed2	-0.06365742
243	0xbced9805	-0.029003153
244	0xbced717f	-0.028984783
245	0x3d8a9130	0.067659736
246	0xbd2b9656	-0.04189142
247	0x3d5b6ed5	0.053572495
248	0xbd4bf055	-0.049789745
249	0x3de839f0	0.11339176
250	0xbca005dd	-0.019534046
251	0xbd5068bd	-0.050881136
252	0x3cf35b6c	0.02970668
253	0x3d09c4ba	0.03363488
254	0xbd7fb1c9	-0.06242541
255	0xbccf4516	-0.025301497

network_body._body_endoder.seq_layers.0.bias f4 [128]
0	0x3b2d086e	0.002640273
1	0xbc059715	-0.008153697
2	0xbb8aae40	-0.004232198
3	0x3c839b77	0.016065342
4	0xbab267a3	-0.0013611208
5	0x3d626175	0.055268724
6	0x3c94c315	0.018159429
7	0x3d55e93e	0.05222439
8	0x3bd1109e	0.0063801548
9	0x3d12f31a	0.03587637
10	0x3b8aec5f	0.0042396034
11	0xbc240384	-0.010010604
12	0x3cd5b33b	0.02608644
13	0x3d0df367	0.034655955
14	0xbcea30b7	-0.028587682
15	0xbcabad8d	-0.020956779
16	0x3d1bf099	0.03807125
17	0x3ce91a19	0.028454827
18	0xbbed4b16	-0.007241617
19	0xbb64c157	-0.0034905279
20	0x3c522595	0.012826343
21	0xbc8715e5	-0.016489932
22	0xbcd634fb	-0.02614831
23	0xbc824e47	-0.015906466
24	0x3c57f567	0.013181067
25	0x3cd57c17	0.026060147
26	0x3d2f49cf	0.042795
27	0x3bea43ff	0.007149219
28	0xbc87478f	-0.016513614
29	0xbca46255	-0.02006642
30	0x3c805a40	0.015668035
31	0x3cc10314	0.023561038
32	0xbcb3a315	-0.02192835
33	0xbc97dd28	-0.018538073
34	0xbbd9e51e	-0.0066496274
35	0xbbb062f9	-0.005382892
36	0x3d73c253	0.059511494
37	0xbc44d231	-0.012013004
38	0xbc48c57f	-0.012254118
39	0xbc8c8fcd	-0.017158413
40	0xbd042deb	-0.032270353
41	0x3b66c83b	0.0035214562
42	0xbc1a7b37	-0.009428791
43	0x3d3c01a4	0.045900002
44	0x3b9e92f8	0.0048392974
45	0x3cb7c6ae	0.022433605
46	0x3ce30aa9	0.027715044
47	0xbc962a9d	-0.018330866
48	0xbc8e377d	-0.017360443
49	0xbbdde4b3	-0.006771648
50	0xbbbd2da3	-0.0057732626
51	0xbc399abb	-0.0113283945
52	0x3d51fd63	0.05126704
53	0x3d1433e0	0.036182284
54	0x3d4ecd7c	0.050488934
55	0x3cd78e53	0.026312983
56	0xbcb796b3	-0.022410726
57	0x3b75aa5b	0.0037485573
58	0x3cb418aa	0.021984417
59	0x3d195af5	0.03744026
60	0xbbccc1d8	-0.006248694
61	0x3d4277d4	0.04747756
62	0x3c84d4a1	0.01621467
63	0xbb8a42bc	-0.004219381
64	0xbc666f1a	-0.014064575
65	0x3d0478ff	0.032341953
66	0xbc400075	-0.011718859
67	0x3b821266	0.0039694784
68	0xbc984221	-0.01858622
69	0xbb88cfca	-0.004175161
70	0x3d516cd8	0.051129192
71	0xbcd934a4	-0.026514359
72	0x3c21f432	0.009884881
73	0xbc08c364	-0.008347366
74	0xbbb4632b	-0.005504986
75	0x3c9ebaa9	0.019376116
76	0xbcb90e01	-0.022589685
77	0xba4fbee1	-0.00079248665
78	0x3b4dd47a	0.0031407163
79	0x3c307bf4	0.01077174
80	0x3d4d6dfd	0.05015372
81	0x3d1c7e1d	0.03820621
82	0xbbf6f3fe	-0.0075364104
83	0x3be274bc	0.0069108885
84	0xbc585a86	-0.013205176
85	0xbc10aee1	-0.008830757
86	0xbc8311e5	-0.015999744
87	0xbb987217	-0.0046522724
88	0x3cce29c5	0.025166402
89	0xbbda20d2	-0.0066567445
90	0xbc00725c	-0.007839765
91	0x3d2c0132	0.041993327
92	0x3c65fe0f	0.014037623
93	0xbb994c0a	-0.004678254
94	0x3c700c28	0.014651336
95	0x3aa953b6	0.0012918625
96	0xbcdad3a3	-0.026712244
97	0x3d0196cc	0.03163795
98	0x3a784cf4	0.0009471916
99	0xbc0251e8	-0.007954098
100	0x3d18f029	0.03733841
101	0x3c57014e	0.01312287
102	0x3ca5abdd	0.020223552
103	0xbab4dbe0	-0.0013798438
104	0x3bd4b03d	0.006490736
105	0x3c38dfe6	0.01128385
106	0xbc9336d8	-0.017970487
107	0xba2f1e2f	-0.0006680218
108	0xbb5895ae	-0.00330482
109	0x3bde2d76	0.0067803217
110	0xbc9ff5d3	-0.019526398
111	0xbc4347c4	-0.011918966
112	0x3be154fe	0.006876587
113	0xbc08867f	-0.008332848
114	0x3cae4161	0.02127141
115	0xbbac263a	-0.0052535804
116	0x3d576cbe	0.05259394
117	0xbcad3dd7	-0.021147652
118	0x3beff500	0.0073229074
119	0xba88249e	-0.0010386889
120	0xbbb6c8b2	-0.005578124
121	0xbbeb602d	-0.007183096
122	0xbccdc442	-0.025117997
123	0xbc05d17e	-0.008167623
124	0x3d751af5	0.05984016
125	0x3b0ffd11	0.0021970908
126	0xbba6206b	-0.0050697825
127	0x3d1947bd	0.03742193

network_body._body_endoder.seq_layers.2.weight f4 [128, 128]
0	0x3d74a9bd	0.059732188
1	0xbbb108a9	-0.0054026437
2	0x3d84f7db	0.06492587
3	0xbd2c75fa	-0.0421047
4	0xbd035cf5	-0.032071073
5	0x3c6380a0	0.013885647
6	0xbe5703be	-0.20997521
7	0x3ba34812	0.0049829567
8	0x3d9072e7	0.07053166
9	0xbdfdcc62	-0.123924986
10	0xbdc48eb3	-0.0959753
11	0x3bf1498c	0.007363504
12	0xbded6d81	-0.11593152
13	0xbcf97733	-0.030452346
14	0xbc58a7e9	-0.013223627
15	0xbd881416	-0.06644456
16	0xbc56abdb	-0.013102497
17	0x3dad8c66	0.084740445
18	0xbbb45d23	-0.005504267
19	0xbcfa5446	-0.030557763
20	0x3d728b62	0.059214957
21	0xbc9eafde	-0.01937097
22	0xbe41883c	-0.18899626
23	0x3ca9d505	0.020731458
24	0x3d4383a6	0.04773297
25	0xbddb60e5	-0.107118405
26	0x3d958d7b	0.07302376
27	0x3e0de028	0.1385504
28	0x3e821aa7	0.2541096
29	0x3c92f235	0.017937759
30	0x3de4de87	0.11175256
31	0xbe61ae65	-0.22039182
32	0x3e1fbf51	0.15600325
33	0x3e05a4af	0.13051103
34	0xbd49288d	-0.049110938
35	0xbdc320d2	-0.09527744
36	0x3b54440f	0.00323892
37	0x3d641cd2	0.055691548
38	0x3dac9eca	0.08428724
39	0x3dcddf4a	0.10052355
40	0xbdf5cf98	-0.12002486
41	0x3e17f476	0.14839348
42	0xbe2b45dd	-0.1672587
43	0x3b9f1d01	0.0048557525
44	0xbe4546fb	-0.19265358
45	0x3d68afb6	0.056808196
46	0xbe01e208	-0.1268388
47	0x3c745253	0.014912206
48	0xbd701cec	-0.058621332
49	0x3d23e316	0.040011488
50	0xbc3856bf	-0.011251151
51	0x3d43dc9c	0.04781781
52	0xbe2f7213	-0.1713336
53	0x3c016471	0.007897482
54	0xbc9c38de	-0.019070085
55	0x3e097550	0.13423657
56	0x3d950a00	0.07277298
57	0x3d3c46e2	0.045966037
58	0x3e3c36e5	0.18380316
59	0x3db34a8c	0.08754453
60	0xbd433785	-0.04766037
61	0x3dab7ec7	0.0837379
62	0xbdb62fb8	-0.088958204
63	0xbdbbf955	-0.09178416
64	0xbb4b1877	-0.0030989924
65	0xbd9307fc	-0.07179257
66	0x3dfd032a	0.12354119
67	0x3d109acc	0.035303876
68	0x3cd0c297	0.025483413
69	0xbdc029d3	-0.09382977
70	0xbc686d66	-0.014186239
71	0x3de47675	0.111554064
72	0xbd91dfb6	-0.071227476
73	0x3d6f7530	0.058461368
74	0x3df9fce1	0.12206436
75	0x3e99f094	0.3006636
76	0xbc8c80ca	-0.017151255
77	0x3ca4525f	0.020058809
78	0x3ddf71d5	0.109103836
79	0x3de188d5	0.11012427
80	0x3ceac55e	0.028658565
81	0xbe98ac82	-0.29819113
82	0xbd71ec0f	-0.059063014
83	0xbd7ae6c9	-0.06125525
84	0x3d5ee422	0.054416783
85	0x3c0e0708	0.008668669
86	0x3e29e515	0.16591294
87	0xbd44c105	-0.04803564
88	0x3cfde8e8	0.030994847
89	0x3dc019bd	0.09379909
90	0xbda67d2f	-0.081293456
91	0x3e675d61	0.22594215
92	0xbe16251f	-0.14662598
93	0x3e20088b	0.15628259
94	0xbde08054	-0.10961977
95	0xbdd7cb33	-0.10536804
96	0x3d8369da	0.06416674
97	0xbcbc15b0	-0.02295956
98	0x3c6894dc	0.014195647
99	0x3d9466fa	0.07246204
100	0x3e275203	0.16339879
101	0xbdd1e598	-0.1024887
102	0xbc08f6cb	-0.008359621
103	0xbe01c444	-0.12672526
104	0x3d9c9660	0.07645869
105	0xbd6a0b97	-0.05713996
106	0x3d6448bd	0.05573343
107	0xbe263aff	-0.16233443
108	0x3e33a976	0.17545113
109	0xbd80e540	-0.06293726
110	0xbd89df24	-0.06732014
111	0x3d41b687	0.047293212
112	0x3e224ff6	0.15850815
113	0xbd7a2f93	-0.061080527
114	0xbb420a2c	-0.0029608114
115	0x3dbcdf68	0.09222299
116	0x3dfe4d69	0.124171086
117	0xbc9495b9	-0.0181378
118	0x3e0a6596	0.13515314
119	0xbd218ba9	-0.03943983
120	0xbe012af4	-0.12614042
121	0xbda47e88	-0.080319464
122	0xbd8a0ace	-0.06740342
123	0x3e54754b	0.20747869
124	0x3d677dbb	0.05651639
125	0xbe13e28c	-0.1444189
126	0xbc18b556	-0.009320578
127	0x3e219450	0.15779233
128	0x3e3b0967	0.18265305
129	0x3de9cced	0.114160396
130	0x3d844782	0.064589515
131	0xbd8acd21	-0.067774065
132	0x3d98cecd	0.07461319
133	0xbe183fb5	-0.14868052
134	0x3de96810	0.113968015
135	0xbc7b9739	-0.0153558785
136	0x3dc6df45	0.09710554
137	0x3d11fd1c	0.035641775
138	0x3d458de6	0.048231028
139	0x3dbbced5	0.091703095
140	0xbde2380b	-0.110458456
141	0x3d10d606	0.03536036
142	0xbd45e44d	-0.048313428
143	0xbdf32101	-0.11871529
144	0xbcad1672	-0.021128867
145	0x3df0288c	0.11726484
146	0x3df9d6db	0.121991836
147	0x3dd024cb	0.10163268
148	0xbe450e82	-0.19243816
149	0xbcfba802	-0.03071976
150	0x3caf84b4	0.021425582
151	0xbe05d553	-0.13069658
152	0xbe0953df	-0.134109
153	0xbd837570	-0.06418884
154	0xbd71eac6	-0.059061788
155	0x3da99773	0.0828084
156	0x3dd67f28	0.10473472
157	0x3daeb075	0.0852975
158	0xbdcfe687	-0.101513915
159	0x3d660ae6	0.056162737
160	0x3cde94fb	0.027170649
161	0x3e625725	0.22103556
162	0x3d93b176	0.07211582
163	0x3d5b5548	0.053548127
164	0xbe2b5135	-0.16730197
165	0x3c8ef58c	0.01745107
166	0x3e70e905	0.2352639
167	0xbc571079	-0.013126486
168	0x3d5dd6b6	0.054159842
169	0x3e158901	0.14603044
170	0xbda2a3c9	-0.07941396
171	0xbcb11440	-0.021616101
172	0x3d469051	0.048477475
173	0xbdb9c326	-0.09070425
174	0x3dfd7577	0.1237592
175	0xba5c3954	-0.00084008765
176	0xbc9f8477	-0.019472344
177	0x3de06f14	0.109586865
178	0xbdbe427c	-0.09290025
179	0x3e4d60c1	0.2005644
180	0xbda9f441	-0.08298541
181	0x3daa4971	0.08314789
182	0x3c803e3d	0.015654678
183	0xbe80f60d	-0.25187722
184	0xbd87da88	-0.066334784
185	0xbc09cb78	-0.008410327
186	0xbc435064	-0.011921022
187	0x3d81e26a	0.06342013
188	0x3df03fae	0.11730896
189	0xbd1f5a2c	-0.038904354
190	0xbe21bf81	-0.15795709
191	0x3df76681	0.12080098
192	0x3e0fae4e	0.14031336
193	0x3c67f7f0	0.014158234
194	0x3e0ee250	0.13953519
195	0x3d9baf82	0.07601835
196	0xbb292a79	-0.002581267
197	0x3d8a59ee	0.06755434
198	0xbe31766d	-0.17330332
199	0x3c6f4f7c	0.014606353
200	0xbd24806f	-0.040161546
201	0x3da28278	0.07935041
202	0x3d3e8f98	0.04652366
203	0xbdfc97c9	-0.12333638
204	0x3e0db047	0.13836776
205	0xbdb390d0	-0.08767855
206	0xbc17276c	-0.0092257075
207	0x3d75074f	0.059821423
208	0xbc431855	-0.011907657
209	0xbd646530	-0.055760562
210	0x3d21ad84	0.039472118
211	0x3da4be8c	0.080441564
212	0x3e67c231	0.22632672
213	0xbe182565	-0.14858015
214	0x3d4729a7	0.048623707
215	0xbc45ba8e	-0.012068404
216	0xbe0f26a6	-0.13979587
217	0x3d9a109b	0.075226985
218	0x3e02723a	0.12738886
219	0xbd1416bd	-0.036154497
220	0xbd99e0ec	-0.075136036
221	0x3e4683ec	0.19386262
222	0x3df9b510	0.12192738
223	0x3dcdfe69	0.100582905
224	0xbe362040	-0.1778574
225	0x3d3e1e5a	0.046415664
226	0x3e2a4bd4	0.16630489
227	0x3e37d11f	0.17950867
228	0x3da9ac64	0.08284834
229	0x3cda0506	0.026613723
230	0x3e5f6619	0.21816291
231	0xbd68fb74	-0.05688043
232	0xbb7d48e1	-0.0038648176
233	0xbd35b574	-0.0443625
234	0x3e5f7062	0.21820214
235	0xbcca3846	-0.024685036
236	0x3d72e4cd	0.059300233
237	0x3eaa7197	0.33289787
238	0xbd970379	-0.07373709
239	0x3e054ea0	0.13018274
240	0x3e0a62f6	0.13514313
241	0x3e285299	0.16437759
242	0xbe52b2ad	-0.20575972
243	0x3cf34efd	0.02970075
244	0xbdf0797f	-0.117419235
245	0x3db3f22f	0.08786427
246	0xbd7675f7	-0.060171094
247	0x3cae264e	0.0212585
248	0xbcbcaa08	-0.023030296
249	0xbe20a726	-0.15688762
250	0x3d5149d0	0.051095784
251	0xbde8e8d7	-0.11372536
252	0xbdc25c60	-0.094902754
253	0x3cc5275b	0.024066618
254	0x3cdf6e90	0.0272744
255	0x3cc82886	0.024433386

network_body._body_endoder.seq_layers.2.bias f4 [128]
0	0xbb31e589	-0.002714487
1	0x3b3a9ba2	0.0028474112
2	0xbbfe5de9	-0.00776266
3	0xbb9fde50	-0.0048787966
4	0x3d10492c	0.035226032
5	0xbc833dc3	-0.016020661
6	0xbca2c65e	-0.01986998
7	0xbab0600a	-0.0013456356
8	0x3d218c75	0.03944059
9	0x3d2a4747	0.04157188
10	0xbb5163aa	-0.0031950274
11	0xbbc2e80c	-0.0059480723
12	0xbc0fdea3	-0.008781108
13	0x3ae42bd4	0.0017408081
14	0x3cb4de68	0.022078708
15	0xbbddb0e5	-0.0067654722
16	0xbcffd47e	-0.031229254
17	0x3d64a6e5	0.055823226
18	0xbb0edec6	-0.0021800264
19	0xbc9d435f	-0.019197164
20	0x3ce4380b	0.027858755
21	0x3bcddd8a	0.006282513
22	0x3a5a7e3d	0.0008334851
23	0x3c0e6b36	0.008692553
24	0x3c8b7320	0.01702267
25	0xbba336a4	-0.004980879
26	0xbb938b13	-0.004502663
27	0x3ca98151	0.020691546
28	0x3d78645f	0.060642596
29	0xbbf04779	-0.007332739
30	0x3d66c620	0.05634129
31	0x3c5ec975	0.013597836
32	0x3d34936d	0.04408591
33	0xbbb13dd3	-0.0054089813
34	0xbc2e6d0d	-0.010646117
35	0xbb519cfb	-0.0031984437
36	0x3c7ac342	0.015305342
37	0xbc799083	-0.015232208
38	0x3c009634	0.007848311
39	0xbc89930c	-0.01679375
40	0x3c9d6bdc	0.01921647
41	0xb9d312d8	-0.00040259096
42	0x3d3d53c1	0.046222452
43	0x3d820af0	0.063497424
44	0xbc0a4bee	-0.008440955
45	0x3d4e9ec0	0.050444365
46	0x3bca0232	0.0061648125
47	0xbc4671ce	-0.012112094
48	0x3cb7c1ea	0.022431333
49	0x3cd61e83	0.026137596
50	0x3be1a79c	0.0068864357
51	0x3d97ff8c	0.074217886
52	0x3cf0d9b1	0.029400678
53	0x3d554b07	0.052073505
54	0x3c041322	0.008061202
55	0x3d382cce	0.044964604
56	0x3c6b8e40	0.014377177
57	0x3d3a09e6	0.045419596
58	0x3c997781	0.018733742
59	0xbc935beb	-0.017988166
60	0x3c520b7e	0.012820123
61	0x3cffaee7	0.03121133
62	0x3cc2c261	0.023774328
63	0xb9925b59	-0.0002791535
64	0x3b93a827	0.0045061293
65	0x3b848b88	0.0040449537
66	0x39600c6a	0.0002136693
67	0x3d8bc714	0.068250805
68	0x3cbf494b	0.023350378
69	0x3b5b39ef	0.003345128
70	0xbb4f796d	-0.0031658069
71	0x3d1dc180	0.038514614
72	0x3d05f38f	0.03270298
73	0x3d365eee	0.044524126
74	0x3d3b4d02	0.045727737
75	0x3d4ab93b	0.049493056
76	0xba44cc53	-0.00075072533
77	0xbd16769c	-0.03673421
78	0x3d10a734	0.035315707
79	0x3cf6c56a	0.030123431
80	0x3d1ef6f5	0.038809735
81	0xbcb6826f	-0.022278992
82	0x3c4c2803	0.012460711
83	0xbb93dd9b	-0.0045125014
84	0x3d844ea1	0.0646031
85	0x3d13cd2d	0.036084343
86	0x3c95b7b5	0.018276075
87	0x3d84407b	0.06457611
88	0xbcd65377	-0.026162846
89	0x3bf5d461	0.007502124
90	0xbccce256	-0.02501027
91	0x3b9c2c5f	0.0047660316
92	0x3c8bb824	0.017055579
93	0x3bea7d8e	0.0071560806
94	0x3d803796	0.06260602
95	0xbb6d573b	-0.0036215323
96	0x3cdb17f9	0.02674483
97	0xbccf617f	-0.025315044
98	0x3ccd760d	0.025080705
99	0xbc34a4b0	-0.011025593
100	0x3cbbfead	0.022948587
101	0x3c203ae1	0.009779663
102	0x3c81f82c	0.015865408
103	0x3c990855	0.01868073
104	0x3c3dfc21	0.011595757
105	0xbb514ef2	-0.0031937924
106	0x3d3e6787	0.04648545
107	0xbb64225c	-0.003481052
108	0x3b85de5a	0.0040853443
109	0x3d517336	0.051135264
110	0xbb59edff	-0.003325343
111	0xbcc52978	-0.024067625
112	0x3c899921	0.01679665
113	0xbc2b734c	-0.010464501
114	0x3aae0dd3	0.0013279266
115	0x3b898fa1	0.00419803
116	0x3d0544f2	0.032536454
117	0x3c1e3142	0.009655299
118	0xbc5035c7	-0.012708134
119	0xbc98c548	-0.018648759
120	0xbb0805c0	-0.002075538
121	0xba96176a	-0.001145107
122	0x3d35b4bf	0.044361826
123	0x3cf03c29	0.029325562
124	0x3d5ea8e8	0.0543603
125	0x3d043292	0.03227479
126	0x3cee0e88	0.029059663
127	0xbbb51333	-0.0055259704
